model/1x2_sparsemax_linearpmt_distill_fast_5l.pt (torch_old, 338401 bytes, 15 tensors)

nn_model.0.weight f4 [128, 2]
000000 63 3b f2 3e ca 3d f5 be cd 01 d1 3e ec 44 1e bf
       0.47310933 -0.47898704 0.40821686 -0.61823916
000010 23 43 75 be 8d c3 66 3e e0 20 c0 be 94 e3 c4 3e
       -0.23951392 0.22535534 -0.37525082 0.38454878
000020 ea 9d f0 bf e7 56 fe bf bd b4 af bf 37 57 28 bf
       -1.8798192 -1.987027 -1.3727032 -0.6575808
000030 c8 ed de 3d e2 dc 42 bf e3 9b 81 bb 9f e5 b7 be
       0.10885197 -0.7611829 -0.0039553507 -0.35917374
000040 ed c4 9f bf 62 0d 2e bd 59 b7 ed be 14 66 76 bd
       -1.2481972 -0.04249323 -0.46428946 -0.060155943
000050 00 11 a8 3e 58 04 83 be d5 20 98 3e 60 9c ad be
       0.3282547 -0.25589252 0.2971255 -0.33908367
000060 36 3d c7 3e 54 b1 09 bf 05 52 23 be eb ed 61 be
       0.38913888 -0.53786206 -0.15949257 -0.22063415
000070 7c e8 12 3c 16 d2 66 3d ec c7 83 be 2f 07 c1 bf
       0.008966561 0.056352697 -0.25738466 -1.5080317
000080 c8 6a b8 bf c2 06 b7 be ea b4 b2 be c3 ac bf 3e
       -1.4407587 -0.35747343 -0.3490365 0.37436494
000090 dc d6 e3 be 70 65 e6 be 12 94 f6 bd 14 bf 1e 3e
       -0.44499862 -0.44999266 -0.12039961 0.15502578
0000a0 6f 48 9b be 2b d9 ad bf c5 f9 e3 bf 08 65 98 be
       -0.303287 -1.35819 -1.7810599 -0.2976458
0000b0 bf 5e b5 3c 46 f6 b3 3d 31 fe f4 be 84 c6 83 3e
       0.022139905 0.08787207 -0.47850183 0.25737393
0000c0 c4 2c 6a bd d1 a3 0e bf 36 d2 ed be 69 0e 8a 3e
       -0.057171598 -0.55718714 -0.4644944 0.2696412
0000d0 f4 ad d0 bf 64 a6 02 bf f4 24 a2 bc 8b 16 da be
       -1.6303086 -0.5103514 -0.019793011 -0.42595324
0000e0 4d 76 05 be c7 ef 79 bf 18 29 19 3a 1f e8 05 bf
       -0.1303341 -0.97631496 0.000584261 -0.52307314
0000f0 11 bb 81 bf 8a fe 40 bf 5f b1 15 be fa e8 e2 bf
       -1.0135213 -0.75388396 -0.14618443 -1.7727349
000100 17 fd 62 3e f5 cd 2a be 5a b6 02 bf 48 38 0a bf
       0.22166859 -0.16680129 -0.51059496 -0.5399213
000110 3c 7c 2b bf 51 5f e4 3e d8 e0 71 be 6e 5d 7a bd
       -0.6698644 0.4460397 -0.23620927 -0.061124258
000120 ed 08 f3 be a9 36 73 be b7 83 d2 3e 48 2b c1 3e
       -0.47467747 -0.2375132 0.41116115 0.37728333
000130 03 57 b2 bf 49 91 7b bf eb 81 e4 be a6 d5 ab be
       -1.3932804 -0.9826856 -0.4463037 -0.33561438
000140 64 aa 86 bb 1a 6b f7 3e 16 54 05 c0 62 f2 49 bd
       -0.0041096676 0.483239 -2.0832572 -0.04930342
000150 17 9b 46 be 5f 56 dd bd c5 55 af 3e 54 31 fc bd
       -0.193951 -0.108074896 0.34245124 -0.12314096
000160 18 89 53 bf c5 be f9 bf 0a ac 51 be 18 9d c0 bf
       -0.82631063 -1.9511343 -0.20475784 -1.5047941
000170 6c ff c8 bf 65 8b e6 be 33 2c c6 be bb db 8d be
       -1.5702949 -0.45028225 -0.38705596 -0.27706704
000180 64 27 b1 3e ea 40 13 3f b0 e4 c6 bf e6 6a ea be
       0.34600365 0.57520926 -1.553854 -0.45784682
000190 98 9a 41 3e e8 6b 12 3e 4c 15 a7 bf a9 86 81 bf
       0.18906629 0.14298975 -1.3053374 -1.011922
0001a0 09 d9 91 bf 7a 25 be bf 95 bc cc bd 5e cf a4 3e
       -1.1394359 -1.4855187 -0.09996907 0.3218946
0001b0 32 8c d1 3e ea 68 4f bd 6e 81 7d bc a3 60 cc be
       0.40927273 -0.050637163 -0.015472753 -0.39917478
0001c0 ad 1a f9 bb 62 37 bb bf 6e 24 ae be 02 8d 0d 3d
       -0.007602057 -1.4626276 -0.3401217 0.034558304
0001d0 c9 49 2e bb d0 51 5e bf c6 56 fc 3e 79 4a aa 3d
       -0.0026594272 -0.86843586 0.49284953 0.08314986
0001e0 39 5c 89 3e b8 2f 44 3e 51 02 dd 3e e0 ff 17 bf
       0.26828173 0.19158828 0.4316583 -0.5937481
0001f0 fb cb 9f bf 0a 65 06 bf 79 e3 e5 bf 48 12 83 be
       -1.2484125 -0.52497923 -1.7960044 -0.25599885
000200 a9 e1 2c 3e a5 92 78 3e 97 6d ff be c3 a8 07 3f
       0.16882958 0.2427469 -0.49888298 0.52991885
000210 b7 94 a0 3e b3 2a 8d 3e 3b 44 c7 be 57 cc 46 be
       0.3136346 0.2757164 -0.38919243 -0.19413887
000220 c8 f8 56 3e de 27 a8 bd f3 50 1a b5 9d ff 91 be
       0.2099334 -0.08210729 -5.748727e-07 -0.2851533
000230 bd af 71 bd 4f f6 30 be ca 58 24 bf 01 02 e0 35
       -0.059005488 -0.1728146 -0.6419798 1.6689884e-06
000240 be 06 f4 3a 8f c8 bf bd ef f0 42 bb db 9d f0 3e
       0.0018617732 -0.093644254 -0.0029745658 0.46995434
000250 79 21 d0 bc 35 ca e8 be 25 54 15 be 07 72 a7 be
       -0.025406586 -0.45466772 -0.1458288 -0.32704183
000260 66 a5 e0 be 42 1a 0c be e8 2a 9c bf ba c0 ef be
       -0.4387619 -0.13681892 -1.2200594 -0.46826726
000270 b2 63 de be 73 39 95 3e df 93 de bf ba e6 8c bf
       -0.43435436 0.29145393 -1.7388877 -1.1007912
000280 df 96 e2 3e 63 de e6 3e 33 5d 95 be b3 f1 94 3d
       0.4425573 0.45091543 -0.29172668 0.07272663
000290 cd 27 42 bf 82 27 bd bf 60 de 9b be 80 2d 3a bb
       -0.7584198 -1.4777682 -0.30443096 -0.0028408468
0002a0 ec 80 d0 bf 53 03 1a bf 34 bc e2 be 04 ac c2 bf
       -1.6289344 -0.6016132 -0.44284213 -1.5208745
0002b0 28 56 86 3e 02 cb 8d be b3 3a 0f 3e d2 94 0a 3f
       0.26237607 -0.27693945 0.13987236 0.5413333
0002c0 82 b2 a1 be ca a4 35 3e 40 b9 05 c0 cd 74 93 bf
       -0.31581503 0.17738643 -2.0894318 -1.152002
0002d0 97 33 52 be a5 ba d1 bd 3f 77 65 be 09 94 94 3d
       -0.20527492 -0.10240678 -0.2240877 0.07254798
0002e0 d4 dc 71 be 13 57 f7 3d 40 cd 62 be 22 84 54 bd
       -0.23619395 0.12077155 -0.22148609 -0.051883824
0002f0 59 4e 29 c0 b9 5e 3d c0 72 35 f1 3d ac 01 40 bd
       -2.645407 -2.9589064 0.11777772 -0.046876594
000300 91 f7 bc bf 3b 52 b7 bf 47 2c e7 bb 44 65 82 be
       -1.4763051 -1.432197 -0.007054839 -0.25467885
000310 c2 2d 8f 3e 53 a9 d1 bd 2f da 63 3d 3a fa 0a 3e
       0.27964598 -0.10237374 0.055627998 0.13572016
000320 bc be b0 bf 6e 82 f7 be d6 f9 44 3e c0 35 39 be
       -1.3808208 -0.48341697 0.1923593 -0.1808691
000330 93 c6 49 bf 30 58 74 bf df 6c 28 ba 66 e9 44 bf
       -0.78818625 -0.95447063 -0.00064249145 -0.7691864
000340 dc b3 d4 be b7 96 ed 3d e3 e5 d0 bf 70 81 52 bf
       -0.41543472 0.11601012 -1.6320156 -0.82228756
000350 ba 20 ec bf 09 84 8a be fd af 06 bf f1 8c 9c 3e
       -1.8447487 -0.2705386 -0.52612287 0.3057628
000360 83 28 fa 3e 0b bf 9e 3c da 7e 88 be 9c 73 e2 3e
       0.48859033 0.019378206 -0.2665928 0.44228828
000370 62 68 96 be b1 81 74 be 23 ef 86 be 83 a5 86 be
       -0.29376513 -0.23877598 -0.26354322 -0.2629815
000380 7d f3 55 bf 84 de 67 bf ca 2d cb bf 37 4a 0a c0
       -0.8357466 -0.90573907 -1.5873349 -2.1607797
000390 a4 7d 71 bd 72 3d dd bd a4 42 75 bd 39 c5 9d 3e
       -0.05895771 -0.108027354 -0.059878007 0.3081453
0003a0 d2 90 91 3e 93 17 07 bf 71 11 8b bf 82 b0 a9 bf
       0.28430802 -0.52770346 -1.0864698 -1.3256991
0003b0 6e 15 ba be fc 8d e8 bd 40 66 ee 3e 79 a1 65 3e
       -0.36344475 -0.11355206 0.46562386 0.22424878
0003c0 c1 4a c6 3e e1 19 ab 3e 7b 6e da bf 2c a4 29 bf
       0.38728908 0.33418182 -1.7064966 -0.6626613
0003d0 49 13 e1 3e 28 63 01 bf 23 cc e3 3e 44 c8 e2 3c
       0.43960026 -0.50541925 0.4449168 0.027683385
0003e0 c6 d3 74 be f6 10 d0 bf 6d 8b a3 be 9d a4 06 c0
       -0.2390891 -1.6255176 -0.3194231 -2.1037972
0003f0 42 88 1e be 1f 3c 63 3d a9 39 ee bd 9e 58 be 3e
       -0.15481666 0.055477258 -0.116320916 0.37176985

nn_model.0.bias f4 [128]
000000 52 94 15 3f 9e 0c 09 3f 18 a0 c3 3e 48 b7 c1 3e
       0.58429444 0.5353488 0.3820808 0.37835145
000010 ae 8a 9c bf b4 cc da bf 09 32 4e bf 86 00 9c be
       -1.2229822 -1.709372 -0.805451 -0.3046915
000020 dc 0a 91 bf c9 aa b9 3e 0a 29 36 3d cd ba 85 bd
       -1.1331439 0.3626311 0.04447273 -0.0652977
000030 ca 1b 9e 3d 00 4a f4 3e bf 0a fb 3d 0d bc e1 bf
       0.07720144 0.47712708 0.12257909 -1.7635514
000040 c5 24 e0 bf d7 99 23 3e dc 4a 31 3f bc 3a 80 3e
       -1.7511221 0.15976654 0.6925485 0.2504481
000050 e1 c6 e7 bf 3d db d8 bf e8 9f a1 3e 42 6f b1 3e
       -1.8107568 -1.6941906 0.3156731 0.34655195
000060 f6 1b e2 bf 28 7f 9b 3d 2a 0b d7 bf 83 61 d2 3e
       -1.7664783 0.075926125 -1.6800282 0.4109002
000070 fb ce 88 be 04 cd 10 3f 52 66 e7 bf e0 44 db bf
       -0.26720414 0.5656283 -1.8078101 -1.7130394
000080 0f c6 a8 3e e0 28 37 3f 50 e9 95 3e df 74 bf 3e
       0.32963607 0.71546745 0.29279566 0.37393853
000090 17 e0 ed bf 74 40 cf 3e 96 3d d5 bf d4 fa 2a 3f
       -1.8584012 0.4047886 -1.665942 0.66788983
0000a0 5c ff 38 bf 5f c6 66 bf 6e 32 06 3f e7 97 2a bf
       -0.7226465 -0.9014644 0.524207 -0.66638035
0000b0 09 9f ba bf f9 19 e4 bf 08 e9 dd bf f6 7e 6f 3f
       -1.4579784 -1.7820426 -1.733674 0.935531
0000c0 49 1b 4d bf 3d 88 d7 bf b6 a8 19 bf 4f 1d d3 bf
       -0.8011976 -1.6838452 -0.6002306 -1.6493319
0000d0 a0 8f ca bf aa e1 a5 3e 8b 25 89 3e 67 e3 c0 bd
       -1.5825081 0.3239873 0.26786456 -0.094183736
0000e0 49 f3 83 bf 80 1c 3c 3e a1 49 ad be f8 8e 38 bf
       -1.030862 0.18370247 -0.33845237 -0.72093153
0000f0 de c0 df 3e e5 e6 07 3f d5 56 e6 bf 4e 94 da bf
       0.43701833 0.5308669 -1.7995249 -1.7076509
000100 c4 d9 6a b9 fa 7e ef 3e 3d 24 8b bf f5 97 59 3f
       -0.00022397103 0.46776563 -1.0870434 0.84997493
000110 53 67 b3 3e f6 20 c9 3d 9d 0d 91 3d 29 73 1b 3f
       0.35039768 0.0982074 0.07082675 0.60722595
000120 21 93 c5 3e 5b 95 3b bf b8 b5 3c be 6f f0 b4 3e
       0.38588813 -0.73274773 -0.18428695 0.35339686
000130 ee c6 f8 3e 10 9a e8 bf 39 71 55 3e 8c 14 ba bf
       0.4858927 -1.8172016 0.20843972 -1.453752
000140 f2 6d 8c bf 7c 68 32 3e 6d 40 d0 bf 80 2b 03 bd
       -1.0971053 0.1742267 -1.6269661 -0.032023907
000150 70 03 d2 bf e2 d4 da bf 99 15 9e be f8 34 55 be
       -1.6407299 -1.7096217 -0.30875853 -0.20820987
000160 fb f7 8f 3e 71 c2 6f bf 7d d2 eb 3e 48 ce ac 3d
       0.28118882 -0.9365607 0.46059027 0.084377825
000170 00 c1 25 bf 55 03 bc 3e c5 01 63 bf df 2a 17 3d
       -0.6474762 0.36721292 -0.88674575 0.03690612
000180 de 71 b8 bf b9 bb 61 be 93 fb 40 be b7 01 48 be
       -1.440975 -0.22044267 -0.18845968 -0.19531904
000190 c2 f0 de bf 87 94 8c be d0 0d e5 bf 3a 3c 21 bf
       -1.7417223 -0.27457067 -1.789484 -0.62982523
0001a0 d7 6a 9e 3e ff b0 cc bf 22 af d2 bf 8f 46 52 be
       0.30940887 -1.5991515 -1.6459696 -0.20534728
0001b0 66 c0 18 be 28 f5 9e bc 7b 85 eb 3d c7 c8 dc 3e
       -0.14917144 -0.019404009 0.11500069 0.4312193
0001c0 47 5a e3 bf fd 1b 9f bf 4b ec 8c 3e bb a7 f9 3e
       -1.7761925 -1.2430416 0.27524027 0.4876078
0001d0 26 d6 06 bf 36 23 cb bf bd dd 47 3f b4 33 a5 3e
       -0.52670515 -1.587012 0.7807272 0.3226601
0001e0 ca 18 44 bf 6d a8 cc bf e9 49 24 3e 64 6f ce bd
       -0.76600325 -1.59889 0.1604382 -0.1007984
0001f0 33 aa de bf 87 b3 c7 bf 32 ab 20 3e 96 30 cc be
       -1.7395691 -1.5601662 0.15690306 -0.39880818

nn_model.2.weight f4 [128, 128]
000000 a5 27 05 bd 26 af c8 bc 2b d7 81 bd 6c 58 9a bd
       -0.03250851 -0.02449758 -0.06339868 -0.075363964
000010 80 d7 e5 bc 50 74 92 bb f5 78 5f bd c0 0a f9 bd
       -0.02805686 -0.004469432 -0.054558713 -0.121602535
000020 ce 3e 8f bd 9b b7 0c be 0b 9c 11 bd 37 ce f9 bd
       -0.06994401 -0.13741915 -0.035549205 -0.121975355
000030 b7 8d 67 bd 08 43 d4 bd 71 f6 00 be 4e f1 2d 3d
       -0.056531634 -0.10364348 -0.1259401 0.042466454
000040 b8 e3 57 3c ea 52 b3 bc 09 f2 9c be 81 ef 27 be
       0.013176851 -0.021890122 -0.30653408 -0.16399957
000050 6a fc 64 3d 90 5a 88 bc e0 a5 f6 bd 33 e9 e3 bc
       0.055904783 -0.016644746 -0.12043357 -0.027821159
000060 0d 22 b6 bd b0 4e 11 be 70 f2 02 bc e4 5c 7a bc
       -0.088932134 -0.14190173 -0.007992372 -0.015280936
000070 09 4c 76 bd b2 ad 79 bc ee 23 f8 bc 44 b7 47 bd
       -0.060131107 -0.015239166 -0.03029057 -0.04875876
000080 bf 34 80 bc 1c f3 74 bd 74 97 d9 bb 5c 80 f1 bd
       -0.015650151 -0.05980216 -0.006640369 -0.11792061
000090 79 fa d0 3c f6 60 b5 bd b5 71 aa bd d6 21 a1 be
       0.02551006 -0.088563845 -0.08322469 -0.31471127
0000a0 b6 32 72 bd c6 0f 89 bd 4e 1e 72 be cf 61 b1 bd
       -0.059130393 -0.06692462 -0.23644373 -0.08661234
0000b0 f5 cd 65 bd b7 14 b1 3d d4 fe b3 bd 4d 4b 01 bf
       -0.05610462 0.08646529 -0.08788839 -0.50505525
0000c0 79 a0 b1 bd 59 dd 93 3d 08 02 63 bd 16 0a 0b 3d
       -0.08673186 0.07219953 -0.05542186 0.033945166
0000d0 3c b0 84 bd 8a 1e 52 bd 6c 76 b9 bd 2f f4 7d bd
       -0.064789265 -0.051298656 -0.0905579 -0.06200045
0000e0 bb 2d b0 bd 74 c6 56 bd 7b c3 99 bd b2 42 d4 bd
       -0.086024724 -0.052435353 -0.07507988 -0.103642836
0000f0 56 b8 44 bf 10 94 cd bd 3a 44 6b 3d 1f 2d 11 bd
       -0.76843774 -0.10038006 0.057438113 -0.03544342
000100 d4 d5 05 bd 94 3a ce bd 3b cb a7 bd 2e f1 3a bf
       -0.032674626 -0.10069767 -0.0819306 -0.7302426
000110 bd c8 27 be 11 fc 93 bd e8 66 1a bf e7 2a 93 bd
       -0.1638517 -0.07225812 -0.6031327 -0.07185917
000120 dc c9 da bd c7 89 66 bd fb 82 5c bd 86 0f 14 be
       -0.10683033 -0.05628374 -0.05383585 -0.14459047
000130 87 cb 27 bd 08 fd 8d bd 86 e1 0d be 5c 56 dd 3c
       -0.040965583 -0.069330275 -0.13855562 0.027018718
000140 e8 f9 d3 bd da 7e e1 bd 05 98 ae bd 33 07 c4 bd
       -0.103504 -0.11010523 -0.08525089 -0.09571686
000150 6c d7 f1 3c 40 8d a7 bd c2 3c 1b be 0e 80 70 bd
       0.029521666 -0.08181238 -0.15159896 -0.058715872
000160 cf 02 08 be 89 30 b6 bd ed d6 eb bd cb 85 a2 bd
       -0.13282321 -0.08895976 -0.11515603 -0.07935675
000170 e1 29 0f be 1a 46 0d be 79 a3 50 bc 98 ae 21 be
       -0.1398082 -0.13796273 -0.012734287 -0.15789258
000180 68 8b 4b bc 42 d9 ee bd 82 da 05 be e6 01 53 bd
       -0.012423374 -0.116625324 -0.13071635 -0.051515482
000190 26 54 8b bd 44 b6 04 be c6 76 4e 3d 02 8c 59 bd
       -0.068031594 -0.12960154 0.05040624 -0.053112037
0001a0 15 1e 9e bb e8 8a c1 bc c1 de 2e bd 8e 3b d0 bd
       -0.0048253634 -0.023625806 -0.042692903 -0.10167609
0001b0 8e 8a 8c bd 7e 45 8c bc d4 78 28 be 04 52 90 bd
       -0.06862365 -0.01712298 -0.16452342 -0.07046893
0001c0 0a 26 20 3d 59 5e 47 bd 53 ba 07 be 7a 3f 3f bd
       0.039098777 -0.04867396 -0.13254671 -0.046691395
0001d0 32 bd 1c be 04 93 ab 3c b3 37 9b bf 31 e3 46 bd
       -0.15306547 0.020944126 -1.2126373 -0.04855651
0001e0 8d a3 33 be 46 95 5e 3d 8c 1e 19 be fe 1a 0e be
       -0.17542858 0.054341577 -0.14953059 -0.13877484
0001f0 00 bb aa 3a 21 a4 8e 3d 82 85 19 be 3b 48 d6 bd
       0.0013025701 0.06964899 -0.14992335 -0.104629956
000200 7c 9f 9c 3c 16 94 56 bd 53 2f d6 bb 39 7a fc bd
       0.019119017 -0.05238732 -0.006536403 -0.123279996
000210 60 b5 e3 bc d9 da 37 bd 3e 42 21 3c b0 b3 9b bc
       -0.027796447 -0.044886444 0.0098424535 -0.01900658
000220 34 10 c9 bd 7f e3 34 bd d7 51 1a bd a2 9b 95 bd
       -0.098175436 -0.04416227 -0.037675705 -0.07305075
000230 97 53 b9 bd f6 6f 94 bd 7f f6 ad 3c 9e c3 81 bd
       -0.090491466 -0.07247917 0.021235703 -0.06336139
000240 aa f2 80 bd 13 f4 82 bd 59 73 f0 be 73 2b 94 bc
       -0.062962845 -0.0639421 -0.46963003 -0.018087124
000250 40 d3 2d 3b d0 4d ae bc 6a 87 c9 bd 22 71 59 bd
       0.002652362 -0.021277338 -0.09840281 -0.053086407
000260 e3 2f 58 bd 5d 84 4c bb b9 34 b0 bd e0 06 c6 bd
       -0.052780043 -0.0031206824 -0.08603806 -0.0966928
000270 c3 1a de bd a5 d0 66 bd 45 10 8d 3d a9 ab 9e 3d
       -0.10844948 -0.056351323 0.06887869 0.07747585
000280 87 33 f3 bd 99 70 32 bd 05 2d e5 ba 4f 23 c2 bb
       -0.118750624 -0.043564413 -0.001748473 -0.0059246193
000290 bf 05 97 3c 03 b4 3b bd 4c 40 73 bd ee f6 3c be
       0.018435357 -0.04582597 -0.05938749 -0.18453571
0002a0 4c b3 81 bd a0 d6 8f bc 9e 19 cf bd 87 16 98 ba
       -0.06333026 -0.017558396 -0.10112308 -0.0011603393
0002b0 41 d0 a2 3d 63 52 a8 3d 47 bd a4 bd 9c 6a 81 be
       0.079498775 0.08218839 -0.08043914 -0.2527665
0002c0 6e 77 97 bd 58 df 66 bd 87 fa ce 3c 70 cc ff bb
       -0.07395826 -0.05636534 0.025265945 -0.0078063533
0002d0 aa 27 70 bd d9 61 a8 bd 7b 2e bb bd bd 59 a5 bc
       -0.058631577 -0.08221788 -0.09139725 -0.020184392
0002e0 86 bd e0 bd a7 04 ff bd 52 dc fd bd 44 60 29 ba
       -0.10973649 -0.12452059 -0.123955384 -0.0006461183
0002f0 ee 91 9d be 20 a9 bd bd 40 8e b3 3c 2d a0 85 3d
       -0.30775398 -0.09260774 0.021918416 0.06524692
000300 ed 3f c9 bc e9 86 66 bd 28 f2 51 bd ab 82 c5 bf
       -0.024566615 -0.056281004 -0.05125633 -1.5430502
000310 22 8d 78 bb 76 12 cd bd 5c 73 f9 bd 6e 17 15 bc
       -0.0037925919 -0.10013287 -0.12180206 -0.009099824
000320 3c 42 ce bd 76 4a 8a 3c 9e e0 b7 3c d8 64 9c bd
       -0.10071227 0.016881209 0.022445973 -0.07636422
000330 34 b1 80 bd 8a 6c 34 3d 39 17 d9 bd cc 2b 0f 3d
       -0.06283799 0.044048823 -0.106001325 0.034953877
000340 62 7a 83 bc f6 d0 06 bc 10 3c 9d bd 2d de df bd
       -0.016049568 -0.008228531 -0.07677472 -0.109310485
000350 22 9a 22 3d 04 69 02 3d 5d a0 f1 bd fa d4 b1 bd
       0.039697774 0.031838432 -0.11798165 -0.086832
000360 43 71 f4 bd 59 55 e4 bd a7 3c ae bd 83 6b aa bb
       -0.119356655 -0.11149091 -0.08507662 -0.0052008047
000370 7c 41 53 bd 0c bc 1a b9 ad c9 e8 3d 86 d4 30 bb
       -0.051576123 -0.00014756637 0.113665916 -0.0026982143
000380 e6 0c a2 bd b1 59 bd b9 bb b9 78 bb 5e ad 7e 3c
       -0.079126164 -0.00036115714 -0.00379525 0.015544264
000390 4c 90 b2 bd 2b 45 a6 3b fd 2b 94 3d ca da ee bd
       -0.08718929 0.0050741634 0.072349526 -0.116628245
0003a0 4b f6 e9 bc 05 88 9a 3d 26 a8 83 bd ec a2 b0 bd
       -0.028559824 0.07545475 -0.06428556 -0.08624825
0003b0 f4 0e 6f bb 38 1e 62 bc 4a 35 89 bb 08 cb ba ba
       -0.0036477419 -0.01380115 -0.0041872608 -0.0014251182
0003c0 6f 4e 9b 3d 00 82 34 bc a7 fc d5 3c 6e b3 02 be
       0.075833194 -0.011017323 0.02612145 -0.1276376
0003d0 6f a9 ac bd d0 dd 9a bc 9b 3c 1c bf 6c d9 cc 3c
       -0.084307544 -0.018904597 -0.61029977 0.025006019
0003e0 9d cd 07 bb ce 15 69 3d 5c c9 5f ba 3d b9 d1 bd
       -0.002072192 0.05690556 -0.000853678 -0.102404095
0003f0 08 ba 27 bc 58 77 53 3c fe 7f 8c bc 10 c0 ec ba
       -0.010237224 0.012906872 -0.017150875 -0.001806261

nn_model.2.bias f4 [128]
000000 1d d8 72 bd fc 8e a7 bb e6 fb d0 bb 80 e5 07 be
       -0.059288133 -0.0051134806 -0.006377685 -0.13271141
000010 55 d9 61 bd 9c e8 07 3e 44 72 07 3c 22 fc 5d be
       -0.055138905 0.13272327 0.008266989 -0.21678212
000020 af e7 56 be cc db 97 be 09 79 8a be 11 95 8a be
       -0.20986818 -0.2965988 -0.27045467 -0.27066854
000030 e5 2d d0 bc d1 ff a0 be 6c dc f2 bd 1d 1f c0 bd
       -0.02541251 -0.31445172 -0.118584484 -0.093809344
000040 49 29 88 be d2 93 ab bd c3 55 88 be c5 0c 86 be
       -0.26593998 -0.08377804 -0.2662793 -0.26181617
000050 23 ad af 3c d4 19 27 be 30 57 62 be ab 9f 10 3d
       0.021444863 -0.16318446 -0.22103572 0.03530852
000060 48 67 8d be f6 a5 94 be d0 14 a6 be 74 ac e1 bd
       -0.2761786 -0.29032868 -0.32437754 -0.11019221
000070 ea 11 bd be 38 35 c7 bb 53 a1 6f be 36 f0 8f be
       -0.3692773 -0.006079342 -0.23401384 -0.28112954
000080 d9 bf 6f bd 9d 99 1c be a1 66 a2 bd 78 e0 66 bc
       -0.05853257 -0.15292974 -0.07929731 -0.014091603
000090 57 79 98 be 78 38 46 be 62 a4 9d bd 9f 83 50 be
       -0.29780075 -0.19357479 -0.07697369 -0.2036271
0000a0 e1 d6 68 be 1d e8 09 be bb 5b 9a bc 31 c8 b4 be
       -0.2273822 -0.1346745 -0.018842569 -0.35308984
0000b0 8b a5 68 be d5 b7 13 3d d1 fb 1f bc 37 90 a0 be
       -0.227194 0.036063988 -0.009764628 -0.31360027
0000c0 db 75 92 bd 71 21 16 bd fd 36 a9 bd 03 ea 83 bd
       -0.071513854 -0.036652986 -0.08262441 -0.064411186
0000d0 3e e6 11 be 80 47 ef bd bd c2 3d be 1e f9 c9 be
       -0.14247987 -0.116835594 -0.18531318 -0.39447874
0000e0 4d 88 1f be fa 2a 00 be 2c 85 e1 bc d6 ed e4 bd
       -0.15579338 -0.12516394 -0.027529322 -0.11178176
0000f0 86 cc 12 be 8e 48 b7 bd cc 13 76 bd 98 ee 38 be
       -0.14335832 -0.089493856 -0.060077474 -0.18059766
000100 55 51 ad be 68 fc 7c be f9 21 2f bd ce 4f e6 bd
       -0.33851114 -0.2470566 -0.04275701 -0.1124569
000110 97 10 e8 bd 82 04 33 be bd 7a 93 be c5 ce 56 be
       -0.11331289 -0.17482188 -0.2880458 -0.20977314
000120 00 b6 a1 be 4d e4 03 be a5 60 2a bd b1 75 d2 bd
       -0.31584167 -0.12880059 -0.041596074 -0.10276354
000130 60 a7 b1 be 34 cc 21 bd 66 cc d2 bd 87 97 c1 bd
       -0.3469801 -0.039501384 -0.10292892 -0.0945273
000140 6d 53 a0 bd 8e 9f d5 be b5 e5 ba be 8b 04 1a be
       -0.07828412 -0.41723293 -0.36503378 -0.15040796
000150 2d 5b fc bd fa 6d c3 bc 68 15 bb bd 15 51 90 be
       -0.12322078 -0.023856152 -0.09134942 -0.2818686
000160 86 01 1f be b7 d8 0b be 85 fb 0c bc a3 88 41 be
       -0.15527925 -0.13656889 -0.008604889 -0.18899779
000170 e8 2a fe bd 47 3a a4 be a8 25 1c 3e 58 64 03 be
       -0.124105275 -0.32075712 0.1524874 -0.12831247
000180 9f 90 8a be 3a e3 cc 3a 7b 4b a5 bd a4 15 a8 bd
       -0.27063462 0.0015631684 -0.080710374 -0.082072526
000190 60 8d 50 be af 74 c6 bb 27 aa 7a bd 65 9e c5 bd
       -0.2036643 -0.0060563902 -0.061197426 -0.09649352
0001a0 4d 35 5a be b9 2f 2a be d3 2e 9e be 17 e5 5e 3c
       -0.21309395 -0.16619767 -0.308951 0.013604424
0001b0 b2 53 13 bd bb 55 7a be 67 bb b3 bd 86 95 04 ba
       -0.03596849 -0.24446766 -0.087759785 -0.0005057681
0001c0 df 70 15 be 4e 62 ff bd fb bc 9b be 42 2c 06 3d
       -0.14593838 -0.12469922 -0.30417618 0.03275705
0001d0 5b f3 a9 bd fc 1f db bd 27 4c d3 3c 63 07 68 bd
       -0.082983695 -0.1069946 0.025793148 -0.05664767
0001e0 b3 68 e7 bc 31 64 9e bc 5d 14 15 be 53 57 ea bd
       -0.028248167 -0.019334884 -0.14558549 -0.11442437
0001f0 ba 76 7b bd cd 5c 91 bd 5a 13 b1 be 2c b0 b8 bd
       -0.061392523 -0.070977785 -0.34585077 -0.09017977

nn_model.4.weight f4 [128, 128]
000000 66 45 58 bd 7c a1 92 bc 95 65 bd bd 48 6a c5 bd
       -0.05280056 -0.017899267 -0.09247891 -0.09639412
000010 06 7c a5 bd 02 9c 72 bf f7 94 8b bd 38 da 33 3b
       -0.08080296 -0.947693 -0.06815522 0.00274433
000020 17 c5 08 bd 2b e0 df bc 7d 6d 3d bd 60 4c da 3c
       -0.033391085 -0.027328571 -0.046246994 0.026647747
000030 90 d6 82 bd d0 fc 8a 3d f1 d7 35 bc cc df 2c bc
       -0.06388581 0.067865014 -0.011098848 -0.010551404
000040 bc 8d 53 3d b3 87 08 3d bb 7b 1d 3d cc 4f 94 3c
       0.05164884 0.033332538 0.038448077 0.018104456
000050 0b 2d b0 bd 70 09 80 bd 86 8d 81 bd 6f fb 86 bd
       -0.08602341 -0.062518 -0.063258216 -0.06590926
000060 44 e1 3c bc d7 92 b7 bc 74 39 12 3d 96 5e 89 bd
       -0.011528317 -0.022408886 0.035699323 -0.06707494
000070 23 52 c1 bc d1 23 af bc 5a cc 82 3c 30 5f 09 3d
       -0.023598736 -0.021379383 0.015966583 0.033538043
000080 fb ae 88 bd 1f 9c b0 bc 57 19 97 3c c3 31 8f bd
       -0.06674 -0.02155882 0.0184447 -0.06991913
000090 76 8f d1 bc 2e 43 d9 3c 9c 5a 7b 3d 6b 6c 63 bc
       -0.025581103 0.026521292 0.06136571 -0.013880829
0000a0 b2 44 44 3d f7 aa a6 bd a9 a5 96 bd 1f 3d 0a 3d
       0.047917075 -0.08138078 -0.07355816 0.033749696
0000b0 b9 cb dc 3c 05 2a 5a bd fd e1 27 bd d9 c8 3f bd
       0.026952611 -0.05326273 -0.040987004 -0.046822403
0000c0 05 75 9a bc b1 ab a6 bd 99 f6 52 bd 70 a8 2d bd
       -0.018854627 -0.08138216 -0.051504705 -0.042396963
0000d0 96 ef ed 3c af db 80 bd 65 ec 87 3d a8 26 67 bd
       0.029044908 -0.06291901 0.066368856 -0.05643335
0000e0 76 a5 b7 bc 82 54 30 3c 4b 87 64 bd bf 4a 49 3d
       -0.022417765 0.010762336 -0.055793088 0.04914355
0000f0 ab 4d 9a bd db fe bc bc 21 80 ce 3c 42 d5 0a bd
       -0.07534345 -0.023070743 0.025207581 -0.033894785
000100 a3 36 c4 3c 39 57 02 bd b1 df 8e bd f2 b1 49 bd
       0.023951834 -0.031821463 -0.069762595 -0.049241967
000110 0e bd 35 bc de a8 24 bd 9e fb cb 3b 49 15 37 3c
       -0.011092437 -0.040200107 0.0062250635 0.011174508
000120 14 1d 2d 3c 74 46 ce bc 57 14 af 3c d8 fc a7 3b
       0.010566015 -0.025180079 0.021372003 0.005126577
000130 dc d1 df 3c 9d f1 20 bd 2d 57 8d bd 27 fc 5e bc
       0.027321748 -0.03929292 -0.06901393 -0.0136099225
000140 36 42 8b 3c 03 79 c1 3b 2a 14 8a 3b 1b 15 87 bc
       0.016999345 0.0059043183 0.0042138295 -0.016489556
000150 40 7f 25 bd 5a 2f 6b bd de e0 6f 3d 01 2f 4f bd
       -0.04040456 -0.057418205 0.05856406 -0.050581936
000160 45 c7 f2 3c 7c 60 b5 bd a0 fb 35 bd 37 c1 04 bd
       0.029636035 -0.088562936 -0.04442942 -0.032410827
000170 45 67 4b bd 70 8f 6d 3b 51 ff bf bf 50 2a c8 3c
       -0.049659032 0.0036248825 -1.4999791 0.024434239
000180 f4 1b e9 3c 27 a7 31 bd 12 8e 82 bd 98 b9 b5 bd
       0.028455712 -0.0433723 -0.06374754 -0.0887329
000190 cf f4 aa 3c 86 b8 52 bd 43 7d 9e bd 07 36 44 3d
       0.020868687 -0.051445507 -0.077387355 0.047903087
0001a0 68 3f 54 bb 05 e1 08 bd be 57 2b bc 62 4d 3f bd
       -0.0032386426 -0.03341772 -0.010457931 -0.046704657
0001b0 62 7a a7 3c ab ab 30 3d 63 e3 a5 bd 64 ab a9 bd
       0.020444099 0.043132465 -0.08100011 -0.08284643
0001c0 c9 36 c2 ba 4c b6 c0 3b 14 4c a0 3b be 2b ac bd
       -0.0014817353 0.0058811065 0.0048918817 -0.08406781
0001d0 6a 7a 5c bd c8 12 9a bc 08 49 18 be ac 7a 7b bd
       -0.05382768 -0.018807784 -0.14871609 -0.061396286
0001e0 2f 79 c4 3c fa 1a 7f bd 17 bd a5 bc 8c 17 a9 bd
       0.023983566 -0.062281586 -0.020231767 -0.08256444
0001f0 9c 17 03 bd bc 15 26 bd f5 4b 8f 3a d3 1c 6c bd
       -0.032004938 -0.04054807 0.0010932671 -0.057644676
000200 76 14 b2 bc 05 d5 ad bc dc e4 25 bd 54 23 b9 bd
       -0.021738272 -0.02121974 -0.04050146 -0.090399414
000210 17 76 ec bd b9 b1 12 c0 13 ea 9b bd 38 26 9e 3c
       -0.11545961 -2.2920973 -0.076130055 0.019305333
000220 2f 93 e5 bc 7e fe ea bc d7 85 4f bc ca 47 1a bd
       -0.028024284 -0.028685804 -0.012666187 -0.03766612
000230 6d 12 33 bd 4d 91 39 39 cc 84 10 be c3 67 a2 bd
       -0.043718744 0.00017697104 -0.14113158 -0.07929947
000240 ee cb 35 bb 28 f1 e7 bb e1 37 2d 3c c0 d5 c7 bb
       -0.002773996 -0.0070783086 0.010572405 -0.006098479
000250 8b e4 00 bd b8 48 34 bd 72 83 6e bc 68 37 45 bd
       -0.031467956 -0.044014663 -0.014557706 -0.048148543
000260 04 e8 15 3c c0 36 2c 3c 10 98 65 bc c6 1b d4 bc
       0.009149555 0.0105111 -0.014013305 -0.02589215
000270 84 11 9c bc ac d2 bd bc cd 4d c6 3c 71 04 fa 3c
       -0.01905132 -0.023171745 0.02420702 0.030519696
000280 8e c3 d3 bd f5 bf 9d ba cb 9c ec bd 45 5a b6 bd
       -0.103400335 -0.0012035357 -0.115533434 -0.08903936
000290 8a ca 13 3c 0f 60 bf bd b1 02 17 3c 34 2b 47 bd
       0.009020457 -0.093444936 0.00921695 -0.048625186
0002a0 b5 28 f1 bc a5 c8 94 bd 14 7c 20 be 92 46 ec bc
       -0.029438356 -0.072648324 -0.15672332 -0.028842244
0002b0 d7 93 ba bc e2 98 9c bd 61 e6 03 be d1 db b3 bc
       -0.022775574 -0.076463476 -0.12880851 -0.021955403
0002c0 b8 0d 59 bd c2 ca eb bd 82 92 30 bd 1a 12 8e 3c
       -0.0529916 -0.11513282 -0.04310847 0.017342616
0002d0 38 20 17 3b f2 d9 20 bd 5b 48 a1 bd e0 f0 2d 3d
       0.0023059975 -0.03927035 -0.07875129 0.042466044
0002e0 82 67 4d bc eb e6 3e 3c 92 a1 09 be df 12 bd bd
       -0.012536885 0.011651735 -0.1344054 -0.09232115
0002f0 a7 96 f8 bd ae 71 c0 bd 54 b7 23 bd ab 39 34 bd
       -0.1213811 -0.09396683 -0.039969757 -0.04400031
000300 59 67 ee 3c 01 bc 95 bc ab f8 97 3c 6a 52 d3 bc
       0.029102014 -0.018278124 0.018551191 -0.025796134
000310 e5 41 51 bb 80 a6 1b 3d 92 2c e3 3b f7 28 88 bd
       -0.0031930145 0.038000584 0.0069328034 -0.066484384
000320 61 d4 91 3a c1 66 cc bd 4c 9c b7 bd 6b 42 21 bc
       0.0011125916 -0.09980536 -0.08965358 -0.009842495
000330 6e 92 19 bc 7a 07 c5 bd f6 79 f6 bd 69 69 18 bd
       -0.00937329 -0.09620567 -0.12034981 -0.037209902
000340 1d b5 37 bc e2 14 e6 3c 37 05 e8 3c 56 4a 04 be
       -0.011212614 0.02808613 0.0283228 -0.12918982
000350 cb 19 94 bd 3c cd b9 bd 1e 8e db bc 7d ab 15 bd
       -0.07231482 -0.090723485 -0.026801165 -0.036540497
000360 cb 68 79 3c 80 76 b3 bd b5 fb ca bd 56 71 01 be
       0.0152227385 -0.087628365 -0.099112906 -0.1264089
000370 da 7d dd bd 14 fe 93 bc 9e 93 1c c0 d4 36 27 bd
       -0.1081502 -0.01806549 -2.4465098 -0.040823773
000380 1b 34 6e 3b 4f 9d d1 bd 2e 6a c4 bd fd b0 5a bd
       0.0036346975 -0.10235082 -0.09590565 -0.053391445
000390 b3 fd a9 bb 69 b5 1a bc 66 01 4f bd d3 27 37 bd
       -0.005187714 -0.009442666 -0.050538443 -0.044715714
0003a0 8d 9a ef bd eb 98 ac 3b a4 4a cc 3b c9 14 3d bd
       -0.116994 0.0052672527 0.006234484 -0.0461624
0003b0 3e 2b f5 bd 6c f1 37 3d 48 c1 b3 bd d8 b7 47 bd
       -0.119711384 0.044907972 -0.087771 -0.04875931
0003c0 ab dc 27 bd 12 ae a6 bd 0c ee f5 bc 36 7b 3d bd
       -0.04098193 -0.0813867 -0.030020736 -0.04626008
0003d0 32 bb 58 bd 38 42 94 bb c0 e6 f8 bd 18 dc 94 bd
       -0.0529129 -0.0045244955 -0.12153387 -0.07268542
0003e0 9f a0 83 bd 4d ca c3 bd 2d 5c 74 bd ff 46 96 3b
       -0.064271204 -0.0956007 -0.05965822 0.0045861
0003f0 05 52 4c 3b 06 6e a0 bd 4c 49 02 bd a5 28 59 bd
       0.0031176817 -0.07833485 -0.031808183 -0.053017277

nn_model.4.bias f4 [128]
000000 00 d7 b6 bf 45 92 61 bf 1c 98 45 be 43 6b b5 bf
       -1.4284363 -0.88113815 -0.19296306 -1.4173359
000010 93 3a ed bd fe 93 76 bf e1 03 c8 be 51 39 a2 bf
       -0.11583438 -0.9631957 -0.3906546 -1.2673742
000020 9c 7c 95 be 8c 37 47 be a3 09 5d 3e 8f f2 06 3f
       -0.29196632 -0.19454783 0.21585707 0.52713865
000030 a0 a5 12 3e 06 52 b3 bf a5 a2 38 bf 8f e9 b2 bf
       0.14320993 -1.4009407 -0.72123176 -1.3977526
000040 35 d9 d0 bf e4 b0 60 bf 68 c7 e8 bf d8 17 7e bf
       -1.6316286 -0.87769914 -1.8185854 -0.9925513
000050 97 36 24 3f 8e b9 a2 3e 2e b6 99 3d a5 30 6e bf
       0.641458 0.31782192 0.07505451 -0.93042976
000060 23 b2 0e 3e 7e 30 b5 bf 7d f4 82 bf 7d 7a 88 bf
       0.13935141 -1.4155424 -1.0230862 -1.066238
000070 b0 e3 61 be a2 f6 2d 3e 2a 3a 0a bc 1d 8b bb bf
       -0.22059512 0.16988614 -0.008436719 -1.4651829
000080 70 a6 75 bf 0e 35 7f be d4 64 ba bf 15 c0 66 3e
       -0.9595709 -0.24922583 -1.456202 0.22534211
000090 a1 01 97 be 14 3d 02 bf 90 cb 60 bf 24 01 b3 bf
       -0.2949343 -0.5087445 -0.8781061 -1.3984723
0000a0 b8 92 bd bc a4 8e 88 be 7c a7 e4 bf 46 b8 b5 bf
       -0.02314125 -0.26671326 -1.7863612 -1.4196861
0000b0 d5 e7 d8 3d a6 d1 82 be 7c d0 51 bf 5f 7a 55 be
       0.105910935 -0.25550574 -0.81958747 -0.20847462
0000c0 6f 95 0b bf ab 06 4d be c3 e0 4a 3e 6f dd 94 bf
       -0.5452489 -0.20022075 0.19812302 -1.1630076
0000d0 33 e0 30 bf 53 11 1e 3e 74 02 e5 bf 82 77 2c bf
       -0.690921 0.15436296 -1.7891374 -0.67369854
0000e0 3a 77 a1 bf 40 7f 87 bf c7 f3 e0 bf ff 25 e0 bf
       -1.261451 -1.0585709 -1.7574395 -1.7511595
0000f0 cd c1 e6 bf 2f a2 52 be 25 91 b1 bf 22 fa 09 3f
       -1.8027893 -0.2056968 -1.387242 0.538973
000100 a0 61 49 be 20 6e 6a bf c2 eb b9 bf 22 49 60 be
       -0.19666147 -0.9157429 -1.4525073 -0.21902898
000110 ad 5d 6a 3d 48 97 87 3e 7c 1f a5 b9 bb df 53 be
       0.057218242 0.26482606 -0.0003149471 -0.20690815
000120 2e 8d 83 be 24 0c 65 bf 0c 6a 78 3d b5 0f a0 bf
       -0.2569365 -0.8947165 0.06064801 -1.2504793
000130 6f f1 29 bf 1b 6f 85 3e b9 b9 31 3e da 83 9f bf
       -0.66384023 0.2606133 0.17356004 -1.2462113
000140 79 e0 46 be 72 5e b4 bf 09 8b 26 bf df 92 e3 bd
       -0.19421567 -1.4091322 -0.650559 -0.11111998
000150 ef 0b e0 3d 51 55 ea 3d f9 03 51 be 4a 75 4b bf
       0.10939776 0.11442054 -0.20411672 -0.79475844
000160 eb 04 42 be 69 4c 3f bf 78 b3 74 bf b4 cf 8c be
       -0.18947189 -0.7472597 -0.9558635 -0.27502215
000170 64 59 ab bf bd f5 f1 be 2c 26 13 3e ae 83 e6 bf
       -1.3386655 -0.47257796 0.1437003 -1.8008935
000180 e1 74 b3 bf 5d c2 d0 bf 07 45 92 bf 6a fb e6 bf
       -1.4020044 -1.6309315 -1.1427315 -1.8045475
000190 97 7c 92 bb 50 51 e1 bf 03 68 b7 bf 90 e1 50 be
       -0.0044704187 -1.760294 -1.4328617 -0.20398545
0001a0 ae f8 df 3e af 40 84 3e 6c 0d 79 bf fc ce 09 bc
       0.43744415 0.258306 -0.97286105 -0.008411165
0001b0 b9 51 30 bf fd b0 6f be b7 c4 40 be 00 c9 1e bc
       -0.688747 -0.2340736 -0.18825041 -0.009691477
0001c0 4c 8e e3 bf 81 58 89 3e b6 27 c6 bf 65 8d 38 bf
       -1.77778 0.26825336 -1.5480869 -0.7209075
0001d0 c4 fa 24 be 08 6c 1f 3f 16 ee a3 bc b0 7c 1d be
       -0.16111284 0.6227422 -0.02001099 -0.15379596
0001e0 e5 e7 43 bf de e0 4e 3c 51 3c e3 bf 29 20 41 bd
       -0.7652572 0.012626855 -1.7752782 -0.04714981
0001f0 3e 75 0a 3e 8e c5 60 3f d4 f7 6a be c5 d3 b6 bf
       0.13521287 0.87801445 -0.22946101 -1.4283377

nn_model.6.weight f4 [128, 128]
000000 21 dd 01 38 29 a2 69 bd a7 e4 95 3c bb 75 74 3c
       3.096194e-05 -0.057039414 0.018297506 0.014920647
000010 1a 09 b0 bd b3 f5 8a bd b8 a0 c2 be 26 fc 70 b8
       -0.08595486 -0.06785145 -0.38013244 -5.745529e-05
000020 88 ed 39 bc 19 28 82 bd 9f 0c 10 bf 53 98 57 bf
       -0.011348136 -0.06355304 -0.5626926 -0.84216803
000030 ec 1b ea be da 52 87 ba eb 5c bb bb 2d 4a cd 3b
       -0.45724428 -0.0010324374 -0.005717864 0.006264946
000040 f7 42 80 bb 21 de cc 3a 8b d5 00 3d b7 d2 17 3c
       -0.003914233 0.0015630164 0.03145365 0.009266547
000050 a5 33 9f be 40 df ef bd 71 94 95 be 18 16 1f 3c
       -0.3109409 -0.117125034 -0.29214814 0.009709857
000060 99 a8 cb be 13 e6 6c 39 c5 d4 38 bd de 51 82 bd
       -0.39777067 0.00022592423 -0.045124788 -0.06363271
000070 21 f1 e1 bc 84 31 bd be b4 e9 a6 bd dc f1 0a 3c
       -0.0275808 -0.3695184 -0.08150044 0.008480515
000080 e8 68 a4 bc 4a 7d ad bd d3 59 01 bd 53 f1 a8 bf
       -0.020069554 -0.084711626 -0.031579804 -1.3198646
000090 f8 e1 d1 3c f1 77 3c bd 0b 29 6d bd 69 ed 5c 3d
       0.025620446 -0.046012823 -0.05790047 0.05393735
0000a0 0a b1 7a be 12 96 01 bf f1 49 bc bc 55 b5 85 bd
       -0.24481598 -0.50619614 -0.022984477 -0.06528727
0000b0 91 1b e8 bd 1c 37 5b bd f9 b0 50 bd a3 e7 9d bc
       -0.11333383 -0.053519353 -0.050950024 -0.019275492
0000c0 0d fa 82 bd d8 61 c3 bc f1 7a 11 bf f1 70 93 3c
       -0.0639535 -0.023850366 -0.5682822 0.01799819
0000d0 72 a9 34 3d 77 b8 ab be 0e 0b da bc 5a 10 26 bd
       0.04410691 -0.33539173 -0.0266166 -0.040542938
0000e0 e6 69 91 bd 18 bf 89 3c b2 68 a9 ba 99 00 5c 3d
       -0.07100277 0.016814753 -0.0012924878 0.053711507
0000f0 ac 89 57 bc b2 90 05 bd 3c b7 3d bc 9e d6 d2 be
       -0.013155382 -0.032608695 -0.011579331 -0.41179365
000100 a5 ed af bd db 10 2b 3c a2 d5 a4 bb 47 b8 90 bd
       -0.08590249 0.01044103 -0.00503035 -0.07066398
000110 ee 79 80 be f8 af 8a be fa f3 66 be 55 77 9c bd
       -0.25093025 -0.27087379 -0.22554007 -0.07639948
000120 1a 5d 42 3d ac 77 3d bd 02 16 ec bd f6 80 39 3d
       0.04745207 -0.046256706 -0.11527635 0.045289002
000130 79 0f 31 bd 58 c7 61 be 3f ca d4 be a1 1e 61 3d
       -0.043227646 -0.220487 -0.41560552 0.05496085
000140 7c 8b fe 3c a8 ca dd bc c1 78 6d bd 8e f0 ca bd
       0.03107237 -0.027074173 -0.057976488 -0.099091634
000150 23 ae 06 be 52 51 b2 be 71 fe 3a 3d 78 17 b7 bc
       -0.13152365 -0.34827667 0.04565281 -0.022350058
000160 f4 6d 5f bd 87 d7 82 bd 1f 17 a6 bd 92 7d a9 bd
       -0.05454822 -0.06388765 -0.08109879 -0.08275904
000170 e2 14 c7 bc 1b d5 8a 3b 76 0a 2d bf 12 d1 43 3c
       -0.02430195 0.00423683 -0.6759409 0.011951702
000180 33 2f ac bd 0d 7a 27 3c 0b d6 37 bb 63 a1 11 bd
       -0.0840744 0.01022197 -0.0028051164 -0.0355543
000190 91 63 89 bd 8d 9e 84 bd e1 f9 25 bd 45 65 b1 bd
       -0.06708444 -0.06475554 -0.040521506 -0.08661894
0001a0 64 cd c4 be f9 bd 12 be 9f b1 5b bd 80 1b b6 bd
       -0.3843795 -0.14330281 -0.05363619 -0.08891964
0001b0 8a c6 f5 bc 81 3a 0f bc 80 dc 1e 3d 1b 0e bb bd
       -0.030001897 -0.008741976 0.038784504 -0.0913355
0001c0 c7 ba 0f bd 0d 21 5e be 68 41 6a 3c 49 df 7e bb
       -0.035090234 -0.21692295 0.014297821 -0.0038890413
0001d0 bc e8 26 bc 00 7c 5a be fb ae c5 bc 18 fa b5 bd
       -0.010187324 -0.21336365 -0.024131289 -0.08885592
0001e0 f7 0d 9f bd d1 92 cf bd a2 b2 31 3d 16 cd a9 bd
       -0.077663355 -0.10135425 0.04338325 -0.0829107
0001f0 a1 f6 4e be 6e 4b f3 be 19 6f 49 3c 37 a6 e5 3c
       -0.20211269 -0.47518486 0.012294554 0.028033359
000200 0b 89 57 bd c4 1a c3 3c 4b 4c 8e bd c7 77 60 3d
       -0.05262093 0.023816474 -0.069481455 0.05480173
000210 42 01 a0 bd d0 8c c0 3c cf bd 51 be 3a 57 da 3c
       -0.0781274 0.023504645 -0.20482562 0.026652921
000220 95 5a 00 be b3 6c c1 bd 91 ea 1e be d0 55 0f bf
       -0.12534554 -0.09444561 -0.15519167 -0.55990314
000230 ed 45 0f be 9e bf 15 bd 96 cc 21 3d af fc 3e bc
       -0.13991518 -0.036559694 0.03950175 -0.011656924
000240 42 f2 99 3c ec 81 e0 3c 07 66 c0 3c 8e b2 89 bd
       0.018792275 0.027405702 0.02348615 -0.0672351
000250 ba b6 37 be 1e 5a a7 bd 3e 46 13 be 56 24 ee 3c
       -0.17940798 -0.08171485 -0.14382264 0.02907006
000260 74 73 23 be 84 c9 6c bd 05 c2 24 3d eb 53 42 bd
       -0.1596201 -0.057809368 0.040224094 -0.04744331
000270 50 57 c9 bc 87 8f d4 bd f8 50 a8 bd ce 06 f4 bb
       -0.024577767 -0.10378938 -0.082185686 -0.0074471002
000280 68 4b 00 3d 54 6a 93 bd 18 6e 83 3d 93 8f b7 be
       0.031321913 -0.07198015 0.06417483 -0.35851726
000290 36 62 b7 bd 9e c6 96 bd 94 36 f1 bd cb cb 19 bd
       -0.08954279 -0.07362102 -0.11777988 -0.037547868
0002a0 34 57 ed bd 92 78 bb be e1 a1 ae bc 4d 4d 90 bd
       -0.11588898 -0.36615425 -0.021317424 -0.07045994
0002b0 78 57 ad bd 22 46 96 bd 6a 48 86 bd 39 f4 0c be
       -0.08463949 -0.073375955 -0.06556781 -0.13765039
0002c0 c9 e9 fc bc 45 04 9c bd a7 12 95 be b0 70 a0 bd
       -0.030873196 -0.07618002 -0.29115793 -0.078339934
0002d0 1f 28 c4 bd 5f 93 08 be d0 e2 0b bd a5 35 7a 3d
       -0.09577965 -0.13337468 -0.034151852 0.061086316
0002e0 1d b0 05 3d 36 90 7f 3b a8 28 82 3d 74 0f f1 bb
       0.032638658 0.0038995869 0.06355411 -0.0073565785
0002f0 7b d9 35 bd 66 d2 10 bd ad d6 29 3d 8b 53 50 bf
       -0.04439686 -0.0353569 0.041464496 -0.81377476
000300 19 9a 0d be 21 be d8 bc 15 a2 04 bd 1e 1c c9 bc
       -0.13828315 -0.026457848 -0.032381136 -0.02454954
000310 c8 14 20 be 72 1b 8f bd bb 4f 0f be 66 c3 a2 bc
       -0.15632927 -0.06987657 -0.13995259 -0.019868564
000320 4b 5e 6b bd 5a 2c 2b bd 14 6d ff bd 49 1d 26 bd
       -0.05746297 -0.041790344 -0.12471977 -0.040555272
000330 13 2d a4 bd 77 e9 2a be 83 e2 b4 bd 0b 7a 8e bd
       -0.0801641 -0.16690622 -0.08832266 -0.069568716
000340 02 c4 1b bd 07 46 55 bd 7d bf a3 bc b3 27 17 be
       -0.038028724 -0.052068736 -0.01998877 -0.14761238
000350 29 71 58 bd 1a 83 b2 bd c2 06 bd bd ef 86 16 bd
       -0.052842293 -0.08716412 -0.092298046 -0.036749776
000360 f3 5c f8 bd 61 10 33 3d ac 81 6b bc 24 f6 a0 bd
       -0.12127104 0.043716792 -0.014374178 -0.078594476
000370 00 98 83 bd a7 23 23 bd d7 be 21 c0 9c 03 88 bd
       -0.06425476 -0.039828923 -2.527273 -0.066413134
000380 48 9b 40 bd 35 65 09 bd 09 ea 17 bd db 6a 09 bd
       -0.047023088 -0.033543784 -0.037088428 -0.03354917
000390 84 e3 82 bd 79 35 9e 3c 42 8a 97 bd 0c a2 1a 3d
       -0.063910514 0.019312607 -0.073994175 0.037752196
0003a0 ac a4 ca bf 2d 4b 8d be 42 74 89 bd 67 35 b4 bd
       -1.5831504 -0.27596417 -0.067116275 -0.08799248
0003b0 f1 32 29 bd b0 ca ad bc e6 d7 1c bd 1a 3e b1 bd
       -0.041308347 -0.021214813 -0.038291834 -0.08654423
0003c0 47 a9 41 bc e6 e4 0d c0 f9 41 08 bd 78 19 4b 3d
       -0.011820144 -2.2170959 -0.03326604 0.049584836
0003d0 59 f5 2a bd 2e b4 ad be ca e8 42 bd 53 38 b3 bc
       -0.041737888 -0.3392653 -0.047585286 -0.021877443
0003e0 7f 75 49 bd 5c 7d 4b be 60 4d 15 3d f7 a8 2c bd
       -0.04918432 -0.1987204 0.036450744 -0.042153325
0003f0 9e 87 09 be 2e ee 76 be 30 dc 4c bd 81 29 60 3d
       -0.1343064 -0.24114296 -0.050014675 0.05472708

nn_model.6.bias f4 [128]
000000 56 b5 3e bf 67 2d dd be 88 e9 17 bf 20 7c 2d bf
       -0.74495447 -0.43198702 -0.59340715 -0.67767525
000010 23 7b 3c be cc af 29 bf 8c d8 16 bf 74 96 7a 3c
       -0.18406348 -0.6628387 -0.58924174 0.01529466
000020 c7 bf 45 bf 7a 4f 28 bf 5e d2 61 bd 8a 23 40 bf
       -0.77245754 -0.6574627 -0.055132262 -0.7505423
000030 8d 8c 4a bf 7d c0 3b bd 05 8d cc bc dd a4 a1 bb
       -0.79120713 -0.045837868 -0.024969587 -0.0049329833
000040 9c 6a c9 3d 42 92 7d bd 7c 6b 84 bd 0f 95 e0 be
       0.09834787 -0.06190706 -0.064658135 -0.43863723
000050 df d9 48 be a1 ef 09 bc bf ee d9 bd 35 7d 79 bc
       -0.19614361 -0.008418948 -0.1064124 -0.015227606
000060 b8 63 21 bf 37 3e 30 bf e8 4c f2 bd fc e3 4f bf
       -0.63042784 -0.6884493 -0.11831075 -0.8120725
000070 1c 49 ce 3d 2c 3c 08 be d5 e3 06 be ba cf 0f bb
       0.10072538 -0.13304204 -0.13172849 -0.0021943883
000080 37 ef 23 bf 30 2b f4 bd 8f 70 4f be d0 0a a9 bc
       -0.6403689 -0.119223 -0.20257781 -0.020635039
000090 63 0e 67 bd 7c 69 81 3c 62 46 c8 3c ff 4d ec bd
       -0.056410205 0.01579737 0.024447624 -0.11538314
0000a0 e3 39 38 bf 47 16 35 be 99 6b 5d be 73 a6 04 bd
       -0.7196333 -0.1768428 -0.21623076 -0.0323853
0000b0 ca c8 79 be 8f b7 31 bf 4f fd b2 bd 3e 0b 61 bd
       -0.24393001 -0.69420713 -0.08739721 -0.054942362
0000c0 c0 72 31 bf fb 26 c5 3c e9 60 85 be d0 3b ca 3a
       -0.6931572 0.024066439 -0.260505 0.0015429202
0000d0 3a 7e 83 3d 07 40 bf bd f8 72 25 be d8 24 ec 3b
       0.0642056 -0.09338384 -0.16157138 0.0072065406
0000e0 a4 20 48 bf f2 1e 9a bd d9 f6 da bd 3a b5 03 be
       -0.78174806 -0.075254336 -0.10691614 -0.12862101
0000f0 29 53 08 be ad 99 40 bd fa ca 32 be 65 1d ac 3b
       -0.13312973 -0.047021557 -0.17460242 0.0052525275
000100 98 97 53 bd f1 fd 77 be e1 b3 b2 bd c6 61 74 be
       -0.051658243 -0.24217965 -0.087257154 -0.23865423
000110 35 1c 6d bd c2 54 8d bd 5b 5b e7 3c 95 31 06 be
       -0.05788823 -0.06900932 0.028241804 -0.13104852
000120 73 ae 4e bf 82 e6 11 bf 61 65 fb bd 6d dc 02 be
       -0.8073494 -0.5699235 -0.12275196 -0.12779398
000130 9b 81 95 3b 40 e2 d2 bd 82 49 b7 bd fa bc cd bb
       0.0045625693 -0.1029706 -0.089495674 -0.0062786313
000140 a0 28 19 bc 96 c5 b1 bd 47 4c 1d be c8 23 31 bf
       -0.009348065 -0.08680265 -0.15361129 -0.6919522
000150 34 6f 62 bf 69 0c 93 be a3 b4 58 3c 17 d0 ee be
       -0.8845093 -0.28720406 0.013226661 -0.46643135
000160 c7 dc b1 3c 17 c6 3c bf ca 54 ff be 4a e1 41 bf
       0.02171172 -0.7373976 -0.49869376 -0.7573439
000170 f2 4a 8f 3c 30 7e 33 bd 0f 37 ec bd 61 19 03 be
       0.017491791 -0.043821514 -0.11533939 -0.1280265
000180 6e 24 41 bf 99 28 19 bf 24 dd 1d bf 91 5b 0e 3c
       -0.7544621 -0.5982757 -0.6166556 0.008688823
000190 c1 3e 52 bf ce 70 84 bd 8f 03 26 3c 5e cb b1 3c
       -0.82127005 -0.06466828 0.010132684 0.021703418
0001a0 7c 1f 37 bf f3 79 a8 bd b1 87 74 3c 6d 3b 49 bf
       -0.71532416 -0.08226385 0.0149249295 -0.786063
0001b0 57 b9 16 bd 38 3d 11 be 71 b1 00 bd c5 3c 29 bc
       -0.036797848 -0.1418351 -0.03141922 -0.01032943
0001c0 2d c0 c4 bd 19 ba 3c bf 5f 33 1b bf 38 5b 13 be
       -0.09606967 -0.7372146 -0.6062526 -0.14390266
0001d0 1e f6 33 be 28 76 8a bd be 0a 77 3c 97 44 b0 3e
       -0.17574355 -0.06760818 0.015078245 0.3442733
0001e0 79 5a a2 bd 4f 54 e9 bd d6 bf 4f bf 8f 7a 94 be
       -0.079274125 -0.11393034 -0.81152093 -0.28999755
0001f0 35 8f e4 be bc e4 33 bd 02 82 fc bc 87 8f 22 bf
       -0.44640508 -0.04391931 -0.030823711 -0.63500255

nn_model.8.weight f4 [128, 128]
000000 f7 d8 7d bd 0e 7c b2 bd b3 c3 8e bd 43 16 09 bd
       -0.061974492 -0.08715068 -0.069709204 -0.033468496
000010 ed 29 93 bd e8 34 6d bd e6 66 9f bd 0c 85 93 bd
       -0.07185731 -0.057911783 -0.07783298 -0.07203111
000020 24 df 51 bd 26 b4 0c bd 9e ed dc bc 22 c0 99 bd
       -0.051238194 -0.03435149 -0.026968773 -0.075073496
000030 f4 29 6a 3d 8f 72 91 bd e9 5c b0 bd 8d 22 9e bc
       0.057168916 -0.071019284 -0.08611471 -0.019303584
000040 a1 df cb 3e 7f c6 fe bd c6 ee 68 bd 90 8a 97 bd
       0.39819053 -0.12440204 -0.056868337 -0.073994756
000050 6c 12 2b bc 4e 06 e4 bc 5f f7 66 bd e7 f0 d3 bd
       -0.010441404 -0.027835038 -0.056388255 -0.10348683
000060 91 db 27 3d 4e 0c 62 bd b4 1d 83 bd 50 58 08 3d
       0.04098088 -0.055187516 -0.0640215 0.033287346
000070 b4 05 f1 3d 8b ec 76 bc f3 0a 05 bd ee 70 f8 bd
       0.11768666 -0.015071045 -0.032481145 -0.12130915
000080 e9 f5 87 bd 0a 7e e0 bc 21 0e 97 3d b8 4f 05 bd
       -0.066387005 -0.02740385 0.07375742 -0.03254673
000090 55 c6 8f bd 0c 15 f0 bd d2 46 c8 bd 3e 0a 58 bd
       -0.07020251 -0.117227644 -0.09779133 -0.052744143
0000a0 18 4f 5b bd ff 1b be bb 4c 74 64 3a 58 d3 4e bc
       -0.053542227 -0.0058016772 0.00087148394 -0.01262363
0000b0 5a f3 37 bd 35 20 96 bc c8 f1 e3 bd b3 5e 48 bd
       -0.044909813 -0.018325904 -0.111301005 -0.048918437
0000c0 e8 36 ee bc 6a f2 2f bd ca 6d b3 bd 1c 9d 1e bd
       -0.029078916 -0.042955793 -0.08761175 -0.03872405
0000d0 8c 20 90 bd a6 a3 50 bd a0 67 c3 bc 41 c8 05 be
       -0.07037458 -0.050937317 -0.023853123 -0.13064672
0000e0 b9 c4 9d 3c b3 cb 24 bd f4 b5 82 3b 2f 1e 9e 3c
       0.019258844 -0.040233325 0.0039889757 0.019301502
0000f0 ef 5b 3c 3c 11 4b dd bc 30 b3 11 bd 0b 51 ce bd
       0.011496528 -0.027013334 -0.035571277 -0.100740515
000100 66 ba c9 bd bc 01 a2 bc e9 ef e5 bc 06 3b bc 3c
       -0.09850006 -0.019776218 -0.0280685 0.022977363
000110 f2 a6 9c bd f4 b3 94 bd ac fc 0a bd 00 42 e7 bc
       -0.0764903 -0.07260886 -0.033932373 -0.028229713
000120 07 9a 21 bd 4e a2 7d 3d 48 79 fd bc d1 b0 10 bd
       -0.039453533 0.061922364 -0.03094162 -0.035324875
000130 5a 49 f4 bc 69 24 02 be 12 68 67 3c 26 b2 d8 bd
       -0.029820133 -0.12709202 0.014123933 -0.10580854
000140 0d 8e ef bd 4d 57 0f bd 34 b6 4f 3d 82 e6 d8 ba
       -0.11697016 -0.034995366 0.05071087 -0.0016548189
000150 b2 a5 5e 3b f9 52 24 3c 02 7d a1 3c 16 6d 11 bc
       0.0033973274 0.010029548 0.019712929 -0.008876106
000160 c4 ce d2 bc 95 4d 4c bd 49 c2 03 3d c7 d0 59 3c
       -0.02573336 -0.049878675 0.032167707 0.013294405
000170 85 6e a7 bd 37 e1 e2 bd 07 d8 52 bd 82 0d d4 3d
       -0.08175377 -0.110781126 -0.05147555 0.10354139
000180 4e 00 b2 bc 22 3b 90 bd 18 b5 b7 bd 52 a2 67 bd
       -0.02172866 -0.07042529 -0.08970088 -0.056551285
000190 37 5f 72 bd f5 89 f1 bc 1a 7e 11 bd c8 18 e3 bd
       -0.059172835 -0.029484728 -0.03552065 -0.11088711
0001a0 05 12 e8 bc 00 6f 10 be 09 e7 a4 bc 2d 5f 21 bd
       -0.028328905 -0.14104843 -0.020129697 -0.039397407
0001b0 05 00 c5 b9 2a c7 5d 3c 7a 1b 3f 3b 5b 6f 38 bd
       -0.00037574783 0.013536254 0.0029160664 -0.04502807
0001c0 f9 68 85 bc dd f3 29 bd 5d 5b a3 bd e6 a6 49 3c
       -0.016285406 -0.04149233 -0.079764105 0.012307858
0001d0 f3 e8 89 bd 79 ec d7 bd 10 02 10 be c8 aa 04 be
       -0.06733885 -0.105431505 -0.14063287 -0.12955773
0001e0 0c 4b 97 bc 23 e3 08 be 46 c7 6d bd 81 84 89 3c
       -0.018468402 -0.13367896 -0.05805137 0.016786816
0001f0 c3 b7 d1 bc 09 45 38 bd 1f 97 fc 3c f0 94 39 3d
       -0.02560032 -0.044987712 0.030833779 0.045308053
000200 0f ae 48 bc 42 c6 12 3d eb cc 90 3c 16 a3 14 bd
       -0.01224853 0.035833605 0.017675838 -0.036288343
000210 d4 3c 01 3d 01 46 a5 bb cd c2 16 bd c9 9b 93 bd
       0.03155215 -0.0050437455 -0.03680687 -0.07207448
000220 62 d0 9b 3b 22 e0 c3 bc ca e0 1f 3d c3 c1 3c 3b
       0.004755066 -0.023910586 0.039032735 0.0028802014
000230 56 e5 c3 bb b9 40 bb bc 2d 8c c8 bd 24 be eb bd
       -0.0059782667 -0.02285801 -0.097923614 -0.11510876
000240 b1 19 80 be ef aa 28 bc a3 18 07 bd 7f 49 1b 3d
       -0.250196 -0.01029466 -0.03298248 0.03791189
000250 b5 d0 ae bd f8 ad 3f bd c5 be b0 bd 1c 85 e9 bd
       -0.085359015 -0.04679677 -0.086301364 -0.11402342
000260 6c e9 f3 bc 66 bd 4b 3d b2 e3 e7 bc 23 5c 26 bd
       -0.02977439 0.04974117 -0.028306816 -0.040615212
000270 e6 bd 7e be f0 52 89 bd 95 76 0f bd 70 0e d8 bd
       -0.24877128 -0.06705272 -0.035025198 -0.10549629
000280 d2 41 46 bd 75 6c e0 3b a1 18 31 bd 1b 22 38 3c
       -0.048402615 0.0068488666 -0.04323638 0.0112386
000290 ce 11 29 bd 71 26 ce bd a2 5f d3 bd 91 38 b5 bd
       -0.041276745 -0.10065926 -0.10320975 -0.0884868
0002a0 aa 5f 22 3d 02 e7 e7 bc 76 82 26 bd dd a8 9a bd
       0.039642014 -0.028308395 -0.04065176 -0.07551739
0002b0 97 0e 38 3d d2 0b 7f 3b ba 1f 40 bd 35 f8 af bd
       0.04493579 0.0038916958 -0.046905257 -0.085922636
0002c0 50 03 b2 bd 59 e8 02 be 83 0b 85 bd 20 ee d9 bc
       -0.08692038 -0.12783946 -0.06496336 -0.026602805
0002d0 04 4e 6e bf 77 50 85 bd c7 55 38 3c 13 b5 ab bd
       -0.9308779 -0.06509488 0.01125092 -0.083841465
0002e0 b2 e4 9d bd ab 9d e6 bd 05 b4 cc bd af 10 a5 bd
       -0.07709636 -0.112605415 -0.099952735 -0.08059823
0002f0 99 37 b8 bd 2d e0 b3 bd af 45 5f 3c ed f2 f9 bd
       -0.089949794 -0.087829925 0.013627454 -0.122045375
000300 c3 1d 40 be b2 b8 a7 3c ad ea 8c 3c b9 da 4a 3d
       -0.18761353 0.020473812 0.017201746 0.049524996
000310 e5 31 a4 bd e9 7e a9 bd 6e d4 c1 bd 70 08 7f 3d
       -0.08017329 -0.08276159 -0.09464346 0.062263906
000320 11 bf 78 3d 7f e3 0d bd c6 ee a8 bd fb 50 06 3d
       0.06072909 -0.034640785 -0.082486674 0.032792073
000330 d7 d9 8e bd 20 6d da 3c 1a 45 4d bd da 72 74 bd
       -0.069751434 0.026663363 -0.05011473 -0.059679843
000340 59 27 48 bd 82 88 b5 bd df 6e ad bd 7e 9d e5 bc
       -0.04886565 -0.088639274 -0.084684126 -0.0280292
000350 2d fb ed 3c c6 ab c2 3c 2a 8e ad bd ab e7 36 3d
       0.029050434 0.023763549 -0.08474381 0.04465453
000360 e4 12 be bd d7 e3 97 3c 11 3d 0d bd 58 6f 17 bc
       -0.09280947 0.01854126 -0.034482066 -0.009242855
000370 33 93 b7 bd 49 97 e3 bd 28 89 a6 bd b7 52 8b bd
       -0.08963623 -0.1111284 -0.08131629 -0.06802886
000380 3a 11 43 3d f0 b8 ba 3c a1 b5 96 bd 2b 62 f6 bd
       0.04762385 0.022793263 -0.07358862 -0.12030443
000390 00 62 30 3c db b0 19 bd 88 d3 b8 bd 5c 65 b9 bd
       0.0107655525 -0.03752218 -0.090247214 -0.09052536
0003a0 b4 67 ed bc b6 05 8e bd 4d 17 7e bd 61 f6 8c bd
       -0.028980114 -0.06934683 -0.06203394 -0.068829305
0003b0 ed cd d2 bd 4f 37 31 bc 7c 7a ce bd 6e da 84 bd
       -0.102931835 -0.010816409 -0.10081956 -0.06486975
0003c0 f8 75 25 3d 8f 49 10 3c ce 63 75 3d 45 79 a4 bc
       0.040395707 0.0088066 0.059909634 -0.020077357
0003d0 74 dd e5 3c d9 bc fa bc 65 87 aa bd 97 a8 e8 bf
       0.028059699 -0.030607628 -0.08326606 -1.817645
0003e0 20 a9 46 bd 1d 65 e2 bc 16 40 2e bd 52 65 0a bd
       -0.048501134 -0.027636105 -0.042541586 -0.033788033
0003f0 0f f8 8b bd 49 72 db bd 88 59 8d bd 08 25 e9 bc
       -0.06834423 -0.107151575 -0.06901842 -0.02846004
