model/1x2_sparsemax_in_linsigpmt_scratch_fast.pt (torch_old, 73052 bytes, 7 tensors)

nn_model.0.weight f4 [128, 2]
000000 dd 91 ec 3d f7 e7 c1 be bf d6 a9 3d 44 c2 c9 be
       0.11551259 -0.37872288 0.08292913 -0.39406025
000010 97 57 84 bf da ef 7d bf 39 e8 3d bf 81 27 c4 be
       -1.033923 -0.9919411 -0.7418247 -0.3831139
000020 20 ab fc bf 3e 32 05 c0 77 04 bc bf fb 58 3e bf
       -1.9739723 -2.0811915 -1.4688863 -0.74354523
000030 29 1c ee bd 1e ac 87 bf 7f bb 37 be d0 9f 9e bf
       -0.11626465 -1.0599401 -0.17942618 -1.2392521
000040 9b 11 83 bf 2c c1 8f be f3 6e 46 bf 26 84 34 bf
       -1.0239748 -0.28077066 -0.77513045 -0.7051414
000050 ef c7 87 bc d5 a5 81 bf f5 a6 5f 3f 0b 13 fa be
       -0.016574828 -1.0128733 0.8736413 -0.48842654
000060 80 54 b2 bb bb d2 0c bf 6a 21 76 bf 28 1e 5d bf
       -0.005442202 -0.5500905 -0.96144736 -0.8637414
000070 ca 49 e5 be 0f 93 0d 3f e7 2d b2 be a7 60 d1 bf
       -0.4478286 0.5530252 -0.34800646 -1.6357621
000080 f6 57 c8 bf d0 33 e6 be 41 42 e7 be ae 4f 6a 3f
       -1.5651844 -0.44961405 -0.45167735 0.9152783
000090 2b 66 00 c0 07 59 47 bf 26 df bf be 37 55 2e 3f
       -2.0062358 -0.7787022 -0.37474936 0.6809878
0000a0 4a 0a ca be 62 05 bd bf 44 32 f1 bf 1e db bf be
       -0.39460975 -1.4767268 -1.8843465 -0.3747186
0000b0 c2 00 8a bf c7 3e 86 bf 69 bf 50 bf da e4 3c bf
       -1.0781481 -1.0487908 -0.8154207 -0.737867
0000c0 3e 7f 82 be d1 55 64 bf db 70 ee be cd 2f 5f bd
       -0.25487703 -0.89193445 -0.46570477 -0.054488946
0000d0 32 e0 dc bf e0 c6 16 bf e1 2d 0d 3b 0b be c3 be
       -1.7255919 -0.5889721 0.0021542239 -0.3823093
0000e0 c5 20 87 be eb 2c c1 bd 41 53 b5 be 6b c0 3b be
       -0.2639219 -0.094323955 -0.3541508 -0.1833512
0000f0 31 5b 8d bf 43 75 57 bf 96 bc 6c be 54 da f3 bf
       -1.1043454 -0.841633 -0.23118815 -1.9051003
000100 14 ef 8e bf 40 80 76 bf 5b 76 40 be 7a d1 21 bc
       -1.1166711 -0.96289444 -0.18795149 -0.009876603
000110 7a ad cc be f3 93 3b 3f 62 e7 ba bc bc f3 90 be
       -0.39976102 0.7327263 -0.02281541 -0.28310955
000120 5b da 37 bf f6 0b dc be 12 cc 80 bf 1d 51 78 bf
       -0.7181756 -0.42977875 -1.0062277 -0.9699877
000130 e2 aa ba bf 83 1c 86 bf ca b0 9a bf 44 96 9c bf
       -1.4583399 -1.0477451 -1.2085202 -1.2233357
000140 62 b3 6e bf 23 51 ae be 4b bc 4a bf 3d b4 b9 be
       -0.93242466 -0.34046277 -0.7919356 -0.36270323
000150 25 71 39 3d e8 b5 26 3e 72 49 90 be ff 0b 7d bf
       0.04527392 0.16280329 -0.28181034 -0.9884643
000160 b6 ce 6b bf f3 0a 04 c0 c2 5c 97 be 15 5b d1 bf
       -0.9211229 -2.0631683 -0.29562956 -1.6355921
000170 12 69 d4 bf 17 66 06 bf da 23 c0 be 4a a2 ad be
       -1.6594565 -0.52499527 -0.37527353 -0.3391288
000180 91 31 90 bf a1 09 8c be 59 07 d6 bf cd 0e 0c bf
       -1.1265126 -0.27351096 -1.6720992 -0.54710084
000190 18 2d 3e 3f 97 ae 4d 3f 47 3b b1 bf a4 ac 8b bf
       0.7428756 0.8034453 -1.3846215 -1.0912061
0001a0 5f 8b 9a bf d0 d7 c6 bf 39 97 97 bc c9 ee 16 3f
       -1.2073783 -1.5534611 -0.018504726 0.5895811
0001b0 38 86 70 3f 57 f3 2d bf e2 63 03 bb 35 b9 d9 be
       0.939548 -0.6794943 -0.0020048548 -0.42524114
0001c0 ef 97 93 be 55 9d cf bf 18 b9 51 bf 2d 36 47 bf
       -0.28826854 -1.6219889 -0.81923056 -0.7781704
0001d0 3f 20 08 bf f6 72 f1 be b7 0c 7a be 8d 96 75 bf
       -0.53174204 -0.4715802 -0.24418913 -0.9593285
0001e0 d2 ef 47 bd 0d 26 0e bd df 36 de be a6 f7 08 be
       -0.048812695 -0.034704257 -0.43401238 -0.1337572
0001f0 8b 3c ac bf 27 36 1c bf dd e4 f2 bf c9 d7 a9 be
       -1.3455976 -0.6102013 -1.8976094 -0.33172444
000200 6f 36 7e bf 9b 3c 57 bf c1 9d c3 be 81 94 52 3e
       -0.9930181 -0.8407685 -0.38206294 0.20564462
000210 31 f1 a0 bf 0c a9 54 be 4e 72 0d c0 6c 02 ef bf
       -1.2573606 -0.20767611 -2.2101016 -1.8672614
000220 72 cd 32 ba fa 79 ef be 91 ff 42 bf 41 94 64 bf
       -0.0006820775 -0.46772748 -0.76171213 -0.8928872
000230 e4 1a 2d bf d3 49 29 bf 12 2c d1 be 21 af 0b 3e
       -0.67619157 -0.6612827 -0.40853935 0.13641025
000240 3a a1 87 bf 5a e0 85 bf 99 87 59 bf c0 10 7e be
       -1.0596077 -1.0459092 -0.8497253 -0.24811077
000250 89 1f 53 bf 2f 7c 67 bf 03 f7 04 bc 6e 1a 85 bd
       -0.82469994 -0.90423864 -0.008115533 -0.06499182
000260 a9 e3 b9 be 36 18 23 3e 80 8e a9 bf 06 c8 0e bf
       -0.36306503 0.15927204 -1.3246613 -0.5577396
000270 6b 8a 89 be f7 3c 82 be 2a 7a eb bf ae 6c 99 bf
       -0.26863417 -0.25437137 -1.8396657 -1.1986291
000280 c5 ac 55 3f 1f 2e 4c 3f 64 d5 9d be 01 67 91 bc
       0.8346675 0.79757875 -0.30826867 -0.017749311
000290 87 c6 59 bf f4 5e ca bf a1 5c 88 bf df f1 76 be
       -0.85068554 -1.5810227 -1.0653268 -0.24115704
0002a0 4e 37 dd bf 5e 70 2f bf 18 c5 07 bf a0 11 d1 bf
       -1.7282503 -0.68530834 -0.53035116 -1.6333504
0002b0 58 b8 58 bd 05 69 6e bf cb 52 72 bf ea f6 08 be
       -0.05291018 -0.93129 -0.9465758 -0.1337544
0002c0 fa 9d 8d bf f5 87 84 bf 0a 48 32 bf e0 32 47 bf
       -1.1063836 -1.0353991 -0.6964117 -0.77812004
0002d0 d8 0a 83 3e 9e 6a 2d 3f f5 92 9d be 35 ea d9 bc
       0.2559421 0.6774081 -0.30776182 -0.026600936
0002e0 c3 0f 97 bf d2 18 6c be fa 1a 3f bd ac 9b c2 be
       -1.1801685 -0.23056343 -0.046656586 -0.38009393
0002f0 7b 8c 85 bf 73 03 86 bf 86 0f 8e bf e9 2b 8b bf
       -1.0433496 -1.0469803 -1.1098487 -1.0872775
000300 ad 5e c9 bf 57 b9 c3 bf 77 ab 5b be cc 4e 8e bf
       -1.5732018 -1.5290936 -0.21452127 -1.1117797
000310 a7 34 c0 be bf 31 5c bf 30 31 04 3e 22 31 bb 3e
       -0.3754017 -0.86013407 0.12909389 0.36560923
000320 ae 11 bf bf 77 f9 12 bf 64 f4 4c be d2 98 a3 bf
       -1.492727 -0.57411903 -0.20015103 -1.2781012
000330 f9 ff 62 bf 9d 1a 87 bf 51 37 22 be 1d 25 77 bf
       -0.88671833 -1.0554997 -0.15841414 -0.96541005
000340 a1 dc f1 be 60 64 d0 bd ac 9c db bf b4 e9 66 bf
       -0.4723864 -0.10175395 -1.7157187 -0.9020035
000350 ca 9f fc bf f4 6a b5 be 02 30 8d bf 29 d5 93 be
       -1.9736264 -0.3543316 -1.1030276 -0.28873566
000360 4e 1f 92 bd bf 62 80 bf a9 d7 8b 3d 25 27 2a 3f
       -0.07134877 -1.0030135 0.06828243 0.6646598
000370 0e 72 6a bf db c2 74 bf da 0a 65 3c 85 75 a5 be
       -0.91580284 -0.95609826 0.013979638 -0.32316223
000380 05 9d 70 bf a0 58 81 bf e1 a7 d7 bf 4a 86 10 c0
       -0.9398959 -1.0105171 -1.6848108 -2.2581964
000390 70 d2 b0 be 4a 03 a6 bd 3e 8a 02 bf 53 41 22 be
       -0.3453555 -0.08106096 -0.5099219 -0.15845232
0003a0 2c ca e2 3d 7d 5f 5e bf 31 0b 97 bf 42 aa b5 bf
       0.110737175 -0.86864454 -1.180029 -1.4192584
0003b0 bc 4b b2 be 11 49 e3 bd 72 f2 0c 3f ef d0 fd 3d
       -0.34823406 -0.11097921 0.5505744 0.123933665
0003c0 00 6e 22 bf c3 ce 1c bf b8 fd e6 bf 6f 3c 3f bf
       -0.63449097 -0.61252993 -1.8046179 -0.7470159
0003d0 26 84 3d be 85 a8 07 be fd 5f 3d bd 3b 00 5c bf
       -0.18507442 -0.13247879 -0.04623412 -0.8593785
0003e0 1e 86 a6 be 09 a4 df bf 88 32 cb be 05 5a 0e c0
       -0.32524198 -1.7471935 -0.3968699 -2.2242444
0003f0 a0 88 87 bf 83 67 74 bf c7 34 87 bf fe 25 55 be
       -1.058857 -0.95470446 -1.0562981 -0.20815274

nn_model.0.bias f4 [128]
000000 46 34 a7 3e ac 5a b9 3e 54 b9 e9 bf 28 ca f0 bf
       0.3265707 0.3620199 -1.8259683 -1.8811693
000010 be 24 ba bf 12 66 f7 bf 37 8f 08 c0 26 e4 f2 bf
       -1.4542463 -1.9328024 -2.1337411 -1.8975875
000020 3e 5c 07 c0 9e d4 c4 bf 13 1f 08 c0 5f 4f d3 be
       -2.115005 -1.5377386 -2.1268966 -0.41271493
000030 1c a1 05 3f c8 0f e6 bf 8e 64 02 be 42 79 00 c0
       0.5219896 -1.7973566 -0.12733671 -2.007401
000040 3a 9f ff bf 78 e8 08 bf fd db dc bf 16 05 b4 be
       -1.9970467 -0.5347972 -1.7254635 -0.3516013
000050 6a e9 02 c0 75 82 f5 bf 4b ed e5 bf e3 e0 db bf
       -2.0454965 -1.9180437 -1.7963041 -1.7178005
000060 03 11 11 c0 be db fa 3e 0b 4a f3 bf bf 26 c5 3e
       -2.2666633 0.48995775 -1.9006971 0.38506123
000070 97 9b a8 3e ec db de 3e 31 49 01 c0 0b 86 fa bf
       0.32931206 0.43527162 -2.0200922 -1.9572157
000080 e4 cf e2 bf 83 6e 43 3e 69 34 f2 be 30 40 9a 3e
       -1.7719693 0.19085126 -0.4730561 0.30127096
000090 25 1b 14 c0 1a 64 d5 bf 05 d5 eb bf b2 1f e5 bf
       -2.3141568 -1.6671174 -1.8424383 -1.7900298
0000a0 b1 cc 0c c0 47 66 09 c0 e7 3c 07 bd 85 9b 06 c0
       -2.1999934 -2.1468675 -0.033017065 -2.1032422
0000b0 22 93 da bf 21 9b 01 c0 2b 8a f8 bf 09 2f ef 3e
       -1.7076151 -2.0250933 -1.9417166 0.46715572
0000c0 76 16 05 c0 57 1f f7 bf e5 53 09 bf f4 fc ec bf
       -2.079496 -1.9306439 -0.5364364 -1.8514695
0000d0 6c 67 e2 bf fc b9 42 bf 00 6e 20 bf f7 b8 db 3e
       -1.7687812 -0.7606504 -0.62667847 0.42914554
0000e0 f7 5f fa bf 2c 6e df bf f7 70 97 bf 59 a9 0c c0
       -1.9560536 -1.7455497 -1.1831349 -2.1978362
0000f0 93 6e d2 bd f8 14 d9 3e 2b 13 01 c0 0d b6 f6 bf
       -0.102749966 0.4239881 -2.016795 -1.9274307
000100 bc f4 ab bf 31 ac 5a 3e 3d 71 06 c0 62 8d b9 bf
       -1.3434062 0.21354748 -2.1006615 -1.4496272
000110 25 ae f0 3e 5d 22 dc bf 41 25 c2 bf 3b d6 9b 3e
       0.47007862 -1.7197987 -1.5167619 0.30436882
000120 5a c1 e8 bf c1 d0 0d c0 38 34 d9 bf 6c e7 b1 3e
       -1.8184006 -2.2158663 -1.6969061 0.34746873
000130 9c 69 71 3e 47 ab 02 c0 cc 7b fa 3e ad bd d8 bf
       0.23575443 -2.041704 0.48922575 -1.6932884
000140 0d b7 12 bf 97 4b a4 3e c7 b0 ee bf cc 48 03 c0
       -0.57310563 0.3208892 -1.8647698 -2.0513182
000150 02 65 ef bf 70 64 f9 bf 53 b3 0d c0 80 ba 0a c0
       -1.87027 -1.9483776 -2.21407 -2.167633
000160 e4 d5 e6 bf 43 30 d2 bf 33 a6 31 3c 3b dd a6 3e
       -1.8034024 -1.6420978 0.010842848 0.3259066
000170 27 c4 02 c0 20 04 c2 3e 95 4c ed bf ed 6c f2 bf
       -2.0432222 0.37893772 -1.8538996 -1.8939492
000180 f5 98 d6 bf 10 6c 01 c0 3b 7d 07 c0 21 a4 b8 be
       -1.6765429 -2.0222206 -2.1170185 -0.3606272
000190 1c 6c fd bf 36 fc 00 c0 36 5e 01 c0 d4 80 06 c0
       -1.9798617 -2.0153937 -2.0213752 -2.101613
0001a0 56 14 05 3f 30 a2 e7 bf c6 c1 f2 bf 13 a1 04 c0
       0.51984155 -1.8096371 -1.8965385 -2.0723312
0001b0 27 1d 0b c0 08 52 21 bf bb c2 f4 bf ef 3c b8 3e
       -2.1736543 -0.63015795 -1.9121927 0.3598399
0001c0 dd 30 01 c0 36 2e bd bf f8 46 bf 3e 48 bc a4 bf
       -2.0186074 -1.4779727 0.37358832 -1.2869959
0001d0 6e 38 13 c0 07 52 e8 bf 2f 8e d4 3e 9e 97 37 bf
       -2.3003192 -1.8150033 0.41514727 -0.71715724
0001e0 c4 62 0e c0 3e 1b ea bf 01 a1 99 3e 62 c3 0f c0
       -2.2247782 -1.8289564 0.3000565 -2.2463002
0001f0 e3 2f fd bf e6 81 e7 bf 76 1e f5 bf 8b b2 05 c0
       -1.9780239 -1.8086517 -1.9149921 -2.0890224

nn_model.2.weight f4 [128, 128]
000000 f3 3b a5 bd a5 a0 a4 bd ea 2e 8a bd 01 80 9d bd
       -0.08068075 -0.08038453 -0.067472294 -0.076904304
000010 80 d7 e5 bc 50 74 92 bb 06 59 79 bd 90 a1 8e be
       -0.02805686 -0.004469432 -0.060875915 -0.27857637
000020 14 be c2 bd 02 db 38 be f2 0f 9d bc e7 3d 64 be
       -0.09508911 -0.18052295 -0.019172642 -0.22289239
000030 94 88 fa bd ee 6d e1 bd 9f fa 4a be 4e f1 2d 3d
       -0.122330815 -0.110072955 -0.19822167 0.042466454
000040 b8 e3 57 3c 8e 6a 9b bd b5 50 15 3d f9 50 6f be
       0.013176851 -0.07588683 0.03645392 -0.23370732
000050 6a fc 64 3d 90 5a 88 bc 0a 72 ec bd fa 55 32 bd
       0.055904783 -0.016644746 -0.11545189 -0.043539025
000060 89 63 78 bd c2 83 a1 be 70 f2 02 bc 17 65 e5 bd
       -0.0606418 -0.31545836 -0.007992372 -0.11200922
000070 6f 56 23 be ce b6 81 bd ee 23 f8 bc 44 b7 47 bd
       -0.1595094 -0.06333695 -0.03029057 -0.04875876
000080 7d 05 14 bc 30 3b 3d be 45 eb 91 bd 4d b9 4a be
       -0.009034512 -0.1847961 -0.07124952 -0.19797249
000090 16 61 2f 3d de 3b bf bd b5 71 aa bd 0f a9 a7 bd
       0.042817198 -0.09337591 -0.08322469 -0.08186542
0000a0 09 39 32 bc 66 3a 78 be 29 c9 1d c0 14 34 03 be
       -0.010877856 -0.24241027 -2.4654028 -0.12812835
0000b0 f5 cd 65 bd b7 14 b1 3d d4 fe b3 bd e1 9f d3 be
       -0.05610462 0.08646529 -0.08788839 -0.41332915
0000c0 0c 1b b0 bd 59 dd 93 3d 9b 60 bb be 16 0a 0b 3d
       -0.08598909 0.07219953 -0.36597142 0.033945166
0000d0 3c b0 84 bd d8 ca 74 bd 52 07 06 be e7 56 55 be
       -0.064789265 -0.05976376 -0.1308873 -0.20833932
0000e0 27 f8 90 3d bb f3 41 be 9e 1b a7 be 7f c9 dc bb
       0.07078581 -0.18940632 -0.32638258 -0.0067378874
0000f0 9c 3d 84 bf ea ef 1a be 3a 44 6b 3d 1f 2d 11 bd
       -1.0331302 -0.15130582 0.057438113 -0.03544342
000100 3e 8f d5 bc 75 96 30 be 04 8c a9 bd 23 50 74 bd
       -0.02606928 -0.17244895 -0.08278659 -0.059646737
000110 42 8f 73 be 57 cf ec bd 7f ca 6e bf 13 ef 3d be
       -0.23785117 -0.115629844 -0.93277735 -0.18548231
000120 25 33 be bd 3d 5b df bb ef d5 e2 bd f6 eb 75 bf
       -0.09287099 -0.0068162964 -0.11075961 -0.9606317
000130 81 92 d6 bd 08 fd 8d bd 36 db 75 be 5c 56 dd 3c
       -0.10477162 -0.069330275 -0.24009404 0.027018718
000140 0a 92 6e bf 72 dd cf be 05 98 ae bd 6c c7 db bd
       -0.9319159 -0.40598637 -0.08525089 -0.10731396
000150 6c d7 f1 3c 40 8d a7 bd d4 a5 1a be b9 cf 64 bd
       0.029521666 -0.08181238 -0.15102321 -0.055862162
000160 19 e7 0f be dd d2 62 c0 14 3a d8 be a9 22 a5 be
       -0.14053 -3.54412 -0.4223181 -0.32253006
000170 ac e3 15 be 01 32 69 be bc 21 3d c0 b7 a1 13 be
       -0.14637631 -0.22772981 -2.955184 -0.14417158
000180 68 8b 4b bc 04 26 07 be c6 d5 fc bd bc 62 46 be
       -0.012423374 -0.13198096 -0.123454615 -0.19373602
000190 26 54 8b bd 67 70 10 be c6 76 4e 3d a6 f0 a1 bd
       -0.068031594 -0.14105378 0.05040624 -0.07907228
0001a0 58 05 b9 bd e8 8a c1 bc c1 de 2e bd 00 e9 1f be
       -0.09034222 -0.023625806 -0.042692903 -0.15616226
0001b0 13 c9 87 bd c7 ea d0 bd 47 d3 5a c0 e7 52 47 be
       -0.06630149 -0.1020103 -3.4191453 -0.19465218
0001c0 0a 26 20 3d 59 5e 47 bd 2b 66 42 be 88 dc 42 bd
       0.039098777 -0.04867396 -0.18984286 -0.047573596
0001d0 43 ea 25 be 04 93 ab 3c 52 8e 60 bf bd 3a 71 bd
       -0.16202645 0.020944126 -0.87717164 -0.058893908
0001e0 9c a7 bc bd 46 95 5e 3d ce 5a 68 be 50 8f 0f be
       -0.092116565 0.054341577 -0.22690889 -0.14019513
0001f0 00 bb aa 3a 21 a4 8e 3d 7a 11 12 be d3 ed d6 bd
       0.0013025701 0.06964899 -0.1426448 -0.1049458
000200 44 b0 94 bd 6e fb 20 be 0a ed dc bc 29 08 16 be
       -0.072601825 -0.15720913 -0.026968498 -0.1465155
000210 60 b5 e3 bc d9 da 37 bd 1c ca d6 bb 0e d7 df bd
       -0.027796447 -0.044886444 -0.006554855 -0.1092969
000220 09 14 16 be f1 a1 19 be 58 ff 7e bd 70 1b 38 be
       -0.1465608 -0.15003182 -0.062255234 -0.17979217
000230 1d 4c 83 be b7 b1 c3 bd 41 b8 86 bd 9e c3 81 bd
       -0.25644007 -0.09555381 -0.065781124 -0.06336139
000240 aa f2 80 bd 33 78 13 be 82 39 d6 bd 6c 2e d4 bd
       -0.062962845 -0.14401321 -0.104601875 -0.10360417
000250 40 d3 2d 3b d0 4d ae bc be b7 ed bd cf 0e a0 bd
       0.002652362 -0.021277338 -0.11607312 -0.078153245
000260 0a d8 c3 bd 68 b3 0e be b9 34 b0 bd 2d 64 72 be
       -0.095626906 -0.13935626 -0.08603806 -0.23671027
000270 cb 39 3b bf 59 5c 15 be 45 10 8d 3d a9 ab 9e 3d
       -0.7313506 -0.14586009 0.06887869 0.07747585
000280 0e 18 0f be 00 05 2b bf f7 8a 8d bd 9e 91 f1 bd
       -0.1397402 -0.66804504 -0.06911271 -0.117953524
000290 cb 9d 30 3c 0c 52 84 bd 4c 40 73 bd fe 61 4f be
       0.010779808 -0.06460962 -0.05938749 -0.20252225
0002a0 8b e1 b8 bd d9 ed 61 be d5 2f a6 bf 51 74 d7 bc
       -0.09027394 -0.22063388 -1.2983347 -0.026300581
0002b0 41 d0 a2 3d 63 52 a8 3d 47 bd a4 bd 9e 35 56 bf
       0.079498775 0.08218839 -0.08043914 -0.83675563
0002c0 fd 69 c6 bd 58 df 66 bd d7 19 1c be 70 cc ff bb
       -0.096881844 -0.05636534 -0.15244232 -0.0078063533
0002d0 aa 27 70 bd 9c 7d e3 bd 80 45 26 be 11 78 f1 be
       -0.058631577 -0.111079425 -0.1623745 -0.47161916
0002e0 c1 e0 88 bd 78 d1 89 bf b3 38 73 bf 19 e0 bd bc
       -0.066834934 -1.076705 -0.9500839 -0.023178147
0002f0 99 96 98 bf 4f fa 2c be 40 8e b3 3c 2d a0 85 3d
       -1.1920959 -0.1689236 0.021918416 0.06524692
000300 a0 67 48 bd 0b a1 14 be cb c7 9a bd ba 62 84 bd
       -0.04892695 -0.14514558 -0.07557639 -0.06464143
000310 44 f3 c9 bd 1e 3a 53 bf a3 e9 b4 bf 23 a9 26 be
       -0.09860852 -0.82510555 -1.41338 -0.16275458
000320 83 ca ee bd ea b6 26 3c 64 55 b5 bd f8 eb d3 bf
       -0.1165972 0.010175446 -0.088541776 -1.6556387
000330 93 bd 45 be 8a 6c 34 3d b9 f4 61 be cc 2b 0f 3d
       -0.19310598 0.044048823 -0.2206601 0.034953877
000340 25 de 65 be c7 05 1d bf 10 3c 9d bd d5 eb 0a be
       -0.22448023 -0.6133694 -0.07677472 -0.13566525
000350 22 9a 22 3d 04 69 02 3d 2e 1e 12 be c2 7a e0 bd
       0.039697774 0.031838432 -0.14269325 -0.10960914
000360 0a f9 12 be f7 8f e8 bf aa 17 d6 be 95 bb 10 be
       -0.14352813 -1.8168935 -0.4181493 -0.14134057
000370 01 a7 9f bd 6e bc d6 bd ab 07 c3 bf 99 2d a9 bc
       -0.07795525 -0.10485159 -1.5236715 -0.020651625
000380 e6 0c a2 bd c3 4d bd bc 63 b5 df bc 82 db 8f bd
       -0.079126164 -0.023108369 -0.027308172 -0.0702429
000390 4c 90 b2 bd fe 5f 05 bc fd 2b 94 3d 2d 00 1a be
       -0.08718929 -0.008140562 0.072349526 -0.1503913
0003a0 8b 16 07 be 05 88 9a 3d 26 a8 83 bd 96 0b 0b be
       -0.13192193 0.07545475 -0.06428556 -0.13578638
0003b0 5a e9 b8 bc 0f c7 c3 bd 65 c9 b3 be 89 08 87 be
       -0.022572208 -0.09559452 -0.3511459 -0.263737
0003c0 6f 4e 9b 3d 00 82 34 bc 2a 37 84 bd 03 ab 16 be
       0.075833194 -0.011017323 -0.06455834 -0.14713673
0003d0 3d 66 e1 bd d0 dd 9a bc c9 e0 43 bf dc ce 7d bc
       -0.110058285 -0.018904597 -0.7651487 -0.015491214
0003e0 b5 d9 9d bc ce 15 69 3d e3 f3 9b bd 6e 8a 01 be
       -0.01926885 0.05690556 -0.07614877 -0.12650463
0003f0 08 ba 27 bc 58 77 53 3c 49 71 1f bd 0b 9d 83 bc
       -0.010237224 0.012906872 -0.038926397 -0.016066095

nn_model.2.bias f4 [128]
000000 6c c4 5e bf 40 70 45 bf be 14 a2 bf b7 6d 8e bf
       -0.87018466 -0.77124405 -1.266258 -1.1127232
000010 8f 12 92 bf 08 8b 5c bf b3 f3 37 bf 05 f6 4f bf
       -1.1411914 -0.86149645 -0.7185623 -0.8123477
000020 f7 cc 39 bf a4 62 9d bf e8 d3 7f bf 8f f4 8e bf
       -0.72578377 -1.2295728 -0.9993272 -1.1168383
000030 f8 e4 51 bf 65 5f 90 bf f2 4b 48 bf 5e 6a 10 3d
       -0.81990004 -1.1279112 -0.78240883 0.03525769
000040 35 33 98 bf 5c 54 5c bf fc 46 94 bf 41 c0 88 bf
       -1.1890627 -0.8606622 -1.1584163 -1.0683671
000050 5b f7 2b bf 4d b0 4d bf 44 7d 9d bf 01 c7 8f bf
       -0.6717431 -0.8034714 -1.2303853 -1.1232606
000060 36 81 9d bf 99 85 96 bf 77 89 9a bf 3e be 76 bf
       -1.2305057 -1.1759521 -1.2073201 -0.96384037
000070 ef 4a 99 bf cc 29 6c 3e d1 64 93 bf c5 08 97 bf
       -1.1975993 0.23062819 -1.1515142 -1.1799551
000080 17 28 f6 bc ab 61 f6 be 9d 51 42 bf 42 af 49 3f
       -0.030048413 -0.4812139 -0.7590578 0.7878305
000090 a6 4f 9b bf 4b 88 7c bf 9a 10 4a bf f6 a4 75 bf
       -1.2133682 -0.98645467 -0.7893158 -0.95954835
0000a0 43 67 90 bf a6 de 21 bf 88 9e 3f bf 8f 2b 9f bf
       -1.1281513 -0.6323036 -0.74851274 -1.2435168
0000b0 55 d1 9b bf b6 87 e6 be fe 03 42 be da 08 9d bf
       -1.2173258 -0.45025414 -0.18946835 -1.2268326
0000c0 fe 4a 26 bf a2 94 49 bf 71 e6 37 bf 27 94 82 bf
       -0.6495818 -0.7874242 -0.71836 -1.0201463
0000d0 7c 7f 4f bf f1 4d 85 3e dc 20 49 bf 47 1f 99 bf
       -0.810539 0.26036027 -0.78565764 -1.196267
0000e0 c1 00 0c bf a9 81 17 bf 72 ae 5f bc 43 8b 03 3e
       -0.5468865 -0.5918222 -0.013652431 0.12846093
0000f0 1d ea 1a bf c0 88 5f bf dc 43 38 bf da 94 89 bf
       -0.6051348 -0.8731804 -0.71978545 -1.0748551
000100 e6 aa 6d bf f1 d2 9a bf 71 fc 56 bf eb ce 72 bf
       -0.92838895 -1.2095624 -0.83978945 -0.9484698
000110 cc 33 38 bf 90 a1 8d bf 4e 2f 99 bf 58 d8 99 bf
       -0.71954036 -1.106493 -1.1967561 -1.2019148
000120 c9 9f 99 bf 5a 5d 05 3f b1 2f f2 be fe 18 17 bf
       -1.2001888 0.5209557 -0.4730201 -0.5902251
000130 ee 68 92 bf 28 37 71 bf a1 3f 2f 3e 49 14 1b bf
       -1.1438272 -0.94224787 0.17114116 -0.6057783
000140 89 30 5f bf 5c c5 9a bf 78 9e a0 bf 57 6c 05 3e
       -0.87183434 -1.2091479 -1.2548361 0.1302961
000150 1b 14 3b bf 19 17 e4 3d 03 16 4b bf 91 d0 a1 bf
       -0.73077554 0.11137218 -0.7933046 -1.2641774
000160 0e 62 5d bf e0 4c 66 bf 77 c0 73 bf 3b 8f 5c bf
       -0.86477745 -0.8996105 -0.95215553 -0.8615605
000170 b7 2c 11 be 80 6a 99 bf a4 21 41 3e b8 4d 61 bf
       -0.14177214 -1.1985626 0.18860489 -0.88009214
000180 cf 0c 97 bf ad 24 43 bf 58 59 63 bf 5c 75 55 3e
       -1.1800784 -0.7622784 -0.888082 0.2084555
000190 0f 29 de be 3a bd c9 bf cf 6f 19 3d 04 ac f6 be
       -0.433907 -1.5760872 0.037460145 -0.48178113
0001a0 90 d0 61 bf dd 11 ce be 23 4f 99 bf 00 ad 87 bf
       -0.88208866 -0.40248004 -1.1977276 -1.059967
0001b0 c9 50 9f bf b4 d4 92 bf 72 aa 41 3f ca 2a 21 bf
       -1.2446529 -1.1471162 0.75650704 -0.62955916
0001c0 72 04 3a bf 99 3a 29 bf cd f3 a1 bf bc e2 24 bf
       -0.72663033 -0.6610504 -1.2652527 -0.6440847
0001d0 67 2a 5c bf 0c b2 94 bf f4 53 86 3d c6 05 22 3e
       -0.860022 -1.1616836 0.065589815 0.15822515
0001e0 50 96 41 bf 18 20 6b bf 96 27 97 bf d9 ef 1d bf
       -0.75619984 -0.91845846 -1.1808956 -0.61694103
0001f0 d6 ab 79 bf 6e 6a 2c bf d3 73 93 bf c1 0a 81 bf
       -0.97527826 -0.673499 -1.1519722 -1.0081407

allocation_head.0.weight f4 [4, 128]
000000 e5 b1 78 bd 33 18 dc 3d de 16 49 bd ef c5 ce bd
       -0.06071653 0.10746803 -0.049094073 -0.100963466
000010 3f fe ba 3c fa 5f 17 3d 7b df 0b 3d 17 4c 24 3c
       0.022826312 0.036956765 0.034148674 0.010027907
000020 e6 f2 d9 be 98 99 bf 3c 02 93 b1 bd 1c 54 8e bc
       -0.4256813 0.023388669 -0.08670618 -0.01737409
000030 2e 1f a6 bd 90 c5 6f bd 2c 66 03 bf d4 30 8b bd
       -0.08111416 -0.05853802 -0.51327777 -0.067964226
000040 6a 20 0f 3d e8 09 42 3d de 70 75 bd 86 a7 1d bd
       0.03494302 0.04737273 -0.05992209 -0.03848984
000050 9e c2 73 3d f5 96 5a 3c e8 03 95 bc 4b 5a 96 3d
       0.059511773 0.013341655 -0.01819034 0.07341441
000060 20 6b 69 bc 38 3c 19 3c a1 e8 a3 3d 14 9e 1c bc
       -0.014246732 0.009352736 0.08003355 -0.009559173
000070 c5 ea 63 bd 6e fa e6 bc 66 1f 0d bd 9d 66 9c 3d
       -0.055643816 -0.028195586 -0.034453772 0.076367594
000080 f5 1b 2e be aa 9b e1 bc a5 8f 03 be 33 77 9a bd
       -0.17002852 -0.027540047 -0.12847765 -0.07542267
000090 2d 56 53 bd a0 72 82 3c fc 96 6b 3d cd 06 8d bc
       -0.051595856 0.015923798 0.057517037 -0.017215157
0000a0 50 52 98 3b 3b a6 67 be df 6d 13 bf 4d 04 a9 bd
       0.0046484843 -0.22622006 -0.57589525 -0.082527734
0000b0 68 cc 82 bd 27 4d 97 3d cb 33 47 bd 5e 45 54 3d
       -0.06386644 0.073877625 -0.048633378 0.051823966
0000c0 d2 34 8a bc a5 10 e0 3c 93 84 9a be 9c 17 e4 3c
       -0.01687089 0.027351687 -0.3017927 0.02784329
0000d0 1f d3 c2 3d b3 6d 58 be 07 24 8d 3d 52 2b 55 bd
       0.095129244 -0.21135597 0.06891637 -0.052043267
0000e0 b3 ef a4 be 08 7d 9a be ef ae 56 be b9 88 52 be
       -0.32214126 -0.30173516 -0.2096517 -0.20559968
0000f0 6e 52 fd 3d d8 c5 c8 bc 83 13 f7 be b8 bf da 3c
       0.12369238 -0.024508402 -0.48257074 0.026702747
000100 54 87 e6 ba 40 c8 36 bc d1 0b c5 3c 55 ef a4 3d
       -0.0017587938 -0.011156142 0.024053486 0.080534615
000110 c6 5d 6a 3d d0 5d cb 3c 6e 7f 8b bd 1c ad 04 bd
       0.057218336 0.024825007 -0.06811415 -0.032391652
000120 e8 48 0e 3d 3d df 07 3f 70 45 00 be 67 4a f0 3e
       0.034737498 0.5307501 -0.12526488 0.46931764
000130 18 1a 90 3c 8d b5 87 bc ba 34 16 3d ac f0 f4 be
       0.017590567 -0.016566062 0.036671378 -0.47839868
000140 51 d6 b6 bc 95 d5 a0 3d cb a3 89 3d 43 de ce bc
       -0.02231899 0.078532375 0.06720694 -0.025252467
000150 23 26 3d 3e f0 3b 21 be cd e3 15 bd c7 b9 25 bd
       0.18471579 -0.1574552 -0.0365942 -0.040460374
000160 86 6f a4 3d f8 62 fc 3b ae 2e 57 3d 05 81 61 3d
       0.08029084 0.0077022277 0.05253475 0.055054683
000170 20 ad 0e be cc 5e 07 3d 9d 7f 13 bd 46 6e a6 bb
       -0.1393323 0.03304939 -0.036010373 -0.0050790636
000180 76 c5 34 3d 17 11 25 be 4d 90 be bb 98 f8 a6 3d
       0.044133626 -0.161198 -0.005815542 0.08152884
000190 c0 83 94 bd 80 4f ce 3d 91 6e b7 bc 40 fb 3f bc
       -0.07251692 0.10073757 -0.02239159 -0.0117176175
0001a0 6f 31 8d bd fc e4 83 be 77 51 88 bd 97 db 5a 3b
       -0.06894194 -0.2576064 -0.06656163 0.0033395046
0001b0 17 ea f1 b9 e8 6e 59 3c d3 84 8f bc 4d 45 f9 bb
       -0.00046141513 0.013271071 -0.01751939 -0.0076071383
0001c0 91 24 e9 bd 31 09 a5 3c e6 1a 78 3d fc 3c 97 be
       -0.113839276 0.020145984 0.060572527 -0.29538715
0001d0 4c 78 9a bd 62 a5 65 bd db 93 16 bf 58 65 96 3e
       -0.07542476 -0.056065924 -0.5881936 0.29374194
0001e0 53 bd 74 3d 84 e9 1d 3d 2a a6 30 bd a8 07 74 3d
       0.059750866 0.038552776 -0.043127216 0.059577614
0001f0 47 51 14 be ad 2a 4a bd 18 42 b5 bc e5 2f fe bc
       -0.1448413 -0.049357105 -0.022126243 -0.031028697
000200 86 51 ba bd ce 08 4b bc fe e2 f8 3c 93 f6 e3 3b
       -0.090975806 -0.012392236 0.030381676 0.006956884
000210 89 5b aa 3a a3 dc 43 3c 43 1c da 3d a5 99 8d bd
       0.001299725 0.011954459 0.10649922 -0.06914071
000220 1d cd 82 3e 80 dc f9 bb 7a 72 2c bd ce 32 66 3d
       0.25547114 -0.0076251626 -0.04210136 0.056200795
000230 66 98 b7 3d 2e ea 65 3d 29 42 f6 3e 31 ea f1 bd
       0.089646146 0.056131534 0.4809735 -0.118122466
000240 12 9d a2 bd 4d a9 65 bd 96 83 76 3d 00 34 16 ba
       -0.07940115 -0.05606966 0.060184084 -0.00057297945
000250 12 f3 36 bc d5 da 02 be 46 68 a9 bd e8 d5 69 bd
       -0.011166351 -0.1277879 -0.08271842 -0.057088763
000260 98 de 92 bc 4e 8b 46 3d a6 bb 43 3d 51 af 10 3b
       -0.017928407 0.048472695 0.047786377 0.0022077153
000270 4e d5 61 3d 47 f8 81 bd d0 13 99 bc f9 cb 12 bd
       0.055135064 -0.06346183 -0.018686205 -0.035839055
000280 98 01 d7 3d c2 6b b8 be b2 5a 26 be b8 2f c9 bc
       0.10498351 -0.36019713 -0.16245535 -0.024558887
000290 40 9b 62 bc b6 25 71 bd ab 72 7e bc 78 35 db bc
       -0.01383096 -0.058873855 -0.015530269 -0.026758894
0002a0 8f ed a2 bd b2 f9 23 be 30 32 91 3e 34 ac 13 bd
       -0.07955467 -0.1601322 0.28358603 -0.036052898
0002b0 05 76 a3 3d d0 cd 83 3e 36 0a af bc 96 0f 65 3d
       0.07981495 0.2574296 -0.021367174 0.055923067
0002c0 2b 81 de 3c 9e 32 94 bb f9 54 a5 3e 5e 9d 06 be
       0.027161201 -0.0045226356 0.32291391 -0.13145968
0002d0 6e 6a 8e 3d 1f 50 6a be b0 27 67 be 4c 1f ca 3c
       0.069538936 -0.22882126 -0.22573733 0.024673127
0002e0 e6 e9 c0 3e 77 e0 b6 3e 98 be 9e 3e 5a 5a 90 3d
       0.3767845 0.35718128 0.31004786 0.07048483
0002f0 0c c1 c2 be 03 43 47 bc ca 74 0b 3f 42 b7 77 3d
       -0.38037908 -0.012161973 0.5447508 0.060477503
000300 99 53 93 bd d0 2c 81 3b 3e 78 7c bd 25 b7 3a 3c
       -0.07193679 0.0039421096 -0.06163811 0.011396204
000310 73 91 42 3c 95 57 f4 bc 5d be 57 bd 00 c2 fc ba
       0.011875498 -0.029826919 -0.05267178 -0.0019283891
000320 40 af 73 3b d9 76 07 3f e0 e2 0c bf c7 85 d8 be
       0.0037183315 0.5291572 -0.55033684 -0.42289564
000330 d0 38 52 bd cd b1 f9 3d 5f d6 39 bd e6 08 da 3e
       -0.051323712 0.12192116 -0.045370456 0.42584914
000340 33 73 bc 3d c0 5f 37 3c 80 7b 2c ba 7a bc 58 bd
       0.0920166 0.011192262 -0.0006579682 -0.05291412
000350 e1 03 85 be 2a 77 37 be e1 76 26 bd 40 c6 38 3c
       -0.25979522 -0.17916551 -0.040640716 0.011277735
000360 54 1e de bb d7 ea 60 3c ab fd a0 3d 76 4b 55 bd
       -0.0067785177 0.013727865 0.07860883 -0.05207392
000370 b5 40 c4 bd 43 12 b3 3d 53 e6 69 be b6 c3 5f 3d
       -0.095826544 0.087437175 -0.22841768 0.054630004
000380 87 df 9c bd 75 70 ed 3d 49 c8 43 bd c5 3b 32 bd
       -0.07659822 0.11593715 -0.04779843 -0.043514032
000390 43 44 31 be 84 02 1c 3d 0b b8 26 bd 23 04 1d 3e
       -0.17311196 0.038088337 -0.04070286 0.1533361
0003a0 d0 10 8d 3d 63 cf 03 bd aa 76 5d 3d 06 d5 56 ba
       0.06887972 -0.0321802 0.054068245 -0.0008195195
0003b0 d7 25 21 3d 78 ec 7f bd 72 74 9d bd 34 80 0b bd
       0.039342728 -0.062481374 -0.07688226 -0.03405781
0003c0 6c dd fc bc c0 02 cd 3b 8c 17 e9 bc ba 0a ee 3d
       -0.0308673 0.0062564313 -0.02845361 0.1162314
0003d0 9d 73 f2 bb ba 06 15 be b7 34 09 bf 18 71 96 3e
       -0.007399036 -0.14553347 -0.5359606 0.2938316
0003e0 0b b2 3e 3d 5e 03 e8 3c 0d ad 3e bd de 98 00 3d
       0.046556514 0.028321918 -0.046551753 0.031395786
0003f0 e2 90 55 3c 29 fe 3d 3b b2 f0 56 bd 6c 03 09 3d
       0.013035031 0.0028990603 -0.05247564 0.03345053

allocation_head.0.bias f4 [4]
000000 ab e9 22 bd 1b fe f8 3a 28 9b 19 3d 10 5c 65 bb
       -0.039773624 0.0018996628 0.037501484 -0.00349975

payment_head.0.weight f4 [1, 128]
000000 b7 30 8a 3c 98 f0 55 bd 66 56 53 3d 0a 66 1b 3d
       0.016868932 -0.0522314 0.051596068 0.03793911
000010 67 0e 04 bd 28 2a b9 3d 6d 6a c3 bc a0 68 82 bb
       -0.032240298 0.09041244 -0.023854459 -0.0039797574
000020 16 20 2d 3e 74 c4 37 bd ea 23 08 3e 74 d6 c2 bc
       0.16906771 -0.044865087 0.1329495 -0.0237839
000030 5c aa 0d 3e f7 67 2f bd f4 68 c6 3d 1d d7 27 3e
       0.13834518 -0.042823758 0.09687987 0.16390653
000040 ba 85 88 bd 88 fb 3d bd 1d 36 89 bd 00 7d df b9
       -0.06666131 -0.046382457 -0.066997744 -0.00042627007
000050 57 8e 49 3e 96 2e 10 3b 6a da 01 bd da 20 25 3d
       0.19683205 0.0022000424 -0.031702437 0.040314533
000060 6f 29 3d bd 60 71 a0 3c dc 0a a6 bc e6 39 d0 39
       -0.046182092 0.019585311 -0.02026885 0.0003971599
000070 98 f4 46 3c 77 7c 6c 3f 50 c4 74 bd 00 7d 86 3b
       0.012143277 0.9237742 -0.05975753 0.0041042566
000080 88 06 37 be 15 d9 b5 3d 61 2a 3d 3e 81 83 88 3f
       -0.17873585 0.08879296 0.18473198 1.0665132
000090 ad 5f b2 3d f5 16 86 3b 64 d6 13 3e 2d ba 56 3d
       0.08709655 0.004092092 0.14437252 0.052423645
0000a0 30 88 98 bc bd 4f 14 3e f5 67 75 3c 50 6f 8a 3b
       -0.018619627 0.14483543 0.014978399 0.0042246953
0000b0 39 3e b0 bd 3d ca 90 3e 91 3d 63 3d 0e 2f 36 3d
       -0.08605618 0.28279296 0.055478636 0.04447847
0000c0 f8 cc 3d 3e d6 43 e6 3d 1a 19 19 3e b9 aa 34 3d
       0.1853522 0.112434074 0.14950982 0.044108126
0000d0 31 da 16 3c 6f 9a 03 3f d5 4f 48 3d 52 6b 51 3d
       0.009207294 0.5140752 0.04890426 0.05112774
0000e0 8b 26 f5 3d 99 b4 ea 3d 12 a9 1d be 40 8e 66 3e
       0.11970242 0.114602275 -0.15396526 0.22515202
0000f0 3c 10 81 3d df 89 b3 bc 95 73 0f 3e 97 37 b0 3d
       0.063019246 -0.021916328 0.14008935 0.08604353
000100 fc 9b 9e 3d 66 e3 95 bd c2 97 55 3c 04 3f 1b bd
       0.077445954 -0.073187634 0.01303667 -0.037901893
000110 c9 a7 6c 3d 36 47 7a 3c f0 5b 92 3c c6 7c 09 3d
       0.0577772 0.015275767 0.017866105 0.03356626
000120 d5 f7 8f 3d 3f 5a be be 46 6a 8a 3d 93 d8 fc 3b
       0.07029692 -0.37178227 0.06758551 0.0077162473
000130 c1 92 a3 bd e8 5a b5 3c 37 e7 3d 3e 92 1f ad 3d
       -0.079869755 0.022138074 0.18545233 0.08453287
000140 5b ce 0b be 73 a0 a7 3d c7 7c ab 3d 66 86 a4 3e
       -0.13652937 0.081849 0.08373409 0.32133788
000150 85 80 c1 3d 70 60 00 3d a7 99 94 3d 49 6b ab 3d
       0.09448341 0.03134197 0.07255869 0.083700724
000160 b9 e3 ed bd 0a a3 cd bd 49 07 ad 3c d9 fd f0 bc
       -0.116157 -0.10040863 0.021121638 -0.029417919
000170 1b 61 97 3c 30 58 fd bb ec 20 a5 3e a2 39 88 bc
       0.01847892 -0.00773146 0.3225168 -0.016629044
000180 f9 e8 96 3d 73 10 1d bf 12 b1 3c 3e cc e3 9f 3d
       0.07368655 -0.61353225 0.18426922 0.07807121
000190 9b c9 a2 3d ca f8 8f bb 77 11 35 bf e9 0c 2e 3e
       0.079486094 -0.0043936716 -0.70729774 0.16997112
0001a0 31 8d be bb 78 e4 81 bc 00 60 ab 3c b4 d9 e4 bd
       -0.005815171 -0.015856013 0.0209198 -0.11174336
0001b0 b9 7c e2 bb e6 9b 76 bd 1d 3f 74 3f 4b 30 3a 3d
       -0.0069118408 -0.06020727 0.95408803 0.045456212
0001c0 d6 6d a8 bc 4b 39 5f 3d 6e 5d 63 3d 54 8c 13 bf
       -0.020560186 0.054498 0.055509023 -0.57636
0001d0 8c 05 a5 3d 34 c9 8b 3d 67 cb c0 be 49 13 8b 3c
       0.080576986 0.06825486 -0.37655184 0.01697697
0001e0 5d b7 c7 3d 79 33 9a bd 59 5e 88 bd 2f bf a3 be
       0.09751771 -0.07529349 -0.066586204 -0.319818
0001f0 58 db fc 3b 88 9b 0b 3e 8c 1e e7 3c 75 c8 92 3d
       0.0077165775 0.13633549 0.028212808 0.071671404
