model/1x2_sparsemax_linearpmt_distill_fast_4l.pt (torch_old, 272042 bytes, 13 tensors)

nn_model.0.weight f4 [128, 2]
0.33951914 -0.6690961 0.2869083 -0.71948195 -0.41265407 0.062067486 -0.4592561 0.17030996
-1.8798192 -1.987027 -1.3727032 -0.6575808 0.20730232 -0.6952507 -0.036327448 -0.45686257
-1.0951983 -0.016062427 -0.526699 -0.7264766 0.19134457 -0.24995026 0.21801637 -0.3194331
0.3905227 -0.39835605 -0.2880628 -0.32933778 -0.081577174 -0.064485535 -0.25738466 -1.5080317
-1.4407587 -0.35747343 -0.42211825 0.329427 -0.5335882 -0.25777563 -0.19576854 -0.019305356
-0.303287 -1.35819 -1.7810599 -0.2976458 -0.1171308 -0.05636617 -0.52574503 0.14953825
0.11316125 -0.48057663 -0.3758979 0.30116978 -1.6303086 -0.5103514 -0.11603105 -0.5003984
-0.41512126 -2.0280998 -0.052453466 -0.62391865 -1.0135213 -0.75388396 -0.14618443 -1.7727349
0.033122774 -0.32501325 -0.27418303 -0.59252554 -0.61443657 0.5823496 -0.37952754 -0.23402424
-0.48732862 -0.24965103 0.25591472 0.21973453 -1.3932804 -0.9826856 -0.38036317 -0.13808547
-0.057141073 0.4008424 -1.8639718 -0.029587474 -1.5365406 -0.6150411 0.042055894 -0.7117544
-0.82631063 -1.9511343 -0.20475784 -1.5047941 -1.5702949 -0.45028225 -0.581981 -0.53310734
-0.18367323 0.32007718 -1.553854 -0.45784682 0.68863684 0.657658 -1.3053374 -1.011922
-1.1394359 -1.4855187 -0.3173103 0.115395896 0.15031035 -0.28166386 0.055708244 -0.1987664
0.4966236 0.18285747 -0.23561329 0.10807641 0.42139623 -0.38228613 0.4780755 0.07135372
-0.99379563 -0.367082 0.34361032 -0.6877844 -1.2484125 -0.52497923 -1.7960044 -0.25599885
0.0022557622 0.050513238 -0.5922171 0.35641792 -0.7920497 0.26410252 -0.4005714 -0.108807914
0.046175677 -0.25957412 -0.11650937 -0.3789254 -0.48554817 -0.2853784 -0.73537797 -0.08848244
-0.13900827 -0.2569015 -0.038341317 0.43082613 0.17645928 -0.26883313 -0.051548764 -0.6208114
-0.51427406 -0.16053285 -1.2200594 -0.46826726 -0.3850644 0.12170694 -1.7388877 -1.1007912
0.2456115 0.5176065 -0.2810982 0.13292465 -0.7584198 -1.4777682 -0.16653726 0.06968769
-1.6289344 -0.6016132 -0.44284213 -1.5208745 0.19564393 -0.30109483 -0.051252414 0.4235438
-0.3912237 0.046243347 -0.21049832 -0.37912333 -0.3470041 -0.25896657 -0.3997309 -0.19604552
-0.4280907 0.024756912 -0.35992527 -0.2081461 -1.7929214 -5.1130567 -0.050130617 -0.15760294
-1.4763051 -1.432197 0.17341346 -0.20453551 0.15000392 -0.1973522 0.36521766 0.12280313
-1.3808208 -0.48341697 0.19703332 -0.30201614 -0.78818625 -0.95447063 0.24177706 -0.36478108
-0.4524834 0.017510822 -1.6320156 -0.82228756 -1.8447487 -0.2705386 -0.8133006 0.5020681
0.5435413 0.554857 -0.40665907 0.29549345 -1.348991 -0.41630143 -0.7677004 -0.75744516
-0.8357466 -0.90573907 -1.5873349 -2.1607797 -0.19657473 -0.24962026 -0.18305807 0.21547036
0.44892117 -0.5645869 -1.0864698 -1.3256991 -0.35859677 -0.4582304 0.18268871 -0.04601487
0.17535053 0.5478186 -1.7064966 -0.6626613 0.35214087 -0.44116503 0.21071124 0.15963338
-0.2390891 -1.6255176 -0.3194231 -2.1037972 -0.22427765 -0.08639635 -0.04884093 0.40008077
00000000: 74d5 ad3e e249 2bbf a5e5 923e f82f 38bf
00000010: 6547 d3be 7a3a 7e3d 9e23 ebbe bc65 2e3e
00000020: ea9d f0bf e756 febf bdb4 afbf 3757 28bf
00000030: 0f47 543e f3fb 31bf 17cc 14bd e4e9 e9be
00000040: 752f 8cbf 5a95 83bc bfd5 06bf 5ffa 39bf
00000050: d5ef 433e f6f2 7fbe af3f 5f3e bc8c a3be
00000060: 97f2 c73e 53f5 cbbe f87c 93be f69e a8be
00000070: ef11 a7bd fe10 84bd ecc7 83be 2f07 c1bf
00000080: c86a b8bf c206 b7be e21f d8be a8aa a83e
00000090: 3c99 08bf 2bfb 83be 8c77 48be 4426 9ebc
000000a0: 6f48 9bbe 2bd9 adbf c5f9 e3bf 0865 98be
000000b0: 46e2 efbd 37e0 66bd 3a97 06bf 8e20 193e
000000c0: 16c1 e73d 240e f6be b175 c0be ed32 9a3e
000000d0: f4ad d0bf 64a6 02bf b0a1 edbd 1c1a 00bf
000000e0: c68a d4be 63cc 01c0 72d9 56bd 22b9 1fbf
000000f0: 11bb 81bf 8afe 40bf 5fb1 15be fae8 e2bf
00000100: bfab 073d 2368 a6be b861 8cbe c1af 17bf
00000110: b74b 1dbf dd14 153f 6f51 c2be 0da4 6fbe
00000120: 2383 f9be 85a4 7fbe 4107 833e 1702 613e
00000130: 0357 b2bf 4991 7bbf f6be c2be 4766 0dbe
00000140: c20c 6abd 373b cd3e a196 eebf 6e61 f2bc
00000150: 5dad c4bf 5573 1dbf cd42 2c3d 8935 36bf
00000160: 1889 53bf c5be f9bf 0aac 51be 189d c0bf
00000170: 6cff c8bf 658b e6be b5fc 14bf b979 08bf
00000180: d614 3cbe 28e1 a33e b0e4 c6bf e66a eabe
00000190: 814a 303f 465c 283f 4c15 a7bf a986 81bf
000001a0: 09d9 91bf 7a25 bebf 7f76 a2be af54 ec3d
000001b0: f5ea 193e 3f36 90be 542e 643d 6b89 4bbe
000001c0: 7345 fe3e fd3e 3b3e 9c44 71be 2a57 dd3d
000001d0: 3fc1 d73e 02bb c3be 50c6 f43e e621 923d
000001e0: 6469 7ebf 2cf2 bbbe b1ed af3e a312 30bf
000001f0: fbcb 9fbf 0a65 06bf 79e3 e5bf 4812 83be
00000200: 69d5 133b f8e6 4e3d 8a9b 17bf 697c b63e
00000210: c5c3 4abf 7238 873e b217 cdbe afd6 debd
00000220: b522 3d3d e6e6 84be 779c eebd 8302 c2be
00000230: c599 f8be 1e1d 92be bb41 3cbf 4836 b5bd
00000240: 2f58 0ebe 9888 83be c90b 1dbd 3e95 dc3e
00000250: beb1 343e 7fa4 89be cc24 53bd 7fed 1ebf
00000260: 77a7 03bf b962 24be e82a 9cbf bac0 efbe
00000270: 2927 c5be 7d41 f93d df93 debf bae6 8cbf
00000280: 9581 7b3e dc81 043f 1aec 8fbe 661d 083e
00000290: cd27 42bf 8227 bdbf be88 2abe 6bb8 8e3d
000002a0: ec80 d0bf 5303 1abf 34bc e2be 04ac c2bf
000002b0: e256 483e 1a29 9abe 0dee 51bd bcda d83e
000002c0: 794e c8be aa69 3d3d df8c 57be 741c c2be
000002d0: 85aa b1be 4497 84be 87a9 ccbe 28c0 48be
000002e0: b42e dbbe 02cf ca3c 2048 b8be 4024 55be
000002f0: 737e e5bf 299e a3c0 c355 4dbd aa62 21be
00000300: 91f7 bcbf 3b52 b7bf 4c93 313e c271 51be
00000310: a19a 193e b216 4abe cffd ba3e 3580 fb3d
00000320: bcbe b0bf 6e82 f7be 1ac3 493e dca1 9abe
00000330: 93c6 49bf 3058 74bf 6894 773e 96c4 babe
00000340: e7ab e7be db72 8f3c e3e5 d0bf 7081 52bf
00000350: ba20 ecbf 0984 8abe 7834 50bf 8987 003f
00000360: 8625 0b3f 1c0b 0e3f 9e35 d0be eb4a 973e
00000370: bdab acbf 7625 d5be 0388 44bf ede7 41bf
00000380: 7df3 55bf 84de 67bf ca2d cbbf 374a 0ac0
00000390: e34a 49be 749c 7fbe 9373 3bbe 43a4 5c3e
000003a0: ffd8 e53e c488 10bf 7111 8bbf 82b0 a9bf
000003b0: ff99 b7be 2d9d eabe c012 3b3e 177a 3cbd
000003c0: 178f 333e d73d 0c3f 7b6e dabf 2ca4 29bf
000003d0: cf4b b43e 62e0 e1be b0c4 573e ef76 233e
000003e0: c6d3 74be f610 d0bf 6d8b a3be 9da4 06c0
000003f0: 0aa9 65be 92f0 b0bd 6d0d 48bd 63d7 cc3e

nn_model.0.bias f4 [128]
0.7063904 0.7506382 0.5123956 0.4820505 -1.2229822 -1.709372 -0.62575465 -0.40336198
-1.059776 1.1242061 0.03260574 -0.084925935 0.11200926 0.70607024 0.12085504 -1.7635514
-1.7511221 0.18791847 0.7536009 0.2647178 -1.8107568 -1.6941906 0.40127134 0.5586839
-1.3946878 0.09817902 -1.6800282 0.70325285 -0.6959303 0.77472746 -1.8078101 -1.7130394
0.36283234 0.8438797 0.38207185 0.5913824 -1.8831532 0.5017657 -1.665942 0.56977475
-0.82252043 -0.84683806 -0.7129222 -0.82562166 -1.4579784 -1.7820426 -1.733674 1.0958563
-0.5344001 -1.6838452 -1.4386271 -1.6493319 -1.5825081 0.41702208 0.28626388 -0.11835983
-0.8531312 0.038006954 0.18063469 -0.82980144 -0.42464554 0.711045 -1.7995249 -1.7076509
0.07067523 0.61124456 -0.85350037 0.7138451 0.42147607 0.4688436 0.70745677 0.9215074
0.54444855 -0.6506906 -0.040160615 0.7334985 0.7578398 -1.8172016 0.41162795 -1.453752
-1.0257689 -0.07377097 -1.6269661 -0.05170626 -1.6407299 -1.7096217 -0.15649322 -0.6545112
0.4366013 0.53223187 0.7107469 0.57698417 -0.64487284 0.54182184 -0.6435611 0.1877418
-1.440975 0.23283708 -0.21699674 -0.5154384 -1.7417223 -0.10223791 -1.789484 -0.106463075
0.5271218 -1.5991515 -1.6459696 -0.19952606 -1.3358843 -0.056171343 -0.7058137 1.0510418
-1.7761925 -1.2430416 0.40264308 0.65710014 -0.20090786 -1.587012 0.7790206 0.19246316
-0.8381392 -1.59889 0.44603875 -0.6364684 -1.7395691 -1.5601662 0.28731453 -0.67244816
00000000: 00d6 343f d329 403f 5c2c 033f 53cf f63e
00000010: ae8a 9cbf b4cc dabf 7531 20bf 7685 cebe
00000020: bda6 87bf fce5 8f3f 998d 053d a6ed adbd
00000030: 1c65 e53d 05c1 343f d982 f73d 0dbc e1bf
00000040: c524 e0bf b36d 403e fdeb 403f 1789 873e
00000050: e1c6 e7bf 3ddb d8bf 7073 cd3e e805 0f3f
00000060: 2185 b2bf 1512 c93d 2a0b d7bf 6108 343f
00000070: 7d28 32bf 8a54 463f 5266 e7bf e044 dbbf
00000080: 29c5 b93e 8008 583f ec9e c33e d664 173f
00000090: 2a0b f1bf b873 003f 963d d5bf c2dc 113f
000000a0: b390 52bf 61ca 58bf 1282 36bf f15b 53bf
000000b0: 099f babf f919 e4bf 08e9 ddbf 0545 8c3f
000000c0: 72ce 08bf 3d88 d7bf ef24 b8bf 4f1d d3bf
000000d0: a08f cabf eb83 d53e 2e91 923e a366 f2bd
000000e0: ce66 5abf 2ead 1b3d 4df8 383e de6d 54bf
000000f0: 246b d9be 0c07 363f d556 e6bf 4e94 dabf
00000100: 2dbe 903d 867a 1c3f 007f 5abf 8dbe 363f
00000110: b6cb d73e 450c f03e e31b 353f e9e7 6b3f
00000120: fb60 0b3f a993 26bf 757f 24bd 8fc6 3b3f
00000130: ca01 423f 109a e8bf e6c0 d23e 8c14 babf
00000140: 654c 83bf 3c15 97bd 6d40 d0bf f1c9 53bd
00000150: 7003 d2bf e2d4 dabf c23f 20be 0c8e 27bf
00000160: 358a df3e 5940 083f 82f3 353f 3cb5 133f
00000170: 6316 25bf d6b4 0a3f 6cc0 24bf 633f 403e
00000180: de71 b8bf d86c 6e3e 6534 5ebe c5f3 03bf
00000190: c2f0 debf 1c62 d1bd d00d e5bf 5009 dabd
000001a0: 74f1 063f ffb0 ccbf 22af d2bf 8f50 4cbe
000001b0: 42fe aabf ec13 66bd 35b0 34bf 8a88 863f
000001c0: 475a e3bf fd1b 9fbf 3c27 ce3e b737 283f
000001d0: caba 4dbe 3623 cbbf e56d 473f 1015 453e
000001e0: 4a90 56bf 6da8 ccbf 315f e43e 98ef 22bf
000001f0: 33aa debf 87b3 c7bf e41a 933e 9025 2cbf

nn_model.2.weight f4 [128, 128]
-0.0012731213 -0.00017473275 -0.025488513 -0.04335859 -0.02805686 -0.004469432 -0.04365583 -0.12769996
-0.053910416 -0.1117085 -0.0024696568 -0.11325066 -0.0013609072 -0.062311668 -0.0882206 0.042466454
0.013176851 0.0157958 -0.13038531 -0.12241162 0.055904783 -0.016644746 -0.07923376 0.008871468
0.008883056 -0.113882996 -0.007992372 0.0051943418 -0.035349388 0.0070146904 -0.03029057 -0.04875876
0.012257737 -0.040228117 0.034298778 -0.074760996 -0.06881658 -0.050408635 -0.08322469 -0.30867568
0.030061329 -0.017609995 -0.06405113 -0.01446266 -0.05610462 0.08646529 -0.08788839 -0.2181276
-0.054517448 0.07219953 -0.046189815 0.033945166 -0.064789265 -0.006418695 -0.06801332 -0.031501945
-0.013192287 -0.0026288845 -0.079616696 -0.05940437 -0.11147529 -0.08963703 0.057438113 -0.03544342
0.01137902 -0.07124509 -0.05369917 -2.0726135 -0.14086185 -0.08375004 -0.12569351 -0.045662303
-0.05825846 0.034629278 -0.001229291 -0.15884009 -0.0016218422 -0.069330275 -0.11118479 0.027018718
-0.052099053 -0.076749615 -0.08525089 -0.06969782 0.029521666 -0.08181238 -0.14197879 -0.022914922
-0.10034975 -1.7178395 -0.073670834 -0.050978106 -0.11357229 -0.09712938 0.0020004914 -0.14082251
-0.012423374 -0.13186938 -0.11684376 -0.00056449976 -0.068031594 -0.122780226 0.05040624 -0.046603568
0.03347985 -0.023625806 -0.042692903 -0.06527592 -0.0548537 0.02362303 -0.13966836 -0.044725493
0.039098777 -0.04867396 -0.08402376 -0.0010262859 -0.14272793 0.020944126 -0.22949603 -4.6025787e-05
-0.109659925 0.054341577 -0.14177358 -0.13000733 0.0013025701 0.06964899 -0.11307248 -0.0731374
0.014172435 -0.06906791 -0.018294467 -0.13798228 -0.027796447 -0.044886444 -0.017345509 -0.042552426
-0.096883595 -0.059630163 -0.055473767 -0.09090319 -0.11229175 -0.08500232 0.011882549 -0.06336139
-0.062962845 -0.079901166 -0.115775645 -0.030336274 0.002652362 -0.021277338 -0.1094824 -0.06824714
-0.08282174 0.009462779 -0.08603806 -0.111424804 -0.12780826 -0.07109744 0.06887869 0.07747585
-0.13225909 -0.058826838 -0.0018241574 -0.015677983 0.13512267 -0.05813171 -0.05938749 -0.31121832
-0.08032673 -0.03503217 -0.05477344 -0.029070925 0.079498775 0.08218839 -0.08043914 -0.2060443
-0.08766824 -0.05636534 0.020431092 -0.0078063533 -0.058631577 -0.09421857 -0.10431864 -0.04954067
-0.15697426 -0.13007069 -0.17951794 -0.019865323 -0.018665915 -0.10924007 0.021918416 0.06524692
-0.04114914 -0.07112744 -0.06817043 -2.7692437 -0.012212436 -0.1288325 -0.07393005 -0.004141077
-0.1101481 0.016022237 -0.0025680372 -0.09329264 -0.077571474 0.044048823 -0.121571496 0.034953877
-0.033390857 -0.018265292 -0.07677472 -0.124821275 0.039697774 0.031838432 -0.136949 -0.10174542
-0.13398573 -1.4178668 -0.09573975 0.012251682 -0.06779804 -0.004305109 -0.095504075 -0.015034563
-0.079126164 -0.030367931 -0.022491366 0.009293 -0.08718929 -0.0010586352 0.072349526 -0.15362938
-0.043395486 0.07545475 -0.06428556 -0.058226816 -0.017982617 -0.029694019 0.0267626 -0.0022574316
0.075833194 -0.011017323 0.016569316 -0.13843676 -0.10683568 -0.018904597 -0.1738206 0.021535875
-0.017180517 0.05690556 -0.001741548 -0.119741075 -0.010237224 0.012906872 -0.031454735 -0.008584505
00000000: ddde a6ba 7738 37b9 49cd d0bc c798 31bd
00000010: 80d7 e5bc 5074 92bb 75d0 32bd c7c3 02be
00000020: 2bd1 5cbd 6dc7 e4bd f7d9 21bb f6ef e7bd
00000030: 7860 b2ba 853a 7fbd 00ad b4bd 4ef1 2d3d
00000040: b8e3 573c 3266 813c ba83 05be f2b2 fabd
00000050: 6afc 643d 905a 88bc 4f45 a2bd a259 113c
00000060: 3d8a 113c 7d3b e9bd 70f2 02bc 4c35 aa3b
00000070: 85ca 10bd 7ddb e53b ee23 f8bc 44b7 47bd
00000080: add4 483c 3dc6 24bd e07c 0c3d 4b1c 99bd
00000090: b5ef 8cbd 4979 4ebd b571 aabd bd0a 9ebe
000000a0: 2d43 f63c d642 90bc 3d2d 83bd cbf4 6cbc
000000b0: f5cd 65bd b714 b13d d4fe b3bd d75c 5fbe
000000c0: b04d 5fbd 59dd 933d 8831 3dbd 160a 0b3d
000000d0: 3cb0 84bd eb53 d2bb 914a 8bbd 2f08 01bd
000000e0: 7624 58bc 5d49 2cbb 140e a3bd ff51 73bd
000000f0: 284d e4bd 9f93 b7bd 3a44 6b3d 1f2d 11bd
00000100: 126f 3a3c f2e8 91bd a9f3 5bbd b3a5 04c0
00000110: 173e 10be 2485 abbd cdb5 00be 6508 3bbd
00000120: 6ca0 6ebd 6ed7 0d3d 2920 a1ba faa6 22be
00000130: fe93 d4ba 08fd 8dbd dab4 e3bd 5c56 dd3c
00000140: d165 55bd e72e 9dbd 0598 aebd bbbd 8ebd
00000150: 6cd7 f13c 408d a7bd e362 11be 13b8 bbbc
00000160: 2b84 cdbd 2ae2 dbbf bce0 96bd 6bce 50bd
00000170: 9798 e8bd c5eb c6bd ad1a 033b c733 10be
00000180: 688b 4bbc c408 07be c84b efbd f0fa 13ba
00000190: 2654 8bbd 3374 fbbd c676 4e3d 62e3 3ebd
000001a0: 2b22 093d e88a c1bc c1de 2ebd 62af 85bd
000001b0: 46ae 60bd 1685 c13c 3905 0fbe 1432 37bd
000001c0: 0a26 203d 595e 47bd a614 acbd 7184 86ba
000001d0: 4527 12be 0493 ab3c 0201 6bbe d00b 41b8
000001e0: 6295 e0bd 4695 5e3d 182d 11be a420 05be
000001f0: 00bb aa3a 21a4 8e3d 8b92 e7bd 10c9 95bd
00000200: 8033 683c 7a73 8dbd 47de 95bc 3a4b 0dbe
00000210: 60b5 e3bc d9da 37bd 2b18 8ebc 744b 2ebd
00000220: e86a c6bd c23e 74bd 7638 63bd 742b babd
00000230: 38f9 e5bd b215 aebd 06af 423c 9ec3 81bd
00000240: aaf2 80bd 39a3 a3bd c81b edbd c783 f8bc
00000250: 40d3 2d3b d04d aebc 4f38 e0bd 28c5 8bbd
00000260: 729e a9bd c609 1b3c b934 b0bd b032 e4bd
00000270: 2be0 02be 899b 91bd 4510 8d3d a9ab 9e3d
00000280: ed6e 07be 69f4 70bd 9118 efba 1d6f 80bc
00000290: 995d 0a3e 841b 6ebd 4c40 73bd 0258 9fbe
000002a0: 5782 a4bd e57d 0fbd 1d5a 60bd 2626 eebc
000002b0: 41d0 a23d 6352 a83d 47bd a4bd 47fd 52be
000002c0: 688b b3bd 58df 66bd 1b5f a73c 70cc ffbb
000002d0: aa27 70bd aaf5 c0bd 03a5 d5bd 28eb 4abd
000002e0: dcbd 20be 4031 05be 8dd3 37be 9abc a2bc
000002f0: 43e9 98bc 42b9 dfbd 408e b33c 2da0 853d
00000300: 008c 28bd 43ab 91bd f09c 8bbd 4a3b 31c0
00000310: ab16 48bc abec 03be a368 97bd dfb1 87bb
00000320: 5495 e1bd 1141 833c 844c 28bb 3610 bfbd
00000330: cbdd 9ebd 8a6c 343d 7afa f8bd cc2b 0f3d
00000340: dac4 08bd 18a1 95bc 103c 9dbd 4ca2 ffbd
00000350: 229a 223d 0469 023d 5c3c 0cbe e75f d0bd
00000360: 8e33 09be a97c b5bf 3413 c4bd 47bb 483c
00000370: b3d9 8abd df11 8dbb a497 c3bd 8753 76bc
00000380: e60c a2bd 2bc6 f8bc d03f b8bc ab41 183c
00000390: 4c90 b2bd e7c1 8aba fd2b 943d 0551 1dbe
000003a0: 77bf 31bd 0588 9a3d 26a8 83bd 3e7f 6ebd
000003b0: 4850 93bc df40 f3bc 3d3d db3c 6bf1 13bb
000003c0: 6f4e 9b3d 0082 34bc 60bc 873c 5ec2 0dbe
000003d0: aacc dabd d0dd 9abc 07fe 31be 016c b03c
000003e0: 28be 8cbc ce15 693d a744 e4ba cf3a f5bd
000003f0: 08ba 27bc 5877 533c aed6 00bd 06a6 0cbc

nn_model.2.bias f4 [128]
-0.009119667 -0.011454935 -0.0051363218 -0.17307132 -0.088287026 0.433105 -0.09740922 -0.25516057
-0.0437484 -0.341281 -0.32796586 -0.31988496 -0.21970014 -0.37166306 -0.051602684 -0.16810545
-0.3108139 -0.04653776 -0.31276363 -0.30846778 -0.051349886 -0.14694895 -0.27291173 -0.009635871
-0.36080462 -0.3348636 -0.36012167 -0.0885889 -0.437225 -0.0014599042 -0.26454264 -0.30491242
-0.057014607 -0.1064309 0.0010835946 -0.007030786 -0.3141172 -0.097904615 -0.15401796 -0.101178765
-0.25106448 -0.11548447 -0.047654193 -0.38657236 -0.28033003 0.040576268 0.015085091 -0.3639888
-0.06561231 -0.068661205 -0.074246354 -0.06057236 -0.03974724 -0.14015871 -0.15892904 -0.4354151
-0.045527454 -0.058437523 -0.057307195 -0.09177517 -0.0914586 -0.15918685 -0.03650109 -0.23993695
-0.37840566 -0.2691462 0.009551129 -0.1071989 -0.16606207 -0.13293952 -0.41267383 -0.24495599
-0.34908405 -0.122801155 -0.050718293 -0.083069764 -0.40544242 -0.17378274 -0.0778762 -0.09184195
-0.069059946 -0.45611766 -0.384847 -0.046853956 -0.12502359 -0.014830612 -0.055915564 -0.33195248
-0.15120284 -0.12552887 -0.0007352112 -0.07454239 -0.119417965 -0.35312054 -0.30457634 -0.1063906
-0.30590948 0.034205355 -0.12399081 -0.07483361 -0.14955105 0.001717677 -0.055572875 -0.107306704
-0.070481814 -0.11202548 -0.36073214 0.02037207 -0.041299757 -0.29387727 -0.08305733 0.0056490274
-0.19886553 -0.11769704 -0.35775197 0.024341717 -0.2564518 -0.062051423 0.031611547 -0.049056157
-0.12221873 -0.09032057 -0.25243753 -0.33126748 -0.046592288 -0.009536622 -0.39224687 -0.083470725
00000000: a86a 15bc 7bad 3bbc 974e a8bb 9c39 31be
00000010: d4cf b4bd f0bf dd3e 7c7e c7bd 68a4 82be
00000020: 8631 33bd 62bc aebe 24eb a7be f6c7 a3be
00000030: 13f9 60be 9f4a bebe 565d 53bd d623 2cbe
00000040: 0023 9fbe 619e 3ebd 8e22 a0be 7def 9dbe
00000050: 4254 52bd c979 16be 16bb 8bbe c6df 1dbc
00000060: 62bb b8be 3e73 abbe de61 b8be 196e b5bd
00000070: f5db dfbe 425a bfba 2272 87be 7b1d 9cbe
00000080: 2688 69bd 72f8 d9bd 6707 8e3a 8262 e6bb
00000090: f8d3 a0be 3782 c8bd e2b6 1dbe d036 cfbd
000000a0: 868b 80be 1f83 ecbd 0b31 43bd d0ec c5be
000000b0: 6b87 8fbe 4d33 263d 7527 773c bd5c babe
000000c0: bf5f 86bd 3f9e 8cbd 790e 98bd b91a 78bd
000000d0: 00ce 22bd c485 0fbe 4bbe 22be baee debe
000000e0: ff7a 3abd 2f5c 6fbd f3ba 6abd 9ff4 bbbd
000000f0: a54e bbbd e101 23be 2b82 15bd 08b2 75be
00000100: 63be c1be 88cd 89be 577c 1c3c 198b dbbd
00000110: 2d0c 2abe 4c21 08be fc49 d3be bed5 7abe
00000120: 25bb b2be 2c7f fbbd fcbd 4fbd 7b20 aabd
00000130: 2696 cfbe 1af4 31be 8f7d 9fbd a217 bcbd
00000140: 4d6f 8dbd 4188 e9be aa0a c5be efe9 3fbd
00000150: 2f06 00be 18fc 72bc b807 65bd adf5 a9be
00000160: ebd4 1abe a48a 00be 30bb 40ba aea9 98bd
00000170: 6891 f4bd 37cc b4be 6ef1 9bbe 51e3 d9bd
00000180: 2ba0 9cbe ea1a 0c3d e5ee fdbd 5d42 99bd
00000190: e923 19be ad23 e13a 62a0 63bd 9ec3 dbbd
000001a0: c558 90bd 9d6d e5bd e2b1 b8be 54e3 a63c
000001b0: ef29 29bd 1577 96be f619 aabd 7a1b b93b
000001c0: 68a3 4bbe 250b f1bd 442b b7be 4868 c73c
000001d0: a64d 83be a229 7ebd 1c7b 013d 1cef 48bd
000001e0: d04d fabd fef9 b8bd 7e3f 81be e49b a9be
000001f0: 8ed7 3ebd 7e3f 1cbc 95d4 c8be b3f2 aabd

nn_model.4.weight f4 [128, 128]
-0.07641317 0.037584487 -0.079978764 -0.06949836 -0.030004712 -1.3775687 -0.03398606 -0.03055564
-0.0015888613 -0.022681966 -0.03203972 0.011680823 -0.009978926 0.067569196 -0.07382302 0.036000386
-0.046654705 -0.028129084 0.023189496 0.017820688 -0.034609094 -0.06112142 -0.056308426 -0.020962574
-0.0068435767 -0.0076234057 0.04590385 -0.10774404 -0.039626382 -0.045596115 0.023095 0.043825068
-0.058181096 -0.068591036 -0.097002044 -0.056050915 -0.030393746 -0.035398968 0.04446134 0.0013792193
0.053760268 -0.098342665 -0.03531227 0.039036863 0.027499659 -0.07763261 -0.10197329 -0.05683947
-0.036287107 -0.04035667 -0.07339534 -0.023884036 0.04520485 0.008184315 0.013590584 -0.042533796
-0.07797289 0.017511897 0.008396632 -0.051876985 -0.09468166 0.023012377 0.022341093 -0.033151582
0.03807371 -0.029267082 -0.12476796 -0.057169076 0.036346093 -0.045225814 0.017159529 0.0058607436
0.006159429 -0.035945524 0.005897484 0.0007810252 0.025930837 -0.00021995694 -0.13267882 0.0056122844
-0.008804598 -0.0071721356 -0.004210599 -0.011342644 -0.0069597713 -0.09187632 0.06084373 -0.047286503
0.0199271 -0.09582311 -0.043028597 -0.04798695 -0.058750574 -0.007079945 0.0044532246 -0.00022469566
0.023338933 -0.06220297 -0.017879488 -0.08515547 -0.050458048 -0.0601297 -0.09298376 0.03081614
-0.07308869 -0.04726792 -0.015082302 -0.054529272 0.0057118926 0.048852023 -0.07578254 -0.0748852
0.007505185 -0.013524581 0.008477363 -0.05605377 0.0033658808 -0.049357455 -0.15027322 -0.0468944
-0.002734411 0.053878013 -0.024347017 0.011391269 -0.036539383 -0.08844621 0.016136501 -0.025547238
-0.0948281 -0.016804213 -0.0404745 -0.08203141 -0.123595074 -2.2997334 -0.07348049 0.019533552
-0.041011743 -0.028696077 -0.015669467 -0.03838901 -0.004021433 0.00020930865 -0.13932179 -0.004800161
-0.0030309893 -0.04655427 0.010619852 -0.0061451863 -0.08872667 -0.04445981 -0.014137026 -0.016965058
0.009178927 0.010419125 -0.018334096 -0.031179046 -0.018643012 -0.0267176 0.024343915 0.026445532
-0.08661144 0.024653295 -0.12741819 -0.0481928 0.008941603 -0.0843693 -0.03890318 -0.009739336
-0.029360384 -0.07389514 -0.14379573 -0.02887493 -0.027643416 -0.079812765 -0.1348057 -0.021315724
-0.06997806 -0.11095629 -0.022949468 -0.007080871 -0.0021985483 -0.02361415 -0.07899105 0.044382147
-0.08894383 -0.09211514 -0.13124518 -0.09270034 -0.13026664 0.00796543 -0.039818935 -0.04404825
-0.06507561 -0.018205253 -0.022206483 -0.047720876 -0.13872468 -0.08535669 0.03131098 -0.06682716
0.0010165469 -0.10047907 -0.09004484 -0.009611827 -0.009403433 -0.098936066 -0.12573296 -0.0385288
-0.025762226 0.030738685 0.02829108 -0.1165333 -0.07383736 -0.09228433 -0.016720057 -0.036947053
0.016986791 -0.085418515 -0.058230247 -0.12680267 -0.111556485 -0.020056143 0.013810755 0.04488661
0.0035807511 -0.10616243 0.013244646 -0.049369317 -0.071180806 -0.009815325 -0.028217794 -0.044858575
-0.032337736 0.0038400202 0.0061798515 -0.028077371 -0.12136452 0.044660136 -0.076426245 -0.056600288
-0.063150905 -0.09596427 -0.021968052 -0.02537016 0.06405815 -0.003256596 -0.11864791 -0.06346112
-0.060234338 -0.09561352 -0.044342663 -0.13656667 0.010592556 -0.072531916 -0.031805445 -0.04962697
00000000: 827e 9cbd 31f2 193d e8cb a3bd 2855 8ebd
00000010: 71cc f5bc 2c54 b0bf f834 0bbd d24f fabc
00000020: 5741 d0ba 88cf b9bc 153c 03bd ec60 3f3c
00000030: a67e 23bc b861 8a3d 8630 97bd 2475 133d
00000040: 0119 3fbd f76e e6bc e6f7 bd3c b1fc 913c
00000050: 44c2 0dbd 745a 7abd aaa3 66bd b4b9 abbc
00000060: 1540 e0bb c3cd f9bb ad05 3c3d e8a8 dcbd
00000070: 464f 22bd fec2 3abd ba31 bd3c ea81 333d
00000080: 4d4f 6ebd 7579 8cbd 02a9 c6bd a595 65bd
00000090: 4efc f8bc 82fe 10bd 181d 363d ecc6 b43a
000000a0: ba33 5c3d e167 c9bd 99a3 10bd 1ee5 1f3d
000000b0: f746 e13c d9fd 9ebd 5fd7 d0bd 81d0 68bd
000000c0: caa1 14bd 094d 25bd 4c50 96bd 74a8 c3bc
000000d0: b928 393d 8117 063c 0aab 5e3c eb37 2ebd
000000e0: 40b0 9fbd 1c75 8f3c 0792 093c f67c 54bd
000000f0: 75e8 c1bd 7484 bc3c ab04 b73c f4c9 07bd
00000100: 2ef3 1b3d 85c1 efbc 5886 ffbd 1f2a 6abd
00000110: a4df 143d b43e 39bd 2492 8c3c 7b0b c03b
00000120: 09d5 c93b 9d3b 13bd ae3f c13b b7bd 4c3a
00000130: e86c d43c 3ea4 66b9 f5dc 07be 41e7 b73b
00000140: 2941 10bc 3c04 ebbb 11f9 89bb 7fd6 39bc
00000150: cb0e e4bb a729 bcbd 4637 793d 7eaf 41bd
00000160: 283e a33c e83e c4bd c13e 30bd f78d 44bd
00000170: 71a4 70bd e2fe e7bb 5bec 913b 489c 6bb9
00000180: 4a31 bf3c 8bc8 7ebd 0178 92bc fe65 aebd
00000190: 19ad 4ebd 8f4a 76bd 456e bebd 2172 fc3c
000001a0: 86af 95bd 029c 41bd c21b 77bc 165a 5fbd
000001b0: d42a bb3b 0f19 483d e033 9bbd 695d 99bd
000001c0: 0eee f53b 3496 5dbc a3e4 0a3c a398 65bd
000001d0: 1c96 5c3b 0b2b 4abd 39e1 19be 5814 40bd
000001e0: ce33 33bb 31af 5c3d 6573 c7bc 72a2 3a3c
000001f0: 52aa 15bd 4923 b5bd b230 843c 7148 d1bc
00000200: 3c35 c2bd fda8 89bc 97c8 25bd 1500 a8bd
00000210: 6a1f fdbd d52e 13c0 f07c 96bd d404 a03c
00000220: eefb 27bd 0914 ebbc 415d 80bc cb3d 1dbd
00000230: 3ac6 83bb dd79 5b39 5faa 0ebe ab4a 9dbb
00000240: 90a3 46bb b1af 3ebd e3fe 2d3c 8f5d c9bb
00000250: 54b6 b5bd 7d1b 36bd fc9e 67bc 4efa 8abc
00000260: 3663 163c fab4 2a3c 6331 96bc 336b ffbc
00000270: 3bb9 98bc dede dabc e46c c73c 4da4 d83c
00000280: 5761 b1bd b5f5 c93c ea79 02be d065 45bd
00000290: cd7f 123c d0c9 acbd f158 1fbd bc91 1fbc
000002a0: 3085 f0bc 5656 97bd 303f 13be 1e8b ecbc
000002b0: 7274 e2bc e074 a3bd 810a 0abe 509e aebc
000002c0: a850 8fbd 0d3d e3bd 8600 bcbc a706 e8bb
000002d0: 8515 10bb 7672 c1bc 0fc6 a1bd 0eca 353d
000002e0: 2f28 b6bd dda6 bcbd 2365 06be add9 bdbd
000002f0: 9e64 05be 6f81 023c 2e19 23bd f06b 34bd
00000300: 5d46 85bd 2f23 95bc 5fea b5bc f776 43bd
00000310: d80d 0ebe 7dcf aebd f13f 003d aedc 88bd
00000320: a73d 853a f8c7 cdbd 6e69 b8bd ed7a 1dbc
00000330: db10 1abc fe9e cabd 24c0 00be 60d0 1dbd
00000340: 4e0b d3bc b2cf fb3c b2c2 e73c 03a9 eebd
00000350: 0b38 97bd 91ff bcbd 80f8 88bc cb55 17bd
00000360: e227 8b3c e7ef aebd d782 6ebd 8fd8 01be
00000370: ba77 e4bd c84c a4bc 8146 623c 06db 373d
00000380: 09ab 6a3b b06b d9bd 1200 593c 7b37 4abd
00000390: 3ec7 91bd 75d0 20bc 0129 e7bc a0bd 37bd
000003a0: 9374 04bd d9a8 7b3b 5a80 ca3b 8402 e6bc
000003b0: f68d f8bd 8ced 363d 5d85 9cbd b4d5 67bd
000003c0: 4355 81bd ea88 c4bd 58f6 b3bc 15d5 cfbc
000003d0: eb30 833d 9d6c 55bb adfd f2bd e7f7 81bd
000003e0: 48b8 76bd 05d1 c3bd a7a0 35bd 22d8 0bbe
000003f0: 668c 2d3c 9d8b 94bd 6d46 02bd a645 4bbd

nn_model.4.bias f4 [128]
-0.78366244 -0.38906646 -0.14209498 -0.72098917 -0.45135534 -0.35103413 -0.93571466 -0.49774256
-0.24165496 -0.25598815 -0.09474019 0.12209241 -0.78122014 -1.0391142 -0.16620132 -0.1873061
-1.1851903 -0.133943 -0.89686877 -0.19257939 -0.23346275 -0.39369723 -0.011786996 -0.40644237
-0.38073897 -8.8990804e-05 -1.0759934 0.1477119 -0.88117874 -0.11911467 -0.37661064 -0.72333354
-0.3859273 -0.2241853 -1.0279721 -0.056888215 -0.85186684 -0.7163804 -0.043391787 -1.0493683
-0.23530003 -0.43448505 -0.88724566 0.5650059 0.71117574 -0.20501345 -0.3498447 -0.48055336
-0.33907285 -0.36554644 -0.0287141 -0.028027019 -0.2536476 -0.08076785 -0.7239501 -0.13718857
0.34206992 -0.5613905 -1.0806178 -1.0840147 -0.7110372 -0.22743137 -0.35680094 0.64773744
-0.12613627 -0.17674376 -0.7178031 -1.0003258 -0.4476794 -0.03144081 0.00666961 -0.23296836
-0.18540582 -0.15285227 -0.31618518 -0.4031165 -0.29647914 -0.06276731 -0.50565696 -0.31596515
-0.6305848 -1.0261067 -0.21065748 -0.122143656 -0.31842425 -0.1491888 -0.879397 -0.46430597
-0.21860138 -0.17402011 -0.10628691 -0.4033652 -0.04772658 -0.20431635 0.026242368 -0.72055423
-0.15028374 -0.926203 -0.2531414 -0.7077049 -0.17719573 -1.0382304 -1.0327814 -0.2092109
0.48931405 0.41175318 -0.28787515 -0.17941238 -0.21188216 -0.22108728 -0.5049149 -0.58090955
-0.89057404 -0.45568046 -1.0778459 -0.32899264 -0.1170189 -0.38636976 -0.36017847 -0.27980417
-0.15405715 -0.13895696 -1.1064372 -0.22362232 -0.13976584 -1.0033329 -0.42697033 -0.33815572
00000000: 1a9e 48bf b833 c7be 5981 11be bf92 38bf
00000010: 0c18 e7be bfba b3be ff8a 6fbf 1dd8 febe
00000020: 6674 77be e110 83be 2507 c2bd 960b fa3d
00000030: 0bfe 47bf b201 85bf ae30 2abe 2ccd 3fbe
00000040: 51b4 97bf 5b28 09be 3199 65bf 8833 45be
00000050: dc10 6fbe af92 c9be 3f1e 41bc 3719 d0be
00000060: 38f0 c2be 93a0 bab8 27ba 89bf ca41 173e
00000070: ee94 61bf 64f2 f3bd 1cd3 c0be 632c 39bf
00000080: 4398 c5be d590 65be 9794 83bf 9e03 69bd
00000090: f213 5abf b564 37bf 96bb 31bd b351 86bf
000000a0: 7ef2 70be d374 debe 8822 63bf 3aa4 103f
000000b0: 9d0f 363f 0cef 51be d81e b3be 170b f6be
000000c0: f59a adbe e728 bbbe d539 ebbc eb98 e5bc
000000d0: 19de 81be 9d69 a5bd cb54 39bf 297b 0cbe
000000e0: ca23 af3e 4ab7 0fbf af51 8abf fec0 8abf
000000f0: 8906 36bf c5e3 68be 9dae b6be 1fd2 253f
00000100: de29 01be 51fc 34be f2c1 37bf ad0a 80bf
00000110: 3c36 e5be 14c8 00bd be8c da3b 428f 6ebe
00000120: 06db 3dbe 4e85 1cbe 06e3 a1be 4965 cebe
00000130: 1dcc 97be 268c 80bd bc72 01bf 2fc6 a1be
00000140: 016e 21bf 7757 83bf 98b6 57be 7426 fabd
00000150: 8108 a3be f3c4 18be 2920 61bf 83b9 edbe
00000160: 0ad9 5fbe 5432 32be f4ac d9bd e285 cebe
00000170: f27c 43bd 4e38 51be 3cfa d63c 3e76 38bf
00000180: fbe3 19be a41b 6dbf c09b 81be 262c 35bf
00000190: cc72 35be bce4 84bf 2e32 84bf 623b 56be
000001a0: 5f87 fa3e 50d1 d23e 5f64 93be e1b7 37be
000001b0: a3f7 58be b464 62be 1a42 01bf 7db6 14bf
000001c0: a9fc 63bf f34e e9be dbf6 89bf b971 a8be
000001d0: 9ba7 efbd 42d2 c5be 5069 b8be 7e42 8fbe
000001e0: 28c1 1dbe bc4a 0ebe bc9f 8dbf 40fd 64be
000001f0: c71e 0fbe 366d 80bf db9b dabe bf22 adbe

nn_model.6.weight f4 [128, 128]
0.0026396117 -0.063038036 -0.05920332 -0.005516602 -0.04597155 -0.056001868 0.03128091 -0.042556327
-0.12218175 -0.035185717 -0.092949346 -2.0461302 -0.19560495 -0.019206839 -0.0061365347 -0.04749999
0.015578598 -0.039566144 0.028338706 0.015392795 -0.0069506196 -0.36411604 -0.20915215 -0.013766247
-0.1548893 -3.0532365 0.005069129 -0.99141014 -0.021887198 -0.48541388 -0.0841925 -0.023751095
-0.05960836 -0.05695552 -0.0011101018 -0.1934997 0.01806924 -0.027985942 -0.1254428 0.054984175
0.03372208 0.00034717316 -0.019673884 -0.2161402 -0.083005294 -0.068982154 -0.05648365 -0.19585569
-0.053121604 -0.059644297 -0.20018579 -0.1770951 0.038147487 -0.120495625 -0.057592414 -0.04337405
-1.1499307 0.016476184 0.004141255 0.059362955 -0.014106286 0.03941675 -0.05225159 -1.6659532
-0.033301782 0.003638034 0.008246554 0.0018771155 -0.2066196 -0.15775119 -0.25553942 -0.06995136
-0.09073495 -0.01706708 -0.07635792 0.04965041 -0.013223027 -0.089227684 -1.0757189 0.054659512
0.03068706 -0.043811504 -0.07536737 -0.07127761 -0.07237341 -0.12019139 0.047875248 -0.012856253
-0.02843215 -0.036076263 -0.050827764 -0.0666319 -0.06955934 -0.028292848 -0.38377073 0.01758277
-0.030551774 0.026718333 -0.0016001279 -0.027578132 -0.11809022 -0.054039117 -0.03821244 -0.036477003
-0.9051428 -0.55481064 -0.07768313 -0.04503291 -0.033936054 0.0517001 0.040465828 -0.11094969
-0.05511431 -0.05571589 0.00016644044 0.0049249656 -0.13284492 -0.07727927 0.02702527 -0.049442463
-0.031126829 -0.08733008 0.033573646 -0.051472254 -0.03902464 0.041814618 0.038876437 0.024589514
-0.06427726 0.028962428 -0.09691725 -0.024385013 -0.05140357 0.0075684646 0.028325157 0.026704675
-0.13817103 0.04066681 -0.0042407154 -2.051951 -0.087526634 -0.054084357 -0.09786404 0.02486681
-0.0050278027 -0.122397974 0.0584891 -0.06800232 0.020021755 -0.650465 -0.08809395 0.033103976
-0.11660524 -3.48572 -0.01738259 -2.2664926 -0.07706284 -0.18305434 -0.021401593 -0.030982262
-0.1265699 0.016948031 0.037733518 -0.017955396 0.009959189 0.04983166 -0.14309232 -0.028466659
-0.0015265184 0.0053802077 -0.012245338 -0.045198668 -0.052877184 -0.07918853 -0.06618471 -0.14946593
-0.03873341 0.025948351 -0.08496378 -0.036725428 -0.07881213 -0.08733942 -0.056752406 -0.08097032
-5.905689 -0.0029981197 -0.007022988 -0.008334053 -0.03920006 -0.056069326 -0.10241538 -6.20717
-0.14158528 -0.009455195 -0.0476528 -0.04817257 -0.1409691 -0.002001239 -0.15206265 -0.1295781
-0.058965944 0.003328231 -0.035678025 -0.026641214 -0.0076308665 -0.03901666 -1.1094437 -0.0776274
-0.074366346 -0.061816156 -0.030130176 -0.08745948 -0.05612708 0.01824469 -0.03668255 -0.06154501
0.028883219 -0.11221323 -0.053765114 -0.07974244 -0.0012771776 -0.063269034 -0.23064922 -0.07433421
-0.044786233 -0.022425877 -0.01368638 -0.030428305 0.005655019 0.010153568 -0.06587908 -0.09888573
-1.8622701 -1.041584 -0.06589047 0.008386103 -0.03942903 0.015636137 -0.06282579 -0.09462018
-0.024445284 0.01367604 -0.03855184 -0.083822615 0.009476516 -0.042072706 -0.052699614 -0.03455909
-0.09343658 -0.0655838 0.021355009 -0.07704107 0.0096456185 0.060503524 -0.040513065 0.041910246
00000000: 56fd 2c3b 161a 81bd 2e7f 72bd 9dc4 b4bb
00000010: aa4c 3cbd 3762 65bd 6920 003d 8b4f 2ebd
00000020: 6d3a fabd e61e 10bd 3a5c bebd ccf3 02c0
00000030: aa4c 48be a957 9dbc fc14 c9bb 598f 42bd
00000040: 603d 7f3c 1c10 22bd 9326 e83c 1032 7c3c
00000050: 06c2 e3bb 6b6d babe fb2b 56be d38b 61bc
00000060: 4d9b 1ebe 3a68 43c0 f01a a63b 0ecd 7dbf
00000070: c84c b3bc 2b88 f8be 1e6d acbd a891 c2bc
00000080: e527 74bd 314a 69bd d680 91ba c924 46be
00000090: f105 943c c642 e5bc 1474 00be 1637 613d
000000a0: 2a20 0a3d cb04 b639 202b a1bc db53 5dbe
000000b0: aefe a9bd 8446 8dbd 665b 67bd 658e 48be
000000c0: 0a96 59bd 944d 74bd 81fd 4cbe 6b58 35be
000000d0: 8a40 1c3d 69c6 f6bd 06e6 6bbd fda8 31bd
000000e0: ee30 93bf 10f9 863c 5db3 873b 9226 733d
000000f0: 0d1e 67bc 7573 213d c305 56bd f43d d5bf
00000100: 7367 08bd 156c 6e3b 8e1c 073c 8b09 f63a
00000110: 1794 53be 8789 21be 10d6 82be a942 8fbd
00000120: 3fd3 b9bd 43d0 8bbc 8b61 9cbd 3a5e 4b3d
00000130: 65a5 58bc 01bd b6bd 28b1 89bf a7e2 5f3d
00000140: 6e63 fb3c b173 33bd 355a 9abd fff9 91bd
00000150: 8338 94bd e726 f6bd d618 443d 09a3 52bc
00000160: 8aea e8bc b4c4 13bd c630 50bd 4e76 88bd
00000170: 2175 8ebd 67c6 e7bc 997d c4be be09 903c
00000180: b747 fabc 68e0 da3c 62bb d1ba 89eb e1bc
00000190: 49d9 f1bd 1f58 5dbd a684 1cbd e968 15bd
000001a0: 70b7 67bf 1208 0ebf 5518 9fbd 6e74 38bd
000001b0: 8800 0bbd 7cc3 533d 7fbf 253d 9739 e3bd
000001c0: 8bbf 61bd 5836 64bd 8486 2e39 9b61 a13b
000001d0: 8008 08be 9844 9ebd 1964 dd3c 2e84 4abd
000001e0: b1fd febc 1dda b2bd 8584 093d 92d4 52bd
000001f0: 4dd8 1fbd ce45 2b3d e63c 1f3d f36f c93c
00000200: cca3 83bd 9d42 ed3c 8d7c c6bd 14c3 c7bc
00000210: 8d8c 52bd e200 f83b 290a e83c c3c3 da3c
00000220: b57c 0dbe 3e92 263d b3f5 8abb 2a53 03c0
00000230: 2a41 b3bd 8f87 5dbd f16c c8bd 7bb5 cb3c
00000240: 44c0 a4bb caab fabd 4492 6f3d cd44 8bbd
00000250: aa04 a43c e084 26bf 9a6a b4bd 0998 073d
00000260: bace eebd 0916 5fc0 ef65 8ebc 370e 11c0
00000270: 1fd3 9dbd 9972 3bbe 6552 afbc 83ce fdbc
00000280: 8a9b 01be 99d6 8a3c 768e 1a3d 3217 93bc
00000290: de2b 233c 481c 4c3d cb86 12be e932 e9bc
000002a0: 7515 c8ba 744c b03b aca0 48bc 3d22 39bd
000002b0: bf95 58bd 992d a2bd d98b 87bd 990d 19be
000002c0: eda6 1ebd a391 d43c 7e01 aebd 676d 16bd
000002d0: 4168 a1bd 03df b2bd 3675 68bd c4d3 a5bd
000002e0: 67fb bcc0 1a7c 44bb 1821 e6bb 8d8b 08bc
000002f0: 3e90 20bd f3a8 65bd 28bf d1bd 23a1 c6c0
00000300: bbfb 10be f6e9 1abc 952f 43bd 9a50 45bd
00000310: 345a 10be 3827 03bb 50b6 1bbe 1fb0 04be
00000320: 4686 71bd 731e 5a3b 1f23 12bd ad3e dabc
00000330: 590c fabb efcf 1fbd 4002 8ebf 1dfb 9ebd
00000340: 624d 98bd f032 7dbd 8fd3 f6bc f51d b3bd
00000350: 82e5 65bd e375 953c 7140 16bd 9f16 7cbd
00000360: 809c ec3c 0dd0 e5bd cf38 5cbd 0150 a3bd
00000370: f866 a7ba 3293 81bd 4f2f 6cbe 893c 98bd
00000380: c571 37bd 79b6 b7bc d73c 60bc c844 f9bc
00000390: bd4d b93b 275b 263c 9ceb 86bd 9a84 cabd
000003a0: de5e eebf a052 85bf 95f1 86bd de65 093c
000003b0: 5680 21bd 5b17 803c cfaa 80bd 3ac8 c1bd
000003c0: 7a41 c8bc 7811 603c 89e8 1dbd 31ab abbd
000003d0: 6443 1b3c 6e54 2cbd 8ddb 57bd d58d 0dbd
000003e0: ad5b bfbd cd50 86bd b3f0 ae3c b5c7 9dbd
000003f0: a808 1e3c 8bd2 773d 07f1 25bd 14aa 2b3d

nn_model.6.bias f4 [128]
-0.81052566 -0.13928881 -0.9624428 -0.91437125 0.29961497 -0.93952435 -0.9315662 -0.023728795
-0.22994106 -0.13808127 -0.069139436 -1.0071652 -0.96149427 -0.045114644 -0.08864094 -0.11450805
-0.86978275 -0.9182172 -0.22557756 -0.024181264 -0.20652746 -0.050463006 -0.055979755 -0.05516736
-0.9116341 -0.90896356 -0.05889524 -0.155799 -0.02214328 -0.06244509 -0.13171257 -0.22129913
-0.86251897 -0.014495894 -0.24810816 -0.020255698 -0.12353481 -0.09210342 -0.0125675015 -0.07932898
-0.05244644 -0.9554183 -0.18856142 -0.4767455 -0.056836702 -0.8689547 -0.06393859 -0.03255431
-0.93852335 -0.0030892834 -0.14174952 -0.0727299 -0.48648894 -0.04573513 -0.01922033 0.24559711
-0.950348 -0.10658648 -0.111976944 -0.88777304 -0.9281687 -0.14801654 -1.0010803 -0.026558394
-1.0080862 -0.010185685 -0.061951093 -0.08180272 -0.10972062 -0.06819388 -0.11960091 -0.09243482
-0.1703483 -0.14393033 -0.0016716472 -0.073025405 -0.08805139 -0.04380604 -0.08923251 -0.082652554
-0.18797472 -0.93056005 -0.92313725 -0.9103407 -0.9599456 -0.67946434 -0.05693984 -0.108263575
-0.006218218 -0.06823355 -0.040654074 -0.1767373 0.01100969 -0.0887974 -0.07447029 -0.10670575
-0.14334671 -0.049614955 -0.9208534 -0.012083581 -0.96880084 -0.022376567 -0.13280597 -0.041136112
-0.8691826 -0.076689884 -0.3957411 -0.9016079 -0.15703908 -0.9480914 -0.06250205 -0.025465397
-0.13675669 -0.16297343 -0.9226526 -0.11673943 -0.18115498 -0.29362026 0.3157913 -0.17392597
-0.9296686 -0.16755272 -0.36506796 -0.88801956 -0.057076886 -0.085049175 -0.039520636 -0.17128065
00000000: 9c7e 4fbf baa1 0ebe a762 76bf 3c14 6abf
00000010: 2267 993e ab84 70bf 1f7b 6ebf e462 c2bc
00000020: ab75 6bbe 2d65 0dbe fa98 8dbd caea 80bf
00000030: 7d24 76bf 22ca 38bd 6289 b5bd 3283 eabd
00000040: 15aa 5ebf 4810 6bbf cefd 66be c917 c6bc
00000050: ef7b 53be 4cb2 4ebd 074b 65bd 2bf7 61bd
00000060: da60 69bf d6b1 68bf 233c 71bd c689 1fbe
00000070: d365 b5bc 6cc6 7fbd a9df 06be 3d9c 62be
00000080: 0bce 5cbf 3080 6dbc 1110 7ebe 47ef a5bc
00000090: d2ff fcbd b8a0 bcbd ece7 4dbc 3b77 a2bd
000000a0: 14d2 56bd 4b96 74bf 3f16 41be fc17 f4be
000000b0: 9acd 68bd d173 5ebf 3cf2 82bd ab57 05bd
000000c0: 1143 70bf 9375 4abb c926 11be 6af3 94bd
000000d0: 1415 f9be c254 3bbd f473 9dbc cf7d 7b3e
000000e0: 024a 73bf 034a dabd 2b54 e5bd 1845 63bf
000000f0: 779c 6dbf a691 17be 6623 80bf fd90 d9bc
00000100: f808 81bf dce1 26bc 6ec0 7dbd 2f88 a7bd
00000110: 34b5 e0bd 3ca9 8bbd 52f1 f4bd 784e bdbd
00000120: c96f 2ebe 7962 13be 2c1b dbba 588e 95bd
00000130: 4a54 b4bd f66d 33bd 89bf b6bd be45 a9bd
00000140: 727c 40be 2f39 6ebf b952 6cbf 170c 69bf
00000150: ffbe 75bf 60f1 2dbf c039 69bd 4bb9 ddbd
00000160: 31c2 cbbb 08be 8bbd e384 26bd 9ffa 34be
00000170: fd61 343c 69db b5bd e183 98bd 8b88 dabd
00000180: 7bc9 12be 0d39 4bbd 0cbd 6bbf 36fa 45bc
00000190: 5503 78bf 104f b7bc 4afe 07be 577e 28bd
000001a0: c082 5ebf 960f 9dbd 949e cabe c6cf 66bf
000001b0: dace 20be 1eb6 72bf 1301 80bd cf9c d0bc
000001c0: f209 0cbe 82e2 26be f632 6cbf 1515 efbd
000001d0: b180 39be 6555 96be 66af a13e a619 32be
000001e0: c3fe 6dbf f192 2bbe 30ea babe 4055 63bf
000001f0: 74c9 69bd 432e aebd 64e0 21bd 3264 2fbe

nn_model.8.weight f4 [128, 128]
-0.04237025 -0.049193274 -0.064201586 -0.01909399 -0.2707658 -0.03911432 -0.05473744 -0.07595986
-0.024073087 -0.022415781 -0.03857524 -0.048092835 0.044559192 -0.08663847 -0.09026349 -0.02309656
-0.0581488 0.0013990843 0.019786276 -0.004515164 0.016291713 -0.032065123 -0.060029745 -0.10729323
0.023952933 -0.020931859 -0.06839452 0.024256391 0.027840585 -0.019079281 -0.0116953105 -0.12513258
-0.06185536 -0.0095493905 -0.04887082 0.01823446 -0.073147774 -0.11959488 -0.101429835 -0.14583321
-0.025931304 0.05006381 -0.014932408 -0.017012408 -0.050348725 -0.055428877 -0.1277853 -0.055170696
-0.01675235 -0.116378985 -0.06338489 -0.04264711 -0.028427288 -0.069628954 0.012732183 -5.7346425
0.004239293 -0.04391674 -0.003995217 -0.017204205 -0.01644176 0.014503519 -0.059082754 -0.104548045
0.03429286 -0.030262928 -0.035977513 -0.029843269 -0.07985059 -0.030622596 -0.037577473 -0.03849675
-0.007310356 -9.167145 -0.01866395 -0.06973655 -0.033885773 -0.13244545 -0.035452954 -0.10943738
-0.11771429 -0.064894505 -0.04861038 0.02154647 -0.0076217144 0.014008747 0.015383741 -0.054828126
-0.029479144 -0.026055826 -0.05972674 -0.003137427 -0.40086928 -0.115056396 -0.057720315 -0.017253093
0.0023084644 -0.06451876 -0.053461794 -0.046798997 -0.01534386 -0.042096857 -0.038471334 -0.114534505
0.025746787 -0.14286037 0.0075211045 -0.06412489 -0.008784803 0.041578505 -0.0035873472 -0.049187496
-0.0268495 -0.04663785 -0.048742585 -0.025986927 0.021326398 -0.5658475 -0.6006542 0.026592538
-0.054885 -0.0015145753 -0.0039538974 -0.02155623 -0.038209822 -0.049288914 0.018531086 -2.7407277
0.004810873 0.03079721 0.010290297 -0.021135869 -0.41331232 -0.014525761 -0.005861648 0.013955094
-0.0048592105 -0.01013009 -0.020421391 -0.060098607 -0.021679588 0.04809948 -0.08371606 -0.043491367
-0.0055686003 0.03271707 -0.011748709 -0.022394946 -0.053322814 -0.004904006 -0.043550197 0.016458971
0.0020795888 0.041421823 -0.013050939 -0.025721194 -0.07989911 -0.06680144 0.0024381666 -0.0018317092
-0.041351277 -0.0035572487 -0.0087481905 0.021070966 0.0099803405 -0.063469715 -0.01670212 -0.08586652
0.048273046 -0.011184694 -0.020749388 0.03818438 -0.023956805 -0.03580752 -0.009926698 -0.053175434
-0.056290813 -0.26063463 -0.019932235 -0.010084057 0.0024216624 -0.02814795 -0.006406814 -0.4414521
-0.060639486 -0.033454735 -0.035918206 -0.054277763 -0.03969172 -0.037774526 0.045776084 -0.06918744
0.035610907 -0.010623667 0.008582692 0.045608945 -0.06545917 -0.038522173 -0.0067873825 0.04974078
0.052856047 -0.79991436 -0.09415352 -0.047773752 0.046576377 -0.011377462 0.029688606 0.058639802
-0.020230995 -0.038658813 -0.036818195 0.011974265 0.022580435 0.007879178 -0.016646728 -0.027816577
-0.08479451 0.015363915 -0.080640115 -0.009047366 -0.46038306 0.011517087 -0.061907936 -0.006421019
0.042618535 0.020906685 -0.058838844 -0.08715884 -0.0026775019 -0.049448714 -0.0118364245 -0.04334542
-0.0023249274 -0.08812029 0.046345565 -0.03736141 -0.017483594 0.059592817 -0.101836435 0.0056547537
0.039936483 0.004455997 0.052489996 0.057440612 0.051045027 -0.2953564 -0.5146209 -0.0033207855
-0.05967289 -0.012066875 -0.014156169 0.052104156 -0.07081091 -0.05493579 -0.021500807 -0.102624215
00000000: 6d8c 2dbd e37e 49bd 1f7c 83bd 006b 9cbc
00000010: d1a1 8abe 5636 20bd 5e34 60bd d890 9bbd
00000020: ec34 c5bc 4da1 b7bc 1201 1ebd fefc 44bd
00000030: b383 363d 836f b1bd 11dc b8bd ff34 bdbc
00000040: 702d 6ebd 7b61 b73a d416 a23c f1f3 93bb
00000050: 3376 853c b856 03bd c0e1 75bd 8ebc dbbd
00000060: f138 c43c 4a79 abbc 6d12 8cbd 57b5 c63c
00000070: f011 e43c 274c 9cbc b09d 3fbc c122 00be
00000080: 0c5c 7dbd 0c75 1cbc c52c 48bd 6f60 953c
00000090: 80ce 95bd 29ee f4bd 72ba cfbd 4d55 15be
000000a0: e36d d4bc b60f 4d3d 0fa7 74bc 9b5d 8bbc
000000b0: 773a 4ebd 6409 63bd 26da 02be abfa 61bd
000000c0: 393c 89bc 1b58 eebd f0cf 81bd bcae 2ebd
000000d0: 58e0 e8bc a099 8ebd a59a 503c 3182 b7c0
000000e0: c4e9 8a3b 0ae2 33bd 4fea 82bb d5ef 8cbc
000000f0: dfb0 86bc 2ba0 6d3c c200 72bd 491d d6bd
00000100: ac76 0c3d f6e9 f7bc 285d 13bd df79 f4bc
00000110: b588 a3bd 3ddc fabc d6ea 19bd c5ae 1dbd
00000120: b68b efbb a0ac 12c1 24e5 98bc 09d2 8ebd
00000130: cfcb 0abd c89f 07be 1e37 11bd b520 e0bd
00000140: 3114 f1bd 69e7 84bd ae1b 47bd 3982 b03c
00000150: 93bf f9bb f284 653c 160c 7c3c 7593 60bd
00000160: 3f7e f1bc 0773 d5bc 07a4 74bd 4a9d 4dbb
00000170: bd3e cdbe b0a2 ebbd 236c 6cbd 5c56 8dbc
00000180: 9b49 173b 6922 84bd c1fa 5abd 4eb0 3fbd
00000190: d064 7bbc c16d 2cbd 1e94 1dbd 1191 eabd
000001a0: edea d23c fd49 12be 9973 f63b e953 83bd
000001b0: 22ee 0fbc 394e 2a3d b319 6bbb d478 49bd
000001c0: 7cf3 dbbc 5507 3fbd 4ea6 47bd 89e2 d4bc
000001d0: b3b4 ae3c 62db 10bf 79c4 19bf 98d8 d93c
000001e0: 18cf 60bd b784 c6ba b28f 81bb b196 b0bc
000001f0: e781 1cbd 2ce3 49bd 81ce 973c 1568 2fc0
00000200: 87a4 9d3b 6e4a fc3c a298 283c 2125 adbc
00000210: ac9d d3be 75fd 6dbc 1113 c0bb e8a3 643c
00000220: 033a 9fbb adf8 25bc c34a a7bc f529 76bd
00000230: 6499 b1bc f603 453d 5373 abbd 0124 32bd
00000240: ce78 b6bb 5602 063d a87d 40bc 9b75 b7bc
00000250: 0669 5abd c9b1 a0bb b161 32bd f7d4 863c
00000260: b649 083b eea9 293d 9bd3 55bc 41b5 d2bc
00000270: 25a2 a3bd 32cf 88bd a6c9 1f3b f615 f0ba
00000280: f55f 29bd bb20 69bb 9254 0fbc 059d ac3c
00000290: 9584 233c 69fc 81bd e2d2 88bc c9da afbd
000002a0: f5b9 453d 0240 37bc 9ffa a9bc 3967 1c3d
000002b0: 1041 c4bc e8aa 12bd 97a3 22bc 7cce 59bd
000002c0: 3291 66bd e771 85be ed48 a3bc 9a37 25bc
000002d0: c1b4 1e3b 8896 e6bc 40f0 d1bb 0206 e2be
000002e0: 1c61 78bd d507 09bd f81e 13bd 5c52 5ebd
000002f0: c993 22bd 76b9 1abd b47f 3b3d 25b2 8dbd
00000300: bedc 113d e40e 2ebc 6b9e 0c3c 72d0 3a3d
00000310: 750f 86bd 6dc9 1dbd b168 debb fdbc 4b3d
00000320: 957f 583d 30c7 4cbf 90d3 c0bd 69ae 43bd
00000330: dfc6 3e3d 8968 3abc 8535 f33c 4a30 703d
00000340: 79bb a5bc b458 1ebd adce 16bd b52f 443c
00000350: 9bfa b83c ab17 013c b85e 88bc 97df e3bc
00000360: bea8 adbd eeb8 7b3c a526 a5bd 673b 14bc
00000370: 54b7 ebbe 2ab2 3c3c 2d93 7dbd 6967 d2bb
00000380: c690 2e3d 7f44 ab3c 0001 71bd 5580 b2bd
00000390: 0779 2fbb bc8a 4abd 90ed 41bc f88a 31bd
000003a0: cf5d 18bb 6978 b4bd d9d4 3d3d 4708 19bd
000003b0: c139 8fbc 9917 743d 9f8f d0bd 834b b93b
000003c0: 7094 233d 9d03 923b c0ff 563d d946 6b3d
000003d0: 9714 513d f438 97be 32be 03bf 89a1 59bb
000003e0: 8f6b 74bd 24b4 45bc 47ef 67bc 2b6b 553d
000003f0: 4f05 91bd 5a04 61bd 7622 b0bc a52c d2bd

nn_model.8.bias f4 [128]
-0.33484834 -1.5093737 -1.5241839 -0.38738242 -0.021810817 -1.5532871 -1.4686234 -0.4024969
-0.43111807 -0.13175605 -1.5244559 -0.3483586 -1.559977 -1.5243493 0.105286784 0.16890898
-0.30610082 -0.101861544 -1.5159681 -1.5502805 -0.3449923 -0.3740529 -0.3233856 -0.03793134
-0.32369643 -0.29520196 -0.40295294 -1.3122814 -1.5254626 -0.24524201 -1.541402 -0.49704242
-1.5008495 0.054445166 -1.5688577 -0.46269688 -0.117318556 -0.42855576 -0.055925794 -0.25183684
-0.3378431 -0.13708928 -0.19751063 -0.26335633 -0.29386294 -0.3109312 -0.3690641 0.042711653
-1.5105513 0.0760414 -0.47053447 -0.39880458 -1.5463413 -0.013303796 -1.4657239 -0.026629228
-1.5254451 -1.4853384 -0.41424075 -0.13624777 -0.3665196 -0.29324645 -0.6812767 -0.07581776
-0.3613532 -1.4507414 -0.2916127 -0.019601101 -0.35567737 -0.1402523 -1.5458364 -0.041347776
-1.5321941 -0.1425617 -0.038171336 -1.5005103 -1.5361706 -0.06458794 0.71797955 0.24210434
-1.547148 -0.10279788 -1.5604831 0.1512649 -0.3080556 -1.5439248 -0.36154082 0.19114174
-0.23756124 -0.61800784 -1.5699869 -1.5357848 -0.3511218 -1.4998641 -0.33226898 -0.28815362
-1.5069155 -0.4271138 -0.07192274 0.08537952 -1.5320591 -0.14509818 0.17735928 -0.23412366
-0.32847938 0.066374876 -0.23486401 -0.27633756 -0.24217308 -0.36865208 0.054113198 -0.61202073
-0.0819847 -1.5464686 0.07095178 -1.5210797 -1.4786355 -8.379835e-05 -0.043584917 -0.4370126
-0.33204886 -0.28871703 -0.28991792 -0.1412636 -1.5291873 -0.082688026 -1.5472974 -1.5192647
00000000: 3e71 abbe 2833 c1bf 7518 c3bf fd56 c6be
00000010: 99ac b2bc 1dd2 c6bf dafb bbbf 1314 cebe
00000020: 82bb dcbe 0feb 06be 5f21 c3bf 0f5c b2be
00000030: 54ad c7bf e11d c3bf 99a0 d73d 7af6 2c3e
00000040: 3fb9 9cbe c99c d0bd 3e0b c2bf 976f c6bf
00000050: d5a2 b0be dd83 bfbe cc92 a5be e55d 1bbd
00000060: 8abb a5be b624 97be d94f cebe d6f8 a7bf
00000070: 5c42 c3bf b920 7bbe a94c c5bf 587c febe
00000080: d61b c0bf e501 5f3d 54d0 c8bf 9be6 ecbe
00000090: b644 f0bd a96b dbbe 7212 65bd c2f0 80be
000000a0: c5f9 acbe 2261 0cbe 3a40 4abe a4d6 86be
000000b0: 3475 96be 6032 9fbe f8f5 bcbe 6af2 2e3d
000000c0: bf59 c1bf 98bb 9b3d e5e9 f0be 1d30 ccbe
000000d0: 83ee c5bf 2af8 59bc d79c bbbf 8a25 dabc
000000e0: c941 c3bf 921f bebf 5d17 d4be 8984 0bbe
000000f0: 75a8 bbbe 6624 96be 2668 2ebf 5746 9bbd
00000100: 4903 b9be e5b1 b9bf 434e 95be 7d92 a0bc
00000110: 581b b6be 4d9e 0fbe f8dd c5bf 495c 29bd
00000120: f01e c4bf b2fb 11be 8c59 1cbd b910 c0bf
00000130: 3da1 c4bf af46 84bd 82cd 373f 33ea 773e
00000140: f208 c6bf b287 d2bd e9bd c7bf 30e5 1a3e
00000150: 77b9 9dbe 549f c5bf e11b b9be a9ba 433e
00000160: 4143 73be c335 1ebf 55f5 c8bf 9994 c4bf
00000170: 3dc6 b3be 8cfb bfbf 291f aabe df88 93be
00000180: 9be2 c0bf a9ae dabe 3b4c 93bd 75db ae3d
00000190: 831a c4bf 9e94 14be ac9d 353e 1dbe 6fbe
000001a0: 732e a8be 8def 873d 3180 70be 1e7c 8dbe
000001b0: 38fc 77be f7bf bcbe cda5 5d3d 64ad 1cbf
000001c0: 98e7 a7bd aff2 c5bf 2b4f 913d bdb2 c2bf
000001d0: ee43 bdbf e6bc afb8 1986 32bd 1ec0 dfbe
000001e0: 4f02 aabe b8d2 93be 1f70 94be 68a7 10be
000001f0: 69bc c3bf 5758 a9bd d70d c6bf 4477 c2bf
