model/1x2_sparsemax_linearpmt_distill_fast.pt (torch_old, 72960 bytes, 7 tensors)

nn_model.0.weight f4 [128, 2]
0.7267934 -0.4781287 0.28488138 -0.72716665 -0.18094459 0.08045553 -0.3653024 -0.05169341
-1.9491472 -2.056339 -1.4370965 -0.7123298 0.6761741 -0.12216905 -0.31519425 -1.549897
-0.8044032 -0.04313092 -0.31555992 -0.16029993 0.7510667 -0.01295345 0.42539462 0.33731344
0.3654825 -0.46059012 -0.2530275 -0.19148944 -0.3814149 -0.1545512 -0.31079692 -1.595986
-1.5257267 -0.412409 -0.8259012 0.52068144 -0.12185956 0.20128767 -0.076739155 -0.031885974
-0.35822108 -1.4385146 -1.8522366 -0.34419453 0.47303495 -0.79658014 -0.23160237 0.06356707
-0.067045085 -0.6697645 -0.24206196 -0.11947807 -1.695124 -0.5594923 -0.7805046 -0.78367066
-0.08684856 -0.07949127 -0.39281458 -0.38014567 -1.0733612 -0.8108219 -0.1950977 -1.8657643
-0.07211312 -0.22434483 -0.39464062 -1.4696147 0.5573035 1.2421573 0.5598349 -0.1519137
-0.54275 -0.23696466 -0.014177355 0.391188 -1.4372768 -1.026682 -0.66701627 -0.1612409
-0.48428258 0.75959605 0.67142606 0.66339374 -0.30759078 0.25305098 0.7230462 0.946762
-0.8889767 -2.0301661 -0.2579537 -1.5951782 -1.6311562 -0.49746877 -0.37518865 -0.5777363
0.34805867 0.52820075 -1.6346676 -0.5116216 0.99600846 0.2874364 -1.3592491 -1.0658337
-1.1862749 -1.5323577 -0.30203372 0.08506569 0.8872456 -0.622221 -0.55501 -1.3880596
0.83276796 -0.122452915 -0.025639184 0.009842122 0.21348497 -0.26736674 0.3929912 -0.1444573
-0.06386359 0.26487342 0.7142479 0.1619742 -1.3132895 -0.57859755 -1.8661603 -0.30179572
0.10983067 0.5475426 -0.47907335 0.2538765 -1.0356523 -0.041672125 0.058699906 -0.2875644
0.26948324 0.108369775 -0.80649215 -0.36909655 -0.18342918 0.113331944 -0.2763779 -0.16718519
-0.39856383 -0.0941792 -0.28666285 0.18693219 -0.41084972 -1.2543185 -0.3926297 -0.56779534
-0.25133073 -0.1517412 -1.2897806 -0.5238055 -0.28109443 -0.26520815 -1.8088695 -1.167961
0.44685844 0.84074295 -0.1163602 0.15800898 -0.81770766 -1.5473884 -0.17391519 -0.10368183
-1.6964159 -0.65437776 -0.49594373 -1.5972778 0.2973041 -0.21394497 -0.24486175 0.25714174
-0.16026787 -0.020546468 -3.236445 -1.1184527 -0.0074166222 0.039695118 -0.13268134 -0.19702706
-0.7816487 -0.31838602 -1.4199961 -1.4189184 -2.1857004 -4.33313 -0.83680475 -0.6339373
-1.5435506 -1.4994425 -0.48640528 -1.1403096 -0.3384326 -0.8331957 -0.061034225 0.06678579
-1.4561579 -0.53892094 -0.008179763 -0.44579658 -0.85133153 -1.0199467 0.7987975 0.8254819
1.4823034 1.5165831 -1.6892695 -0.8757425 -1.9353038 -0.31913838 -0.15010284 1.1219224
-0.054313358 -0.4607174 -0.6064436 -0.11862959 -0.002154941 -0.11200448 -0.4322323 -0.30828953
-0.9024093 -0.9729857 -1.6587752 -2.2322097 -0.24100058 -0.23524979 -0.1422895 0.28395003
0.8717543 -0.29619873 -1.1493616 -1.3885909 -0.023112582 -0.06841634 0.12790617 -0.07656219
-0.10104942 0.26628718 -1.773508 -0.71665806 -0.5718824 -0.69528115 -0.058517464 -0.5636423
-0.28992093 -1.7095308 -0.36458194 -2.1891234 -0.07161117 -0.011211301 0.26866522 0.92849356
00000000: 220f 3a3f 49cd f4be f9db 913e 9827 3abf
00000010: 8a49 39be dec5 a43d eb08 bbbe 78bc 53bd
00000020: a87d f9bf 0f9b 03c0 c7f2 b7bf 3f5b 36bf
00000030: bf19 2d3f c433 fabd 2461 a1be 0663 c6bf
00000040: 5eed 4dbf 0caa 30bd 1291 a1be aa25 24be
00000050: e845 403f b53a 54bc 53cd d93e 59b4 ac3e
00000060: 8620 bb3e 78d2 ebbe d28c 81be cf15 44be
00000070: d048 c3be ab42 1ebe c620 9fbe 4549 ccbf
00000080: 034b c3bf 4627 d3be 436e 53bf 614b 053f
00000090: 8191 f9bd 5b1e 4e3e 6b29 9dbd de9a 02bd
000000a0: c168 b7be 3f21 b8bf 1716 edbf 443a b0be
000000b0: a331 f23e adec 4bbf 2c29 6dbe 742f 823d
000000c0: ef4e 89bd b075 2bbf 17df 77be ebb0 f4bd
000000d0: d3f9 d8bf e33a 0fbf 26cf 47bf a49e 48bf
000000e0: a8dd b1bd 52cc a2bd fe1e c9be 74a2 c2be
000000f0: e663 89bf 0692 4fbf b1c7 47be 5dd1 eebf
00000100: 0bb0 93bd a7ba 65be 560e cabe 561c bcbf
00000110: 71ab 0e3f 03ff 9e3f 5751 0f3f 448f 1bbe
00000120: aaf1 0abf dda6 72be 2348 68bc cb49 c83e
00000130: b0f8 b7bf 516a 83bf 94c1 2abf 561c 25be
00000140: e3f3 f7be e374 423f 94e2 2b3f 2cd4 293f
00000150: 8a7c 9dbe e68f 813e 8e19 393f ff5e 723f
00000160: fa93 63bf 3eee 01c0 8212 84be cd2e ccbf
00000170: bac9 d0bf 3ab4 febe ba18 c0be 87e6 13bf
00000180: bf34 b23e 2a38 073f ca3c d1bf a2f9 02bf
00000190: 69fa 7e3f dd2a 933e e0fb adbf 3d6d 88bf
000001a0: dbd7 97bf 4c24 c4bf 2aa4 9abe ec36 ae3d
000001b0: 8722 633f e049 1fbf 2315 0ebf f0ab b1bf
000001c0: 4830 553f 98c8 fabd 4409 d2bc da40 213c
000001d0: ce9b 5a3e 4be4 88be 2436 c93e 9dec 13be
000001e0: eaca 82bd 7d9d 873e f3d8 363f 91dc 253e
000001f0: df19 a8bf f81e 14bf 57de eebf f884 9abe
00000200: e7ee e03d c02b 0c3f 1a49 f5be 1afc 813e
00000210: 4190 84bf 64b0 2abd 506f 703d a43b 93be
00000220: b5f9 893e f9f0 dd3d 4576 4ebf 39fa bcbe
00000230: dcd4 3bbe 941a e83d 6781 8dbe 9832 2bbe
00000240: 8f10 ccbe 06e1 c0bd 79c5 92be 276b 3f3e
00000250: e55a d2be 828d a0bf c306 c9be 095b 11bf
00000260: 6cae 80be 0c62 1bbe 8817 a5bf 1e18 06bf
00000270: 9ceb 8fbe 5dc9 87be 0989 e7bf bf7f 95bf
00000280: a1ca e43e ee3a 573f 424e eebd 1bcd 213e
00000290: 4a55 51bf d310 c6bf d316 32be 2457 d4bd
000002a0: 2824 d9bf 4d85 27bf 56ec fdbe 9973 ccbf
000002b0: 3e38 983e 6414 5bbe 0abd 7abe 15a8 833e
000002c0: 431d 24be 1151 a8bc ea21 4fc0 7529 8fbf
000002d0: 2307 f3bb 5997 223d 9edd 07be 76c1 49be
000002e0: 211a 48bf 7e03 a3be 6fc2 b5bf 1e9f b5bf
000002f0: 84e2 0bc0 00a9 8ac0 d638 56bf b749 22bf
00000300: 1193 c5bf bbed bfbf 1d0a f9be aaf5 91bf
00000310: 0a47 adbe 504c 55bf 06ff 79bd fdc6 883d
00000320: 6263 babf b9f6 09bf 6a04 06bc 733f e4be
00000330: ddf0 59bf 9d8d 82bf fe7d 4c3f c852 533f
00000340: 1ebc bd3f 651f c23f fc39 d8bf a930 60bf
00000350: 09b8 f7bf 1b66 a3be 8fb4 19be 279b 8f3f
00000360: af77 5ebd 27e3 ebbe e33f 1bbf 12f4 f2bd
00000370: e939 0dbb 9b62 e5bd 8d4d ddbe 20d8 9dbe
00000380: 4c04 67bf 9715 79bf bf52 d4bf 86dc 0ec0
00000390: dbc8 76be 52e5 70be 57b4 11be e661 913e
000003a0: 4a2b 5f3f 5ca7 97be 481e 93bf 59bd b1bf
000003b0: 9956 bdbc de1d 8cbd d6f9 023e a3cc 9cbd
000003c0: 00f3 cebd cb56 883e 4f02 e3bf e776 37bf
000003d0: e366 12bf f2fd 31bf 02b0 6fbd dd4a 10bf
000003e0: 8470 94be e8d1 dabf 7caa babe 991a 0cc0
000003f0: e1a8 92bd 9baf 37bc 7d8e 893e c1b1 6d3f

nn_model.0.bias f4 [128]
-0.3648386 0.20119034 -0.18873085 -0.31477463 -1.3517364 -1.8384261 -0.9233528 -1.2065909
-1.1895063 -0.025328198 -0.9197483 -0.8247963 -0.55362165 0.43218198 0.89821863 -1.8990926
-1.8884212 -0.85290736 0.029551174 -0.09247849 -1.9426142 -1.8228936 -0.5230156 -0.1636454
-1.7611592 0.36102062 -1.808444 0.61626726 -0.06909711 0.7746517 -1.9322461 -1.8477068
-0.07981937 1.3307629 -0.97652805 0.5180411 -1.8931602 -0.40699747 -1.7739232 0.8121258
-1.0757626 0.005343333 -0.28082076 -1.6911783 -1.5968229 -1.9166207 -1.8575308 0.91314334
-1.1437413 -1.8224066 -1.4209366 -1.7705386 -1.6965102 -0.32379603 -1.1052692 -1.1798127
-0.94232935 0.56299317 -0.30000824 -1.1237893 -0.13648048 -0.9267697 -1.9258399 -1.8346076
-1.1184014 -0.3523682 -1.321231 0.6755199 -0.42326534 0.7994848 -0.18731634 0.4261781
0.49920207 -1.243342 -1.2182946 0.9230609 0.22753789 -1.9458177 0.54892296 -1.5875297
-1.364434 -0.17963046 -1.7616086 0.3431503 -1.7723814 -1.8445729 -1.1423646 -1.137639
-0.20780045 -0.95353985 -0.1337007 0.33045486 -1.3904802 1.1124215 -0.79266316 0.37590337
-1.572922 -1.1991358 -1.207558 -0.7487723 -1.876369 -0.9798833 -1.921625 -0.6387113
-1.1794586 -1.7233835 -1.785108 -1.2759985 -1.0659027 -0.9412183 -0.046591092 0.72540534
-1.9133297 -1.3731375 0.46548972 -0.06620862 -0.56546485 -1.7167652 0.34467682 -0.26285538
-1.1118375 -1.7305993 0.3569276 -1.1039819 -1.8728807 -1.6991969 -0.09090382 -1.3121383
00000000: 20cc babe d704 4e3e a942 41be 242a a1be
00000010: b305 adbf 8c51 ebbf d960 6cbf 9271 9abf
00000020: be41 98bf 157d cfbc a074 6bbf da25 53bf
00000030: 26ba 0dbf f546 dd3e a8f1 653f 7715 f3bf
00000040: c9b7 f1bf 2358 5abf 4e15 f23c 5d65 bdbd
00000050: 95a7 f8bf 9454 e9bf 5ae4 05bf a992 27be
00000060: aa6d e1bf b2d7 b83e 187b e7bf b1c3 1d3f
00000070: c982 8dbd 934f 463f d753 f7bf a881 ecbf
00000080: 5678 a3bd 7056 aa3f befd 79bf 579e 043f
00000090: 1353 f2bf f961 d0be ea0f e3bf 7ae7 4f3f
000000a0: 97b2 89bf 2017 af3b bdc7 8fbe 8878 d8bf
000000b0: b164 ccbf d453 f5bf 92c3 edbf c3c3 693f
000000c0: 1d66 92bf 9f44 e9bf 40e1 b5bf 02a1 e2bf
000000d0: 3f27 d9bf 98c8 a5be 7679 8dbf 1a04 97bf
000000e0: 7f3c 71bf 5220 103f ae9a 99be 54d8 8fbf
000000f0: 8ac1 0bbe c740 6dbf ec81 f6bf 6cd4 eabf
00000100: c727 8fbf 9b69 b4be 191e a9bf dfee 2c3f
00000110: 3cb6 d8be 09ab 4c3f dbcf 3fbe 0434 da3e
00000120: 6a97 ff3e d525 9fbf 14f1 9bbf b84d 6c3f
00000130: b1ff 683e 8e10 f9bf 3786 0c3f 2c34 cbbf
00000140: c6a5 aebf 0cf1 37be 647c e1bf 65b1 af3e
00000150: 65dd e2bf f71a ecbf 0139 92bf 289e 91bf
00000160: a4c9 54be 301b 74bf d6e8 08be 6131 a93e
00000170: 41fb b1bf d463 8e3f f9eb 4abf 6876 c03e
00000180: 8255 c9bf 487d 99bf 4391 9abf 8baf 3fbf
00000190: dc2c f0bf a2d9 7abf cff7 f5bf 9582 23bf
000001a0: 80f8 96bf d597 dcbf 6b7e e4bf eb53 a3bf
000001b0: 806f 88bf aff3 70bf 4dd6 3ebd 2ab4 393f
000001c0: fde7 f4bf f8c2 afbf ab54 ee3e 6398 87bd
000001d0: 4ec2 10bf f6be dbbf 7b79 b03e fb94 86be
000001e0: b150 8ebf 4784 ddbf 37bf b63e 474f 8dbf
000001f0: 8eba efbf 497f d9bf c82b babd 26f4 a7bf

nn_model.2.weight f4 [128, 128]
-0.017093012 -0.007020386 -0.062153395 -0.070455626 -0.02805686 -0.004469432 -0.17493513 -0.12677419
-0.1371149 -0.1534759 -0.011484683 -0.12763597 -0.0235143 -0.10563405 -0.11615979 0.042466454
0.013176851 -0.004261721 -0.6422688 -0.15728286 0.055904783 -0.016644746 -0.10667637 -0.010147308
-0.07858366 -0.14601333 -0.007992372 -0.0047406573 -0.04777224 -0.006578046 -0.03029057 -0.04875876
-0.0019125667 -0.047145233 -0.0026782018 -0.10119217 0.029903673 -0.09605046 -0.08322469 -0.5661825
-0.026031058 -0.777733 -0.19855705 -0.14872259 -0.05610462 0.08646529 -0.08788839 -0.44823512
-0.09694404 0.07219953 -0.072953425 0.033945166 -0.064789265 -0.04962478 -0.07420375 -0.025483765
-0.86658376 -0.035847317 -0.19547342 -0.25711694 -0.31274372 -0.09934276 0.057438113 -0.03544342
-0.009195743 -0.10097391 -0.0812756 -2.0973117 -0.17342834 -0.11262834 -0.2021962 -0.07483511
-0.08082569 -0.0103477305 0.0036695064 -0.1768002 -0.025552958 -0.069330275 -0.14055082 0.027018718
-0.5156433 -0.14161676 -0.08525089 -0.111859985 0.029521666 -0.08181238 -0.15368992 -0.052756857
-0.12708265 -0.13693117 -0.10013673 -0.08059934 -0.14029095 -0.12308614 -0.039105613 -0.1511395
-0.012423374 -0.11692592 -0.121361256 -0.029263156 -0.068031594 -0.13086572 0.05040624 -0.18073857
-0.0038719373 -0.023625806 -0.042692903 -0.15368935 -0.066277385 -0.0031566587 -0.21377231 -0.08606241
0.039098777 -0.04867396 -0.11439739 -0.056918126 -0.1829369 0.020944126 -1.0529325 -0.030808669
-0.2974222 0.054341577 -0.15100828 -0.1356962 0.0013025701 0.06964899 -0.14379692 -0.1267337
-0.0034275353 -0.07784257 -0.03227215 -0.14624792 -0.027796447 -0.044886444 -0.1225006 -0.01823312
-0.21387812 -0.14755504 -0.0630859 -0.098575585 -0.12358528 -0.10835987 0.0023189192 -0.06336139
-0.062962845 -0.08854709 -2.3024569 -0.04330599 0.002652362 -0.021277338 -0.11983441 -0.078838825
-0.09458853 -0.003729542 -0.08603806 -0.1261224 -0.56857616 -0.08324423 0.06887869 0.07747585
-0.13972735 -0.50092554 -0.01265634 -0.023764664 0.012006955 -0.06944488 -0.05938749 -0.9478069
-0.09098459 -0.75277984 -0.5923545 -0.050491255 0.079498775 0.08218839 -0.08043914 -1.2496597
-0.09808852 -0.05636534 -0.00013189686 -0.0078063533 -0.058631577 -0.1080508 -0.11230596 -0.06294266
-0.36497065 -0.48166215 -0.63306963 -0.026845518 -0.670165 -0.11772341 0.021918416 0.06524692
-0.048826646 -0.08043699 -0.13925388 -1.3847605 -0.028047463 -0.7906181 -0.7029315 -0.021107804
-0.11648934 -0.0008065043 0.07160501 -0.56325567 -0.091567144 0.044048823 -0.1317164 0.034953877
-0.043238793 -0.45821375 -0.07677472 -0.13685341 0.039697774 0.031838432 -0.14366873 -0.11025675
-0.14297263 0.04349334 -0.10874359 -0.0052908272 -0.07760208 -0.013050967 -0.041839235 -0.02541338
-0.079126164 -0.020260304 -0.027425678 -0.0003205381 -0.08718929 -0.008725951 0.072349526 -0.11844584
-0.05273422 0.07545475 -0.06428556 -0.5120732 -0.023670921 -0.038540624 -0.5728063 -0.057823952
0.075833194 -0.011017323 -0.0004895152 -0.15432638 -0.114872724 -0.018904597 -1.1133219 0.0071047186
-0.020619484 0.05690556 -0.006362084 -0.12656364 -0.010237224 0.012906872 -0.041693028 -0.017933441
00000000: a506 8cbc 440b e6bb 8f94 7ebd 0a4b 90bd
00000010: 80d7 e5bc 5074 92bb 3222 33be 18d1 01be
00000020: d967 0cbe c928 1dbe 402a 3cbc 01b3 02be
00000030: 10a1 c0bc aa56 d8bd 2fe5 edbd 4ef1 2d3d
00000040: b8e3 573c e8a5 8bbb ba6b 24bf c20e 21be
00000050: 6afc 643d 905a 88bc 2479 dabd e540 26bc
00000060: 78f0 a0bd 8584 15be 70f2 02bc 8457 9bbb
00000070: d3ac 43bd a68c d7bb ee23 f8bc 44b7 47bd
00000080: 17af faba 5c1b 41bd c584 2fbb d73d cfbd
00000090: 8cf8 f43c 1bb6 c4bd b571 aabd 56f1 10bf
000000a0: 163f d5bc 8319 47bf 8a52 4bbe bc4a 18be
000000b0: f5cd 65bd b714 b13d d4fe b3bd 137f e5be
000000c0: 998a c6bd 59dd 933d 9b68 95bd 160a 0b3d
000000d0: 3cb0 84bd 5a43 4bbd 23f8 97bd 54c3 d0bc
000000e0: 6fd8 5dbf a3d4 12bd 2f2a 48be d5a4 83be
000000f0: f21f a0be 3874 cbbd 3a44 6b3d 1f2d 11bd
00000100: bea9 16bc 69cb cebd d273 a6bd 5b3a 06c0
00000110: 3397 31be b0a9 e6bd 850c 4fbe 2643 99bd
00000120: f087 a5bd 8789 29bc 1a7c 703b 1d0b 35be
00000130: 7054 d1bc 08fd 8dbd 8eec 0fbe 5c56 dd3c
00000140: 3301 04bf fc03 11be 0598 aebd d916 e5bd
00000150: 6cd7 f13c 408d a7bd e460 1dbe 9317 58bd
00000160: f421 02be af37 0cbe 7c14 cdbd 4411 a5bd
00000170: 6ea8 0fbe 9614 fcbd 352d 20bd 50c4 1abe
00000180: 688b 4bbc db76 efbd 408c f8bd 49b9 efbc
00000190: 2654 8bbd aa01 06be c676 4e3d 8813 39be
000001a0: 54c0 7dbb e88a c1bc c1de 2ebd be60 1dbe
000001b0: 70bc 87bd f2df 4ebb 21e7 5abe 7d41 b0bd
000001c0: 0a26 203d 595e 47bd 2e49 eabd fb22 69bd
000001d0: d053 3bbe 0493 ab3c 7ec6 86bf 7662 fcbc
000001e0: b947 98be 4695 5e3d eaa1 1abe f2f3 0abe
000001f0: 00bb aa3a 21a4 8e3d 803f 13be 7bc6 01be
00000200: 80a0 60bb ed6b 9fbd cd2f 04bd 04c2 15be
00000210: 60b5 e3bc d9da 37bd 98e1 fabd a05d 95bc
00000220: de02 5bbe ab18 17be 2e33 81bd ffe1 c9bd
00000230: 471a fdbd c8eb ddbd 02f9 173b 9ec3 81bd
00000240: aaf2 80bd 2d58 b5bd 745b 13c0 9f61 31bd
00000250: 40d3 2d3b d04d aebc be6b f5bd 4076 a1bd
00000260: a2b7 c1bd 556b 74bb b934 b0bd 3b26 01be
00000270: 358e 11bf f37b aabd 4510 8d3d a9ab 9e3d
00000280: b014 0fbe a83c 00bf 8a5c 4fbc 1dae c2bc
00000290: d2b8 443c 1e39 8ebd 4c40 73bd 79a3 72bf
000002a0: 2156 babd 2eb6 40bf 8ba4 17bf ebcf 4ebd
000002b0: 41d0 a23d 6352 a83d 47bd a4bd d9f4 9fbf
000002c0: a2e2 c8bd 58df 66bd cb4d 0ab9 70cc ffbb
000002d0: aa27 70bd bd49 ddbd ab00 e6bd 15e8 80bd
000002e0: 6fdd babe 6c9c f6be da10 22bf 22eb dbbc
000002f0: ef8f 2bbf f918 f1bd 408e b33c 2da0 853d
00000300: 73fe 47bd 26bc a4bd 9298 0ebe d53f b1bf
00000310: cbc3 e5bc f365 4abf 52f3 33bf 46ea acbc
00000320: f791 eebd 966b 53ba a6a5 923d 8631 10bf
00000330: 8e87 bbbd 8a6c 343d aae0 06be cc2b 0f3d
00000340: 291b 31bd fe9a eabe 103c 9dbd 4d23 0cbe
00000350: 229a 223d 0469 023d e51d 13be 4ace e1bd
00000360: 6b67 12be 1326 323d f6b4 debd ad5e adbb
00000370: d7ed 9ebd b9d3 55bc 9e5f 2bbd b82f d0bc
00000380: e60c a2bd f0f8 a5bc d1ab e0bc e50d a8b9
00000390: 4c90 b2bd 4bf7 0ebc fd2b 943d bc93 f2bd
000003a0: d6ff 57bd 0588 9a3d 26a8 83bd 3b17 03bf
000003b0: 85e9 c1bc c6dc 1dbd 6fa3 12bf cfd8 6cbd
000003c0: 6f4e 9b3d 0082 34bc cf52 00ba bc07 1ebe
000003d0: 6442 ebbd d0dd 9abc 5581 8ebf b3ce e83b
000003e0: 31ea a8bc ce15 693d 0779 d0bb e699 01be
000003f0: 08ba 27bc 5877 533c 4fc6 2abd 27e9 92bc

nn_model.2.bias f4 [128]
-0.09270563 -0.037874024 -0.3571999 -0.16421716 -0.13348864 0.11811561 0.24684943 -0.21064484
-0.07117052 -0.8902188 -0.15052141 -0.6896047 -0.16699108 -0.73792195 -0.10322406 -0.13793325
-0.8440925 -0.09828847 -0.7980401 -0.65370154 -0.034751493 -0.181056 -0.88539517 -0.02798731
-0.86152595 -0.72872734 -0.8524555 -0.21906288 -0.8292517 -0.05215755 -0.7677256 -0.8119796
-0.14869149 -0.16061732 -0.050487746 -0.06585448 -0.87557745 -0.1723654 -0.08886231 -0.2827994
-0.7110766 -0.17578949 0.00029522425 -0.8762648 -0.87967145 -0.0029450248 -0.061351936 -0.8754032
-0.13748191 -0.06705678 -0.15295202 -0.13431929 -0.06261562 -0.20792422 -0.165158 -0.81518173
-0.22756252 -0.14310609 -0.09363249 -0.3019329 -0.16341075 -0.17021471 0.3423695 -0.59102
-0.5973178 -0.88232553 -0.0155376885 -0.17001548 -0.12474445 -0.2192124 -0.7791139 -0.8956385
-0.8297121 -0.04962955 -0.08495835 -0.09570144 -0.76443285 -0.07241678 -0.12676805 -0.092290446
-0.089950256 -0.88019514 -0.9021401 -0.101109736 -0.1320871 -0.10264317 -0.03890744 -0.9448117
-0.14464049 -0.151721 0.53679264 -0.09660172 -0.1848404 -0.8314844 -0.1384104 -0.14989091
-0.8319997 -0.03828936 -0.14006716 -0.33335093 -0.08130685 -0.050659623 0.47236338 -0.16756703
-0.10742333 -0.15087128 -0.8674516 -0.019897467 -0.06782351 -0.7399566 -0.124505825 -0.09768701
-0.18523291 -0.23573741 -0.9477255 -0.013592369 0.45997378 -0.08199046 -0.116833456 -0.07716407
-0.087792255 -0.06653648 -0.8076407 -0.16215426 -0.05682071 -0.08623951 -0.7780741 -0.16105847
00000000: 73dc bdbd cb21 1bbd e8e2 b6be 8b28 28be
00000010: 3fb1 08be 99e6 f13d 19c6 7c3e 48b3 57be
00000020: d9c1 91bd 61e5 63bf 4922 1abe ef89 30bf
00000030: b6ff 2abe 74e8 3cbf 2367 d3bd 603e 0dbe
00000040: 7216 58bf 774b c9bd 5b4c 4cbf fc58 27bf
00000050: 9557 0ebd be66 39be 42a9 62bf a545 e5bc
00000060: f78c 5cbf e08d 3abf 863a 5abf 0552 60be
00000070: d749 54bf 28a3 55bd aa89 44bf e5dd 4fbf
00000080: 9542 18be de78 24be 3dcc 4ebd b7de 86bd
00000090: d825 60bf 8e80 30be 71fd b5bd 15cb 90be
000000a0: 1e09 36bf 2902 34be 54c8 9a39 e452 60bf
000000b0: 2632 61bf 5101 41bb 2b4c 7bbd 6d1a 60bf
000000c0: 0fc8 0cbe 1155 89bd 749f 1cbe ff8a 09be
000000d0: 9e3c 80bd 16ea 54be 2e1f 29be c0af 50bf
000000e0: 2606 69be 678a 12be 64c2 bfbd f396 9abe
000000f0: 2655 27be c44c 2ebe 0e4b af3e 164d 17bf
00000100: d2e9 18bf 16e0 61bf ca91 7ebc 8a18 2ebe
00000110: 057a ffbd 3779 60be 0274 47bf 9148 65bf
00000120: 0368 54bf 5b48 4bbd a5fe adbd 1eff c3bd
00000130: dfb1 43bf 404f 94bd 7ccf 01be c602 bdbd
00000140: d737 b8bd 7854 61bf a7f2 66bf 9f12 cfbd
00000150: d741 07be 9536 d2bd 685d 1fbd 2edf 71bf
00000160: a31c 14be c05c 1bbe 3e6b 093f 1fd7 c5bd
00000170: cd46 3dbe 29dc 54bf 75bb 0dbe 017d 19be
00000180: effd 54bf 4ed5 1cbd c46d 0fbe f9ac aabe
00000190: 3584 a6bd 7780 4fbd 9dd9 f13e b196 2bbe
000001a0: c300 dcbd 007e 1abe 4f11 5ebf 0300 a3bc
000001b0: 0de7 8abd cc6d 3dbf e9fc febd 2110 c8bd
000001c0: b2ad 3dbe 2665 71be 239e 72bf 87b2 5ebc
000001d0: af81 eb3e 9dea a7bd 6146 efbd 3208 9ebd
000001e0: 6dcc b3bd 4744 88bd 8ac1 4ebf c40b 26be
000001f0: d5bc 68bd 579e b0bd dd2f 47bf 83ec 24be

allocation_head.0.weight f4 [4, 128]
-0.060716033 0.10746858 0.043676104 -0.004993448 0.024718806 -0.38220212 0.16456002 0.010028841
0.052209377 0.023388669 0.019037314 -0.01737409 -0.024388267 -0.05853802 -0.032941185 0.07101087
0.03494302 0.11308987 -0.05992209 -0.03848984 0.09215692 0.013341814 -0.01819034 0.12868953
-0.014246732 0.009352736 0.08003355 -0.0007179103 -0.055643816 0.020836275 -0.034453772 0.076367594
-0.1173463 0.004794243 -0.12180607 -0.022641832 -0.051595856 0.1360169 0.08355525 -0.017214281
0.0046484843 -0.11613557 0.1273921 -0.082527734 -0.06386644 0.014484926 -0.0033926547 0.051823966
-0.09925437 0.0016490079 0.030890886 0.06999763 0.1009187 0.027003374 0.038920578 -0.052043267
-0.04221384 -0.12858254 0.009651413 -0.017643278 0.10004817 -0.024507962 -0.22549221 0.026702747
-0.011419798 -0.011156142 0.076197065 0.088150896 0.09817254 0.024853023 -0.06811415 -0.032391652
0.034737498 -0.050450563 0.0023638099 0.13804498 0.017590567 -0.2265516 0.003092869 0.122834325
-0.022319071 0.078532375 0.06720694 -0.02227199 0.04598172 -0.052662447 0.045509398 -0.040460374
0.09404523 0.0077022403 -0.037260182 0.1047536 0.12332935 0.03304939 -0.13874376 -0.0038947156
0.044133626 -0.047063008 -0.0031820005 0.06912456 0.032214526 0.12384294 0.33519337 0.031466693
-0.14423874 0.021531146 -0.06656163 0.016466746 0.06289109 0.013271071 0.006572514 -0.007606948
-0.11383101 0.020146081 0.060572527 -0.0076104742 0.17789535 0.069583535 0.0023045172 0.08101818
-0.025330443 0.025810128 -0.043127216 0.08640227 -0.024732225 0.010295432 -0.022126243 0.03870702
-0.0909755 -0.012391681 0.01604231 0.078948535 -0.004111475 -0.4119768 0.39700544 -0.0691398
0.06250909 -0.0076251626 0.063644215 0.056200795 0.14377889 0.056131534 0.06535986 0.058789186
-0.07940115 0.018152066 0.060184084 -0.00057297945 -0.1039872 -0.12778762 -0.08271842 -0.01295318
-0.017928407 0.048472695 0.047786377 -0.007901171 0.055135064 -0.025056055 -0.018686205 -0.035839055
-0.0770798 0.048663896 -0.1393678 -0.016351037 -0.01383096 0.06119774 0.0045949602 -0.02675799
-0.07955467 -0.05551529 0.040577542 -0.036052898 0.07981495 0.09206409 -0.113715 0.055923067
-0.07025406 0.05751751 0.01048943 -0.16788869 0.07630239 -0.05649069 0.11111973 0.024673127
-0.017529314 -0.028839197 0.06354684 -0.0947466 -0.0127843255 -0.012161184 0.054700393 0.060477503
-0.12230238 0.0039421096 0.022211669 0.017202096 -0.008644476 -0.029807497 -0.05267178 -0.0019283891
0.0037183315 0.013272192 -0.09418589 -0.0006246786 -0.051323712 0.06006283 0.00083528046 -0.031953678
0.09201648 0.011192262 -0.0006579682 0.04994106 -0.081964314 0.009677431 -0.06067442 0.011277735
-0.009082815 0.013727887 -0.13064739 -0.011676326 0.053707853 0.087437175 -0.019333636 -0.05089264
-0.07659822 -0.0163147 0.0009473306 0.027682766 0.10755468 0.051422395 0.3100765 0.119675376
-0.0490131 0.08755427 0.054068245 0.024558982 0.10011495 -0.062481374 0.007487441 -0.03405763
-0.030859783 0.006256508 -0.02845361 0.0647076 0.14694123 -0.0408803 0.054987673 -0.01303656
-0.058804672 -0.034005575 -0.046551753 0.05621586 0.013035521 0.040452443 -0.05247564 0.043051638
00000000: 60b1 78bd 7d18 dc3d b7e5 323d 14a0 a3bb
00000010: 187f ca3c ffaf c3be 6c82 283e 0250 243c
00000020: 80d9 553d 9899 bf3c 24f4 9b3c 1c54 8ebc
00000030: e7c9 c7bc 90c5 6fbd 56ed 06bd 266e 913d
00000040: 6a20 0f3d a99b e73d de70 75bd 86a7 1dbd
00000050: c4bc bc3d a097 5a3c e803 95bc 30c7 033e
00000060: 206b 69bc 383c 193c a1e8 a33d 2532 3cba
00000070: c5ea 63bd d6b0 aa3c 661f 0dbd 9d66 9c3d
00000080: 4253 f0bd 0619 9d3b 7675 f9bd 5d7b b9bc
00000090: 2d56 53bd 0448 0b3e 041f ab3d f704 8dbc
000000a0: 5052 983b 7cd8 edbd 1373 023e 4d04 a9bd
000000b0: 68cc 82bd 2f52 6d3c 4d57 5ebb 5e45 543d
000000c0: e045 cbbd 8623 d83a e20e fd3c eb5a 8f3d
000000d0: 77ae ce3d 2e36 dd3c 2f6b 1f3d 522b 55bd
000000e0: 6be8 2cbd 24ab 03be f620 1e3c a388 90bc
000000f0: 0ee6 cc3d ecc4 c8bc 6ee7 66be b8bf da3c
00000100: 1b1a 3bbc 40c8 36bc 350d 9c3d 7588 b43d
00000110: af0e c93d 9198 cb3c 6e7f 8bbd 1cad 04bd
00000120: e848 0e3d 40a5 4ebd 26ea 1a3b aa5b 0d3e
00000130: 181a 903c 25fd 67be bbb1 4a3b 9090 fb3d
00000140: 7cd6 b6bc 95d5 a03d cba3 893d c073 b6bc
00000150: 5457 3c3d 94b4 57bd 1068 3a3d c7b9 25bd
00000160: c99a c03d 1363 fc3b 229e 18bd 0e89 d63d
00000170: 1994 fc3d cc5e 073d d812 0ebe 7c3e 7fbb
00000180: 76c5 343d 24c5 40bd 1c89 50bb 2d91 8d3d
00000190: 61f3 033d 5ea1 fd3d 779e ab3e 38e3 003d
000001a0: 52b3 13be 1662 b03c 7751 88bd 45e5 863c
000001b0: 0bcd 803d e86e 593c 3e5e d73b b443 f9bb
000001c0: 3c20 e9bd 6509 a53c e61a 783d 4961 f9bb
000001d0: 332a 363e d081 8e3d 6207 173b dcec a53d
000001e0: ca81 cfbc c36f d33c 2aa6 30bd acf3 b03d
000001f0: 3c9b cabc 2cae 283c 1842 b5bc 418b 1e3d
00000200: 5d51 babd 7a06 4bbc 2a6b 833c c5af a13d
00000210: 8db9 86bb a0ee d2be 4c44 cb3e 2b99 8dbd
00000220: c404 803d 80dc f9bb e657 823d ce32 663d
00000230: c63a 133e 2eea 653d 64db 853d eecc 703d
00000240: 129d a2bd a4b3 943c 9683 763d 0034 16ba
00000250: 3ef7 d4bd c2da 02be 4668 a9bd 9339 54bc
00000260: 98de 92bc 4e8b 463d a6bb 433d ea73 01bc
00000270: 4ed5 613d 5b42 cdbc d013 99bc f9cb 12bd
00000280: 04dc 9dbd cb53 473d 6fb6 0ebe 9cf2 85bc
00000290: 409b 62bc 7baa 7a3d 5291 963b 9233 dbbc
000002a0: 8fed a2bd 0064 63bd a334 263d 34ac 13bd
000002b0: 0576 a33d 198c bc3d 69e3 e8bd 960f 653d
000002c0: 5ce1 8fbd 7b97 6b3d dcdb 2b3c 03eb 2bbe
000002d0: 6d44 9c3d c862 67bd be92 e33d 4c1f ca3c
000002e0: a399 8fbc 2e40 ecbc d824 823d 810a c2bd
000002f0: 5975 51bc b43f 47bc 850d 603d 42b7 773d
00000300: ac79 fabd d02c 813b 3ff5 b53c 69eb 8c3c
00000310: 8fa1 0dbc da2e f4bc 5dbe 57bd 00c2 fcba
00000320: 40af 733b 9c73 593c 88e4 c0bd 79c1 23ba
00000330: d038 52bd 7104 763d b9f6 5a3a dce1 02bd
00000340: 2373 bc3d c05f 373c 807b 2cba ff8e 4c3d
00000350: e8dc a7bd 168e 1e3c be85 78bd 40c6 383c
00000360: 16d0 14bc eeea 603c 6ec8 05be 104e 3fbc
00000370: c4fc 5b3d 4312 b33d 9361 9ebc cd74 50bd
00000380: 87df 9cbd 68a6 85bc 4856 783a f8c6 e23c
00000390: a145 dc3d 4aa0 523d 59c2 9e3e 5d18 f53d
000003a0: f6c1 48bd a74f b33d aa76 5d3d eb2f c93c
000003b0: 1109 cd3d 78ec 7fbd 3559 f53b 0380 0bbd
000003c0: a8cd fcbc 6503 cd3b 8c17 e9bc 6b85 843d
000003d0: c377 163e 1a72 27bd c13a 613d 4c97 55bc
000003e0: 2bdd 70bd 6e49 0bbd 0dad 3ebd 9a42 663d
000003f0: f092 553c 76b1 253d b2f0 56bd ea56 303d

allocation_head.0.bias f4 [4]
0.42553103 0.44581974 -0.42780328 -0.44741976
00000000: 34df d93e 7c42 e43e 0809 dbbe 3414 e5be

payment_head.0.weight f4 [1, 128]
0.016870968 0.067641914 -0.005234576 0.051260673 0.004665376 -0.38424835 0.3502383 -0.0039732098
0.0080798585 -0.044865087 0.015686708 -0.0237839 0.059813682 -0.042823758 0.13493171 0.048125964
-0.06666131 -0.011598706 -0.066997744 -0.00042627007 0.037524458 0.0022008375 -0.031702437 -0.0037296142
-0.046182092 0.019585311 -0.02026885 -0.023942601 0.012143277 0.030457675 -0.05975753 0.0041042566
0.027460277 0.04129899 -0.023804558 -0.024714816 0.08709655 0.0041326215 -0.028949672 0.05242653
-0.018619627 0.10721672 0.11972238 0.0042246953 -0.08605618 0.007874025 0.1104845 0.04447847
0.002855942 0.12601681 0.10688128 0.082008444 0.025901373 0.08653762 0.11968031 0.05112774
0.03324142 0.0014118071 0.04240616 0.012388567 0.030390183 -0.021913674 0.059944775 0.08604353
0.034884267 -0.073187634 -0.026803823 -0.019575253 -0.05192312 0.01541205 0.017866105 0.03356626
0.07029692 0.08009844 0.15141617 -0.017882872 -0.079869755 -0.13415004 0.090323575 0.12106922
-0.01642044 0.081849 0.08373409 0.04101389 -0.004490292 0.046363197 -0.00073526124 0.083700724
0.022076353 0.019700952 -0.23375933 0.019167284 0.016521836 -0.00773146 0.03735459 -0.12227912
0.07368655 0.06973163 -0.0047407695 0.033372555 0.13557163 -0.008650885 0.7588812 0.0071556154
0.01916135 0.15776174 0.0209198 -0.032236163 0.034104284 -0.06020727 0.03601327 0.045458015
-0.02051442 0.05449862 0.055509023 -0.0011521601 0.29288056 -0.03520049 0.08881702 0.03851899
0.024893718 0.020385953 -0.066586204 -0.0067703 0.0077191168 -0.026494142 0.028212808 0.0076628258
00000000: fc34 8a3c d887 8a3d ce86 abbb b6f6 513d
00000010: 03e0 983b 33bc c4be 6f52 b33e b331 82bb
00000020: 6261 043c 74c4 37bd 6981 803c 74d6 c2bc
00000030: 31ff 743d f767 2fbd 8a2b 0a3e bb1f 453d
00000040: ba85 88bd 8008 3ebc 1d36 89bd 007d dfb9
00000050: 3fb3 193d ed3b 103b 6ada 01bd 8b6c 74bb
00000060: 6f29 3dbd 6071 a03c dc0a a6bc 4623 c4bc
00000070: 98f4 463c 6082 f93c 50c4 74bd 007d 863b
00000080: 60f4 e03c 2129 293d c701 c3bc ba76 cabc
00000090: ad5f b23d f16a 873b dd27 edbc 33bd 563d
000000a0: 3088 98bc 7194 db3d 0231 f53d 506f 8a3b
000000b0: 393e b0bd 0e02 013c b345 e23d 0e2f 363d
000000c0: c12a 3b3b 8d0a 013e 93e4 da3d 0bf4 a73d
000000d0: 1e2f d43c a33a b13d f31a f53d 526b 513d
000000e0: 2828 083d 630c b93a 15b2 2d3d 6bf9 4a3c
000000f0: d5f4 f83c 4e84 b3bc a788 753d 9737 b03d
00000100: cee2 0e3d 66e3 95bd b193 dbbc 485c a0bc
00000110: 56ad 54bd d382 7c3c f05b 923c c67c 093d
00000120: d5f7 8f3d a70a a43d d70c 1b3e 1a7f 92bc
00000130: c192 a3bd a15e 09be 91fb b83d 24f3 f73d
00000140: 2984 86bc 73a0 a73d c77c ab3d 2efe 273d
00000150: 4d23 93bb 56e7 3d3d 8cbe 40ba 496b ab3d
00000160: 78d9 b43c e463 a13c 9b5e 6fbe b504 9d3c
00000170: cd58 873c 3058 fdbb 2001 193d 7a6d fabd
00000180: f9e8 963d 75cf 8e3d 7558 9bbb a9b1 083d
00000190: 4ad3 0a3e 71bc 0dbc 0a46 423f a779 ea3b
000001a0: 43f8 9c3c 4b8c 213e 0060 ab3c 110a 04bd
000001b0: efb0 0b3d e69b 76bd a782 133d 2f32 3a3d
000001c0: db0d a8bc f239 5f3d 6e5d 633d 1404 97ba
000001d0: 71f4 953e 642e 10bd b3e5 b53d 17c6 1d3d
000001e0: e9ed cb3c 7100 a73c 595e 88bd 65d9 ddbb
000001f0: a5f0 fc3b 3e0a d9bc 8c1e e73c 7118 fb3b
