model/2x2_sparsemax_in_linsigpmt_scratch.pt (torch_old, 141962 bytes, 10 tensors)

nn_model.0.weight f4 [128, 4]
0	0xbd2ab843	-0.041679632
1	0xbe26c2ea	-0.16285291
2	0xbd0a8ddc	-0.033826694
3	0x3d2c3423	0.04204191
4	0x3ecd6a93	0.40120372
5	0x3e215434	0.15754777
6	0xbf1d0f89	-0.6135183
7	0xbe6ed2ff	-0.23322676
8	0x3ef9efce	0.4881577
9	0x3e4920b1	0.19641377
10	0xbec41555	-0.38297525
11	0xbe241e35	-0.16027148
12	0x3d919b94	0.07109752
13	0x3d3ddfbb	0.046355944
14	0x3e841074	0.25793803
15	0x3e2670c5	0.16253956
16	0xbec43cb9	-0.38327578
17	0x3e96c2de	0.29445547
18	0xbdf7c256	-0.120976135
19	0xbe82aae2	-0.25520998
20	0x3dcc7a9b	0.09984323
21	0x3ded3d81	0.115839966
22	0xbe1c85ac	-0.15285367
23	0xbe8113f7	-0.25210544
24	0x3d6149bb	0.055001955
25	0x3e5e0149	0.21680178
26	0x3e917fbb	0.28417763
27	0xbe40f0f5	-0.18841918
28	0xbea9e066	-0.33179015
29	0x3dd399c8	0.10332066
30	0x3e79a48b	0.24379174
31	0x3eb3f5f5	0.35148588
32	0x3e7ffb45	0.24998195
33	0x3eda37eb	0.42620787
34	0xbdb117bd	-0.08647106
35	0xbea2b0d6	-0.3177554
36	0xba900855	-0.0010988811
37	0xbc131d20	-0.008979112
38	0xbdbabbea	-0.09117873
39	0xbe11e499	-0.1424736
40	0x3d44f059	0.048080776
41	0xbef813b8	-0.48452544
42	0x3ea0a7b1	0.31377938
43	0x3e9fc3cd	0.31204072
44	0xbc9e9c01	-0.019361498
45	0x3f25df1e	0.64793575
46	0xbe7c4045	-0.24633892
47	0xbf6e5d26	-0.93110883
48	0x3df6643f	0.12030839
49	0xbeed9772	-0.46404606
50	0x3de84435	0.113411345
51	0xbdf3dab5	-0.119069494
52	0x3d9c1dc7	0.07622867
53	0x3e6d6196	0.23181757
54	0x3e09b545	0.13448055
55	0xbe09c331	-0.13453366
56	0xbcfc4f60	-0.030799568
57	0xbea08ee2	-0.3135901
58	0xbe393104	-0.18085104
59	0x3ea65bca	0.32491904
60	0xbe4d4f6c	-0.20049828
61	0x3e9efc76	0.31051987
62	0xbe4b063c	-0.19826597
63	0xbdee7d08	-0.116449416
64	0x3e2b9e67	0.16759644
65	0x3e539650	0.20662808
66	0xbe71f43b	-0.23628323
67	0xbe8aad24	-0.2708522
68	0xbde46aed	-0.11153207
69	0x3d22657b	0.03964756
70	0xbde6fa2d	-0.11278186
71	0xbe0cd309	-0.13752379
72	0xbe711140	-0.23541737
73	0x3edcb7b4	0.43108904
74	0x3da4fb33	0.08055725
75	0xbe61865d	-0.22023912
76	0x3e1c8258	0.15284097
77	0x3bf0c980	0.0073482394
78	0xbe6ed9ec	-0.23325318
79	0xbef6e9b8	-0.48225188
80	0x3e1175e5	0.1420513
81	0x3e462c5c	0.1935286
82	0xbe366fda	-0.17816105
83	0xbe712c65	-0.23552091
84	0x3d81eae0	0.06343627
85	0xbeb86c68	-0.36020207
86	0xbee046cc	-0.43804014
87	0xbe45443c	-0.1926431
88	0xbda4dd68	-0.080500424
89	0xbee8a0e8	-0.45435262
90	0xbeaaf034	-0.33386385
91	0x3d064870	0.032783926
92	0xbef16698	-0.47148585
93	0xbd8fed80	-0.070277214
94	0xbea54cc6	-0.32285136
95	0xbeb17800	-0.34661865
96	0x3eb13f8c	0.34618795
97	0xbe8be1cf	-0.27320716
98	0xbe876f11	-0.26451924
99	0x3f270122	0.65236104
100	0x3e873ee5	0.26415172
101	0x3ea7783e	0.32708925
102	0xbe76c91e	-0.24100158
103	0xbe8ab21c	-0.27089012
104	0xbd3d8900	-0.04627323
105	0x3b25c900	0.0025296807
106	0x3ec33ca8	0.38132215
107	0xbefeff18	-0.49803996
108	0xbd11d1b0	-0.035600364
109	0x3e627bfc	0.22117609
110	0xbe8cf990	-0.2753415
111	0xbe821584	-0.2540704
112	0xbe8ab8b4	-0.27094042
113	0xbec64d02	-0.38730627
114	0x3e03a484	0.12855726
115	0x3e9dcc9e	0.30820173
116	0xbf4e5d1e	-0.80610836
117	0xbe00b614	-0.12569457
118	0x3f93e17c	1.1553187
119	0x3e97a49d	0.29617777
120	0xbec56d64	-0.3856002
121	0x3ecf0e9e	0.4044084
122	0x3edfac10	0.4368596
123	0xbebfa085	-0.37427154
124	0x3f00eaa9	0.50358063
125	0x3f57a514	0.84236264
126	0xbe863120	-0.26209354
127	0xbf18b6c2	-0.59653866
128	0xbe1eec93	-0.15519933
129	0xbeaaff6d	-0.33398
130	0x3d812f1c	0.063078135
131	0x3e3abdbf	0.18236445
132	0x3e54801c	0.20751995
133	0xbebacc06	-0.36483783
134	0x3da518b0	0.080613494
135	0xbbbc4f00	-0.005746722
136	0xbd7f171c	-0.0622779
137	0xbd0af70c	-0.03392701
138	0xbe61e72b	-0.2206084
139	0x3d99ce80	0.0751009
140	0xbeb4b0b9	-0.3529108
141	0x3d33a4f2	0.043858476
142	0x3e0ecd5b	0.13945524
143	0xbd03e8d5	-0.032204468
144	0x3cf1d046	0.029518258
145	0xbda0a263	-0.07843473
146	0xbe827682	-0.2548104
147	0xbd1a116b	-0.037614267
148	0xbef12675	-0.47099653
149	0x3db44e83	0.088040374
150	0x3deb031a	0.11475201
151	0xbcd0d196	-0.025490563
152	0xbea34aba	-0.3189295
153	0xbed04772	-0.40679508
154	0xbdbb2498	-0.09137839
155	0x3ec77e76	0.3896367
156	0x3ebef554	0.37296546
157	0x3e4097b1	0.18807866
158	0xbefd6b64	-0.49495995
159	0xbe052f99	-0.13006438
160	0xbefa52bf	-0.48891255
161	0x3e287ff4	0.1645506
162	0xbdc87441	-0.09787799
163	0xbd3ca6c5	-0.04605748
164	0xbe32f4a7	-0.1747614
165	0xbea383ac	-0.31936395
166	0x3e5bbc6e	0.21458599
167	0x3ea5d65f	0.32390115
168	0xbeabc6ad	-0.33550015
169	0x3f2a377d	0.6649092
170	0x3e6b87e8	0.23001063
171	0xbea7e9a9	-0.32795456
172	0xbda198af	-0.0789045
173	0xbe58c904	-0.21170431
174	0x3d8dcf40	0.069242954
175	0x3e206d48	0.15666687
176	0xbe7db8d1	-0.24777533
177	0xbe06c068	-0.13159335
178	0x3e005db0	0.12535739
179	0x3e11f8d2	0.14255074
180	0xbd9ec8d5	-0.077531494
181	0xbe825607	-0.2545626
182	0xbe0fdf3a	-0.14049998
183	0x3cbe01e3	0.023194259
184	0x3d85f39a	0.06540604
185	0x3d1b12b5	0.037859637
186	0xbdcca4d3	-0.09992375
187	0xbe069c98	-0.13145673
188	0x3a600dbb	0.0008546968
189	0x3c865ec4	0.01640261
190	0xbbf1ac2c	-0.007375261
191	0xbe049822	-0.12948659
192	0xbea06fec	-0.3133539
193	0xbe947719	-0.28997114
194	0x3ec533f5	0.38516203
195	0x3ebdfc7f	0.37106702
196	0xbeace3f6	-0.3376767
197	0xbec60a0e	-0.38679546
198	0x3eb1ac1c	0.34701622
199	0x3ee895e5	0.4542686
200	0x3ec09f21	0.37621406
201	0x3ee71877	0.45135853
202	0xbed8b4ea	-0.42325526
203	0xbefb4928	-0.4907925
204	0xbec44f43	-0.38341722
205	0xbe16e7a1	-0.14736797
206	0x3ebafbcb	0.36520228
207	0x3e9b9877	0.3038976
208	0xbed60539	-0.4180086
209	0x3d51988a	0.051170863
210	0x3bf3fd9c	0.007446004
211	0xbeef99de	-0.4679708
212	0xbe8ec2c6	-0.27882975
213	0xbeea3c08	-0.45748925
214	0xbeb7677e	-0.35821146
215	0xbe6703a4	-0.22559983
216	0x3e712a5c	0.23551315
217	0x3d13fffe	0.036132805
218	0x3daa079d	0.08302233
219	0x3bfdef9b	0.0077495105
220	0xbc508e77	-0.012729279
221	0xbe4680ab	-0.1938502
222	0x3e902095	0.28149858
223	0x3ea7de8a	0.3278697
224	0x3e489b3d	0.19590469
225	0xbeb30818	-0.34967113
226	0x3e56999c	0.20957035
227	0x3e146fc9	0.14495768
228	0xbf89280d	-1.0715348
229	0xbeb0e235	-0.34547582
230	0x3f4da5d9	0.8033119
231	0x3dedbc25	0.11608151
232	0x3eaf94be	0.3429317
233	0xbe0bea40	-0.13663578
234	0xbf04ae4a	-0.51828444
235	0x3e955d28	0.29172635
236	0x3dc75bba	0.09734292
237	0x3e50fff5	0.2041014
238	0xbe2c3857	-0.16818367
239	0x3ea151db	0.31507763
240	0xbf07307b	-0.5280835
241	0xbe9f4eb8	-0.31114745
242	0xbe451602	-0.19246677
243	0xbe4cb909	-0.1999246
244	0x3dacda22	0.08440043
245	0x3daf4ef7	0.08559983
246	0x3e59214f	0.21204112
247	0x3e02fa6a	0.12790838
248	0xbe0770ca	-0.1322662
249	0x3c67c928	0.0141470805
250	0x3e809a47	0.25117704
251	0xbd900e68	-0.07033998
252	0x3ebe401c	0.37158287
253	0xbec536f4	-0.38518488
254	0xbed5c7ce	-0.41754
255	0x3edaf61b	0.4276589

nn_model.0.bias f4 [128]
0	0xbe0b39e4	-0.13596302
1	0x3efb0703	0.49028787
2	0xbf310e61	-0.69162565
3	0xbf0b110a	-0.54322875
4	0xbe982371	-0.2971454
5	0x3eae9d6f	0.34104487
6	0xbf103666	-0.56333005
7	0xbf2f51bd	-0.684841
8	0x3ea9329d	0.33046427
9	0x3e7b6e20	0.24553728
10	0xbf2cd960	-0.6751919
11	0x3f2032f9	0.6257778
12	0xbeb6ebb5	-0.35726705
13	0xbf089a67	-0.533606
14	0xbec06f62	-0.37584978
15	0xbed6cf6c	-0.41955125
16	0x3e9b3df6	0.3032071
17	0x3e8af95c	0.2714337
18	0xbf029262	-0.5100461
19	0xbefa6814	-0.4890753
20	0x3e858838	0.2608049
21	0xbe9141bc	-0.28370464
22	0xbdaaf458	-0.08347386
23	0xbed6a6c0	-0.41924095
24	0xbf7e70d6	-0.99390924
25	0x3e1ac0cc	0.15112609
26	0xbeee85a8	-0.46586347
27	0xbe91fb3a	-0.28511983
28	0x3ec6d1ae	0.38831848
29	0xbf2f7297	-0.68534225
30	0xbf524bf0	-0.8214712
31	0xbf341d37	-0.7035708
32	0x3eeda700	0.46416473
33	0xbea7eda0	-0.3279848
34	0x3e4ec29f	0.2019143
35	0x3e9dde7f	0.30833814
36	0x3ebdaab6	0.37044305
37	0x3ee49b56	0.44649762
38	0xbec349fa	-0.38142377
39	0x3ed56e1f	0.41685578
40	0x3ebfa18f	0.37427947
41	0xbf1283df	-0.5723247
42	0xbf618f57	-0.88109344
43	0x3e33c09d	0.17553945
44	0x3e755e93	0.23961858
45	0x3ed45d29	0.41477326
46	0x3e24b3ec	0.1608426
47	0x3e0d0db6	0.13774762
48	0xbf373523	-0.71565455
49	0xbf276684	-0.653908
50	0xbf1624ab	-0.586497
51	0xbf2680ed	-0.65040475
52	0xbf124a91	-0.5714503
53	0xbd155b70	-0.036464155
54	0xbeba417d	-0.3637809
55	0xbf1c9586	-0.61165655
56	0xbf122c32	-0.57098687
57	0x3f1d1faa	0.6137644
58	0x3eb32111	0.34986165
59	0xbf1d0eef	-0.6135091
60	0xbd332300	-0.04373455
61	0xbf03d064	-0.51489854
62	0x3e42606a	0.18982092
63	0xbf4b1a13	-0.7933666
64	0xbeed8e84	-0.46397793
65	0xbcb917fb	-0.022594443
66	0x3f0aff99	0.5429626
67	0x3da83be6	0.0821455
68	0xbf309e10	-0.68991184
69	0x3d5dbb9d	0.054134
70	0xbf4fcfff	-0.8117675
71	0xbed76d63	-0.42075643
72	0x3e643da5	0.2228914
73	0xbf3324bc	-0.6997793
74	0xbec6dc60	-0.38840008
75	0x3ea3e68c	0.3201183
76	0xbf1fd820	-0.62439156
77	0xbf23c105	-0.639664
78	0xbf395229	-0.7239099
79	0xbf4cafa4	-0.79955506
80	0xbf38ff6a	-0.7226473
81	0x3e075ae9	0.13218273
82	0x3e2d1ee7	0.1690632
83	0x3e66d3d3	0.22541742
84	0x3f1dbc07	0.6161503
85	0x3e0d7e0e	0.13817617
86	0xbf2cb597	-0.67464584
87	0xbf150f0f	-0.582261
88	0x3e6951c0	0.22785091
89	0xbf3460d8	-0.7046027
90	0xbf86f2a1	-1.0542794
91	0xbeddfb64	-0.43355858
92	0x3f1f7b2f	0.6229734
93	0x3e65a090	0.22424531
94	0x3e75e405	0.24012764
95	0xbf280eda	-0.6564766
96	0x3ee51bb1	0.4474769
97	0xbeeb0ac8	-0.45906663
98	0xbee87c5d	-0.45407382
99	0xbef654bc	-0.48111522
100	0x3e8f2476	0.27957505
101	0x3ece302f	0.40271136
102	0xbe6bc208	-0.23023236
103	0x3e4bb0b4	0.19891626
104	0xbf2b3190	-0.668725
105	0xbf254c0d	-0.6456917
106	0x3eedf12a	0.46473056
107	0x3ea0bea0	0.31395435
108	0xbeddb1dd	-0.4329976
109	0xbf41f62b	-0.7576625
110	0x3dc96122	0.0983298
111	0x3e0e640e	0.13905355
112	0xbefcaada	-0.493491
113	0xbf0c0e9b	-0.54709786
114	0xbeb1b160	-0.3470564
115	0xbf27502d	-0.65356714
116	0xbefc22ec	-0.49245393
117	0xbf29470b	-0.6612403
118	0x3e4c0595	0.19924004
119	0x3f0be6e2	0.54649174
120	0xbe247cb0	-0.1606319
121	0x3e9d4ebe	0.30724138
122	0x3ef89055	0.48547617
123	0x3e2be7e8	0.16787684
124	0x3e93a25d	0.2883481
125	0x3ebe8a2f	0.372148
126	0x3e5b5ab9	0.21421327
127	0xbef1faf3	-0.47261772

nn_model.2.weight f4 [128, 128]
0	0xbd5db033	-0.054123115
1	0xbea130b5	-0.31482473
2	0xbe3c0ca4	-0.18364197
3	0x3dd25775	0.10270587
4	0x3d36492e	0.044503383
5	0xbe0b56bb	-0.13607304
6	0x3df6c870	0.12049949
7	0x3dfd87ab	0.12379392
8	0xbec09fea	-0.37622005
9	0x3c079fb3	0.008277821
10	0xbd185e8a	-0.037199534
11	0xbe46a2a2	-0.19397977
12	0xbd56902d	-0.05238359
13	0x3d5953bb	0.053058367
14	0xbd3d1e90	-0.046171725
15	0x3d38922a	0.045061268
16	0xbe485381	-0.19563104
17	0x3e0b29e5	0.135902
18	0xbf0f08ca	-0.55872786
19	0xb94fe400	-0.00019825995
20	0xbe9aadc2	-0.30210692
21	0xbd4acc90	-0.049511492
22	0x3d8d2973	0.068926714
23	0x3dafd985	0.085864104
24	0x3e1a89e4	0.15091664
25	0x3d41e7b8	0.047340125
26	0xbdb3c840	-0.08778429
27	0xbc1f0230	-0.009705111
28	0xbdecc4fe	-0.11561011
29	0xbdfc78f8	-0.123277605
30	0x3ec9cd41	0.3941441
31	0xbd0430f2	-0.03227324
32	0x3d7b5c6e	0.061367445
33	0xbd8f9f93	-0.07012858
34	0x3e330518	0.17482412
35	0xbf007f7e	-0.5019454
36	0xbe63ce26	-0.22246608
37	0xbe887ade	-0.2665624
38	0x3d885ec7	0.06658702
39	0xbee864f4	-0.4538952
40	0xbe0bd3cb	-0.13655011
41	0xbe88fbf7	-0.26754734
42	0xbb9b9e1e	-0.0047490736
43	0xbd39688e	-0.045265727
44	0xbeabc7b2	-0.33550793
45	0xbdca8c81	-0.0989008
46	0x3dc82ab3	0.09773769
47	0xbd9cc88e	-0.0765544
48	0xbefef8bf	-0.49799153
49	0xbf4c182a	-0.7972437
50	0x3f38c68b	0.7217795
51	0x3ced0f3a	0.028937925
52	0xbc8f1399	-0.0174654
53	0x3c8f3a08	0.017483726
54	0xbdc2fb9b	-0.09520646
55	0xbbde89ce	-0.00679133
56	0x3daae346	0.0834413
57	0x3d88769b	0.06663247
58	0x3dbc602c	0.09198031
59	0x3e181902	0.1485329
60	0x3d772ba5	0.060344357
61	0x3e1c3dc7	0.15257941
62	0x3e2fe741	0.1717806
63	0xbe570d5e	-0.21001193
64	0x3c5f4fee	0.013629897
65	0x3cc2ab36	0.02376328
66	0x3df899cf	0.12138712
67	0x3ddef2ac	0.1088613
68	0xbe3c7370	-0.18403411
69	0xbdf754da	-0.12076731
70	0x3ce0cb70	0.027440757
71	0x3e182d94	0.14861137
72	0xbdc0b7fa	-0.09410091
73	0x3f02ad3c	0.51045585
74	0x3b90f620	0.0044238716
75	0xbd3a2df6	-0.045453988
76	0x3ca8ae7f	0.020591019
77	0xbbab308a	-0.005224292
78	0xbe43729f	-0.19086693
79	0x3eea84ad	0.4580435
80	0xbf6ee220	-0.9331379
81	0x3ea95769	0.330745
82	0xbc0f9d24	-0.008765493
83	0xbd16f4f3	-0.036854696
84	0x3ebe94f3	0.37223014
85	0x3df53728	0.11973411
86	0xbea6db7e	-0.32589334
87	0xbe4ed008	-0.20196545
88	0xbeaed75a	-0.34148675
89	0x3d6eac08	0.05826953
90	0x3f07beae	0.5302533
91	0xbd21a1cc	-0.039460942
92	0xbe770d26	-0.2412611
93	0xbe17f9cf	-0.14841388
94	0xbbfb9afc	-0.0076783877
95	0x3de85152	0.113436356
96	0xbe8a8d35	-0.27060857
97	0xbd3846fb	-0.044989567
98	0xbc8cdc08	-0.017194763
99	0xbcfdea4a	-0.030995507
100	0xbef419f7	-0.4767606
101	0xbe7b4fce	-0.24542162
102	0xbca0fafc	-0.019650929
103	0xbdfad3ab	-0.12247404
104	0x3d261a81	0.04055262
105	0xbd721dea	-0.05911056
106	0xbc198f7d	-0.009372589
107	0x3d646ecd	0.05576973
108	0x3cb4e301	0.0220809
109	0xbe411045	-0.18853863
110	0x3d6bb82d	0.05754869
111	0x3d7a1c54	0.061062172
112	0x3e19139a	0.14948884
113	0x3df9b005	0.12191776
114	0xbe4c7cb6	-0.19969448
115	0xbeceabfe	-0.40365595
116	0xbdd81be5	-0.105521955
117	0xbb59fea4	-0.003326335
118	0xbd18bcd8	-0.03728947
119	0xbf326770	-0.69689083
120	0x3d900aed	0.07033334
121	0xbd083518	-0.03325376
122	0xbf0bafd3	-0.5456516
123	0xbf4db666	-0.8035644
124	0x3e639cae	0.22227737
125	0xbe506010	-0.20349145
126	0x3de177e6	0.11009197
127	0x3ce949d4	0.028477587
128	0x3c369bb1	0.011145518
129	0xbd575d36	-0.052579127
130	0x3e477ad9	0.19480456
131	0x3ddbde66	0.107357785
132	0xbd840db2	-0.06447925
133	0x3d2aed4e	0.041730218
134	0x3d4b52f7	0.04963967
135	0xbbd02862	-0.0063524703
136	0xbd8bef02	-0.068326965
137	0x3d89e5ce	0.06733285
138	0xbe144f72	-0.14483431
139	0xbe506bce	-0.20353624
140	0x3d93c77a	0.072157815
141	0x3dd4c8b0	0.103898406
142	0x3cb56ba8	0.022146061
143	0x3d455d6a	0.04818479
144	0xbeff8ba8	-0.49911237
145	0x3cff4316	0.031159919
146	0xbf419ff3	-0.7563469
147	0xbd8d8b90	-0.06911385
148	0x3e800aff	0.2500839
149	0x3c034e90	0.008014336
150	0x3c2f74c0	0.010708988
151	0xbcffd13e	-0.031227704
152	0xbf20739b	-0.626764
153	0x3c81013f	0.015747664
154	0x3d0a9a6e	0.033838682
155	0x3d9bded3	0.0761086
156	0xbe5fe1c8	-0.21863472
157	0xbc92d22b	-0.017922482
158	0xbf8497c7	-1.0358819
159	0x3efb9c20	0.4914255
160	0xbe2c9e69	-0.16857304
161	0xbc3f46f0	-0.011674628
162	0xbeb8f384	-0.36123288
163	0xbdcbf68f	-0.09959137
164	0xbf6e8027	-0.93164295
165	0xbe0e43df	-0.13893078
166	0x3bb23300	0.0054382086
167	0x3d57727f	0.052599426
168	0xbd9f8a11	-0.07790006
169	0xbe2e97bf	-0.17050074
170	0xbf043fb6	-0.51659715
171	0xbe880639	-0.26567248
172	0xbe26968a	-0.16268364
173	0xbec664f4	-0.38748896
174	0x3d1351b1	0.03596658
175	0x3cb079ae	0.021542396
176	0xbdb78f0e	-0.089628324
177	0xbdbe4728	-0.09290916
178	0xbe47f5c8	-0.19527352
179	0xbe24f30e	-0.16108343
180	0x3d377a50	0.04479438
181	0xbba07100	-0.004896283
182	0x3db0e86e	0.086380824
183	0xbd5056f7	-0.050864186
184	0x3dd7d370	0.105383754
185	0xbe1fd223	-0.15607505
186	0x3d079ea1	0.033110265
187	0x3e782ce5	0.24235876
188	0xbd930755	-0.07179133
189	0x3e317154	0.17328387
190	0x3c82b953	0.01595751
191	0xbdba8025	-0.09106473
192	0xbe03d0c9	-0.12872614
193	0xbe2ea3c5	-0.1705466
194	0xbe96f534	-0.2948395
195	0x3c8a1184	0.016854055
196	0xbd8ee035	-0.06976358
197	0xbe923f22	-0.28563792
198	0x3e589e92	0.2115424
199	0xbe8d7b19	-0.2763298
200	0xbe315c8b	-0.17320459
201	0x3f41a9ad	0.7564953
202	0x3cc9c6d0	0.024630934
203	0xbe0c0fa8	-0.13677847
204	0x3cf924f2	0.030413125
205	0xbe26600a	-0.16247573
206	0xbe110de4	-0.14165455
207	0xbd332642	-0.043737657
208	0x3d9d3caf	0.0767759
209	0xbe213e4b	-0.15746419
210	0xbd11c87b	-0.035591584
211	0xbdf33256	-0.11874835
212	0xbd4b6d16	-0.04966458
213	0xbe205ff1	-0.15661599
214	0x3e30a3d5	0.17249997
215	0x3e8af0fa	0.27136976
216	0xbd630779	-0.05542705
217	0x3c42f545	0.011899297
218	0xbe2646d8	-0.16237962
219	0x3dcbb225	0.09946088
220	0xbcc887ef	-0.02447888
221	0xbe253228	-0.16132414
222	0xbe912834	-0.28350985
223	0x3d3097f2	0.043113656
224	0xbde88bd1	-0.11354793
225	0xbc9a0214	-0.018799819
226	0xbd9f936d	-0.07791791
227	0x3d3630c6	0.044480108
228	0x3bf15e6d	0.0073659928
229	0xbe31e521	-0.17372562
230	0xbd129039	-0.035782073
231	0xbdb1b2e5	-0.086766995
232	0xbc77baa4	-0.015120182
233	0x3e7fa9b9	0.24967088
234	0xbd003cab	-0.031307857
235	0x3fa78e02	1.3090212
236	0xbd3e8298	-0.046511263
237	0x3ec987ea	0.39361507
238	0x3c14b542	0.009076418
239	0xbde585c4	-0.112071544
240	0x3d8ecd89	0.069727965
241	0xbd99e216	-0.075138256
242	0x3d291506	0.041279815
243	0xbf0dcbd8	-0.55389166
244	0x3b92c185	0.0044786357
245	0x3e83e060	0.25757122
246	0xbe0c99d8	-0.13730562
247	0xbc8e8bc7	-0.017400635
248	0xbcde29d6	-0.027119558
249	0xbe53c936	-0.20682225
250	0xbcc71f7e	-0.024307009
251	0x3d63a636	0.055578433
252	0xbd06f40f	-0.032947596
253	0x3d6b071f	0.057379838
254	0xbd87f33a	-0.06638189
255	0x3d1f7ea5	0.038939137

nn_model.2.bias f4 [128]
0	0x3ddc6d26	0.10763006
1	0x3d33e67c	0.04392098
2	0xbd2edb58	-0.04268965
3	0x3c7bebd9	0.015376055
4	0xbd625f12	-0.055266447
5	0xbe08fe14	-0.13378173
6	0x3d150d93	0.0363899
7	0xbe92620d	-0.28590432
8	0xbe3e14e9	-0.18562664
9	0xbdd32d0b	-0.10311326
10	0xbc2c0840	-0.010500014
11	0x3ccd5b18	0.025067851
12	0x3dcbc1b6	0.09949057
13	0x3cb3ddfa	0.021956433
14	0xbec50a04	-0.38484204
15	0x3d0b5c23	0.034023415
16	0xbd49d2a2	-0.04927314
17	0xbd482050	-0.04885894
18	0xbd49d72a	-0.049277462
19	0x3e8e9074	0.27844584
20	0x3e97ca89	0.2964671
21	0xbc99b994	-0.018765248
22	0xbe27b8f6	-0.16379151
23	0xbcb089b4	-0.021550037
24	0xbdc60fb0	-0.09670961
25	0xbd7c1756	-0.061545692
26	0xbd290071	-0.041260187
27	0xbd87f3f0	-0.06638324
28	0xbcb43be7	-0.02200122
29	0xbda71cf1	-0.08159817
30	0x3b8e7a7f	0.0043480988
31	0x3e9abb7a	0.30221158
32	0xbaadddb3	-0.0013264924
33	0xbe7a8c69	-0.24467625
34	0xbe1043ed	-0.14088412
35	0x3e526edd	0.20550103
36	0xbd2118bc	-0.03933023
37	0x3dc891e7	0.09793454
38	0x3e5131a9	0.204291
39	0x3d745b98	0.059657663
40	0xbddc76bb	-0.107648335
41	0xbc56e8e7	-0.013117052
42	0xbda64260	-0.08118129
43	0x3c462710	0.012094274
44	0x3de2b546	0.110697314
45	0xbdc6ef3f	-0.09713601
46	0x3d415389	0.047198806
47	0xbe42baa1	-0.19016506
48	0x3de0b0b6	0.10971205
49	0xbe3137f6	-0.17306504
50	0x39f24771	0.00046211065
51	0x3e4100c2	0.18847945
52	0xbda81320	-0.08206773
53	0x3cc3d120	0.02390343
54	0xbdde7289	-0.108616896
55	0x3a8fb1be	0.0010963005
56	0xbdd44305	-0.103643455
57	0x3d143373	0.03618188
58	0x3dd6dcfd	0.10491369
59	0xbe126d87	-0.14299594
60	0x3deacff2	0.11465444
61	0xbc8e29e2	-0.017353956
62	0xbda8bb1a	-0.08238812
63	0xbe119630	-0.14217448
64	0x3d514102	0.051087387
65	0xbead3ea6	-0.3383686
66	0x3cf65781	0.030071022
67	0xbd3d7b04	-0.046259895
68	0x3b9e365e	0.0048282584
69	0x3cd181c6	0.025574576
70	0xbdce071c	-0.1005995
71	0xbe3f244b	-0.18666188
72	0xbdc138a8	-0.094346344
73	0xbd301a3e	-0.042993777
74	0xbde3590b	-0.11100968
75	0x3c9bd0dc	0.01902049
76	0xbdeb545b	-0.11490699
77	0xbd65ccf6	-0.05610367
78	0xbd76ec97	-0.060284223
79	0xbda0b5f1	-0.078472026
80	0xbdc55b9a	-0.09636612
81	0x3dd33c10	0.103141904
82	0x3d64236b	0.05569784
83	0x3db3ee29	0.0878566
84	0xbd44a04c	-0.048004434
85	0x3af4c855	0.0018675426
86	0x3ba669ef	0.0050785462
87	0x3d3ffcaa	0.04687182
88	0xbd6d6c84	-0.057964817
89	0xbe116d00	-0.14201736
90	0x3d3180af	0.043335613
91	0xbc3b98f6	-0.011450043
92	0xb94fbe10	-0.00019811862
93	0xbe5e6ad2	-0.21720436
94	0xbdf978ee	-0.12181269
95	0x3cc6fcc5	0.024290452
96	0xbdaf6c9b	-0.08565637
97	0x3dcb3d5e	0.09923814
98	0xbde6cb78	-0.11269277
99	0x3c80e144	0.015732415
100	0xbd813414	-0.06308761
101	0xbd23b658	-0.03996882
102	0x3e6e48e0	0.23269987
103	0xbc90daa0	-0.017682374
104	0x3bc12473	0.0058942377
105	0xbd52f14c	-0.05149965
106	0xbd4c0b67	-0.04981556
107	0xbe5fb5ab	-0.21846645
108	0xbdbf8781	-0.09352017
109	0x3d9bb8b8	0.07603592
110	0x3e0a3503	0.13496785
111	0x3c4d6843	0.012537065
112	0x3e11c2e1	0.14234497
113	0x3bd2804a	0.0064239847
114	0xbcf2c54d	-0.029635096
115	0x3d44f712	0.048087187
116	0xbdcd8771	-0.10035599
117	0xbcb9b6f5	-0.022670249
118	0xbd86ce3a	-0.06582303
119	0x3d8ba13d	0.06817863
120	0xbd8c98cb	-0.068650804
121	0x3d350e0d	0.044202853
122	0xbce093cb	-0.027414223
123	0x3e061596	0.13094172
124	0xbd9d03f1	-0.076667674
125	0x3d619172	0.055070348
126	0xbdfe4227	-0.12414961
127	0xbc52fc49	-0.012877532

nn_model.4.weight f4 [128, 128]
0	0x3e1f6287	0.15564929
1	0x3d8c1162	0.06839253
2	0x3ccc9e72	0.024977896
3	0x3d8cf702	0.068830505
4	0x3c158006	0.009124761
5	0x3ccfa5e7	0.025347663
6	0xbcbc260e	-0.022967365
7	0x3e0e873e	0.13918778
8	0x3e30fcd9	0.17283954
9	0x3d6039c5	0.054742593
10	0x3deb5261	0.11490322
11	0xbcd1c9a6	-0.025608849
12	0xbe0c6183	-0.13709073
13	0xbe49d183	-0.19708829
14	0xbe55531e	-0.20832488
15	0xbd00f77d	-0.031486023
16	0x3e06d6b1	0.13167836
17	0x3dbd69b6	0.092486784
18	0x3d23cf4b	0.03999261
19	0x3e391a23	0.18076377
20	0x3d969164	0.0735195
21	0xbe05d154	-0.13068134
22	0x3da0ffc9	0.07861287
23	0xbd9d8a04	-0.0769234
24	0x3dbe2384	0.09284118
25	0x3d1cb866	0.038261794
26	0xbd84e292	-0.06488527
27	0xbd4c87b3	-0.0499341
28	0xbde5335d	-0.111914374
29	0x3bc2047f	0.005920946
30	0x3d76579a	0.060142137
31	0xbf04cb12	-0.5187236
32	0xbdab8e43	-0.08376744
33	0xbe4cbec8	-0.19994652
34	0x3e05fa81	0.13083841
35	0x3e1b6a19	0.15177192
36	0x3d2e1b64	0.04250659
37	0xbc74aadc	-0.014933314
38	0xbcd70908	-0.026249424
39	0xbd9958c0	-0.07487631
40	0x3e00125a	0.12507
41	0xbdb7f4a8	-0.08982211
42	0x3d909993	0.07060542
43	0x3d5296fe	0.05141353
44	0xbee1081f	-0.43951508
45	0x3d217830	0.03942126
46	0xbdfd6a8b	-0.12373837
47	0xbe3ed517	-0.18635975
48	0x3d7b2fc6	0.061324857
49	0xbdb13c71	-0.086541064
50	0xbc6d5c08	-0.014487274
51	0xbdcf61d7	-0.10126083
52	0x3d1fcdff	0.039014813
53	0x3dbb1629	0.09135086
54	0xbcba5100	-0.022743702
55	0xbc10a599	-0.008828544
56	0x3d2193f2	0.039447732
57	0xbcecc73b	-0.028903594
58	0x3cdd5ad5	0.027020851
59	0x3daae82b	0.08345064
60	0x3c9e6517	0.019335313
61	0x3b4ad337	0.0030948648
62	0x3ce28e1a	0.02765565
63	0xbe416bae	-0.18888733
64	0xbd865a41	-0.06560183
65	0xbd067a22	-0.03283132
66	0x3d6d683f	0.057960745
67	0xbe046146	-0.12927732
68	0x3c5539d5	0.0130142765
69	0x3e7a78df	0.24460171
70	0xbcdd2575	-0.0269954
71	0x3d57cfb3	0.05268831
72	0xbdf823c2	-0.12116195
73	0x3e0577f7	0.13034044
74	0x3c1f5012	0.00972368
75	0x3d6e2218	0.058137983
76	0xbdb9535a	-0.09049101
77	0xbb9b5d15	-0.004741321
78	0xbd5208d6	-0.051277958
79	0x3d92f11a	0.07174893
80	0xbbcdd4a9	-0.0062814546
81	0x3d0a20e0	0.03372276
82	0x3c109d1f	0.008826523
83	0xbc167b08	-0.009184606
84	0x3dd51928	0.10405189
85	0x3dde1e07	0.10845571
86	0x3c3f9221	0.011692555
87	0xbce4347c	-0.027857058
88	0x3c7df6a4	0.015500698
89	0xbaf4e6fb	-0.001868456
90	0xbca1ec40	-0.019765973
91	0x3d6bae93	0.057539534
92	0x3db737ec	0.08946213
93	0xbdd12774	-0.10212603
94	0x3e164f40	0.14678669
95	0xbd852e93	-0.06503024
96	0xbcd7b471	-0.026331158
97	0xbf3617e0	-0.7113018
98	0xbdf5573b	-0.119795285
99	0xbc3c00f0	-0.011474833
100	0x3d5ec647	0.05438831
101	0xbc9f636b	-0.019456586
102	0xbecf7912	-0.40522057
103	0x3d930a22	0.07179667
104	0x3da964bc	0.08271167
105	0x3c93d270	0.01804468
106	0xbd7fdb4b	-0.062464993
107	0x3d0b51de	0.03401362
108	0x3d99af03	0.07504084
109	0x3d3ba3e9	0.045810614
110	0xbeb67b2d	-0.3564085
111	0x3dd5f9a9	0.104480095
112	0xbd05bfd1	-0.032653634
113	0xbd87d64e	-0.06632672
114	0xbc853b14	-0.016263522
115	0x3ca7e9d0	0.020497233
116	0x3e65d182	0.22443202
117	0xbea75545	-0.32682243
118	0x3dac9a45	0.08427862
119	0xbde3d23e	-0.11124085
120	0xbdb4f6d6	-0.08836143
121	0xbd6f507c	-0.058426365
122	0x3cc63240	0.024193883
123	0x3dc20bd4	0.09474912
124	0x3e3978be	0.18112466
125	0xbc943a5a	-0.01809423
126	0xbd9fad60	-0.077967405
127	0xbdd99677	-0.10624402
128	0x3cbc1802	0.022960667
129	0xbd942b70	-0.072348475
130	0x3dfdb356	0.12387721
131	0xbd8d9de2	-0.069148794
132	0xbccdfc98	-0.02514486
133	0xbd067d41	-0.032834295
134	0xbc9fcc84	-0.0195067
135	0x3c840c77	0.016119225
136	0xbe07403d	-0.13208099
137	0xbdd3d083	-0.10342505
138	0xbd9b391e	-0.075792536
139	0xbcb8bd89	-0.022551315
140	0xbe882b71	-0.26595643
141	0xbd6ef80f	-0.058342036
142	0xbc3267b0	-0.010888979
143	0xbb0ffd68	-0.002197111
144	0x3d4f3d96	0.050595842
145	0x3df9d91f	0.12199616
146	0xbc162aa2	-0.009165438
147	0xbdb8b5df	-0.09019064
148	0xbda184c4	-0.07886651
149	0xbd495a88	-0.049158603
150	0xbd9e1181	-0.07718182
151	0x3d503e46	0.05084064
152	0x3dc719a3	0.09721687
153	0x3c9490a0	0.018135369
154	0xbda1f92e	-0.079088554
155	0xbd98dcce	-0.0746399
156	0xbc6def4f	-0.014522388
157	0xbc50388c	-0.012708794
158	0x3c8d3dd6	0.0172414
159	0xbe650af6	-0.22367463
160	0x3c33a73b	0.010965164
161	0xbd5da604	-0.054113403
162	0x3c9d78ed	0.019222701
163	0x3ba2bd5a	0.00496642
164	0xbdc7066f	-0.09718024
165	0x3c46f770	0.012143955
166	0xbde38c98	-0.111108005
167	0xbe0be121	-0.13660099
168	0x3cba5e49	0.022750037
169	0xbe077b37	-0.13230596
170	0xbc27e62e	-0.01024775
171	0x3da3d1f3	0.07999029
172	0xbe65aca1	-0.22429134
173	0xbcfabf3a	-0.030608762
174	0x3d8c92dc	0.06863949
175	0xbd7119b7	-0.058862414
176	0xbb14fee5	-0.0022734937
177	0x3bc19020	0.0059070736
178	0x3dc9a4fc	0.098459214
179	0xbe0c2656	-0.13686499
180	0xbdea24d8	-0.11432809
181	0xbdcc2032	-0.09967078
182	0xbe086d3a	-0.13322917
183	0x3c121275	0.008915533
184	0xbd957583	-0.07297804
185	0xbbdee45c	-0.006802125
186	0xbdeac021	-0.11462427
187	0x3d22b463	0.03972281
188	0xbdd8f52c	-0.10593638
189	0xbdc5a4d3	-0.09650578
190	0x3cc5745c	0.024103336
191	0x3d4665f6	0.04843708
192	0xbe0477e4	-0.1293636
193	0xbda2c2d3	-0.07947316
194	0xbcc11c50	-0.02357307
195	0x3a27020d	0.000637085
196	0xbd9f06cd	-0.07764969
197	0xbd03de0f	-0.032194193
198	0x3d06b664	0.032888785
199	0xbcf09de8	-0.02937217
200	0x3c77e4f5	0.015130271
201	0xbd575390	-0.052569926
202	0x3e01295c	0.12613434
203	0xbe101a42	-0.14072517
204	0x3ca2e6e0	0.01988548
205	0xbb8abd40	-0.004233986
206	0xbdf73226	-0.12070112
207	0x3c663a46	0.014051979
208	0xbd964ce3	-0.07338884
209	0x3cc8aa79	0.02449535
210	0xbb8c1433	-0.004274869
211	0xbd700fdf	-0.058608886
212	0xbdae43b2	-0.085090056
213	0xbd2a04ea	-0.041508593
214	0xbe14b41a	-0.14521828
215	0xbd481ee0	-0.04885757
216	0xbdd7ea6c	-0.10542759
217	0xbc2af8bd	-0.01043528
218	0xbdc8f557	-0.0981242
219	0xbd78f449	-0.060779843
220	0xbe03e4fd	-0.12880321
221	0xbe63a9ad	-0.22232695
222	0xbc920afb	-0.017827502
223	0x3e0d8487	0.13820086
224	0x3c5f1578	0.013615958
225	0xbebeb786	-0.37249392
226	0xbdb6b37b	-0.08920952
227	0x3df74c45	0.12075094
228	0x3dc23768	0.09483224
229	0xbc2e7c0d	-0.010649693
230	0xbeb32498	-0.34988856
231	0x3d0d70e0	0.034531474
232	0xbdb333c4	-0.08750108
233	0xbe090f15	-0.1338466
234	0xbda431fc	-0.08017346
235	0x3d27bb02	0.04094983
236	0x3cc1b5bd	0.02364623
237	0xbd9e5f67	-0.0773304
238	0xbe755e42	-0.23961738
239	0xbdf82731	-0.1211685
240	0xbda01a92	-0.07817568
241	0xbd777bb0	-0.060420692
242	0xbc9b1f14	-0.018935718
243	0xbe732065	-0.23742826
244	0xbe14d791	-0.14535357
245	0xbdd3d628	-0.103435814
246	0xbc4c1ae0	-0.012457579
247	0xbdf7f926	-0.12108068
248	0x3cd82bc0	0.02638805
249	0xbe504fe4	-0.20342976
250	0xbe2fa690	-0.17153382
251	0xbe308280	-0.17237282
252	0xbd84a467	-0.0647667
253	0x3c996417	0.018724484
254	0x3d190fbe	0.03736853
255	0xbdf6b6cf	-0.12046587

nn_model.4.bias f4 [128]
0	0x3df9debb	0.122006856
1	0xbeae8b40	-0.34090614
2	0xbd8630c3	-0.06552269
3	0xbec3d184	-0.38245785
4	0xbd859b97	-0.06523817
5	0xbe186e5c	-0.14885849
6	0x3e550b60	0.2080512
7	0x3e843a18	0.25825572
8	0x3e223e6a	0.15844122
9	0x3e193f1c	0.1496548
10	0xbc9e8484	-0.019350298
11	0x3e5d4f51	0.21612288
12	0x3e6fbfcb	0.23413007
13	0xbe78ebe7	-0.2430874
14	0xbc33de44	-0.010978285
15	0xbe38f922	-0.18063787
16	0x3e3044a2	0.17213681
17	0xbeb8a1c1	-0.36060908
18	0x3d9c08a3	0.07618835
19	0xbddf52f3	-0.10904493
20	0xbd4197b9	-0.047263835
21	0xbddb5f8f	-0.10711586
22	0x3e498129	0.19678177
23	0x3df56e64	0.11983946
24	0x3e3486b7	0.17629515
25	0xbdd46c2b	-0.10372194
26	0xbdc4414f	-0.09582769
27	0x3e71382a	0.23556581
28	0x3e925d78	0.28586936
29	0x3c31f6c6	0.010862058
30	0xbe3a4a6a	-0.18192449
31	0x3edb131a	0.4278801
32	0x3ec2b72a	0.38030368
33	0xbceb4623	-0.028719967
34	0xbe533767	-0.20626603
35	0x3e76aef0	0.24090171
36	0xbec11697	-0.37712547
37	0xbc2b3b74	-0.010451186
38	0xbd8e0965	-0.069353856
39	0xbe1e7695	-0.15474923
40	0xbd3a8197	-0.045533743
41	0xbde1d760	-0.11027408
42	0x3df373e0	0.11887336
43	0xbd91f00b	-0.07125863
44	0xbd12f5cb	-0.035878938
45	0x3dd2a07f	0.102845185
46	0xbeb1d290	-0.3473096
47	0x3e5b04f8	0.21388614
48	0x3e137b69	0.14402546
49	0xbd5797ed	-0.052635122
50	0xbdc62f2b	-0.09676965
51	0xbe260848	-0.16214097
52	0xbbf2027b	-0.0073855496
53	0x3d6fa87f	0.0585103
54	0xbdbc439b	-0.09192582
55	0x3e895804	0.26824963
56	0xbdb5939c	-0.08866045
57	0xbc812a2a	-0.015767176
58	0xbca8d974	-0.020611502
59	0x3da81f56	0.08209102
60	0x3d95320d	0.07284937
61	0x3e91d794	0.28484786
62	0xbd1f513e	-0.038895838
63	0xbe00ff44	-0.12597376
64	0x3dab906a	0.08377154
65	0xbbea1c75	-0.0071445056
66	0xbdb9b187	-0.09067064
67	0x3dad93ea	0.08475478
68	0x3d4aae0f	0.0494824
69	0x3ea758f0	0.3268504
70	0x3e84b56d	0.25919667
71	0xbd689b54	-0.056788757
72	0x3eca34c5	0.39493385
73	0x3e24fde5	0.16112478
74	0xbe4155b8	-0.18880355
75	0x3e50d154	0.20392352
76	0xbd57823d	-0.05261444
77	0xbca6705d	-0.02031725
78	0xbc6c777d	-0.014432785
79	0xbd25060e	-0.040288977
80	0x3e925f8f	0.2858853
81	0x3e1a709c	0.1508202
82	0xbdabdd59	-0.08391828
83	0x3f06dd0a	0.5268103
84	0xbdc78ded	-0.09743867
85	0xbde8162d	-0.11332355
86	0xbdd359d1	-0.103198655
87	0x3e8a8982	0.27058035
88	0xbe50cafc	-0.20389932
89	0x3df9ca56	0.12196796
90	0x3ea58551	0.32328275
91	0x3ae0f8fa	0.0017164045
92	0xbd17ff42	-0.037108667
93	0x3c82a3ac	0.015947185
94	0xbe9ee007	-0.31030294
95	0xbe09fa31	-0.13474347
96	0x3e7672ab	0.2406718
97	0x3ea923cc	0.33035123
98	0xbe3bc26f	-0.1833589
99	0x3e6cb7aa	0.23116937
100	0x3df22149	0.11822755
101	0x3e833b8b	0.25631365
102	0xbd80d190	-0.06289971
103	0x3ea53eac	0.32274377
104	0xbc479178	-0.012180679
105	0x3e7dc191	0.24780871
106	0x3c19b837	0.009382299
107	0xbde4b3fd	-0.111671425
108	0x3e21ccb7	0.15800749
109	0xbcb1f2c5	-0.021722207
110	0xbd02de10	-0.031950057
111	0x3ef955e5	0.48698345
112	0xbbb7b1e7	-0.0056059244
113	0x3e9156c1	0.283865
114	0x3ebed0cc	0.37268674
115	0x3e338f55	0.17535146
116	0x3e40463a	0.1877679
117	0xbe8bdb09	-0.27315548
118	0x3ec3375f	0.38128182
119	0xbdeccdb9	-0.11562676
120	0xbebaa5ea	-0.36454707
121	0x3cfa17c1	0.030528905
122	0xbd8a0946	-0.0674005
123	0x3e0e135f	0.13874577
124	0xbec8d5c3	-0.39225587
125	0xbe107fc8	-0.14111245
126	0xbe0bef6f	-0.13665555
127	0xbe38bdb8	-0.18041122

allocation_head.0.weight f4 [6, 128]
0	0xbd91cc66	-0.07119064
1	0x3ddc18d5	0.10746924
2	0xbc5026c2	-0.012704553
3	0x3e9c718d	0.30555382
4	0xbdbd0496	-0.0922939
5	0x3daed1a1	0.08536077
6	0x3dcd47ee	0.10023485
7	0x3d8a4707	0.06751829
8	0xbc016edc	-0.007899966
9	0x3d0aa930	0.033852756
10	0x3db62f72	0.08895768
11	0x3d22d683	0.039755356
12	0xbc919b10	-0.017774135
13	0xbd6fc590	-0.05853802
14	0xbd1bc06f	-0.038025316
15	0x3f2026e2	0.6255933
16	0x3ea93aeb	0.33052763
17	0xbea37ee1	-0.31932738
18	0xbecd882e	-0.4014296
19	0x3cb0a8db	0.021564892
20	0x3dbcb42e	0.09214054
21	0x3c5aa801	0.013345719
22	0xbc6183fa	-0.013764376
23	0x3c88325c	0.016625576
24	0x3d0117a0	0.03151667
25	0xbe0cea14	-0.13761169
26	0x3ccaf45a	0.024774719
27	0x3c07db52	0.008292036
28	0x3caa563c	0.020793073
29	0x3d1a540d	0.037677813
30	0xbd5fc7fe	-0.054634087
31	0x3dbebab4	0.093129545
32	0xbcc46520	-0.023974001
33	0x3b255424	0.0025227154
34	0xbd7cef53	-0.061751675
35	0xbcc2007f	-0.023681877
36	0x3e7b89ec	0.24564332
37	0x3d96fdf6	0.07372658
38	0x3ca4a5b2	0.020098541
39	0xbc7393ad	-0.014866752
40	0x3d847f28	0.06469566
41	0xbdd7cbc6	-0.105369136
42	0x3d1fdc0c	0.039028212
43	0xbcb81959	-0.022473024
44	0xbb4582fe	-0.0030137892
45	0xbd870aaf	-0.065938346
46	0x3deae4d4	0.11469427
47	0x3d72eb44	0.059306398
48	0xbc560d1f	-0.013064652
49	0x3d68ebac	0.05686538
50	0xbb66f0ec	-0.0035238815
51	0x3c98175f	0.018565832
52	0x3dc2d593	0.09513392
53	0x3c908577	0.017641766
54	0x3d72bdf2	0.059263177
55	0xbe102bca	-0.14079204
56	0xbe3f920c	-0.18708056
57	0xbc0ad796	-0.008474251
58	0xba9e1480	-0.0012060553
59	0x3c3b246d	0.011422259
60	0x3d688d46	0.056775354
61	0x3d633586	0.055470966
62	0x3d180859	0.037117336
63	0xbd089bb5	-0.03335162
64	0xbdf25203	-0.11832049
65	0xbc320e6b	-0.010867695
66	0x3d7181a3	0.05896152
67	0xbbff529d	-0.0077918307
68	0x3d275049	0.04084805
69	0x3e094df1	0.13408639
70	0x3cf5eaf2	0.030019257
71	0x3d0091da	0.031389095
72	0x3d17cea3	0.0370623
73	0x3dbbbb01	0.091665275
74	0x3e0c4212	0.13697079
75	0x3ce7c8c6	0.028293978
76	0x3dc3ce00	0.09560776
77	0xbc89bff6	-0.016815167
78	0x3d8ba462	0.06818463
79	0xbdec01dd	-0.11523793
80	0xbd392067	-0.045196917
81	0x3dcd8241	0.100346096
82	0x3c8dbd10	0.017302066
83	0xbea7e9de	-0.32795614
84	0x3c8786ec	0.016543828
85	0xbc401cd0	-0.011725619
86	0x3d2509b5	0.04029246
87	0x3c064300	0.008194685
88	0x3d0b3966	0.033990286
89	0x3ca76328	0.020433024
90	0x3d157350	0.036486924
91	0xbc7b9346	-0.015354937
92	0xbca8f9ed	-0.020626986
93	0x3d80aa38	0.06282467
94	0xbe9e5b13	-0.3092886
95	0xbd6ada76	-0.057337247
96	0x3cafa372	0.021440241
97	0x3d970ed0	0.07375872
98	0x3e050e61	0.12993766
99	0x3b5fc23a	0.0034142868
100	0x3d76cdd6	0.060254894
101	0x3caede37	0.021346195
102	0x3c822f33	0.015891647
103	0x3ba9cdbf	0.0051819975
104	0xbcc20746	-0.023685109
105	0x3c048db1	0.0080904225
106	0xbbd53769	-0.0065068495
107	0xbc0a2eb5	-0.008433987
108	0x3d86af02	0.06576349
109	0x3d962bdf	0.073325865
110	0x3c49a4b8	0.012307338
111	0x3ce9e989	0.028553741
112	0x3bd8e212	0.0066187466
113	0x3e0dc541	0.13844778
114	0x3924b339	0.00015707024
115	0xbd362669	-0.044470225
116	0x3cbbca67	0.022923661
117	0x3b82b060	0.0039883107
118	0xbb6abe68	-0.0035819057
119	0xbc8a8457	-0.016908808
120	0x3db15594	0.08658901
121	0x3d2553fb	0.040363293
122	0x3a1f1cf6	0.0006069684
123	0x3d524fb7	0.051345553
124	0xbf03f9b7	-0.5155291
125	0xbd832ad8	-0.06404656
126	0x3d1b7a35	0.037958343
127	0xbd305a97	-0.043055143
128	0xbd1060b2	-0.035248466
129	0xbc4b03be	-0.012391029
130	0x3d28e781	0.041236404
131	0x3ec93316	0.39296788
132	0x3afce7c8	0.001929515
133	0x3d5d9431	0.054096404
134	0x3d9d6841	0.076859005
135	0xbbd6f3b5	-0.006559814
136	0x3cd70059	0.026245283
137	0x3ca04866	0.019565772
138	0x3da03092	0.07821764
139	0x3dd04bb2	0.10170688
140	0x3e017a3c	0.12644285
141	0x3d65ea2e	0.056131534
142	0x3c497285	0.01229537
143	0xbe004c0e	-0.12529013
144	0xbdbb805a	-0.091553405
145	0xbe95017d	-0.29102698
146	0xbe10a39a	-0.14124909
147	0x3d73a32f	0.059481796
148	0x3c83fb7b	0.016111126
149	0xbe02d6d2	-0.1277726
150	0x3c0ea284	0.008705739
151	0x3c341036	0.010990193
152	0x3bb122ad	0.005405745
153	0x3daee5ae	0.08539902
154	0xbbf78a5f	-0.007554337
155	0xbcf25586	-0.029581796
156	0x3e036c20	0.12834215
157	0xbc15428b	-0.009110103
158	0xbd029d7d	-0.031888474
159	0x3d490fff	0.04908752
160	0x3cc8480c	0.024448417
161	0x3ce0f804	0.027462013
162	0xbda2700c	-0.079315275
163	0xbd0603fd	-0.032718647
164	0xbeaaa78d	-0.33330956
165	0x3c64b1f5	0.013958444
166	0xbcd2a942	-0.025715474
167	0x3df07f6a	0.11743052
168	0xbc9fb67a	-0.019496191
169	0xbd87350f	-0.06601917
170	0x3d56769d	0.052359212
171	0x3cc49e11	0.024001153
172	0x3e077e16	0.13231692
173	0xbc9221e0	-0.017838418
174	0xbe0e86d3	-0.13918619
175	0x3d791bd2	0.060817547
176	0x3cba4aae	0.022740688
177	0x3ca8bbdf	0.020597396
178	0x3c2e19ad	0.010626239
179	0xbd9247e6	-0.0714262
180	0x3d8e6a2b	0.06953844
181	0x3ca50d75	0.020148018
182	0x3d8144a9	0.06311924
183	0x3ceb2963	0.028706258
184	0xbe148b06	-0.14506158
185	0xbcec3d8e	-0.028837945
186	0x3d1eebf9	0.03879926
187	0xbc9da6fe	-0.019244667
188	0xbcb1a821	-0.021686615
189	0x3da522a4	0.08063248
190	0x3e8aace6	0.27085036
191	0x39ddb3c8	0.00042286352
192	0xbe1c3264	-0.15253597
193	0x3da305cf	0.07960092
194	0xbdf17318	-0.117895305
195	0x3d683659	0.056692455
196	0x39f11428	0.0004598212
197	0x3dadef28	0.08492881
198	0xb8512749	-4.986607e-05
199	0x3d5c8406	0.053836845
200	0x3d930f91	0.071807034
201	0x3da8e2f1	0.08246411
202	0xbbdd8280	-0.0067599416
203	0x3b9a52f9	0.004709598
204	0x3ccb0b77	0.02478574
205	0x3df9b146	0.12192015
206	0xbdbc0ec9	-0.091825075
207	0x3c6e7bee	0.014555914
208	0x3d0bd6f6	0.03414055
209	0x3ddc198f	0.107470624
210	0xba2c7b80	-0.0006579682
211	0xbec0a7f8	-0.3762815
212	0x3c35b1d8	0.011089765
213	0xbdbd7e49	-0.092526026
214	0x3d5c976c	0.053855345
215	0x3d287700	0.041129112
216	0xbd8d9820	-0.06913781
217	0xbc216b4e	-0.009852244
218	0x3d197b5e	0.037471168
219	0xbc415c15	-0.011801739
220	0x3bbb7bef	0.005721561
221	0x3e3d9844	0.18515116
222	0x3eaeea69	0.34163216
223	0x3d55082c	0.052009746
224	0xbd6c4b46	-0.057688974
225	0x3c8d6736	0.017261129
226	0x3da5fff1	0.081054576
227	0x3c8a1b23	0.016858643
228	0x3c40b406	0.011761671
229	0x3da101a4	0.07861641
230	0x3d677233	0.056505393
231	0x3d3ac955	0.04560216
232	0x3d948146	0.072512195
233	0x3dc807fe	0.097671494
234	0x3de9b94b	0.11412295
235	0xbd0abd6a	-0.033872046
236	0x3dd33591	0.10312951
237	0xbb1f0686	-0.0024265363
238	0x3cd637e0	0.02614969
239	0xbc7ff89e	-0.01562324
240	0x3db80a2d	0.08986316
241	0x3db3b014	0.087738186
242	0x3dafd34e	0.08585225
243	0x3cdc7a0f	0.02691367
244	0x3d33459a	0.04376755
245	0xbdaf0ff8	-0.08547968
246	0x3dac7ff2	0.08422841
247	0xbdfdf45c	-0.124001235
248	0x3cd4608f	0.025924949
249	0xbd7e6dee	-0.062116556
250	0xbce7caa9	-0.028294878
251	0x3dce3aad	0.10069785
252	0x3f1cccb6	0.61249864
253	0xbbd938cd	-0.0066290856
254	0x3b1f449a	0.0024302364
255	0xbd05e55d	-0.03268944

allocation_head.0.bias f4 [6]
0	0x3cd8a7aa	0.026447136
1	0x3db8ac32	0.09017219
2	0x3c5d2cc0	0.013499439
3	0xbdc79965	-0.097460546
4	0xbd11e9d1	-0.035623375
5	0xbd0e8810	-0.034797728

payment_head.0.weight f4 [2, 128]
0	0x3f0b4e3b	0.54416245
1	0x3b72003d	0.0036926412
2	0x3ced3432	0.028955553
3	0x3e55b87a	0.20871153
4	0x3e12f2f1	0.14350487
5	0x3e390908	0.18069851
6	0xbe29c727	-0.16579877
7	0x3f1be8ec	0.60902286
8	0x3cf06917	0.029346986
9	0xbd0e63b8	-0.034763068
10	0xbf0c765d	-0.5486811
11	0x3d9f0016	0.07763688
12	0x3e00f118	0.1259197
13	0x3ce01215	0.027352372
14	0xbe159c1a	-0.1461033
15	0xbc6c4994	-0.014421839
16	0xbdb63fb7	-0.088988714
17	0xbe87bca2	-0.26511103
18	0x3e934408	0.2876284
19	0x3dab1cbc	0.0835509
20	0x3ce2cddf	0.027686058
21	0x3cc1bf49	0.023650782
22	0x3f2fea14	0.6871655
23	0x3f16fe51	0.58981806
24	0x3ba0cbf9	0.004907128
25	0xbe2f7df6	-0.17137894
26	0x3dbdfb6e	0.09276472
27	0x3e79f58a	0.24410072
28	0x3e741f33	0.23840027
29	0xbb013e7d	-0.0019721084
30	0x3d02fee8	0.03198138
31	0xbd7029cf	-0.05863362
32	0x3f0d6af0	0.552413
33	0x3c6b951f	0.014378815
34	0xbd094422	-0.033512242
35	0x3f044e0d	0.51681596
36	0x3e4d482e	0.20047066
37	0xbd8f144f	-0.069862954
38	0xbccfa488	-0.02534701
39	0xbd7bbfc4	-0.06146218
40	0x3da79f64	0.08184698
41	0x3dc94960	0.09828448
42	0x3e5f834f	0.21827434
43	0x3e08acd8	0.13347185
44	0x3d5a72cc	0.053332135
45	0x3f2fdc75	0.68695766
46	0x3c4b91a8	0.012424864
47	0x3ecf4175	0.40479627
48	0x3f00dd6c	0.5033786
49	0x3d0e6d08	0.03477195
50	0x3d410535	0.047124106
51	0x3d932c3b	0.07186171
52	0x3d7372d9	0.0594357
53	0xbd81b637	-0.06333583
54	0x3ca9b6d8	0.02071707
55	0xbdd094e6	-0.1018465
56	0xbe9b70f7	-0.30359623
57	0x3d2c93aa	0.04213301
58	0xbd61d1d4	-0.05513175
59	0x3f238f47	0.638905
60	0xbd61121b	-0.054948907
61	0x3e0a0bcd	0.13481064
62	0xbebb9efa	-0.36644727
63	0x3cc9f45f	0.024652658
64	0xbc1d0a81	-0.009585024
65	0xbe1f5f3c	-0.15563673
66	0x3d2231af	0.039598163
67	0xbd6b433d	-0.05743717
68	0x3f1471e3	0.5798628
69	0x3e08ebc0	0.13371181
70	0x3e7e4444	0.24830729
71	0xbda6bad8	-0.08141106
72	0x3f65aab6	0.8971361
73	0x3e8b4df0	0.272079
74	0x3d8dc02d	0.0692142
75	0x3dbaf260	0.091282606
76	0x3db048de	0.08607648
77	0x3df82ddb	0.12118121
78	0x3cba4146	0.022736203
79	0x3c350b75	0.011050095
80	0x3f2b4409	0.6690069
81	0x3ea4540d	0.32095376
82	0x3ab9bd80	0.0014170855
83	0xbed45b09	-0.41475704
84	0x3c1e4e14	0.00966217
85	0xbc834927	-0.016026093
86	0x3be114ae	0.0068689203
87	0x3eb05743	0.34441575
88	0xbc6eba76	-0.014570823
89	0x3e3b9870	0.18319869
90	0x3f0b6ede	0.54466045
91	0x3cabd074	0.020973422
92	0x3e9aef84	0.3026086
93	0xbebe28e0	-0.3714056
94	0xbeeaf599	-0.458905
95	0xbd01e763	-0.03171481
96	0x3e6e95fc	0.23299402
97	0x3ee92c9a	0.4554184
98	0xbda5cb68	-0.08095437
99	0x3f3b5a10	0.731843
100	0xbd1e0a27	-0.0385839
101	0x3f404d88	0.75118303
102	0x3dd94509	0.106088705
103	0x3f4e06bb	0.8047902
104	0x3c04df77	0.008109919
105	0xbe3de544	-0.18544489
106	0x3cc1aef5	0.023642996
107	0x3d9e19f5	0.07719795
108	0x3d426a34	0.047464564
109	0x3de29ff7	0.11065667
110	0x3ec6c348	0.38820863
111	0x3ef17ecd	0.47167054
112	0x3ddf1019	0.10891742
113	0xbe8e6160	-0.27808666
114	0x3e41c4cb	0.18922727
115	0x3f1dc5fa	0.61630213
116	0x3d7d9ef5	0.06191917
117	0x3da108a5	0.07862977
118	0x3e41aec0	0.18914318
119	0x3b0a05a9	0.0021060503
120	0x3de8b382	0.113623634
121	0x3eb59db9	0.35471895
122	0x3dc0f273	0.094212435
123	0x3f0f4f2d	0.5598019
124	0xbf13cf83	-0.5773851
125	0x3d04c128	0.03241077
126	0x3e005d75	0.12535651
127	0x3d894581	0.0670271
128	0x3e64de64	0.2235046
129	0x3ddbef69	0.10739023
130	0x3df96307	0.12177091
131	0xbe882057	-0.26587173
132	0xbc46d27e	-0.012135146
133	0xbdcd7f28	-0.10034019
134	0x3f4fd847	0.8118939
135	0xbe07113f	-0.13190173
136	0x3e9ba7ab	0.30401358
137	0x3eab2307	0.3342516
138	0x3f031f88	0.5121999
139	0x3ef9e517	0.48807594
140	0x3f247e93	0.64255637
141	0x3d03dda8	0.03219381
142	0x3d4d4c3b	0.050121527
143	0xbf6a60ce	-0.9155396
144	0xbea4205a	-0.32055932
145	0x3ec99f61	0.3937941
146	0x3ef303b8	0.47463775
147	0xbce733c3	-0.028222924
148	0xbcb04153	-0.021515524
149	0x3de9d7d9	0.11418123
150	0xbd38fa6a	-0.04516069
151	0xbbdddce6	-0.006770718
152	0x3f0ea316	0.557176
153	0xbd6bdd1c	-0.057583913
154	0x3c582834	0.013193179
155	0x3f185dfe	0.5951842
156	0x3f0c0528	0.5469537
157	0xbcdbf042	-0.026847962
158	0xbe5eea96	-0.21769175
159	0x3f3dc1a3	0.7412359
160	0x3e86a930	0.26300955
161	0x3dcc48a3	0.09974792
162	0x3d70b1b2	0.058763213
163	0xbe5a6f37	-0.21331488
164	0xbe975921	-0.29560187
165	0x3eb2eea9	0.34947708
166	0x3e4c9cf4	0.19981748
167	0x3ca67554	0.020319618
168	0x3c91073e	0.017703649
169	0x3d9ac577	0.07557195
170	0x3ee32f39	0.44371966
171	0x3d1cb951	0.03826267
172	0xbcb4bf9e	-0.022064026
173	0xbe159c8a	-0.14610496
174	0xbc8cc92f	-0.017185776
175	0x3ea6484c	0.32477033
176	0xbdec88c4	-0.115495235
177	0x3cce4048	0.025177136
178	0xbe0774c3	-0.13228135
179	0xbd90b4f7	-0.07065766
180	0x3de74bd5	0.11293761
181	0x3f38f6b5	0.72251445
182	0xbc2a2f9b	-0.010387327
183	0x3f1c31c5	0.6101344
184	0x3ea60c1e	0.3243112
185	0x3d831eb0	0.064023376
186	0xbb4c2abc	-0.0031153401
187	0xbdf6c3be	-0.120490536
188	0x3edf5774	0.4362141
189	0x3f48da99	0.78458554
190	0xbf3faab8	-0.7486987
191	0x3d922558	0.07136029
192	0x3e915f88	0.28393197
193	0x3ea24995	0.31696764
194	0xbd13f038	-0.036117762
195	0x3eb943f1	0.36184648
196	0xbd7ee2f0	-0.062228143
197	0x3f191cc3	0.5980951
198	0x3eeb4519	0.45951155
199	0x3df01088	0.11721903
200	0x3c48d9b8	0.012258939
201	0x3ea953ce	0.3307175
202	0x3dd77780	0.1052084
203	0x3f25d334	0.64775395
204	0xbbf3dac2	-0.0074418494
205	0x3ddcd78a	0.10783298
206	0x3d0cdddc	0.03439127
207	0xbce3b540	-0.027796388
208	0x3b9a1344	0.0047020037
209	0x3eda2be3	0.42611608
210	0xbd241d73	-0.040067147
211	0xbd5ea9ad	-0.054361034
212	0xbd8838e9	-0.0665148
213	0x3d6ec61d	0.058294404
214	0x3ca21ef6	0.019790154
215	0xbd68842a	-0.056766666
216	0x3bf9b6e0	0.0076206774
217	0x3ec98ccc	0.39365232
218	0xbd592396	-0.053012453
219	0x3d018c78	0.031628102
220	0x3ec53d54	0.38523352
221	0x3ef724e3	0.4827033
222	0x3ea1d426	0.3160717
223	0xbce759bd	-0.028241033
224	0x3f00604b	0.5014693
225	0x3f1241fe	0.57131946
226	0xbe3de5c9	-0.18544687
227	0xbdacb731	-0.084333785
228	0x3ed9c010	0.42529345
229	0xbf269f2b	-0.6508662
230	0x3d12f4a7	0.03587785
231	0xbddb9957	-0.10722607
232	0xb9eb4b9f	-0.00044879035
233	0x3f4a97be	0.7913779
234	0x3d1b2fc3	0.037887346
235	0xbdec20da	-0.115297034
236	0x3f02aed3	0.5104801
237	0x3d88ac5d	0.06673501
238	0x3c549f7a	0.012977475
239	0x3f275860	0.65369225
240	0x3d5cf0c1	0.05394054
241	0x3f5fed41	0.87471396
242	0x3f1d77c7	0.6151089
243	0xbc561fcf	-0.013069107
244	0x3ef0d756	0.47039288
245	0x3cb6e2fe	0.022325035
246	0x3eda7ec9	0.42674854
247	0xbe0a94df	-0.13533352
248	0x3df43669	0.119244404
249	0xbd0e68eb	-0.034768026
250	0xbe44c236	-0.1921471
251	0xbe564e5b	-0.20928328
252	0xbe966290	-0.29372072
253	0xbdf4909a	-0.11941643
254	0xbe057a14	-0.1303485
255	0x3d211d88	0.039334804

payment_head.0.bias f4 [2]
0	0x3f40e84a	0.75354445
1	0x3f1b159a	0.60579836
