model/2x3_sparsemax_linearpmt_distill_fast.pt (torch_old, 144474 bytes, 10 tensors)

nn_model.0.weight f4 [128, 6]
-0.27154976 -0.44151685 -1.3832691 -1.2252941 -1.4950163 -1.3943506 -0.0691189 0.01254927
-0.08138218 -0.029842917 -0.27020803 -0.020664286 -0.43163863 -0.09245274 -1.1725638 -1.2145692
-1.1964585 -0.5454706 -1.0700704 -1.2170599 0.03314549 -0.746716 -0.5233115 -0.49702793
-0.722116 -0.011471914 0.19439787 0.14067757 0.011689087 0.12518208 -0.34445083 0.34454158
0.39068604 0.69378424 -0.44816446 -0.44516194 -1.0017319 -0.7591429 -0.7452231 -0.79599494
-0.41759187 -0.83227915 -0.3173486 -0.37647256 -0.6830611 0.3006856 0.35519144 0.67109567
-0.049391992 0.16437991 -0.33130094 0.06603042 -0.07155719 0.85123456 -0.079370454 -0.71281505
-0.9761679 -1.0444547 -0.72387797 -0.08428575 0.17083485 0.18854196 0.15385616 -0.3108648
-0.4343425 0.7296102 0.20482834 0.27431643 -0.6786012 -0.09641894 -0.25277138 0.46089578
-0.23060572 -0.18141225 -1.0556116 -0.683118 -0.13919352 -0.48743722 -0.09319087 0.7021111
0.0641925 0.21101116 -0.52700174 -0.081950665 -0.7805447 -0.7952146 -0.7230819 -0.7948099
-0.3759054 -0.73224455 0.10705398 0.16066264 -0.25347337 0.009769164 -0.0067991856 -0.5026951
-0.106902555 -0.4233114 -0.12658806 0.0031938518 -0.16999604 0.023384714 -0.44683364 -0.5136131
0.8244291 0.48512682 0.4809124 -0.2314114 -0.068836175 -0.11600782 -0.107930355 -0.4554137
-0.49716714 -0.42920217 -0.6156519 -0.66714066 -0.83042645 -0.7778087 -0.4537747 -0.4142145
-0.015288365 0.032437816 -0.781827 0.21883643 0.24945721 0.08771612 -0.10050015 -0.4888527
-1.5420822 -1.1324265 -0.19772568 -0.885384 -0.2967115 0.01194114 -0.266193 -0.5067555
-0.27872646 -0.85525167 -1.2417165 -1.2929429 -1.475632 -0.25538436 -0.34428173 -0.931796
-1.0196209 -0.33359778 -0.86826336 -0.6892996 -0.9338617 -0.8322052 0.037757322 0.036954843
-0.62854874 0.042710137 0.042517085 0.02213355 -0.83759665 -0.3725716 -0.96233183 -0.58871704
-0.43585956 -0.70827717 -0.07976868 0.028490063 0.047833614 0.13426617 0.099025026 -0.5595774
0.11760945 0.16202651 0.04875839 -0.07472589 -0.042416517 -0.66369593 -0.14036752 0.12949704
0.061524365 -0.4853036 -0.036587656 0.0048603537 -0.048385043 -0.05594186 0.94575137 0.11837196
0.11493222 -0.3863584 -0.7088597 -0.5535895 -0.6510319 -0.89651847 -0.5483019 -0.65595007
-0.28099078 -0.6297068 -0.2025795 -1.1464607 -0.19789343 -0.09298194 -0.16989163 -0.1719744
-0.18588926 -0.07912579 -0.06655327 -0.08579828 0.39564392 0.30845112 0.23627678 0.47667354
0.48340502 0.49947044 -0.06956153 -0.1619614 -0.043684725 0.50890064 0.54931647 -0.89265794
-0.024142807 0.19358338 0.1781229 0.8521817 -0.2373625 -0.18193322 -0.15790683 -0.11480024
-0.087225944 0.056926426 0.035661623 0.066605076 -0.42097685 -0.79870427 -0.8928361 -0.42598426
-0.5012612 -0.92266774 -0.5413197 -0.021066066 0.010129094 -0.16430412 0.019313838 -0.0013310614
-0.43669942 -1.0476732 -0.96881115 -0.47173992 -0.3304228 -0.84698164 0.07142776 -0.31293526
0.19424005 0.2243171 0.27667588 0.16165347 -0.23291783 -0.21711402 -0.10377895 -0.012659266
00000000: 9208 8bbe 7f0e e2be f60e b1bf 70d6 9cbf
00000010: b25c bfbf 157a b2bf 368e 8dbd 749b 4d3c
00000020: b3ab a6bd 2279 f4bc b558 8abe 2648 a9bc
00000030: bdff dcbe dd57 bdbd 9216 96bf 0177 9bbf
00000040: 8d25 99bf f6a3 0bbf 11f8 88bf 9ec8 9bbf
00000050: 91c3 073d c828 3fbf bef7 05bf 727a febe
00000060: 98dc 38bf b2f4 3bbc 3c10 473e c80d 103e
00000070: 9683 3f3c bb2f 003e dc5b b0be c167 b03e
00000080: 0008 c83e d89b 313f d075 e5be 44ec e3be
00000090: c038 80bf 3057 42bf f1c6 3ebf 53c6 4bbf
000000a0: 9ace d5be 3f10 55bf 847b a2be 03c1 c0be
000000b0: 18dd 2ebf 77f3 993e a7db b53e edcc 2b3f
000000c0: 424f 4abd 3553 283e 47a0 a9be f53a 873d
000000d0: 938c 92bd 82ea 593f fa8c a2bd 0c7b 36bf
000000e0: 24e6 79bf b1b0 85bf 1150 39bf 029e acbd
000000f0: 55ef 2e3e 2511 413e 788c 1d3e ac29 9fbe
00000100: 2462 debe bcc7 3a3f 85be 513e 3473 8c3e
00000110: cfb8 2dbf 4b77 c5bd 406b 81be 88fa eb3e
00000120: e823 6cbe 22c4 39be 481e 87bf d2e0 2ebf
00000130: bf88 0ebe 5f91 f9be dbda bebd 8ebd 333f
00000140: 5c77 833d 4f13 583e 96e9 06bf c0d5 a7bd
00000150: c7d1 47bf 2f93 4bbf e51b 39bf a978 4bbf
00000160: ac76 c0be 6174 3bbf 1e3f db3d bf84 243e
00000170: 43c7 81be d80e 203c b4cb debb a0b0 00bf
00000180: baef dabd 46bc d8be 4da0 01be f14f 513b
00000190: 7113 2ebe 4d91 bf3c 61c7 e4be 267c 03bf
000001a0: c90d 533f 8b62 f83e 263a f63e 1cf7 6cbe
000001b0: fbf9 8cbd 8295 edbd 970a ddbd fc2b e9be
000001c0: b18c febe 63c0 dbbe 5d9b 1dbf bbc9 2abf
000001d0: d496 54bf 791e 47bf 2855 e8be ec13 d4be
000001e0: 0d7c 7abc 84dd 043d d025 48bf a816 603e
000001f0: b671 7f3e 82a4 b33d 06d3 cdbd e74a fabe
00000200: f362 c5bf 5af3 90bf 9a78 4abe 87a8 62bf
00000210: 92ea 97be c5a4 433c 734a 88be baba 01bf
00000220: 3cb5 8ebe c6f1 5abf 91f0 9ebf 277f a5bf
00000230: 82e1 bcbf bdc1 82be b245 b0be 2f8a 6ebf
00000240: f082 82bf 54cd aabe 8246 5ebf f075 30bf
00000250: 8f11 6fbf 660b 55bf 6ca7 1a3d f65d 173d
00000260: 92e8 20bf d3f0 2e3d 6526 2e3d 6b51 b53c
00000270: bc6c 56bf b4c1 bebe 615b 76bf 29b6 16bf
00000280: fc28 dfbe a751 35bf c35d a3bd fe63 e93c
00000290: 2eed 433d 127d 093e a2cd ca3d 7740 0fbf
000002a0: 39dd f03d 47ea 253e e1b6 473d e309 99bd
000002b0: f1bc 2dbd fae7 29bf 81bc 0fbe df9a 043e
000002c0: f900 7c3d b779 f8be f0dc 15bd 9a43 9f3b
000002d0: 652f 46bd 4b23 65bd c31c 723f 006d f23d
000002e0: 9561 eb3d c5d0 c5be d477 35bf 0bb8 0dbf
000002f0: 07aa 26bf 3c82 65bf 835d 0cbf 58ec 27bf
00000300: 06de 8fbe 7734 21bf 0071 4fbe 39bf 92bf
00000310: 93a4 4abe 516d bebd 12f8 2dbe 0f1a 30be
00000320: c159 3ebe b40c a2bd 154d 88bd 02b7 afbd
00000330: d791 ca3e 4eed 9d3e 8af2 713e 8e0e f43e
00000340: dd80 f73e 97ba ff3e 4776 8ebd 36d9 25be
00000350: c1ee 32bd 5047 023f 01a0 0c3f 3b85 64bf
00000360: 23c7 c5bc b93a 463e d965 363e 9428 5a3f
00000370: 280f 73be b44c 3abe 54b2 21be 631c ebbd
00000380: 84a3 b2bd af2b 693d ec11 123d 3e68 883d
00000390: 478a d7be e277 4cbf e890 64bf 9c1a dabe
000003a0: a752 00bf f433 6cbf ee93 0abf be92 acbc
000003b0: 80f4 253c 573f 28be 0e38 9e3c 0277 aeba
000003c0: 1197 dfbe 281a 86bf 0204 78bf e587 f1be
000003d0: 2d2d a9be cad3 58bf b848 923d 0d39 a0be
000003e0: dde6 463e 62b3 653e 76a8 8d3e 7d88 253e
000003f0: 0382 6ebe 2353 5ebe 0f8a d4bd cf68 4fbc

nn_model.0.bias f4 [128]
-0.58557487 0.3503234 -0.7182251 -0.6397713 0.13891608 -0.62215704 -1.0483843 0.18236531
-0.50088114 -0.5770934 -0.71303105 -0.241208 -0.7873663 -0.4212365 -1.1217743 0.38345075
0.43530804 -0.8711689 0.7686416 -1.2300116 0.031286318 -0.9144802 -0.8937024 -0.60052925
-1.0452245 0.45514524 -1.1855909 0.29296887 0.40589842 0.31706122 -0.8616617 -1.1517303
-0.73254 0.58208174 -0.374142 -0.47705805 -0.8831894 0.27538463 -1.1859603 0.42641562
-1.1539415 0.051178318 -0.6008563 -1.0185038 -0.91696835 0.13280256 0.1949959 -1.195371
-0.09359995 -0.003305497 -0.4324681 0.42761815 -0.24149786 0.1176589 -1.140089 -0.8194173
-1.1216096 -0.60510874 0.47903585 -0.69945246 -0.43150434 -0.6033923 -0.61653644 0.05487427
0.42487246 -0.097104006 0.3584486 -0.6240007 -0.9226222 -0.02968277 -0.6835687 -0.9130292
0.9335047 -0.24122901 -0.9871031 -0.06445315 -0.7358923 0.38001254 -0.8103194 -0.5936752
0.39157543 -0.02044265 -0.38473386 0.8689003 -0.10208259 0.088663824 0.5610829 -0.29532072
-0.11727112 -0.65378845 -0.6083187 -0.49858695 -0.21930858 -0.8199574 0.26876065 -0.46018642
-0.04914376 -0.22140029 -0.8376931 -0.8285431 -0.32067442 -0.708209 -0.36900285 -0.47777438
-0.36947933 -0.24141674 -0.083136044 -0.43812147 -0.71871805 -0.7818046 -0.0808229 0.3237949
-1.1447102 -0.6920526 -0.77176034 -0.58655745 0.42905498 -0.9921091 -0.6359172 -0.31478974
-0.60891306 1.1917202 0.27374953 -0.54313606 0.43537325 -0.88146806 0.28992665 -0.44489926
00000000: 3ce8 15bf 975d b33e 9add 37bf 0dc8 23bf
00000010: 0440 0e3e af45 1fbf 7531 86bf f9bd 3a3e
00000020: bf39 00bf 65bc 13bf 3489 36bf 3bff 76be
00000030: d690 49bf 4fac d7be 4d96 8fbf a853 c43e
00000040: b2e0 de3e ed04 5fbf b2c5 443f 0571 9dbf
00000050: 1526 003d 601b 6abf aec9 64bf 49bc 19bf
00000060: ebc9 85bf cc08 e93e 71c1 97bf 0400 963e
00000070: ebd1 cf3e d955 a23e dc95 5cbf e66b 93bf
00000080: be87 3bbf 4f03 153f 8a8f bfbe f440 f4be
00000090: b318 62bf 37ff 8c3e 8ccd 97bf 2653 da3e
000000a0: 5bb4 93bf 5ba0 513d b8d1 19bf 555e 82bf
000000b0: 70be 6abf 65fd 073e 01ad 473e eb01 99bf
000000c0: 55b1 bfbd 0aa1 58bb 756c ddbe c4f0 da3e
000000d0: 374b 77be 26f7 f03d 70ee 91bf 55c5 51bf
000000e0: e790 8fbf 68e8 1abf 3044 f53e 510f 33bf
000000f0: 23ee dcbe eb77 1abf 55d5 1dbf d8c3 603d
00000100: e288 d93e 77de c6bd 9386 b73e 83be 1fbf
00000110: f830 6cbf 4829 f3bc 5cfe 2ebf 48bc 69bf
00000120: 2afa 6e3f bd04 77be cab2 7cbf 0300 84bd
00000130: 7063 3cbf 0191 c23e 1871 4fbf 19fb 17bf
00000140: 937c c83e 5877 a7bc d6fb c4be 4070 5e3f
00000150: ad10 d1bd 6195 b53d 21a3 0f3f 4734 97be
00000160: d72b f0bd ae5e 27bf c6ba 1bbf ca46 ffbe
00000170: 6e92 60be bae8 51bf ff9a 893e 8e9d ebbe
00000180: f84a 49bd c2b6 62be 0e73 56bf 671b 54bf
00000190: 702f a4be 2f4d 35bf f1ed bcbe d89e f4be
000001a0: 652c bdbe f335 77be 3b43 aabd 7551 e0be
000001b0: e8fd 37bf 5924 48bf 7a86 a5bd 72c8 a53e
000001c0: dd85 92bf 5c2a 31bf 1692 45bf a128 16bf
000001d0: 18ad db3e ddfa 7dbf 78cb 22bf 1f2c a1be
000001e0: bae1 1bbf 4a8a 983f e628 8c3e f70a 0bbf
000001f0: 3ee9 de3e e4a7 61bf 4471 943e d6c9 e3be

nn_model.2.weight f4 [128, 128]
0.021342529 -0.62687546 -0.024677057 -0.045576777 -0.7323364 -0.5503196 0.07729002 -0.8815638
-0.088615425 -0.13805643 -0.1039598 -0.059906144 -0.08424734 -0.08567062 0.025725074 -0.050200175
-0.98795944 -0.15077701 -0.15052715 -0.0006940961 -0.0544695 -0.061340187 -0.049811263 -0.04714808
-0.057599925 -0.058236092 0.00015582179 -0.0791212 -0.013994097 -0.09576609 -0.09587871 0.011803865
-0.06056252 -0.1457767 -0.19479847 -0.062089406 -0.0626455 -0.8990285 -0.08108591 -0.07748035
-0.046398547 -0.073769495 -0.04162972 -0.02996744 -0.03181057 -0.0892431 -0.12513149 0.070909865
-0.14177555 -0.179571 -0.04973379 -0.1124024 -0.11350525 -0.113174886 -0.010246299 -0.0008856137
-0.04017936 0.002546667 -0.102465264 -0.0793757 -0.04721864 -0.06039995 -0.1484598 -0.024075039
-0.04720242 -0.015186696 -0.055368736 -0.023565346 -0.14462417 -0.05302965 -0.076253764 -0.17158353
-0.16605403 -0.12982185 -0.043417804 -0.08297487 -0.16516256 -1.9816269 -1.0458262 -0.070934206
-0.16897126 -0.40792963 -0.149216 -0.1385484 -0.15930036 -0.026080677 -2.0389879 -0.15602534
-0.032052375 -0.06317036 -0.06547664 -0.003796329 -0.16711605 -0.13352156 -0.14672293 -0.13427232
-0.008218848 -0.077947184 -0.042762164 -0.09419085 -2.6277719 -0.23591132 -0.0389569 -0.1821502
-0.036181446 -0.063187964 -0.19713764 -0.15922356 -0.06789739 -0.038810324 -0.36657095 -0.34957498
-0.0038120253 -0.025331976 -0.21107951 -0.046546 -0.06487814 -0.062332027 -0.9543715 -0.0052362876
-1.7311722 -0.048697747 -0.108697034 -0.3412019 -0.092386015 -0.05706361 -0.050932024 -0.087318644
0.008119024 -0.6177524 -0.04390803 -0.055875037 -0.20655434 -0.13594702 -0.043819394 -0.5964447
-0.12202359 -0.014848385 -0.06293174 -0.090886146 -0.030353893 -0.27322036 -0.013789967 -0.07981347
-0.11370581 -0.13546118 -0.24309978 0.05523289 -0.13074756 -0.047617093 -0.07930044 -0.068071164
0.012042021 -0.24032867 0.032725934 -0.10358305 -0.32131547 -0.33411294 -0.07484425 0.058720984
-0.02971673 -0.22644478 -0.61525434 -0.072180904 -0.09662337 -0.7415482 -0.013525584 -0.21020348
0.01985565 -0.4529975 -0.034938257 -0.023287976 -0.0060880026 -0.2989741 -0.16542666 -0.08067492
-0.10467217 -0.18373306 -0.05565302 -0.39887783 -0.37129146 -0.10654423 0.08100445 0.006447399
0.037561707 -0.09090242 -0.13367905 0.0074240863 -0.1013172 -0.009839943 -0.07130723 -0.116331905
-0.08856185 -0.29531243 -0.12628593 -0.029579148 -0.09218649 -0.1252234 -0.07575245 -0.05369609
-0.2590394 -0.1482543 -0.06879227 -0.15545285 -0.06373866 -0.45827702 -0.3558566 0.006488491
-0.30732575 -0.15753914 -0.10734013 -0.11877962 -0.30440518 -0.20783012 -0.30661657 -0.13308232
-0.3170148 -0.06410947 -0.09580949 -0.042102605 -0.10315405 -0.13486761 -0.2032064 -0.11579991
-0.28463623 -0.32447 -0.008744448 -0.0107065365 -0.4553591 -0.10172055 -0.12087325 -0.09222824
-0.10501061 -0.15950896 -0.11121376 -0.2348135 -0.077994235 -0.112409025 -0.21013159 -0.14103784
0.0010618486 -0.015086569 -0.0672205 -0.08441231 -0.3027843 0.0141206095 -0.66414267 -0.09401131
-0.72547215 -0.2655874 -0.13326226 -0.13317713 -0.17095228 -0.110970624 -0.28655535 -0.11573497
00000000: 87d6 ae3c e97a 20bf 8a27 cabc b7ae 3abd
00000010: 667a 3bbf bfe1 0cbf 3b4a 9e3d 2aae 61bf
00000020: 017c b5bd aa5e 0dbe e0e8 d4bd 2560 75bd
00000030: df89 acbd 1474 afbd 64bd d23c b39e 4dbd
00000040: e9ea 7cbf 4a65 1abe ca23 1abe 00f4 35ba
00000050: 691b 5fbd d93f 7bbd e506 4cbd 581e 41bd
00000060: e6ed 6bbd f888 6ebd 1864 2339 4c0a a2bd
00000070: 7f47 65bc 0321 c4bd 0f5c c4bd 0065 413c
00000080: 6810 78bd 7d46 15be 4079 47be 7651 7ebd
00000090: 494c 80bd bb26 66bf 5f10 a6bd 05ae 9ebd
000000a0: 670c 3ebd 7614 97bd ed83 2abd 477e f5bc
000000b0: cd4b 02bd 16c5 b6bd 7822 00be 3139 913d
000000c0: 9c2d 11be 76e1 37be a9b5 4bbd 3b33 e6bd
000000d0: 7175 e8bd 3cc8 e7bd 18e0 27bc 8828 68ba
000000e0: 1d93 24bd fbe5 263b 4fd9 d1bd ba8f a2bd
000000f0: 5568 41bd f065 77bd d905 18be 0439 c5bc
00000100: 5357 41bd 9fd1 78bc 54ca 62bd 1d0c c1bc
00000110: 5c18 14be 9e35 59bd ef2a 9cbd 98b3 2fbe
00000120: 110a 2abe 05f0 04be ded6 31bd bbee a9bd
00000130: 6020 29be f3a5 fdbf a2dd 85bf f445 91bd
00000140: cd06 2dbe 27dc d0be 14cc 18be a2df 0dbe
00000150: a21f 23be 25a7 d5bc c77e 02c0 1bc5 1fbe
00000160: 5a49 03bd 765f 81bd 9e18 86bd d5cb 78bb
00000170: 7820 2bbe e0b9 08be 893e 16be af7e 09be
00000180: 59a8 06bc c6a2 9fbd 6127 2fbd 22e7 c0bd
00000190: 6a2d 28c0 bd92 71be 4591 1fbd 9585 3abe
000001a0: ff32 14bd b168 81bd 73de 49be 800b 23be
000001b0: c90d 8bbd 93f7 1ebd 30af bbbe 7efb b2be
000001c0: 2cd3 79bb 0185 cfbc 3a25 58be 05a7 3ebd
000001d0: d5de 84bd de4f 7fbd b151 74bf 2a95 abbb
000001e0: 0d97 ddbf 4a77 47bd 8d9c debd 04b2 aebe
000001f0: e134 bdbd 88bb 69bd 199e 50bd 1ed4 b2bd
00000200: a805 053c 0525 1ebf e8d8 33bd 39dd 64bd
00000210: fb82 53be b235 0bbe f77b 33bd 9ab0 18bf
00000220: 81e7 f9bd a446 73bc 5be2 80bd 8422 babd
00000230: baa8 f8bc 8ae3 8bbe 50ef 61bc 3f75 a3bd
00000240: 97de e8bd 56b6 0abe 26ef 78be e23b 623d
00000250: b0e2 05be 240a 43bd 4568 a2bd e568 8bbd
00000260: e64b 453c b818 76be a10b 063d 5a23 d4bd
00000270: 7683 a4be da10 abbe f147 99bd 6a85 703d
00000280: 8070 f3bc 24e1 67be 4f81 1dbf 95d3 93bd
00000290: 79e2 c5bd 1ad6 3dbf 699a 5dbc 953f 57be
000002a0: 51a8 a23c 4aef e7be 6b1b 0fbd 6dc6 bebc
000002b0: de7d c7bb 2213 99be 9b65 29be e438 a5bd
000002c0: 5d5e d6bd 8524 3cbe 6cf4 63bd b739 ccbe
000002d0: ea19 bebe dc33 dabd a9e5 a53d b444 d33b
000002e0: 4eda 193d 0c2b babd 29e3 08be c045 f33b
000002f0: 647f cfbd b637 21bc 8609 92bd 6c3f eebd
00000300: ea5f b5bd 3133 97be 1951 01be f84f f2bc
00000310: 45cc bcbd 903a 00be 1a24 9bbd 6ef0 5bbd
00000320: d0a0 84be facf 17be f6e2 8cbd 082f 1fbe
00000330: 6a89 82bd 49a3 eabe d632 b6be 689d d43b
00000340: cd59 9dbe f151 21be 24d5 dbbd bb42 f3bd
00000350: ffda 9bbe 6bd1 54be d9fc 9cbe bb46 08be
00000360: c44f a2be d34b 83bd c437 c4bd c873 2cbd
00000370: 6e42 d3bd bc1a 0abe 5715 50be 8128 edbd
00000380: d7bb 91be ef20 a6be e044 0fbc 786a 2fbc
00000390: d424 e9be dd52 d0bd 658c f7bd 29e2 bcbd
000003a0: cd0f d7bd 5156 23be 0ac4 e3bd f372 70be
000003b0: 71bb 9fbd b436 e6bd bc2c 57be 396c 10be
000003c0: ba2d 8b3a a82d 77bc e7aa 89bd 5ce0 acbd
000003d0: 8b06 9bbe 215a 673c 4105 2abf 0089 c0bd
000003e0: 8bb8 39bf 12fb 87be e775 08be 965f 08be
000003f0: 1d0e 2fbe 9144 e3bd 62b7 92be 7506 edbd

nn_model.2.bias f4 [128]
-0.21656355 -0.3508318 -0.17134807 -0.21805473 -0.059662066 0.045067936 -0.3186987 -0.25566885
-0.11601548 -0.5049463 -0.052986618 -0.11390189 -0.5687623 -0.16017078 -0.25433177 -0.065737486
-0.030467084 -0.3447136 -0.20145003 -0.11651906 -0.48440224 -0.15005903 -0.14211425 -0.16959718
-0.5029782 -0.21108928 -0.07324984 -0.050075963 -0.15488756 -0.24071006 -0.5054604 -0.06066251
-0.053770956 -0.039574564 -0.11559438 -0.1513985 0.12453874 -0.08626287 -0.06710496 -0.13652524
-0.19194482 -0.49882331 -0.18940806 -0.10564058 -0.08129918 -0.07597564 -0.06609006 -0.5398267
-0.16249686 -0.12192034 -0.19738911 0.15896061 -0.15057054 -0.16765659 -0.0999396 -0.10719313
-0.041249145 0.14236964 -0.04470628 -0.5195049 -0.46470308 -0.11189952 -0.19474143 -0.21658023
0.025159676 -0.112345375 -0.03409816 -0.038074087 -0.040358633 -0.14019427 -0.09385561 -0.47832066
-0.05326838 -0.1469515 0.25295633 -0.16680062 -0.0942808 0.13336518 -0.32701182 -0.17751311
-0.47746977 -0.06785244 -0.49324277 -0.18049839 -0.12975909 -0.14369483 -0.10916231 -0.17390671
-0.18267074 -0.05850448 -0.14780058 -0.05749641 -0.23359865 -0.20875739 -0.19370933 -0.1108949
-0.10079737 -0.07226172 -0.2175657 -0.12966847 -0.066237785 -0.12253867 -0.08364556 0.124771796
-0.1167302 -0.13904494 -0.5277202 -0.1401728 0.41526848 -0.08923022 -0.11901747 -0.2054769
-0.093015455 -0.23398016 -0.190306 -0.50301135 -0.04749039 -0.20454 -0.11982046 -0.45607504
-0.13280195 -0.079413764 -0.33349237 -0.16977413 -0.48526648 0.05035965 -0.101149224 -0.5347179
00000000: d6c2 5dbe 3aa0 b3be de75 2fbe bd49 5fbe
00000010: 3660 74bd 2899 383d 7a2c a3be 07e7 82be
00000020: 8699 edbd 2944 01bf 7f08 59bd 6545 e9bd
00000030: 689a 11bf cf03 24be c637 82be 60a1 86bd
00000040: 1b96 f9bc 4d7e b0be eb48 4ebe 8ca1 eebd
00000050: 9203 f8be 13a9 19be 6686 11be e2aa 2dbe
00000060: 2ec3 00bf ca27 58be 0304 96bd 741c 4dbd
00000070: d89a 1ebe b37c 76be da65 01bf 4179 78bd
00000080: ef3e 5cbd f018 22bd bfbc ecbd 3508 1bbe
00000090: 2b0e ff3d 96aa b0bd 536e 89bd 46cd 0bbe
000000a0: 2f8d 44be c565 ffbe 30f4 41be 175a d8bd
000000b0: 2f80 a6bd 1e99 9bbd 3a5a 87bd 1532 0abf
000000c0: 9465 26be 5fb1 f9bd 5f20 4abe 92c6 223e
000000d0: 2a2f 1abe 2bae 2bbe 22ad ccbd 1288 dbbd
000000e0: ddf4 28bd 59c9 113e ef1d 37bd 46fe 04bf
000000f0: 90ed edbe 932b e5bd 4c6a 47be 35c7 5dbe
00000100: aa1b ce3c 5515 e6bd 83aa 0bbd 93f3 1bbd
00000110: 184f 25bd 168f 0fbe 5f37 c0bd 72e6 f4be
00000120: f22f 5abd 747a 16be 7e83 813e c8cd 2abe
00000130: 4b16 c1bd e290 083e 186e a7be ffc5 35be
00000140: eb76 f4be 38f6 8abd 518a fcbe 92d4 38be
00000150: 91df 04be bd24 13be 7d90 dfbd 9a14 32be
00000160: 0a0e 3bbe 65a2 6fbd 0959 17be 5b81 6bbd
00000170: 7c34 6fbe 7fc4 55be bd5b 46be de1c e3bd
00000180: da6e cebd f4fd 93bd 8bc9 5ebe d0c7 04be
00000190: ada7 87bd 8ef5 fabd 5d4e abbd 5b88 ff3d
000001a0: 3e10 efbd cc61 0ebe ac18 07bf 7589 0fbe
000001b0: 129e d43e 55be b6bd 6ebf f3bd 8968 52be
000001c0: e37e bebd 7f98 6fbe 93df 42be 5ac5 00bf
000001d0: 4885 42bd ef72 51be 6e64 f5bd ab82 e9be
000001e0: 3cfd 07be afa3 a2bd 83bf aabe 45d9 2dbe
000001f0: d974 f8be ec45 4e3d 5327 cfbd 46e3 08bf

nn_model.4.weight f4 [128, 128]
-0.0026541783 -0.048756454 -0.095158614 -0.11067789 -0.100580126 -0.03963228 -0.14659001 -0.1010574
-0.1211522 -0.0038390772 -0.01381682 -0.15217541 0.017410323 -0.10308755 0.008205173 0.005001843
-0.016288094 -0.03981352 0.006125744 -0.07502001 -0.0078091095 -0.11116092 -0.08503276 -0.0012873489
-0.02019555 -0.11037752 -0.117005035 -0.11157229 -0.14163592 -0.07000236 -0.02695311 -0.0045145424
-0.105036356 -0.082460456 -0.1220844 -0.0040980736 -0.06545187 -0.14464831 -0.019717883 -0.012152398
-0.0026913956 0.0013999003 -0.078356944 -0.04076269 0.0061832764 -0.042265475 -0.027135523 -0.047181576
-0.08940469 0.0062551494 -0.054649234 -0.021659747 -0.029789517 -0.03086484 -0.049614396 -0.101208955
-0.062621646 -0.0368973 -0.008449492 0.0046989634 -0.015295717 -0.1139109 -0.03848774 -0.038445782
-0.12793492 -0.02351934 -0.004260508 -0.02258814 -0.05760995 -0.10289221 -0.1406631 -0.059289448
-0.00034865658 -0.062189873 -0.07755488 -0.09548082 -0.053301148 -0.10099893 -0.12647131 -0.05338084
0.05586307 -0.10648219 0.00738806 -0.086240105 -0.042333756 -0.13047579 -0.04556381 -0.08725158
-0.023406163 -0.022668827 -0.07765299 -0.13526286 -0.08012837 -0.13294776 -0.0523434 -0.14347626
-0.12800401 -0.013565236 -0.104211986 -0.037571352 0.013682534 -0.12931459 -0.13968219 -1.298651
-0.021080248 0.013759792 -0.040955245 -0.12549233 -0.41065326 -0.096882075 -0.14475875 -0.024983838
-0.012781692 0.012724114 -0.14063531 -0.0612103 -0.075546704 -0.14382888 -0.0052020014 -0.042392712
-0.0651796 -0.05468603 -0.11415658 -0.0069926935 0.06731857 -5.6259775 0.013321422 -0.022558967
0.14127494 0.0644532 -0.11292864 0.019980777 -0.08343501 0.22249666 -0.054250345 0.046997584
0.12714922 -0.024344373 0.00795867 0.029273912 0.005295324 -0.10373132 0.00358078 -0.019700287
0.04518344 0.0017217327 0.018418659 0.019062875 0.055294838 -0.07919442 -0.030291801 0.02813091
0.037015755 0.035643764 -0.082332596 -0.08168973 0.05755424 -0.0015947375 -0.002742301 -0.024847632
0.020804493 0.02455267 0.023410823 0.019306874 0.18023714 -0.064498305 0.043057118 0.06660486
0.026910027 0.018453179 0.0069248187 0.046857715 -0.06917973 -0.00074727077 -0.11174221 0.030653145
0.082653135 0.020992976 0.09664069 -0.2504447 0.101354636 0.09221018 -0.061397497 0.05153894
0.044732165 -0.02200694 -0.10819904 0.009618438 0.018450253 0.0558336 0.13440694 0.058516074
-0.034432396 -0.085749835 0.03335649 -0.022711987 0.60084414 -0.033511505 -0.005857729 0.006968644
0.009585292 0.11409988 -0.0016602586 -0.055363454 0.08623006 -0.2872456 0.032452174 0.03236157
0.028667193 -0.06640973 0.010671142 -0.028438699 -0.08159571 -0.039024726 0.02235067 0.05324798
0.08109523 0.095044635 -0.00060193904 -0.027194766 -0.09080509 -0.13796434 0.13146351 0.03842813
-0.11278135 0.010166752 0.060541805 -0.06822959 0.039405145 -0.063452944 0.02785613 -0.17885375
0.054970335 0.014991592 0.035407595 -0.06272493 -0.59153587 0.05935214 0.015213169 0.073736235
0.0022274123 0.14770003 0.08736812 0.043477684 -0.055251792 0.11438731 0.1415643 0.007765076
-0.10712544 -0.009512072 0.12487004 -0.0030746313 -0.045244653 -0.006392446 0.10693835 0.0077205803
00000000: b9f1 2dbb d9b4 47bd 85e2 c2bd 17ab e2bd
00000010: f4fc cdbd 7555 22bd b11b 16be 2ff7 cebd
00000020: a51e f8bd 0799 7bbb f25f 62bc dfd3 1bbe
00000030: 18a0 8e3c 911f d3bd fd6e 063c 80e6 a33b
00000040: 9c6e 85bc 8013 23bd 77ba c83b 17a4 99bd
00000050: 8fe3 ffbb 56a8 e3bd a825 aebd 43bc a8ba
00000060: 2371 a5bc 9c0d e2bd 56a0 efbd 0380 e4bd
00000070: 0209 11be 665d 8fbd c5cc dcbc baee 93bb
00000080: 4d1d d7bd 07e1 a8bd 6307 fabd 2249 86bb
00000090: a10b 86bd b01e 14be 6687 a1bc da1a 47bc
000000a0: 2062 30bb dc7c b73a 9b79 a0bd c7f6 26bd
000000b0: 159d ca3b 901e 2dbd 514b debc 7841 41bd
000000c0: ce19 b7bd fff7 cc3b e0d7 5fbd c86f b1bc
000000d0: 2509 f4bc 43d8 fcbc 7738 4bbd a446 cfbd
000000e0: c73f 80bd a021 17bd bd6f 0abc c3f9 993b
000000f0: e39a 7abc 1e4a e9bd 52a5 1dbd 5379 1dbd
00000100: 5f01 03be a2ab c0bc bb9b 8bbb c30a b9bc
00000110: 69f8 6bbd 27b9 d2bd fd09 10be 7ed9 72bd
00000120: e5cb b6b9 cfba 7ebd 18d5 9ebd 738b c3bd
00000130: 4e52 5abd 87d8 cebd b281 01be dea5 5abd
00000140: add0 643d 5613 dabd 8a17 f23b a79e b0bd
00000150: 2966 2dbd 729b 05be 1ea1 3abd f5b0 b2bd
00000160: 48be bfbc fab3 b9bc 8808 9fbd 5982 0abe
00000170: 581a a4bd 7523 08be 0866 56bd 71eb 12be
00000180: 7c13 03be b940 5ebc 186d d5bd 6be4 19bd
00000190: b52c 603c 0b6b 04be d908 0fbe 323a a6bf
000001a0: 7cb0 acbc c070 613c b0c0 27bd 1081 00be
000001b0: 2541 d2be 1c6a c6bd a33b 14be e8aa ccbc
000001c0: 4d6a 51bc cd78 503c b402 10be a7b7 7abd
000001d0: 3bb8 9abd e147 13be 8d75 aabb fba3 2dbd
000001e0: e27c 85bd 75fe 5fbd edca e9bd f722 e5bb
000001f0: 52de 893d 0208 b4c0 1842 5a3c 95cd b8bc
00000200: 61aa 103e 0a00 843d 2147 e7bd baae a33c
00000210: f9df aabd 2ad6 633e 9c35 5ebd 8a80 403d
00000220: 6833 023e da6d c7bc 1565 023c d8cf ef3c
00000230: 6684 ad3b 1671 d4bd 85ab 6a3b 7f62 a1bc
00000240: 4512 393d c3ab e13a bae2 963c bf29 9c3c
00000250: d77c 623d af30 a2bd 8326 f8bc cb72 e63c
00000260: d59d 173d 32ff 113d fe9d a8bd f24c a7bd
00000270: ffbd 6b3d 8306 d1ba 2db8 33bb 438d cbbc
00000280: 2f6e aa3c ae22 c93c 0ec8 bf3c 7329 9e3c
00000290: 1690 383e b017 84bd a95c 303d 2168 883d
000002a0: 6b72 dc3c 1f2b 973c 97e9 e23b e0ed 3f3d
000002b0: 1aae 8dbd 7ee4 43ba 1ad9 e4bd 4e1c fb3c
000002c0: 0c46 a93d 76f9 ab3c 8eeb c53d 4a3a 80be
000002d0: 0593 cf3d b1d8 bc3d f17b 7bbd 7f1a 533d
000002e0: 1339 373d e647 b4bc 7597 ddbd a796 1d3c
000002f0: fc24 973c c6b1 643d f9a1 093e 8dae 6f3d
00000300: fc08 0dbd 9c9d afbd d1a0 083d 7d0e babc
00000310: ecd0 193f 5c43 09bd 31f2 bfbb 3959 e43b
00000320: a10b 1d3c 33ad e93d 099d d9ba cac4 62bd
00000330: 6399 b03d db11 93be 92ec 043d 918d 043d
00000340: 76d7 ea3c d301 88bd 03d6 2e3c 46f8 e8bc
00000350: a71b a7bd 64d8 1fbd c118 b73c 8e1a 5a3d
00000360: 4215 a63d c3a6 c23d 72cb 1dba 8fc7 debc
00000370: 05f8 b9bd 8646 0dbe 5f9e 063e d166 1d3d
00000380: e9f9 e6bd 7392 263c affa 773d f5bb 8bbd
00000390: 4a67 213d 9ef3 81bd 8a32 e43c 7025 37be
000003a0: 9328 613d 4b9f 753c 8e07 113d ee75 80bd
000003b0: e56e 17bf 3b1b 733d a840 793c 0603 973d
000003c0: c7f9 113b ad3e 173e 0fee b23d a815 323d
000003d0: b44f 62bd e543 ea3d 3bf6 103e 2e72 fe3b
000003e0: 9564 dbbd 86d8 1bbc ddbb ff3d c17f 49bb
000003f0: 7552 39bd b977 d1bb 7e02 db3d ecfc fc3b

nn_model.4.bias f4 [128]
-0.16188383 -0.3706525 -0.23453718 0.1639701 -0.15967698 -0.17688753 -0.46864766 -0.3326928
-0.1811752 -0.44436526 -0.9666606 -0.26943874 -0.17570384 -0.5178781 -0.22144237 -0.28203675
0.02398073 -0.16079135 -0.14836039 -0.95829785 -0.44243425 -0.019219186 -0.19470927 -0.22541007
-0.19373706 0.68827736 -0.14144365 -0.27212262 -0.25825834 -0.9264146 -0.3250834 -0.19258392
-0.11016956 -0.29531023 -0.66886044 -0.9401179 0.11479331 -0.16735671 -0.9569441 0.50161856
-0.22184882 -0.37278256 -0.15689933 -0.23938088 -0.41697398 -0.28336594 -0.3660231 -0.5864182
-0.18089247 -0.8983489 -0.21971437 0.067140914 -0.21609876 -0.17526412 -0.19957985 -0.048884094
-0.69299954 0.13663864 -0.17080265 -0.13077445 -0.22528286 -0.33952245 -0.15180515 0.377302
0.11524423 -0.16480963 -0.38623035 -0.12724937 -0.15934893 0.2080156 -0.3546452 -0.27993217
-0.013563539 -0.9705204 -0.23254053 -0.30443707 -0.17108458 0.5436533 -0.15483008 -0.17073539
-0.006964884 -0.4177142 -0.24250515 -0.35087883 -0.9663623 -0.9572358 -0.35798135 -0.94548166
-0.35708022 -0.11672087 -0.6037945 -0.13218388 -0.33298275 -0.29829165 -0.32397112 -0.8913546
-0.22270645 -0.25963745 -0.98608685 -0.30205482 -0.05945435 -0.9424793 -0.3944818 -0.285773
-0.9152872 -0.30140725 -0.4656936 0.22568578 0.2852529 -0.23903763 0.053291194 -0.17422216
-0.91228515 -0.33126032 -0.2808005 0.085615866 -0.9504784 -0.37685385 0.11890636 -0.21585071
-0.19134337 -0.22699766 -0.41044152 -0.9372261 -0.9644079 -0.30887675 -0.68617725 0.3125759
00000000: e0c4 25be 2ac6 bdbe 842a 70be c7e7 273e
00000010: 5d82 23be 0122 35be 96f2 efbe b656 aabe
00000020: fe85 39be d883 e3be 1277 77bf e0f3 89be
00000030: b5eb 33be a993 04bf cac1 62be 1f67 90be
00000040: 3c73 c43c 7da6 24be c9eb 17be 0253 75bf
00000050: be86 e2be 8e71 9dbc de61 47be e6d1 66be
00000060: 0263 46be f232 303f 9bd6 10be a853 8bbe
00000070: 703a 84be 8229 6dbf 5571 a6be b834 45be
00000080: 94a0 e1bd e732 97be 703a 2bbf 91ab 70bf
00000090: c118 eb3d 8f5f 2bbe 4afa 74bf 136a 003f
000000a0: 562c 63be 5bdd bebe 38aa 20be 4320 75be
000000b0: 9d7d d5be 5715 91be 6167 bbbe 811f 16bf
000000c0: e03b 39be 32fa 65bf cefc 60be 2d81 893d
000000d0: fe48 5dbe 7078 33be a95e 4cbe b03a 48bd
000000e0: 6b68 31bf 00eb 0b3e e4e6 2ebe bde9 05be
000000f0: 8db0 66be e3d5 adbe cf72 1bbe ba2d c13e
00000100: 2b05 ec3d dbc3 28be fcbf c5be a94d 02be
00000110: 5e2c 23be 0b02 553e 0e94 b5be 4553 8fbe
00000120: 9b39 5ebc 0674 78bf 1b1f 6ebe 2ddf 9bbe
00000130: cc30 2fbe dd2c 0b3f c78b 1ebe 42d5 2ebe
00000140: af39 e4bb a3de d5be 4553 78be 64a6 b3be
00000150: 8563 77bf 680d 75bf 5549 b7be 160b 72bf
00000160: 38d3 b6be 5a0b efbd 4792 1abf 365b 07be
00000170: b77c aabe afb9 98be 8bdf a5be d12f 64bf
00000180: 290d 64be 33ef 84be 3070 7cbf eea6 9abe
00000190: 6886 73bd 5346 71bf 85f9 c9be d750 92be
000001a0: 4350 6abf 0d52 9abe 646f eebe 2c1a 673e
000001b0: ab0c 923e 48c6 74be de47 5a3d 4b67 32be
000001c0: 858b 69bf f49a a9be 15c5 8fbe 5f57 af3d
000001d0: 8d52 73bf fdf2 c0be 2d85 f33d f807 5dbe
000001e0: 84ef 43be 1372 68be 6425 d2be 0dee 6fbf
000001f0: 70e3 76bf 1825 9ebe 50a9 2fbf f309 a03e

allocation_head.0.weight f4 [9, 128]
0.059391182 0.012422971 0.09236371 0.17183574 0.026031844 0.08375665 -0.05331534 2.5794396e-05
0.05220928 0.062887035 -0.026712112 0.042674277 -0.024390109 -0.0029516052 -0.063062705 -0.005054241
-0.14094433 0.113088936 0.00013236835 -0.03848984 0.0920711 0.031887073 0.041864276 0.12617761
0.045807518 -0.19933513 0.47008458 -0.009584518 0.004266986 -0.022376858 0.011018549 0.50801605
-0.097467154 0.043738253 -0.1198866 -0.08278108 -0.44658524 -0.007824478 0.039440505 -0.03240249
0.050309546 -0.013645915 0.075008295 -0.11475996 -0.003816103 -0.05489748 0.11126462 0.048196483
0.0252198 -0.0031892657 0.11658423 0.3149005 0.005192844 0.07199517 0.026503894 0.13449948
-0.041988775 -0.21723036 -0.0012083318 0.377459 0.028014116 0.09527622 -0.09288398 -0.14372276
0.011940365 0.04881763 0.034509696 0.12093489 0.11488814 -0.10889315 0.03544611 -0.058264617
0.013382998 0.0732341 0.1368306 0.10658034 0.008002754 -0.205671 0.068184376 -0.11534327
-0.020806734 0.13853778 0.12726028 -0.045695797 0.016543828 -0.014889903 0.05595737 -0.040460374
0.011451394 0.2526075 -0.036566988 -0.07458255 0.020413673 0.0026115836 -0.37372953 -0.057337247
0.10418794 -0.014008051 -0.06895034 -0.110640466 0.011064422 0.06015138 -0.07534271 -0.06376461
-0.08419857 -0.045028504 -0.025420666 -0.062301315 0.3391453 -0.020124687 -0.029790299 0.1124994
-0.053787764 0.14016677 0.0058037997 -0.24926306 -0.021998473 0.06957722 0.46977225 0.08101779
0.09473957 -0.005540368 0.023325093 0.041824393 -0.08478642 -0.25065073 0.032437768 -0.20467544
0.029131562 -0.05932666 0.113565594 0.3250955 0.0024687783 0.05551857 0.011691608 -0.08002125
0.06251024 0.05464085 0.017888151 0.11624892 0.023672363 0.11171956 0.057146247 -0.022867814
-0.21278027 0.018150873 0.120238274 -0.00057297945 0.016043514 -0.009627939 -0.0226638 -0.014657456
0.042125788 -0.21619129 -0.06932851 -0.015077418 0.11478961 -0.069164716 0.026883183 -0.09069566
-0.081444964 0.06736089 -0.13562912 -0.07631785 0.0062973006 0.031144582 -0.040152606 0.4453413
-0.033896983 0.049323395 0.1377845 -0.067925446 0.13986693 0.009888829 -0.020236092 0.004851781
0.0554136 -0.03945716 0.13073407 0.26691067 -0.020618854 0.041553106 0.029702857 0.23993565
-0.015754912 -0.13141133 0.038797658 -0.15697493 -0.086529694 -0.012131496 0.028427422 -0.014683908
-0.1070846 0.06390639 -0.033932194 -0.5823535 0.008549653 0.47609043 0.03222306 -0.027704054
-0.064238176 0.05697716 -0.006827823 -0.056925125 -0.05653617 -0.0502626 0.028274864 0.01520836
-0.040039778 -0.048753817 0.05932048 0.02749938 0.011089765 -0.020183012 0.06703009 0.011277735
-0.092035785 0.23458542 -0.04802915 -0.050090004 -0.049783293 0.058856085 -0.20749013 0.0025025457
-0.016543765 0.011109226 -0.06295732 0.034841888 -0.0385625 -0.011687392 -0.036593266 0.03343148
0.011034295 0.034638345 -0.6585124 -0.3151711 0.36938277 -0.07536046 0.083809815 0.086047344
0.029185131 0.1262653 -0.025997711 -0.20656727 0.0455044 -0.019896371 0.20195693 -0.013036084
0.061268367 -0.026639158 0.0203 0.011682376 0.07308998 -0.028226761 0.0027746258 -0.20030291
00000000: 2b44 733d b889 4b3c 2f29 bd3d b5f5 2f3e
00000010: bc40 d53c 9b88 ab3d 3061 5abd 0b61 d837
00000020: 66d9 553d ebca 803d 5cd3 dabc 39cb 2e3d
00000030: c4cd c7bc b86f 41bb 0527 81bd 0c9e a5bb
00000040: b653 10be 2c9b e73d 5ccc 0a39 86a7 1dbd
00000050: c68f bc3d 059c 023d e079 2b3d b434 013e
00000060: aaa0 3b3d 821e 4cbe edae f03e 6208 1dbc
00000070: 13d2 8b3b ac4f b7bc 2587 343c 570d 023f
00000080: dc9c c7bd e226 333d 1b87 f5bd 2089 a9bd
00000090: d2a6 e4be 3d32 00bc 5e8c 213d 79b8 04bd
000000a0: 6211 4e3d 1e93 5fbc f39d 993d 4507 ebbd
000000b0: 9617 7abb 2edc 60bd b5de e33d ad69 453d
000000c0: c199 ce3c 0003 51bb b6c3 ee3d a33a a13e
000000d0: bc28 aa3b 3472 933d b21e d93c 3bba 093e
000000e0: 6cfc 2bbd a371 5ebe e360 9eba 4e42 c13e
000000f0: dc7d e53c 2e20 c33d f539 bebd 0f2c 13be
00000100: 85a1 433c fff4 473d 0a5a 0d3d b6ac f73d
00000110: 794a eb3d 5f03 dfbd f12f 113d e1a6 6ebd
00000120: 5d44 5b3c c3fb 953d 521d 0c3e cb46 da3d
00000130: fc1d 033c 6b9b 52be 40a4 8b3d 1839 ecbd
00000140: e272 aabc d9dc 0d3e 8550 023e 842b 3bbd
00000150: ec86 873c c8f4 73bc 8e33 653d c7b9 25bd
00000160: a19e 3b3c c555 813e 44c7 15bd bcbe 98bd
00000170: 933a a73c 1a27 2b3b 7a59 bfbe 76da 6abd
00000180: 7d60 d53d 0682 65bc d635 8dbd 7897 e2bd
00000190: 8d47 353c 4b61 763d 474d 9abd 0597 82bd
000001a0: 4d70 acbd cf6f 38bd 003f d0bc aa2f 7fbd
000001b0: 74a4 ad3e 87dc a4bc c90a f4bc 1666 e63d
000001c0: 8f50 5cbd e187 0f3e cd2d be3b d13e 7fbe
000001d0: 2436 b4bc 807e 8e3d fd85 f03e a8ec a53d
000001e0: d206 c23d fa8b b5bb 4414 bf3c 0e50 2b3d
000001f0: 81a4 adbd 4b55 80be 77dd 043d 7096 51be
00000200: 50a5 ee3c 8300 73bd 1495 e83d eb72 a63e
00000210: 3acb 213b 7167 633d 288e 3f3c 2ee2 a3bd
00000220: 5e05 803d 15cf 5f3d 2c8a 923c ea13 ee3d
00000230: 8bec c13c 3acd e43d 2f12 6a3d 4855 bbbc
00000240: 12e3 59be 24b1 943c 7c3f f63d 0034 16ba
00000250: b06d 833c 81be 1dbc 6fa9 b9bc d425 70bc
00000260: 178c 2c3d 4061 5dbe 1bfc 8dbd 4607 77bc
00000270: d116 eb3d 3ba6 8dbd 1f3a dc3c a5be b9bd
00000280: 9ecc a6bd 82f4 893d 5ce2 0abe 884c 9cbd
00000290: 9659 ce3b ec22 ff3c 0f77 24bd c603 e43e
000002a0: 90d7 0abd 5407 4a3d 6117 0d3e 7f1c 8bbd
000002b0: 4739 0f3e c104 223c 29c6 a5bc b0fb 9e3b
000002c0: 5ff9 623d d59d 21bd 27df 053e 84a8 883e
000002d0: dfe8 a8bc 9733 2a3d 6853 f33c b1b1 753e
000002e0: 7210 81bc b190 06be 4bea 1e3d 09be 20be
000002f0: 7b36 b1bd 2fc3 46bc a0e0 e83c c694 70bc
00000300: 2c4f dbbd 5ae1 823d 7cfc 0abd 1e15 15bf
00000310: d813 0c3c 20c2 f33e 54fc 033d 9df3 e2bc
00000320: 4e8f 83bd e260 693d eebb dfbb 522a 69bd
00000330: 7992 67bd 28e0 4dbd b0a0 e73c 7c2c 793c
00000340: c000 24bd 15b2 47bd 08fa 723d 6146 e13c
00000350: d8b1 353c d856 a5bc 1247 893d 40c6 383c
00000360: 427d bcbd 2937 703e 37ba 44bd 2d2b 4dbd
00000370: 91e9 4bbd 1413 713d 4b78 54be c001 243b
00000380: ca86 87bc 7903 363c c4ef 80bd 5eb6 0e3d
00000390: b6f3 1dbd 7a7c 3fbc d2e2 15bd 73ef 083d
000003a0: 30c9 343c f0e0 0d3d 4594 28bf 1b5e a1be
000003b0: bd1f bd3e 9656 9abd 7ba4 ab3d 9739 b03d
000003c0: a815 ef3c b14b 013e 27f9 d4bc 5f86 53be
000003d0: d262 3a3d b7fd a2bc cccd 4e3e 4d95 55bc
000003e0: 8af4 7a3d 5d3a dabc 304c a63c 7067 3f3c
000003f0: 33b0 953d cf3b e7bc 7fd6 353b 351c 4dbe

allocation_head.0.bias f4 [9]
-0.033757232 0.0074701007 0.11076768 -0.07095257 -0.011535921 0.049466707 -0.0158866 0.031666987
0.078571536
00000000: 0645 0abd bfc7 f43b 2ada e23d 954f 91bd
00000010: 2901 3dbc 9a9d 4a3d 9d24 82bc 3eb5 013d
00000020: 1dea a03d

payment_head.0.weight f4 [2, 128]
0.03225853 -0.19128913 -0.0062206374 0.29252043 -0.004441871 0.07430559 0.050594613 0.036285404
0.009578494 -0.07156686 0.06967003 -0.0033067188 -0.0029077926 -0.08285602 0.06372837 0.007214933
-0.28070712 0.038777687 0.0064607523 -0.015859753 0.024468945 -0.08712855 -0.025983006 0.0036754918
-0.011856858 -0.30455616 0.28115398 0.050214943 -0.01689462 -0.003829591 0.017033106 0.40962803
0.37197527 0.054868404 0.00032227216 0.058471583 -0.15624464 0.2691342 -0.021782115 0.4101243
0.033948194 0.0406606 -0.020384092 -0.0071659614 0.023509182 0.020297056 0.03744834 0.47494635
0.0011952529 -0.03933188 0.0112324525 0.5931987 -0.0025320025 -0.022358174 -0.023256857 0.31375256
0.103537224 -0.32441851 0.08197342 0.24905317 0.029571561 0.041350868 0.036289662 -0.33350116
0.2898209 3.284523e-05 -0.15416494 -0.22633995 0.0065027736 0.32996923 0.38246217 0.032879464
-0.076760836 0.044048823 -0.009178109 0.03681538 0.08375527 -0.17463861 -0.016719671 -0.013376757
-0.21042831 0.091887005 -0.02221385 0.009471069 -0.08087344 -0.06332344 -0.009037467 0.073144756
0.05635528 -0.18981911 0.44022334 -0.30914828 -0.024084296 0.04763448 -0.42561224 0.068506755
-0.02713424 0.1066008 0.072349526 -0.022181686 -0.20647186 0.07545475 0.01933253 0.051114634
0.039056815 0.07097485 -0.034356616 -0.21407576 0.5948677 0.0245413 0.4272268 -0.022315204
-0.047696944 0.04114186 -0.18835272 -0.25095975 0.041689716 0.011332066 0.44744158 -0.00597137
0.049817756 0.025715716 0.025237992 0.04545217 -0.03517032 -0.11363351 0.01861463 -0.21830064
-0.0013433855 0.26691252 0.18105683 -0.017284239 0.04238487 -0.0051649376 -0.022201821 -0.0028712682
0.02229615 0.020436995 -0.07077371 0.04783668 0.061963476 -0.010161643 0.040533956 0.03692037
0.3561401 0.019485341 -0.0030672932 -0.07907335 0.06443242 0.20925719 0.043266334 0.0563335
-0.004176284 0.6153224 -0.041555252 -0.06188214 -0.0021836662 0.06546993 0.09850139 -0.10489526
-0.1373316 0.049890414 -0.0019406384 -0.08259271 0.3308015 -0.06594407 -0.032826304 -0.28827968
0.01758424 -0.04670988 -0.015818767 0.02481974 0.09614746 -0.014330399 -0.047849655 -0.07104319
0.027706238 0.02330745 0.084391974 -0.36662847 -0.00085143204 0.06546358 0.044833664 -0.42501214
0.037277076 0.3992695 -0.0121231 0.008188253 0.05086425 0.020422166 0.05530137 0.23074974
0.011798125 0.051621787 0.32904932 0.45606193 0.029799247 -0.08882529 -0.3001211 0.021426858
0.15188085 -0.05533014 0.10700532 0.0034522195 0.008877683 0.6836691 0.026991623 -0.0098033305
0.3233146 0.009647961 0.11656405 -0.03858186 -0.015291393 0.0009368211 0.08433444 0.0071446076
-0.011226995 -0.3213498 -0.05677666 0.13589278 -0.100047015 -0.03785088 0.39358556 0.07755455
0.13571896 -0.03636092 -0.030638281 0.0054403404 0.16913465 0.0078110076 0.050477218 0.01560756
0.07736672 0.008910374 0.67007303 0.4577235 -0.22050999 0.017343763 -0.2814972 0.067706734
-0.06113016 -0.01894772 0.268807 -0.09666576 0.0076776594 0.014595708 -0.4121898 0.091431156
0.011374097 -0.012851401 0.05169292 0.061900713 0.07729406 0.28730935 0.05860419 0.018232472
00000000: 8521 043d 4ce1 43be 7dd6 cbbb 3dc5 953e
00000010: 1d8d 91bb 872d 983d 4c3c 4f3d 01a0 143d
00000020: 1eef 1c3c a591 92bd 29af 8e3d 89b5 58bb
00000030: aa90 3ebb 6bb0 a9bd 0584 823d 3f6b ec3b
00000040: d8b8 8fbe 5ad5 1e3d b8b4 d33b 50ec 81bc
00000050: 1973 c83c 7470 b2bd 50da d4bc 85e0 703b
00000060: 4443 42bc c9ee 9bbe 6af3 8f3e 2fae 4d3d
00000070: 9666 8abc e0f9 7abb 0389 8b3c c4ba d13e
00000080: 8b73 be3e b1bd 603d a3f6 a839 e67f 6f3d
00000090: 98fe 1fbe f5cb 893e 6870 b2bc d0fb d13e
000000a0: 430d 0b3d bb8b 263d 8afc a6bc 71d0 eabb
000000b0: 5496 c03c 0346 a63c 6e63 193d 2b2c f33e
000000c0: 08aa 9c3a 771a 21bd 5208 383c dfdb 173f
000000d0: f4ef 25bb 7d28 b7bc 2a85 bebc 2da4 a03e
000000e0: 530b d43d 2f1a a6be aee1 a73d cb07 7f3e
000000f0: 0f40 f23c 875f 293d 78a4 143d aac0 aabe
00000100: 6863 943e 4cc3 0938 6add 1dbe a9c5 67be
00000110: 3815 d53b baf1 a83e 15d2 c33e 9eac 063d
00000120: c934 9dbd 8a6c 343d c75f 16bc b9cb 163d
00000130: e287 ab3d 77d4 32be b1f7 88bc 2f2a 5bbc
00000140: 857a 57be 412f bc3d d2f9 b5bc 8b2c 1b3c
00000150: f9a0 a5bd b8af 81bd e211 14bc ebcc 953d
00000160: cbd4 663d f15f 42be f464 e13e af48 9ebe
00000170: 6e4c c5bc 5f1c 433d d9e9 d9be 454d 8c3d
00000180: a048 debc 8551 da3d fd2b 943d 5eb6 b5bc
00000190: 5c6d 53be 0588 9a3d 415f 9e3c 945d 513d
000001a0: 0afa 1f3d 435b 913d 86b9 0cbd ad36 5bbe
000001b0: 4049 183f d60a c93c 79bd da3e 60ce b6bc
000001c0: df5d 43bd 5e84 283d 89df 40be cc7d 80be
000001d0: d6c2 2a3d 21aa 393c 1017 e53e 7bab c3bb
000001e0: b40d 4c3d c4a9 d23c e8bf ce3c 0e2c 3a3d
000001f0: c10e 10bd b0b8 e8bd b57d 983c 348a 5fbe
00000200: 8a14 b0ba c2a8 883e f666 393e ad97 8dbc
00000210: c29b 2d3d a33e a9bb 98e0 b5bc e32b 3cbb
00000220: 6aa6 b63c 7c6b a73c cff1 90bd 65f0 433d
00000230: 6acd 7d3d 057d 26bc ef06 263d d039 173d
00000240: ff57 b63e b99f 9f3c a404 49bb 35f1 a1bd
00000250: 25f5 833d 8447 563e 0a38 313d f5bd 663d
00000260: 36d9 88bb c585 1d3f d735 2abd 2078 7dbd
00000270: d71b 0fbb 1915 863d 19bb c93d 53d3 d6bd
00000280: a8a0 0cbe e459 4c3d 055d feba 5e26 a9bd
00000290: d05e a93e af0d 87bd e074 06bd 6599 93be
000002a0: d30c 903c dc52 3fbd 5c96 81bc c452 cb3c
000002b0: f6e8 c43d 0dca 6abc 00fe 43bd 187f 91bd
000002c0: 31f8 e23c 44ef be3c b3d5 ac3d bab6 bbbe
000002d0: a332 5fba c511 863d 81a3 373d 319b d9be
000002e0: d9af 183d 0d6d cc3e f89f 46bc 0628 063c
000002f0: 0857 503d 634c a73c b083 623d a949 6c3e
00000300: ec4c 413c 5e71 533d 2779 a83e f380 e93e
00000310: 8d1d f43c 09ea b5bd 79a9 99be 6187 af3c
00000320: a786 1b3e dba1 62bd 9b25 db3d a23e 623b
00000330: b473 113c f004 2f3f 891d dd3c 269e 20bc
00000340: 7e89 a53e 7b12 1e3c 22b9 ee3d 0308 1ebd
00000350: c088 7abc 0095 753a 89b7 ac3d 501d ea3b
00000360: 6ef1 37bc f687 a4be a58e 68bd 7a27 0b3e
00000370: 73e5 ccbd 8609 1bbd 0c84 c93e ebd4 9e3d
00000380: e9f9 0a3e 30ef 14bd 22fd fabc e244 b23b
00000390: a231 2d3e 7bf3 ff3b 33c1 4e3d dab6 7f3c
000003a0: 7172 9e3d d1fc 113c e889 2b3f bc5a ea3e
000003b0: 5fcd 61be 8214 8e3c 6720 90be d4a9 8a3d
000003c0: 9e63 7abd 4038 9bbc 12a1 893e b3f8 c5bd
000003d0: e094 fb3b d622 6f3c 8b0a d3be 4240 bb3d
000003e0: 6c5a 3a3c af8e 52bc f5bb 533d 9a8b 7d3d
000003f0: 594c 9e3d 361a 933e f20a 703d 445c 953c

payment_head.0.bias f4 [2]
0.523518 0.4704143
00000000: 4705 063f 25da f03e
