model/2x3_sparsemax_in_linsigpmt_scratch.pt (torch_old, 144456 bytes, 10 tensors)

nn_model.0.weight f4 [128, 6]
0	0xbce913a2	-0.028451744
1	0xbdf7926d	-0.120884754
2	0xbec4134b	-0.3829597
3	0xbe86e571	-0.26346925
4	0xbe7cd2a3	-0.24689727
5	0xbeda5acd	-0.426474
6	0x3d8469be	0.06465481
7	0x3d6c9887	0.05776265
8	0x3e09af81	0.13445856
9	0xbd8d6c36	-0.06905405
10	0xbd906a90	-0.07051575
11	0xbd582cc7	-0.052777078
12	0xbe04430d	-0.12916203
13	0x3f0cb31f	0.5496082
14	0xbe02db7d	-0.1277904
15	0x3d73e5b2	0.059545226
16	0x3e2b0cdc	0.16704124
17	0x3d480e51	0.04884178
18	0xbd588f58	-0.05287108
19	0xbda06c8b	-0.07833203
20	0x3f3b9410	0.732728
21	0xbc484b8e	-0.012225045
22	0xbc8d158c	-0.017222188
23	0x3dac4202	0.084110275
24	0xbe8154dc	-0.25260055
25	0x3d88b412	0.06674971
26	0x3da611f2	0.081088915
27	0xbe32ec84	-0.17473036
28	0xbe0092d0	-0.12556005
29	0xbe0707ac	-0.1318652
30	0xbe83771e	-0.25676817
31	0xbe5dfd0e	-0.21678564
32	0x3f76d4cb	0.96418446
33	0x3ea3bf94	0.319821
34	0x3e91d215	0.28480592
35	0xbf0ca745	-0.54942733
36	0xbec3d6a5	-0.38249698
37	0xbdced694	-0.10099521
38	0xbdaa0c50	-0.0830313
39	0xbe13a206	-0.14417276
40	0x3e2f9458	0.17146432
41	0xbe3e7c6e	-0.18602154
42	0x3cb6df90	0.0223234
43	0x3c187ad8	0.009306632
44	0x3d9184d3	0.07105412
45	0xbdb4811b	-0.088136874
46	0xbd95ceaf	-0.073148124
47	0x3f17a2db	0.5923287
48	0x3e2efdd9	0.17089023
49	0x3e17c8f7	0.14822756
50	0x3e19d92e	0.15024254
51	0xbd47ed2a	-0.04881016
52	0x3d346a65	0.04404678
53	0x3cc87a06	0.024472248
54	0x3f559c3b	0.83441514
55	0xbe57334b	-0.2101566
56	0xbe1e8cc0	-0.1548338
57	0xbe74d4d1	-0.23909308
58	0x3e36ba9e	0.17844626
59	0x3de96c8c	0.11397657
60	0x3d2ba730	0.04190749
61	0x3e85c87f	0.2612953
62	0x3de39d60	0.11114001
63	0xbdb16fe1	-0.08663917
64	0xbebda88d	-0.37042657
65	0x3e103159	0.14081325
66	0x3ec35fbe	0.38158983
67	0x3e9a6eea	0.30162746
68	0xbf115312	-0.5676738
69	0xbe785a19	-0.2425312
70	0xbe27d596	-0.1639007
71	0x3f836d3d	1.0267712
72	0x3d6588a6	0.05603852
73	0x3dda5c7d	0.10662172
74	0xbee1808d	-0.4404339
75	0xbeb523bf	-0.35378835
76	0x3e037536	0.12837681
77	0xbe50c75e	-0.20388553
78	0xbe8d8460	-0.27640057
79	0xbe881f74	-0.26586497
80	0xbea32a77	-0.31868336
81	0x3dd850f3	0.10562315
82	0x3d6c152f	0.05763739
83	0x3dc9efc2	0.09860183
84	0xbe1d7706	-0.15377435
85	0xbe2feb98	-0.17179716
86	0xbdae6234	-0.085148245
87	0xbe1abcf6	-0.15111145
88	0x3e65129c	0.2237038
89	0xbd9edb58	-0.0775668
90	0x3e57ebc6	0.21086034
91	0xbcb983e7	-0.022645904
92	0xbd07429b	-0.033022504
93	0xbe21fcfd	-0.15819164
94	0xbdc0d057	-0.09414738
95	0xbddb27f3	-0.10700979
96	0xbe01cab4	-0.12674981
97	0xbe1e16f3	-0.15438442
98	0xbe7ed76c	-0.24886864
99	0x3d568ccb	0.052380364
100	0x3d97669a	0.073926166
101	0x3e8554fa	0.26041394
102	0x3e91c830	0.28473043
103	0xbea11f80	-0.31469345
104	0x3ed8cd36	0.42344064
105	0xbe405bf5	-0.18785079
106	0x3f24a26c	0.64310336
107	0xbea2d073	-0.3179966
108	0xbe0174bb	-0.12642185
109	0xbde74642	-0.112926975
110	0xbdc7a74d	-0.09748707
111	0x3e6abc4c	0.22923392
112	0x3e09e9f0	0.13468146
113	0x3e2e9c62	0.17051843
114	0x3b044400	0.0020182133
115	0xbd356250	-0.04428321
116	0xbe73d8da	-0.23813191
117	0xbe0b00c8	-0.13574517
118	0x3e06b4f8	0.13154972
119	0x3e38eae4	0.18058354
120	0xbd91ddbc	-0.071223706
121	0x3ee0998a	0.4386714
122	0xbe154e56	-0.14580664
123	0x3e1c00f2	0.15234736
124	0x3e1f7485	0.15571792
125	0x3e3a98af	0.18222307
126	0x3f35d389	0.710259
127	0xbda7aba8	-0.08187038
128	0xbdbc94b8	-0.09208053
129	0x3db0318b	0.086031996
130	0x3c2fd9a5	0.010733043
131	0x3bab9d86	0.005237284
132	0x3ca73239	0.02040969
133	0x3f3cbffa	0.73730433
134	0x3cc98523	0.024599617
135	0xbd2dad41	-0.042401556
136	0xbcb23b40	-0.021756768
137	0xbd4fcbb5	-0.05073138
138	0xbdbb8f48	-0.09158188
139	0xbdd338b4	-0.1031355
140	0xbe3e9e73	-0.18615131
141	0x3cc2f632	0.023799036
142	0x3d393014	0.045211866
143	0x3e1002c4	0.14063555
144	0xbecc74c3	-0.39932832
145	0x3e627528	0.22115004
146	0xbe6d340d	-0.23164387
147	0xbd8b9570	-0.06815612
148	0xbeaf431a	-0.34230882
149	0xbe6bd81f	-0.23031662
150	0xbe5c32ea	-0.21503797
151	0xbe3d96c2	-0.18514541
152	0xbe3f484a	-0.1867992
153	0x3e1700b6	0.14746365
154	0x3cffdf82	0.031234507
155	0x3d95502b	0.072906815
156	0xbe267a54	-0.16257602
157	0x3df522db	0.11969539
158	0xbe88e8c8	-0.26740098
159	0xbc663c12	-0.014052408
160	0x3de3f795	0.11131207
161	0x3c36b133	0.011150646
162	0x3cb3c292	0.021943364
163	0x3c363c8a	0.011122832
164	0x3e40e103	0.18835835
165	0xbe0a3932	-0.13498381
166	0xbdd15eee	-0.102231845
167	0xbe4fda34	-0.20298082
168	0xbe254d4c	-0.16142768
169	0xbe00e3ef	-0.1258695
170	0xbdc56d31	-0.09639967
171	0x3e4ce778	0.20010173
172	0x3e09174a	0.1338779
173	0x3e1b157a	0.15144911
174	0x3d3ba44b	0.04581098
175	0x3e6a44b1	0.22877766
176	0x3c461346	0.012089556
177	0xbdcefba8	-0.10106593
178	0xbe420dc5	-0.18950565
179	0xbdcc7bdf	-0.09984564
180	0xbe01b1d9	-0.126655
181	0xbde6d473	-0.1127099
182	0x3f09c01c	0.5380876
183	0x3df321a8	0.11871654
184	0x3e00c1c8	0.12573922
185	0x3e1359a9	0.14389671
186	0xbd30dad8	-0.043177456
187	0x3dc21ca8	0.09478122
188	0x3c6db6e0	0.014508933
189	0xbe7cf973	-0.24704532
190	0x3d9ae80c	0.07563791
191	0x3c2ef140	0.010677636
192	0x3e24bb44	0.16087061
193	0x3dc68ec2	0.09695198
194	0xbe9b78bc	-0.3036555
195	0xbdbbaa27	-0.09163313
196	0xbd656933	-0.05600853
197	0x3f2ebaa8	0.68253565
198	0x3e06fbae	0.13181946
199	0x3dc4f610	0.09617245
200	0x3e2007ed	0.15628023
201	0xbe64ddfc	-0.22350305
202	0xbe77adf8	-0.24187458
203	0xbe7ee6ad	-0.24892683
204	0x3eb0d85a	0.34540063
205	0x3eb675a0	0.35636616
206	0x3f0cea31	0.5504485
207	0xbdb51ba3	-0.08843162
208	0xbe04f799	-0.12985076
209	0xbf020d08	-0.50801134
210	0x3def59a3	0.11687019
211	0x3d8e7fab	0.069579445
212	0x3da8020d	0.08203516
213	0x3f305bb3	0.6888992
214	0xbdfe04c5	-0.124032535
215	0xbe2a9d9c	-0.16661686
216	0xbeae615e	-0.3405866
217	0xbe12a977	-0.14322458
218	0xbd8abd62	-0.06774403
219	0x3e895a66	0.2682678
220	0x3e092dd5	0.1339639
221	0x3df38482	0.11890508
222	0xbf3aace6	-0.7292007
223	0xbf3415ce	-0.7034577
224	0xbf32d6ab	-0.6985881
225	0x3e380dab	0.17973964
226	0x3de6890c	0.11256608
227	0x3e1ef8f4	0.15524656
228	0xbe20f481	-0.15718271
229	0xbe81454d	-0.25248185
230	0xbeaf35fd	-0.34220877
231	0xbe0ec7f4	-0.13943464
232	0xbe619367	-0.22028886
233	0xbea55803	-0.3229371
234	0xbdb1f960	-0.08690143
235	0x3dc49e3b	0.096004926
236	0x3dcfdf3e	0.10150002
237	0xbe012841	-0.12613012
238	0xbdecb363	-0.11557653
239	0xbe0e2db0	-0.13884616
240	0xbde69674	-0.112591654
241	0xbe9f8965	-0.3115951
242	0xbe83fd84	-0.25779355
243	0x3dc5b822	0.09654261
244	0x3e89a7a0	0.268857
245	0xbcd878b2	-0.02642474
246	0x3c897d70	0.016783446
247	0xbe772df9	-0.24138631
248	0x3d9919fa	0.07475658
249	0x3debe4f5	0.115182795
250	0x3e7f4923	0.24930243
251	0x3dcf529e	0.1012318
252	0x3e2e18a4	0.17001587
253	0x3e2f390e	0.17111608
254	0x3caa8c04	0.020818718
255	0xbe9386b5	-0.2881371

nn_model.0.bias f4 [128]
0	0xbd0dfd74	-0.03466554
1	0x3e01b6da	0.12667409
2	0xbf147db6	-0.5800432
3	0xbf2b8c25	-0.6701072
4	0x3ea1f606	0.31633013
5	0xbf6121c0	-0.87942123
6	0xbe2cb1ab	-0.1686465
7	0xbf0b8731	-0.5450316
8	0xbefd3de0	-0.4946127
9	0xbf827345	-1.0191427
10	0xbeff27d3	-0.4983507
11	0xbf7e3de0	-0.99313164
12	0xbeafb9d9	-0.34321478
13	0x3f1a2e15	0.60226566
14	0xbe8a7fa8	-0.2705052
15	0x3e4f9ed8	0.20275438
16	0x3e593ec6	0.21215352
17	0xbf1c5faf	-0.610835
18	0x3dc1c7f0	0.09461963
19	0xbeceb5e6	-0.40373152
20	0xbee0a1df	-0.43873498
21	0xbf2b4db4	-0.6691544
22	0xbf21d0b2	-0.6320907
23	0x3e6f78c7	0.23385917
24	0xbe4ab182	-0.19794276
25	0x3e9938d8	0.2992618
26	0xbec0b834	-0.37640536
27	0x3e302229	0.17200531
28	0x3e2d77e5	0.16940267
29	0x3e4c323c	0.19941038
30	0xbf076cf0	-0.529006
31	0xbe801f2c	-0.25023782
32	0xbf375bb6	-0.71624315
33	0x3ed26132	0.4108978
34	0xbf2ebb95	-0.6825498
35	0xbf19fc4a	-0.6015059
36	0xbee4fa79	-0.44722345
37	0xbeb41467	-0.35171816
38	0xbf21cd93	-0.63204306
39	0x3e8408a7	0.2578785
40	0xbeab15e6	-0.33415145
41	0xbe838ce0	-0.25693417
42	0xbf3cafd8	-0.73705816
43	0xbf1fb453	-0.6238453
44	0xbe1492ef	-0.14509176
45	0x3e863fe4	0.2622062
46	0xbd0e9c4d	-0.03481703
47	0xbed09d7e	-0.40745157
48	0x3d85bbae	0.06529938
49	0x3e10c048	0.1413585
50	0x3e53e112	0.20691326
51	0x3e5d6500	0.2162056
52	0xbedf6c9d	-0.43637553
53	0xbf20661c	-0.62655807
54	0xbea67c67	-0.32516786
55	0xbee1819c	-0.44044197
56	0xbe8fe96b	-0.2810777
57	0xbf25251c	-0.6450975
58	0x3ed2bb8e	0.41158718
59	0xbf224fd1	-0.6340304
60	0xbec4159b	-0.38297734
61	0x3e04d230	0.12970805
62	0xbf0fe7c2	-0.5621301
63	0x3d3fed4e	0.04685717
64	0x3e5b8c43	0.21440224
65	0x3e39d22d	0.18146582
66	0x3e2d704e	0.16937372
67	0xbf1e2b17	-0.617845
68	0xbf477694	-0.7791531
69	0x3dfaa6cf	0.122388475
70	0xbf1093ce	-0.5647553
71	0xbf5dd290	-0.8664942
72	0x3e035a60	0.12827444
73	0xbf17c572	-0.5928565
74	0xbf36a43b	-0.71344346
75	0x3e2c92ac	0.16852826
76	0xbf3ad885	-0.7298663
77	0x3ec43ee7	0.3832924
78	0xbf0a03df	-0.53912157
79	0x3ec138c7	0.3773863
80	0x3e02b9d4	0.127662
81	0x3e52392e	0.20529625
82	0xbf033701	-0.51255804
83	0x3e69846e	0.22804424
84	0x3d946015	0.07244889
85	0x3e07efdf	0.13275097
86	0x3e9fdb53	0.3122202
87	0x3e327cf0	0.17430472
88	0xbf023ff5	-0.5087884
89	0xbf1598c7	-0.58436245
90	0xbeea0ee6	-0.45714492
91	0x3e99ee0d	0.3006443
92	0xbf350c68	-0.70722055
93	0x3e58cf3e	0.21172807
94	0xbf853384	-1.0406346
95	0xbeed1272	-0.46303135
96	0xbf546d1d	-0.82978994
97	0xbeb1726e	-0.34657615
98	0xbf55546f	-0.8333196
99	0xbf005d97	-0.50142807
100	0x3e90a0a9	0.28247574
101	0xbf02939c	-0.51006484
102	0xbf0765da	-0.5288979
103	0x3e512547	0.20424376
104	0xbebb67c7	-0.36602613
105	0x3e556137	0.20837866
106	0xbeba269c	-0.36357582
107	0xbf018752	-0.5059711
108	0xbf64e2f4	-0.89408803
109	0x3ec2d3ce	0.3805222
110	0x3e82c7cc	0.25543058
111	0x3e75dc0f	0.24009727
112	0xbf000d85	-0.5002063
113	0xbf0b4740	-0.54405594
114	0xbf4a5d02	-0.7904817
115	0xbf546588	-0.82967424
116	0x3d82d7a3	0.06388786
117	0xbf3747b6	-0.715938
118	0x3ee2622f	0.44215533
119	0x3e5bb898	0.21457136
120	0xbf13ff4b	-0.5781142
121	0x3ed38ba8	0.41317487
122	0x3e0f6ee1	0.1400714
123	0xbf3fab5a	-0.74870837
124	0x3e2cca13	0.1687396
125	0xbf0ed8f5	-0.557998
126	0x3d942db2	0.07235278
127	0xbeae3ec7	-0.3403227

nn_model.2.weight f4 [128, 128]
0	0xbb492229	-0.0030690527
1	0x3da6da72	0.08147134
2	0x3d002fee	0.03129571
3	0xbd11519e	-0.035478227
4	0xbd26b2f9	-0.040698025
5	0xbdd02c0c	-0.10164651
6	0x3d9e4a3b	0.07729002
7	0x3c84f1fd	0.01622867
8	0xbd8e4be8	-0.06948072
9	0xbe0db9d6	-0.13840422
10	0xbd85f915	-0.06541649
11	0xbd5e0d5b	-0.054211956
12	0x3df39b54	0.11894861
13	0xbd6a49e2	-0.057199366
14	0x3cd2bd64	0.025725074
15	0xbd15aab2	-0.03653974
16	0xbde160c3	-0.11004784
17	0xbdeb2caf	-0.11483132
18	0xbe0e6373	-0.13905124
19	0xba35f400	-0.0006940961
20	0xbd05d1eb	-0.032670897
21	0x3d5b112b	0.05348317
22	0x3e152edf	0.14568661
23	0xbd6199eb	-0.05507843
24	0xbd6c3d70	-0.05767578
25	0xbd39a00c	-0.04531865
26	0xbccbe880	-0.024891138
27	0xbd93cb24	-0.072164804
28	0x3cd1a810	0.025592834
29	0xbd802a99	-0.06258125
30	0x3c8d3d2e	0.017241087
31	0x3c416500	0.011803865
32	0xbdb11a87	-0.08647638
33	0x3b9e93ed	0.0048394115
34	0xbde2195a	-0.11039992
35	0xbd69f5d2	-0.0571192
36	0xbd2493c4	-0.040179983
37	0xbca5c072	-0.020233367
38	0xbda704eb	-0.08155235
39	0xbd643063	-0.055710208
40	0xbda24e85	-0.07925133
41	0xbb33e60f	-0.0027450358
42	0xbcf84928	-0.030308321
43	0xbc502fb4	-0.012706686
44	0x3cb21cb3	0.0217422
45	0xbda382cf	-0.07983934
46	0x3d5e8a26	0.054330967
47	0x3d913931	0.070909865
48	0xbe06709a	-0.13128892
49	0xbdf81cc6	-0.12114863
50	0x3d872e98	0.06600684
51	0xbdc2b05e	-0.095062956
52	0xbd613cc2	-0.054989584
53	0x3e0d40ce	0.13794252
54	0xbc27e018	-0.010246299
55	0xbd9a57e5	-0.07536296
56	0xbd24931d	-0.04017936
57	0x3cad42d0	0.021150023
58	0xbda2b7e8	-0.079452336
59	0xbdc8efb8	-0.09811348
60	0xbca5fae4	-0.020261236
61	0xbd42837a	-0.047488667
62	0xbe0d48e2	-0.13797334
63	0x3e089d31	0.13341214
64	0xbc27ff39	-0.010253721
65	0x3c896711	0.016772779
66	0xbcaf0f9e	-0.021369752
67	0xbda5c081	-0.08093358
68	0x3cfb62ad	0.0306867
69	0xbc8d0b30	-0.017217249
70	0x3d2ea6f0	0.042639673
71	0xbd2e9fe4	-0.042632952
72	0xbe153266	-0.14570007
73	0xbdd47774	-0.103743464
74	0xbcdeeec2	-0.027213458
75	0xbd83e8a5	-0.06440858
76	0xbdd1a6a7	-0.102368645
77	0xbe0c4651	-0.13698699
78	0xbb79bd7f	-0.0038107333
79	0xbd9f04b6	-0.077645704
80	0xbe166b03	-0.14689259
81	0x3cde0066	0.0270998
82	0xbc8abadc	-0.016934805
83	0xbde73dd6	-0.11291091
84	0xbdff1926	-0.124559686
85	0x3ccfbfea	0.025360066
86	0x3d744b4b	0.059642117
87	0xbde7d34a	-0.11319597
88	0xbc169042	-0.009189667
89	0xbd9fa7a4	-0.07795647
90	0x3d874acf	0.066060655
91	0xbd318b08	-0.04334548
92	0xbe0a2247	-0.13489638
93	0xbdf32565	-0.11872367
94	0xbd8ecfa0	-0.06973195
95	0xbdfe0597	-0.1240341
96	0x3cddba81	0.027066471
97	0xbd7208a7	-0.059090283
98	0x3cba03af	0.022706835
99	0x3dc230f6	0.09481995
100	0xbe0c3aba	-0.13694277
101	0x3c70be3f	0.014693796
102	0xbcdbf67c	-0.026850931
103	0xbe0a6044	-0.13513285
104	0xbc8307cc	-0.015994929
105	0xbd577c88	-0.052608997
106	0xbe08e934	-0.1337021
107	0xbe175047	-0.14776717
108	0xbd0235db	-0.03178964
109	0xbc95a46e	-0.018266883
110	0xbd9f1344	-0.077673465
111	0xbc9682c9	-0.01837291
112	0xbd50a8e1	-0.050942305
113	0x3d828ff2	0.06375112
114	0xbd5b220e	-0.053499274
115	0xbd1947fd	-0.03742217
116	0xbd35f322	-0.044421323
117	0xbd845a69	-0.06462557
118	0x3dd9a6d4	0.10627523
119	0x3cd26b7a	0.025686014
120	0x3df80b24	0.121115
121	0x3ca61492	0.02027348
122	0xbdb81341	-0.089880474
123	0xbdb87be1	-0.09008003
124	0xbd8f0110	-0.069826245
125	0xbd0ae421	-0.033908967
126	0xbcc6d5b1	-0.024271818
127	0xbd8b1a6e	-0.067921504
128	0x3cac0a41	0.021000983
129	0xbde378e5	-0.11107043
130	0x3cf3a167	0.029740049
131	0x3d82ad13	0.063806675
132	0x3d3a6d5c	0.04551445
133	0xbdcbf501	-0.0995884
134	0xbd337bf7	-0.043819394
135	0x3d9a1fad	0.07525573
136	0xbc01d986	-0.007925397
137	0x3d00b30b	0.03142075
138	0xbda0459c	-0.07825777
139	0x3cc54c45	0.02408422
140	0xbdcf0f41	-0.10110331
141	0xbde304ef	-0.110849254
142	0xbc61ef50	-0.013789967
143	0x3d25c951	0.040475193
144	0x3da6d114	0.08145347
145	0xbd3144a9	-0.04327837
146	0xbd661638	-0.056173533
147	0x3d623be2	0.05523289
148	0xbdb6946f	-0.0891503
149	0x3de99366	0.11405067
150	0xbd0e0f73	-0.034682702
151	0xbcbcceb4	-0.023047782
152	0x3c475cb8	0.012168102
153	0x3c1ec22b	0.009689848
154	0x3d8671bd	0.065646626
155	0x3b9f335d	0.004858418
156	0xbde8fdb1	-0.11376513
157	0xbe01d487	-0.12678729
158	0xbd85ab6d	-0.065268375
159	0x3d70856a	0.058720984
160	0xbdc9e4bc	-0.09858081
161	0x3e17663e	0.14785096
162	0xbdb7ea99	-0.08980293
163	0xbe0054e1	-0.12532379
164	0xbbd5d922	-0.0065261284
165	0x3b2d2e33	0.0026425242
166	0xbc6448e0	-0.01393339
167	0xbd937df8	-0.07201761
168	0x3cb7ead0	0.022450835
169	0xbdf91500	-0.121622086
170	0xbcd19b1c	-0.025586657
171	0x3c928c26	0.017889094
172	0x3ce48343	0.027894622
173	0xbdc9a00d	-0.098449804
174	0xbd404743	-0.04694296
175	0xbda538e4	-0.08067492
176	0xbcab7bb2	-0.020933006
177	0xbb4432e0	-0.002993755
178	0x3d27e20d	0.040987063
179	0xbdeea171	-0.11651886
180	0xbd637514	-0.055531576
181	0x3b4830b6	0.0030546612
182	0x3da5e5a9	0.08100445
183	0xbc685b6b	-0.014181952
184	0x3d19da4e	0.037561707
185	0x3dbcde2b	0.09222063
186	0x3c171e65	0.009223555
187	0xbdd88c64	-0.105736524
188	0x3c927eeb	0.017882785
189	0xbd535414	-0.051593855
190	0xbdd07d5a	-0.10180159
191	0xbce232ec	-0.027612172
192	0x3d1412ee	0.036150865
193	0xbdd353e1	-0.10318733
194	0x3b29c77c	0.0025906255
195	0xbd6d60da	-0.057953693
196	0xb9a136a8	-0.00030749035
197	0x3cbeb914	0.023281612
198	0x3db2743e	0.08713578
199	0xbdf8358d	-0.12119589
200	0xbd92f156	-0.071749374
201	0xbcdf34ff	-0.02724695
202	0xbe04f6e8	-0.12984812
203	0xbcf4a80d	-0.02986529
204	0x3c8794fb	0.016550532
205	0x3d08e375	0.033420045
206	0x3daee012	0.08538832
207	0xbcbc2faa	-0.022971947
208	0xbdcf67be	-0.10127209
209	0x3c32060d	0.0108657
210	0xbe195e18	-0.149773
211	0x3c8767e9	0.01652904
212	0xbde6eaa6	-0.112752244
213	0x3d71ed9d	0.059064496
214	0xbcb9cc30	-0.022680372
215	0x3da6778c	0.081282705
216	0xbdccb604	-0.09995654
217	0x3d8aadd0	0.06771433
218	0xbcd0ab5c	-0.025472336
219	0xbe5cb566	-0.21553573
220	0xbb028e95	-0.0019921411
221	0xbdb3a261	-0.08771206
222	0xbd19a265	-0.037508387
223	0x3dafe74e	0.0858904
224	0xbdd657fe	-0.10466002
225	0xbdf3e191	-0.11908258
226	0xbdfb56f2	-0.12272443
227	0xbdf06cd7	-0.117395096
228	0x3cb657f7	0.022258742
229	0xbdef7281	-0.11691762
230	0xbdfa6e8c	-0.122281164
231	0xbd1e446f	-0.038639482
232	0x3be58cf7	0.0070053297
233	0xbd987162	-0.07443501
234	0xbd139dc4	-0.03603913
235	0xbd3a524c	-0.04548864
236	0x3db2df08	0.08733946
237	0xbdda43c1	-0.10657454
238	0x3d61e476	0.055149518
239	0x3d3139e4	0.0432681
240	0x3da02e3a	0.07821317
241	0xbdee2ab2	-0.11629237
242	0xbd7cf990	-0.06176144
243	0xbd7aa3ed	-0.061191488
244	0x3d109ffa	0.035308816
245	0xbbfb451a	-0.0076681497
246	0xbe2a71d4	-0.16644984
247	0x3c6eca30	0.014574572
248	0x3d852604	0.065013915
249	0xbd4d6722	-0.050147183
250	0xbc9aa80a	-0.018878955
251	0x3c3561d7	0.01107069
252	0x3d9db0ae	0.076997146
253	0xba697b1c	-0.00089065894
254	0xbdc4f497	-0.09616964
255	0xbc9e1d48	-0.019301072

nn_model.2.bias f4 [128]
0	0xbda9e2aa	-0.08295186
1	0x3d0f2c5c	0.034954414
2	0xbdf93af2	-0.12169446
3	0xbd4b0dc1	-0.049573664
4	0x3ddfb4c2	0.10923149
5	0xbd8e2c4d	-0.069420435
6	0xbc9e3ace	-0.01931515
7	0xbdd3d49c	-0.103432864
8	0xbd0fbc65	-0.035091776
9	0xbd099f25	-0.033599038
10	0x3e6cdf40	0.23132038
11	0x3d4af3f0	0.049549043
12	0xbde4ec82	-0.11177923
13	0xbdbf7f04	-0.09350398
14	0xbdb45fa7	-0.08807307
15	0x3d84c67b	0.0648317
16	0x3c9bbc7f	0.01901078
17	0x3be5738b	0.007002299
18	0xbcef65db	-0.029223373
19	0x3e76773f	0.24068926
20	0xbe8747ad	-0.26421872
21	0xbe0ace84	-0.13555342
22	0xbd4aa38d	-0.04947238
23	0xbdd85d4e	-0.105646715
24	0xbe21651a	-0.15761223
25	0xbe1a8d7b	-0.15093033
26	0xba55b4d2	-0.00081522495
27	0x3d83ec48	0.064415514
28	0xbe80b7f9	-0.2514036
29	0xbdd82b9e	-0.10555194
30	0xbd6e2032	-0.058136173
31	0x3dcc541b	0.09976979
32	0x3e2346cb	0.15944974
33	0xbc5a320a	-0.013317594
34	0x3ddb2a6b	0.1070145
35	0x3da5c318	0.08093852
36	0x3daa1663	0.08305051
37	0xbd5998d8	-0.05312428
38	0xbc3803cf	-0.011231377
39	0xbe0b4066	-0.13598785
40	0xbd496203	-0.049165737
41	0xbdfdb2ab	-0.12387594
42	0x3dd636e5	0.10459689
43	0x397213bc	0.0002308627
44	0x3d898294	0.06714359
45	0xbd23db94	-0.040004328
46	0xbda424b7	-0.08014815
47	0xbdda1cd9	-0.106500335
48	0x3e25719e	0.16156623
49	0x3d850862	0.064957395
50	0xbd3e2a06	-0.046426795
51	0x3e875438	0.2643144
52	0xbdcaa1dc	-0.098941535
53	0x3e05ce66	0.13067016
54	0x3deec57d	0.11658762
55	0x3d31ecf4	0.043438867
56	0x3e8ba79f	0.27276322
57	0x3da9e7ee	0.0829619
58	0x3d6c82f3	0.05774207
59	0xbebb28bb	-0.36554512
60	0xbdcab02b	-0.098968826
61	0xbd6ea775	-0.05826517
62	0xbd808d43	-0.062769435
63	0xbd96df87	-0.07366853
64	0x3e368114	0.17822677
65	0xbd5a99c6	-0.053369306
66	0x3d667577	0.056264367
67	0x3d431589	0.04762796
68	0x3e093a44	0.13401133
69	0xbd01ae06	-0.031660102
70	0xbdf51ce3	-0.119684
71	0xbe3b1615	-0.18270142
72	0x3dbebaa0	0.0931294
73	0xbdcb9201	-0.099399574
74	0x3dcac2af	0.09900414
75	0x3d9c92df	0.07645201
76	0x3c9508ca	0.018192668
77	0x3e838a68	0.25691533
78	0xbd05a7e9	-0.032630835
79	0x3d4a0d13	0.049328875
80	0xbd4e6010	-0.05038458
81	0xbd0d8890	-0.034554064
82	0xbccf170f	-0.02527955
83	0xbe0a5bba	-0.13511553
84	0x3d39654a	0.045262612
85	0xba364e1a	-0.0006954387
86	0x3d6372c5	0.055529375
87	0xbdbcd19b	-0.092196666
88	0x3d8abf59	0.06774778
89	0x3dbaf624	0.09128979
90	0x3c214ba5	0.009844695
91	0xbc99737c	-0.018731825
92	0x3d24136d	0.04005759
93	0xbe129237	-0.14313589
94	0xbe0ca9d8	-0.13736665
95	0x3d888a92	0.06667055
96	0xbd8b0998	-0.06788939
97	0xbcd3e7f8	-0.025867447
98	0xbd36a6d6	-0.0445927
99	0xbe08560a	-0.13314071
100	0x3cb95440	0.022623181
101	0xbd8710db	-0.06595012
102	0x3da0dad8	0.07854241
103	0x3ac5e5bc	0.0015098373
104	0xbd1aa7dd	-0.037757743
105	0x3d14375c	0.036185607
106	0xbead51db	-0.33851513
107	0xbdf73e1d	-0.12072394
108	0x3dd9c5a3	0.10633399
109	0xbc55d450	-0.0130511075
110	0x3e2e87b2	0.17043951
111	0xbd1ad0b3	-0.037796687
112	0x3d0e5e83	0.034758102
113	0xbe12a357	-0.14320122
114	0x3e41bbd3	0.18919306
115	0x3d626acd	0.055277634
116	0x3b7a1f02	0.0038165455
117	0xbdbfd102	-0.09366037
118	0x3df31f90	0.118712544
119	0xbc283d5f	-0.010268538
120	0xbca4b129	-0.020104008
121	0xbe764060	-0.24047995
122	0xbd4017e6	-0.04689779
123	0xbd2da24e	-0.042391114
124	0xbdbad832	-0.09123267
125	0x3d4b5766	0.049643897
126	0x3e283402	0.1642609
127	0xbdb3e254	-0.08783403

nn_model.4.weight f4 [128, 128]
0	0x3dfa324d	0.12216625
1	0xbcc6528e	-0.024209287
2	0xbdc768da	-0.09736796
3	0x3b600611	0.0034183303
4	0xbdb39c97	-0.087701015
5	0x3dbbf25e	0.09177087
6	0xbe169596	-0.147055
7	0x3c9bd2ee	0.019021478
8	0x3ba6e476	0.0050931526
9	0x3da04f95	0.07827679
10	0x3dcd1a41	0.10014773
11	0xbd04aabd	-0.03238939
12	0xbda3dbfb	-0.08000942
13	0x3cce27cc	0.025165461
14	0x3ca93e30	0.020659536
15	0x3dca1b26	0.098684594
16	0x3dc73c7e	0.09728335
17	0xbd108a49	-0.03528813
18	0xbde409b9	-0.11134667
19	0x3e2eae34	0.1705864
20	0xbe6d5ff1	-0.2318113
21	0x3beaff60	0.0071715564
22	0x3d32801d	0.04357921
23	0x3e3995ca	0.18123546
24	0xbdf48d1a	-0.119409755
25	0xbcef9777	-0.029247029
26	0x3c73f02f	0.014888807
27	0xbd256b66	-0.040385626
28	0x3c673778	0.014112346
29	0x3d0a7324	0.033801213
30	0xbc3335c1	-0.010938109
31	0xbce239fe	-0.027615543
32	0xbe45cf89	-0.1931745
33	0x3d0fc570	0.0351004
34	0xbda3965a	-0.07987662
35	0xbcd1ad06	-0.0255952
36	0x3d413cdf	0.04717719
37	0xbcc933fd	-0.024560923
38	0x3d6815a9	0.05666128
39	0x3e043a6d	0.12912913
40	0xb8f72b0e	-0.000117858974
41	0x3dbcbcc4	0.09215692
42	0xbdf43b1a	-0.11925335
43	0x3dc87db4	0.09789601
44	0xbdab69ad	-0.083697654
45	0x3d9c31dc	0.076266974
46	0xbe43d0f4	-0.19122678
47	0x3c524c98	0.012835644
48	0xbd3147a4	-0.043281212
49	0x3c5e9250	0.013584688
50	0x3d9808cd	0.074235536
51	0x3dedcc9f	0.11611294
52	0x3dd2d048	0.10293633
53	0xbd994ba6	-0.07485132
54	0xbd7def2a	-0.061995663
55	0xbd4daed9	-0.050215576
56	0xbf6fc0a1	-0.93653303
57	0x3e0ed212	0.13947323
58	0x3bb81ac7	0.0056184265
59	0x3dab9405	0.08377842
60	0xbeaad11b	-0.3336266
61	0x3d436d72	0.047711797
62	0xbd6b2c81	-0.05741549
63	0x3d6f09ad	0.058358837
64	0x3ca1ecfe	0.019766327
65	0x3e069781	0.13143732
66	0x3d7f0147	0.062257078
67	0x3dad2d8d	0.08455954
68	0x3daa67c9	0.08320577
69	0xbe53977c	-0.20663255
70	0x3e8cd958	0.2750957
71	0xbe6f5112	-0.2337077
72	0xbbbfa2e1	-0.005848274
73	0xbd68b1f1	-0.056810323
74	0xbca4ccfa	-0.020117272
75	0x3c2109b3	0.009828973
76	0x3d8f92c2	0.07010414
77	0xbdb18370	-0.08667648
78	0x3e11e19a	0.14246216
79	0xbe031e6f	-0.12804578
80	0x3ca2bc41	0.019865157
81	0x3c46349b	0.012097503
82	0xbde2a679	-0.110669084
83	0x3d07ccb4	0.033154204
84	0xbce474c2	-0.027887706
85	0xbc9d2245	-0.01918138
86	0x3ce742cd	0.028230095
87	0x3c9f252a	0.0194269
88	0x3db32a94	0.087483555
89	0x3dfda1a5	0.12384347
90	0xbd92e575	-0.07172672
91	0xbcc78406	-0.024354946
92	0xbd205277	-0.039141145
93	0xbe083c62	-0.13304284
94	0x3d85c1f7	0.065311365
95	0xbd1c10cf	-0.038101967
96	0xbc42100f	-0.011844649
97	0xbc0f89f1	-0.008760915
98	0xbdd5e4e6	-0.104440495
99	0xbdfaeb77	-0.122519426
100	0x3e3321ce	0.17493364
101	0xbc1a72e2	-0.009426804
102	0xbe3680e7	-0.1782261
103	0xbdc95403	-0.09830477
104	0x3d858fc6	0.06521563
105	0x3ec8b784	0.3920251
106	0xbe9801bf	-0.29688832
107	0xbbb2ce00	-0.005456686
108	0xbd9debab	-0.07710966
109	0x3cb7b4d2	0.022425089
110	0xbe0b6abb	-0.13614933
111	0x3db42769	0.087965794
112	0xbde6eaea	-0.11275275
113	0x3e0881d7	0.1333078
114	0x3d182707	0.037146594
115	0xbc8da37d	-0.017289871
116	0x3cdf0416	0.027223628
117	0xbcc0c166	-0.02352972
118	0xbd03a48b	-0.032139342
119	0x3da619aa	0.08110364
120	0xbb46637d	-0.0030271702
121	0xbe80ef8b	-0.25182757
122	0xbd3a71b1	-0.04551858
123	0x3de4c1a6	0.11169748
124	0xbca95b00	-0.020673275
125	0xbd1147d9	-0.03546891
126	0x3d47f64d	0.048818875
127	0xbd56ef29	-0.052474175
128	0x3e1200a1	0.14258052
129	0xbcb56a62	-0.022145454
130	0xbe07db68	-0.1326729
131	0x39b3afb3	0.00034272447
132	0xbdf4ef55	-0.119597115
133	0x3dec64b5	0.11542646
134	0xbd689fdd	-0.056793083
135	0x3d414a84	0.047190204
136	0x3cf5b1c8	0.029992
137	0xbc94cd48	-0.018164292
138	0xbd1d8bf9	-0.038463566
139	0xbca7bf9d	-0.02047711
140	0xbc930f1a	-0.017951537
141	0xbe00b724	-0.12569863
142	0xbe0066ec	-0.12539262
143	0xbd3a4a7c	-0.04548119
144	0x3bd44d6e	0.006478957
145	0x3ca6b60d	0.02035048
146	0x3d236786	0.03989365
147	0x39ef0f37	0.00045596968
148	0xbca43754	-0.020045914
149	0x3be03442	0.006842167
150	0xbc097cec	-0.0083916
151	0xbdf0775c	-0.11741516
152	0x3d10af6c	0.035323545
153	0x3a03d9b0	0.00050296914
154	0xbd5c53a5	-0.053790707
155	0xbd871bf9	-0.06597132
156	0x3c80bc25	0.015714714
157	0xbd064eb3	-0.032789897
158	0x3cd00a4f	0.02539554
159	0xbe14f444	-0.14546305
160	0xbc1ea8fe	-0.009683846
161	0xbc393238	-0.011303477
162	0x3d6733df	0.056445953
163	0xbeaa2264	-0.33229363
164	0xbc97cb75	-0.018529633
165	0x3c2471da	0.01003691
166	0x3d9629f7	0.07332223
167	0x3e0226c5	0.12710102
168	0xbe04b220	-0.12958574
169	0x3d9c0c51	0.07619537
170	0xbd9c6646	-0.076366946
171	0x3d24c054	0.04022248
172	0xbd3375f5	-0.043813664
173	0x3db58076	0.088623926
174	0xbe382668	-0.17983401
175	0xbd83f351	-0.06442893
176	0xbcaf1e28	-0.021376684
177	0xbd967e85	-0.073483504
178	0x3cd92d0a	0.026510734
179	0xbd8b5bb9	-0.06804604
180	0x3dc9077c	0.09815881
181	0x3d038dbb	0.032117587
182	0xbdf7b25b	-0.120945655
183	0x3d105f4c	0.035247132
184	0x3db551a4	0.08853462
185	0x3c3b33d5	0.011425932
186	0xbe0edf28	-0.13952315
187	0x3daf5f81	0.08563138
188	0x3e03a16d	0.12854548
189	0x3d79ffbf	0.061034914
190	0xbdb07ef9	-0.08617968
191	0xbda1ce28	-0.07900649
192	0x3cc1eb27	0.0236717
193	0xbd1671f6	-0.036729775
194	0xbc9a7fea	-0.018859822
195	0x3d886bee	0.06661211
196	0xbcd0699a	-0.02544098
197	0x3e76cf13	0.2410243
198	0x3d377dcf	0.044797715
199	0x3e3138de	0.1730685
200	0xbc226be8	-0.009913422
201	0xbdd66861	-0.104691274
202	0x3d4fce86	0.050734065
203	0xbe0a26dc	-0.13491386
204	0x3d8fcf8d	0.07022009
205	0x3c74a6dc	0.0149323605
206	0xbdb4bbca	-0.088248804
207	0xbd8703e9	-0.06592543
208	0x3d78cc65	0.0607418
209	0x3c90821d	0.017640168
210	0x3e449dc5	0.1920081
211	0x3da73b6d	0.081656314
212	0xbe64a3cd	-0.2232811
213	0x3c2252e7	0.009907461
214	0xbd7ae160	-0.06125009
215	0x3869791e	5.5664328e-05
216	0xbd904f11	-0.07046331
217	0x3d4263d8	0.0474585
218	0xbc5ff4e2	-0.013669224
219	0x3d75712d	0.059922386
220	0xbd632ca3	-0.05546249
221	0xbe0de334	-0.13856202
222	0x3e034423	0.12818961
223	0xbe69427b	-0.22779267
224	0xbccf3c49	-0.0252973
225	0x3ba5849a	0.0050512077
226	0x3c36cddf	0.011157482
227	0xbcc34213	-0.023835218
228	0xbe492ab8	-0.19645202
229	0xb88e40b4	-6.7831395e-05
230	0x3d09dcbe	0.03365778
231	0xbe4185ea	-0.1889874
232	0x3db534a0	0.08847928
233	0xbdf45c7e	-0.11931704
234	0x3d99f6e7	0.07517796
235	0x3c66569d	0.014058736
236	0xbe14174d	-0.14462014
237	0x3d74b92f	0.059746917
238	0xb9caef8b	-0.00038706916
239	0x3c901569	0.017588334
240	0xbe0efbe4	-0.13963276
241	0x3e179025	0.1480108
242	0xbd12e131	-0.03585929
243	0xbd98a78a	-0.074538305
244	0xbcf6b6a9	-0.030116396
245	0x3de2867c	0.11060807
246	0xbc9e5330	-0.019326776
247	0xbcfb0e39	-0.03064643
248	0xbed678c3	-0.4188901
249	0xbc2da122	-0.010597499
250	0x3e74f6d1	0.23922278
251	0x3bc6dbe1	0.006068692
252	0x3d10ff60	0.035399795
253	0xbdd0f9d6	-0.102039024
254	0xbc1f877c	-0.009736892
255	0xbb653200	-0.003497243

nn_model.4.bias f4 [128]
0	0x3ecc7353	0.39931735
1	0x3e01a6c1	0.12661268
2	0x3e0a9213	0.13532285
3	0xbc126ca8	-0.0089370385
4	0xbbf6275d	-0.0075120167
5	0xbda694ad	-0.081338264
6	0xbd8feb03	-0.07027247
7	0x3d796583	0.060887825
8	0xbdaf977f	-0.085738175
9	0x3e40917a	0.18805495
10	0xbdb4e0b0	-0.08831918
11	0x3d54b285	0.051928062
12	0x3daf37d9	0.08555574
13	0xbe212a89	-0.15738882
14	0xbe0d13e8	-0.13777125
15	0xbe806ab6	-0.25081414
16	0x3ebdb557	0.37052414
17	0xb7a42cde	-1.9571216e-05
18	0xbd39be6d	-0.04534762
19	0xbdd7d404	-0.10538486
20	0x3d92b44d	0.07163296
21	0xbd00be7a	-0.031431653
22	0xbe0537f6	-0.13009629
23	0xbdb0dcc1	-0.086358555
24	0xbdd61a05	-0.104541816
25	0x3dcbdd2c	0.099542946
26	0x3efb60ed	0.49097386
27	0xbdbe134f	-0.092810266
28	0xbcc67b56	-0.024228733
29	0xbe960634	-0.29301608
30	0xbe0b5763	-0.13607554
31	0x3e127226	0.14301357
32	0xbcd8507e	-0.02640557
33	0x3e42bb93	0.19016866
34	0xbe286ff9	-0.16448964
35	0xbdf68e72	-0.12038888
36	0x3e8dc18c	0.27686727
37	0x3e2f3079	0.17108335
38	0xbe1983f6	-0.14991745
39	0xbd736966	-0.059426688
40	0x3e867cc6	0.2626707
41	0xbda2e0f7	-0.07953065
42	0x3e0281e0	0.12744856
43	0x3e653006	0.223816
44	0xbe45293e	-0.19254014
45	0x3e1fffce	0.15624925
46	0xbdb688a3	-0.0891278
47	0x3ebc69b7	0.36799404
48	0x3dc9e6bb	0.098584615
49	0xbe2c126f	-0.16803907
50	0x3e9e1ef0	0.30882978
51	0x3ea2b55a	0.31778985
52	0x3e57be8d	0.21068783
53	0x3ea33456	0.31875867
54	0xbd9a553e	-0.0753579
55	0x3e64ed5e	0.22356173
56	0xbd293572	-0.041310735
57	0x3ed56a8d	0.41682854
58	0xbd9b3570	-0.07578552
59	0x3e840954	0.25788367
60	0x3e7ef22a	0.24897066
61	0xbbff5270	-0.0077918097
62	0xbd3f72dc	-0.046740398
63	0x3dbeaa1d	0.0930979
64	0x3f125bd3	0.5717136
65	0x3e791135	0.2432297
66	0x3ecc964e	0.39958423
67	0x3e933b55	0.28756204
68	0x3cae622d	0.021287048
69	0x3eb9f6c4	0.3632108
70	0x3de19c02	0.11016084
71	0x3e62e815	0.22158845
72	0x3e9d30ea	0.3070138
73	0xbeb6e3e8	-0.35720754
74	0xbc836108	-0.016037479
75	0xbdc67a09	-0.09691245
76	0xbd8d5e0c	-0.06902704
77	0x3f267a5e	0.6503047
78	0xbe457701	-0.19283678
79	0xbd6c22bb	-0.05765031
80	0x3eaefdb1	0.34177926
81	0xbdbae0e1	-0.091249235
82	0x3e518072	0.20459154
83	0xbdd6efc0	-0.104949474
84	0xbeac7cc1	-0.3368893
85	0xbed6eb5e	-0.41976446
86	0x3ea7c15f	0.32764718
87	0xbec06d3c	-0.3758334
88	0xbe7d6742	-0.24746421
89	0xbd64f9fc	-0.055902466
90	0x3ee78ae8	0.45223165
91	0x3ed78f47	0.421015
92	0xbec15062	-0.3775664
93	0xbd5e4f43	-0.05427481
94	0xbd334f70	-0.04377693
95	0xbdf3f86f	-0.11912619
96	0xbd32d766	-0.04366245
97	0x3ece0961	0.4024153
98	0xbe735031	-0.2376106
99	0xbebc4e01	-0.36778262
100	0x3eaf7567	0.34269258
101	0xbce93fc3	-0.028472787
102	0x3e833aa1	0.25630668
103	0x3e07ae51	0.1325009
104	0xbeada95c	-0.33918273
105	0xbed5d85a	-0.41766626
106	0x3e54d37e	0.20783803
107	0xbe2c58b9	-0.1683072
108	0x3ea48878	0.32135367
109	0xbddd484f	-0.108048074
110	0x3e99bb45	0.30025688
111	0x3d5f83ec	0.05456917
112	0xbeb0a4ee	-0.3450083
113	0x3e927732	0.28606564
114	0x3e863997	0.26215813
115	0x3eafc16d	0.3432726
116	0xbe13d34b	-0.1443607
117	0x3e470e39	0.1943902
118	0x3eabfdd7	0.33592102
119	0x3eb84555	0.35990396
120	0xbdd33498	-0.10312766
121	0xbc0e4a2a	-0.008684674
122	0x3dfe300b	0.12411507
123	0xbdfcbb0b	-0.12340363
124	0xbe015131	-0.12628628
125	0xbd0ebd94	-0.034848765
126	0xbdf43a07	-0.1192513
127	0x3eb8bb0e	0.3608021

allocation_head.0.weight f4 [9, 128]
0	0x3d0ad995	0.03389891
1	0x3dacdc10	0.08440411
2	0xbde3ef53	-0.11129632
3	0xbba3a8df	-0.0049944962
4	0x3cd4558c	0.025919698
5	0x3dab88b7	0.08375686
6	0xbe2386d5	-0.15969403
7	0xbe0a6a5c	-0.13517135
8	0x3d55dab5	0.05221053
9	0x3c5b883e	0.013399182
10	0x3d278347	0.04089668
11	0x3cfb67f1	0.030689212
12	0xbe2a446c	-0.16627663
13	0xbd723dd9	-0.059141014
14	0x3cc1680b	0.023609182
15	0xbd688f6f	-0.056777414
16	0x3d6118bc	0.05495523
17	0x3de77543	0.11301663
18	0x390af593	0.00013252189
19	0x3c8b0372	0.016969416
20	0xb96494c6	-0.00021799197
21	0x3c5aa095	0.01334395
22	0x3d2b7a1e	0.041864507
23	0x3e013961	0.12619545
24	0x3d3ba146	0.0458081
25	0x3d24204b	0.04006986
26	0x3d81bc78	0.06334776
27	0xbcb3be3e	-0.0219413
28	0xbc8aa8df	-0.016926227
29	0xbda2b3c8	-0.07944447
30	0xbdc189ba	-0.094500974
31	0x3db5973e	0.08866738
32	0x3b351a4c	0.0027634082
33	0x3bf1c72e	0.0073784804
34	0xbe024808	-0.1272279
35	0xbda98920	-0.08278108
36	0xbd66e6fa	-0.05637262
37	0x3e15c5c7	0.14626227
38	0x3bb3577d	0.005473076
39	0xbc8d0610	-0.017214805
40	0x3cc9b9ac	0.024624668
41	0xbdd77d69	-0.10521967
42	0xbd65bcac	-0.056088135
43	0xbd22a2bf	-0.039705988
44	0xbe9499ae	-0.29023498
45	0xbd232b2f	-0.039836105
46	0x3ded2b76	0.11580555
47	0x3da7ed34	0.0819954
48	0xbd238bf1	-0.03992838
49	0x3e2611da	0.16217747
50	0x3cf268c9	0.029590981
51	0x3d795bac	0.06087844
52	0x3d7a5bdb	0.061122756
53	0x3c8dbc1f	0.017301617
54	0x3df45c84	0.119317085
55	0x3e5728ff	0.21011733
56	0xbd31c880	-0.043404102
57	0xbd0982bb	-0.03357194
58	0xba9f0873	-0.0012133255
59	0xbd196117	-0.037446108
60	0x3ddb2065	0.10699538
61	0xbcc88053	-0.024475252
62	0xbde63801	-0.11241151
63	0x3c3c2af6	0.011484852
64	0x3d3bf477	0.045887437
65	0xbbf2887d	-0.0074015246
66	0x3c2b4ef1	0.010455833
67	0x3c52fcff	0.012877702
68	0x3d826231	0.06366385
69	0x3dff1eea	0.12457068
70	0xbd940144	-0.07226804
71	0x3cb019b1	0.021496626
72	0x3d80bd61	0.06286121
73	0x3d181eaa	0.03713862
74	0x3e0bf755	0.13668568
75	0x3e0d5b80	0.13804436
76	0x3d9f03e9	0.07764418
77	0xbd7bfe1e	-0.061521642
78	0x3c888696	0.016665738
79	0xbdec0fe8	-0.115264714
80	0xbe26f6e7	-0.16305123
81	0x3c9863e9	0.018602328
82	0x3dbeebb3	0.093223
83	0xbe188301	-0.14893724
84	0xbe4a8dd6	-0.19780669
85	0xbe9eb48c	-0.3099712
86	0x3d1e9b1c	0.038722143
87	0xbdbc6318	-0.09198588
88	0x3dbf9e4b	0.09356364
89	0xbde634a9	-0.11240513
90	0x3d74a905	0.059731502
91	0x3e239640	0.15975285
92	0x3e31c70a	0.17361084
93	0xbcdd359c	-0.027003102
94	0xbc633195	-0.013866802
95	0xbd6ada76	-0.057337247
96	0x3dd560b6	0.10418837
97	0x3ba7e6a3	0.0051239296
98	0xbc706324	-0.0146720745
99	0xbe47ed35	-0.19524081
100	0x3e4c815f	0.19971226
101	0x3b748d2a	0.0037315586
102	0xbc338627	-0.010957277
103	0x3be74a9a	0.0070584537
104	0xbdac704d	-0.08419857
105	0xbad03c00	-0.0015887022
106	0xbcec0c6d	-0.028814519
107	0xbc0bb0d1	-0.008526043
108	0x3d16aec2	0.036787756
109	0xbd3f9ec7	-0.04678228
110	0xbda89623	-0.08231761
111	0xb9147aeb	-0.0001416017
112	0x3e816216	0.25270146
113	0x3d583211	0.052782122
114	0x3d97f796	0.0742027
115	0xbd28bfa4	-0.041198388
116	0xbcb43624	-0.021998473
117	0x3d5a28b0	0.05326146
118	0x3ce66f44	0.028129227
119	0x3db678f2	0.08909787
120	0x3dc20753	0.09474053
121	0xbc84becc	-0.01620426
122	0xbdab213b	-0.083559476
123	0x3d2b500e	0.041824393
124	0xbe042343	-0.12904076
125	0x3bfb2c41	0.0076651876
126	0xbcb54218	-0.022126243
127	0x3d3c78db	0.046013694
128	0xbc4cda9f	-0.012503295
129	0xbd250b95	-0.04029425
130	0xbda5c9bb	-0.08095118
131	0x3da1ac5c	0.07894203
132	0x3b1c467f	0.002384573
133	0x3d6367b4	0.05551882
134	0x3e628560	0.22121191
135	0xbe42d1a8	-0.1902529
136	0x3d8005e3	0.06251123
137	0x3b43dade	0.0029885094
138	0xbd4980fb	-0.04919527
139	0x3d4e45e1	0.05035961
140	0x3c25413d	0.010086355
141	0x3c6522f0	0.0139853805
142	0x3e136c33	0.14396743
143	0xbd881507	-0.06644636
144	0xbce5d9b3	-0.028057909
145	0x3c94938a	0.018136758
146	0x3df63f94	0.12023845
147	0x3d6004c5	0.05469205
148	0xbe258179	-0.16162671
149	0xbe02d9b7	-0.12778364
150	0xbcb9a8dd	-0.022663528
151	0xbc6e579e	-0.014547257
152	0x3d2c8cbc	0.042126402
153	0x3e54a769	0.20766987
154	0x3d0e5b36	0.034754954
155	0xbcce5c36	-0.025190454
156	0x3dc0c79b	0.09413072
157	0xbd8da63b	-0.069164716
158	0x3d296dfa	0.041364647
159	0xbc9eccff	-0.01938486
160	0x3d304028	0.043029934
161	0x3d1c71e8	0.038194567
162	0xbcb2326f	-0.021752564
163	0xbd9c4c88	-0.07631785
164	0x3db63ed1	0.088987
165	0xbc98bf78	-0.018645987
166	0xbd5ecd77	-0.054395165
167	0xbcdb33d2	-0.026758108
168	0xbdad6b80	-0.084677696
169	0xbd871dd6	-0.06597488
170	0x3cb4d3c5	0.022073636
171	0xbb3cf5f8	-0.0028833132
172	0xbeae1ed5	-0.34007898
173	0xbd09260f	-0.03348356
174	0xbca18cbf	-0.019720433
175	0x3d55bca9	0.052181873
176	0xbd212404	-0.039340988
177	0xbe532662	-0.2062011
178	0x3d468bf9	0.048473332
179	0x3bb0744e	0.0053849583
180	0x3c8c2f8e	0.01711252
181	0x3d844fd7	0.06460541
182	0x3dfc3ce6	0.12316303
183	0x3ea04bf9	0.31307963
184	0xbc8eb9cb	-0.017422577
185	0x3dbb964b	0.091595255
186	0x3d1eeb06	0.038798355
187	0xbd094487	-0.03351262
188	0xbd827199	-0.06369323
189	0xbc46c9a4	-0.012133036
190	0x3c25de19	0.010123753
191	0x3ca4140a	0.020029087
192	0xbce21ce1	-0.027601661
193	0xbc7a0bb6	-0.015261581
194	0xbd8e75c2	-0.06956054
195	0xbd9f0cda	-0.07766123
196	0xbded346a	-0.11582263
197	0x3d1d315b	0.038377147
198	0xbdce0733	-0.10059967
199	0x3b37a9ef	0.0028024872
200	0xbce9fe30	-0.028563589
201	0x3db7fa3c	0.08983275
202	0xbbe497da	-0.00697611
203	0xba24106b	-0.000625855
204	0x3c0f09af	0.008730336
205	0x3d875643	0.0660825
206	0xbddfb55c	-0.109232634
207	0x3e09d5a4	0.13460404
208	0x3e152bb5	0.14567454
209	0xbd47fd6f	-0.048825677
210	0x3c820ae2	0.01587433
211	0xbda0619a	-0.07831116
212	0xbeadeea0	-0.3397112
213	0xbe45371f	-0.19259308
214	0x3d58183f	0.052757498
215	0xbd379b08	-0.044825584
216	0xbe03d6bf	-0.12874888
217	0xbdd9dea1	-0.10638166
218	0x3dbe9d5f	0.0930736
219	0xbd41c907	-0.047310855
220	0xbe9a48ba	-0.3013361
221	0x3ce05582	0.027384523
222	0x3dd19667	0.10233765
223	0x3b2401c0	0.0025025457
224	0xbcf3ff2a	-0.029784758
225	0x3d29b4bc	0.041432127
226	0xbdf30b9b	-0.11867448
227	0x3dc3a0b7	0.09552138
228	0xbd2185a1	-0.03943408
229	0xbd813fef	-0.063110225
230	0xbc6a4e20	-0.014300853
231	0x3d9f7b85	0.07787231
232	0x3c34c930	0.011034295
233	0x3da22341	0.079168804
234	0x3d538d92	0.051648684
235	0x3b802257	0.0039103436
236	0x3cf9f9ba	0.030514587
237	0xbb1f2410	-0.002428297
238	0xbce1e5ea	-0.027575452
239	0xbd292869	-0.041298304
240	0x3eabe259	0.33571127
241	0x3d0a0596	0.033696733
242	0xbd4a655d	-0.049413074
243	0xbd763334	-0.060107425
244	0x3d3a62d2	0.0455044
245	0xbd270667	-0.04077759
246	0x3d548cf8	0.05189225
247	0x3bd1c229	0.0064013195
248	0x3d7af72b	0.061270874
249	0xbd15fb9e	-0.036616914
250	0xbe00bf61	-0.12573005
251	0x3c3f6770	0.011682376
252	0x3cee6a1d	0.029103333
253	0xbdafe792	-0.085890904
254	0xbd56f0b2	-0.05247564
255	0x3d0d43c1	0.034488443

allocation_head.0.bias f4 [9]
0	0xbbfe6429	-0.007763405
1	0x3c194b82	0.009356381
2	0x3dff6709	0.12470824
3	0xbd7fbcbd	-0.062435854
4	0x3ca49794	0.02009181
5	0x3d9f603f	0.07782029
6	0xbdcb274e	-0.09919606
7	0xbd1c5e6b	-0.03817598
8	0xbe148f05	-0.14507683

payment_head.0.weight f4 [2, 128]
0	0x3eabcb9e	0.33553785
1	0xbab181f6	-0.001354276
2	0x3ecfa17b	0.40552887
3	0x3dc61ca1	0.09673429
4	0xbb940ff5	-0.004518504
5	0x3d982d49	0.074305125
6	0x3e208c40	0.15678501
7	0xbd4b21aa	-0.04959265
8	0xbde22fab	-0.11044248
9	0xbd0b9f89	-0.03408769
10	0x3e759f88	0.23986638
11	0xbda8d1de	-0.08243154
12	0x3ea80e91	0.32823613
13	0xbcdf6446	-0.027269494
14	0x3d7c20c4	0.061554685
15	0x3d2b0eef	0.04176229
16	0x3e9d7d71	0.30759767
17	0x3d1ed666	0.038778685
18	0x3bd3ab23	0.00645961
19	0xbd8ec863	-0.069718145
20	0xbeb6eb8a	-0.35726577
21	0x3e05fd0b	0.1308481
22	0xbcd4db93	-0.025983607
23	0xbdee68a4	-0.11641052
24	0xbe071d4e	-0.13194773
25	0xbeb8a44f	-0.36062858
26	0x3e426f1e	0.189877
27	0x3c91a9d4	0.017781176
28	0xbc2f2606	-0.010690218
29	0xbb7af9e0	-0.003829591
30	0x3de538c0	0.11192465
31	0x3e9ad1cb	0.30238184
32	0x3e07a1fa	0.13245383
33	0x3eaef48b	0.34170946
34	0x3bf2ec31	0.00741341
35	0x3c1bc763	0.009507987
36	0xbe49b533	-0.19698028
37	0xbdaa30a7	-0.08310061
38	0xbd19b34b	-0.037524503
39	0x3dc772a0	0.0973866
40	0x3eb213fc	0.34780872
41	0x3e113a3b	0.1418237
42	0x3c5ade06	0.013358599
43	0xbd37e267	-0.04489365
44	0xbe15958f	-0.14607833
45	0x3ed1f6e3	0.41008672
46	0x3ccedc05	0.025251398
47	0x3cedf2f6	0.029046517
48	0x3e8f830c	0.28029668
49	0xbe51950f	-0.20467018
50	0x3ced81c5	0.028992543
51	0x3e92848f	0.2861676
52	0xbd6604c5	-0.056156892
53	0x3e88b374	0.26699412
54	0xbcddd4aa	-0.027078945
55	0xbd9854a0	-0.07438016
56	0x3dd1b892	0.10240282
57	0xbb799321	-0.003808208
58	0x3da7e0fc	0.08197209
59	0x3eb4b3df	0.3529348
60	0xbd922bb7	-0.07137244
61	0x3d291ef8	0.0412893
62	0x3d885ccc	0.066583246
63	0x3ea19740	0.31560707
64	0x3ea15bb4	0.31515276
65	0xbdce6c9b	-0.100793086
66	0x3ec418c0	0.38300133
67	0x3ed4f434	0.41592562
68	0xbea277a1	-0.31731895
69	0x3e041f50	0.1290257
70	0x3b49f59a	0.0030816556
71	0x3ec48019	0.3837898
72	0xbd803cf7	-0.06261628
73	0xbddaf240	-0.10690737
74	0xbc046808	-0.008081444
75	0x3dc28d52	0.09499611
76	0x3da30d01	0.07961465
77	0x3eeefe66	0.46678466
78	0xbd009a37	-0.03139707
79	0xbc5b4883	-0.013383987
80	0x3db742c4	0.089482814
81	0x3dbb955b	0.09159347
82	0xbe0e6085	-0.13904007
83	0x3c3014b4	0.0107471235
84	0xbea6a234	-0.32545626
85	0x3e635b84	0.22202879
86	0x3ed410bd	0.4141902
87	0xbe9522ae	-0.2912802
88	0xbe38646b	-0.18007056
89	0x3de2f59d	0.11082003
90	0x3e54db84	0.20786864
91	0x3e0837fb	0.13302605
92	0xbf193981	-0.5985337
93	0x3dd60e98	0.10452002
94	0x3defcb0e	0.117086515
95	0x3d8c4d45	0.068506755
96	0x3d51a974	0.051186994
97	0x3e8ece94	0.27891982
98	0x3e03453d	0.12819381
99	0x3e0e359b	0.13887636
100	0xbc542c9a	-0.012950087
101	0x3e050800	0.12991333
102	0x3ea7741b	0.3270577
103	0x3e862912	0.2620321
104	0xbd8f5408	-0.069984496
105	0xbcc5f147	-0.024162902
106	0x3e8ab204	0.2708894
107	0x3e010bd7	0.12602173
108	0x3e9baa7a	0.304035
109	0x3d465009	0.04841617
110	0x3d1ad1da	0.037797786
111	0xbe0a8597	-0.13527523
112	0x3e817138	0.25281692
113	0x3da4f8b3	0.08055248
114	0x3eb5ed5b	0.3553265
115	0x3ecf38f6	0.40473145
116	0xbd5af768	-0.0534586
117	0x3eac99c7	0.33711073
118	0x3eca6225	0.39528003
119	0x3e9ff609	0.31242397
120	0x3d47d892	0.048790522
121	0xbc98eb4a	-0.018666882
122	0x3e9d1ef7	0.30687687
123	0x39a30e05	0.00031100228
124	0xbdbc0096	-0.09179799
125	0x3d08d07e	0.03340196
126	0x3d977763	0.07395818
127	0x3e9791b5	0.29603353
128	0x3d3f620f	0.046724375
129	0x3e85f2b0	0.26161718
130	0x3d4c3af9	0.04986093
131	0x3d04725a	0.032335617
132	0x3d2cc394	0.042178705
133	0xbba942b9	-0.0051654247
134	0x3d9f9c99	0.077935405
135	0xbce19566	-0.027537059
136	0x3cb69ecc	0.022292517
137	0x3ec6adc7	0.38804457
138	0xbee6268e	-0.4495129
139	0x3e805490	0.25064516
140	0xbe7ada2e	-0.24497291
141	0x3d3a119a	0.045426942
142	0x3e06af12	0.13152722
143	0xbe44b257	-0.19208656
144	0x3e52cc49	0.20585741
145	0x3c944938	0.01810132
146	0xbb4916c7	-0.0030683742
147	0xbcca86c6	-0.024722468
148	0x3e9864da	0.29764444
149	0x3e1546a9	0.14577736
150	0x3d313775	0.04326578
151	0x3d668f7a	0.056289174
152	0xbb88e7d9	-0.004178029
153	0xbea53f82	-0.32275015
154	0x3ebd5694	0.36980116
155	0xbcddf53c	-0.027094476
156	0x3c2a4cbd	0.010394272
157	0xbd87397f	-0.066027634
158	0xbd203700	-0.039114952
159	0x3d9e5ca2	0.07732512
160	0x3d9b59c4	0.07585481
161	0xbd44b19b	-0.04802094
162	0x3e3422f3	0.17591457
163	0xbda9265e	-0.08259271
164	0x3e844df9	0.25840738
165	0x3d6562dd	0.056002486
166	0x3d0aaacd	0.033854295
167	0x3d188811	0.037239138
168	0xbe184883	-0.14871411
169	0x3d05f869	0.032707606
170	0x3efb3ad8	0.49068332
171	0x3e9f0b5a	0.31063348
172	0xbf161662	-0.58627903
173	0xbe03ba9e	-0.12864158
174	0x3cf40dcf	0.02979174
175	0x3e73dc97	0.23814617
176	0xbe5518d1	-0.20810248
177	0xbe117546	-0.14204893
178	0x3e945d1e	0.28977293
179	0x3e31ad10	0.17351174
180	0x3eb50eff	0.35363004
181	0x3e681feb	0.22668426
182	0x3e0c8acb	0.1372482
183	0x3e92866a	0.28618175
184	0x3d092862	0.033485778
185	0x3ed080b2	0.40723187
186	0xbc46a6fd	-0.012124774
187	0xbbbe4df0	-0.0058076307
188	0x3ea0d4af	0.31412265
189	0x3ca6b3f1	0.020349475
190	0x3e13c75f	0.14431523
191	0x3db2678f	0.087111585
192	0x3e83d13f	0.2574558
193	0x3eb9b063	0.36267385
194	0x3e47c297	0.19507824
195	0xbcaa64b7	-0.020799978
196	0x3d9be427	0.07611876
197	0x3e8b59b0	0.27216864
198	0x3e8c224b	0.27369913
199	0x3cffacc8	0.031210318
200	0x3f071b1f	0.5277576
201	0xbdaae5da	-0.08344622
202	0x3ddc9883	0.10771277
203	0x3db78b2b	0.08962091
204	0x3dda7cdb	0.106683455
205	0x3ea32258	0.3186214
206	0xbe231874	-0.15927297
207	0xbc20c33f	-0.009812175
208	0x3e753e43	0.23949532
209	0xbde1b00c	-0.110199064
210	0x3e8b7676	0.27238816
211	0xbe13ec9c	-0.14445728
212	0xbdbb7594	-0.091532856
213	0x3dfb4a0d	0.122699834
214	0x3d8b52bb	0.06802889
215	0xbdadc35e	-0.08484529
216	0x3db29d00	0.087213516
217	0x3c0935f4	0.00837468
218	0x3ed2d691	0.41179326
219	0x3e41433b	0.18873303
220	0xbea32250	-0.31862116
221	0x3d6218cb	0.055199426
222	0x3d427615	0.047475893
223	0x3ce25013	0.027626073
224	0x3e0af9b7	0.13571821
225	0x3e45f961	0.19333412
226	0x3cd05975	0.025433281
227	0xbbb7beeb	-0.005607476
228	0x3de09d83	0.10967543
229	0x3d495b56	0.04915937
230	0x3dc449f6	0.095844194
231	0x3e98db1e	0.29854673
232	0xbd9d6e0f	-0.07687008
233	0xbe2cea45	-0.16886242
234	0xbdd8b171	-0.10580719
235	0x3da1247d	0.07868288
236	0x3e98b11d	0.29822627
237	0x3dd15ce5	0.10222796
238	0xbce8f8c6	-0.028438937
239	0x3eaaaa71	0.3333316
240	0xbebbf95f	-0.36713693
241	0x3e94498b	0.2896236
242	0x3e5c2655	0.21498998
243	0xbd0533f3	-0.032520246
244	0x3bfb94e0	0.0076776594
245	0x3d5687c0	0.052375555
246	0xbcff06df	-0.031131206
247	0x3ea37087	0.3192179
248	0x3c3a44af	0.0113689145
249	0x3e3cdd35	0.18443759
250	0xbe687e3f	-0.22704409
251	0x3d7d8b9a	0.061900713
252	0x3df7b792	0.1209556
253	0x3e0c1acf	0.13682102
254	0xbd3fe1bf	-0.046846148
255	0x3ea2115f	0.31653878

payment_head.0.bias f4 [2]
0	0x3f2c4c85	0.6730426
1	0x3f1e9293	0.61942405
