model/2x3_sparsemax_in_linsigpmt_scratch_fast.pt (torch_old, 144461 bytes, 10 tensors)

nn_model.0.weight f4 [128, 6]
0	0xbed5862d	-0.4170393
1	0xbf11d7d8	-0.56969976
2	0xbf87167c	-1.0553737
3	0xbf972104	-1.180695
4	0xbf950280	-1.1641388
5	0xbfb34428	-1.4005175
6	0xb9eeb2fa	-0.00045528245
7	0xbbac3115	-0.0052548745
8	0xba927d8d	-0.0011176333
9	0xbbb4632a	-0.0055049853
10	0xbcdbb41c	-0.026819281
11	0xbd8320a9	-0.06402714
12	0xbd23249f	-0.039829846
13	0x3f548d7b	0.8302838
14	0xbbb98310	-0.005661376
15	0x3d46d902	0.0485468
16	0xbf029c2b	-0.51019543
17	0x3b65a550	0.003504116
18	0xbfc1fe37	-1.5155705
19	0xbfb6652a	-1.4249623
20	0xbdc33227	-0.0953105
21	0xbf531b6f	-0.82463735
22	0xbf269ea2	-0.65085804
23	0xbf37c99f	-0.71792024
24	0xbdbbd4d1	-0.09171451
25	0xbdb9c99e	-0.090716586
26	0xbdbef39c	-0.093238086
27	0x3d8b89a3	0.068133615
28	0x3daea270	0.08527076
29	0x3db23984	0.087023765
30	0xbeb19dcd	-0.34690705
31	0xbe832c69	-0.2561982
32	0x3f4bc436	0.7959627
33	0x3ec8183d	0.39080992
34	0x3e999572	0.2999683
35	0xbea8176e	-0.32830375
36	0xbf802bca	-1.0013363
37	0xbf426153	-0.75929755
38	0xbf3e8916	-0.74427927
39	0xbf4bf816	-0.79675424
40	0xbed5edd7	-0.4178302
41	0xbf55421e	-0.8330401
42	0x3d2e4704	0.042548195
43	0x3d259a42	0.040430315
44	0xbd3dc3c5	-0.04632928
45	0xbdb402f3	-0.08789625
46	0xbdeb03be	-0.11475323
47	0xbdbf238e	-0.093329534
48	0x3dbb5f46	0.09149031
49	0x3dca1570	0.0986737
50	0x3dc9c73c	0.09852454
51	0xbdc06abf	-0.0939536
52	0xbdaba7f3	-0.08381643
53	0xbd8fcb07	-0.07021146
54	0x3f6b43a2	0.91900074
55	0xbd5a8a68	-0.05335465
56	0xbcc10485	-0.023561725
57	0xbf04e926	-0.51918256
58	0x3da2a85a	0.07942267
59	0x3d991f0b	0.07476624
60	0x3e99ab74	0.3001362
61	0x3eb30a24	0.34968674
62	0xbf107df1	-0.5644217
63	0xbdb7cc53	-0.089745186
64	0xbe237224	-0.1596151
65	0x3f8388b2	1.0276091
66	0x3eef08b0	0.46686316
67	0xbd9a2066	-0.07525711
68	0xbe04e767	-0.12978898
69	0x3e135366	0.14387283
70	0x3dc1ce0f	0.09463131
71	0x3de7ae4e	0.11312543
72	0xbe67e9af	-0.22647737
73	0xbe3d7f9f	-0.18505715
74	0xbf809da5	-1.0048109
75	0xbfac4f28	-1.3461657
76	0xbe510475	-0.20411856
77	0xbf602601	-0.8755799
78	0x3c9ba548	0.01899971
79	0x3d478624	0.04871191
80	0x3d748ed2	0.059706517
81	0xbd61ab03	-0.05509473
82	0xbd921256	-0.071324036
83	0xbd90e6bf	-0.07075261
84	0xbf47c043	-0.78027743
85	0xbf4b90dc	-0.7951791
86	0xbf38e4b4	-0.72223973
87	0xbf4bac6a	-0.7955996
88	0xbec094c1	-0.3761349
89	0xbf3ba289	-0.73294884
90	0xbb0bbd73	-0.0021322637
91	0xbbfc6d73	-0.007703477
92	0xbccac88b	-0.02475383
93	0xbcd60f84	-0.026130445
94	0xbddbc3ea	-0.10730727
95	0x3cafe4d9	0.021471428
96	0xbe3609c1	-0.17777158
97	0xbe40f325	-0.18842752
98	0xbe8df631	-0.27726892
99	0x3e0f6780	0.14004326
100	0x3da3c68d	0.07996855
101	0x3e4de843	0.20108132
102	0xbe4dc4ec	-0.20094651
103	0xbddf9714	-0.10917488
104	0xbe3b5b70	-0.182966
105	0xbe3dac4d	-0.18522759
106	0x3eef0948	0.4668677
107	0xbe20a08d	-0.15686245
108	0xbdb0c8db	-0.0863206
109	0xbd9b6c6c	-0.07589039
110	0xbdaa4193	-0.083132885
111	0x3d88b967	0.06675988
112	0x3d904b23	0.07045581
113	0x3d581bd6	0.05276092
114	0xbf1d8a0f	-0.61538786
115	0xbf2ac910	-0.6671305
116	0xbf546bd5	-0.8297704
117	0xbf474787	-0.7784352
118	0xbee8973c	-0.45427883
119	0xbed45504	-0.41471112
120	0xbdfac052	-0.122437134
121	0x3ee8849b	0.4541367
122	0xbe16cf86	-0.14727601
123	0x3e11031d	0.14161344
124	0x3e2848fb	0.1643409
125	0x3e12e29c	0.14344257
126	0x3f172f05	0.5905612
127	0xbdacc834	-0.08436623
128	0xbddf450e	-0.10901843
129	0x3de748b8	0.11293167
130	0xbcaedb3d	-0.021344775
131	0xbc78834a	-0.0151680205
132	0xbd9c5857	-0.07634037
133	0x3f356407	0.70855755
134	0xbd8211b4	-0.06351033
135	0x3be6b6d6	0.0070408387
136	0x3d9d4d54	0.07680765
137	0x3b84a2ff	0.004047751
138	0xbf8f9968	-1.1218691
139	0xbf5b2486	-0.85602605
140	0xbf94b2d5	-1.1617075
141	0xbe9ac474	-0.30228007
142	0xbe9c43b7	-0.30520412
143	0xbf8f4146	-1.1191795
144	0xbf82694d	-1.0188385
145	0xbeaaffec	-0.33398378
146	0xbf5e0a41	-0.86734396
147	0xbf3077be	-0.6893271
148	0xbf6f4352	-0.934621
149	0xbf552c22	-0.83270466
150	0xbd8d3475	-0.06894771
151	0xbd8450eb	-0.064607464
152	0xbbaf4ce5	-0.0053497427
153	0x3cdbb60b	0.026820203
154	0x3cc9aa24	0.024617262
155	0xbc866f8f	-0.016410617
156	0xbf59be4c	-0.85055995
157	0xbeba81ce	-0.36427158
158	0xbf7a077c	-0.9766767
159	0xbf12fbbe	-0.5741538
160	0xbed93514	-0.42423308
161	0xbf354b1a	-0.7081772
162	0x3d83195d	0.06401322
163	0xbe5641e2	-0.2092357
164	0x3d954438	0.07288402
165	0xbd66804a	-0.05627469
166	0xbd8d1900	-0.06889534
167	0xbd3365ba	-0.043798186
168	0x3bd3e7e6	0.0064668534
169	0x3d023f87	0.031798866
170	0x3caf098b	0.021366855
171	0xbd81d63c	-0.0633969
172	0xbd548484	-0.05188419
173	0xbdaa69c0	-0.083209515
174	0x3dc5e308	0.096624434
175	0x3db11c49	0.08647973
176	0x3d955a82	0.072926536
177	0xbda07e38	-0.07836574
178	0xbdcbc68b	-0.099499784
179	0xbdc467f5	-0.09590141
180	0x3da2a089	0.07940776
181	0x3d3f4459	0.04669604
182	0x3f57aee3	0.8425123
183	0x3b4a255f	0.0030845029
184	0x3d140d95	0.036145765
185	0xbf05c7f1	-0.5225821
186	0xbf355d0f	-0.7084512
187	0xbf0db160	-0.5534878
188	0xbf267aa0	-0.6503086
189	0xbf65ace5	-0.8971694
190	0xbf0c7067	-0.5485901
191	0xbf280788	-0.6563649
192	0x3cc6ac10	0.024251968
193	0x3cba080a	0.022708911
194	0x3dfd0aa4	0.12355545
195	0xbe0f1192	-0.13971546
196	0xbe0bf3a6	-0.13667163
197	0x3f1f3205	0.621857
198	0xbd2923c2	-0.041293867
199	0xbc1bf4d1	-0.009518818
200	0x3c4316b2	0.011907266
201	0xbdb1b131	-0.08676375
202	0xbbc2e3c3	-0.0059475615
203	0xbde3012b	-0.11084207
204	0x3d83a7e1	0.06428505
205	0x3dac6ba8	0.08418971
206	0x3dab8b7c	0.08376214
207	0xbe8051fb	-0.25062546
208	0xbe886d17	-0.2664573
209	0xbe544d28	-0.20732558
210	0xbea0d02a	-0.31408817
211	0x3e9cdd8f	0.30637786
212	0x3eb474a1	0.3524523
213	0x3ef3a7a6	0.47588843
214	0xbdc02067	-0.0938118
215	0xbe1a1641	-0.15047552
216	0xbe38aa96	-0.18033823
217	0xbd2fbda7	-0.042905476
218	0xbd8bdce9	-0.06829245
219	0x3e2dc080	0.16967964
220	0x3e03596f	0.12827085
221	0x3e233d40	0.15941334
222	0xbf8befea	-1.0932591
223	0xbeee859c	-0.4658631
224	0xbf83a248	-1.0283899
225	0xbe5cb904	-0.21554953
226	0xbe7240a2	-0.23657468
227	0xbe8fbef0	-0.2807536
228	0xbed77f17	-0.4208915
229	0xbf4c6b30	-0.79851055
230	0xbf645b55	-0.8920186
231	0xbeda382e	-0.42620987
232	0xbf0078bb	-0.5018422
233	0xbf6c6457	-0.92340606
234	0x3c9775a1	0.018488707
235	0x3d7deef8	0.061995476
236	0x3d374208	0.044740707
237	0xbe0412f6	-0.12897858
238	0xbe23e9bd	-0.16007133
239	0xbe0c450f	-0.13698219
240	0xbede644c	-0.43435895
241	0xbf85e432	-1.0460265
242	0xbf766719	-0.96251065
243	0xbef366bd	-0.4753932
244	0xbea8d537	-0.3297517
245	0xbf588d6e	-0.84590805
246	0x3e1ed68b	0.15511529
247	0x3e25b7a1	0.1618333
248	0x3e2ba348	0.16761506
249	0xbe30b2c1	-0.17255689
250	0xbe21f57f	-0.15816306
251	0xbe2d67a9	-0.16934074
252	0x3db54b50	0.08852255
253	0x3dcb4e75	0.09927074
254	0xbe3f82b6	-0.18702206
255	0xbdafb73e	-0.085798725

nn_model.0.bias f4 [128]
0	0xbf45f198	-0.7732177
1	0x3dd1655b	0.1022441
2	0xbf238f47	-0.638905
3	0xbf640945	-0.89076644
4	0x3e459ef8	0.19298923
5	0xbf37d7ee	-0.7181386
6	0xbf86321c	-1.0484042
7	0x3e6eb3d4	0.23310786
8	0xbead254b	-0.33817515
9	0xbf3c5ce9	-0.7357927
10	0xbf67cef0	-0.90550137
11	0xbecee8a8	-0.40411878
12	0xbf6b3c62	-0.9188901
13	0x3dedf414	0.1161882
14	0xbf8f9591	-1.1217519
15	0x3e2297ed	0.15878268
16	0x3e96c15c	0.29444396
17	0xbf6317fa	-0.8870846
18	0x3e3cfa90	0.18454957
19	0xbf9d756e	-1.2301462
20	0xbedf2004	-0.43579113
21	0xbf00b7f8	-0.50280714
22	0xbf26f20f	-0.652131
23	0xbeff4946	-0.4986059
24	0xbf85ccca	-1.0453122
25	0x3dd01bdf	0.10161566
26	0xbf97d9c5	-1.1863333
27	0x3e529153	0.2056325
28	0x3e254a96	0.16141734
29	0x3e31f01f	0.17376755
30	0xbf20d112	-0.62819016
31	0xbf93673e	-1.1515882
32	0xbf0b37bf	-0.54381937
33	0x3e666b40	0.2250185
34	0xbf29c5a3	-0.66317195
35	0xbf4e536d	-0.8059605
36	0xbece292b	-0.40265784
37	0xbea6b4be	-0.3255977
38	0xbf97cfb4	-1.1860261
39	0x3ea96d47	0.33091184
40	0xbf9404c9	-1.156396
41	0xbe8e2afb	-0.27767166
42	0xbf316078	-0.69287825
43	0xbf812d60	-1.0091972
44	0xbf6d8dad	-0.92794305
45	0xbf76ad57	-0.96358246
46	0x3e107084	0.14105421
47	0xbf99072b	-1.1955312
48	0x3e3e1242	0.18561652
49	0x3e70080b	0.23440568
50	0x3e3f7840	0.18698215
51	0x3e8eda3a	0.2790087
52	0xbd4edeab	-0.05050532
53	0xbee82454	-0.45340216
54	0xbf91e8bc	-1.139915
55	0xbf91c006	-1.1386726
56	0xbf8f8e07	-1.1215218
57	0xbf0d4116	-0.5517744
58	0x3f00e543	0.50349826
59	0xbecb565f	-0.39714333
60	0xbed3c01b	-0.41357502
61	0x3e3c549d	0.18391652
62	0xbf1d005b	-0.6132867
63	0x3d352dda	0.04423318
64	0x3e76a1de	0.24085185
65	0xbf1e999d	-0.61953145
66	0x3e5c0848	0.21487534
67	0xbf32b656	-0.6980947
68	0xbf1483f0	-0.5801382
69	0x3e41e5da	0.18935338
70	0xbef5a9d9	-0.47981146
71	0xbf49598a	-0.7865225
72	0x3e1c7d51	0.1528218
73	0xbf3806ee	-0.71885574
74	0xbf83e5a9	-1.0304462
75	0x3de24022	0.110473886
76	0xbf3fdfcf	-0.7495088
77	0x3e87a0b6	0.264898
78	0xbf46197d	-0.7738264
79	0x3e104ca4	0.14091736
80	0x3dbd7b3d	0.092520215
81	0xbf03ed98	-0.51534414
82	0xbf6b14ae	-0.9182843
83	0x3d9735dc	0.0738332
84	0xbe2870d4	-0.1644929
85	0x3e157003	0.1459351
86	0x3df02c91	0.1172725
87	0x3e14ff9f	0.14550637
88	0xbecddf3b	-0.40209374
89	0xbf3457fc	-0.70446754
90	0xbf0fa2cd	-0.5610779
91	0xbf40211d	-0.75050527
92	0xbf3e0c46	-0.7423748
93	0x3d9ded8c	0.07711324
94	0xbf345b07	-0.70451397
95	0xbf4e6797	-0.80626816
96	0xbf73d150	-0.9524126
97	0xbec69a8a	-0.3878978
98	0xbf768ebd	-0.9631155
99	0xbf3727dd	-0.715452
100	0x3e2b4777	0.1672648
101	0xbf59b07d	-0.85034925
102	0xbf895c05	-1.0731207
103	0x3e5b010b	0.21387117
104	0xbea3e92d	-0.32013837
105	0x3ed294b1	0.41129068
106	0x3d93cb67	0.0721653
107	0xbf270c81	-0.65253454
108	0x3e711b19	0.23545493
109	0x3e7abd7c	0.24486345
110	0x3e4e0f06	0.20122918
111	0x3e8b42d5	0.27199426
112	0xbf93c42b	-1.1544241
113	0xbf168cd5	-0.5880864
114	0xbf595287	-0.8489155
115	0xbf1b9f81	-0.6079026
116	0x3e63bdb7	0.22240339
117	0xbf02864d	-0.50986177
118	0xbf9104be	-1.1329572
119	0x3ec6de07	0.38841268
120	0xbf3fb679	-0.74887806
121	0x3e046b38	0.12931526
122	0x3de0aff2	0.10971059
123	0x3dbe9a97	0.093068294
124	0x3dee8222	0.116459146
125	0xbf0b3b73	-0.5438759
126	0x3e0b28dd	0.13589807
127	0x3eb4351e	0.35196775

nn_model.2.weight f4 [128, 128]
0	0x3c0a1204	0.008427147
1	0xbf080692	-0.53135026
2	0xbed545c9	-0.41654804
3	0x3cf7be65	0.030242154
4	0xc00b9ec1	-2.1815646
5	0xbec510d7	-0.3848941
6	0x3d9e4a3b	0.07729002
7	0xbf529cdc	-0.822706
8	0xbdcfa52f	-0.10138928
9	0xbe253f8d	-0.16137524
10	0xbe8b0799	-0.27154234
11	0xbd89ec89	-0.067345686
12	0x3dad6124	0.08465794
13	0xbdd99079	-0.10623259
14	0x3cd2bd64	0.025725074
15	0xbf03a489	-0.51422936
16	0xbf99e295	-1.2022272
17	0xbdfab2a7	-0.122411065
18	0xbe34719f	-0.17621468
19	0xba35f400	-0.0006940961
20	0xbd930b41	-0.07179881
21	0xbe32982f	-0.17440866
22	0xbe1b15eb	-0.1514508
23	0xbca80f18	-0.02051501
24	0xbd6bfd6f	-0.05761474
25	0xbd9b609b	-0.075867854
26	0x3971bc5c	0.0002305372
27	0xbddb439a	-0.10706253
28	0xbcea75f6	-0.028620701
29	0xbe00ed3d	-0.12590499
30	0xbdd87397	-0.10568922
31	0x3c416500	0.011803865
32	0xbeafe963	-0.34357747
33	0xbee9f785	-0.45696655
34	0xbdfdad80	-0.12386608
35	0xbd96774d	-0.073469736
36	0xbdad09ff	-0.08449172
37	0xbdcd144f	-0.10013639
38	0xbda601b7	-0.08105796
39	0xbde085dd	-0.109630324
40	0xbda15614	-0.07877746
41	0xbd587eb1	-0.052855197
42	0xbd370a14	-0.044687346
43	0xbcc9c22c	-0.024628721
44	0xbca3cc0c	-0.019994758
45	0xbdc45cdd	-0.09588025
46	0xbeedef49	-0.46471623
47	0x3d913931	0.070909865
48	0xbe498911	-0.19681193
49	0xbe2f03b2	-0.17091253
50	0xbf488b10	-0.7833719
51	0xbe0ef9d0	-0.13962483
52	0xbde4babd	-0.1116843
53	0xbe44b9d6	-0.19211516
54	0xbc27e018	-0.010246299
55	0x3bbcb498	0.005758833
56	0xbd24931d	-0.04017936
57	0xbce5d6a8	-0.028056458
58	0xbe324aff	-0.17411421
59	0xbeaca991	-0.3372312
60	0xbdb07580	-0.08616161
61	0xc0219e80	-2.525299
62	0xbe247128	-0.1605879
63	0xbef7d29f	-0.4840288
64	0xbe394d72	-0.1809595
65	0xbd06a910	-0.032876074
66	0xbdc3ef55	-0.09567133
67	0xbeed26c0	-0.46318626
68	0xbcabe12a	-0.02098139
69	0xbd7f40d9	-0.062317703
70	0xbe95bfb6	-0.29247826
71	0xbe3e7c9e	-0.18602225
72	0xbe43915d	-0.1909842
73	0xbdf76188	-0.120791495
74	0xbd10f8b0	-0.035393417
75	0xbdc92980	-0.098223686
76	0xbf0b50a7	-0.5441994
77	0xbf9c3bc9	-1.2205745
78	0xbd98b196	-0.07455747
79	0xbf39360d	-0.723481
80	0xbe5f2652	-0.21791962
81	0xbdbdf26f	-0.09274756
82	0xbe10040b	-0.14064042
83	0xbe5176d0	-0.2045548
84	0xbe381d4d	-0.17979927
85	0xbd545661	-0.05184019
86	0xbf6fe908	-0.9371495
87	0xbe695951	-0.22787978
88	0xbd741f57	-0.0596002
89	0xbe1a1c79	-0.15049924
90	0xbdbf46d4	-0.09339681
91	0xb9c44d76	-0.00037441746
92	0xbe2b5f12	-0.16735485
93	0xbe94c89d	-0.29059306
94	0xbda3e4f7	-0.08002656
95	0xbe139ccb	-0.1441528
96	0xbbc72a84	-0.0060780663
97	0xbd95b777	-0.07310384
98	0xbe4f3662	-0.20235589
99	0xbdc28ee2	-0.09499909
100	0xc030a9e1	-2.7603686
101	0x3c8e7f93	0.017394817
102	0xbd35c66e	-0.04437869
103	0xbe851dc3	-0.2599927
104	0xbd9a6889	-0.0753947
105	0xbe0f9ba8	-0.14024222
106	0xbf27a8a8	-0.65491724
107	0xbe33e1cb	-0.17566602
108	0xbf46b2f3	-0.77616805
109	0xbd96dff9	-0.07366938
110	0xbeb72455	-0.35769907
111	0xbf5c62d0	-0.86088276
112	0xbb4bb0ce	-0.0031080726
113	0xbf01d560	-0.5071621
114	0xbe46128e	-0.19343016
115	0xbd4e6eb5	-0.050398547
116	0xbd9f40ff	-0.07776069
117	0xbdff5a59	-0.12468404
118	0x3dc828ec	0.0977343
119	0xbc9949b2	-0.018711898
120	0xbdf6303b	-0.12020918
121	0xbd8772ec	-0.066137165
122	0xbe060a86	-0.13089952
123	0xbfb30aee	-1.398771
124	0xbde541ca	-0.11194189
125	0xbd98b599	-0.07456512
126	0xbd8ef5ff	-0.06980514
127	0xbe077968	-0.13229907
128	0x3d2b2dab	0.0417916
129	0xbe494ce5	-0.19658239
130	0xc01580e7	-2.3359926
131	0x3d711f22	0.05886758
132	0xbed0d338	-0.40786147
133	0xbdb1c8d7	-0.08680885
134	0xbd337bf7	-0.043819394
135	0xc02c79d6	-2.6949363
136	0xbd8008d7	-0.06251686
137	0xbec0404e	-0.3754906
138	0xbd9e6b35	-0.07735292
139	0xbd39a7df	-0.04532611
140	0xbd422b97	-0.04740485
141	0xbdc3a8cd	-0.095536806
142	0xbc61ef50	-0.013789967
143	0xbda7c7ef	-0.08192431
144	0xbdc6ccc3	-0.09707024
145	0xbe355a7c	-0.17710298
146	0xbdc61b3b	-0.096731625
147	0x3d623be2	0.05523289
148	0xbdf27f81	-0.11840726
149	0xc1046583	-8.274783
150	0xbe2476ae	-0.16060898
151	0xbbebc501	-0.0071951156
152	0x3c45b2d1	0.012066559
153	0xbe22c075	-0.15893729
154	0x3d064f96	0.032790743
155	0xbcec95dd	-0.028880054
156	0xbe08886f	-0.13333295
157	0xbe1943de	-0.14967296
158	0xbd95513b	-0.07290884
159	0x3d70856a	0.058720984
160	0xbf6a45a9	-0.9151254
161	0xbe1c8597	-0.15285335
162	0xbdc33043	-0.095306896
163	0xbe081aba	-0.13291445
164	0xbd3ce251	-0.04611427
165	0xbdf5a8c8	-0.11995083
166	0xbc5d195a	-0.013494814
167	0xbd932897	-0.07185476
168	0x3caa58c5	0.020794282
169	0xbe242590	-0.16029954
170	0xbe790f63	-0.24322276
171	0xbcbe2c0b	-0.02321436
172	0x3d02d083	0.031937134
173	0xbdc2b317	-0.09506815
174	0xbe31e69a	-0.17373124
175	0xbda538e4	-0.08067492
176	0xbd8e03c5	-0.06934313
177	0xbd6451e3	-0.055742156
178	0xbd3fa020	-0.046783566
179	0xbdfa7a37	-0.12230342
180	0xbdc1cdc8	-0.09463078
181	0xbd1f4b27	-0.03889003
182	0x3da5e5a9	0.08100445
183	0x3d2c15a0	0.04201281
184	0x3d19da4e	0.037561707
185	0xbdb1a832	-0.08674659
186	0xbd5c5491	-0.053791586
187	0xbe4770a4	-0.19476563
188	0xbd3bc1f8	-0.04583928
189	0xc0159722	-2.3373494
190	0xbdcf63c1	-0.101264484
191	0xbdebf6ee	-0.115217075
192	0xbcdb3bc6	-0.0267619
193	0xbe124fcb	-0.14288251
194	0xbd32e7d5	-0.043678124
195	0xbfe9aef8	-1.8256521
196	0xbd0cb872	-0.03435559
197	0xbdabcc28	-0.08388549
198	0xbf6759ea	-0.9037157
199	0xbe049f95	-0.129515
200	0xbdfd4d42	-0.123682514
201	0xbd84d0fa	-0.064851716
202	0xbebd4d38	-0.36972976
203	0xbd92fc40	-0.07177019
204	0xbe1b45d3	-0.15163355
205	0xc04e296a	-3.2212777
206	0xbdd1657b	-0.10224434
207	0xbf01283f	-0.50452036
208	0xbe0c7d03	-0.13719563
209	0xbc83a6a2	-0.016070668
210	0xbea425cb	-0.32060084
211	0xbd369cb9	-0.044583056
212	0xbe19e5e0	-0.15029097
213	0xbea13eb1	-0.31493142
214	0xbeec3bfa	-0.46139508
215	0xbeaf2da1	-0.342145
216	0xbe15cb23	-0.14628272
217	0xbdab46ec	-0.08363137
218	0xbdbc1b7c	-0.0918493
219	0x3d86e200	0.06586075
220	0xbe0bfac9	-0.13669886
221	0xbe618e7d	-0.22027011
222	0xbca9b850	-0.02071777
223	0xbdedf054	-0.116181046
224	0xbe0b7a8b	-0.13620965
225	0xbdcaadc8	-0.098964274
226	0xbe49aec4	-0.19695574
227	0xbdbd2090	-0.092347264
228	0xc0116151	-2.2715647
229	0xbd9745d2	-0.07386364
230	0xbe1382c7	-0.14405356
231	0xbdb1c5aa	-0.086802796
232	0xbd28a4f6	-0.041172944
233	0xbdf0e4e2	-0.11762406
234	0xbdd41bd6	-0.10356872
235	0xbdaa5bfb	-0.08318325
236	0xbf9ba91b	-1.2160982
237	0xbddc6366	-0.10761146
238	0xbf1b3324	-0.6062491
239	0xbd512e28	-0.05106941
240	0x3b8751bf	0.004129618
241	0xbed9003e	-0.42382997
242	0xbd49b37f	-0.049243446
243	0xbdf2a93d	-0.11848686
244	0xbdec2eff	-0.11532401
245	0xc02590da	-2.586966
246	0x3d22db12	0.039759703
247	0xbcc3c9ef	-0.0239
248	0xbd84987b	-0.06474396
249	0xbdf72aa7	-0.12068682
250	0xbd821d96	-0.06353299
251	0xbf1406f8	-0.57823133
252	0xbdc437f3	-0.09580984
253	0xbee76f75	-0.45202222
254	0xbe022fea	-0.1271359
255	0xbdb7c1ab	-0.08972486

nn_model.2.bias f4 [128]
0	0xbe97fefb	-0.29686722
1	0xbe43f05a	-0.19134656
2	0xbd685452	-0.05672104
3	0xbebc23ca	-0.36746055
4	0x3e3a53a9	0.18195976
5	0xbeb8abc6	-0.36068553
6	0xbe47c20c	-0.19507617
7	0xbe7154f5	-0.23567565
8	0xbd919941	-0.07109309
9	0xbf45e4fb	-0.7730252
10	0x3e89ebac	0.26937616
11	0x3e2bfb09	0.16794981
12	0xbf6d5f1c	-0.9272325
13	0xbe038263	-0.12842707
14	0xbe9b52bd	-0.30336562
15	0xbd7fade8	-0.06242171
16	0xbed1de3d	-0.40989867
17	0xbed4c5d1	-0.41557172
18	0xbf4594d2	-0.77180207
19	0x3da27fb1	0.079345115
20	0xbf3af370	-0.73027706
21	0xbed4e5c4	-0.41581547
22	0xbe34047c	-0.17579836
23	0x3cec829e	0.028870877
24	0xbf677fcc	-0.9042938
25	0xbe87503f	-0.2642841
26	0xbe1c6279	-0.1527194
27	0x3e37d112	0.17950848
28	0xbeb818ec	-0.35956514
29	0x3d39158b	0.04518656
30	0xbf4fa1ea	-0.81106436
31	0x3dca23d0	0.09870112
32	0x3e2c9631	0.16854168
33	0xbe7a5007	-0.2444459
34	0x3d5fe63f	0.05466294
35	0xbf4e767d	-0.8064955
36	0xbd73c4e7	-0.059513953
37	0xbe409f2a	-0.18810716
38	0xbe5ea308	-0.21741879
39	0xbe8f66e4	-0.28008187
40	0xbe76fbbc	-0.24119467
41	0xbf40b4b3	-0.75275725
42	0xbd9af755	-0.07566706
43	0xbe2ef160	-0.17084265
44	0x3e08d876	0.13363823
45	0xbe62b25f	-0.22138356
46	0xbdc2523f	-0.094883434
47	0xbf62c903	-0.8858797
48	0xbd8c4131	-0.06848372
49	0xbe5147a5	-0.20437486
50	0xbc06b1c6	-0.008221095
51	0xbd4bcab5	-0.049753863
52	0xbe85128d	-0.25990716
53	0x3c253273	0.010082829
54	0x3e3af24b	0.1825649
55	0x3e4f7b7e	0.20261952
56	0xbe207f06	-0.15673456
57	0x3ddb9486	0.10721688
58	0xbf4e8580	-0.80672455
59	0xbf5deff0	-0.8669424
60	0xbf4464e5	-0.7671645
61	0x3dfd2fe9	0.12362654
62	0xbe816bc8	-0.25277543
63	0xbda8b213	-0.0823709
64	0x3da43398	0.08017653
65	0x3cc0acfc	0.023519985
66	0xbe13af03	-0.1442223
67	0xbe298233	-0.16553573
68	0x3d717161	0.058946017
69	0xbe8f652c	-0.28006876
70	0xbe0f5a1a	-0.13999215
71	0xbf437e76	-0.7636484
72	0x3de0eacf	0.10982286
73	0xbe61e31f	-0.22059296
74	0x3c05d82a	0.008169213
75	0xbe8b537f	-0.2721214
76	0xbe0c0e74	-0.13677388
77	0x3ebf9076	0.37414902
78	0x3dd74f96	0.10513227
79	0x3e6824d6	0.22670302
80	0xbf69c66e	-0.91318405
81	0xbebb3fa3	-0.36571988
82	0xbf50aaf3	-0.8151085
83	0xbeb33146	-0.3499853
84	0x3c64faa1	0.01397577
85	0xbe265b60	-0.16245794
86	0x3cab80c5	0.020935426
87	0xbe82c4e1	-0.25540832
88	0xbdbf9669	-0.0935486
89	0x3e2418a6	0.16025028
90	0x3d9d972c	0.07694849
91	0xbe91c6f9	-0.28472117
92	0x3d733b25	0.059382576
93	0xbeb16a23	-0.34651288
94	0xbebebb49	-0.37252262
95	0x3c65ae48	0.014018603
96	0xbf0ead8f	-0.5573358
97	0xbea97299	-0.33095244
98	0xbe97078f	-0.29497954
99	0x3e1a4774	0.1506632
100	0x3ce64465	0.028108785
101	0xbe918a85	-0.28425995
102	0x3e195e70	0.14977431
103	0x3de60f37	0.11233371
104	0xbe4f6c29	-0.20256104
105	0xbd0576e9	-0.032584105
106	0xbf47b24e	-0.78006446
107	0xbe8ce6ec	-0.2751993
108	0x3c4da869	0.012552359
109	0xbe4cdfb2	-0.20007208
110	0x3e670adf	0.2256274
111	0x3d842fbb	0.06454416
112	0x3dcfed0b	0.10152634
113	0xbeca649c	-0.39529884
114	0xbd7a4494	-0.061100557
115	0xbf5e7a5e	-0.8690547
116	0xbe9dd290	-0.3082471
117	0xbe3f5358	-0.18684137
118	0xbca0f4f5	-0.019648055
119	0xbf5121dc	-0.8169229
120	0xbc6ed555	-0.0145772295
121	0xbe44069a	-0.19143143
122	0xbea20aa2	-0.31648737
123	0xbe3dfc31	-0.18553235
124	0xbf65774d	-0.89635164
125	0x3dc30875	0.095230974
126	0xbd8c268d	-0.068432905
127	0xbf3fa123	-0.7485525

nn_model.4.weight f4 [128, 128]
0	0x3df9ebdb	0.12203189
1	0x3bd46410	0.006481655
2	0xbc8cb871	-0.017177792
3	0x3b7c41c5	0.003849135
4	0x3cdb3b61	0.026761713
5	0x3dba7af7	0.09105485
6	0xbe16914f	-0.14703868
7	0x3c9bd831	0.019023987
8	0x3b1a307e	0.0023527439
9	0x3d0ecd4f	0.034863766
10	0x3e490d18	0.19633901
11	0x39bd6174	0.00036121497
12	0xbccf2bc5	-0.025289426
13	0xbe5087bf	-0.20364283
14	0xbed637fa	-0.41839582
15	0x3e142d9d	0.14470525
16	0x3dc4ecd5	0.096154846
17	0xbd1151ac	-0.03547828
18	0xbdb8abb1	-0.090171225
19	0xbd8d4a6c	-0.068989605
20	0x3d1f579a	0.038901903
21	0x3beba8f9	0.007191774
22	0x3d373607	0.04472926
23	0x3da47f09	0.080320425
24	0x3ce4735c	0.027887039
25	0xbcf06897	-0.029346747
26	0x3d710664	0.058843985
27	0xbb3e06ef	-0.0028995832
28	0xbcad497b	-0.021153202
29	0x3dac2cc7	0.08406978
30	0x3b30fbd8	0.002700558
31	0xbb9448ed	-0.004525295
32	0xba3e11a6	-0.00072505546
33	0x3d0fe288	0.035128146
34	0x3a2cbfef	0.00065898796
35	0x3e164b7d	0.14677234
36	0x3dbd44fb	0.092416726
37	0xbcc91240	-0.024544835
38	0x3e03d325	0.12873514
39	0x3ded330f	0.11582004
40	0xb9086c7f	-0.00013010389
41	0x3d4756e8	0.048666865
42	0xbb027d78	-0.001991121
43	0x3dbe44d8	0.09290475
44	0xbbd73b6d	-0.0065683634
45	0x3d9c28d0	0.07624972
46	0xbcf5e4b5	-0.030016283
47	0xbcdcb022	-0.026939455
48	0x3bf012ed	0.007326475
49	0x3d38c57a	0.045110203
50	0x3baec1b7	0.005333151
51	0x3dbe0c57	0.092796974
52	0x3dce4bfe	0.10073088
53	0x3c8b7d07	0.017027391
54	0xbd196a08	-0.037454635
55	0x3d980a45	0.07423834
56	0xbe3c34e7	-0.18379556
57	0x3e0ed48a	0.13948265
58	0x3baaf741	0.0052174632
59	0x3d2ebc47	0.042660024
60	0x3cf3e182	0.029770616
61	0x3dce8274	0.10083476
62	0xbdb968a6	-0.09053163
63	0x3de752ae	0.11295067
64	0x3d85314b	0.065035425
65	0x3ddb419e	0.10705875
66	0xbafd72ab	-0.0019336542
67	0x3d2f1f50	0.04275447
68	0x3db07048	0.08615166
69	0x3cca3147	0.0246817
70	0xbd076bd0	-0.033061802
71	0xbc5ae223	-0.013359579
72	0x3dc2ef84	0.0951834
73	0x3d176a35	0.03696652
74	0x3db83df8	0.089961946
75	0xbdb581e1	-0.08862663
76	0x3d905bb2	0.070487395
77	0x3d9d6248	0.07684761
78	0x3d878d51	0.06618751
79	0x3a32fc5c	0.00068277656
80	0x3cab1a1c	0.020886473
81	0x3c47928f	0.012180938
82	0xbcfeb0e5	-0.03109021
83	0x3d07e0ac	0.03317325
84	0xbdad9d1d	-0.084772326
85	0xbc289cb0	-0.010291263
86	0x3ce3e28b	0.027817985
87	0xbd2cdde5	-0.042203803
88	0x3c82bfbe	0.01596057
89	0xbccbff41	-0.024901988
90	0xbc013376	-0.007885804
91	0xbcc72326	-0.024308752
92	0xbcb62e81	-0.022238972
93	0xbe083ac2	-0.13303664
94	0x3d8b5817	0.06803911
95	0xbe39bd97	-0.18138729
96	0xbc453d51	-0.012038545
97	0xbc0fa4ce	-0.00876732
98	0xbdd5dfad	-0.104430534
99	0x3bc95d7a	0.0061451765
100	0x3b710683	0.0036777563
101	0xbc1a2d9c	-0.009410288
102	0xbd33c675	-0.043890435
103	0xbda5088e	-0.08058272
104	0x3d849bef	0.064750545
105	0x3a198b25	0.0005857221
106	0xbc7d895b	-0.015474643
107	0xbbb2cca0	-0.005456522
108	0x3ded5d61	0.11590076
109	0x3cbba40f	0.022905378
110	0x3e54e17b	0.20789139
111	0xbd74f3ce	-0.059802823
112	0xbcf80f1a	-0.030280638
113	0x3e087af8	0.13328159
114	0x36a06f8a	4.7813564e-06
115	0xbc8ad273	-0.016946053
116	0x3d301dbb	0.042997103
117	0xbcc103f4	-0.023561455
118	0x3e018f35	0.12652285
119	0x3acbfed5	0.0015563617
120	0xbcd94eec	-0.02652689
121	0x3d85a1aa	0.065249756
122	0x3e2a5436	0.16633686
123	0x3de4decf	0.1117531
124	0x3cad2de0	0.021140039
125	0x3e85ac16	0.26107854
126	0x3e2993bf	0.16560267
127	0xbcdca427	-0.026933743
128	0x3e0fff59	0.14062251
129	0x3d990129	0.074709244
130	0xbdbc4e91	-0.09194673
131	0x3aa6b232	0.0012717901
132	0x3d48c65e	0.049017303
133	0x3debfb5e	0.11522554
134	0xbd66d68a	-0.056356944
135	0x3d414af8	0.047190636
136	0xbed8e8a1	-0.42364982
137	0x3d153771	0.036429826
138	0x3e6a8a02	0.22904208
139	0x3dc6e842	0.097122684
140	0x3ced5431	0.02897081
141	0xbecd363d	-0.40080443
142	0xbed69674	-0.41911662
143	0xbd2cf4db	-0.0422257
144	0x3bc99af9	0.0061525074
145	0x3ca547b5	0.020175794
146	0x3ce92d9f	0.028464137
147	0x3d58f3cf	0.05296689
148	0x3ce452ec	0.027871571
149	0x3be70579	0.007050213
150	0xbc33cc61	-0.010974021
151	0xbdd93977	-0.10606664
152	0x3c4f1339	0.01263886
153	0xba7e5cc3	-0.00097031536
154	0xbd297041	-0.04136682
155	0xbd046ee7	-0.032332327
156	0x3d6d73e4	0.05797185
157	0x3cf44d4a	0.02982201
158	0xbc8a7214	-0.0169001
159	0xbbc1c4ac	-0.0059133377
160	0x3d07f4fb	0.033192616
161	0xbc39e080	-0.011345029
162	0x3d35da46	0.044397615
163	0x3adb1427	0.001671438
164	0x3d6c5a0f	0.057703074
165	0x3c263114	0.010143537
166	0x3deb3b0a	0.1148587
167	0x3dff6c0b	0.124717794
168	0xbe04ab50	-0.12955976
169	0x3d13d17b	0.036088448
170	0x3abfc97c	0.001463219
171	0x3d0e2c47	0.034710195
172	0xbc9bfadb	-0.019040516
173	0x3db57511	0.08860219
174	0xbd14e714	-0.036353186
175	0x3c16f8d1	0.009214596
176	0x3d266dce	0.04063206
177	0xbd398c73	-0.04529996
178	0x3cdd43a6	0.027009796
179	0x3dd91191	0.10599054
180	0x3dc49e00	0.096004486
181	0x3debea4e	0.115192994
182	0x3d8ea8d6	0.06965797
183	0x3e05b244	0.13056284
184	0xbdb58a04	-0.08864215
185	0x3dc000a0	0.09375119
186	0xbe0d9847	-0.1382762
187	0x3d1b8193	0.03796537
188	0xbbf253ff	-0.007395267
189	0x3dae231a	0.08502789
190	0x3cf1b736	0.029506307
191	0xbd7be841	-0.06150079
192	0x3e4f9e9d	0.2027535
193	0xbc82e9d6	-0.015980642
194	0x3d64d9b0	0.055871665
195	0x3df0d62e	0.117596015
196	0x3d9df73b	0.07713171
197	0x3bb6ab3d	0.0055746124
198	0x3da56161	0.08075214
199	0xbca6fe2a	-0.020384867
200	0x3d40426f	0.046938356
201	0x3d1963f4	0.03744884
202	0x3d04de58	0.032438606
203	0x3bfbf999	0.0076896665
204	0x3d8ff6b5	0.070294775
205	0x3e9940a0	0.29932117
206	0xbd80e75b	-0.062941276
207	0xbd8252ed	-0.06363473
208	0x3c29a39c	0.010353949
209	0x3c8f9a40	0.017529607
210	0x3d2b4660	0.04181516
211	0x3da7372b	0.08164819
212	0xbedecc8a	-0.43515426
213	0x3ddd5d1d	0.108087756
214	0x3de94734	0.11390534
215	0xbe0d10df	-0.13775967
216	0x3ca45d0a	0.020063896
217	0x3dcafbe5	0.09911326
218	0x3d3791b1	0.044816677
219	0x3d750f28	0.059828907
220	0x3d7e8182	0.062135227
221	0xbe0dd305	-0.13850029
222	0x3e0417af	0.1289966
223	0xbceeaa7b	-0.029134026
224	0xbccec121	-0.025238575
225	0x3ba54290	0.0050433353
226	0x3c355ed4	0.011069972
227	0xbd49766a	-0.049185194
228	0xbd904070	-0.070435405
229	0x38934f51	7.02428e-05
230	0x3e2a2e60	0.16619253
231	0x3e085e82	0.13317302
232	0x3db360c6	0.087586924
233	0xbd8b700d	-0.06808481
234	0x3d28be72	0.041197248
235	0x3c6683a6	0.014069473
236	0x3e2c7f82	0.16845515
237	0x3d74ab1e	0.059733503
238	0x3de62104	0.11236766
239	0xbcebfbf4	-0.028806664
240	0xbd559e05	-0.052152652
241	0x3e178cbf	0.14799784
242	0x3daccf3d	0.08437965
243	0x3cb9c26d	0.022675717
244	0x3bf60568	0.0075079687
245	0x3de27e90	0.11059296
246	0x3e488703	0.19582753
247	0xbc8fa1bd	-0.017533178
248	0xbe25ece6	-0.16203651
249	0xbc2b987d	-0.010473368
250	0xbc304ead	-0.010760945
251	0x3bc7f3db	0.006102068
252	0xbba8708e	-0.0051403707
253	0x3e2f58ba	0.1712369
254	0x3e156067	0.14587556
255	0x3baa0ac7	0.005189273

nn_model.4.bias f4 [128]
0	0x3ed37dbb	0.41306862
1	0x3f0764fa	0.52888453
2	0x3e289baf	0.16465639
3	0xbeac662f	-0.3367171
4	0xbe85e82d	-0.261537
5	0xbe948f78	-0.29015708
6	0xbf813c7b	-1.0096582
7	0x3eb294da	0.3487919
8	0xbea18f75	-0.31554762
9	0x3e29ec85	0.16594131
10	0xbf8738dc	-1.0564227
11	0xbd0f8109	-0.035035167
12	0x3e0809e8	0.13285029
13	0xbf859e5c	-1.0438952
14	0xbf173f48	-0.59080935
15	0xbeabc965	-0.3355209
16	0x3ec209a0	0.37897968
17	0xbecfba0b	-0.40571627
18	0xbeaad042	-0.33362013
19	0xbf67e5ab	-0.9058482
20	0x3e892736	0.26787728
21	0xbec5ac17	-0.38607857
22	0xbe9dc98d	-0.30817834
23	0xbec9031a	-0.3926018
24	0xbea0e6d7	-0.31426117
25	0x3e6297ad	0.22128172
26	0x3e4c76b8	0.19967163
27	0xbe90799d	-0.28217784
28	0xbf030e87	-0.5119404
29	0xbf8104e8	-1.0079622
30	0xbea1c465	-0.3159515
31	0x3edaee9a	0.42760164
32	0xbe806473	-0.25076637
33	0x3eb4784b	0.35248026
34	0xbee0ef4a	-0.43932563
35	0xbf82bc9b	-1.0213808
36	0x3e857680	0.2606697
37	0x3e22d7a4	0.15902573
38	0xbf838673	-1.0275406
39	0xbeaacefe	-0.33361048
40	0x3e61e38c	0.22059458
41	0xbf1d336f	-0.61406606
42	0x3e1d9c27	0.15391599
43	0x3dd9e3a2	0.10639121
44	0x3dac8443	0.084236644
45	0x3e1cd03f	0.15313815
46	0xbeaa86a2	-0.33305842
47	0x3eba9251	0.36439756
48	0x3e852366	0.2600357
49	0xbf840d0e	-1.0316484
50	0x3e7071f7	0.23480974
51	0x3d07214d	0.032990742
52	0x3ea6311b	0.3245934
53	0x3e449fab	0.19201533
54	0xbedcf83d	-0.4315814
55	0x3e45e6c1	0.19326307
56	0xbf2d2691	-0.6763697
57	0x3ed02a9b	0.40657505
58	0xbeaea4c1	-0.34110072
59	0x3b9805d7	0.004639368
60	0xbca2c397	-0.019868655
61	0xbf06c27b	-0.52640504
62	0xbe7dda4f	-0.2479031
63	0x3ebe26fa	0.37139112
64	0x3ea40560	0.3203535
65	0x3e942727	0.2893612
66	0x3e9fba16	0.3119666
67	0x3eac9609	0.33708218
68	0x3e45ae70	0.19304824
69	0x3e07a35c	0.1324591
70	0x3f12e9b5	0.5738786
71	0x3e762974	0.2403925
72	0x3e883ea5	0.26610294
73	0xbf8cbaee	-1.0994546
74	0xbed727a0	-0.4202242
75	0xbf01a731	-0.5064574
76	0xbeb2c9a3	-0.34919462
77	0x3ead7238	0.33876204
78	0xbeabed1c	-0.33579338
79	0xbea2bee2	-0.31786257
80	0x3e6bf976	0.2304438
81	0xbef8db06	-0.48604602
82	0x3e5e1bdd	0.21690316
83	0xbea4a770	-0.32158995
84	0xbf86feb1	-1.0546476
85	0xbede5a90	-0.4342847
86	0x3dac3fed	0.084106304
87	0xbf835689	-1.0260783
88	0xbf3373e8	-0.70098734
89	0xbefb307e	-0.49060434
90	0x3e88e60e	0.26738018
91	0x3e8eafb0	0.27868414
92	0xbf8b7e05	-1.0897833
93	0xbeafebf4	-0.34359705
94	0xbee997c6	-0.45623606
95	0xbf827234	-1.0191102
96	0xbe8c7bd8	-0.27438235
97	0x3e7de7f7	0.24795519
98	0xbee5c39f	-0.4487581
99	0xbf1e6647	-0.6187481
100	0x3e72bd2d	0.23704977
101	0xbf79c40c	-0.9756477
102	0x3e85b762	0.26116472
103	0x3d845f04	0.06463435
104	0xbf860f3c	-1.0473399
105	0xbf8b5432	-1.0885069
106	0x3e7bc385	0.24586304
107	0xbf1fba90	-0.62394047
108	0x3e683c6a	0.22679296
109	0xbe929c87	-0.28635046
110	0x3e87132a	0.2638181
111	0xbcdc0b70	-0.026860923
112	0xbf7bdc59	-0.983831
113	0x3b9a4a1d	0.004708542
114	0x3e81c1c7	0.25343153
115	0x3e85f715	0.2616507
116	0xbf802655	-1.0011698
117	0x3dfbb0b8	0.12289566
118	0x3e99ea99	0.30061796
119	0x3ea34dd2	0.3189531
120	0xbed809b1	-0.42194894
121	0xbee49f5a	-0.44652826
122	0x3e14cfa9	0.14532341
123	0xbf853bea	-1.0408909
124	0xbf84b6b6	-1.0368259
125	0xbeaeb163	-0.3411971
126	0xbf87c41a	-1.060672
127	0x3ead337d	0.33828345

allocation_head.0.weight f4 [9, 128]
0	0xba5a3890	-0.00083244685
1	0x3dfdd4d7	0.123941116
2	0xbd92c1d3	-0.07165875
3	0xbba3a8df	-0.0049944962
4	0x3cd4c8a5	0.025974581
5	0x3dab88b7	0.08375686
6	0xbae58a40	-0.0017512515
7	0x3d85cc3f	0.065330975
8	0x3d55dab5	0.05221053
9	0xbcf76258	-0.030198261
10	0xbcdad35c	-0.026712112
11	0x3cadbaaa	0.021207172
12	0xbd961ccd	-0.07329712
13	0xbd6fc590	-0.05853802
14	0x3cc1680b	0.023609182
15	0xbd688f6f	-0.056777414
16	0xbb749ed1	-0.0037326107
17	0x3de799de	0.11308645
18	0x390af593	0.00013252189
19	0xbc205923	-0.009786877
20	0x3d4bf1a8	0.04979101
21	0x3c5aa095	0.01334395
22	0x3d2b7a1e	0.041864507
23	0x3e013961	0.12619545
24	0x3d3ba146	0.0458081
25	0x3dce2b0d	0.10066805
26	0x3d635052	0.05549652
27	0xbcb3be3e	-0.0219413
28	0xbca902bc	-0.020631187
29	0xbcb74fac	-0.022376858
30	0xbdc189ba	-0.094500974
31	0x3d9150af	0.07095467
32	0x3b351a4c	0.0027634082
33	0xbc9be49d	-0.01902991
34	0xbe02c87c	-0.12771791
35	0xbda98920	-0.08278108
36	0x3b883acb	0.0041573993
37	0x3d312b3a	0.043254115
38	0x3d218c5e	0.039440505
39	0xbc8d0610	-0.017214805
40	0x3ad855ca	0.0016505059
41	0xbdd77d69	-0.10521967
42	0x3cc97f3c	0.024596803
43	0xbdf21545	-0.11820463
44	0xbca19330	-0.019723505
45	0xbd11c93c	-0.035592303
46	0x3ded2b76	0.11580555
47	0x3db41c06	0.087944075
48	0xbc5f10b2	-0.01361482
49	0xbb510300	-0.0031892657
50	0xbc2188a8	-0.009859242
51	0xbeacf2ed	-0.33779088
52	0x3df8338d	0.121192075
53	0x3db7b3a2	0.08969809
54	0x3df45c84	0.119317085
55	0xbd1780e6	-0.03698816
56	0xbd31c880	-0.043404102
57	0xbd0fb39b	-0.035083394
58	0xba9f0873	-0.0012133255
59	0xbd71a011	-0.05899054
60	0x3eaad05b	0.33362088
61	0xbcc88053	-0.024475252
62	0xbde63801	-0.11241151
63	0x3c103048	0.008800574
64	0x3dc43792	0.09580912
65	0x3d46d58a	0.04854349
66	0x3a1e3621	0.00060352875
67	0x3d22b6c2	0.039725073
68	0x3dd67a8b	0.10472592
69	0x3d47df88	0.04879716
70	0xbc574be6	-0.013140654
71	0x3d369a81	0.04458094
72	0x3db3286e	0.08747946
73	0x3d95fbc3	0.0732341
74	0x3e0bead1	0.13663794
75	0x3e0d5b80	0.13804436
76	0x3d9f03e9	0.07764418
77	0xbce1cf18	-0.02756457
78	0x3d8ba467	0.06818467
79	0xbdec0fe8	-0.115264714
80	0xbe8d7299	-0.27626494
81	0x3c9863e9	0.018602328
82	0x3d8ad41b	0.06778737
83	0x3e1c9dcb	0.15294568
84	0x3c8786ec	0.016543828
85	0x3cb70222	0.022339884
86	0xbe554193	-0.20825796
87	0xbd25b9c7	-0.040460374
88	0x3dbf9e4b	0.09356364
89	0xbde634a9	-0.11240513
90	0x3d907a25	0.07054547
91	0x3e9950e2	0.2994452
92	0x3d81962b	0.063274704
93	0xbcdd359c	-0.027003102
94	0xbc47aab7	-0.012186698
95	0xbd6ada76	-0.057337247
96	0x3dd560b6	0.10418837
97	0x3bfd14b3	0.007723415
98	0xbdff03bf	-0.124518864
99	0xbde32b83	-0.110922836
100	0x3e282613	0.16420774
101	0x3d73f2ba	0.059557654
102	0x3c33e74e	0.01098044
103	0xbcc505eb	-0.024050673
104	0xbdac704d	-0.08419857
105	0xbad03c00	-0.0015887022
106	0xbce91349	-0.028451579
107	0xbc0b1563	-0.008488986
108	0x3d56b5da	0.05241952
109	0xbd3f9ec7	-0.04678228
110	0xbd3c28a6	-0.045937203
111	0x3dafd4ef	0.08585536
112	0xbd5c508f	-0.053787764
113	0x3eb4ccff	0.3531265
114	0x3d8cbbb9	0.06871743
115	0xbd45054b	-0.04810075
116	0xbcb43624	-0.021998473
117	0x3d4b8dad	0.04969566
118	0x3d1c2417	0.038120355
119	0xbea44922	-0.32087046
120	0x3dc20753	0.09474053
121	0xbc95566c	-0.018229686
122	0x3c6ed148	0.014576264
123	0x3d2b500e	0.041824393
124	0xbdada481	-0.08478642
125	0x3bfb2c41	0.0076651876
126	0xbcb54218	-0.022126243
127	0x3c83c873	0.016086793
128	0xbcf7588f	-0.030193595
129	0xbc1c0312	-0.009522216
130	0x3a55ef52	0.00081609667
131	0x3da1ac5c	0.07894203
132	0x3b1fdcde	0.0024393122
133	0x3d6367b4	0.05551882
134	0x3d819535	0.06327287
135	0x3d121fac	0.035674736
136	0x3d8005e3	0.06251123
137	0xbcd96f7f	-0.026542423
138	0x3c928a2c	0.017888151
139	0x3e7e7974	0.24851018
140	0x3dab45a1	0.0836289
141	0x3d65ea2e	0.056131534
142	0x3e136c33	0.14396743
143	0xbd881507	-0.06644636
144	0xbe0980f8	-0.13428104
145	0x3c94af16	0.018149894
146	0x3df63f94	0.12023845
147	0x3d0c55cf	0.03426152
148	0xbd4e1639	-0.050314162
149	0xbe02d9b7	-0.12778364
150	0xbcb9a8dd	-0.022663528
151	0xbc6e579e	-0.014547257
152	0x3d2c8cbc	0.042126402
153	0x3e5bb13c	0.21454328
154	0x3d009a35	0.031397063
155	0xbcce5c36	-0.025190454
156	0x3db8bae7	0.09020024
157	0xbd8da63b	-0.069164716
158	0x3d296dfa	0.041364647
159	0x3bb42e05	0.00549865
160	0x3d304028	0.043029934
161	0x3d0c43f7	0.034244504
162	0xbd0c0954	-0.034188583
163	0xbd9c4c88	-0.07631785
164	0x3c636598	0.013879202
165	0x39ed91c7	0.00045312775
166	0xbd24770f	-0.040152606
167	0xbcdb33d2	-0.026758108
168	0xbd19873b	-0.03748248
169	0xbd871dd6	-0.06597488
170	0x3dabb647	0.08384376
171	0xbd2d9e0d	-0.042387057
172	0x3dfab914	0.12242332
173	0x3b66b851	0.0035205076
174	0xbca18cbf	-0.019720433
175	0x3dbd364e	0.092388734
176	0x3c2493ad	0.010044974
177	0xbd219dd5	-0.03945716
178	0x3cde4649	0.027133124
179	0xbeda0b04	-0.4258653
180	0x3d70172f	0.05861586
181	0x3ca49389	0.020089881
182	0x3dfc3ce6	0.12316303
183	0x3d583e8b	0.05279402
184	0xbc8eb9cb	-0.017422577
185	0x3d8d1055	0.06887881
186	0x3d1eeb06	0.038798355
187	0xbd409617	-0.047018137
188	0x3d16f858	0.036857933
189	0xbc46c9a4	-0.012133036
190	0x3c25de19	0.010123753
191	0x3d1e4374	0.038638547
192	0xbd0b41b5	-0.03399821
193	0x3cf1e156	0.029526394
194	0xbd659489	-0.056049857
195	0x3b2f6597	0.0026763433
196	0x3bf763f2	0.007549756
197	0x3ce3dbbe	0.027814742
198	0xbcd04ac7	-0.025426282
199	0x3d26301f	0.040573236
200	0x3cca20d5	0.024673859
201	0x3d6960e2	0.05697716
202	0xbbe624b2	-0.0070234174
203	0xba24106b	-0.000625855
204	0x3c0f09af	0.008730336
205	0x3daa665b	0.08320304
206	0x3ce7a17b	0.028275242
207	0x3e09d5a4	0.13460404
208	0x3e3f556e	0.18684933
209	0xbd47fd6f	-0.048825677
210	0x3cccd08f	0.025001792
211	0x3e7a0d38	0.24419105
212	0x3c35b1d8	0.011089765
213	0x3ccaa36b	0.024736127
214	0xbe256bb9	-0.16154374
215	0x3c38c640	0.011277735
216	0xbe03d6bf	-0.12874888
217	0xbdd9dea1	-0.10638166
218	0x3daf89ff	0.085712425
219	0xbe21e7b6	-0.15811047
220	0xbbcff910	-0.0063468292
221	0x3ce05582	0.027384523
222	0x3dd0576d	0.10172925
223	0x3b2401c0	0.0025025457
224	0xbc8785ea	-0.016543347
225	0x3d54f274	0.051989034
226	0xbdf2c70b	-0.11854371
227	0x3d0f0a18	0.034921736
228	0x3e209b72	0.15684298
229	0xbc567418	-0.013089202
230	0x3c01c042	0.007919373
231	0x3d9bfcfb	0.076166116
232	0x3c34c930	0.011034295
233	0x3da22341	0.079168804
234	0x3da92702	0.08259393
235	0x3b784832	0.0037884829
236	0x3d5a1171	0.05323929
237	0xbb1f2410	-0.002428297
238	0xbd65a099	-0.05606136
239	0x3dd4c225	0.10388593
240	0x3cef15a8	0.029185131
241	0x3d5e0a52	0.05420906
242	0x3c5d7087	0.013515598
243	0xbd2e0b4e	-0.04249125
244	0x3d3a62d2	0.0455044
245	0xbd30fa18	-0.043207258
246	0x3d8a2362	0.0674503
247	0xbec574dd	-0.38565722
248	0x3d7af72b	0.061270874
249	0xbd1292e8	-0.035784632
250	0x3dd9d216	0.10635774
251	0x3c3f6770	0.011682376
252	0x3d95b033	0.07308998
253	0xbdafe792	-0.085890904
254	0xbd56f0b2	-0.05247564
255	0x3bf83804	0.007575037

allocation_head.0.bias f4 [9]
0	0xbd796388	-0.060885936
1	0x3cb99082	0.022651915
2	0x3dcdcf26	0.10049276
3	0xbc17f200	-0.009274006
4	0x3bea41fd	0.0071489797
5	0x3dce6678	0.10078138
6	0xbdcb19b4	-0.09917012
7	0xbd18aecc	-0.037276074
8	0xbe1490a7	-0.14508305

payment_head.0.weight f4 [2, 128]
0	0x3f0822e0	0.53178215
1	0x3e70c879	0.23513974
2	0x3e61943b	0.22029202
3	0x3dc61ca1	0.09673429
4	0xbb9154f9	-0.0044351784
5	0x3d982d49	0.074305125
6	0xba852780	-0.0010158867
7	0x3eb71b35	0.35762945
8	0xbde22fab	-0.11044248
9	0x3eb1e8a7	0.34747812
10	0x3d8eaf29	0.06967003
11	0xbe9b0b66	-0.30282134
12	0x3e9cef55	0.30651346
13	0xbcdf6446	-0.027269494
14	0x3d7c20c4	0.061554685
15	0x3dac4229	0.084110565
16	0x3e26898e	0.1626341
17	0x3d1ed42f	0.038776573
18	0x3bd3ab23	0.00645961
19	0xbc81ec50	-0.015859753
20	0xbccba26c	-0.024857722
21	0x3e069e49	0.13146318
22	0xbcd4db93	-0.025983607
23	0xbdee68a4	-0.11641052
24	0xbe071d4e	-0.13194773
25	0x3e82e490	0.25565004
26	0x3d7b585d	0.061363567
27	0x3c91a9d4	0.017781176
28	0xbc4ef1f4	-0.012630928
29	0xbb7af9e0	-0.003829591
30	0x3de538c0	0.11192465
31	0x3de6ae28	0.112636864
32	0x3e07a1fa	0.13245383
33	0x3f0eb771	0.5574866
34	0x3bc624de	0.0060468754
35	0x3d6f7fe6	0.058471583
36	0xbd934fcf	-0.07192957
37	0x3ced1f2f	0.028945534
38	0xbcb27068	-0.021782115
39	0x3dc7f0e5	0.09762744
40	0x3f00e5b0	0.50350475
41	0x3e113a3b	0.1418237
42	0xbc85442c	-0.016267858
43	0x3e0e551d	0.13899656
44	0xbe4c578d	-0.19955273
45	0x3f001abf	0.5004081
46	0x3ccedc05	0.025251398
47	0x3c97b3bc	0.018518321
48	0x3f0bc8d2	0.546033
49	0xbd211a77	-0.03933188
50	0x3ce11f77	0.027480824
51	0xbe3b40cc	-0.18286437
52	0xbe04c265	-0.1296478
53	0x3f0870ed	0.5329731
54	0xbcddd4aa	-0.027078945
55	0x3ea767c4	0.32696354
56	0x3dd1b892	0.10240282
57	0xbd710d51	-0.05885059
58	0x3da7e0fc	0.08197209
59	0x3e1883ce	0.1489403
60	0xbe9584f7	-0.29203007
61	0x3d291ef8	0.0412893
62	0x3d885ccc	0.066583246
63	0x3eedbd2e	0.46433395
64	0x3e7d5133	0.24738006
65	0xbdde984a	-0.108688906
66	0x3ef00b4f	0.46883628
67	0x3f105541	0.5638009
68	0x3c60de40	0.0137248635
69	0x3e8566d4	0.26055014
70	0x3e7f5e6e	0.24938366
71	0x3e944191	0.28956273
72	0x3eb301c5	0.34962288
73	0x3d346c8a	0.044048823
74	0xbc0a21ad	-0.0084308805
75	0x3dc28d52	0.09499611
76	0x3da5381a	0.08067341
77	0x3c8326d7	0.016009731
78	0xbc88f9f2	-0.016720746
79	0xbc5b4883	-0.013383987
80	0x3d53835d	0.05163895
81	0x3dbb955b	0.09159347
82	0xbe47d6e3	-0.19515567
83	0x3dc32e0d	0.09530268
84	0xbda5a0f9	-0.08087344
85	0xbddc4dd4	-0.10757032
86	0x3eae3c57	0.3403041
87	0x3d95cceb	0.073144756
88	0x3d29f304	0.041491523
89	0x3de2f59d	0.11082003
90	0x3ef2bace	0.47408146
91	0xbe12d05f	-0.143373
92	0xbda20ce6	-0.079126164
93	0x3dd60e98	0.10452002
94	0x3defd39a	0.11710282
95	0x3d8c4d45	0.068506755
96	0xbcde4a8e	-0.02713516
97	0x3cd4a03f	0.025955318
98	0x3e02fae2	0.12791017
99	0xbcb75a3b	-0.022381892
100	0xbd2cc8e7	-0.042183783
101	0x3d9a8805	0.07545475
102	0x3eb20211	0.34767202
103	0x3ebfdc48	0.3747275
104	0x3d1ffa0a	0.039056815
105	0x3cbdc604	0.02316571
106	0x3eeca993	0.46223125
107	0x3e07a6b8	0.13247192
108	0xbd571dd1	-0.05251867
109	0x3d48d925	0.04903521
110	0x3d0d2cbe	0.034466498
111	0xbeed5874	-0.46356547
112	0xbd435ddf	-0.047696944
113	0xbefc6add	-0.4930028
114	0x3ed02963	0.40656576
115	0x3e2af9f0	0.16696906
116	0x3d2ac2d6	0.041689716
117	0x3ef9b368	0.4876969
118	0x3f0d704e	0.5524949
119	0xbef2acee	-0.4739756
120	0x3d4c087d	0.049812783
121	0xbc53a58d	-0.012917888
122	0xbec2083e	-0.37896913
123	0x3d3a2c0e	0.04545217
124	0xbd100ec1	-0.03517032
125	0x3d08d07e	0.03340196
126	0x3d977763	0.07395818
127	0x3e6e25dc	0.2325663
128	0xbcd30bdc	-0.02576249
129	0x3ee30e44	0.4434682
130	0x3ec0c749	0.37652043
131	0x3d04725a	0.032335617
132	0x3d2d9d2c	0.04238622
133	0xbba942b9	-0.0051654247
134	0xbd972b09	-0.07381255
135	0x3edf5af4	0.4362408
136	0x3cb69ecc	0.022292517
137	0x3ecae741	0.39629558
138	0xbd90f1cf	-0.07077371
139	0x3e632e80	0.22185707
140	0xbd8703c0	-0.06592512
141	0x3d3a119a	0.045426942
142	0x3e06af12	0.13152722
143	0x3df5872b	0.11988672
144	0x3f1aafb8	0.60424376
145	0x3c9f9caf	0.019483892
146	0xbb4916c7	-0.0030683742
147	0xbd889b92	-0.06670298
148	0x3ed942fd	0.4243392
149	0x3e1546a9	0.14577736
150	0x3d313775	0.04326578
151	0x3d668f7a	0.056289174
152	0xbb88e7d9	-0.004178029
153	0xbcc85eac	-0.024459206
154	0x3ecf02bf	0.40431783
155	0xbcddf53c	-0.027094476
156	0x3c578b32	0.013155745
157	0x3d861519	0.06546993
158	0xbd203700	-0.039114952
159	0x3ec491dc	0.38392532
160	0x3d9b59c4	0.07585481
161	0xbd7a4e7c	-0.061110005
162	0xbc82036b	-0.01587077
163	0xbda9265e	-0.08259271
164	0x3ed7c6b3	0.42143783
165	0x3e60a8a4	0.21939331
166	0xbd0674e0	-0.032826304
167	0x3d188811	0.037239138
168	0xbdce3ed4	-0.10070577
169	0x3d05f869	0.032707606
170	0x3eedda7c	0.46455753
171	0x3ec230c3	0.37927827
172	0x3ebd5023	0.36975202
173	0xbe2f3e68	-0.1711365
174	0x3cf40dcf	0.02979174
175	0x3efa3c69	0.48874214
176	0xbe47fd9b	-0.19530337
177	0x3cbeef44	0.02330745
178	0x3f14343a	0.5789219
179	0xbf34682d	-0.7047146
180	0x3f034c61	0.5128842
181	0xbe308e51	-0.1724179
182	0x3e0c8acb	0.1372482
183	0x3e5e21ef	0.21692632
184	0x3d092862	0.033485778
185	0x3efc0566	0.4922287
186	0xbc46a6fd	-0.012124774
187	0xbeda7e56	-0.42674512
188	0x3eb59de1	0.35472015
189	0x3ca6b3f1	0.020349475
190	0x3e13c75f	0.14431523
191	0x3e098c8e	0.13432524
192	0x3ec37619	0.3817604
193	0x3ef43bd4	0.47701895
194	0x3d7ce3c4	0.06174065
195	0xbd553918	-0.052056402
196	0x3ef390b4	0.47571337
197	0x3ed3d6d0	0.41374826
198	0x3f0ee293	0.55814475
199	0x3dad24a5	0.08454255
200	0x3e7fc89c	0.2497887
201	0xbd62a1db	-0.05533014
202	0x3dd76c6d	0.105187275
203	0x3db78b2b	0.08962091
204	0x3dda7cdb	0.106683455
205	0x3f15b1c9	0.58474404
206	0x3cdd1a14	0.026989974
207	0xbc20c33f	-0.009812175
208	0x3e90e416	0.28299016
209	0xbde1b00c	-0.110199064
210	0x3ebd22d7	0.36940643
211	0x3d01b006	0.03166201
212	0xbc7a88c0	-0.015291393
213	0x3e3c0d63	0.18364482
214	0xbd286143	-0.04110838
215	0x3bea1d50	0.0071446076
216	0x3db29d00	0.087213516
217	0x3d4daa93	0.0502115
218	0x3d688bd2	0.056773968
219	0xbc5ece14	-0.013598938
220	0xbd6a4203	-0.05719186
221	0x3d6218cb	0.055199426
222	0x3d42335c	0.04741226
223	0x3d9ed4eb	0.07755455
224	0x3e0af9b7	0.13571821
225	0x3ea06073	0.31323585
226	0xbdb091e8	-0.086215794
227	0xbdea3bd3	-0.11437192
228	0x3e735753	0.2376378
229	0xbbc77350	-0.0060867444
230	0x3d7d2507	0.06180289
231	0xbd33f97d	-0.043939102
232	0x3d9e7271	0.07736672
233	0x3d8f2c27	0.06990843
234	0xbdcd0832	-0.10011329
235	0x3daff719	0.08592052
236	0x3f02b159	0.5105186
237	0x3dd5d02d	0.10440097
238	0xbcd27417	-0.025690122
239	0xbe73837a	-0.23780623
240	0xbd7a639e	-0.06113016
241	0xbeb9d1a3	-0.36292753
242	0xbcdd0529	-0.02698
243	0x3ee40f20	0.4454279
244	0x3bfb94e0	0.0076776594
245	0xbd963d88	-0.07335955
246	0xbd0ead7c	-0.034833416
247	0xbd9db193	-0.07699885
248	0x3c3a44af	0.0113689145
249	0x3e39b9b1	0.18137242
250	0xbe98edd7	-0.29868957
251	0x3d7d8b9a	0.061900713
252	0x3d9e4c59	0.07729406
253	0x3e0c1acf	0.13682102
254	0x3b8249d0	0.0039760843
255	0x3ede2f5b	0.43395504

payment_head.0.bias f4 [2]
0	0x3f0a413d	0.54005796
1	0x3ef92f4e	0.48668903
