model/3x2_sparsemax_linearpmt_distill_fast.pt (torch_old, 144474 bytes, 10 tensors)

nn_model.0.weight f4 [128, 6]
0	0xbeab2873	-0.33429298
1	0xbf0487d4	-0.5176976
2	0xbfb7dd69	-1.4364444
3	0xbf96c29e	-1.1778142
4	0xbf8f44e9	-1.1192905
5	0xbfc59259	-1.5435287
6	0x3d9b3b5b	0.075796805
7	0x3d902582	0.07038404
8	0x3d36172b	0.04445569
9	0x3d0dbd0c	0.034604117
10	0xbf58fa33	-0.84756774
11	0xbf581009	-0.8439947
12	0xbee78b79	-0.45223597
13	0xbdcaecff	-0.09908485
14	0xbf61b4e8	-0.88166666
15	0xbfa666d4	-1.3000131
16	0xbfaef4c2	-1.3668444
17	0xbf1052b2	-0.56376183
18	0xbf93d3f0	-1.1549053
19	0xbf90f530	-1.1324825
20	0xbe252021	-0.16125537
21	0xbf71fce2	-0.94526494
22	0xbf3ab6e2	-0.7293531
23	0xbf54b952	-0.83095276
24	0xbf15ce36	-0.5851778
25	0x3d43d0a3	0.047806393
26	0x3da1eed0	0.07906878
27	0xbd2d18d0	-0.04225999
28	0x3db6d155	0.08926646
29	0x3e37686e	0.1791093
30	0x3a04b2db	0.0005062052
31	0x3d81b1ea	0.063327625
32	0x3dbf9abe	0.093556866
33	0x3f6e3fce	0.9306611
34	0xbdbc46d4	-0.09193197
35	0xbd53412b	-0.05157582
36	0xbf7939a8	-0.973536
37	0xbf3edc11	-0.74554545
38	0xbf385796	-0.72008646
39	0xbf4551d3	-0.7707798
40	0xbef69ef8	-0.4816816
41	0xbf520e9d	-0.8205355
42	0xbef0ce82	-0.47032553
43	0xbf1555e4	-0.58334184
44	0xbfa806fb	-1.312713
45	0xbeef276c	-0.46709764
46	0xbf988e24	-1.1918378
47	0xbddb411c	-0.10705778
48	0xbd14c6de	-0.036322467
49	0x3ed95a7e	0.42451853
50	0xbe354261	-0.17701103
51	0xbe4f1ebd	-0.2022657
52	0xbdc6fc66	-0.0971611
53	0x3dde788f	0.108628385
54	0xbdfb18ac	-0.12260565
55	0xbf48f7b6	-0.78502977
56	0xbf8b8650	-1.0900364
57	0xbf757ebf	-0.95896524
58	0xbf4d6be6	-0.80242765
59	0xbe2b625f	-0.16736744
60	0x3ebe342d	0.37149182
61	0x3d2520ed	0.040314604
62	0x3e9d5c52	0.30734497
63	0x3cebd35f	0.028787313
64	0xbfc5d4fc	-1.5455623
65	0xbf4231a2	-0.75856984
66	0x3f55b38d	0.834771
67	0x3e385936	0.18002781
68	0xbf2292f1	-0.63505465
69	0xbd18b02b	-0.037277382
70	0xbec2440c	-0.3794254
71	0xbe806f5f	-0.2508497
72	0xbe81e5e0	-0.25370693
73	0xbe393af9	-0.18088903
74	0xbfa05624	-1.2526288
75	0xbf5a1953	-0.8519489
76	0xbe0bae5d	-0.13640733
77	0xbf0d316d	-0.5515354
78	0xbe9c3226	-0.3050701
79	0x3e3a2354	0.18177539
80	0x3d7d9784	0.061912075
81	0x3d1ccfc3	0.038284075
82	0xbed83154	-0.42225134
83	0x3dec55a4	0.11539772
84	0xbf4403c0	-0.7656822
85	0xbf47cdd0	-0.7804842
86	0xbf351277	-0.707313
87	0xbf42e395	-0.7612851
88	0xbee0483b	-0.43805107
89	0xbf38a435	-0.7212556
90	0x3ef73183	0.48279962
91	0xbd95519f	-0.072909586
92	0xbdbe2b5b	-0.09285613
93	0xbc99024c	-0.018677853
94	0xbf096467	-0.53668827
95	0xbd828b98	-0.06374282
96	0xbe9b7709	-0.30364254
97	0xbdbc0fc8	-0.091826975
98	0xbe8ddc3f	-0.27707097
99	0xbe354c24	-0.17704827
100	0xbe5b8033	-0.21435623
101	0x3da89d55	0.08233134
102	0xbeb3aa3f	-0.35090825
103	0xbe5c3a2a	-0.21506563
104	0xbee62559	-0.4495037
105	0xbd5451c4	-0.05183579
106	0x3ebae1d6	0.36500424
107	0xbea3b4a8	-0.31973767
108	0xbf30cc8f	-0.6906213
109	0xbe5390e5	-0.20660742
110	0x3ee7184d	0.45135728
111	0x3c313359	0.010815465
112	0xbf431964	-0.7621062
113	0x3e4614f0	0.19343925
114	0xbf1d20a6	-0.6137794
115	0xbf26e2c8	-0.6518979
116	0xbf509da6	-0.8149055
117	0xbf3c0e67	-0.73459476
118	0xbf013ba1	-0.5048161
119	0xbeee8571	-0.46586183
120	0xbd9f6c38	-0.07784313
121	0x3f492448	0.78570986
122	0xbc04443b	-0.008072908
123	0xbd3e685e	-0.04648625
124	0xbe115e52	-0.14196137
125	0xbe1534cc	-0.14570922
126	0xbd3f9e8f	-0.046782073
127	0xbecab074	-0.39587748
128	0xbf955424	-1.1666303
129	0xbf7a3b10	-0.9774637
130	0xbe6abcfc	-0.22923654
131	0xbf6ff4bc	-0.9373281
132	0x3c713124	0.014721189
133	0x3f93b64d	1.1540009
134	0x3c1d72df	0.009609907
135	0xbad62268	-0.0016337158
136	0xbe0b2c98	-0.1359123
137	0xbd95a00d	-0.07305918
138	0xbfca8df9	-1.5824577
139	0xbfa4553c	-1.2838511
140	0xbfb22000	-1.3916016
141	0xbe7a8814	-0.24465972
142	0xbe8e1b37	-0.27755138
143	0xbf769f51	-0.9633685
144	0xbf7db1f8	-0.99099684
145	0xbecf158b	-0.40446123
146	0xbf526c54	-0.82196546
147	0xbf2f8dc4	-0.6857569
148	0xbf6b870f	-0.9200296
149	0xbf53082c	-0.82434344
150	0xbc812177	-0.015763028
151	0xbc0cae66	-0.008586502
152	0x3bc98204	0.0061495323
153	0xbd8b6708	-0.06806761
154	0xbc9de8fe	-0.019276138
155	0xbefcd66a	-0.49382335
156	0xbf434e79	-0.76291615
157	0xbef4c04e	-0.47802967
158	0xbf5f8157	-0.8730673
159	0xbf1708b4	-0.58997655
160	0xbefd35d2	-0.49455124
161	0xbf302f41	-0.68822104
162	0xbdb86b71	-0.09004868
163	0xbc89a1af	-0.01680073
164	0xbbeaf854	-0.0071707163
165	0xbb04b596	-0.0020249835
166	0xbccec8c7	-0.025242222
167	0xbe878d71	-0.264751
168	0x3d9a9cb1	0.07549418
169	0x3e047166	0.12933883
170	0xbbcdb825	-0.0062780553
171	0xbe6ab268	-0.22919619
172	0x3d859200	0.06521988
173	0xbe097863	-0.1342483
174	0xbd82f643	-0.06394627
175	0x3f070a76	0.5275034
176	0xbd9d3c8b	-0.07677563
177	0xbeb5652b	-0.35428748
178	0x3d7b3b1c	0.061335668
179	0x3dc4517b	0.09585854
180	0x3de64880	0.11244297
181	0xbf16b769	-0.5887361
182	0x3eb4c9ea	0.35310298
183	0xbe25413c	-0.16138166
184	0xbde7947a	-0.113076165
185	0xbebf9885	-0.3742105
186	0xbf33e503	-0.7027132
187	0xbf1335fd	-0.57504255
188	0xbf269e14	-0.6508496
189	0xbf5dbdef	-0.8661794
190	0xbf18eaa6	-0.59733045
191	0xbf273057	-0.65308136
192	0xbef7b47a	-0.4837988
193	0xbf59828d	-0.8496483
194	0xbeab9861	-0.33514693
195	0xbfb781d5	-1.4336497
196	0xbeeb2c29	-0.4593213
197	0xbe92389e	-0.2855882
198	0xbe5aca8c	-0.21366328
199	0xbce4fec4	-0.027953513
200	0xbda9ee5d	-0.08297417
201	0xbd40a1d3	-0.047029328
202	0xbea59173	-0.3233753
203	0x3e2faa72	0.17154863
204	0x3e5e7efe	0.21728131
205	0x3f180944	0.5938914
206	0xbd287c7d	-0.041134346
207	0x3e387a38	0.18015373
208	0x3c6aad53	0.01432355
209	0x3d634d19	0.055493448
210	0x3d15f95f	0.036614772
211	0xbec353c5	-0.3814985
212	0x3d8564f9	0.065134
213	0x3f3a28b6	0.7271837
214	0xbdafe020	-0.0858767
215	0xbe0c978d	-0.13729687
216	0xbf01bb1b	-0.50676125
217	0xbb034b9a	-0.0020034076
218	0x3edde54e	0.43339008
219	0xbdeeaecc	-0.116544336
220	0xbe9f5fe5	-0.3112785
221	0xbc39df9c	-0.011344817
222	0xbf900d13	-1.125399
223	0xbf836117	-1.0264004
224	0xbfae1d1e	-1.3602636
225	0xbdf9d8ec	-0.12199578
226	0xbf0738b5	-0.52820903
227	0xbf5f0986	-0.87123907
228	0xbefba8b7	-0.49152157
229	0xbf447b68	-0.76750803
230	0xbf5c398b	-0.86025304
231	0xbeed698e	-0.46369594
232	0xbf085b22	-0.5326406
233	0xbf5fe183	-0.8745348
234	0xbec573e9	-0.38564995
235	0x3a19d02c	0.0005867507
236	0x3ede986d	0.43475667
237	0x3cfc0c58	0.030767605
238	0xbeb802a1	-0.35939506
239	0xbbfdf8b4	-0.007750595
240	0xbf0877ab	-0.533076
241	0xbf743a54	-0.954015
242	0xbf60409d	-0.8759859
243	0xbf04f9c6	-0.51943624
244	0xbeccfa76	-0.40034837
245	0xbf48c56a	-0.7842623
246	0xbda9c47e	-0.08289431
247	0xbe8ba49f	-0.27274033
248	0x3daed4de	0.08536695
249	0x3e2b1e09	0.16710676
250	0xbd4ce9d3	-0.05002768
251	0xbd050cdf	-0.032482978
252	0xbe051067	-0.12994538
253	0xbeba6245	-0.364031
254	0xbe238729	-0.15969528
255	0xbe76f4e1	-0.24116851

nn_model.0.bias f4 [128]
0	0xbf120f72	-0.5705482
1	0x3f2e484c	0.68079066
2	0xbf35f5bf	-0.71078104
3	0xbf75859c	-0.95906997
4	0x3babd6c8	0.00524411
5	0xbf476602	-0.77890027
6	0xbf87cbc2	-1.0609057
7	0xbee8ecbe	-0.4549312
8	0xbf3a9d6c	-0.72896457
9	0xbf2d5b2c	-0.6771724
10	0x3e37e29a	0.17957535
11	0xbe1ded7b	-0.15422623
12	0xbf4dce59	-0.80392987
13	0x3e5b8bfa	0.21440116
14	0xbf911212	-1.133364
15	0x3e927185	0.28602234
16	0x3ec68eb9	0.38780764
17	0xbf5aa9cc	-0.8541534
18	0x3e0bde56	0.13659033
19	0xbf9dc715	-1.232638
20	0xbeaf5e84	-0.34251797
21	0xbf55aa86	-0.83463323
22	0xbf7d149d	-0.9885958
23	0xbf09b0a0	-0.53785133
24	0xbf880987	-1.0627908
25	0x3f069ebd	0.52585965
26	0xbf98f9b8	-1.1951208
27	0x3ea9fbfd	0.33200064
28	0x3db8574e	0.09001027
29	0xbe9cb15a	-0.30604059
30	0x3e283024	0.16424614
31	0xbf9300db	-1.1484636
32	0xbf90e392	-1.1319449
33	0x3ea1532b	0.31508765
34	0xbedafcf6	-0.4277112
35	0xbea816eb	-0.32829985
36	0xbeea556a	-0.4576829
37	0xbf15edfd	-0.58566266
38	0xbf97fc44	-1.187386
39	0x3e7e9459	0.24861278
40	0xbf958130	-1.168005
41	0x3e6009f8	0.21878803
42	0xbf1962d2	-0.5991641
43	0xbf845dc5	-1.0341116
44	0xbf74f1b4	-0.9568131
45	0xbd03b767	-0.032157328
46	0xbf17bac1	-0.5926934
47	0xbf9ad1ee	-1.2095315
48	0x3e1feea8	0.15618384
49	0x3d5589c4	0.052133337
50	0xbf3dd22d	-0.7414883
51	0x3e240569	0.16017689
52	0xbe966371	-0.29372743
53	0xbf1b878f	-0.6075372
54	0xbf92ab90	-1.1458607
55	0xbf6307e5	-0.8868392
56	0xbf9134e3	-1.1344265
57	0xbee3dbfc	-0.44503772
58	0xbedff050	-0.4373803
59	0xbf496332	-0.78666985
60	0xbf2b9cd5	-0.6703618
61	0x3efc11c3	0.492323
62	0xbf56471e	-0.83702266
63	0xbe897ba7	-0.26852152
64	0x3f2edb83	0.683037
65	0x3e6f5a99	0.23374404
66	0x3f01e6d7	0.5074286
67	0xbf0187fd	-0.50598127
68	0x3ed9187a	0.42401487
69	0x3e9cb639	0.30607775
70	0xbf2fb693	-0.6863796
71	0xbf5b51be	-0.85671604
72	0x3c9ec06e	0.019378867
73	0xbd96f0e8	-0.07370168
74	0xbedb7bea	-0.42867976
75	0x3d8ff6f2	0.07029523
76	0x3f5f88f7	0.87318367
77	0xbec3b566	-0.38224334
78	0xbd9b0e68	-0.07571107
79	0x3ea2c930	0.3179412
80	0x3f06131b	0.523729
81	0xbf40d8e0	-0.75330925
82	0xbf50b158	-0.81520605
83	0x3e9f661c	0.3113259
84	0xbe880367	-0.26565096
85	0xbe8180ba	-0.25293523
86	0x3e82c2c8	0.2553923
87	0xbf120160	-0.5703335
88	0xbe0a5dfb	-0.13512413
89	0xbf57abae	-0.8424634
90	0xbf364630	-0.7120085
91	0xbf57c6f6	-0.84287965
92	0x3ec870cf	0.39148566
93	0x3df54c5c	0.11977455
94	0xbeb73588	-0.3578303
95	0xbf875f75	-1.0576006
96	0x3eb91414	0.3614813
97	0x3ea440f3	0.32080802
98	0x3f15ec14	0.5856335
99	0xbf4f42d2	-0.80961335
100	0xbee63673	-0.44963416
101	0xbf599fcb	-0.8500945
102	0xbe88500e	-0.26623577
103	0x3ea96d33	0.33091125
104	0x3e5aa2ff	0.2135124
105	0xbec9c49b	-0.3940781
106	0xbecc36d7	-0.3988559
107	0x3e103511	0.14082743
108	0xbde4f59f	-0.11179661
109	0xbf285a83	-0.6576311
110	0xbeb7d31e	-0.35903257
111	0x3e6a1411	0.22859217
112	0xbf986182	-1.1904757
113	0xbf3fa949	-0.74867684
114	0xbf422708	-0.75840807
115	0xbeb3fb03	-0.35152444
116	0x3ec4532e	0.3834471
117	0xbf69c47a	-0.91315424
118	0xbf86d6dd	-1.0534321
119	0x3c8ad3e4	0.01694674
120	0xbf7ca12e	-0.9868344
121	0x3f0d5180	0.55202484
122	0xbe9fcac8	-0.31209397
123	0x3d8d426a	0.06897433
124	0x3f2a539a	0.66533816
125	0xbf8377a5	-1.0270888
126	0x3f04cacc	0.51871943
127	0xba9b8a5e	-0.0011866798

nn_model.2.weight f4 [128, 128]
0	0xbdf1933f	-0.11795663
1	0xbecc66cc	-0.39922178
2	0xbda8444d	-0.08216152
3	0xba00da7c	-0.0004915369
4	0xc00b4264	-2.1759272
5	0xbefe2089	-0.49634197
6	0x3d9e4a3b	0.07729002
7	0xbc87f9a0	-0.016598523
8	0xbda9bba6	-0.08287744
9	0xbe0dca02	-0.13846591
10	0xbe140164	-0.14453655
11	0xbd7c625b	-0.061617237
12	0xbc30bf83	-0.010787847
13	0xbdb9e513	-0.090768956
14	0x3cd2bd64	0.025725074
15	0xbdda2575	-0.106516756
16	0xbf09008a	-0.5351645
17	0xbdf5d1d7	-0.120029144
18	0xbe131895	-0.14364846
19	0xba35f400	-0.0006940961
20	0xbd932d98	-0.07186431
21	0xbd878e03	-0.066188835
22	0xbddaa008	-0.10675055
23	0xbd587299	-0.052843664
24	0xbd6c3d70	-0.05767578
25	0xbd918a71	-0.07106484
26	0xbcc20390	-0.02368334
27	0xbde84dfa	-0.11342998
28	0xbcb19e81	-0.021682026
29	0xbdb717fb	-0.08940121
30	0xbda01536	-0.07816546
31	0x3c416500	0.011803865
32	0xbdb1ca80	-0.08681202
33	0xbe35b887	-0.17746173
34	0xbe3dd1c9	-0.18537058
35	0xbd83e01a	-0.06439228
36	0xbdb87712	-0.09007086
37	0xbd47b2c8	-0.048754483
38	0xbda7045c	-0.08155128
39	0xbdc88806	-0.097915694
40	0xbd911e5f	-0.07085871
41	0xbd4a9a00	-0.049463272
42	0xbd126f55	-0.035750706
43	0xbca88c5b	-0.02057474
44	0xbbec27bc	-0.007206885
45	0xbdb1fa7e	-0.08690356
46	0xbdc76cd5	-0.09737555
47	0x3d913931	0.070909865
48	0xbe2a1200	-0.16608429
49	0xbe465ddf	-0.19371746
50	0xbe29ebf9	-0.16593923
51	0xbded6d51	-0.11593116
52	0xbdbfa063	-0.09356763
53	0xbd2282f7	-0.03967568
54	0xbc27e018	-0.010246299
55	0xbcea3ede	-0.02859443
56	0xbd24931d	-0.04017936
57	0xbe0ea225	-0.1392904
58	0xbdb4a207	-0.08819967
59	0xbe8138ec	-0.2523874
60	0xbd46ec83	-0.0485654
61	0xc0828ab0	-4.0794296
62	0xbe14de3f	-0.14537905
63	0xbcf054ea	-0.029337365
64	0xbd573cf6	-0.05254837
65	0xbd22a10d	-0.03970437
66	0xbd4cf402	-0.05003739
67	0xbdcf619c	-0.101260394
68	0xbf150b61	-0.5822049
69	0xbd3c88f4	-0.046029046
70	0xbd9de40b	-0.07709511
71	0xbdf4b10f	-0.11947834
72	0xbe34d467	-0.1765915
73	0xbe916bd3	-0.28402576
74	0xbd94a0e6	-0.072572514
75	0xbdcb14cd	-0.09916077
76	0xbf28379d	-0.6570986
77	0xbe0f5d1d	-0.14000364
78	0xbf2bd98e	-0.6712884
79	0xc07c2965	-3.9400265
80	0xbe23fc7b	-0.16014282
81	0xbb99c63f	-0.004692822
82	0xbdd5cf1d	-0.10439894
83	0xbe291895	-0.16513284
84	0xbe163e01	-0.1467209
85	0xbba9f687	-0.005186859
86	0xc0001384	-2.0011911
87	0xbde7bb0d	-0.11314974
88	0xbd499ffd	-0.049224842
89	0xbd9d3be1	-0.076774366
90	0xbddf87a3	-0.109145425
91	0xbd2ddd9c	-0.04244767
92	0xbe44fe49	-0.19237627
93	0xbe05afd2	-0.13055351
94	0xbe0b1617	-0.13582645
95	0xbe0fa1b4	-0.14026529
96	0xbc3e5675	-0.011617293
97	0xbdb808c8	-0.0898605
98	0xc085c0a9	-4.179768
99	0xbee3935e	-0.4444837
100	0xbdf59dd6	-0.119929954
101	0xbe235ce5	-0.15953405
102	0xbdb491ea	-0.088168934
103	0xbe275659	-0.16341533
104	0xbd0dbd09	-0.034604106
105	0xbe0e7c02	-0.13914493
106	0xbe307efb	-0.17235939
107	0xbe29b61b	-0.16573374
108	0xc02cd4bd	-2.7004845
109	0xbd31211b	-0.043244462
110	0xbed3ebe5	-0.4139091
111	0xbec072a3	-0.3758746
112	0xbd3be763	-0.045874964
113	0xbd51ee36	-0.051252566
114	0xbe1294f5	-0.14314635
115	0xbdd035e8	-0.10166532
116	0xbd707ae1	-0.058710936
117	0xbd84690c	-0.064653486
118	0xbc79a439	-0.015236908
119	0xbca26963	-0.019825643
120	0xc005329c	-2.081214
121	0xbd9af387	-0.075659804
122	0xbe0024f0	-0.1251409
123	0xbee12175	-0.43970838
124	0xbd9c0a9a	-0.076192096
125	0xbda633b9	-0.08115334
126	0xbd9a54d9	-0.07535715
127	0xbda0128e	-0.07816039
128	0xbd2193e6	-0.039447688
129	0xbe4902ce	-0.19629976
130	0xbc348226	-0.011017358
131	0xbd8a8b28	-0.06764823
132	0xbdd21aef	-0.102590434
133	0xbe27c5d5	-0.1638406
134	0xbd337bf7	-0.043819394
135	0xbdab9ee0	-0.083799124
136	0xbdb70b60	-0.089377165
137	0xbbeec0c2	-0.007286162
138	0xbeb10c31	-0.34579614
139	0xbdaa98e6	-0.08329944
140	0xbd79af27	-0.060958054
141	0xbe13adb5	-0.14421733
142	0xbc61ef50	-0.013789967
143	0xbd6f9f4c	-0.058501527
144	0xbdad3b58	-0.084585845
145	0xbdb3a578	-0.08771795
146	0xbd982569	-0.074290104
147	0x3d623be2	0.05523289
148	0xbe96dc02	-0.29464728
149	0xbd32d4f3	-0.043660115
150	0xbe17447f	-0.14772223
151	0xbd765058	-0.060135216
152	0x3c475cb8	0.012168102
153	0xbe75cc4b	-0.24003713
154	0x3d6808e0	0.05664909
155	0xbd93a400	-0.07209015
156	0xbe423995	-0.18967278
157	0xbe1e7431	-0.15474011
158	0xbdbf1cc5	-0.09331659
159	0x3d70856a	0.058720984
160	0xbb2ba5d6	-0.0026191375
161	0xbd458b6c	-0.048228666
162	0xbed782d1	-0.42091992
163	0xbe5e5705	-0.21712883
164	0xbda7c81c	-0.08192465
165	0xbdab5d25	-0.08367375
166	0xbc6444a4	-0.013932381
167	0xbddeae9e	-0.10873149
168	0xbb91f58f	-0.0044543217
169	0xbe56842d	-0.20948859
170	0xbede5de7	-0.43431017
171	0x3c0012cb	0.007816981
172	0x3c420527	0.011842049
173	0xbe16887e	-0.14700505
174	0xbdae69c3	-0.08516266
175	0xbda538e4	-0.08067492
176	0xbdad9546	-0.08475737
177	0xbe1ad0f5	-0.15118773
178	0xbce10119	-0.027466344
179	0xbe1fede7	-0.15618096
180	0xbe22b6e6	-0.15890083
181	0xbd83f84e	-0.06443845
182	0x3da5e5a9	0.08100445
183	0xbd39f8ee	-0.045403413
184	0x3d19da4e	0.037561707
185	0xbf22410a	-0.6338049
186	0xbd75ae7e	-0.05998086
187	0xbdf5712e	-0.11984478
188	0xbdc5ed34	-0.096643835
189	0xc06c7ba8	-3.6950474
190	0xbe42c618	-0.1902088
191	0xbe84e0e1	-0.2595282
192	0xbcf509f0	-0.029911965
193	0xbe4cc98f	-0.19998764
194	0xbd8fe899	-0.07026786
195	0xbd5e67cd	-0.05429821
196	0xbe8a42c9	-0.27004078
197	0xbd9be87c	-0.07612702
198	0xbd8e31a0	-0.06943059
199	0xbe8cb464	-0.27481377
200	0xbe1199e4	-0.14218861
201	0xbecdeb6e	-0.4021868
202	0xbf844f0a	-1.0336621
203	0xbdef7fe0	-0.11694312
204	0xbeee377e	-0.46526712
205	0xbd4c73a6	-0.04991498
206	0xbf19bc5f	-0.60053056
207	0xc0b742ea	-5.726918
208	0xbe0348b1	-0.12820698
209	0xbd4632f0	-0.04838842
210	0xbf17da78	-0.5931773
211	0xbd8bb214	-0.06821075
212	0xbe257e41	-0.16161443
213	0xbe05e222	-0.13074544
214	0xbe38160a	-0.17977157
215	0xbd88ba6a	-0.06676181
216	0xbe6d8b6d	-0.23197718
217	0xbd828369	-0.06372721
218	0xbe5b2a1c	-0.21402782
219	0x3de9ecac	0.11422095
220	0xbe99fb7a	-0.30074674
221	0xbe16e37d	-0.14735217
222	0xbe84556c	-0.25846422
223	0xbe6d1246	-0.23151502
224	0xbe469a86	-0.19394884
225	0xbe316dcf	-0.17327045
226	0xbfa84c0b	-1.3148206
227	0xbfbf58bf	-1.4948958
228	0xbceefea1	-0.02917415
229	0xbf2c1a6e	-0.6722783
230	0xbf1c39d5	-0.61025745
231	0xbdc32d0b	-0.09530076
232	0xbd95c37f	-0.073126785
233	0xbe15143e	-0.14558503
234	0xbdd1802d	-0.10229526
235	0xbdbebd9a	-0.093135074
236	0xbfb609d7	-1.4221753
237	0xbe53b91d	-0.20676084
238	0xbf17b34f	-0.5925798
239	0xbd2ae7da	-0.041725017
240	0x3d14afd7	0.036300506
241	0xbe0225af	-0.12709688
242	0xbea6802c	-0.32519662
243	0xbf2bb984	-0.6707995
244	0xbe132d60	-0.14372778
245	0xbbd21e25	-0.006412285
246	0xbcde9a13	-0.027173078
247	0xbd8a0372	-0.067389384
248	0xbf204f69	-0.6262117
249	0xbdfc39f3	-0.123157404
250	0xbde00866	-0.10939102
251	0xbe21c989	-0.15799536
252	0xbd832742	-0.06403972
253	0xbe905ea7	-0.28197214
254	0xbe3df6c4	-0.18551165
255	0xbd9f82f9	-0.07788653

nn_model.2.bias f4 [128]
0	0xbe87f751	-0.26555875
1	0xbe80c0f7	-0.2514722
2	0x3e47b4e3	0.19502597
3	0xbda3db1e	-0.08000778
4	0x3e0126cb	0.12612455
5	0xbe19fc58	-0.15037668
6	0xbe8b7c39	-0.27243212
7	0xbe25203f	-0.16125582
8	0xbe1bc2ef	-0.1521108
9	0xbef207b1	-0.47271493
10	0xbde25291	-0.110509045
11	0xbdab4409	-0.08362586
12	0xbf1a8d26	-0.60371625
13	0xbdcb1a11	-0.09917081
14	0xbe09aed3	-0.13445596
15	0x3de49068	0.11160356
16	0xbe367a7a	-0.17820159
17	0xbe17215c	-0.1475882
18	0xbed84eab	-0.4224752
19	0xbddf0023	-0.10888698
20	0xbef54950	-0.47907495
21	0xbe681689	-0.22664846
22	0x3e1a72bf	0.15082835
23	0xbe3a1a83	-0.18174176
24	0xbf0ec08b	-0.5576255
25	0xbe5aec6a	-0.21379247
26	0xbde29a47	-0.11064582
27	0xbdcf789d	-0.10130427
28	0xbe699193	-0.22809438
29	0xbe56245d	-0.20912309
30	0xbf10a380	-0.5649948
31	0xbda3672a	-0.07978661
32	0xbdccbac2	-0.09996559
33	0xbe4044bf	-0.18776225
34	0xbdd632c1	-0.10458899
35	0xbc69ed5b	-0.014277781
36	0xbd687407	-0.056751277
37	0xbe6b7a6a	-0.22995916
38	0xbd56c55e	-0.052434318
39	0xbe58e402	-0.21180728
40	0xbe70d0a2	-0.23517087
41	0xbf0263f6	-0.5093378
42	0xbdb20e79	-0.08694167
43	0xbda6dfa9	-0.081481285
44	0xbd44e458	-0.048069328
45	0xbe43f5e9	-0.19136776
46	0xbedd62ea	-0.43239528
47	0xbefe673a	-0.4968813
48	0x3e026f1a	0.12737694
49	0xbe166a1f	-0.1468892
50	0xbdebc95a	-0.11513014
51	0xbe177880	-0.14792061
52	0xbe390055	-0.18066533
53	0xbe6d4031	-0.23169018
54	0xbdb64690	-0.089001775
55	0xbd893e3f	-0.067013256
56	0x3eceb43b	0.4037188
57	0x3c80f7d5	0.015743176
58	0xbebc8472	-0.36819798
59	0xbf05bd8b	-0.52242345
60	0xbee7a8e3	-0.45246038
61	0xbe1dbbcd	-0.15403672
62	0xbefca224	-0.49342453
63	0xbe28235e	-0.16419742
64	0xbdbf63e6	-0.09345226
65	0xbde25d7a	-0.110529855
66	0xbc4bf3f8	-0.012448303
67	0xbd9806aa	-0.07423146
68	0x3da61f37	0.081114225
69	0xbe0c1507	-0.13679896
70	0xbc615d0b	-0.013755093
71	0xbeedc10f	-0.46436355
72	0x3ec3c1d3	0.38233814
73	0xbddd84c4	-0.10816339
74	0xbdf8f366	-0.121557996
75	0xbe460305	-0.1933709
76	0xbd3e922c	-0.04652612
77	0xbd056141	-0.03256345
78	0xbdb9313d	-0.090425946
79	0xbe00663a	-0.12538996
80	0xbedf64d6	-0.4363162
81	0xbe409694	-0.18807441
82	0xbf006fe8	-0.50170755
83	0xbe85da0c	-0.2614292
84	0xbdd19290	-0.10233033
85	0xbe2e98c4	-0.17050463
86	0xbcfaadcd	-0.030600453
87	0x3de16fec	0.110076755
88	0xbe1b399a	-0.15158692
89	0xbe1a9821	-0.15097095
90	0xbe8fe9d7	-0.28108093
91	0xbd794c8a	-0.06086401
92	0xbdaaf5e8	-0.08347684
93	0xbe4b2cd2	-0.19841316
94	0xbe74043b	-0.23829739
95	0xbe22de90	-0.15905213
96	0xbe1a61fc	-0.1507644
97	0xbe135e03	-0.14391331
98	0xbdf3c1f5	-0.11902229
99	0xbe30a6f6	-0.1725119
100	0xbd646d66	-0.055768393
101	0xbda3fa5e	-0.08006738
102	0xbe26e228	-0.1629721
103	0xbe119723	-0.1421781
104	0xbe4bf3f9	-0.19917287
105	0xbe2c0fd9	-0.1680292
106	0xbf149900	-0.5804596
107	0xbe13144a	-0.14363208
108	0x3f0017bc	0.50036216
109	0xbd33f3dc	-0.043933734
110	0xbd7c1b04	-0.0615492
111	0xbe59a020	-0.21252489
112	0xbe39b860	-0.1813674
113	0xbe2b97ab	-0.16757075
114	0xbdfc32be	-0.12314366
115	0xbee52961	-0.44758132
116	0xbe474ed8	-0.1946367
117	0xbe3740ac	-0.17895764
118	0xbd948d13	-0.0725347
119	0xbed5a86d	-0.4173006
120	0xbdbbff4b	-0.09179553
121	0xbd1a9de2	-0.037748225
122	0xbdd17e4c	-0.10229167
123	0xbe2017dd	-0.15634103
124	0xbef750f3	-0.48303947
125	0xbeaea602	-0.3411103
126	0xbe07204d	-0.13195916
127	0xbf1f1054	-0.6213429

nn_model.4.weight f4 [128, 128]
0	0xbaa7b0ce	-0.0012793781
1	0xbd87324e	-0.06601392
2	0xbf2db9eb	-0.67861813
3	0xbda0490b	-0.07826432
4	0xbe1f0671	-0.15529801
5	0xbcc43cc4	-0.023954757
6	0xbe160f0d	-0.14654179
7	0xbdcef53e	-0.1010537
8	0xbdf812da	-0.12112971
9	0xba8ae15b	-0.0010595726
10	0xbc401c30	-0.01172547
11	0xbe171b5a	-0.14756528
12	0x3b5d2d4f	0.003374893
13	0xbdd2fc70	-0.10302055
14	0x3bd1cf88	0.0064029135
15	0xbd0844f3	-0.03326888
16	0xbc4cc140	-0.012497246
17	0xbd236782	-0.039893635
18	0x3c0b6c3e	0.008509694
19	0xbd999995	-0.074999966
20	0x3bf0c1eb	0.0073473356
21	0xbde68398	-0.11255568
22	0xbe03a8c4	-0.12857348
23	0xbaa5e214	-0.0012655878
24	0x3d70806d	0.058716226
25	0xbde1fd65	-0.11034659
26	0xbe705b81	-0.23472406
27	0xbde48512	-0.11158194
28	0xbe1107b1	-0.1416309
29	0xbd8f5be7	-0.06999951
30	0x3d0c0b01	0.03419018
31	0xbb863180	-0.0040952563
32	0xbdd5f778	-0.104475915
33	0xbdad6381	-0.084662445
34	0xbdf9b227	-0.12192183
35	0xbd0fc100	-0.03509617
36	0xbd7210c0	-0.059098005
37	0xbe143f82	-0.14477351
38	0xbca11b8c	-0.019666456
39	0xbc3e3849	-0.011610099
40	0xbaae5f46	-0.001330354
41	0x3c818a79	0.0158131
42	0xbd9fd66d	-0.0780457
43	0xbd2730a3	-0.040817868
44	0x3b9cbf67	0.004783559
45	0xbd3481db	-0.044069152
46	0x3d201d3d	0.039090384
47	0xbd8cf447	-0.0688253
48	0xbe3238c0	-0.17404461
49	0x3bcd4caf	0.006265245
50	0xbd69543e	-0.056965105
51	0xbbb37cac	-0.0054775085
52	0xbcf40173	-0.029785847
53	0xbcfd9b65	-0.030957887
54	0xbd4b8b55	-0.049693424
55	0xbdcf626b	-0.101261936
56	0xbe1548c8	-0.14578545
57	0xbcec87df	-0.028873382
58	0xbddafe06	-0.106929824
59	0x3ba60bc9	0.005067323
60	0xbb8352e9	-0.0040076864
61	0xbde970b7	-0.11398452
62	0xbd082bb2	-0.033244796
63	0xbd1ea5cf	-0.038732346
64	0xbe008fed	-0.12554903
65	0xbcc0dbec	-0.023542367
66	0xbb8a0b46	-0.0042127697
67	0xbcb41209	-0.021981256
68	0xbd80366a	-0.06260379
69	0xbdd2b538	-0.10288471
70	0xbe0e6a9a	-0.13907853
71	0xbd3a22f8	-0.045443505
72	0xbe919af6	-0.28438538
73	0xbd7e8ce4	-0.062146083
74	0xbd83c50c	-0.06434068
75	0xbdc3a1cc	-0.09552345
76	0xbd5a453c	-0.053288683
77	0xbdc03483	-0.09385016
78	0xbdd7224d	-0.10504589
79	0xbd5a9e4c	-0.05337362
80	0x3d51ee55	0.05125268
81	0xbdda7ff3	-0.106689356
82	0xbb21fc28	-0.0024716947
83	0xbdb18b76	-0.08669178
84	0xc0b96e0d	-5.794684
85	0xbe0598b1	-0.13046528
86	0xbd3ac9ec	-0.045602724
87	0xbe23f182	-0.16010097
88	0xbcc06b7c	-0.023488753
89	0xbcb99d97	-0.022658153
90	0xbd9f411c	-0.077760905
91	0xc011684d	-2.271991
92	0xbda3d34a	-0.079992846
93	0xbe081ca7	-0.1329218
94	0xbd566460	-0.05234182
95	0xbe12e842	-0.14346412
96	0xbe050e20	-0.1299367
97	0xbc1498b1	-0.009069608
98	0xbdd3e2d5	-0.10345999
99	0xbd1a5824	-0.037681714
100	0x3c552a42	0.013010563
101	0xbe0443d5	-0.12916501
102	0xbe0f6890	-0.14004731
103	0xbe0154de	-0.1263003
104	0xbc9a1ae6	-0.018811654
105	0x3ca57fcf	0.020202545
106	0xbd461be6	-0.04836645
107	0xbe007d6a	-0.12547842
108	0xbf8d0cd4	-1.101954
109	0xbdc65316	-0.09683816
110	0xbe13f6a0	-0.14449549
111	0xbccca6a7	-0.02498181
112	0x3bb53838	0.0055303834
113	0x3c2851fa	0.010273451
114	0xbe0ff7dd	-0.14059396
115	0xbd686c85	-0.056744117
116	0xbd9d390f	-0.07676899
117	0xbe1346fd	-0.14382549
118	0xbba90178	-0.005157646
119	0xbd02ddb6	-0.03194972
120	0xbd857a05	-0.06517414
121	0xbd5e4951	-0.05426914
122	0xbd99cb81	-0.075095184
123	0xbbe56ecf	-0.007001735
124	0x3d4f89c8	0.050668508
125	0xbd646de1	-0.05576885
126	0x3c5a7e6c	0.013335805
127	0x3b9fae9c	0.00487311
128	0x3cb09d1e	0.021559294
129	0xbd7eb2d4	-0.062182263
130	0xbf27f081	-0.65601355
131	0xbdb36503	-0.08759501
132	0xbe3e94df	-0.18611477
133	0xbbbfda1d	-0.0058548586
134	0xbd677cc9	-0.05651549
135	0xbd954734	-0.072889715
136	0x3be6fdbd	0.007049291
137	0x3d59b9e3	0.05315579
138	0xbcd77888	-0.026302591
139	0xbd353359	-0.044238422
140	0x3c180c1f	0.009280234
141	0xbddcb137	-0.107759885
142	0xbdf22699	-0.11823768
143	0xbe2fb910	-0.1716044
144	0x3c0fe5d2	0.008782821
145	0x3c8b7264	0.01702232
146	0x3b74037f	0.003723353
147	0xbc8f0dc9	-0.017462628
148	0x3d390949	0.04517487
149	0xbde71ed1	-0.11285175
150	0xbe4076df	-0.18795346
151	0xbdc0ca9f	-0.09413647
152	0x3cabece5	0.020986984
153	0xbdacba9a	-0.08434029
154	0xbe755013	-0.23956327
155	0xbdfcc59c	-0.123423785
156	0xbd7eb261	-0.062181834
157	0xbdf992b6	-0.12186186
158	0xbd144a33	-0.036203574
159	0xbd80e300	-0.06293297
160	0x3c5835a9	0.013196387
161	0xbc43e1dd	-0.0119557055
162	0xbcb82b8d	-0.022481704
163	0xbda63258	-0.08115071
164	0xbd2b374c	-0.041800782
165	0xbde152bf	-0.11002111
166	0xbbfa4849	-0.0076380116
167	0x3caea1b8	0.021317348
168	0xbe044110	-0.12915444
169	0x3b6d5ca1	0.0036218541
170	0xbde9e4e2	-0.11420609
171	0xbdc63972	-0.096789256
172	0xbde18001	-0.11010743
173	0xbd029938	-0.031884402
174	0xbce652d4	-0.028115667
175	0x3cbd5b1c	0.023114733
176	0xbe016038	-0.12634361
177	0xbdd39b35	-0.10332338
178	0xbc8b9535	-0.01703892
179	0xbd8b2c75	-0.06795589
180	0xbcd3acc2	-0.025839213
181	0xbcba5c3e	-0.022749063
182	0xbdef543e	-0.1168599
183	0x3c5916d6	0.013250073
184	0xbdad7803	-0.08470156
185	0xbd016d0d	-0.03159814
186	0xbe09bf1a	-0.13451806
187	0x3b327496	0.0027230135
188	0x3c0f36b7	0.008741072
189	0x3c5af01b	0.01336291
190	0x3c54b19e	0.0129818
191	0xbd7b1df9	-0.06130788
192	0xbcb1ddcf	-0.021712212
193	0xbe0105bd	-0.12599845
194	0xba505fca	-0.0007948844
195	0xbd5aa570	-0.05338043
196	0xbd4c6dd2	-0.04990942
197	0xbd9069ea	-0.070514515
198	0xb90e4036	-0.00013566096
199	0xbb7f249e	-0.0038931738
200	0xbe9927e8	-0.2991326
201	0xbcc102a6	-0.023560833
202	0xbbdf9f89	-0.006824438
203	0xbddcfe85	-0.10790733
204	0xbd54fd4d	-0.05199938
205	0xbd0a8fa5	-0.033828396
206	0xbda654e7	-0.081216626
207	0xbdd27e38	-0.102779806
208	0xbd914c81	-0.0709467
209	0xbdd17a8e	-0.102284536
210	0x3c0b3d47	0.008498496
211	0xbd1f0245	-0.038820524
212	0xc0b6b985	-5.7101464
213	0xbd206681	-0.039160255
214	0xbdc8b33b	-0.097998105
215	0xbe0a3511	-0.13496806
216	0xbd146211	-0.036226336
217	0xbccc9199	-0.02497177
218	0xbd3a188e	-0.045433573
219	0xbff301d1	-1.8984929
220	0xbdc6b3a5	-0.09702233
221	0xbe0dc91d	-0.1384625
222	0x3bd0a9ba	0.0063678892
223	0xbda5d61d	-0.080974795
224	0xbe142a0f	-0.14469169
225	0x3b9e84d0	0.00483761
226	0x3bf7e893	0.007565567
227	0xbda60494	-0.08106342
228	0xbd7048ae	-0.058663063
229	0xbdf575e0	-0.119853735
230	0xbb811223	-0.0039389296
231	0xbe06c356	-0.13160452
232	0x3bc370ee	0.00596439
233	0xbcf63620	-0.030055106
234	0x3bfe3d8c	0.007758802
235	0xbdd911a7	-0.1059907
236	0xbf7e6cda	-0.99384844
237	0xbd78c584	-0.06073524
238	0xbce907f7	-0.02844618
239	0xbd173b67	-0.036921885
240	0xbd253878	-0.040337056
241	0x3cd302bb	0.025758138
242	0xbd1bb6e1	-0.038016204
243	0x3cff542e	0.03116807
244	0xbdd12b40	-0.102133274
245	0xbc1f961d	-0.00974038
246	0x3cb701b4	0.02233968
247	0xbc091b50	-0.008368328
248	0xbe071f1a	-0.13195458
249	0xbe055685	-0.13021286
250	0xbd2c6ab6	-0.042093955
251	0xbde9b564	-0.11411551
252	0xbd1869db	-0.037210327
253	0xbdbaaf4d	-0.09115467
254	0xbbedba23	-0.0072548552
255	0x3d588dd3	0.05286963

nn_model.4.bias f4 [128]
0	0xbe869a8b	-0.26289782
1	0xbe81d56a	-0.25358135
2	0xbecc4394	-0.39895308
3	0xbe4b65d9	-0.1986307
4	0xbe908620	-0.2822733
5	0xbe8e7845	-0.27826133
6	0xbf89b708	-1.0758982
7	0xbea7305b	-0.3265408
8	0xbea89703	-0.32927713
9	0xbebbfe4d	-0.36717454
10	0xbf8e683b	-1.1125559
11	0xbeccb0d0	-0.39978647
12	0xbea43ee6	-0.32079238
13	0xbf919204	-1.1372685
14	0xbe9d7670	-0.30754423
15	0xbeaaf52a	-0.3339017
16	0x3e64f9ab	0.22360866
17	0x3e33ad78	0.17546642
18	0xbe971ce4	-0.2951423
19	0xbf8f8b20	-1.1214333
20	0xbedbb93a	-0.42914754
21	0xbeb96b28	-0.36214566
22	0xbeb007db	-0.34380993
23	0xbe9e1696	-0.30876607
24	0xbe9fba05	-0.3119661
25	0xbe8873ef	-0.2665095
26	0x3e126f90	0.1430037
27	0xbe87ba57	-0.26509354
28	0xbed58dd3	-0.41709766
29	0xbf899bb4	-1.0750642
30	0xbea0930f	-0.31362197
31	0xbdf2727f	-0.11838245
32	0xbe906d90	-0.2820859
33	0xbe1be732	-0.15224913
34	0xbf82388b	-1.0173506
35	0xbf90d7ec	-1.1315894
36	0xbeaa8f17	-0.33312294
37	0x3c159447	0.00912959
38	0xbf908317	-1.1290005
39	0xbe8ea12a	-0.27857333
40	0xbe49c9c6	-0.19705877
41	0xbf5e0785	-0.86730224
42	0x3e99e0c5	0.30054298
43	0xbe99847e	-0.29983896
44	0xbec139d5	-0.37739435
45	0xbf18a229	-0.59622437
46	0x3d0e3acc	0.03472404
47	0xbe9eb759	-0.30999258
48	0x3ecb5d82	0.39719778
49	0xbf8985bd	-1.0743939
50	0x3e89ea3e	0.26936525
51	0xbeaf2a9d	-0.342122
52	0x3e0297e2	0.12753251
53	0xbe98e317	-0.29860756
54	0xbeb3a5f2	-0.35087544
55	0xbe87c315	-0.26516023
56	0x3cffdb3d	0.03123247
57	0xbea470b6	-0.32117242
58	0xbef5eb87	-0.48031256
59	0xbefebb6f	-0.49752375
60	0xbe9b25a4	-0.30302155
61	0x3e99a4eb	0.30008635
62	0xbe8b4cf7	-0.27207157
63	0xbe96accb	-0.29428706
64	0xbe805982	-0.2506829
65	0xbde75366	-0.11295204
66	0xbe9a1d94	-0.3010069
67	0x3d2fde9a	0.0429369
68	0xbea6e251	-0.3259454
69	0xbecdc783	-0.40191278
70	0x3ec96ef1	0.39342454
71	0xbe5c015b	-0.21484892
72	0xbe9e37e0	-0.30902004
73	0xbf91ee7b	-1.1400903
74	0xbe91f32f	-0.28505847
75	0xbeac6392	-0.33669716
76	0xbe3d8277	-0.185068
77	0x3c63e21a	0.013908887
78	0xbe9e8750	-0.3096261
79	0xbe83ad2d	-0.2571806
80	0xbe76e0d8	-0.24109209
81	0xbe99c7cc	-0.30035245
82	0xbe8e8d29	-0.27842072
83	0xbf90a14e	-1.1299226
84	0xbf901ed9	-1.1259414
85	0xbf8f193b	-1.1179575
86	0xbe8eeee6	-0.2791664
87	0xbf9008ec	-1.1252723
88	0xbe9bf944	-0.30463612
89	0xbe910041	-0.28320506
90	0xbe9a9d05	-0.3019792
91	0xbe46d56b	-0.1941735
92	0xbf929124	-1.1450543
93	0xbea385af	-0.3193793
94	0xbeaa1b57	-0.33223984
95	0xbf913abc	-1.1346049
96	0xbe09ca4c	-0.13456076
97	0xbf19cbe8	-0.6007676
98	0xbf33d218	-0.7024245
99	0xbec1ba93	-0.37837657
100	0xbe8b9fd8	-0.2727039
101	0x3dc840c1	0.09777976
102	0xbea4fc80	-0.32223892
103	0xbed4bed3	-0.41551837
104	0xbf9267f2	-1.1437972
105	0xbec54ec0	-0.38536644
106	0xbd886f70	-0.0666188
107	0xbe9075ab	-0.28214774
108	0xbe9f5e3e	-0.3112659
109	0xbe61d67a	-0.22054473
110	0xbe672076	-0.22570977
111	0xbdcc4ee1	-0.099759825
112	0xbf89d826	-1.0769088
113	0xbedab851	-0.42718747
114	0xbe8a2909	-0.26984432
115	0xbe95a866	-0.2923004
116	0xbf8c5a6c	-1.0965095
117	0xbf3581a1	-0.70900923
118	0x3e332d9a	0.17497864
119	0xbe9abc09	-0.30221584
120	0xbe9c984c	-0.30584943
121	0xbe9c1638	-0.30485702
122	0xbea434f6	-0.32071656
123	0xbf8f125f	-1.1177481
124	0xbf9690c2	-1.1762927
125	0xbd9c6cf3	-0.07637968
126	0xbf9361b7	-1.1514195
127	0xbe1dd93a	-0.15414897

allocation_head.0.weight f4 [8, 128]
0	0xbd78b1b7	-0.060716357
1	0xbc4f1524	-0.012639318
2	0xbce4d70c	-0.027934574
3	0xbcaa167d	-0.020762676
4	0xbdc0b668	-0.09409791
5	0xbd14e6aa	-0.03635279
6	0xbae58a40	-0.0017512515
7	0x3c245ed0	0.010032371
8	0xbd8b0d6d	-0.0678967
9	0x3d8d55f2	0.069011584
10	0xbcdad35c	-0.026712112
11	0x3d2ec370	0.042666852
12	0xbe13f6cd	-0.14449616
13	0xbd6853e2	-0.056720622
14	0x3c15c91a	0.009142185
15	0x3d440b06	0.047862075
16	0xbdb91748	-0.09037644
17	0x3ea09f94	0.31371748
18	0xbdf5b62f	-0.119976394
19	0xbd1da786	-0.03848984
20	0xbce27ce8	-0.02764745
21	0x3de89d06	0.11358075
22	0x3c967fe2	0.018371526
23	0x3bc7d868	0.0060987957
24	0x3cfda6c5	0.030963311
25	0xbd4facc1	-0.05070186
26	0x3e44f41f	0.1923375
27	0xbd15a3f1	-0.0365333
28	0xbdecd80a	-0.11564644
29	0xbcb74fac	-0.022376858
30	0x3c31bcd0	0.010848239
31	0xbc568241	-0.013092578
32	0xbc81068d	-0.015750194
33	0x3cfb0b94	0.03064517
34	0xbdf21dd6	-0.11822097
35	0xbda98920	-0.08278108
36	0xbde4a83b	-0.111649
37	0x3e70f0a9	0.23529305
38	0x3d218c5e	0.039440505
39	0xbc8d0647	-0.017214907
40	0x3d4d5ed8	0.05013928
41	0xbdd6d95e	-0.10490678
42	0x3e14c3ba	0.14527789
43	0xbe11fe6f	-0.14257215
44	0xbdfe0602	-0.1240349
45	0xbdd82f12	-0.10555853
46	0xbe593939	-0.21213235
47	0x3dc56dcb	0.09640082
48	0xbe138c44	-0.14408976
49	0xbb510300	-0.0031892657
50	0x3f24851c	0.6426561
51	0x3ce3de62	0.027816001
52	0x3e509503	0.20369343
53	0x3d9e0238	0.07715267
54	0x3af57652	0.0018727279
55	0xbceb0e23	-0.028693264
56	0xbdf86dc3	-0.121303104
57	0xbe03ab26	-0.12858257
58	0xbc8b0b11	-0.01697305
59	0xbdd876f4	-0.105695635
60	0x3daede7d	0.0853853
61	0x3deb7321	0.114965685
62	0xbde637ab	-0.112410866
63	0xbe242b68	-0.16032183
64	0x3d9efc3f	0.07762956
65	0x3d1ef3f2	0.038806863
66	0xbd682871	-0.056679193
67	0xbcf886d0	-0.030337721
68	0xbbab0a13	-0.005219707
69	0x3e145c30	0.14488292
70	0x3f39171e	0.723009
71	0x3cb68042	0.022277955
72	0xbccf65fb	-0.025317183
73	0x3d95fbc3	0.0732341
74	0x3c8a20f2	0.016861413
75	0x3c92f875	0.01794074
76	0x3d78b863	0.06072272
77	0xbccbbb52	-0.024869595
78	0x3d57ea20	0.052713513
79	0xbdec37cf	-0.11534082
80	0xbe11d8c6	-0.14242849
81	0x3dfe2d38	0.124109685
82	0x3bea6a06	0.0071537523
83	0xbdb49264	-0.08816984
84	0x3c8786ec	0.016543828
85	0xbc73f4c8	-0.014889903
86	0xbd97d695	-0.07413975
87	0xbd25b9c7	-0.040460374
88	0x3da8de01	0.08245469
89	0xbde635a9	-0.112407036
90	0xbce26396	-0.027635377
91	0xbe020ebe	-0.12700936
92	0x3d81962b	0.063274704
93	0xbcdd23c3	-0.026994592
94	0xbd325ae5	-0.043543715
95	0xbd6ada76	-0.057337247
96	0x3d59c124	0.05316271
97	0xbd280b8d	-0.04102664
98	0xbc64523e	-0.013935624
99	0xbbba0c37	-0.0056777257
100	0x3cbd3673	0.023097252
101	0x3b8ff62c	0.0043933596
102	0x3be3aeab	0.0069483123
103	0xbe3776f9	-0.17916478
104	0xbdac704d	-0.08419857
105	0x3d5d2f2f	0.054000076
106	0xbc391889	-0.011297354
107	0xbe034fae	-0.12823364
108	0x3d24a56b	0.040196817
109	0x3d6cb58a	0.057790317
110	0xbcdeb123	-0.027184075
111	0x3ae67ba5	0.0017584456
112	0xbd5c508f	-0.053787764
113	0x3e0ead38	0.13933265
114	0x3a0804db	0.0005188712
115	0xbe09d22a	-0.13459077
116	0xbcb43624	-0.021998473
117	0xbd628eec	-0.055312082
118	0x3d861ad9	0.065480895
119	0xbd201dba	-0.03909085
120	0xbccfcb8b	-0.025365612
121	0xbd604970	-0.054757535
122	0x3b0ca7ac	0.0021462245
123	0x3d2b500e	0.041824393
124	0xbdada481	-0.08478642
125	0xbb8d1449	-0.0043053967
126	0xbcb54218	-0.022126243
127	0x3d61d138	0.055131167
128	0xbdba50ee	-0.09097467
129	0xbe07adc6	-0.13249883
130	0x3cd9a2a2	0.026566807
131	0x3d7b6b97	0.061381903
132	0xbdf0ec20	-0.11763787
133	0xbd8447d2	-0.06459011
134	0x3d819535	0.06327287
135	0xbd8d90ac	-0.069123596
136	0x3d7ff920	0.062493443
137	0x3d1b8c56	0.03797563
138	0x3c928a2c	0.017888151
139	0x3dee11fc	0.11624524
140	0x3cc1eae4	0.023671575
141	0x3d6e43ae	0.058170013
142	0x3e049f27	0.12951337
143	0x3d1f1a80	0.03884363
144	0xbe924ff2	-0.28576618
145	0xbd665013	-0.05622871
146	0x3909b6c2	0.0001313342
147	0xba163400	-0.00057297945
148	0x3c5dfc61	0.013548941
149	0xbba51605	-0.0050380253
150	0xbd2d239a	-0.04227028
151	0xbe09dcf7	-0.13463198
152	0x3d455329	0.04817501
153	0xbc3dba47	-0.0115800565
154	0x3cfcdd0a	0.030867118
155	0xbca1501f	-0.019691525
156	0x3deb8b4c	0.11501178
157	0xbd8da63b	-0.069164716
158	0x3cdb58dc	0.02677577
159	0x3d741f0f	0.059599932
160	0x3cde6487	0.027147545
161	0xbb9f8828	-0.004868526
162	0xbca5f263	-0.02025718
163	0xbd9c4c88	-0.07631785
164	0xbd974fd7	-0.07388275
165	0xbd4c2fb1	-0.04985017
166	0xbd24770f	-0.040152606
167	0xbcdb2e6a	-0.02675553
168	0xbd0afa34	-0.03393002
169	0x3d559282	0.052141674
170	0x3e84bd7e	0.2592582
171	0x3cc47c74	0.023985125
172	0x3e0fc81a	0.14041176
173	0x3dbaedf5	0.09127418
174	0x3e801401	0.25015262
175	0x3dcf756a	0.10129817
176	0xbe1ef25c	-0.1552214
177	0xbd219dd5	-0.03945716
178	0x3ecb4c16	0.39706486
179	0xbe06a131	-0.13147427
180	0x3eb0b99e	0.34516615
181	0xbc72cb12	-0.014818924
182	0x3b4b03c0	0.0030977577
183	0x3da9050e	0.08252917
184	0xbc52cf52	-0.012866812
185	0xbcec3e1b	-0.028838208
186	0x3cc3932a	0.023873884
187	0xbda0f143	-0.07858517
188	0xbcdf5765	-0.027263353
189	0x3cb72ee0	0.022361219
190	0x3c25e4e3	0.010125372
191	0x3dce9031	0.10086096
192	0xbd892599	-0.06696624
193	0xbdcc11cf	-0.09964334
194	0xbdfa935e	-0.12235139
195	0xbed6d598	-0.41959834
196	0xbde476fe	-0.111555085
197	0x3db8d396	0.09024732
198	0xbe39cf90	-0.18145585
199	0x3d332039	0.0437319
200	0xbd66bfd1	-0.056335274
201	0x3d6960e2	0.05697716
202	0xbe01e9c7	-0.12686835
203	0xbdf73e2f	-0.120724075
204	0x3c458cda	0.012057507
205	0x3d9ac945	0.0755792
206	0x3c5d4267	0.013504601
207	0x3e09d0ce	0.13458559
208	0xbce62145	-0.028092036
209	0x3d687d0d	0.056759883
210	0xbd78ab00	-0.060709953
211	0xbc8f2300	-0.017472744
212	0x3c35b1d8	0.011089765
213	0xbca556d8	-0.020183012
214	0xbd70f294	-0.05882509
215	0x3c38c640	0.011277735
216	0xbb6c5161	-0.0036059248
217	0xbdd9de43	-0.10638096
218	0x3c445c5a	0.011984909
219	0xbd8ac17a	-0.06775184
220	0xbbcff910	-0.0063468292
221	0x3ce07a2c	0.027402006
222	0x3d9e2459	0.077217765
223	0x3b2401c0	0.0025025457
224	0xbd1edd64	-0.038785353
225	0xbc7c9f7c	-0.015418883
226	0xbdf1ec57	-0.118126564
227	0x3ca78170	0.020447463
228	0xbdb7b8bb	-0.089707814
229	0x3e9c2663	0.30498037
230	0x3d396b2a	0.045268215
231	0x3d4ccd52	0.050000496
232	0x3c34c930	0.011034295
233	0x3e09fde0	0.13475752
234	0x3dd9c426	0.106331155
235	0xbded6ec5	-0.11593393
236	0x3daeec07	0.085411124
237	0xbc8cd1a4	-0.017189808
238	0xbc3f09f2	-0.011660086
239	0xbe0b7fb4	-0.13622934
240	0x3cef15a8	0.029185131
241	0x3e01219a	0.12610474
242	0xbdb540c0	-0.08850241
243	0xbd75655f	-0.059911128
244	0x3d3a62d2	0.0455044
245	0xbe130f45	-0.14361294
246	0x3f27dff3	0.65576094
247	0xbe08568b	-0.13314264
248	0xbd70faf0	-0.058833063
249	0xbd99ba6f	-0.075062625
250	0x3c9ce210	0.019150764
251	0x3c3f6770	0.011682376
252	0x3d95b033	0.07308998
253	0x3c977fb6	0.018493515
254	0xbd56f0b2	-0.05247564
255	0xbacee061	-0.0015783423

allocation_head.0.bias f4 [8]
0	0xbe1dfded	-0.15428896
1	0xbc766234	-0.015038062
2	0xbd662d29	-0.05619541
3	0xbe3e1b08	-0.18564999
4	0x3e787ea0	0.24267054
5	0x3e815c17	0.2526557
6	0xbe31c0d4	-0.17358714
7	0xbe36d366	-0.1785408

payment_head.0.weight f4 [3, 128]
0	0x3d595b74	0.053065732
1	0x3d031081	0.03199816
2	0xbd398312	-0.045291014
3	0x3ca12074	0.019668795
4	0xbbf47852	-0.0074606324
5	0x3d1f75b2	0.038930602
6	0xbd969272	-0.07352151
7	0x3dea17f1	0.11430348
8	0x3b76d027	0.003766069
9	0x3d1138ad	0.03545444
10	0xbcbaa738	-0.022784814
11	0x3c1a5289	0.009419092
12	0x3dd1f6c3	0.10252144
13	0x3c57e3b8	0.013176851
14	0x3c814f31	0.015784832
15	0xbbbcc602	-0.005760909
16	0xbe878648	-0.26469636
17	0x3ea3d466	0.31997985
18	0x3d31cef4	0.043410257
19	0xbd2002b8	-0.039065093
20	0x3dedee05	0.11617664
21	0x3d1d1614	0.038351133
22	0xbdcb9826	-0.099411294
23	0x3d553f1b	0.052062135
24	0x3d56094e	0.052254967
25	0x3dc1195a	0.094286636
26	0x3e56642e	0.20936653
27	0xbd9a1100	-0.07522774
28	0x3c39059d	0.011292842
29	0x3d9ba907	0.07600599
30	0xbbe9c975	-0.0071346113
31	0x3de40563	0.1113384
32	0xbd29cac2	-0.04145313
33	0xbcae25f1	-0.021258326
34	0x3d4a31a6	0.049363755
35	0xbdaa71b5	-0.08322469
36	0x3dc1f29c	0.09470102
37	0x3d912b80	0.07088375
38	0x3cadd1dc	0.021218233
39	0x3d52369e	0.05132162
40	0xbab3cdd0	-0.0013717953
41	0x3b7fe04d	0.0039043606
42	0x3eb819d9	0.3595722
43	0xbce402ef	-0.02783343
44	0xbcc9dbb5	-0.024640897
45	0x3d206abb	0.039164286
46	0x3e89b939	0.26899126
47	0xbcf21c22	-0.02955443
48	0xbe27e781	-0.16396905
49	0xbd84b03c	-0.064789265
50	0x3f14aa48	0.5807233
51	0x3d4d87a1	0.050178174
52	0x3f048ea2	0.5178014
53	0xbd5480db	-0.0518807
54	0x3dc9ad93	0.0984756
55	0xbcb6f1b2	-0.022332046
56	0x3d37cb97	0.044871893
57	0x3b976034	0.0046196226
58	0xbd9156f8	-0.07096666
59	0x3df09f6e	0.11749159
60	0xbda29962	-0.07939412
61	0xbdb312b9	-0.087438054
62	0x3cccd9bc	0.025006168
63	0xbd9acc29	-0.07558472
64	0xbc8ad7f6	-0.016948681
65	0xbe26a0d6	-0.16272292
66	0x3d725ecc	0.059172437
67	0xbee0a84f	-0.4387841
68	0x3d557605	0.052114505
69	0x3d2d9b54	0.04238446
70	0x3f1ea14e	0.6196488
71	0xbc27a52f	-0.010232254
72	0x391c721f	0.00014919833
73	0x3d282d3a	0.041058756
74	0xbc17f715	-0.009275218
75	0xbc78e7ce	-0.015191985
76	0xbc406225	-0.0117421495
77	0xbd958c3e	-0.0730214
78	0xbda6ef41	-0.08151103
79	0xbcce67dd	-0.02519601
80	0x3cd3a78f	0.025836734
81	0xbc8263a7	-0.015916659
82	0xbcb23c82	-0.021757368
83	0xbdafdaa2	-0.08586623
84	0x3c37bb28	0.011214055
85	0xbd826836	-0.06367533
86	0xbc8e987f	-0.0174067
87	0xbd0b7d0f	-0.034054812
88	0xbd7503c3	-0.05981804
89	0xbca60084	-0.020263918
90	0x3a83c4df	0.0010053179
91	0xbdcdbbe3	-0.10045602
92	0xbdaab234	-0.08334771
93	0x3d4318a2	0.047630914
94	0xbdb43550	-0.08799231
95	0xbd7afa8c	-0.061274096
96	0xbd12b56e	-0.035817556
97	0xbc0387eb	-0.008028011
98	0xbdfabbda	-0.12242861
99	0x3bbc26cb	0.005741929
100	0x3d9cd64a	0.0765806
101	0x3e9b8d0c	0.30381048
102	0xbd8c03e1	-0.06836677
103	0xbdbefda5	-0.093257226
104	0xbc060588	-0.00818003
105	0xbd61dc37	-0.055141654
106	0x3d26ed1f	0.04075348
107	0xbce5449b	-0.027986815
108	0xbd29fa8f	-0.041498717
109	0xbadba332	-0.001675701
110	0xba9e6a5f	-0.0012086144
111	0xbd5d1c63	-0.05398215
112	0x3d2ef62e	0.042715244
113	0xbcc9e5ad	-0.02464565
114	0x3da5e2da	0.08099909
115	0xbc093336	-0.008374026
116	0x3d33f4a2	0.043934472
117	0xbc7ef005	-0.015560155
118	0x3f1689eb	0.58804196
119	0xbcc176e2	-0.023616258
120	0xbc695461	-0.014241309
121	0x3d7b51f4	0.061357453
122	0x3cd0cca4	0.025488205
123	0xbd9b062f	-0.07569539
124	0xbd217da9	-0.03942648
125	0x3e5ed227	0.21759854
126	0xbc72da10	-0.014822498
127	0xbdacf546	-0.0844522
128	0xbccc9718	-0.02497439
129	0x3d042193	0.03225858
130	0xbdaf4f3f	-0.08560037
131	0xbd9f5461	-0.07779766
132	0x3dc61f2f	0.096739165
133	0xbb917b96	-0.0044397814
134	0x3c697b48	0.014250584
135	0x3d71d2a8	0.059038788
136	0x3cc277fe	0.023738857
137	0xbdc436a6	-0.09580736
138	0xbcf046de	-0.029330667
139	0x3e04d665	0.1297241
140	0xbb58af6a	-0.003306354
141	0xbd80f2aa	-0.062962845
142	0xbd94e8a5	-0.07270936
143	0xbd2741e4	-0.040834323
144	0x3d10ac0b	0.035320323
145	0x3cde2772	0.027118418
146	0x3d1ed552	0.038777657
147	0xbd5b85b0	-0.05359429
148	0x3d34fc8b	0.044186156
149	0xbd77491d	-0.06037246
150	0x3d4e2c91	0.05033547
151	0xbcd4dbfc	-0.025983803
152	0xbdab3a3c	-0.08360717
153	0xbc424339	-0.011856847
154	0x3d51400b	0.051086467
155	0x3cc41e6b	0.023940286
156	0x3e0cd40a	0.13752761
157	0xbd9d965c	-0.076946944
158	0xbd43c446	-0.047794603
159	0xbc647ec9	-0.013946244
160	0x3d0700eb	0.03295986
161	0x3eb76bdf	0.35824487
162	0x3d6aae75	0.05729528
163	0xbd73404c	-0.05938749
164	0x3df2be0f	0.11852657
165	0xbe26220a	-0.16223922
166	0x3d3b7566	0.045766257
167	0x3d1cc409	0.03827289
168	0xbbf3f24f	-0.007444657
169	0x3e0edf24	0.13952309
170	0x3cb3fd78	0.02197145
171	0xbca6fcc7	-0.020384206
172	0x3acdd028	0.0015702294
173	0x3cc08dec	0.023505174
174	0x3d6159ef	0.055017408
175	0x3d3d1c48	0.04616955
176	0xbe92a671	-0.2864261
177	0xbd7027aa	-0.058631577
178	0xbe149131	-0.14508511
179	0x3c380837	0.011232427
180	0xbc7390f7	-0.014866105
181	0xbdeb1676	-0.114788935
182	0xbcb72970	-0.022358626
183	0xbd9be117	-0.07611292
184	0xbd942bef	-0.07234942
185	0x3dd47f9b	0.10375901
186	0xbdbff561	-0.09372974
187	0x3da7e10c	0.08197221
188	0x3cae43ea	0.021272618
189	0x3dc0c4c0	0.09412527
190	0x3d296263	0.041353595
191	0xbdc4bf83	-0.096068405
192	0xbca306e5	-0.019900749
193	0x3d02c85c	0.03192936
194	0x3820c679	3.8331815e-05
195	0x3d3ca39e	0.046054475
196	0x3de104f3	0.10987272
197	0x3bd506ba	0.006501046
198	0xbd7b8ee2	-0.06141556
199	0x3c2e293f	0.010629951
200	0x3cce84da	0.025209833
201	0xbccacf5c	-0.02475708
202	0x3dd53462	0.10410382
203	0xbc16932d	-0.009190363
204	0xbb69b997	-0.0035663599
205	0xbd043421	-0.032276276
206	0x3c811d1a	0.015760947
207	0xbc88f82a	-0.016719896
208	0xbc5b29aa	-0.013376633
209	0xbbbc3924	-0.0057441164
210	0x3dbc329a	0.09189339
211	0xbda87c97	-0.082268886
212	0xbd49e4f1	-0.0492906
213	0xbda5a0f9	-0.08087344
214	0xbb58305b	-0.0032987806
215	0xbd235a0a	-0.03988079
216	0x3ce1cbe1	0.027563037
217	0x3d2debce	0.04246121
218	0x3de2eb6f	0.11080062
219	0x3f1ba079	0.60791737
220	0x3d24fe22	0.040281422
221	0xbc9c3c68	-0.019071773
222	0x3c53990b	0.012914906
223	0x3d0a1814	0.03371437
224	0x3da5d583	0.08097365
225	0xbcdedba2	-0.027204338
226	0xba932af5	-0.0011228012
227	0x3ce273c6	0.027643096
228	0xbcb5af76	-0.022178393
229	0xbcab48e8	-0.020908788
230	0x3cfa9370	0.030587882
231	0xbddbe2d6	-0.10736625
232	0x3ced9570	0.029001921
233	0xbc876e33	-0.01653204
234	0xbc831e69	-0.016005712
235	0x3e177ce6	0.14793739
236	0x3d0f4b6e	0.034984045
237	0x3d117c18	0.035518736
238	0x3d224bb6	0.039622985
239	0x3f106f8d	0.56420213
240	0xbda8b1b8	-0.08237022
241	0x3c4a4e55	0.012347777
242	0x3d288d4f	0.041150387
243	0x3d0a7077	0.03379866
244	0x3da734e3	0.08164384
245	0x3dd04011	0.1016847
246	0xbd2fcc94	-0.04291971
247	0x3df61fa9	0.120177574
248	0xbbc3ac35	-0.0059714564
249	0x3d4c0d93	0.049817633
250	0xbcffacc5	-0.031210313
251	0x3cbc53bc	0.022989146
252	0x3d3a2c0e	0.04545217
253	0x3cfa9cb4	0.0305923
254	0xbcda5590	-0.026652128
255	0x3e2ee734	0.17080384

payment_head.0.bias f4 [3]
0	0x3e812f90	0.252316
1	0x3dfb1c02	0.122612014
2	0x3ecf3ef1	0.40477708
