model/3x2_sparsemax_in_linsigpmt_scratch_fast.pt (torch_old, 144461 bytes, 10 tensors)

nn_model.0.weight f4 [128, 6]
000000 e4 73 d7 be e3 e9 20 bf 03 e9 a0 bf 40 b2 89 bf
       -0.42080605 -0.6285688 -1.257111 -1.0757523
000010 4b 58 88 bf c5 ea ac bf 85 5e 43 bc 11 fe 5e be
       -1.0651945 -1.3509146 -0.011924391 -0.21776606
000020 a8 ce 5f 3c 87 45 5a 3c b7 39 d4 bd 5c dc a2 bd
       0.0136601105 0.013322241 -0.10362571 -0.079521865
000030 37 84 18 3b 76 66 4e 3f 44 67 30 3b ae 74 2d 3c
       0.0023272166 0.80625093 0.002691702 0.010586901
000040 2e 1f 56 3c 20 7e 52 3c a3 8d d6 3d b9 1f c8 be
       0.013068957 0.012847453 0.10476234 -0.39086702
000050 6e 0a c5 bb 8f 74 93 bb 19 49 88 be 17 98 98 be
       -0.006013206 -0.004499979 -0.2661827 -0.29803535
000060 cf ac 41 bf 38 34 ab bd e6 bb 66 3c a9 31 e4 3b
       -0.7565431 -0.08359569 0.014082884 0.0069639278
000070 d3 74 cb 3c f4 d0 9a 3c 43 f9 22 bf 41 75 e2 bd
       0.02483598 0.018898465 -0.63661593 -0.11057521
000080 a1 08 1c be 5e ed 4e be 4d 29 a9 be 5d bc c7 bd
       -0.15237667 -0.20207736 -0.33039322 -0.09752724
000090 2e e5 78 bf be a7 3e bf ea 58 38 bf a5 c6 44 bf
       -0.972247 -0.74474704 -0.7201067 -0.7686561
0000a0 f9 36 f7 be 18 a7 52 bf 7b 4e 97 3c e3 15 c0 3d
       -0.48284128 -0.82286215 0.01847004 0.093791746
0000b0 0e b7 30 bd 1b 74 45 bd 31 33 6d be b0 63 5c be
       -0.043143325 -0.04820643 -0.23164059 -0.21522403
0000c0 d7 09 a9 be 5f 55 8a be 58 8f 9f be 21 ef 96 be
       -0.3301532 -0.27018258 -0.3116405 -0.29479316
0000d0 77 5a d6 be 1b b9 8a 3e ca 69 8d 3e 6f 86 c5 be
       -0.41865894 0.2709435 0.27619773 -0.38579127
0000e0 53 f4 7f be c1 72 79 be 01 79 06 bf 99 33 c9 3e
       -0.24995546 -0.24360181 -0.5252839 0.39297178
0000f0 02 10 d0 3d 1d e8 81 3f 4d 2f 2f bb 2d 15 19 ba
       0.10159303 1.014896 -0.0026731074 -0.0005839642
000100 f6 f5 ff bd ce ce a9 3d ff b4 86 3f 0b b5 19 3e
       -0.12498085 0.08291398 1.0523986 0.15010469
000110 8e d2 8b bb 86 1e 95 bb 26 f3 0c be a7 80 98 be
       -0.0042670434 -0.004550758 -0.13764629 -0.29785654
000120 4b b1 9e be 8d c6 8c 3e e9 47 70 be 93 d1 6d be
       -0.3099464 0.27495232 -0.23464932 -0.23224477
000130 02 16 d2 3e a0 26 c6 be 15 2b 1e 3e b8 c8 b1 3e
       0.41032416 -0.38701344 0.15446122 0.3472345
000140 47 d1 7b 3b 8f d4 b5 ba c0 c3 83 be 9e 10 82 be
       0.00384243 -0.0013872551 -0.25735283 -0.25403303
000150 79 b2 43 bf b7 a8 47 bf ea 17 35 bf 66 69 42 bf
       -0.764442 -0.77991813 -0.70739615 -0.75942075
000160 0d b8 e0 be 6f 21 39 bf fc b2 63 3e 46 43 4c 3d
       -0.4389042 -0.7231664 0.22236246 0.049868844
000170 7f 08 5a 3b 1c dc d9 3b eb 2c f7 bd 30 e0 fd bd
       0.0033269224 0.0066485535 -0.12069114 -0.12396276
000180 b4 43 9c be d6 54 83 bd 72 83 97 bb ac 85 ad b9
       -0.30520403 -0.064126655 -0.004623824 -0.00033096725
000190 83 c0 79 be 0b c1 09 3e f1 99 4a be ef 9c 2f bf
       -0.24389844 0.13452546 -0.19785286 -0.68598837
0001a0 c9 39 34 bf 5d 3f 1d be e0 3d 0c be 82 a4 ac bf
       -0.70400673 -0.15356202 -0.13695478 -1.3487704
0001b0 d1 5f 09 bf 47 55 de be 55 df 07 bf 4a bb b6 be
       -0.5366183 -0.43424436 -0.5307515 -0.35689765
0001c0 8a b8 f4 be fd f0 98 bd 83 ea 1c bf 81 c1 26 bf
       -0.47797042 -0.0746784 -0.61295336 -0.65139014
0001d0 a3 b3 50 bf c2 a7 3b bf 4d 6c 01 bf a3 2e ef be
       -0.81524104 -0.73302853 -0.5055588 -0.46715268
0001e0 de b8 ae be ee 70 84 bd 00 e0 41 be f2 3a 70 be
       -0.34125417 -0.06466852 -0.18933105 -0.23459986
0001f0 9c 6a e3 3e 77 5f 9a be 13 60 de 3e 23 ba 89 be
       0.44417274 -0.3015096 0.43432674 -0.26899824
000200 9a 34 83 be c1 d0 7f be cd 87 67 be 58 64 48 be
       -0.2562607 -0.24981977 -0.22610398 -0.19569528
000210 15 3e 03 3d 8f 0a 7c 3f 50 2f 24 3b 70 1b 8d 3b
       0.032041628 0.9845361 0.0025052615 0.0043062493
000220 aa 90 82 bd 4e 5a d5 bc 8d 98 87 bf 8a d4 82 bf
       -0.06375249 -0.026044037 -1.059343 -1.0221112
000230 ef 24 86 bf 8d 4e 08 bf 97 3d 1b bf 3e 19 6b bf
       -1.0480021 -0.5324486 -0.60640854 -0.9183539
000240 af 93 7d bf 0f ca ce be 14 6e 52 bf 43 15 2f bf
       -0.9905347 -0.40388533 -0.82199216 -0.6839182
000250 36 e1 6b bf 07 5f 53 bf 3c 95 e2 3d d7 57 96 bd
       -0.9214052 -0.82566875 0.110636204 -0.07340973
000260 1f 33 1c bd 7e ae 26 bd cc 6b b8 bd 10 eb 50 be
       -0.03813469 -0.040693752 -0.090049356 -0.20402169
000270 18 41 42 bf 44 5a f6 be b8 a4 5e bf e4 bb 17 bf
       -0.75880575 -0.48115742 -0.8697009 -0.59271073
000280 b9 b6 ff be 90 f5 2f bf 23 f5 b1 3b fc be e9 bc
       -0.49944094 -0.68734074 0.005430834 -0.028533451
000290 d9 85 4b bd c6 66 45 bd be bb c4 bd f5 ea 0b be
       -0.049688194 -0.048193716 -0.096061215 -0.13663848
0002a0 8d 6a 90 be ea c5 39 be b4 0e b6 bd d6 f0 95 bd
       -0.28206292 -0.18141904 -0.08889523 -0.073213264
0002b0 f5 3c 41 3e a6 96 1e 3e 1b d9 7c 3e f8 24 b5 3e
       0.1887091 0.15487155 0.24692194 0.35379767
0002c0 a7 1a 1b 3e 9b ba 10 3e f3 b8 d3 bd ad 8c 2e be
       0.15146886 0.14133684 -0.10338011 -0.17045851
0002d0 6d bf 11 be 62 e4 2f be 5c 4e 92 bd 37 b6 98 bd
       -0.1423318 -0.17176965 -0.07143852 -0.0745663
0002e0 20 de 21 3e 83 e9 ec 3d 5b b5 33 bf a5 1a 13 bf
       0.1580739 0.11567976 -0.701986 -0.5746253
0002f0 47 a9 26 bf bf 5e 5d bf 05 1f 19 bf ff 8b 27 bf
       -0.65102047 -0.86472696 -0.5981296 -0.6544799
000300 56 5c 26 be 23 72 10 be 4f a1 60 be c2 0d 52 be
       -0.16246161 -0.1410604 -0.21936534 -0.2051306
000310 5e f8 a8 be cd 6b ab 3e 3e c6 48 be c2 dc bb 3c
       -0.3300199 0.33480683 -0.19606873 0.022932414
000320 34 ea 82 bc 7b 45 bb bc 74 12 ba bd 96 ef 03 3d
       -0.015980817 -0.02286028 -0.09085551 0.03221091
000330 4a 86 3f bd e6 e0 7b 3f d4 ff b3 3b ca d5 28 3b
       -0.046758927 0.9839004 0.0054931436 0.0025762194
000340 bf fc 11 3d 94 b8 01 3d 7f 47 18 3f 30 07 3c 3c
       0.035641428 0.031670168 0.59484094 0.011476323
000350 6c b9 ba bd ef 41 b9 bd 73 7b 1c be c7 b7 8f be
       -0.09117398 -0.09045779 -0.15281467 -0.28069898
000360 94 e6 e3 be 38 80 cf be 10 7b b9 bd 86 40 a1 bd
       -0.44511855 -0.4052751 -0.090566754 -0.07873635
000370 d6 e4 96 3e d1 22 b0 3e 9f 46 07 bf 92 1a 94 3c
       0.29471463 0.34401563 -0.52842134 0.018079076
000380 62 71 4e bb c1 ac 75 3a e4 09 28 3e 61 02 05 bc
       -0.0031500687 0.00093717506 0.16410023 -0.008118243
000390 d9 68 fb be 9d 74 44 bf 07 33 5c bf 24 e9 ec be
       -0.4910343 -0.7674044 -0.8601536 -0.46271622
0003a0 a9 5d 08 bf ef 2e 60 bf 48 36 36 3e 83 a4 7e 3e
       -0.53267914 -0.87571615 0.17794144 0.24867444
0003b0 65 4f b5 3c 3e 40 cf 3c 11 57 3e be 2a 0a 43 be
       0.022132585 0.025299188 -0.185879 -0.19046846
0003c0 a2 a4 08 bf e1 41 74 bf 67 7d 60 bf 4b 95 04 bf
       -0.5337621 -0.95413023 -0.8769135 -0.51790303
0003d0 37 cb cb be 85 36 49 bf a6 ec cb bd ea 76 12 be
       -0.39803478 -0.78598815 -0.099572465 -0.14303175
0003e0 72 de d2 3c f6 6b 69 3c f4 bd 2e be 96 0b b8 3d
       0.025740836 0.014246931 -0.17064649 0.08986585
0003f0 d6 3c 5e be 2d b0 8f be e2 07 6d be d2 0c 67 be
       -0.21702895 -0.280641 -0.23147538 -0.22563484

nn_model.0.bias f4 [128]
000000 e2 7b 38 bf d8 b2 a4 3e 9e 43 2c bf ea f4 13 3f
       -0.7206403 0.32167697 -0.67290676 0.57795584
000010 e1 0f 04 3f 01 d5 16 bf 26 db 87 bf fc d8 fd 3e
       0.5158673 -0.5891877 -1.0613754 0.49579608
000020 f5 06 34 bf ce b0 86 bf b7 67 59 bf e2 72 51 bf
       -0.70323116 -1.0522707 -0.8492388 -0.8181592
000030 5c f0 a4 bf e2 17 d9 3e 24 20 91 bf 52 0b 54 3e
       -1.2885852 0.42401034 -1.1337934 0.20707443
000040 95 32 bb 3e 70 3b 7d bf 64 d6 9c be eb d4 9d bf
       0.3656203 -0.9891882 -0.30632317 -1.2330602
000050 a4 05 5b bf db 96 3a bf c5 34 59 bf 49 0c 65 bf
       -0.8555548 -0.7288644 -0.84846145 -0.8947187
000060 89 fa 87 bf 72 3d b3 3e 5a fa 98 bf 41 dc a6 3e
       -1.0623332 0.35007817 -1.1951401 0.32589915
000070 18 35 db be 4a 18 1a 3e 3c f4 de be b6 09 93 bf
       -0.42813945 0.15048328 -0.4354571 -1.1487339
000080 9e 2b 35 bf 2f 4e e4 3e e7 0f 70 bf 5f 2d 2a bf
       -0.7076968 0.445909 -0.93774265 -0.6647548
000090 48 72 02 bf 94 52 e9 3e eb ec 97 bf de c1 ab 3e
       -0.5095563 0.45570815 -1.1869177 0.33546346
0000a0 cd 76 95 bf cd 74 56 3e ad f0 32 bf 9a d7 85 bf
       -1.167688 0.20942993 -0.6989849 -1.0456421
0000b0 1b 2a 78 bf e5 8a 0b bf 86 da 6a bf 19 d7 9a bf
       -0.9693925 -0.5450881 -0.9173969 -1.2096893
0000c0 04 8f a0 3e 21 0f 59 3e b2 d6 a6 3e 61 ca b9 3e
       0.31359112 0.21197177 0.32585675 0.36287215
0000d0 8b ee 5d bf e3 71 48 bf 68 99 92 bf 04 1e a7 3e
       -0.8669211 -0.7829878 -1.1453066 0.32640088
0000e0 89 3c 91 bf 23 a9 9f be 22 fe bb 3e 13 f5 65 bf
       -1.1346599 -0.3118373 0.36717325 -0.8982708
0000f0 73 01 8b 3e 31 fd f9 be d0 57 91 bf ee 66 c2 3e
       0.27149543 -0.48825982 -1.1354923 0.37969154
000100 d5 a2 9d 3e b1 a0 37 be 0b e8 66 3e 3e 2b f0 be
       0.30788293 -0.17932393 0.22549455 -0.4690799
000110 17 36 1c bf 0a 90 27 bf 8d 15 17 bf 29 4e 5e 3e
       -0.61020035 -0.6545416 -0.5901726 0.21709503
000120 f2 d1 a2 3e d0 e7 03 bf 2a a4 87 bf 2b e2 ca be
       0.318008 -0.5152559 -1.0596974 -0.39625677
000130 fe 7a 22 bf f1 f2 f0 3e a2 fc 50 bf c1 e6 52 be
       -0.6346892 0.4706035 -0.8163549 -0.20595838
000140 df 2d 92 3e ab db 14 bf 70 66 51 bf dc 2b 62 3e
       0.28550622 -0.58147687 -0.8179693 0.22087044
000150 7d e5 01 bf 84 30 a5 be 19 1f af 3e b8 52 e8 be
       -0.50740796 -0.32263577 0.34203413 -0.4537561
000160 ea 30 87 3e cc 11 ba be f1 73 3c bf 89 23 50 bf
       0.26404506 -0.36341703 -0.7361441 -0.8130422
000170 80 89 98 3e 73 b6 2b bf d4 ed 29 bf e5 5f 73 bf
       0.29792404 -0.6707527 -0.6637852 -0.950682
000180 38 f3 1e bf f8 92 3f 3e 23 69 8f 3e 03 aa 2d bf
       -0.6208987 0.18708408 0.280099 -0.6783754
000190 11 82 bd be cb 3c 90 bf a0 06 f6 3e 48 a1 0e bf
       -0.37013295 -1.1268553 0.4805193 -0.55714846
0001a0 4e 34 01 bf a7 5f 6e be f0 e2 38 bf 49 9b 02 bf
       -0.50470436 -0.23278676 -0.7222128 -0.51018196
0001b0 b7 97 5e bf 84 e5 a7 bd 1b ea ab 3e 18 93 ef 3e
       -0.8695025 -0.081980735 0.33577046 0.4679191
0001c0 ba 6a 9a bf 35 ec 20 bf 03 ff 40 bf d4 6c 44 bf
       -1.206382 -0.62860423 -0.75389117 -0.7672856
0001d0 95 a3 0f 3f b4 fe 68 bf bb 6e 52 bf 20 20 a3 be
       0.5610898 -0.91013646 -0.8220021 -0.31860447
0001e0 a7 a4 7d bf 25 dc 81 be 2a 60 d0 be 2f 0c ca 3e
       -0.99079365 -0.2536327 -0.40698367 0.3946242
0001f0 32 c3 d6 3e 37 b7 b3 3e 38 15 06 bf 1a c0 01 bf
       0.41945797 0.3510072 -0.5237613 -0.5068375

nn_model.2.weight f4 [128, 128]
000000 37 93 35 3d b3 17 a7 bd a2 4d 60 b8 57 fb 31 be
       0.04432985 -0.08158817 -5.3478063e-05 -0.17381035
000010 49 d4 a1 bb 84 01 e7 bd 3b 4a 9e 3d b7 f8 e4 bd
       -0.0049386364 -0.11279586 0.07729002 -0.11180251
000020 a3 bb 73 bc d5 79 6c bd 42 f8 06 37 7a 45 22 3c
       -0.014876279 -0.057733376 8.044824e-06 0.00990426
000030 f4 d4 27 bf a2 d1 76 bd 64 bd d2 3c d7 ca 08 be
       -0.65559316 -0.060258515 0.025725074 -0.13358627
000040 71 5d 66 be e4 89 f7 3c ec cc f6 bd 00 f4 35 ba
       -0.22496583 0.030217119 -0.120508045 -0.0006940961
000050 d0 23 00 be d9 8a 15 3f 46 f6 96 b7 d4 9d a8 bd
       -0.12513661 0.5841499 -1.7996073e-05 -0.08233228
000060 70 3d 6c bd 56 93 64 be a2 ff c1 bc 67 fb 7d be
       -0.05767578 -0.22321829 -0.023681466 -0.24802934
000070 66 00 87 3d 3f 57 08 be 97 1c 60 bd 00 65 41 3c
       0.06591873 -0.13314532 -0.054714765 0.011803865
000080 e3 88 03 bf 3f ca 8d be 57 41 a2 bc 7a e7 ac 3e
       -0.5138075 -0.27693364 -0.019806547 0.33770353
000090 9f 4c f3 bd ea bf 78 be 1d 02 a7 bd f9 20 20 bd
       -0.11879849 -0.2429196 -0.081547 -0.039093945
0000a0 ef 61 79 bd 8c b0 14 bd be 0f 9d bd 92 a5 c8 3c
       -0.060884412 -0.03630118 -0.07669018 0.024493013
0000b0 27 89 a4 bc 89 7b 4b 3f 7d 81 3b b8 31 39 91 3d
       -0.02008493 0.79485375 -4.470487e-05 0.070909865
0000c0 57 c4 f7 be 6e d3 22 ba 94 46 aa be 06 c5 b1 bd
       -0.48391983 -0.0006211315 -0.33256972 -0.08680157
0000d0 00 c4 51 3e 14 0a b6 3d 18 e0 27 bc de 18 13 bf
       0.20484924 0.08888641 -0.010246299 -0.5745982
0000e0 1d 93 24 bd 9f 43 9f be 70 28 9d bc 3b 92 4b 3e
       -0.04017936 -0.31106278 -0.019184321 0.19880001
0000f0 3f 08 b1 be be d2 ca bb de de c3 be e7 6b 6e bd
       -0.34576604 -0.006189673 -0.38255972 -0.058208372
000100 04 0d df bd d0 5b ff b7 68 47 c6 bd f6 d1 81 bd
       -0.108911544 -3.0441122e-05 -0.096815884 -0.06338875
000110 c5 9c 8c 3d e9 89 a8 3c a5 ea 85 3e b9 02 03 bf
       0.06865839 0.020573573 0.26155582 -0.5117603
000120 0e 07 05 bc 73 c9 07 bd e7 8c b2 3e 66 cb d6 bb
       -0.008119358 -0.0331511 0.34873125 -0.0065550087
000130 07 f9 4b be 24 a9 b6 be fa 46 a1 be 87 4a e7 bd
       -0.19919215 -0.3567592 -0.31499463 -0.11293512
000140 ca bf 19 be 75 78 3f bd 86 45 59 be 85 22 27 be
       -0.15014568 -0.046745736 -0.21217927 -0.16321762
000150 74 94 c2 bc e5 a6 0b 3e 02 d6 12 be 05 3b ac 3d
       -0.023752429 0.13637884 -0.1433945 0.084096946
000160 88 18 ea bd f3 c2 f4 3c a0 2c e0 3d 2c 59 ac bb
       -0.1143046 0.029878115 0.109460115 -0.0052596536
000170 d8 71 b1 bd 59 9d ae be f1 77 51 b8 dd dc 1b 3f
       -0.08664292 -0.34104422 -4.9941187e-05 0.60883886
000180 32 85 67 3e a8 ea 3d be 1e 4c d9 3e 02 02 36 b9
       0.22609404 -0.18546546 0.42440885 -0.0001735762
000190 aa b8 4a bc b0 5a a9 be 8e a3 cc bd cd e9 52 be
       -0.012373129 -0.33077002 -0.09992133 -0.20597
0001a0 3f 5e 95 bd 21 bc f0 3d 88 a8 d6 bb 38 7c 78 3e
       -0.07293367 0.11754633 -0.006550852 0.24266136
0001b0 4f 4b ad bd c1 4c 17 be b0 40 8a 3f a1 f2 33 be
       -0.084616296 -0.14775373 1.0800991 -0.17573024
0001c0 74 7d 38 bd 5a 45 66 bc 7d b9 6e be a4 b8 94 34
       -0.045041516 -0.014054621 -0.23312946 2.7701492e-07
0001d0 c0 cd f1 be 56 1d ae be 3a 94 3f 3e a5 2e b1 3d
       -0.47227287 -0.34006757 0.18708888 0.08651475
0001e0 c6 dc b0 3c 68 5c 07 3d 93 96 fc 3d bf ba 40 bb
       0.021589648 0.03304711 0.12333407 -0.0029408184
0001f0 4f 64 8d 3d fa db 4a bf 48 c7 03 3f 11 63 f0 bc
       0.06903898 -0.7924191 0.51475954 -0.029344114
000200 c6 40 c9 bc 55 9c 64 bf 31 c6 0b be 0c a7 bc bf
       -0.02456702 -0.89301044 -0.13649823 -1.4738479
000210 69 3e 60 be 46 ce bc be f7 7b 33 bd cc 12 99 be
       -0.21898808 -0.36876124 -0.043819394 -0.29897153
000220 91 bf a0 bd 52 e4 76 bd 00 3c 8b be 90 b2 1c bd
       -0.078490384 -0.060276337 -0.27194214 -0.038256228
000230 0d 08 da bd 6e b4 8d be 50 ef 61 bc b0 8d 9f bd
       -0.10646067 -0.2767672 -0.013789967 -0.077906966
000240 11 bf e5 bd b0 86 95 bd 75 79 16 be e2 3b 62 3d
       -0.11218084 -0.0730108 -0.1469477 0.05523289
000250 78 80 8c be 9a eb e5 bd d1 cb d9 bd 4e 8c 80 bd
       -0.27441764 -0.11226578 -0.10634578 -0.06276761
000260 b8 5c 47 3c ce c8 f0 be 53 89 66 3d 57 74 b1 bd
       0.012168102 -0.47028202 0.056283306 -0.08664768
000270 1f b2 5c be 46 20 64 be 46 31 1c bf 6a 85 70 3d
       -0.21552323 -0.22277936 -0.61012685 0.058720984
000280 06 65 41 be 17 f2 ba be 33 03 38 be af d3 a2 be
       -0.18886194 -0.36512825 -0.1796997 -0.31802127
000290 21 2a 96 bd 8a 53 f2 bf 08 38 64 bc d6 72 3a be
       -0.07332254 -1.8931744 -0.0139293745 -0.18207869
0002a0 f7 20 96 bb bb 47 84 be ed b8 85 be c6 dd ae 3b
       -0.0045815664 -0.25835976 -0.2611765 0.005336496
0002b0 3a b1 0f bb 2c 44 39 be ce 39 36 be e4 38 a5 bd
       -0.0021925704 -0.18092412 -0.17795488 -0.08067492
0002c0 de db c2 bd 3e eb b9 bd 84 45 40 bd 37 14 89 be
       -0.095145926 -0.09078072 -0.046941295 -0.26773235
0002d0 6b 2e 0b be ad 1d 75 bd a9 e5 a5 3d da bd 2d bf
       -0.13591926 -0.059842754 0.08100445 -0.67867815
0002e0 4e da 19 3d 83 c5 e8 bd 7a 73 a5 bd db 5e e1 bd
       0.037561707 -0.11365797 -0.08078666 -0.1100442
0002f0 a9 7c 6e bd f1 3e 93 be db b6 42 be 05 dc 04 be
       -0.058224354 -0.28758958 -0.19015066 -0.12974556
000300 6e b9 89 bd 67 e4 60 be fd 2e a3 bd 8c f9 a2 bd
       -0.06724821 -0.21962129 -0.07967947 -0.079577535
000310 40 9f 88 bd 21 c6 51 bd 7e 09 f4 bd e7 45 cc be
       -0.066709995 -0.05121434 -0.11915873 -0.3989708
000320 7c 65 71 be 50 22 db bd 93 64 c6 bd fa 62 ba bd
       -0.2357387 -0.10699904 -0.09687152 -0.091009095
000330 9b f2 3c be cf 97 23 bf 28 09 8e bd f8 d2 a9 bf
       -0.18451922 -0.63903517 -0.0693534 -1.3267508
000340 7b 6a 5c be 31 cb 09 be e5 e3 27 be 20 4e 98 bd
       -0.21524994 -0.13456418 -0.16395529 -0.07436776
000350 ec 2e 41 be 5a 52 d6 bd 38 45 30 be 1a 52 28 be
       -0.18865556 -0.10464926 -0.17213905 -0.1643757
000360 bb 9e 3f be e4 f4 38 be 04 9e 9c bd d0 65 75 3d
       -0.18712895 -0.18062168 -0.076473266 0.05991155
000370 b6 d5 9f be 37 43 1c be 88 ef a4 bd 4b f9 d1 bd
       -0.31217736 -0.15260015 -0.080534995 -0.10252627
000380 68 de 39 be a1 30 6b be 97 03 92 bf bb b0 05 bf
       -0.18151248 -0.22967769 -1.1407346 -0.52222794
000390 ae 29 c8 3b f6 57 53 be d1 bb 91 be 0b 74 c1 bd
       0.006108484 -0.20639023 -0.28463605 -0.094459616
0003a0 ae 2e a8 bd f6 d7 c8 be 3a 46 b4 bd 0e 51 54 be
       -0.082120284 -0.39227265 -0.08802457 -0.20734045
0003b0 8f 33 58 bd 74 a8 b7 be 93 cc 88 be 7f 90 88 bd
       -0.052783545 -0.35870707 -0.26718578 -0.066681854
0003c0 dc 1a 19 3d d7 0c 6f bd 9f 41 78 bd 87 68 f1 bd
       0.03737913 -0.058361854 -0.060609456 -0.11787515
0003d0 b8 76 9b be 0d ac b7 bd d8 a5 c7 be d9 a5 5b bd
       -0.30364013 -0.08968363 -0.38993716 -0.05362496
0003e0 b9 9c 3a 3c d7 ae 1d be 1d 06 b3 bd cf b2 3b bf
       0.011389905 -0.15398727 -0.087414004 -0.73319715
0003f0 ca 41 41 be be f2 db bd 1c 24 3b be 67 b4 b7 bd
       -0.18872753 -0.10739659 -0.18275493 -0.08969956

nn_model.2.bias f4 [128]
000000 49 0f 86 be a0 2d 37 be 09 b7 32 bd f0 cc f4 bd
       -0.26183537 -0.17888498 -0.043631587 -0.11953151
000010 5e 37 ce bd eb 05 28 be 2b 01 6b be 8a 13 20 be
       -0.10069154 -0.16408508 -0.22949664 -0.15632454
000020 37 d2 20 be 51 92 64 be e5 e3 ea bd b7 b8 1b bd
       -0.1570519 -0.2232144 -0.11469249 -0.038017955
000030 ab 92 a8 be d0 57 50 be b2 aa 00 be ed 05 5e 3d
       -0.329244 -0.20345998 -0.12565115 0.05420487
000040 6d 9b c1 bd 95 73 96 bd b9 20 5c be 26 5b 5d bc
       -0.09453473 -0.07346264 -0.21496858 -0.013510501
000050 5f e4 65 be a1 c9 44 be ab 67 12 be fb aa a1 be
       -0.22450398 -0.1921754 -0.14297359 -0.3157576
000060 6c cd 94 be 8f c6 39 be 26 97 e1 bc d5 02 7e bd
       -0.29062974 -0.1814215 -0.027537894 -0.06201442
000070 74 04 20 be 55 17 3d be 76 98 91 be 55 e4 ea bd
       -0.15626699 -0.18465932 -0.2843663 -0.11469332
000080 55 ed d0 bc 65 eb ff bd e7 dc 25 be 58 1d 2b be
       -0.025503794 -0.1249607 -0.16197549 -0.16710413
000090 8f 1a 33 bd 82 79 ba bd 9b 80 31 bd 16 65 20 be
       -0.0437265 -0.09105207 -0.04333554 -0.15663561
0000a0 e5 52 97 bd b3 a4 69 be 61 f2 08 be e7 0a 88 bc
       -0.07388858 -0.22816734 -0.1337371 -0.016606761
0000b0 6c eb ec bd 6e 85 89 bd 51 87 61 be 5c 2d 8b be
       -0.11568341 -0.06714903 -0.22024275 -0.27183044
0000c0 31 91 e0 bd e8 c6 c9 bd 5e f0 37 be 86 0f 4e be
       -0.10965193 -0.098523915 -0.17962787 -0.20123109
0000d0 2b 38 09 be 9e d2 b3 bd 3e c8 51 bd f8 52 3f be
       -0.13400333 -0.087804064 -0.051216356 -0.18683994
0000e0 a3 b0 27 bd a7 48 cf 3d 83 84 1b be 82 17 86 be
       -0.04093994 0.10121279 -0.15187268 -0.2618981
0000f0 08 d4 89 be f1 da ac be 5e 58 9f be 19 eb 40 be
       -0.2691958 -0.3376079 -0.31122106 -0.18839683
000100 cf 36 08 3e 8f 40 07 be 0d 4e 99 3b 47 d8 b9 3d
       0.13302158 -0.13208221 0.004678494 0.09074455
000110 93 84 55 be 91 f7 94 be d1 e6 37 bd 25 22 6b be
       -0.20851354 -0.29095128 -0.044897858 -0.22962244
000120 46 91 99 3d c6 fe 0b be 60 78 a9 bd e3 e6 46 3e
       0.07498412 -0.13671407 -0.08274913 0.19424014
000130 75 c1 c6 bc 81 a5 82 3e d4 f8 1f bd 64 2e e5 bd
       -0.02426217 0.25516894 -0.03905566 -0.11190489
000140 c5 3f 8b be cd 35 c0 bd 6b 55 70 be 63 26 29 be
       -0.2719709 -0.09385262 -0.23470084 -0.1651855
000150 aa 2d 06 be 17 36 38 be 60 63 f6 3d f3 09 97 be
       -0.13103357 -0.17989384 0.12030673 -0.29499778
000160 b7 7d 4e be c2 64 c3 bc 4c ef 29 be 08 79 24 bd
       -0.20165144 -0.023851756 -0.16595191 -0.040154487
000170 6c 48 d4 bd 06 51 46 be 81 5e 54 be 42 46 bd bd
       -0.10365376 -0.19366845 -0.20739175 -0.09241916
000180 0c a9 e5 bd ed 81 05 be db d8 01 be 2d d9 2b be
       -0.11213884 -0.13037844 -0.1268038 -0.16782065
000190 f4 38 87 bd a6 dd c2 bd 9d 2e 18 be 43 fc 07 be
       -0.0660266 -0.09514932 -0.14861532 -0.13279824
0001a0 91 5e 29 be a4 34 22 be fa 55 99 be 52 62 1c be
       -0.1653998 -0.15840393 -0.29948407 -0.15271881
0001b0 87 53 53 bd d6 75 96 bd e8 d9 30 be ae 39 5c be
       -0.05159333 -0.07346694 -0.17270625 -0.21506378
0001c0 a5 0c ee 3b 63 0d 9d be b0 83 0f bd e3 fa 76 be
       0.007264691 -0.30674276 -0.035037696 -0.24119143
0001d0 a3 9d 1b be 5c 08 1f be ec cb c0 bd a5 35 6e be
       -0.15196852 -0.15530533 -0.09413895 -0.23262651
0001e0 a5 55 65 be 99 0f 1e be 51 9f 63 be 11 ed 73 bd
       -0.22395952 -0.15435638 -0.22228743 -0.059552256
0001f0 23 65 93 be 54 4f 8b be 56 03 12 be f4 95 b1 be
       -0.287881 -0.2720896 -0.14259085 -0.34684718

nn_model.4.weight f4 [128, 128]
000000 fa 39 51 be 99 2b 19 bd 9d f5 16 be c2 3c 97 3c
       -0.20432273 -0.037395094 -0.14742132 0.018461589
000010 14 e3 49 3b 18 4f 14 bb 7b db 86 bc 72 91 a5 3c
       0.0030805515 -0.0022630151 -0.016462078 0.020210955
000020 ca ad 64 3a ad d3 0a 3c ca 96 dc 3d b5 79 a1 bd
       0.00087234064 0.008473319 0.10770948 -0.07884542
000030 84 18 27 3c 68 7a ff 3c b1 b7 c2 3d fb fe 13 3d
       0.010198716 0.031186298 0.095076926 0.03613184
000040 78 85 c5 b9 76 67 03 bd ba 6e 66 3c 5d 04 6f bd
       -0.0003767421 -0.03208109 0.014064485 -0.05835377
000050 53 00 2e 3c 7b ab 67 3c 1f ea 0f 3d 1e 75 50 be
       0.0106201945 0.014140005 0.035135385 -0.20357177
000060 6e 36 85 3d 63 01 f8 bc 9e 0b de bd e5 0e ef 3b
       0.06504522 -0.030274099 -0.108420596 0.0072954767
000070 69 b4 a5 bc 89 9a 68 bb 54 ac 38 3d 3b 3a e5 3d
       -0.020227628 -0.00354925 0.04508622 0.11192747
000080 dd b3 93 3c 09 70 66 3d dc 3b b6 be 2f a6 10 3d
       0.018030101 0.05625919 -0.35592544 0.035314735
000090 bd 06 16 3d d4 c8 c3 bc 64 40 be 3d e0 e4 dd 3d
       0.03662752 -0.023899473 0.09289625 0.1083467
0000a0 31 70 93 3d 7d 40 b3 3c ce 0d 4d 38 00 f5 87 be
       0.07199133 0.021881336 4.8888665e-05 -0.26554108
0000b0 3d b3 00 3e 50 76 96 3d 97 ef 8f 3d b5 39 83 bd
       0.12568374 0.07346785 0.0702812 -0.06407491
0000c0 0a 68 72 bc 4c 83 10 3d 0a 57 8d 3c 3d 8a e6 3c
       -0.014795313 0.035281464 0.017253418 0.028142089
0000d0 66 1e ae 3d ec ba b2 3d 9a 14 d4 bd 1d ea 2b bd
       0.08501892 0.08727059 -0.10355492 -0.041971315
0000e0 92 82 f4 3c 28 59 dd ba 6d e1 ce 3c 61 49 6f 3c
       0.029847417 -0.0016887533 0.025253976 0.014604897
0000f0 d1 bc a4 3a de 65 98 bd be 9b 35 3c f0 6b a6 3d
       0.0012568479 -0.074413046 0.011084495 0.08126056
000100 99 de 9b bd 40 1e 0a bc 13 a6 99 bd fd ca c9 bd
       -0.076108165 -0.008430064 -0.07502379 -0.0985317
000110 21 ba 47 bc 59 88 a8 3c 56 76 95 bc 84 e7 1f bd
       -0.012190373 0.020572828 -0.018244904 -0.03903915
000120 9a 42 45 bd ac 60 39 36 a4 05 97 3c 87 7a 82 bd
       -0.04815922 2.7623419e-06 0.018435307 -0.063710265
000130 8e 4a 7d 3d 53 cc be bd ad f6 20 3a 3c fd 04 be
       0.06183868 -0.093163155 0.0006140273 -0.12987226
000140 74 0f 69 3d 6e 46 71 3c ab 62 68 3b d9 cf 16 3d
       0.056899503 0.014726264 0.0035459201 0.036819313
000150 2f 82 bf b7 03 68 f0 bd cd 08 d5 bc b8 c5 95 bc
       -2.2829596e-05 -0.11738589 -0.026005173 -0.018282756
000160 4a 3e 41 bc 4f d9 46 37 f7 0c 2f 3d f8 0c 11 ba
       -0.011794636 1.1852316e-05 0.042736974 -0.00055332435
000170 0c f1 2b 3d 56 b2 06 bc 62 4d 02 3d 1b 0b 7a bc
       0.041977927 -0.00822123 0.03181208 -0.015261437
000180 54 37 aa bd 26 96 74 bc c0 bd 90 bd 09 08 da be
       -0.08311334 -0.014928376 -0.07067442 -0.42584255
000190 81 7f 37 be b3 71 09 bc b9 5e 99 bc 56 db 3c b7
       -0.17919733 -0.008388924 -0.018721925 -1.1256741e-05
0001a0 a1 cc 99 be bf 3e 0f 3e da 42 3a bd c8 af 98 bb
       -0.30038932 0.1398878 -0.04547391 -0.0046596266
0001b0 6d f2 c5 b6 2d d8 d2 3c 1f 06 fd bd 30 b3 3c bc
       -5.8992796e-06 0.025737846 -0.12354683 -0.011517331
0001c0 5d ca bc b7 3c c6 01 3e b1 77 5e be 3e 48 3f bd
       -2.250558e-05 0.12673277 -0.21725346 -0.046699755
0001d0 bd 0b 35 3d fa 79 b0 bc 41 ce 37 ba 1d 1f cd bc
       0.044200648 -0.021542538 -0.000701163 -0.02503925
0001e0 56 32 e9 be 03 bf 88 bf 19 63 9f 3c cb b0 e9 3d
       -0.45546216 -1.0683292 0.019456433 0.11410674
0001f0 46 f6 5d 3d 7a fe eb 3c 2e 25 83 bb 32 b0 af 3b
       0.054189943 0.028807867 -0.004002235 0.0053615803
000200 3f 16 c9 bd 67 a3 14 bd 04 e1 2b be d5 85 03 be
       -0.09818696 -0.036288645 -0.16785055 -0.12844022
000210 bc 22 0d be db 62 45 3c bf 0a 39 3c 84 eb 93 bd
       -0.13782781 0.012047495 0.011294066 -0.072226554
000220 46 9c 94 3b 47 d4 60 3d cb 33 ea bc 86 8c 20 3c
       0.004535231 0.054889943 -0.02858915 0.009799128
000230 5b 0c b8 3c 1b 95 7c 3c 5d d4 e3 bc 4c d3 0b be
       0.022466829 0.015416409 -0.027811224 -0.13654822
000240 d0 7b 0c b8 b0 5c 60 3c b9 66 14 3c 44 c6 3b bb
       -3.349391e-05 0.013693973 0.009057694 -0.002865211
000250 1c cc 45 3d 75 ed e0 bd c0 41 82 bd 05 a9 d5 bd
       0.048290357 -0.10982791 -0.06360197 -0.104326285
000260 18 df c8 3c e3 8b c9 bc e5 ec 06 be 7d 9e d2 bd
       0.024520442 -0.024602836 -0.13176306 -0.102841355
000270 1b 46 7b bd fd 8c aa bd 58 3a 0a bd 32 49 15 3d
       -0.061346155 -0.08327673 -0.033747047 0.036446758
000280 86 2d 54 3c 78 7d 9b bc e3 de 27 bd ad d6 9d 3c
       0.012950307 -0.018980727 -0.040984046 0.019267404
000290 c8 de 5e 3d dc 6e e1 bd 2d 15 eb 3d 0e 82 10 3e
       0.05441168 -0.11007473 0.11478648 0.14112112
0002a0 06 a5 6c bd 51 47 16 3c a1 53 95 bd 42 2c 36 be
       -0.057774566 0.009172277 -0.072913416 -0.1779032
0002b0 87 ca 45 3c ee 7d 12 bd 64 86 0b 3c 29 22 db 3c
       0.012072212 -0.035764627 0.008515928 0.026749687
0002c0 2e 34 84 b7 7e 35 1b bd db 06 df b7 60 d9 ee b9
       -1.5759924e-05 -0.03789281 -2.6586864e-05 -0.00045556854
0002d0 a3 af 94 3d db c4 c6 3d e0 07 c7 bd 4e 68 21 b8
       0.072600625 0.09705516 -0.09718299 -3.8482533e-05
0002e0 85 ef b7 3d 99 a7 8b bb 88 5f 00 bc b0 5c 33 3c
       0.089812316 -0.0042619226 -0.007835276 0.010947391
0002f0 99 29 32 3c 70 f6 0e b8 bd 2d a1 3a 10 2e 78 bd
       0.0108741755 -3.408495e-05 0.0012296956 -0.060590804
000300 97 64 28 bd 88 52 c2 bd 47 ad ed bd ec 51 fb bc
       -0.041111555 -0.09488398 -0.11605316 -0.030678712
000310 9a ca a0 b8 73 d3 91 bd 13 ae fc 3d c9 42 84 bb
       -7.667132e-05 -0.07120409 0.123378895 -0.0040362817
000320 3e 8c 85 bb 75 ae e3 bc 0b 7d d1 b5 67 a4 56 be
       -0.004075556 -0.027793149 -1.5608106e-06 -0.20961152
000330 c0 a3 84 3d e2 97 a4 bd a7 67 9c bd 4e 86 72 bd
       0.06476545 -0.08036782 -0.076369576 -0.059210114
000340 66 76 8e bd 12 2b cc bd 14 d8 62 3c 1a db 2c bd
       -0.069561765 -0.099691525 0.013845462 -0.04220114
000350 26 48 da bd cc 7b 34 be 13 8c 84 bd d5 71 6f b8
       -0.106582925 -0.1762535 -0.064720295 -5.7088055e-05
000360 95 dc 8c b7 b0 1a 77 b9 c4 c4 97 3d d7 3f 7e bd
       -1.6792017e-05 -0.00023565697 0.07410577 -0.0620726
000370 44 f0 bf 3c 5b cb 0c be 9a ed b9 b6 1f 27 a3 bd
       0.023429997 -0.13749449 -5.54109e-06 -0.07966446
000380 bd 93 0e be 5b a7 39 3b 74 e1 3a 3d 43 07 b1 be
       -0.13923545 0.0028328511 0.045625165 -0.34575853
000390 1a 0d ef bd 26 62 8b 39 b7 aa ea 3d 9a 94 4e bd
       -0.11672421 0.00026585272 0.114583425 -0.050434686
0003a0 e2 83 29 be 85 f8 b6 3d 0d a9 26 3c 46 70 d8 bd
       -0.16554216 0.0893412 0.010172141 -0.105682895
0003b0 2e 9c 73 bd 44 03 7b bd ab c9 bb 3d a3 18 d5 b8
       -0.059475116 -0.06128241 0.091693245 -0.000101612204
0003c0 5f 45 46 ba d9 68 16 3e 89 84 91 be f4 fc f9 3c
       -0.00075634377 0.14688434 -0.2842143 0.030516125
0003d0 71 47 ac 3c 6c 33 e7 3d 4e 26 12 b8 de 92 9d bb
       0.02103016 0.11289105 -3.4844787e-05 -0.0048087677
0003e0 3e 17 da be 77 59 70 be 68 df e3 3d b8 61 12 3c
       -0.42595857 -0.23471628 0.11126596 0.008934431
0003f0 ea 3a e2 bc da 34 3a 3d 08 12 96 b6 e4 51 59 3d
       -0.027615983 0.04546056 -4.4724475e-06 0.053056613

nn_model.4.bias f4 [128]
000000 81 4d 98 be 7c e1 d2 be b7 d0 e6 be 11 dc d3 3e
       -0.2974663 -0.41187656 -0.45081112 0.41378835
000010 8b ce a7 be 63 1b da be 4f b5 9a bf ff 7c 98 be
       -0.32774767 -0.4259902 -1.2086581 -0.29782864
000020 07 12 c6 be a5 15 c6 be 7f 41 ae bf 95 ce 38 be
       -0.3868563 -0.38688388 -1.3613738 -0.18047555
000030 be c2 02 be e0 52 a5 bf 87 b9 20 bf ba 8f e8 be
       -0.12769601 -1.2915916 -0.6278309 -0.45422155
000040 dd b2 ed 3e 4a 2b 8a 3e 6c 5a e3 be bc f4 aa bf
       0.46425524 0.26986152 -0.44404924 -1.3355937
000050 f1 f7 32 be 23 52 c1 be 50 90 df be be a7 fd be
       -0.17477395 -0.37757978 -0.4366479 -0.4954204
000060 a6 36 cd be eb 4f 0f 3d 94 ad 29 be 66 df 18 bf
       -0.40080756 0.034988325 -0.16570121 -0.5971588
000070 08 81 e7 be c6 cb 9e bf d2 39 c9 be 7e 95 4b 3c
       -0.4521563 -1.2405937 -0.39301926 0.012425778
000080 c1 1f bf be 2b e1 e9 3e fd 2b a7 bf 19 0c a8 bf
       -0.37328914 0.45679602 -1.3060299 -1.3128692
000090 ac 0d 9b be 67 1e d3 be eb 30 ae bf ec 4e 00 be
       -0.30283868 -0.41234133 -1.3608679 -0.12530106
0000a0 70 89 08 3f 91 a5 5e bf 06 45 c4 bb cf 37 c5 be
       0.53334713 -0.86971384 -0.0059896735 -0.3851914
0000b0 1b f5 a5 be c2 c4 fa be 9b 09 02 bf 0e 96 90 bd
       -0.32413563 -0.4897824 -0.50795907 -0.07059871
0000c0 59 12 a7 3d b6 9a c5 be 86 d6 58 be 55 3c 1e bd
       0.081577964 -0.38594598 -0.21175584 -0.038631756
0000d0 14 8a bb be d7 72 04 3f 59 1c 0c be 1d a5 3b bc
       -0.36628783 0.5173773 -0.13682689 -0.01145294
0000e0 de c5 35 3e d7 15 a3 3e 2d b6 e3 be ef e2 5d 3e
       0.17751262 0.318526 -0.44474927 0.216686
0000f0 c9 95 e0 bd f9 0b 72 be 95 29 af be 1f 90 cd be
       -0.10966069 -0.2363738 -0.34211412 -0.40149018
000100 2e c1 86 be 08 05 b5 bc a5 1b 0c bf 93 28 0a 3f
       -0.2631926 -0.022097126 -0.5472968 0.5396816
000110 47 57 d9 be 8a 85 dc be 97 ed b0 be 7d 6a f5 bc
       -0.424494 -0.43070632 -0.34556267 -0.029958004
000120 be c6 80 bd 10 a6 0c bf f6 7c d2 be 65 3a a7 be
       -0.06287907 -0.5494089 -0.41110963 -0.3266174
000130 24 f2 cc be f1 db 97 3e 1d 7e 97 3e 00 2a cb be
       -0.4002849 0.2965999 0.29588404 -0.3968048
000140 79 d1 ed be a4 6b 14 bf 6c 31 38 be f7 ae af bf
       -0.46448877 -0.57976747 -0.17987603 -1.372527
000150 c8 f8 ae bf 58 a8 2e bf 07 3f cd 3e 26 72 a5 bf
       -1.3669672 -0.6822562 0.4008715 -1.292546
000160 4e 1d 86 bf 80 73 ee be d6 08 22 3e 2f 4c 00 3f
       -1.0477693 -0.46572495 0.15823683 0.50116247
000170 b8 0e ab bf ae c2 cf be 09 90 ec be 89 48 aa bf
       -1.3363867 -0.40578216 -0.4620364 -1.3303386
000180 56 5a b5 be 0e 9f 3a be bb b4 7d be 34 76 d8 be
       -0.35420483 -0.18224737 -0.24775974 -0.42277682
000190 46 62 26 bf 18 00 a0 bf 9c 0f 96 3e 16 ee 4b 3e
       -0.64993703 -1.2500029 0.29308784 0.19915041
0001a0 a3 c8 b0 bf 10 54 a9 be 90 f9 e4 3e 09 f4 d6 be
       -1.381123 -0.33071947 0.4472165 -0.4198306
0001b0 bf 98 f7 be ed 0a d4 be 5c a6 8a be c4 ac e0 bd
       -0.48358724 -0.41414586 -0.27080047 -0.109704524
0001c0 3e b6 9f bf 0d bc e8 3c 8b 29 be 3e f7 14 c6 be
       -1.2477491 0.028409982 0.3714107 -0.3868787
0001d0 1e 9b aa bf a4 e2 56 bf 94 56 fb 3d cc b1 09 bf
       -1.3328588 -0.83939576 0.12272373 -0.5378692
0001e0 04 83 e3 be 4d 62 fa be a3 a4 91 be 65 8b 02 bf
       -0.44435894 -0.48903123 -0.2844592 -0.5099395
0001f0 16 91 5f bf 81 66 d3 be e8 8a ab bf de 85 fc 3e
       -0.8733076 -0.41289142 -1.3401766 0.49320883

allocation_head.0.weight f4 [8, 128]
000000 e6 5d d3 3c 87 d8 c2 3d fd fa 4f bc 14 7f 9e bd
       0.02580161 0.095139556 -0.012694118 -0.07739082
000010 85 16 d5 3c eb 6a 98 3d 40 8a e5 ba 55 27 77 3d
       0.026011715 0.07442268 -0.0017512515 0.060340244
000020 07 ce 55 3d f2 4b 7f 3e 5c d3 da bc b4 15 c1 3d
       0.052198436 0.24931315 -0.026712112 0.09427968
000030 ed 18 e0 3d 90 c5 6f bd b1 71 c1 3c 4c 8f 68 bd
       0.10942254 -0.05853802 0.023613783 -0.056777284
000040 55 43 ee 3e 4e 8f b8 bc 9f ac 05 39 86 a7 1d bd
       0.46535745 -0.02252927 0.00012748175 -0.03848984
000050 ae e2 98 3e 90 e8 5a 3c 14 7a 2b 3d 3c 38 01 3e
       0.29860443 0.013361111 0.04186447 0.12619108
000060 f7 a0 3b 3d 1d 1d 48 3e e8 6a da 3d ee d1 b3 bc
       0.045807805 0.19542356 0.10664922 -0.021950688
000070 b0 1a eb 3c ac 4f b7 bc 20 b1 d1 3c b5 3e f5 3d
       0.028699249 -0.022376858 0.025597155 0.11974851
000080 df 19 35 3b e3 75 0b bd c2 eb f1 bd 20 89 a9 bd
       0.0027633829 -0.034047972 -0.11812545 -0.08278108
000090 d3 c4 7d 3d 03 fe 0b 3e 5e 8c 21 3d 2d 98 8e 3d
       0.061955284 0.13671117 0.039440505 0.06962619
0000a0 dd cf 63 bd dc c9 ef bd f7 d6 16 3d 46 6f c0 bc
       -0.055618156 -0.117084235 0.0368261 -0.02349056
0000b0 9b c1 cb 3c 55 e5 6c bd 7e 0b ed 3d 3f ce 67 3d
       0.024872592 -0.057835896 0.115744576 0.056593176
0000c0 8d f7 68 3e 1f 55 56 3d 01 a4 ca 3d 85 f8 cf 3d
       0.22750683 0.05232727 0.098945625 0.10154823
0000d0 88 ae c3 3d c7 1d 74 bc 7a 5c a3 3d 2d d1 64 3b
       0.095547736 -0.014899678 0.07976623 0.0034914718
0000e0 f1 27 75 3e 89 e8 f0 3e 6a 72 f8 bd 26 83 dd 3e
       0.23941018 0.4705241 -0.12131198 0.4326412
0000f0 44 8d 73 3d 78 68 7d 3e 11 37 e6 bd 9a ef 16 3e
       0.059460893 0.24746883 -0.11240972 0.14739838
000100 99 8f b2 3d 6e b3 c8 3d 05 b8 81 3d 4e ed 7d bd
       0.08718795 0.097998485 0.06333927 -0.06199389
000110 d0 db 9c 3e 30 f6 f9 3d 22 02 04 bc 62 3d de 3e
       0.30636454 0.1220516 -0.008057149 0.43406206
000120 04 41 88 3d f9 00 91 3c 48 f0 0b 3e 39 03 2e 3e
       0.06653026 0.01770066 0.13665879 0.16993417
000130 74 02 9f 3d 49 0d cb 3e fe 37 ba 3e 79 c1 9b 3b
       0.0776414 0.39658573 0.36370844 0.0047532883
000140 2f 57 25 bd f7 d8 0d 3e 59 78 29 3e 64 92 b4 bd
       -0.040366348 0.13852297 0.16549815 -0.08816984
000150 ec 86 87 3c 1a 26 16 3d 3d 33 81 bd c7 b9 25 bd
       0.016543828 0.03665743 -0.06308601 -0.040460374
000160 ba 78 3b bd fd 52 50 bd 71 76 50 bb 0e 7f 51 3b
       -0.04576943 -0.050860394 -0.0031808878 0.00319666
000170 2b 96 81 3d 74 07 dd bc a7 a1 f5 bc 76 da 6a bd
       0.063274704 -0.026981093 -0.029984308 -0.057337247
000180 9c 60 d5 3d 50 22 a9 3d 10 18 50 3d a4 0e d4 bc
       0.104188174 0.08258498 0.050804198 -0.025885887
000190 da a3 12 3e 88 4d 79 3d 89 d2 bf 3e f0 bf 65 be
       0.14320317 0.060864955 0.37465313 -0.224365
0001a0 4d 70 ac bd 7d c6 38 3e e6 bd cb bd 7b 84 9b bd
       -0.08419857 0.18044467 -0.0994833 -0.07593628
0001b0 d8 72 aa 3c 8f 9f 3f bd b8 cf af 3d 20 93 16 3d
       0.020806715 -0.046783026 0.08584541 0.036761403
0001c0 8f 50 5c bd b3 b6 7e 3d 25 f9 15 bc 66 44 6d bc
       -0.053787764 0.062185954 -0.009153639 -0.0144816395
0001d0 24 36 b4 bc a8 d1 82 3d c5 46 0e bd c2 1d a6 3d
       -0.021998473 0.06387645 -0.03473546 0.081111446
0001e0 53 07 c2 3d b1 48 60 bd 55 30 30 3d e2 40 04 3d
       0.09474053 -0.054756824 0.043014843 0.03228844
0001f0 b8 01 07 bd 34 35 fb 3b 18 42 b5 bc d8 d2 84 bd
       -0.032960624 0.0076662544 -0.022126243 -0.06485528
000200 d5 d3 5e bc 83 39 50 bd 9b f8 28 3d 63 a8 2a 3c
       -0.013600309 -0.050836097 0.041252714 0.010416123
000210 f7 10 22 3b 3a 16 56 3d 35 95 81 3d 76 d5 91 3b
       0.002472935 0.05226729 0.06327287 0.0044504954
000220 93 05 80 3d a6 a3 e8 3d 2c 8a 92 3c de cd 29 3e
       0.06251063 0.113593385 0.017888151 0.16582438
000230 cf 5a 8c 3e 2e ea 65 3d 10 6c 13 3e d9 c1 5b 3d
       0.2741303 0.056131534 0.14396691 0.053651664
000240 e5 5c ed 3e 93 cc 0c 3d 72 40 f6 3d 00 34 16 ba
       0.46359935 0.034374785 0.12024011 -0.00057297945
000250 28 1f dd 3d d5 a6 fb bb d7 a8 b9 bc 6e 63 6e bc
       0.10796958 -0.0076798 -0.022663517 -0.014550073
000260 7e 8c 2c 3d f3 10 71 3e bc 7e 71 3d f1 60 ce bc
       0.04212617 0.23541622 0.058958754 -0.02519271
000270 36 3d e6 3d 3b a6 8d bd af 6c 29 3d 3b b0 6b bb
       0.11242144 -0.069164716 0.041363414 -0.0035963196
000280 2b 40 30 3d 24 a4 79 bb 41 85 0a be 88 4c 9c bd
       0.043029945 -0.003809222 -0.13527395 -0.07631785
000290 f3 be 4f 3d 6d 7d 7b 3d 0f 77 24 bd dd c6 aa 3d
       0.050719213 0.061398912 -0.040152606 0.083387114
0002a0 6a b7 0c be 05 7a 9e bd f3 61 31 bc d4 5a a5 3b
       -0.13741842 -0.07738117 -0.010826576 0.005046228
0002b0 51 42 16 3e e2 96 05 3d b3 9d a1 bc d9 6d 68 3d
       0.14673735 0.032614596 -0.019728517 0.056745384
0002c0 47 82 df 3e 32 62 83 3c bd 27 eb 3d db e6 e5 bc
       0.4365408 0.016038034 0.11482189 -0.028064182
0002d0 c0 4b 8f 3d 17 83 f5 bb 49 66 97 3d 99 25 b3 bb
       0.0699687 -0.007492434 0.07392556 -0.0054671285
0002e0 f5 0d 7e 3e d7 9b 90 3e b2 84 a6 bd 29 6e 0b 3f
       0.24810012 0.28243896 -0.08130778 0.54464966
0002f0 c4 31 9b 3b 86 9c 8d 3d e5 e2 25 3c 1e b1 87 3e
       0.004736157 0.0691462 0.010124897 0.26502317
000300 c2 e9 1d b8 78 06 34 3e 4f 1f 17 bb 0c 4d 6d bd
       -3.764942e-05 0.17580593 -0.0023059433 -0.057934806
000310 28 92 20 3b e3 57 89 3d cf 95 f3 3b 4d 8d a7 3e
       0.0024501178 0.06706216 0.00743363 0.3272499
000320 10 91 8c 3d 1b 6c bc 3a 74 cd de bb 80 c9 0d bc
       0.06863606 0.001437548 -0.0067993943 -0.008653998
000330 9d 05 0f 3c 2e 54 fc 3e d9 25 90 3e 76 d5 09 3e
       0.008729366 0.49282974 0.28153875 0.13460335
000340 80 6c a4 3d 26 cb 47 bd 26 00 ca 3a 00 23 8f bc
       0.08028507 -0.04877772 0.0015411421 -0.017472744
000350 d8 b1 35 3c a5 c2 df 3c b3 a3 26 bc 40 c6 38 3c
       0.011089765 0.027314493 -0.010170865 0.011277735
000360 0b e7 18 be 2c 53 83 bd 55 2c b8 bc 84 1a 5f bd
       -0.14931886 -0.06412348 -0.022482077 -0.054468647
000370 10 f9 cf bb e2 80 e0 3c 92 c6 c5 3d c0 01 24 3b
       -0.0063468292 0.027405206 0.09657015 0.0025025457
000380 05 86 87 bc 7c 63 be 3d 27 03 dc 3c e2 41 27 bc
       -0.016543398 0.09296319 0.026856972 -0.010208579
000390 18 06 f9 3c f0 5b 42 bc c2 73 d0 3e 86 e4 49 3d
       0.030398414 -0.01186274 0.40713316 0.049290203
0003a0 30 c9 34 3c 75 56 af bd 38 7e c6 3c 8a 57 1b bd
       0.011034295 -0.08561412 0.024230108 -0.03792528
0003b0 f3 45 bf 3d 74 ea 1f bb 51 1e 6f 3d 27 f0 e4 ba
       0.09339514 -0.002440122 0.05837852 -0.001746659
0003c0 a8 15 ef 3c 51 dc bc 3d 89 8b b7 bd 57 90 76 3d
       0.029185131 0.092217095 -0.08962161 0.060196247
0003d0 d2 62 3a 3d 73 5b d1 bc 41 6d 8b 3c e4 f6 54 bc
       0.0455044 -0.025556302 0.01701987 -0.012998316
0003e0 3a f8 7a 3d cd a9 99 bd 41 e6 f4 bc 48 04 0c 3d
       0.061271884 -0.0750309 -0.02989495 0.03418377
0003f0 a8 73 61 3d 12 27 0c 3d b2 f0 56 bd d8 7d 98 bb
       0.05504194 0.034216948 -0.05247564 -0.0046536736

allocation_head.0.bias f4 [8]
000000 43 ee c3 be ec eb d4 be c7 70 13 be b5 3d 27 be
       -0.38267717 -0.41586244 -0.1439849 -0.16332133
000010 f7 0f ee 3e 4e 45 04 3f 06 11 0c bc 46 4e 41 bd
       0.46496555 0.5166825 -0.008548981 -0.047193788

payment_head.0.weight f4 [3, 128]
000000 49 e4 7e 3e 7e 42 00 3e 17 aa 63 3d ce 44 1d 3f
       0.24891771 0.12525365 0.055582132 0.6143311
000010 6f 7d f4 bb 13 25 5c 3d 72 92 96 bd 72 90 d9 3e
       -0.007461242 0.053746294 -0.07352151 0.42493016
000020 82 42 76 3b 51 7a b9 3e 38 a7 ba bc 96 33 51 3e
       0.0037576263 0.36226133 -0.022784814 0.20429835
000030 27 5e ca 3e b8 e3 57 3c a0 2f f8 3d 1f 89 c6 3d
       0.39524958 0.013176851 0.12118459 0.096941225
000040 3c 1e fb 3e 46 05 20 3f 99 cd 31 3d b8 02 20 bd
       0.49046504 0.62508047 0.043408964 -0.039065093
000050 45 fa b9 3e d3 fd fe 3d d0 73 90 bc da 06 55 3d
       0.36323753 0.12450757 -0.017633349 0.052008487
000060 2c d1 07 3e 9c 53 14 3f f8 f7 0a 3f 7e 9d f3 3c
       0.13263386 0.5794008 0.5428462 0.029738184
000070 36 42 98 3d 07 a9 9b 3d 17 68 c6 3d 02 6a 0c 3f
       0.07434504 0.07600599 0.09687822 0.54849255
000080 0c 85 bd 3c 8a 5d f6 3e c8 2e f4 3c b5 71 aa bd
       0.02313473 0.4811824 0.029807463 -0.08322469
000090 90 5f 57 3e 70 bd 00 3e dc d1 ad 3c 0f 28 65 3f
       0.21032548 0.12572265 0.021218233 0.8951425
0000a0 22 e5 48 3f 4c 4e 13 3c 76 df 1d 3f 35 2c 3c 3e
       0.7847463 0.008990835 0.616691 0.18376239
0000b0 2e 74 a5 3e 6e c9 11 3e 5f 0a 07 3e 2c 3b 0c 3f
       0.323152 0.14236996 0.1318755 0.5477779
0000c0 c9 0c e7 3e bc 5b 17 bc 1f d7 f1 3e a5 dc dd 3e
       0.45126942 -0.00923818 0.47234437 0.433324
0000d0 ab 32 c5 3d ba 8e 22 3f 9e 35 e9 3e b7 8e 9e 3e
       0.09628805 0.63499033 0.4554872 0.30968258
0000e0 3b 1a 22 3f 4a 54 1d 3f 5f 0b e6 3c 2b 41 17 3f
       0.63321275 0.6145674 0.028081594 0.59083813
0000f0 21 e6 93 3e fd b2 b3 3e b7 c8 cc 3c b3 ac ea 3e
       0.28886512 0.35097495 0.024998052 0.45834884
000100 a2 44 ba 3e df 10 d1 3e d5 6c 72 3d cb b3 1f 3f
       0.36380488 0.40833184 0.05918582 0.6238372
000110 b6 5b 31 3e bd 75 ff 3d f2 07 05 3e 03 7a d5 3e
       0.17320141 0.12473629 0.12991312 0.4169465
000120 30 f7 0c 3f 35 81 c3 3d 67 6d 16 bc da 23 94 3e
       0.5506468 0.09546129 -0.009181357 0.28933603
000130 27 50 b2 3d a5 b5 40 3f 9a be 16 3f ca 8c ce bc
       0.08706694 0.7527717 0.58884585 -0.025213618
000140 9a e7 b5 3d ee c1 b5 3d ed ae 25 3e a2 da af bd
       0.08882065 0.0887488 0.1618001 -0.08586623
000150 28 bb 37 3c cb ae ec bd e4 01 79 3f 0f 7d 0b bd
       0.011214055 -0.115567766 0.9726851 -0.034054812
000160 2d 9c 75 3d 94 78 9c 3d 05 93 9f 3e 6d d9 0d 3f
       0.059963394 0.07640186 0.31166855 0.5540989
000170 34 b2 aa bd 2d ca 42 3d 0b f1 d4 3c 8c fa 7a bd
       -0.08334771 0.04755609 0.025993844 -0.061274096
000180 a7 22 c2 3d d3 24 84 3e 41 1b 93 3d 06 fd 55 3e
       0.09479266 0.25809345 0.07182933 0.20897302
000190 a6 d3 9c 3d 4d db a4 3d 1e ac 1f 3f 85 cd 27 3f
       0.07657556 0.08049641 0.62372005 0.6554797
0001a0 88 05 06 bc 67 25 f0 3e 2d ef 2e 3f d7 02 9a 3d
       -0.00818003 0.46903536 0.68333703 0.07520073
0001b0 84 1c 17 3e e4 0d cb 3d d4 aa 8e 3e 90 d3 96 3e
       0.14756972 0.09914759 0.27864707 0.29458284
0001c0 2e f6 2e 3d 42 16 63 3e 2a 83 e8 3e 0f 3b 09 bc
       0.042715244 0.2217646 0.4541257 -0.008375897
0001d0 a2 f4 33 3d 93 a5 dd bc ed 2a 22 3f 25 db c1 bc
       0.043934472 -0.027056491 0.6334675 -0.023664067
0001e0 57 74 69 bc 5b 44 7b 3d fa e6 c5 3e b6 d7 df 3c
       -0.014248929 0.061344486 0.38652784 0.027324539
0001f0 09 d5 b9 bd 9d fc 0c 3e 10 da 72 bc e0 80 35 3f
       -0.09073836 0.1376824 -0.014822498 0.7089977
000200 75 2e e7 3c 9e ed 71 3d e5 7c 78 3c 1c 64 4e 3e
       0.028220395 0.0590645 0.015166496 0.20155376
000210 38 1f c6 3d 2a 5a b3 3b 48 7b 69 3c f9 3b f2 3d
       0.09673923 0.005473395 0.014250584 0.11827845
000220 12 6c c2 3c 79 16 8c 3d de 46 f0 bc 19 10 3a 3e
       0.023733173 0.06840224 -0.029330667 0.18170203
000230 30 f1 51 3d aa f2 80 bd 01 1a 06 3d e8 3f 7c 3d
       0.051255405 -0.062962845 0.032739643 0.061584383
000240 a9 68 20 3e 18 26 05 3e b9 d4 1e 3d b0 85 5b bd
       0.15664925 0.13002813 0.038777087 -0.05359429
000250 4e 2c 1b 3d 7b 6f c8 3c f5 9e 06 3e a1 2f d5 bc
       0.03788405 0.02446722 0.13146575 -0.026023688
000260 42 9c 70 3b e1 b5 5e 3d 29 c6 df 3d f1 01 04 3e
       0.003671423 0.054372672 0.10926468 0.12891366
000270 7e 71 31 3e 5c 96 9d bd 86 3f 66 3d 71 a3 30 3e
       0.1732845 -0.076946944 0.056212924 0.17249848
000280 d2 c8 ca 3d 03 29 50 3e 5b d5 6f 3c 4c 40 73 bd
       0.09901585 0.20328145 0.01463827 -0.05938749
000290 60 de 2f 3e 63 d4 f6 3c 66 75 3b 3d 1d 92 97 3d
       0.17174673 0.03013057 0.045766257 0.07400916
0002a0 a8 54 26 3e 93 03 01 3e f9 32 52 3e 6f 74 b7 3c
       0.16243231 0.1259902 0.20527257 0.022394387
0002b0 1a a3 83 3d 4c 60 8a 3d 44 04 64 3b b5 22 58 3e
       0.064275935 0.067566484 0.0034792582 0.2110699
0002c0 ac a2 d4 3d 6f 76 4c bb 2b 7b ad 3d 8d 36 96 3d
       0.1038259 -0.0031198522 0.08470758 0.073346235
0002d0 80 e6 c5 3d e1 44 5f 3d bf d5 34 3d c4 23 12 3d
       0.09663105 0.054509047 0.044149157 0.03567864
0002e0 34 58 28 3e 0a be 35 3e a6 fb a8 3b 92 02 0b 3e
       0.16439897 0.17748275 0.005156952 0.13575199
0002f0 b4 2a 3f 3e ff e8 b3 3d 9c 5d 29 3d 3a e8 f6 3d
       0.18668634 0.08784675 0.04134904 0.120560125
000300 32 6c df 3d 71 84 34 3e ca 24 80 38 fe 5c 36 3e
       0.109093085 0.17628647 6.110368e-05 0.17808911
000310 61 0c 18 3e 1a 29 5d 3d 7d 89 07 3e 07 2b 4d 3e
       0.14848472 0.053994276 0.13236041 0.20035945
000320 f4 74 ae 3d 9d 73 a2 bd db 67 d5 3d 33 f7 41 3d
       0.08518401 -0.07932208 0.104201995 0.04735489
000330 c2 91 c2 3d 4f 18 26 3e a7 53 45 3e 31 13 89 bc
       0.09500457 0.1622021 0.19270192 -0.016732784
000340 de ef 22 bc e1 27 cb 3d c1 8c 19 3e 97 7c a8 bd
       -0.009944884 0.09919716 0.149951 -0.082268886
000350 f1 e4 49 bd c4 74 13 bd 2d 36 40 3d 0a 5a 23 bd
       -0.0492906 -0.03600003 0.046926666 -0.03988079
000360 98 f2 0b 3e 6e 00 81 3d 79 3d 2b 3e 2a 40 56 3e
       0.13666761 0.0629891 0.16722669 0.20922914
000370 22 fe 24 3d 8e 8e 9c bc cc c3 fb 3d 14 18 0a 3d
       0.040281422 -0.019110944 0.12293205 0.03371437
000380 65 a5 03 3e 04 9c 00 3d b8 e5 c1 3d 95 9b 33 3e
       0.12856062 0.031398788 0.094676435 0.17539819
000390 ef b5 b5 bc d8 83 17 3c c1 4a 5a 3e 10 ed 36 3d
       -0.02218148 0.009247743 0.21317579 0.044659674
0003a0 70 95 ed 3c 29 98 09 3e 04 d1 22 3e c7 fe 22 3e
       0.029001921 0.1343695 0.15900046 0.15917502
0003b0 8a dd 24 3e 4a 25 0b 3e 23 94 d2 3d 95 f2 48 3e
       0.16100135 0.13588443 0.10282161 0.19623788
0003c0 b8 b1 a8 bd 14 b0 98 3d 8d cd c1 3d 3c 6f 0a 3d
       -0.08237022 0.07455459 0.09463034 0.033797488
0003d0 e3 34 a7 3d 04 99 c9 3d b0 25 3c 3e ff 2c f6 3d
       0.08164384 0.098436385 0.18373752 0.12020301
0003e0 41 d6 c3 bb 03 05 4c 3d fb 5e f4 3d 4f c7 88 3d
       -0.005976469 0.049809467 0.119321786 0.0667864
0003f0 8b 9a a8 3d ba d7 cb 3c 90 55 da bc 43 7e 2d 3e
       0.08232602 0.02488314 -0.026652128 0.16942696

payment_head.0.bias f4 [3]
000000 df 5f 73 3f 6a 71 47 3d b0 07 08 bf
       0.9506816 0.048692144 -0.5313673
