model/3x2_sparsemax_in_linsigpmt_scratch.pt (torch_old, 144456 bytes, 10 tensors)

nn_model.0.weight f4 [128, 6]
00000000: 8e52 233c 4575 44bd 9b47 c2be 1f36 82be
00000010: 08b3 87be 7e88 f3be 21bb 47be 6ce7 febd
00000020: e155 fabc f6f4 f0bc 7e7a 423e 16fa 4c3e
00000030: a2f8 e7bc 0473 f53e 3722 e2bc 1e1b 12bd
00000040: 77ef 67bc 0742 66bb f774 74bc fb3a 3cbd
00000050: 3ddb a33c 2b59 ba3c 9b65 903e 48d5 9a3e
00000060: eb74 e8be acd2 a2be ccc5 dcbd a907 d7bd
00000070: 4c69 353d ee42 d43c a361 ccbe b505 b4be
00000080: ccde 2cbd 28f4 b3bc 059d 1a3f da92 093f
00000090: a5d6 c3be 94d6 cebd 500c aabd 06a2 13be
000000a0: 5894 2f3e 6e7c 3ebe 331e 82be b02f 6bbe
000000b0: ecba 92bd 0eb2 70bd e204 453e 2b6f ac3e
000000c0: bc03 5ebe b1d5 213e 67d0 3fbe fc91 c6bd
000000d0: f0e7 e33c 8d18 ea3d 3aef f83e c50a 32be
000000e0: 86be b9bd 07aa 95bd 3a51 84be 4ea3 893e
000000f0: c7ab 9ebd 7407 263f 58d4 10bd bde4 15bd
00000100: efcf f13c 4e23 c73d 144e 703f afd3 6dbc
00000110: 2370 18bc 9b7c 373b 3e19 5d3c cbf8 f8bc
00000120: 0ff7 35be 269b 0b3f 8b59 2ebd cec4 ddbc
00000130: 7f90 313e c2a7 8abe 7ed9 ffbe a74b 2dbe
00000140: 9cd5 9bbd f8ac 9ebd 8c1d 8f3e f706 3c3e
00000150: 0677 1dbe 98eb 2fbe 3462 aebd f6bc 1abe
00000160: 9c12 653e 58db 9ebd 9119 923e cd18 0b3e
00000170: 3592 343c 00d4 073c 52be 82be aec4 2abe
00000180: 1ab5 e7be 5009 59bd 98c9 9d3c 8e48 3c3c
00000190: 60a1 45be 0b58 0b3e 1010 933f 6f55 853d
000001a0: 5d33 c83b 1e56 1c3c b047 fbbd b9f7 63be
000001b0: cc60 34be 28a1 41bb 5a7a e4bc 8f72 eebc
000001c0: f86f 163e 207d c5bd 0044 043b 5062 35bd
000001d0: dad8 73be c800 0bbe f8b4 063e e4ea 383e
000001e0: 8b9a bfbd f741 3b3e cf04 f8bd 0473 03be
000001f0: 4a52 e73e f5ea 0dbd c2c8 7c3f 30fc 913d
00000200: 9446 51bc 990c 22bc 7685 8abe 9e20 d0be
00000210: 5d1a a73e 382e 943f e89b df3d 263b c83d
00000220: 85be cabe 9bb7 debe c52f d73c f3f0 72be
00000230: 8f2c 053d 2835 fd3c f690 f63d aad9 003d
00000240: c374 ccbe 2875 623e 0d34 6dbe 7095 8bbd
00000250: 1a43 afbe 1fd8 6bbe af15 5f3e e6e3 db3d
00000260: d374 b5bc 8009 a4bc b572 96be a636 07be
00000270: f554 6fbe 3398 bb3e 9249 eebd 04fe 0ebe
00000280: 6ac7 8a3e 95da 98be 90d2 e53c a0b1 433e
00000290: ebd6 173d 3826 c93c 5867 993d 3486 8a3c
000002a0: deac 9b3d 43fb 493e 6545 37ba a975 f1bb
000002b0: 5241 0b3d 4597 233d 24fb ddbd f8a7 b7bd
000002c0: f8cb aabc 27db d8bc 3b0d 623e 086d 663e
000002d0: 1e94 b2be 020a b3be e164 abbd 494a c7bd
000002e0: 089a 373e 8369 ca3e d8da 30bd a81c c23d
000002f0: e0b6 6d3c 73f9 7cbe 0ce8 9a3d 40f1 2e3c
00000300: dea0 5abd 5122 97bd e2da 14bd 6db7 98bd
00000310: 58be d7bd a072 b33e 122c 4cbe deea 92be
00000320: 8ae1 eebd 4c35 e4bd 5a95 8ebb 4ce5 9f3c
00000330: 3a67 4e3e 491f 3a3e 750b 23bc 8697 f13b
00000340: 3e71 ac3d 15c0 963d 6029 243f ac5a 65bd
00000350: b400 29bd 7b82 87bd fbed 0abc 98db 563d
00000360: d71d 8abe 6b76 3fbe 369b 72bd a07d 5abd
00000370: fc9d c23e 1856 a23e 4869 debc 8de1 1e3d
00000380: 693e a0bc 6b78 27bc 7c4f afbd 88ff 033d
00000390: bdb8 b63d 72bf 29be 1679 88be 9e5c de3d
000003a0: 8af8 d53c 71af 95be 94ed 45be eed4 393e
000003b0: 2051 0ebd 2961 debc 054c df3b 3f60 10be
000003c0: e477 863c f9f6 c2be 21c6 99be 32c0 013d
000003d0: 3556 473e a874 3dbe 8601 6bbe c308 acbe
000003e0: 9e98 19bd b4c8 41bd 007f 2abe 27a2 713d
000003f0: 07a1 0ebe b41a 14be c507 11be 81bb f1bd
0.009968413 -0.0479634 -0.37945256 -0.25431916 -0.26503778 -0.47565073 -0.19504978 -0.12446484
-0.030558528 -0.029413681 0.1899204 0.20017275 -0.0283168 0.47939312 -0.027604206 -0.035670392
-0.014156214 -0.003513457 -0.014920465 -0.045954686 0.020002002 0.022747597 0.2820252 0.30240846
-0.454017 -0.31801355 -0.10779914 -0.10499508 0.044289872 0.02591082 -0.3991824 -0.35160604
-0.042204663 -0.021967009 0.6039584 0.537397 -0.38249698 -0.10099521 -0.0830313 -0.14417276
0.17146432 -0.18602154 -0.25413665 -0.2296741 -0.07164559 -0.058763556 0.19240144 0.33678564
-0.21681112 0.15804173 -0.18731843 -0.09695813 0.027820557 0.11430464 0.48620015 -0.17386921
-0.090695426 -0.07307821 -0.2584322 0.26882404 -0.07747608 0.6485512 -0.035358757 -0.036595095
0.029518096 0.09723531 0.9386914 -0.014515801 -0.009304079 0.0027997855 0.013494788 -0.030392071
-0.17770027 0.5453361 -0.042565864 -0.027071383 0.17340277 -0.27081114 -0.4997062 -0.1692339
-0.07609102 -0.07747835 0.2795223 0.18362032 -0.15377435 -0.17179716 -0.085148245 -0.15111145
0.2237038 -0.0775668 0.2853513 0.1358368 0.011021187 0.008290291 -0.25535828 -0.1667659
-0.45255357 -0.052987397 0.019261166 0.011491908 -0.19299841 0.13607804 1.1489277 0.06510436
0.0061096386 0.009542016 -0.12269533 -0.22262467 -0.1761505 -0.002954552 -0.027890373 -0.02910736
0.1469115 -0.09643006 0.0020182133 -0.04428321 -0.23813191 -0.13574517 0.13154972 0.18058354
-0.093556486 0.18286882 -0.12110292 -0.12836844 0.4517997 -0.0346479 0.9874383 0.07128179
-0.012773175 -0.009890699 -0.27054948 -0.40649885 0.326373 1.1576605 0.10918409 0.09776907
-0.3959848 -0.43499455 0.026267895 -0.23724727 0.032513198 0.030909136 0.12039368 0.03145758
-0.39932832 0.22115004 -0.23164387 -0.06815612 -0.34230882 -0.23031662 0.21785615 0.107368276
-0.022150433 -0.020024061 -0.2938439 -0.1320444 -0.23372252 0.36639556 -0.11635126 -0.13964087
0.27105266 -0.29854265 0.028054506 0.19110727 0.037070196 0.024554357 0.074904144 0.016909696
0.07601331 0.19724755 -0.00069912366 -0.0073687625 0.03399784 0.039939184 -0.10838917 -0.08967584
-0.020849213 -0.026471687 0.2207536 0.2250253 -0.3487863 -0.34968573 -0.083688505 -0.09730966
0.17929852 0.39533624 -0.043177456 0.09478122 0.014508933 -0.24704532 0.07563791 0.010677636
-0.05337607 -0.07379592 -0.036341555 -0.07456861 -0.10534352 0.3504839 -0.19938686 -0.28694814
-0.11664112 -0.11142978 -0.0043513 0.019518517 0.20156565 0.18175997 -0.009951462 0.0073727993
0.08420037 0.073608555 0.64125633 -0.055994675 -0.041260436 -0.06616684 -0.0084795905 0.052455515
-0.2697589 -0.18697517 -0.059230052 -0.05334246 0.38011158 0.3170631 -0.027149811 0.03878932
-0.01956101 -0.010221581 -0.08560082 0.032226115 0.08921955 -0.16576937 -0.2665488 0.10857509
0.02611949 -0.29235414 -0.1932891 0.18147632 -0.034745336 -0.027145939 0.006814482 -0.14099215
0.01641459 -0.3807905 -0.30033973 0.031677432 0.19466479 -0.18501532 -0.229498 -0.33600435
-0.037499063 -0.047310546 -0.16650009 0.05899253 -0.13928615 -0.14463311 -0.1416312 -0.11803342

nn_model.0.bias f4 [128]
00000000: 9b19 a13b 68be b2be 6e44 f7be d9a3 2e3d
00000010: b9c1 63bb 767d 52bf abb1 2cbe 1780 e3be
00000020: e0a8 c2be b571 43bf 2b14 3fbf 6c5e 53bf
00000030: 38e0 32bf d7d7 d3be a87f 8abe be66 d53e
00000040: d2b5 e13e 397c 49bf 9254 813e e6b5 cebe
00000050: 1380 1cbf fe4d 0fbf 4f62 84bc 2b96 c83e
00000060: 82b1 4abe 2937 e23e 9a59 53bf 0044 f83d
00000070: 1249 293d 272d d8be 651c 02bf 2c1f 80be
00000080: 74ef ddbe 7bec 203f 4d65 07bf 4b57 33bf
00000090: 76a0 24bf 0f26 0b3f 8db1 c4be 0eb9 9b3e
000000a0: 8835 b8be 3104 c43e 7566 07bf e894 8cbe
000000b0: 9f92 d8bd 5da2 ecbe ff8b 52bf 7e9d d0be
000000c0: cb39 a03e c0a4 413e cbfd 5c3e 1c49 603d
000000d0: 9801 acbe 90c2 0abf 677c a6be ba21 073f
000000e0: 6be9 8fbe 788a d1bd bc58 dcbd 9d86 87bf
000000f0: 9945 4ebf b98d a2be 8fad 6abf 4382 97be
00000100: 1992 c9be f501 21bf abb3 76be 4acb dc3d
00000110: 7d7e d43e 98a1 e9be a4f6 3bbf b441 cabe
00000120: 9fbd a43e 9b8f 71be c95a 82bf afce aabe
00000130: fc20 dabe 49da 403e 0bf0 1ebf ea80 69be
00000140: 2d9b c1be 307e 0dbf 4908 2dbf ef9e 9a3d
00000150: 949c 5f3e 0ea8 953e 9a58 ddbe 788b 6f3e
00000160: 19d5 38bf 5a33 b43d 2d74 93bf 263e 1f3f
00000170: 6dfc d3be a941 3cbf 27b6 35bf 7bc2 56bf
00000180: 24c2 d1be ce55 c6be eac3 12bf 69ba 88bf
00000190: 47b8 123f c728 6abf 70c4 04bf 172f 0ebf
000001a0: 1e3e aabe 0f2b fa3e 092e 13bf 6cdd e83e
000001b0: eb40 07bf 1c0b 17bb fe31 993e db7e 003f
000001c0: f409 e3be 9a80 713e a472 15bf b3bd e4be
000001d0: 8c92 fc3e 3892 4cbf 3163 19bf cd9c d23e
000001e0: 2495 983e fe61 833e a9b5 c6be b0bf 0b3f
000001f0: c717 e03e e5e9 7bbf f683 39be 7426 29bf
0.0049163825 -0.34910893 -0.48294395 0.042636726 -0.003475292 -0.8222269 -0.1686465 -0.44433662
-0.38019466 -0.7634538 -0.7464015 -0.8256595 -0.6987338 -0.4137561 -0.2705052 0.4167995
0.4408403 -0.78705174 0.25259835 -0.40373152 -0.61132926 -0.5597838 -0.016160158 0.3917707
-0.19794276 0.4418271 -0.82558596 0.12122345 0.04132945 -0.42221949 -0.50824577 -0.25023782
-0.4334675 0.6286084 -0.5288895 -0.70055073 -0.64307344 0.5435495 -0.3841671 0.30414623
-0.3597834 0.38284448 -0.5289071 -0.27457356 -0.10574841 -0.46217623 -0.8224487 -0.40745157
0.31294093 0.18910503 0.2158119 0.054757223 -0.33594966 -0.5420313 -0.32516786 0.5278584
-0.2810777 -0.10231489 -0.10759112 -1.0587956 -0.8057495 -0.3174875 -0.9167108 -0.2959157
-0.39369276 -0.6289361 -0.24091975 0.10780962 0.41502753 -0.456311 -0.7342322 -0.39503253
0.3217592 -0.23589937 -1.0183955 -0.33360812 -0.4260329 0.18833269 -0.62085027 -0.22803083
-0.37813702 -0.5527067 -0.6759077 0.075498454 0.21837074 0.29229778 -0.4323166 0.23393047
-0.7220016 0.08798857 -1.1519829 0.62204206 -0.41403523 -0.7353769 -0.7098107 -0.83890504
-0.4096843 -0.3873734 -0.5733019 -1.0681888 0.57312435 -0.9146847 -0.5186224 -0.55540603
-0.33250517 0.48860976 -0.5749212 0.4548143 -0.5283343 -0.0023047393 0.29920954 0.50193566
-0.4434353 0.23584214 -0.5837805 -0.4467598 0.49330556 -0.7991061 -0.5991698 0.41135255
0.29801285 0.256607 -0.3881047 0.54589367 0.4376814 -0.9840377 -0.18116745 -0.660743

nn_model.2.weight f4 [128, 128]
00000000: d65a 433d 9810 31bd 1247 953d 9af1 9bbd
00000010: 3b6d 32be c790 ebbd 3b4a 9e3d 7c4b ecbd
00000020: 97d6 533c 7b52 1f3e 74cd 933d 3ce3 573d
00000030: 5b82 c9bd 597a 93bd 64bd d23c e227 d73c
00000040: 8945 56be 8ae6 43bf 9fb6 14be 00f4 35ba
00000050: 78f2 efbb df5f ab3e 6473 8e3e 7407 b23d
00000060: 703d 6cbd 38fe a6bd 2fab a3be e074 ffbd
00000070: 3dac 773d a033 3b3c bccc 9e3a 0065 413c
00000080: 4ff4 91bd e5ae e2be 11bc 1bbd e23a 433d
00000090: 78c6 a6bd a1ef 89be 4050 9cbd a3e0 88bd
000000a0: 629f 7bbd 3efc a9bb 97d9 2b3d 7efe 973d
000000b0: 9004 96bc b184 a63b e2ed aa3d 3139 913d
000000c0: 9c4a 5cbe 9427 0abe 65c2 a33c 15a9 37bd
000000d0: 67c5 9d3b b6b2 23bc 18e0 27bc 440b 41be
000000e0: 1d93 24bd d726 013d fa36 183b 679b 6c3e
000000f0: 0237 013e 448f 8dbd 35a9 203d c1a0 8c3d
00000100: fc31 10bd 6a30 133d 5a41 413d b7c2 2bbd
00000110: b7ff c6bd 10f0 1bbd c305 d83e 72ee 5fbd
00000120: b09e 2fbe 0083 6bbd 888c 073f d5ac 053c
00000130: e48c 71bd 4f47 bebe 5c04 8ebe dba4 e9bd
00000140: 6388 b1bd a80a 51be a470 4fbe 10b5 86bd
00000150: d527 74bd ac1e 77bd 5230 cabd d1b2 36be
00000160: dc39 833d b6c8 66be 15e7 a43d 62e1 14bf
00000170: 1544 9abd eb00 0b3d 80db 573d 5424 4e3e
00000180: 892a ee3d 778f aabc 3067 2fbd 88b2 e73d
00000190: 0f7f c4bd 86bd e63c 2d19 873d 85e3 03be
000001a0: 9f3b 903d 402e 05be 3da5 a2bd a244 57be
000001b0: 4dc2 e3be bb93 853d a408 c4bd 6f2a 69be
000001c0: e1a8 50bd 9d79 93be b808 a1bd f22d a23d
000001d0: f231 3abe 1496 5f3f 14c5 3abe 8b21 193d
000001e0: 5693 163e b777 043e 6a19 a23b e92b 91be
000001f0: 76a4 f7bd b7b6 063f 3d36 493d c498 1cbd
00000200: 7c93 52bd 6638 dabd f6ef c03e 86d4 b7be
00000210: 9042 79bd ead2 883e f77b 33bd 00ff 06be
00000220: 8d6c a63c 9c49 d5bd 357a 31bd 8a8b b23e
00000230: cb03 c5be 75db eebc 50ef 61bc 57ed 473e
00000240: 4ee4 843e 6706 43bf 196f 93bc e23b 623d
00000250: 8b29 9dbd 0789 893e 05fe 94bd e474 0f3d
00000260: b85c 473c 70de 4c3e beac 1d3e 11d6 113d
00000270: 1189 48be 4f81 9cbd 41a1 213d 6a85 703d
00000280: 3e57 cbbe 3745 9b3e c5f7 9ebc 1f49 a4bd
00000290: 45f9 e53d 7af9 103d 82f9 24bc 4fc8 193d
000002a0: 7023 e6bb b3d9 e03e c668 fbbe 798b 893c
000002b0: 746d 9fbd 9651 eebd f933 a0be e438 a5bd
000002c0: 6429 303e 8d67 99bd b19e 1f3d 82bf 3abe
000002d0: 66bf 2c3a 3dc4 6ebd a9e5 a53d e61a 7a3d
000002e0: 4eda 193d 921e 873e 15bb 1ebd 20e7 31bf
000002f0: ba45 113e 4140 f2bd a9db dbbe c6ac e6bc
00000300: 24a7 4d3d b322 81bd b676 96bc 0822 2f3e
00000310: cbb3 5f3d e542 4f3c b0d0 b63f b1be 143c
00000320: 3664 7cbd cec2 1e3c 2919 00bf 11cf 093d
00000330: c53e 8bbe 3d31 e7be 6ad5 b0be 5434 8bbc
00000340: af41 c1bd f7d1 5bbe f8af 89be 8a0c 00be
00000350: e061 d13d 159b 343d 7d98 1fbd bc10 7c3e
00000360: 51a8 83bd f039 f5be 7908 dcbc aac6 d73e
00000370: f4ce d8bd dd2f cabd c9e6 6cbd d671 5f3d
00000380: 2671 25be 1544 bfbd ba9c 44be 78a9 713c
00000390: a9e4 c83e e858 903f 3ec7 58bd 5959 2dbc
000003a0: ff6a d83c 96e4 153e f7d8 da3a eee1 823e
000003b0: 7ae7 7abe d65c 02be 0cad 263f ebfa 833e
000003c0: a93b 813d 7892 cd3e 0ea5 d4be 42f3 06bd
000003d0: 3096 933e e11b 00be 7341 08bd f9aa 9e3e
000003e0: 563c 20bf 9e86 103e 4052 ca3c 699a cebe
000003f0: 57e4 cf3e 54f3 47bf b218 ccbd c341 9fbb
0.04769405 -0.043228716 0.07288946 -0.07614441 -0.1742448 -0.115022235 0.07729002 -0.11537835
0.01292958 0.15558808 0.072169214 0.052706942 -0.098393165 -0.0720107 0.025725074 0.026264135
-0.20924963 -0.7652365 -0.1452279 -0.0006940961 -0.0073226057 0.3347158 0.2782241 0.08692828
-0.05767578 -0.08153957 -0.3196654 -0.12473464 0.060466994 0.011425883 0.0012115459 0.011803865
-0.07126676 -0.4427406 -0.03802115 0.047663577 -0.08143324 -0.26940635 -0.07632494 -0.06683471
-0.061431296 -0.0051875403 0.041955557 0.074215874 -0.018312722 0.005081736 0.08346154 0.070909865
-0.21512836 -0.1349166 0.019990155 -0.044838984 0.004814792 -0.0099913385 -0.010246299 -0.18851954
-0.04017936 0.03153118 0.0023226128 0.23106156 0.1261864 -0.069120914 0.03922387 0.06866599
-0.03520392 0.035934843 0.047181465 -0.04193374 -0.097167425 -0.03807074 0.42191896 -0.05467076
-0.17150378 -0.05749798 0.5294881 0.008158882 -0.058972254 -0.3716378 -0.277377 -0.11408397
-0.08668592 -0.20414221 -0.20257813 -0.06577504 -0.0596083 -0.060331985 -0.098724976 -0.1784165
0.0640752 -0.22537503 0.08051888 -0.58156407 -0.07532517 0.033936422 0.052699566 0.20131046
0.11629207 -0.020820362 -0.042823017 0.11313349 -0.09594547 0.028166544 0.06596599 -0.1287976
0.07042622 -0.13005924 -0.07941673 -0.21022275 -0.44484177 0.06522318 -0.095719606 -0.22770093
-0.050942305 -0.2880372 -0.07862991 0.079189196 -0.18183115 0.87338376 -0.18239242 0.037385505
0.14704642 0.12936293 0.0049468772 -0.28353813 -0.12091915 0.5262255 0.04912399 -0.038231626
-0.051410183 -0.106552884 0.37683076 -0.3590433 -0.060854495 0.26723415 -0.043819394 -0.13183212
0.020315433 -0.104144305 -0.043329436 0.34872085 -0.38479456 -0.02915738 -0.013789967 0.19524132
0.25955433 -0.76181644 -0.017997311 0.05523289 -0.07673939 0.26862356 -0.07275013 0.035023585
0.012168102 0.20006728 0.15397927 0.03560454 -0.19583537 -0.07641851 0.039460424 0.058720984
-0.39714998 0.30326244 -0.019405255 -0.08021759 0.11229185 0.03539417 -0.010069253 0.037544545
-0.0070232674 0.4391609 -0.49103373 0.016790139 -0.077845484 -0.11636655 -0.31289652 -0.08067492
0.1720329 -0.07490454 0.0389697 -0.18237117 0.00065898 -0.058292616 0.08100445 0.06106081
0.037561707 0.2639051 -0.038752634 -0.69493294 0.14186755 -0.11828662 -0.42941025 -0.028158557
0.050208226 -0.063054465 -0.018367153 0.17102826 0.054614823 0.012650226 1.4282436 0.0090786675
-0.061619006 0.00969 -0.5003839 0.03364474 -0.27196327 -0.45154753 -0.34537822 -0.016992725
-0.09436356 -0.21466814 -0.26892066 -0.12504783 0.10223746 0.04409321 -0.038963784 0.24615759
-0.06428588 -0.47895765 -0.026859509 0.42143756 -0.10586348 -0.098724104 -0.05783728 0.05455192
-0.16156444 -0.093391575 -0.19200411 0.014749877 0.39236954 1.1277132 -0.052924387 -0.010580384
0.026418207 0.1463798 0.0016696741 0.25562996 -0.24502364 -0.12730727 0.651078 0.25777373
0.063102074 0.4015081 -0.41532177 -0.032946832 0.2882552 -0.12510635 -0.033265542 0.30989817
-0.62592065 0.14113852 0.024697423 -0.4035218 0.40603897 -0.78105664 -0.09965648 -0.0048601343

nn_model.2.bias f4 [128]
00000000: 47c3 d7bd 593b f53d e04b c1bd 2b32 0cbd
00000010: e03a 493c ed30 4ebd dcfc acbc 89d4 d3bd
00000020: d7f4 d6bd 97eb e1bd 998a 07bc ac7b 113d
00000030: 0da1 00be 8e42 a6bd 668a 0dbe b93f d83d
00000040: a6cc 7d3d 0757 e53b a9bc b13c 6c07 1fbe
00000050: be8e 8bbe 67c3 07be ed5a 54bd bc54 73bd
00000060: 8d84 02be a51b 06be 369d 09bd cf3b f4bc
00000070: c38c 7cbe 4ca8 7dbe bd06 20be 98e5 47bd
00000080: 5a0b a33c 420b 88bc 5317 9dbd 76a1 b23c
00000090: cee7 c43c 011c 52bd c942 85ba d1a3 ecbd
000000a0: 7fc0 17bd 433a 68be 376f 19be 511b a43e
000000b0: 7473 8ebc e6db 23bd e7f6 dabd fea3 d6bd
000000c0: cd8f aabc 8013 16be 5dd2 2c3e 9007 fb3c
000000d0: 9975 bebd f18e 51bd 73ab babc 67e6 c83d
000000e0: 1bb3 e63b c5b3 6bbd 97e3 243c d87e debd
000000f0: 67b3 30be ea29 76be 5bdd 7cbc 773c 16be
00000100: efa5 1b3d 11fb 02bc 98f3 793d 663f 043d
00000110: 9fe0 ecbd a5c9 37be 2c9d 713c 14bf a23c
00000120: a931 da3d 84fa babd e15d 68bd f014 7abd
00000130: 52b5 6e3c 45a2 8d3d 8f00 cabd 1513 33bd
00000140: 9265 5fbd bc3f 00bd ddba 29bd 205c 0abe
00000150: 1279 75be dbf7 41bd ad18 8d3d 56c0 4fbe
00000160: 051c 9fbc 8842 9a3e 439b 06be 7f5d 953c
00000170: 4b5d 9abd a7d7 12be 1c22 1fbe 6eab 69bd
00000180: c8be 44be ffe6 d3bc 0910 2fbe cd8a 2dbe
00000190: 2d44 e83d fe10 87bd 55bc 2ebd 35d9 87bd
000001a0: dee3 00be 249b dfbd 569a f1bd e779 fdbd
000001b0: 99f9 78bd bcee 9fbb 7a6c c7bc dfbc f9bd
000001c0: 337e 12be 5af3 2dbe 0b38 82be 69ee 37bd
000001d0: 3385 01be c2bb c2bd 11a1 64bd 386a 0bbe
000001e0: 73b7 ecbd 285d 963d d7b5 a7bd 6dc1 efbc
000001f0: 8d63 afbd 2142 70bd 0192 053d 2b96 82be
-0.10535293 0.1197421 -0.094383 -0.03422753 0.012282103 -0.050339628 -0.021116666 -0.10343272
-0.10495918 -0.11031263 -0.00827279 0.035518333 -0.12561436 -0.08118163 -0.13822326 0.10559029
0.061962746 0.0069989 0.021696405 -0.15530175 -0.2725734 -0.13258134 -0.051844526 -0.05940698
-0.12745877 -0.13096483 -0.033597194 -0.029813675 -0.24663071 -0.24771231 -0.1562757 -0.048802942
0.019902874 -0.01660693 -0.07670464 0.021805506 0.024036314 -0.051296238 -0.0010166998 -0.11554683
-0.037048813 -0.22678475 -0.14983831 0.3205209 -0.017389037 -0.040004633 -0.10691624 -0.10480498
-0.020820523 -0.14655876 0.16877122 0.030643255 -0.09299774 -0.05116171 -0.022786831 0.09809571
0.007040394 -0.05754449 0.010064027 -0.10864037 -0.17255937 -0.24039426 -0.015433635 -0.14671503
0.038000043 -0.007994429 0.061023325 0.032287024 -0.115662806 -0.17948015 0.014746945 0.019866504
0.10654003 -0.09129813 -0.056730155 -0.061055124 0.014569597 0.06915716 -0.09863388 -0.04371937
-0.054540224 -0.03131078 -0.041437972 -0.13511705 -0.23971966 -0.047355514 0.06889472 -0.20288214
-0.01942254 0.30128884 -0.13145165 0.018233059 -0.075373255 -0.14340077 -0.15540355 -0.057048254
-0.19213402 -0.025866983 -0.1709596 -0.1694748 0.113411285 -0.06595038 -0.042660076 -0.06633226
-0.12586924 -0.109182626 -0.11797015 -0.12376767 -0.06078491 -0.0048807543 -0.024343718 -0.121942274
-0.14305954 -0.16987363 -0.25433382 -0.0449051 -0.12648468 -0.09508468 -0.055817667 -0.13614738
-0.11558428 0.07341987 -0.0818898 -0.029267037 -0.0856391 -0.058656815 0.032609943 -0.25505194

nn_model.4.weight f4 [128, 128]
00000000: 83be ad3d d515 a53d 31cc 083e f544 fdbd
00000010: ba57 2cbe 0456 c4bd 6962 ddbc d5d0 9b3c
00000020: 539f 90ba 55bb 9d3d dd4c de3d f6d0 b1bd
00000030: 219c 25be 8c63 8f3c 15a0 8d3e 530c 253e
00000040: a251 00bd 7b29 ac3d aed6 6e3d 823a 36bf
00000050: a1e6 9d3d 4f55 ea3b 13c6 0c3d 1649 d3be
00000060: 59de b2bc fd18 0ebd 6c42 1dbe ee4c 4abd
00000070: 38d6 a0bb ab80 b8be dc58 243d 1944 20be
00000080: 683a 7f3c 4365 0f3d cf60 203e 0f33 163e
00000090: b383 30be a41e cabc e969 bc3d 3b5c de3d
000000a0: 6f4f 63bd d389 b43d 01a9 6cbd dbfb 7b3e
000000b0: 2df7 003e 692e 9c3d 6e92 7f3b ade5 263d
000000c0: 0d5c 26be 298f 02be d94a 73be 7485 9cbc
000000d0: 8686 ae3d 8e26 b73d a9ee e2be a9f5 1fbc
000000e0: 2908 b5bc 601a 8a3d b103 b43b bd5c 3a3e
000000f0: 6879 503e e8d5 83bd d022 80bc 4c30 a73d
00000100: 36e1 7cbc 120d 8f3d 2a05 2d3e 25cf 053d
00000110: f0c7 2a3d 0e92 2fbe 9f7a 9abc 0536 d33c
00000120: b377 633c 98cb c1bd 0331 143f 739c 0cbe
00000130: 4c3d 7b3d 85e8 943d 4ddf 24be 8dd3 5fbc
00000140: beaa 39bd 3427 5b3c c0ff 97bd eac7 073d
00000150: 5ae3 b83e a567 2e3d 2fd0 7bbd c79f dfbd
00000160: ad75 f2bb d73a 9abe 5a46 2d3d ebac 46be
00000170: 5699 233d d11b 54bc 0a95 1c3d c504 c0bc
00000180: 9d66 073d a533 0ebc d6d4 2bbe 5c0f 653e
00000190: 0964 303e e567 1abc 4cf5 a3bc 2c73 49bd
000001a0: 01f8 bc3c aabc 0f3e bc23 9c3c 1fca b3bb
000001b0: 76e2 09bf 438a bc3c d4d3 14be 3c28 b0bc
000001c0: 465a 6cbd 3082 083e 3512 b8be 44ba 15bc
000001d0: dfdb 3a3d b171 a1bc 223f e8bd 5abb 02bf
000001e0: 01b9 5ebe b4f8 393e 52e5 403b 75ef e93d
000001f0: 9b5f b0bd d125 713d 8d00 e53e c74d a4bd
00000200: a229 023d 2ad9 68bd f281 dfbd 8397 06be
00000210: 3ca3 1bbe 6dc6 fcbb 38c3 803d 0055 95bd
00000220: 261f ec3b 94d7 8ebc 7a75 d6bc 486c d73b
00000230: 14c6 1bbd 5ce7 253c 480f ddbd 8085 25be
00000240: 5bd6 8c3a a550 a63c 5692 64bd e91c cabd
00000250: 5437 a4bc 2ec2 e7bd 541e 88bd 8cb7 a7bd
00000260: 7a78 5abd 0aa6 e7bc c16b 09be 0d41 e8bd
00000270: 01e7 7fbd 9f05 80bd ce0c 113e d579 e43d
00000280: 7f8b 593c b919 3bbc fcfd adbc 5cfc 143a
00000290: ba76 15bd dd9d e6bd 7c70 e63d abdf 103e
000002a0: 8f53 25be 510c 9c3d 0e16 b1bd 3934 50bd
000002b0: c06c 413c 57b0 00bd 5652 cabd 4302 b8bd
000002c0: 1cd5 08bd 34e0 49bd dca7 573c 7776 72bd
000002d0: 0571 983d 5ece c73d 4987 9bbd ad1d e13b
000002e0: 195d 9abd 700c bdbb 93de adbc 94b7 713e
000002f0: 7d78 7abd 43c5 a0bb bb1c 263d 4c9e 7bbd
00000300: b9d2 5dbc 3cfd cdbd 0664 8bbd 6b3e c2bc
00000310: a665 5d3c 7d11 b3bd 523a fd3d 4e1c 90bd
00000320: 2cbd 10bd 2b42 50bd fb68 a43d 42e3 88bd
00000330: b054 813d 4125 e23c c24c e3bd f3c8 06bd
00000340: fabe 013d 6189 d1bd 35c8 b43d 7a4f 1dbd
00000350: 7ec8 06be 3cb9 66bd 9412 dfbd 07bd 81bc
00000360: 81ef b9bc 437c 4b3c c9ed 983d 6c45 70bd
00000370: 2113 bc3c 78e1 0dbe e966 c73c deed a5bd
00000380: bad5 25be 9039 a63b bec3 b03c f6ca 9ebd
00000390: fa2e 58bd 3c40 8db8 632d ee3d 3fb9 b4bd
000003a0: f4ce 733d 53ab b83d e7f6 993d 5d63 d9bd
000003b0: 0217 8abd 37df 7dbd 5825 be3d d138 a63c
000003c0: 300d 5a3d 7d8f 173e ee9c 94bd 0718 55bd
000003d0: 2070 9b3c 6cf6 d43d 52b4 923d c2aa a7bf
000003e0: 466c 52be 8c61 34bd f56d 033e 74bc 063c
000003f0: 7095 58bc 35ab c73c b76c 2fbc 0032 65bb
0.08483603 0.08060805 0.13359143 -0.12366668 -0.1683034 -0.09586719 -0.027024465 0.019020477
-0.001103381 0.077017464 0.10854504 -0.08682434 -0.1617284 0.017503522 0.27661195 0.16117983
-0.03132785 0.08406349 0.058310203 -0.71183026 0.077100046 0.007151283 0.034368586 -0.41266698
-0.02183454 -0.0346918 -0.15357369 -0.049389772 -0.0049083494 -0.36035666 0.040123805 -0.15650977
0.01557789 0.03500868 0.1566193 0.14667915 -0.1723774 -0.024672814 0.09199888 0.10857435
-0.055495676 0.088153504 -0.057778362 0.24607794 0.1259429 0.076260395 0.003899719 0.04074638
-0.16246052 -0.12749924 -0.23759021 -0.019106604 0.08521752 0.089429006 -0.44322708 -0.00976316
-0.022098618 0.06743312 0.005493604 0.1819944 0.20358813 -0.06437284 -0.0156416 0.08163509
-0.015434554 0.06984915 0.16896501 0.03266825 0.04169458 -0.17145559 -0.018857298 0.025782594
0.013883519 -0.094626606 0.57887286 -0.13731556 0.061337754 0.07270912 -0.16100807 -0.0136612775
-0.045328848 0.013376046 -0.07421827 0.033149637 0.36110955 0.042579312 -0.061477836 -0.10919147
-0.007399282 -0.30123016 0.04230342 -0.194019 0.039941154 -0.012946085 0.038228072 -0.023439774
0.033056844 -0.008679305 -0.16780409 0.2236914 0.1722566 -0.009424184 -0.020014428 -0.049182102
0.023067476 0.14036813 0.019060008 -0.005486741 -0.53861177 0.023015147 -0.14533931 -0.02150356
-0.05770328 0.13330913 -0.3595139 -0.0091386475 0.04561984 -0.019707533 -0.11340167 -0.51067126
-0.21750261 0.18161279 0.002943356 0.11422626 -0.08611985 0.058873955 0.44726983 -0.08022647
0.031777985 -0.05684773 -0.10913457 -0.13143735 -0.15198988 -0.007714084 0.06287235 -0.07291603
0.0072058616 -0.01743678 -0.026179064 0.0065741874 -0.0380307 0.010125961 -0.1079393 -0.16164207
0.0010745035 0.020302126 -0.05580362 -0.098687954 -0.020045914 -0.11316334 -0.0664641 -0.08189306
-0.05333755 -0.028277416 -0.13420011 -0.113405325 -0.062476162 -0.06251072 0.14165041 0.1115605
0.013277887 -0.011419707 -0.021239273 0.00056833564 -0.03649018 -0.11260579 0.112519234 0.14147823
-0.16145156 0.07619537 -0.08646785 -0.050831053 0.011805713 -0.03141817 -0.098789856 -0.089848064
-0.033406362 -0.049286082 0.013162579 -0.059195008 0.07443432 0.09756158 -0.07594163 0.0068699927
-0.07537288 -0.005769305 -0.021224296 0.23605186 -0.061150063 -0.004906328 0.040554743 -0.06143026
-0.01353901 -0.10058066 -0.06806187 -0.023711404 0.013513004 -0.0874357 0.12364639 -0.07036649
-0.03533666 -0.050844353 0.08027836 -0.06683971 0.06314981 0.027605655 -0.11098625 -0.032906484
0.03167627 -0.10231281 0.08827249 -0.038405873 -0.13162419 -0.056328997 -0.10892215 -0.015837206
-0.022697212 0.012419763 0.07467229 -0.058659956 0.02295834 -0.13855541 0.024341064 -0.0810201
-0.16194811 0.00507278 0.021577712 -0.077535555 -0.052779175 -6.7353685e-05 0.116297506 -0.088243954
0.059523538 0.090170525 0.07517796 -0.10614655 -0.0674267 -0.061980452 0.092844665 0.020290764
0.053235233 0.1480083 -0.072564945 -0.052024867 0.018974364 0.10398564 0.071632996 -1.3098986
-0.20549116 -0.04403834 0.12834914 0.008223642 -0.013219222 0.02437363 -0.010707072 -0.003497243

nn_model.4.bias f4 [128]
00000000: 9a5d 5a3e 0ac9 86bc 14dc 11be 0925 603e
00000010: a342 eebb 4872 d1bd 1d4f c5bd 7080 5ebe
00000020: 8797 afbd bd7f 60bd 2d42 f9bd aa8a 8cbe
00000030: 9471 bfbd 69ce 03be 4c14 0dbe 5ad8 66bd
00000040: 31df 753e 76ba a13e ba3d 65bd 49e7 d0bd
00000050: eca8 92be 50a6 82be 99ff 06be c2dc b0bd
00000060: 121a d6bd 60e1 37be 445e 37be a2e0 c9bd
00000070: 87c6 f3bc 0669 c8bd 6257 0bbe 3bcc c63d
00000080: 7950 d8bc ca33 d03d 12a0 f0bd 2cc9 00bf
00000090: 2db9 ab3e 1d3e 3f3e a0ba c9be c4f2 73be
000000a0: 0512 293f 8dd2 a2bd b453 123d 27d9 e9bd
000000b0: 9e99 7bbe 035c 8b3c 4388 b6bd 7924 b63d
000000c0: 0996 ee3d 7b38 91bd ba87 5abd 60ba b93d
000000d0: 46d7 663c 9c04 9a3e 353f ffbd 700b e43d
000000e0: 3c44 a8bc f73c 89be 6435 9bbd 152c 9b3e
000000f0: 1597 81be 6d2a b63d d372 3fbd 36fc 6d3e
00000100: fc19 e93d fa4c 923d 8222 ccbe d0b9 1d3f
00000110: e5bb 853b c911 15bd c2af 153c e0f7 3c3d
00000120: c68d 4ebd 37c3 aabd ae02 90bc a48a 563d
00000130: b84d 8abd 26a9 c03e 74f7 0a3d c922 6cbd
00000140: 67d4 17bc e4e0 babd d293 153d 4f8a bebe
00000150: 4472 2dbe d997 1cbe 2825 b83d 4575 8abe
00000160: 61bd d0bd 5600 10be a9d4 aa3d 2354 083f
00000170: 6e49 97be 2f4f 5ebd 6a53 40bd bfc3 cbbe
00000180: 5771 2abd 5b2c 04bf c604 f1bd 224b 9ebe
00000190: 1732 8fbe 1aa1 c6bc 0ca3 da3d df97 f1bd
000001a0: 56e5 0cbe 8cf3 69bd 599f 813e 7496 b93c
000001b0: 0ed6 80bd 1697 dcbd e0cd 0c3e 7be3 ab3d
000001c0: e651 41be e40e 51be ef88 123d 179c 15bd
000001d0: 9a74 95bd 7a37 16be 16e6 353e 0330 03be
000001e0: 9d01 d1bd df99 51bd be64 1f3d 3c81 ccbd
000001f0: 85ad 00be cbbd 0ebd a4dc c7be eb1f 173e
0.21324769 -0.016453285 -0.1424411 0.21889128 -0.0072711273 -0.102268755 -0.0963423 -0.21728683
-0.085738234 -0.05480932 -0.12170825 -0.27449542 -0.09347835 -0.12871708 -0.13777274 -0.056358673
0.24010922 0.3158757 -0.05596707 -0.10200364 -0.28644502 -0.2551751 -0.1318344 -0.08635856
-0.10454191 -0.17957067 -0.17907053 -0.098572984 -0.029757751 -0.09785657 -0.13607553 0.097069226
-0.02640556 0.10166128 -0.11749281 -0.50306964 0.33539715 0.18676038 -0.39400196 -0.23823076
0.6604312 -0.079503156 0.035724357 -0.11418372 -0.24570319 0.017011648 -0.089127086 0.08893675
0.11649711 -0.07090851 -0.053352095 0.09068751 0.014089411 0.30081642 -0.12463228 0.11134994
-0.02054035 -0.26804325 -0.07578543 0.3030707 -0.2531058 0.08894811 -0.046740364 0.23240742
0.11381909 0.07143588 -0.39870077 0.6161165 0.0040812367 -0.036393914 0.009136142 0.04613483
-0.050428174 -0.083380155 -0.017579403 0.05237831 -0.06753105 0.3762905 0.033927396 -0.05765036
-0.009266949 -0.09124926 0.036517926 -0.37214896 -0.1693812 -0.152923 0.08991462 -0.27042595
-0.10192371 -0.14062628 0.08341343 0.5325338 -0.2954821 -0.054274734 -0.04695455 -0.3979778
-0.041611996 -0.5163018 -0.117684886 -0.30916697 -0.27967903 -0.024246741 0.1067563 -0.11796545
-0.1375936 -0.05711703 0.25316885 0.02265475 -0.06290828 -0.10771005 0.1375041 0.08392998
-0.18878898 -0.20415837 0.03577512 -0.036525812 -0.072976306 -0.146696 0.17763552 -0.12811284
-0.10205386 -0.051172134 0.038914435 -0.09985587 -0.12566192 -0.03484897 -0.39035523 0.1475827

allocation_head.0.weight f4 [8, 128]
00000000: 8f2f 8a3b ba80 e03d fdfa 4fbc a8d2 103e
00000010: 8516 d53c 7b1d aa3d 025d 763b da5e 513e
00000020: 07ce 553d dfc8 c4bc 92bd a1bd 3634 1fbe
00000030: 5915 5d3d cb42 24be b171 c13c 4c8f 68bd
00000040: dd7c 5d3d baf2 903e 067d 133c be05 323c
00000050: b855 f53d 6543 4abe 4038 2c3d 3c38 013e
00000060: f7a0 3b3d 5b59 463c 6b63 8d3d 5030 b4bc
00000070: cc99 573c d219 9cbc 20b1 d13c 5e17 a03e
00000080: df19 353b 6c8f 1b3e c2eb f1bd 7592 f43e
00000090: 5170 18be 9ab1 2c3e 5933 bfbd 9876 083d
000000a0: 77a0 063d 133d d7bd 3bca 363d f0a9 b7bb
000000b0: 57e2 2fb8 8f56 0a3e 7e0b ed3d 79b7 3e3d
000000c0: a918 b5bc 3cb8 70bd 6323 e63c d48b df3d
000000d0: 789a c33d a771 723e c3e7 86bb b7d3 973c
000000e0: 74d8 473d 7c33 1b3e 6a72 f8bd 1d22 9d3e
000000f0: d69b 6b3d e2d8 c8bc 1137 e6bd 3ffc 8d3d
00000100: ce9c 3f3d 9261 b03b d56a 90be 1709 0b3d
00000110: 98fe 9b3d e4ab 073d 3bd0 03bc 59ab e93d
00000120: 8436 a63d 5a97 903c 9e03 0c3e eec0 873d
00000130: 7402 9f3d a384 4f3e 6c2f 343e 79c1 9b3b
00000140: dfc4 fdbb f7d8 0d3e 77d9 f03d 0a79 523e
00000150: cd45 843b 54ca 693e 24a9 b83e 5379 163e
00000160: 6cc4 cbbc a349 d0bd f8a4 653c 2c9b 143e
00000170: 11da b63e 7407 ddbc 1034 62bd 965f 383d
00000180: 9c60 d53d 8469 553e 7e05 ffbd a461 5bbe
00000190: ba7c e83a 8f5d 9e3b 0048 8e3e bcef ec3d
000001a0: 2ea2 d7bb 8347 9abc 2397 8b3e d7c1 6cbd
000001b0: b5b5 f8bc 8f9f 3fbd 97ad 233d 894f 233d
000001c0: f4d9 bf3d dee4 893d 243a 003c 6644 6dbc
000001d0: cb9c 1fbd a8d1 823d 56c2 c23b 8119 a63d
000001e0: 5307 c23d 36f4 62bd 61a2 0dbd 99bc e03c
000001f0: 9f5d 0abe 3435 fb3b 996e b73e 9310 a83e
00000200: 0f74 05bd e876 67bd 9bf8 283d ce66 403e
00000210: f710 223b c45e a53d 3595 813d f6d1 a33e
00000220: 9305 803d c49a 35bd 18af 0cbd fd05 c73d
00000230: bee6 603e 8a0c 3bbd 106c 133e d9c1 5b3d
00000240: 60a7 07bd 5e76 973e 7940 a73d 2395 4a3d
00000250: e806 183d 04bb 6bbe f4ca b8bc 6e63 6ebc
00000260: 7e8c 2c3d ac7e 823d 1b7b 893d 3d2f cdbc
00000270: 43a6 c93d 3ba6 8dbd af6c 293d 2811 5a3e
00000280: 2b40 303d f8a0 293e 4185 0abe 294e 55be
00000290: df17 f7bd 14b2 133e bea9 113e 4a83 8b3d
000002a0: dca6 f0bc 0dce 86bd d400 a43d edfb eaba
000002b0: 9796 9c3e 3ab5 993e b39d a1bc 8c3c 763c
000002c0: 8ab1 503d fb95 c2bd dd01 3c3d 8d95 6abd
000002d0: 8823 8f3d 5f76 683e 02b4 0d3d 249e 8dbc
000002e0: fedd 013e e338 0c3e b284 a6bd 0cbe b13e
000002f0: d820 83bc 86d1 003d e5e2 253c edb0 843d
00000300: 1b28 32bd d78b 083d 34fa 6b3e cbc4 523c
00000310: d771 fabc 605c 223d f675 f73b b4c4 1d3e
00000320: d3be 9bbc 0461 b63a d431 debb 787a 763c
00000330: 9d05 0f3c 8ba9 ad3e 16ac 893e 76d5 093e
00000340: bdc6 d33d 26cb 47bd 5715 b03c c890 8c3e
00000350: d8b1 353c 872e 423e ebef 8f3e b45a 683e
00000360: 51d2 01be 0dd2 05be ad7d f5bb 1015 97bd
00000370: b180 7b3e e280 e03c 6094 0f3f 98a3 8dbb
00000380: 0586 87bc 9e5c 753d 38c5 f2bd ffcf 26be
00000390: b06a 49be 7428 89bd 9203 123e 715c 693e
000003a0: 31ef 45bd 1c72 8f3d 4ef2 d23e 02ee b7bc
000003b0: e905 953d 74ea 1fbb 7724 30bd 26b2 953d
000003c0: 8c53 253e 60da e03c 332a f5bc 5790 763d
000003d0: 00cb 023d 735b d1bc 9bc4 7dbc 732d 54bc
000003e0: 034b 793d cda9 99bd 3abc 77bd 1f2d f33c
000003f0: bbd4 b53c 1227 0c3d 0291 63be 8d63 e73e
0.004217095 0.10962053 -0.012694118 0.14142859 0.026011715 0.08306404 0.0037592058 0.20446339
0.052198436 -0.024021564 -0.07897486 -0.1554726 0.053975437 -0.16041104 0.023613783 -0.056777284
0.054074157 0.28310186 0.009001976 0.010865627 0.1197924 -0.19752271 0.04204583 0.12619108
0.045807805 0.012106265 0.06903728 -0.021995693 0.013159227 -0.01905528 0.025597155 0.31267828
0.0027633829 0.1519143 -0.11812545 0.47767988 -0.14886595 0.16864625 -0.09335966 0.033316225
0.032867875 -0.10509696 0.044626456 -0.005604975 -4.1934047e-05 0.13509582 0.115744576 0.046561692
-0.022106485 -0.05876945 0.028093046 0.10915342 0.09550947 0.23676167 -0.0041169836 0.01853357
0.04879041 0.15156358 -0.12131198 0.3069009 0.057521664 -0.02451748 -0.11240972 0.06932878
0.0467804 0.005382725 -0.28206506 0.033944216 0.07616919 0.033122912 -0.0080452515 0.11409635
0.08115867 0.017650295 0.13673255 0.06628595 0.0776414 0.2026544 0.17596215 0.0047532883
-0.007744416 0.13852297 0.11760228 0.20553985 0.004036641 0.22831088 0.36066544 0.14694719
-0.024873935 -0.10170295 0.014016382 0.14512318 0.35713246 -0.026981093 -0.055225432 0.045013033
0.104188174 0.20841032 -0.124522194 -0.21423966 0.0017737367 0.0048329304 0.27789307 0.11569163
-0.0065806126 -0.018832928 0.27263746 -0.057802048 -0.030360082 -0.046783026 0.03996047 0.039870773
0.09367743 0.06733106 0.007826362 -0.0144816395 -0.03896789 0.06387645 0.005943577 0.08110333
0.09474053 -0.05540868 -0.034578685 0.02743368 -0.13512276 0.0076662544 0.35826567 0.32825145
-0.032581385 -0.056509882 0.041252714 0.18789217 0.002472935 0.08074716 0.06327287 0.31996125
0.06251063 -0.04433705 -0.03434667 0.09717939 0.21963021 -0.045666255 0.14396691 0.053651664
-0.033118606 0.29582494 0.08166594 0.049458634 0.03711596 -0.2302056 -0.022557713 -0.014550073
0.04212617 0.06371817 0.06712934 -0.025046939 0.09846165 -0.069164716 0.041363414 0.21295607
0.043029945 0.16565311 -0.13527395 -0.20830597 -0.120651 0.144234 0.14224908 0.06812151
-0.02937644 -0.0658227 0.080079705 -0.0017927863 0.3058364 0.30021077 -0.019728517 0.015029084
0.050950564 -0.09501263 0.045900214 -0.05727153 0.06989199 0.22701405 0.034595497 -0.017287321
0.1268234 0.13693576 -0.08130778 0.34715307 -0.016006872 0.031449817 0.010124897 0.064790584
-0.04349528 0.033336487 0.23044664 0.012864302 -0.030571861 0.039638877 0.007551904 0.15407068
-0.01901189 0.0013914411 -0.0067808423 0.015043847 0.008729366 0.33918414 0.26889104 0.13460335
0.10340641 -0.04877772 0.02149455 0.2745421 0.011089765 0.18963061 0.2811273 0.2269085
-0.12677886 -0.1306841 -0.0074917884 -0.07377064 0.2456081 0.027405206 0.5608578 -0.0043224804
-0.016543398 0.05990278 -0.11854023 -0.16290282 -0.19669604 -0.06697169 0.14259174 0.2278917
-0.048323814 0.070041865 0.4120049 -0.022452358 0.07276518 -0.002440122 -0.043003526 0.0730937
0.16145152 0.02744788 -0.029927349 0.060196247 0.031931877 -0.025556302 -0.015488769 -0.012950289
0.060862552 -0.0750309 -0.06048224 0.029684601 0.022196164 0.034216948 -0.22223285 0.4519314

allocation_head.0.bias f4 [8]
00000000: bd92 e9be 51e7 d6be 6967 3fbe 0a40 fcbc
00000010: 523b 073f f646 f83e 9aef bfbb 65a6 5abd
-0.45619765 -0.41973355 -0.18691792 -0.030792255 0.5282489 0.4849164 -0.00585742 -0.053381342

payment_head.0.weight f4 [3, 128]
00000000: 3ad0 7c3e 89dc 353e 17aa 633d 6e03 de3e
00000010: 6f7d f4bb 9dec 473d 7292 96bd 4726 cd3e
00000020: 8242 763b e663 0f3f 64bd ef3c 3e1e ee3e
00000030: 1e62 a63e b8e3 573c a02f f83d 1f89 c63d
00000040: 9022 a93e a148 1d3f 40d2 773d ef6d a0bd
00000050: d90b 023f d3fd fe3d d073 90bc da06 553d
00000060: 2cd1 073e 8449 f43e 1528 e83e 7e9d f33c
00000070: ab05 583d 07a9 9b3d 1768 c63d 3446 fd3e
00000080: 0c85 bd3c b725 ab3e c82e f43c 90af eb3e
00000090: 2567 cb3e 9baa 023f dcd1 ad3c 131f 153f
000000a0: 1bc1 943f 55b5 713a 61ca ff3e b7e8 773d
000000b0: 356c 453e fa4b a43e 5f0a 073e bcbf bd3e
000000c0: 496c d93e 1014 17bc eb6d da3e 8c4e b33e
000000d0: 0e2d c53d bf74 093f f04a d83e 04bc a83e
000000e0: 080a b33e 6bf0 083f 5f0b e63c 5164 123f
000000f0: faaf 4e3e d20b 163f b7c8 cc3c 8628 ad3e
00000100: e547 b73e a188 6b3e e78e 723d 3f6c 273f
00000110: e71f a03e c409 a53e 2e39 053e 2aa1 d13e
00000120: 82b2 913e 7ade c53d 3e9a 16bc 667a 9c3e
00000130: 2750 b23d 87b9 2d3f 2f2c c03e ca8c cebc
00000140: 3314 173d eec1 b53d 6d4f 143e f0e4 333d
00000150: 28bb 373c 3668 82bd 023d 053f ea49 5d3d
00000160: c078 183d 01a6 bf3d af3a a33e fae1 1a3f
00000170: 34b2 aabd 2dca 423d 7404 0d3e 303a c33f
00000180: a722 c23d 6cae f13e f59b 3bbc 0b50 833e
00000190: a6d3 9c3d a366 063e 3231 033f 67af 573f
000001a0: 8805 06bc 8058 a33e 1027 043f 4f37 eb3d
000001b0: b961 f53e e40d cb3d 689d a43e 2487 9c3e
000001c0: 2ef6 2e3d 5635 7a3e c139 683e 0f3b 09bc
000001d0: a2f4 333d 93a5 ddbc b00d ec3e 11d4 c1bc
000001e0: 5774 69bc 5b44 7b3d 889b cb3e 4f89 273d
000001f0: bd55 073b 9dfc 0c3e 10da 72bc 1749 063f
00000200: 3ead 6c3c 3983 043d e57c 783c dd34 493e
00000210: 381f c63d 3414 ae3a 487b 693c 498d f03d
00000220: 126c c23c c986 893d 8ea9 953c 7a6e 413e
00000230: dc77 293d aaf2 80bd 011a 063d e83f 7c3d
00000240: bed3 1c3e f347 043e 92d5 1e3d 76ed 1fbd
00000250: e046 cd3c 7b6f c83c f59e 063e a12f d5bc
00000260: 429c 703b 333d 703d 3dd6 e23d f101 043e
00000270: a015 1d3e 5c96 9dbd 863f 663d 69a2 293e
00000280: d2c8 ca3d b333 493e 5bd5 6f3c 13e0 683e
00000290: 0788 263e 2ae7 b73d 6675 3b3d 9297 653d
000002a0: c798 4a3e 6417 0c3e 2109 4d3e 7b11 0bbc
000002b0: af28 873d c687 703d 4404 643b abb9 543e
000002c0: c898 b83d 7151 49bb 04a2 b03d be3f 903d
000002d0: 82e0 c53d bc13 673d 6a63 6e3d 7d92 123d
000002e0: 9955 283e eb09 463e a6fb a83b c28c fb3d
000002f0: e8d3 433e 2fca 8d3d 9c5d 293d 2eed ec3d
00000300: 83e0 ce3d 58fd 393e 362b cf38 1811 443e
00000310: b8ed 0a3e b0f7 543d 0ba5 073e 35be 413e
00000320: 3a6f a33d 7004 fc3c e752 d53d 62cb 713d
00000330: c291 c23d 127b 193e 99d7 453e 3113 89bc
00000340: dc15 91bd e127 cb3d e1fc 143e 977c a8bd
00000350: f1e4 49bd f9a0 a5bd 68a3 bd3c 0a5a 23bd
00000360: 8920 053e fadc 233d c900 223e 7dae 633e
00000370: 22fe 243d 8e8e 9cbc d8b6 193e e7b0 423f
00000380: 65a5 033e 809d 6b3d bad4 e03d a8be 243e
00000390: efb5 b5bc 3bd5 743d 21f2 513e be2d 5b3d
000003a0: 7095 ed3c d872 143e b5a6 213e c042 113e
000003b0: d6d1 213e 4a25 0b3e f980 c03d a47e 483e
000003c0: b8b1 a8bd 8ca7 9f3d f21a a53d 3c6f 0a3d
000003d0: e334 a73d 0499 c93d cf0f 3e3e 8a31 f63d
000003e0: 41d6 c3bb 0305 4c3d 8b68 db3d 6c0f 9b3d
000003f0: 0e2c 3a3d bad7 cb3c 9055 dabc bff1 0c3e
0.24688807 0.17759909 0.055582132 0.43361992 -0.007461242 0.048809636 -0.07352151 0.40068266
0.0037576263 0.5601181 0.029265113 0.46507448 0.32496732 0.013176851 0.12118459 0.096941225
0.33034182 0.6143895 0.060503244 -0.07833468 0.5079933 0.12450757 -0.017633349 0.052008487
0.13263386 0.47712338 0.4534308 0.029738184 0.05273978 0.07600599 0.09687822 0.49467623
0.02313473 0.33427212 0.029807463 0.4603238 0.3972713 0.51041573 0.021218233 0.5825054
1.1621431 0.0009220441 0.4995909 0.06052467 0.19279559 0.32089216 0.1318755 0.37060344
0.42465428 -0.009221092 0.42661986 0.35020864 0.09627734 0.53693765 0.42244673 0.32955945
0.3496859 0.5349185 0.028081594 0.5718432 0.20184317 0.58611786 0.024998052 0.3381998
0.3579704 0.23001339 0.059218314 0.65399545 0.3127434 0.32234013 0.13010094 0.4094327
0.28456503 0.09661575 -0.009192048 0.30562133 0.08706694 0.6786122 0.3753371 -0.025213618
0.036884498 0.0887488 0.14483424 0.043919504 0.011214055 -0.06367533 0.52046216 0.054025568
0.03722453 0.093578346 0.3188071 0.6050106 -0.08334771 0.04755609 0.1377123 1.5252132
0.09479266 0.47203386 -0.011450757 0.25647005 0.07657556 0.1312509 0.5124694 0.8425202
-0.00818003 0.31903458 0.51622105 0.11485159 0.4792612 0.09914759 0.3215134 0.30571854
0.042715244 0.24434409 0.22678281 -0.008375897 0.043934472 -0.027056491 0.46104193 -0.023660691
-0.014248929 0.061344486 0.39767098 0.040902432 0.002065047 0.1376824 -0.014822498 0.52455276
0.014445601 0.032351706 0.015166496 0.19649072 0.09673923 0.0013281167 0.014250584 0.11745698
0.023733173 0.06715161 0.018269327 0.188898 0.041374072 -0.062962845 0.032739643 0.061584383
0.15315148 0.12918071 0.038777895 -0.03904482 0.02505821 0.02446722 0.13146575 -0.026023688
0.003671423 0.058652114 0.11076019 0.12891366 0.1534028 -0.076946944 0.056212924 0.16565861
0.09901585 0.19648628 0.01463827 0.22741728 0.16262828 0.08979638 0.045766257 0.05605275
0.19784842 0.13680798 0.20023014 -0.008488054 0.06599557 0.058723234 0.0034792582 0.20773952
0.09013516 -0.003071871 0.08624652 0.07043408 0.09661962 0.056415305 0.058200277 0.035784233
0.16438903 0.19339721 0.005156952 0.12282707 0.19123805 0.06923329 0.04134904 0.11568676
0.10101416 0.18163049 9.878578e-05 0.19147146 0.13567245 0.051994026 0.13246553 0.18920214
0.07980199 0.030763835 0.10416203 0.05903185 0.09500457 0.14988354 0.19320525 -0.016732784
-0.070842475 0.09919716 0.1454959 -0.082268886 -0.0492906 -0.08087344 0.023149207 -0.03988079
0.13000692 0.04000566 0.15820612 0.22234531 0.040281422 -0.019110944 0.15011156 0.7605118
0.12856062 0.05752325 0.10978074 0.16088355 -0.02218148 0.059773665 0.20502521 0.05351042
0.029001921 0.14496934 0.1578625 0.1418562 0.15802702 0.13588443 0.093995996 0.1957956
-0.08237022 0.07795629 0.0806178 0.033797488 0.08164384 0.098436385 0.18560718 0.120211676
-0.005976469 0.049809467 0.10713299 0.07571301 0.04545217 0.02488314 -0.026652128 0.13764094

payment_head.0.bias f4 [3]
00000000: ab21 4e3f b0e7 4e3d 62ad cdbe
0.80520123 0.050513923 -0.40171343
