model/3x3_sparsemax_in_linsigpmt_scratch.pt (torch_old, 148056 bytes, 10 tensors)

nn_model.0.weight f4 [128, 9]
0	0xbd922af6	-0.071371004
1	0x3d63d8dc	0.055626735
2	0x3d665901	0.056237224
3	0xbeb43d77	-0.35203144
4	0xbebb45ba	-0.36576635
5	0xbea6891f	-0.3252649
6	0xbd9c9ed5	-0.07647482
7	0xbe8eb5e8	-0.27873158
8	0xbe484103	-0.1955605
9	0xbbe806e2	-0.0070808986
10	0x3adc0375	0.0016785698
11	0x3cb2c025	0.021820137
12	0x3c0fd721	0.008779318
13	0x3cc05444	0.023477681
14	0xbe47754a	-0.19478336
15	0x391b6915	0.00014821098
16	0xbbacae6c	-0.005269816
17	0x3fa6122b	1.2974294
18	0xbc7386ce	-0.014863683
19	0xbec22778	-0.37920737
20	0xbbbfaa3b	-0.0058491505
21	0x3c50ddbc	0.012748178
22	0x3cc3a8db	0.023884227
23	0x3c66d945	0.014089887
24	0x3d1b44ea	0.03790752
25	0x3d1684b4	0.03674765
26	0x3d01480f	0.03156286
27	0xbe78e9c6	-0.24307927
28	0x3e4b08cd	0.19827576
29	0xbe0435bd	-0.12911125
30	0xbe2c3098	-0.16815412
31	0xbe8d6318	-0.27614665
32	0xbe31852b	-0.17335956
33	0xbe975c27	-0.29562494
34	0xbe6851b4	-0.22687417
35	0xbe9b785e	-0.3036527
36	0x3c532474	0.012887109
37	0x3cd342d0	0.025788695
38	0x3c0161fa	0.007896895
39	0x3d5f4834	0.054512218
40	0x3dce4388	0.10071474
41	0x3de741ca	0.11291845
42	0x3f6af079	0.9177318
43	0xbda891d1	-0.08230937
44	0xbdae66df	-0.08515715
45	0xbda028c3	-0.07820275
46	0xbd870189	-0.0659209
47	0xbd3ed886	-0.04659321
48	0x3e85542a	0.26040775
49	0x3e8bf7d5	0.27337518
50	0x3e808f4d	0.2510933
51	0xbdab84ac	-0.083749145
52	0xbd89f926	-0.067369744
53	0xbd6b550e	-0.05745416
54	0x3f4f5ba5	0.80999213
55	0xbd8c1f4c	-0.06841907
56	0xbdc08564	-0.09400442
57	0x3ce61327	0.028085304
58	0x3d015a02	0.03157998
59	0x3cd1cde0	0.025610864
60	0xbd0f6bed	-0.035015035
61	0x3d951a20	0.072803736
62	0x3d95ba63	0.07310941
63	0xbcc10865	-0.023563573
64	0x3f7087d8	0.9395728
65	0xbd0126f3	-0.031531285
66	0x3ab432d6	0.001374806
67	0xbaa39848	-0.0012481296
68	0x3b10c812	0.0022091907
69	0xbb86f392	-0.0041183913
70	0xbd372f2d	-0.044722725
71	0xb9def9ad	-0.00042529163
72	0x3e3ca216	0.18421206
73	0xbdd72b70	-0.10506332
74	0x3dee5798	0.11637801
75	0xbbed1d01	-0.0072361236
76	0xbc0b39c7	-0.008497662
77	0x3df388fa	0.118913606
78	0x3d16e66c	0.03684084
79	0x3ee337d3	0.44378528
80	0xbdd90002	-0.105957046
81	0xbc83831c	-0.016053729
82	0xbc88550a	-0.016642112
83	0x3d15be62	0.036558516
84	0xbd2a0f08	-0.04151824
85	0xbcbd3fe5	-0.023101756
86	0x3c93d0f4	0.018043973
87	0x3ce9c2c4	0.028535254
88	0x3ceb0ad2	0.028691683
89	0x3f51e25b	0.81986016
90	0xbd75c0ff	-0.05999851
91	0x3ca554ad	0.020181978
92	0x3bc3b9bb	0.0059730685
93	0x3c40b018	0.011760734
94	0x39da9d43	0.0004169737
95	0xb96bd1f3	-0.00022489559
96	0x3f548ad7	0.8302435
97	0x3c5b530b	0.013386498
98	0xba458b50	-0.0007535713
99	0xbd66c7a8	-0.05634275
100	0xbd117480	-0.035511494
101	0xbd847619	-0.06467838
102	0x3e6881a9	0.22705711
103	0x3e850bab	0.25985464
104	0x3e5a066b	0.21291511
105	0xbd93280f	-0.07185375
106	0xbca03807	-0.019557966
107	0xbd6134b4	-0.054981902
108	0x3e6b371c	0.22970241
109	0x3d65d3fb	0.056110363
110	0x3d466d66	0.048444174
111	0x3e12cc91	0.14335848
112	0x3d9ac93b	0.07557913
113	0x3cf4e666	0.029895019
114	0xbda443c8	-0.08020741
115	0xbd6d934a	-0.058001794
116	0xbe9dae6b	-0.30797133
117	0x3d063faf	0.032775577
118	0x3d413395	0.047168333
119	0x3d2e2382	0.04251433
120	0xbdf89d75	-0.121394075
121	0x3f0b57b3	0.54430693
122	0xbdf79f24	-0.120909005
123	0x3cf88dc2	0.030341033
124	0x3d1b9067	0.03797951
125	0x3cdf42d2	0.027253542
126	0xbdccea32	-0.10005607
127	0xbe151188	-0.14557469
128	0xbd835f87	-0.06414705
129	0xbda943f3	-0.082649134
130	0x3f25cf98	0.6476989
131	0xbdb57a71	-0.088612445
132	0xbd6c76a6	-0.05773034
133	0x3b96ea88	0.004605595
134	0xbd70e4d8	-0.058811992
135	0xbe34cdf1	-0.17656685
136	0xbda2824c	-0.079350084
137	0xbe0a9c07	-0.13536082
138	0x3e83b78b	0.2572597
139	0x3e8906bc	0.2676295
140	0x3e20bad0	0.15696263
141	0xbdbc742f	-0.09201848
142	0xbe006282	-0.12537578
143	0xbde102a8	-0.10986835
144	0x3d82cbaa	0.06386502
145	0x3ce508f8	0.027958378
146	0xbda0b69f	-0.07847332
147	0xbc1369ea	-0.00899742
148	0xbc9ccd94	-0.019140996
149	0xbd0bc05b	-0.03411899
150	0xbc576f7d	-0.0131491395
151	0xbc954b63	-0.018224424
152	0x3f6bea7e	0.9215468
153	0xbd16d41b	-0.036823373
154	0xbe07c252	-0.13257721
155	0xbdc7e193	-0.09759822
156	0xbe0dd1c8	-0.13849556
157	0x3e244904	0.16043478
158	0xbd81be0e	-0.06335078
159	0xbd2c519d	-0.04207002
160	0xbdee431a	-0.11633892
161	0xbcaac20c	-0.020844482
162	0x3b292b25	0.002581307
163	0x3b035627	0.0020040364
164	0x3bda7877	0.0066671926
165	0x3ac44290	0.001497345
166	0xbb0d1657	-0.0021528208
167	0xbde5317f	-0.11191081
168	0xbc95c431	-0.018282028
169	0xbc9f1979	-0.019421326
170	0x3f7e26a1	0.99277693
171	0xbccae4cd	-0.024767304
172	0x3bbf1120	0.005830899
173	0xbc3f259d	-0.011666683
174	0x3c828678	0.01593326
175	0xbe409bb8	-0.18809402
176	0x3c896d90	0.016775876
177	0x3c95fb0e	0.018308189
178	0x3f9291b1	1.1450711
179	0x3b3c5a65	0.0028740403
180	0xbdcebccd	-0.10094605
181	0xbdf5804c	-0.11987361
182	0xbe074b89	-0.13212408
183	0x3e00be17	0.12572514
184	0xbc93c86e	-0.018039908
185	0x3d55e3f8	0.05221936
186	0xbd112c5d	-0.0354427
187	0xbe174124	-0.14770943
188	0xbe066910	-0.13126016
189	0xbd415a69	-0.047205362
190	0xbd992780	-0.07478237
191	0xbdc29521	-0.095011
192	0x3e3687c4	0.17825228
193	0x3e131329	0.14362778
194	0x3df4cef1	0.119535334
195	0xbcd9550a	-0.026529808
196	0xbd90f9de	-0.070789084
197	0xbe0f560e	-0.13997671
198	0x3dab0584	0.083506614
199	0xbe342284	-0.17591292
200	0xbdb0c7fb	-0.08631893
201	0xbc1971a8	-0.009365477
202	0x3d961881	0.073288925
203	0x3df30d95	0.11867825
204	0x3d4e36aa	0.0503451
205	0xbdf78ea1	-0.12087751
206	0xbd6def63	-0.058089625
207	0xbe99b3e5	-0.3002006
208	0xbe6555f3	-0.22396068
209	0xbe3e845f	-0.18605183
210	0xbd99f096	-0.07516591
211	0xbb3c3cdd	-0.00287228
212	0xbe0ba595	-0.13637383
213	0xbea25586	-0.31705874
214	0xbda51412	-0.08060469
215	0x3e4bd2dd	0.19904657
216	0xbd23b590	-0.039968073
217	0x3f66ef30	0.9020872
218	0xbc8f8c53	-0.017522966
219	0x3cf9f02a	0.030510027
220	0x3d831624	0.06400707
221	0x3d13ad7c	0.03605412
222	0xbc06d0a6	-0.008228457
223	0xbbd98197	-0.0066377628
224	0xbbf0ad9e	-0.0073449155
225	0xbdb5ff2d	-0.088865615
226	0xbe32d341	-0.174634
227	0x3bd2d1b1	0.0064336886
228	0x3e078326	0.13233623
229	0x3e349f01	0.1763878
230	0x3deb0224	0.11475018
231	0xbccbf1f2	-0.024895642
232	0xbe523fbd	-0.20532127
233	0xbda9010d	-0.082521535
234	0x3cdba5df	0.026812492
235	0xbd61938d	-0.055072356
236	0xbd74d4fa	-0.059773423
237	0x3e7e1275	0.24811728
238	0x3e0ed46f	0.13948224
239	0x3e2c068e	0.16799375
240	0x3d20f3b2	0.039294906
241	0xbd8b96d7	-0.0681588
242	0xbd9a3e1c	-0.07531378
243	0xbd5b9832	-0.05361194
244	0xbca6e6ac	-0.020373665
245	0xbd2bbf57	-0.041930523
246	0xbd7cdd2f	-0.061734375
247	0x3d3c0a5b	0.045908313
248	0xbda15e3b	-0.07879301
249	0x3ce1c6bb	0.027560582
250	0x3f7a4699	0.97763973
251	0x3d2be5e3	0.041967284
252	0xba106cab	-0.0005509357
253	0xbbab99ab	-0.0052368245
254	0xbccabe8e	-0.024749067
255	0xb9c45b52	-0.00037452072

nn_model.0.bias f4 [128]
0	0xbe439685	-0.19100387
1	0xbf89d721	-1.0768777
2	0x3e8eb279	0.2787054
3	0xbe31cce1	-0.17363311
4	0xbf6f379b	-0.9344422
5	0xbf17f9ff	-0.5936584
6	0xbf388049	-0.7207075
7	0xbf5480e2	-0.8300916
8	0xbbf9f7c2	-0.007628412
9	0xbf3c3578	-0.73519087
10	0xbf2cebc1	-0.6754723
11	0xbf1be38b	-0.6089408
12	0x3cbebaf4	0.023282506
13	0xbf0a002f	-0.5390653
14	0xbf1e5add	-0.61857396
15	0xbedb4b98	-0.4283111
16	0xbf3e64fb	-0.74372834
17	0x3edf57cc	0.4362167
18	0xbf5fcfe6	-0.874266
19	0xbf6fb59d	-0.93636495
20	0x3ef7d6e1	0.48406127
21	0xbeb8d2b9	-0.3609827
22	0x3e207017	0.15667759
23	0xbe8109ae	-0.25202698
24	0xbf54f144	-0.8318064
25	0x3e9ee69c	0.31035316
26	0xbf0d78d5	-0.552625
27	0xbf40653f	-0.7515449
28	0xbf496b7b	-0.7867963
29	0xbf318128	-0.693377
30	0xbf4e8ad4	-0.80680585
31	0xbd47ffc0	-0.048827887
32	0xbebf33fd	-0.3734435
33	0xbf023c49	-0.5087324
34	0xbe51599b	-0.20444338
35	0xbf738c14	-0.9513562
36	0xbe9a6d12	-0.3016134
37	0xbf684fa7	-0.9074654
38	0xbe8a4259	-0.27003744
39	0x3eb4f880	0.3534584
40	0xbf461dcc	-0.77389216
41	0x3ea3c51d	0.31986323
42	0x3e494232	0.19654158
43	0xbf85464b	-1.0412077
44	0xbe791f96	-0.24328455
45	0xbf2cc750	-0.67491627
46	0xbf672038	-0.90283537
47	0xbf5d5fb8	-0.8647418
48	0x3ecbe271	0.398212
49	0xbef402f4	-0.47658503
50	0xbdb4e0e1	-0.08831955
51	0xbf5f0fe2	-0.8713361
52	0xbe419f80	-0.189085
53	0xbe4b67be	-0.19863793
54	0x3f2e7f62	0.6816312
55	0x3e1d2db0	0.1534946
56	0xbe8d2789	-0.27569225
57	0xbf4b2ad3	-0.7936222
58	0xbf535bb0	-0.8256178
59	0xbeeec9ff	-0.46638486
60	0x3e91c917	0.28473732
61	0xbe9ca6ba	-0.30595952
62	0xbf531eca	-0.82468855
63	0xbf929d3a	-1.1454232
64	0x3eae3d15	0.34030977
65	0xbf6ed6fd	-0.93296796
66	0xbf13ef70	-0.5778723
67	0x3aed8900	0.0018122494
68	0xbf4458b4	-0.7669785
69	0x3ebfa2ed	0.3742899
70	0x3ed26c56	0.4109828
71	0xbf5728de	-0.84046733
72	0xbf286779	-0.65782887
73	0x3e35dc7b	0.17759888
74	0xbd721a38	-0.059107035
75	0xbf4a1f24	-0.78953767
76	0xbec89100	-0.39173126
77	0xbf392b64	-0.72331834
78	0x3d886fe8	0.066619694
79	0xbf2e7f6d	-0.68163186
80	0x3e765e40	0.24059391
81	0xbf3b5233	-0.731723
82	0x3ea2573c	0.3170718
83	0xbf4f2ec5	-0.8093074
84	0xbf75e510	-0.96052647
85	0xbeb42e20	-0.3519144
86	0xbe46a50b	-0.19398896
87	0xbec820aa	-0.3908742
88	0xbf674ad9	-0.90348583
89	0xbecff2e9	-0.40615013
90	0xbe4bb2f3	-0.19892482
91	0xbf990541	-1.1954728
92	0xbf14b1c4	-0.5808375
93	0xbea79e3b	-0.32737908
94	0x3ee43f13	0.44579372
95	0xbf169ee2	-0.58836186
96	0x3e8016bd	0.25017348
97	0xbef8e9a7	-0.48615763
98	0x3e97204e	0.29516834
99	0xbf205b85	-0.6263965
100	0xbd83bbe1	-0.064323194
101	0xbf1d59a2	-0.61464894
102	0xbf411fd9	-0.7543922
103	0xbeefcaf7	-0.46834537
104	0xbea4993e	-0.32148165
105	0x3e59354c	0.21211737
106	0x3e755083	0.23956494
107	0xbe9b7db8	-0.30369353
108	0x3ed3d259	0.4137142
109	0xbf697e37	-0.91208214
110	0xbf70109e	-0.93775356
111	0xbf261c3e	-0.64886844
112	0xbe9fa478	-0.31180167
113	0xbf886099	-1.0654479
114	0xbf231ecd	-0.63718873
115	0xbf341fe6	-0.70361173
116	0xbf4d45e2	-0.8018476
117	0xbf4ca068	-0.7993226
118	0xbf37a54f	-0.71736616
119	0xbf53aca7	-0.8268532
120	0xbf4e5d78	-0.8061137
121	0xbf2ca579	-0.6743999
122	0x3f23f57c	0.64046454
123	0x3ea4a8e8	0.32160115
124	0x3e6b903b	0.23004238
125	0xbf641b93	-0.89104575
126	0xbf198700	-0.5997162
127	0xbf01d707	-0.5071873

nn_model.2.weight f4 [128, 128]
0	0x3cd75896	0.026287358
1	0x3ea285e9	0.3174279
2	0x3e0d3106	0.13788232
3	0x3d53908e	0.05165153
4	0x3f9eda62	1.2410395
5	0x3ebdb7ca	0.37054282
6	0x3f3e27b6	0.74279344
7	0x3f7e2a9a	0.99283755
8	0xbe46757a	-0.19380751
9	0xbf23c926	-0.63978803
10	0x3f696a81	0.9117814
11	0x3e0fa851	0.14029051
12	0x3e93a143	0.2883397
13	0xbf2a6eef	-0.6657552
14	0xbf26827b	-0.6504285
15	0xbe257505	-0.1615792
16	0x3f2bd664	0.6712401
17	0xbe0d1246	-0.13776502
18	0xbf33448e	-0.7002648
19	0x3eac53e1	0.33657745
20	0xbf38149a	-0.71906435
21	0xbde154a2	-0.110024706
22	0xbe8cdd87	-0.27512762
23	0x3d0f426e	0.03497546
24	0x3e779503	0.24177937
25	0xbe062ea5	-0.13103731
26	0x3ceb2900	0.028706074
27	0x3f2aa244	0.6665385
28	0x3faacc09	1.3343517
29	0x3e885766	0.2662918
30	0xbfa844a4	-1.3145947
31	0x3dd602d2	0.10449757
32	0xbdda9157	-0.106722526
33	0x3db1bc0c	0.08678445
34	0x3d5e56a2	0.05428184
35	0xbf5608a5	-0.8360694
36	0xbca117f6	-0.019664746
37	0x3f0f9c20	0.560976
38	0xbe696a3c	-0.22794431
39	0x3f2bcb42	0.6710702
40	0x3f6f6d44	0.935261
41	0x3ee71664	0.4513427
42	0xbe838336	-0.25686044
43	0xbe9cb028	-0.30603147
44	0x3ef85780	0.48504257
45	0x3e70a570	0.2350061
46	0x3ec84eca	0.3912261
47	0xbf531e46	-0.8246807
48	0x3db6a799	0.089186855
49	0x3e5ba7ed	0.21450777
50	0x3d820740	0.06349039
51	0x3dc2cb5b	0.09511443
52	0x3d23cf6f	0.039992746
53	0xbdb1cec0	-0.086820126
54	0xbf3dacd7	-0.7409186
55	0x3e5b7c45	0.21434124
56	0x3ec1ad8f	0.37827727
57	0x3f803461	1.0015985
58	0x3e0ee1a1	0.13953258
59	0xbd633f55	-0.05548032
60	0x3d969866	0.073532864
61	0xbd17a027	-0.037017968
62	0x3edb5578	0.42838645
63	0xbf4f6b4a	-0.81023085
64	0x3ee1226f	0.43971583
65	0x3f421bfb	0.75823945
66	0xbe43c664	-0.19118649
67	0xbd250ae4	-0.04029359
68	0x3f35e52c	0.71052814
69	0x3e8813d1	0.2657762
70	0x3f2302b1	0.6367598
71	0x400f39a6	2.2378936
72	0xbee8667d	-0.45390692
73	0xbe622fd8	-0.22088563
74	0xbd484c03	-0.048900615
75	0x3e062635	0.13100512
76	0x3e43e6e1	0.19131042
77	0x3f892b0d	1.0716263
78	0x3e519c8f	0.20469879
79	0x3ed5edf4	0.41783106
80	0xbd5c7dca	-0.0538309
81	0xbe54571a	-0.20736352
82	0x3ea8b442	0.32950026
83	0x3fa44b65	1.2835509
84	0xbef6efd3	-0.48229846
85	0x3d8827af	0.06648194
86	0xba218280	-0.00061611086
87	0x3e49e63f	0.19716738
88	0x3f6a6254	0.91556287
89	0x3f097141	0.53688437
90	0xbe427305	-0.18989189
91	0xbf7a29a6	-0.977198
92	0xbe63edbe	-0.2225866
93	0xbe7cfeb1	-0.24706532
94	0x3ea48fcd	0.3214096
95	0x3f549a17	0.8304762
96	0x3eee79be	0.46577257
97	0xbdea85ed	-0.114513256
98	0x3ebd9da9	0.37034348
99	0xbd68c1f6	-0.0568256
100	0xbd6868fb	-0.056740742
101	0xbfc6ebda	-1.5540726
102	0xbf952bba	-1.1653969
103	0xbe2310ea	-0.15924421
104	0xbdb45539	-0.088053174
105	0x3f054bbf	0.52068704
106	0x3eb91b48	0.36153626
107	0x3c9481d2	0.01812831
108	0x3e62ebde	0.22160289
109	0x3fecdea9	1.850545
110	0x3f7cacc3	0.98701113
111	0x3ee02a4a	0.43782264
112	0xbdd39359	-0.10330839
113	0xbfc445f0	-1.5333843
114	0x3da4c7c1	0.080459125
115	0x3dbc4658	0.091931045
116	0x3f5ada91	0.85489756
117	0x3f9be26a	1.2178471
118	0x3e8fb2e3	0.28066167
119	0x3dc92188	0.09820849
120	0xbeb11113	-0.3458334
121	0x3ee6aee4	0.45055306
122	0x3f2eae31	0.68234545
123	0xbf39c0d1	-0.7255984
124	0x3e9e0c30	0.30868673
125	0x3ec95520	0.39322758
126	0xbe3b537a	-0.18293563
127	0xbe7977ca	-0.24362102
128	0xbd9ec4be	-0.07752369
129	0xbf692626	-0.91073835
130	0x3e85e186	0.26148623
131	0x3c6a2760	0.014291614
132	0xbdad9ec9	-0.084775515
133	0x3c901e44	0.017592557
134	0x3d39a0cf	0.045319375
135	0x3efee342	0.4978276
136	0x3e4831ce	0.19550249
137	0x3f0faf32	0.561267
138	0x3f14ebbc	0.581722
139	0x3e4229b3	0.1896122
140	0x3d96c3f7	0.07361596
141	0x3da11c33	0.07866707
142	0xbe1d0a40	-0.15335941
143	0xbd92f7e7	-0.0717619
144	0xbc4031a0	-0.0117305815
145	0xbd06de34	-0.032926753
146	0xbe447ce0	-0.19188261
147	0xbefb5379	-0.49087122
148	0xbefda0b6	-0.49536675
149	0x3e98b236	0.29823464
150	0xbac572c6	-0.0015064112
151	0xbca2ac53	-0.019857561
152	0x3f22cdd8	0.6359534
153	0x3e7e321d	0.24823804
154	0xbd2aecc0	-0.04172969
155	0x3ef66959	0.4812725
156	0x3f5b52bf	0.85673136
157	0x3ecadea4	0.39622986
158	0xbfd0d18b	-1.6313947
159	0x3c76aea3	0.015056285
160	0xbe2e196a	-0.17001882
161	0xbcbd6b41	-0.023122432
162	0x3db39b51	0.08769859
163	0xbed0c2a7	-0.40773508
164	0xbdb50350	-0.088385224
165	0x3f212baa	0.6295725
166	0x3e0025c9	0.12514414
167	0x3da2a928	0.0794242
168	0x3ea420ed	0.3205637
169	0x3dbcbd6a	0.09215815
170	0x3e4331f2	0.19062021
171	0xbfbc3d5c	-1.4706225
172	0x3e9454dc	0.28970993
173	0x3e5c2f3a	0.2150239
174	0x3fab0b1f	1.3362769
175	0xbeec5625	-0.46159473
176	0x3e9f4eb8	0.31114745
177	0xbea9371a	-0.33049852
178	0xbe100a0b	-0.14066331
179	0xbf2ab913	-0.6668865
180	0xbd3c51c4	-0.045976415
181	0x3d9beea8	0.076138794
182	0xbe0a79e4	-0.1352306
183	0xbe0cbb29	-0.13743271
184	0xbbada8e8	-0.005299676
185	0x3e6b8b36	0.23002324
186	0xbe8a1466	-0.26968688
187	0xbd846fab	-0.064666115
188	0x3e6530b8	0.22381866
189	0x3b6ec040	0.0036430508
190	0x3efe7e6b	0.49705824
191	0x3f6a533c	0.91533256
192	0x3e45d5fc	0.1931991
193	0xbfecd34c	-1.8501983
194	0x3ea0d2bf	0.31410787
195	0x3da33b85	0.07970337
196	0x3f9854a3	1.1900829
197	0x3e55f902	0.2089577
198	0x3ea8244f	0.328402
199	0x3fa37a49	1.2771693
200	0xbde13509	-0.10996444
201	0xbbce6bdf	-0.0062994803
202	0xbd602bdb	-0.054729324
203	0xbe11dfdc	-0.14245552
204	0x3e8fbc79	0.2807348
205	0x3ea3c6fa	0.31987745
206	0x3e41954f	0.18904613
207	0xbf092f18	-0.53587484
208	0x3e915d28	0.28391385
209	0x3e93fb3b	0.2890261
210	0x3ea4de82	0.3220101
211	0x3d090572	0.03345246
212	0xbf065ad6	-0.52482355
213	0x3e422350	0.18958783
214	0x3c89f3f0	0.016839951
215	0x3dff20d0	0.1245743
216	0x3ddb83a6	0.10718469
217	0x3da08f08	0.07839781
218	0x3bacda0a	0.0052750157
219	0x3e490d8d	0.19634075
220	0xbe1a0eb7	-0.15044676
221	0xbcf6af89	-0.030112999
222	0x3e27b7c7	0.16378699
223	0x3eb8c4aa	0.36087543
224	0x3d0b8f3f	0.034072157
225	0x3de54c5a	0.111962035
226	0x3e6083fc	0.21925348
227	0xbeed1930	-0.4630828
228	0xbe35d175	-0.17755683
229	0xbbf9bacb	-0.0076211444
230	0xbf0038e8	-0.5008683
231	0xbe9a0530	-0.30082083
232	0xbc96e7a8	-0.01842101
233	0xbc50ec98	-0.012751721
234	0x3e2f827c	0.1713962
235	0x3d07a482	0.03311587
236	0xbd2dfc8d	-0.04247718
237	0x3f2356c3	0.6380426
238	0xbe26bcc8	-0.16282952
239	0xbc1168f3	-0.0088751195
240	0xbcd40fcf	-0.025886444
241	0xbff950b4	-1.9477754
242	0x3f0e945c	0.5569513
243	0x3f0505de	0.5196208
244	0x3fc91d0b	1.5711988
245	0x3ed85f05	0.42259994
246	0xbdb0ce22	-0.08633067
247	0x3e1e0931	0.15433194
248	0x3e8f1f23	0.27953443
249	0x3eefd38b	0.46841082
250	0xbe55d0f3	-0.20880489
251	0xbe566e21	-0.20940448
252	0xbd128ac4	-0.03577687
253	0xbe0fe472	-0.14051989
254	0x3d1c80b3	0.038208675
255	0xbe53ac16	-0.20671114

nn_model.2.bias f4 [128]
0	0x3d8cbd55	0.0687205
1	0xbe16173b	-0.14657299
2	0xbd56f176	-0.05247637
3	0xbdfda4a5	-0.12384919
4	0xbdc982e2	-0.09839417
5	0x3e746f5f	0.2387061
6	0xbd4c27c0	-0.049842596
7	0x3d607d15	0.054806788
8	0xbcdfd91d	-0.027325207
9	0xbe1144dc	-0.14186424
10	0x3e0592ba	0.13044253
11	0xbe3cb188	-0.18427098
12	0x3e061137	0.13092504
13	0xb98a7b86	-0.00026413443
14	0xbdc05437	-0.09391063
15	0xbcdf7429	-0.02727707
16	0x3e058032	0.13037184
17	0xbdd9c51b	-0.10633298
18	0x3d3ef79a	0.04662285
19	0xbdbfdf4e	-0.09368764
20	0xbd4503f7	-0.048099484
21	0xbccd5044	-0.025062688
22	0xbd6da41b	-0.05801783
23	0xbd75380a	-0.059867896
24	0xbcf259f2	-0.029583905
25	0xbdc01089	-0.09378154
26	0xbdaa37d2	-0.08311428
27	0x3d719546	0.05898025
28	0xbbb25606	-0.0054423837
29	0x3c371941	0.011175455
30	0xbde6ca64	-0.11269072
31	0xbcfade04	-0.030623443
32	0x3e30f27a	0.17279997
33	0xbe158c64	-0.14604336
34	0xbe9801c3	-0.29688844
35	0xbdbda457	-0.09259861
36	0xbd686176	-0.05673357
37	0xbe5eaa20	-0.21744585
38	0xbd687c44	-0.056759134
39	0x3e763ba0	0.24046183
40	0xba797ebb	-0.00095174805
41	0xbdeaa6db	-0.114576064
42	0xbd892b9c	-0.06697771
43	0x3d4ea121	0.050446633
44	0xbde80869	-0.11329729
45	0xbeab7f59	-0.33495596
46	0xbd0c5b19	-0.034266565
47	0x3c9963c9	0.01872434
48	0x3da4b03a	0.08041425
49	0xbe3aca4c	-0.18241233
50	0xbdf91bd4	-0.12163511
51	0xbd90c01a	-0.070678905
52	0xbe3715b7	-0.17879377
53	0xbdfb8da2	-0.12282874
54	0xbca93b1b	-0.020658066
55	0xbe0e949f	-0.13923882
56	0xbbd2e02a	-0.006435414
57	0x3d623940	0.05523038
58	0xbda41125	-0.080110826
59	0xbd4fb6f6	-0.050711595
60	0xbd722f2c	-0.059127018
61	0xbdb543d5	-0.088508286
62	0xbd010945	-0.03150298
63	0xbe42169d	-0.18953939
64	0xbe021542	-0.12703422
65	0xbe8517bb	-0.25994667
66	0xbe5140a5	-0.20434816
67	0xbde4b7dc	-0.11167881
68	0xbe65eb68	-0.22453082
69	0xbd2091cf	-0.039201554
70	0xbd910ce6	-0.07082538
71	0xbdcaabf1	-0.098960765
72	0xbdc8ce7e	-0.0980501
73	0xbd972de5	-0.073818006
74	0x3e942611	0.28935292
75	0xbdff6d2f	-0.12471997
76	0x3de23601	0.11045457
77	0xbe08b8e4	-0.1335178
78	0xbd7479c5	-0.05968644
79	0xbdabd909	-0.083910055
80	0xbd1284f8	-0.03577134
81	0x3ce74fec	0.028236352
82	0xbd914dfb	-0.07094952
83	0xbd587bf5	-0.05285259
84	0x3e3282b3	0.1743267
85	0xbd5f1334	-0.054461673
86	0xbdda8e24	-0.106716424
87	0x3dcd424b	0.1002241
88	0xbdc718bf	-0.09721517
89	0x3d523609	0.051321063
90	0xbdbb6055	-0.09149233
91	0xbd7cf0cf	-0.06175309
92	0x3e75c0b3	0.2399929
93	0xbd04b8da	-0.03240285
94	0xbe095231	-0.1341026
95	0xbe2ca7c6	-0.16860875
96	0xbdb2d893	-0.087327145
97	0xbce0d08e	-0.027443197
98	0x3db8326b	0.089939915
99	0xbe2edff0	-0.17077613
100	0xbe82cdea	-0.25547725
101	0xbda0052e	-0.07813488
102	0xbbe6964c	-0.0070369598
103	0x3d35d78c	0.044395015
104	0xbc6ce36a	-0.014458517
105	0xbe8417fe	-0.25799555
106	0xbd8acebc	-0.06777713
107	0xbd71dee3	-0.059050452
108	0xbd30ac4c	-0.043133065
109	0xbdbad036	-0.09121744
110	0xbe19acff	-0.15007399
111	0x3dd7b872	0.10533227
112	0xbead0168	-0.33790135
113	0xbdf4944f	-0.1194235
114	0x3e6d448b	0.23170678
115	0xbe13d3f6	-0.14436325
116	0x3d1705f8	0.036870927
117	0x3c9d6939	0.019215213
118	0xbc76d276	-0.015064826
119	0xbdf8d556	-0.121500656
120	0xbd95eb8a	-0.07320316
121	0xbdaf3bd7	-0.085563354
122	0xbc0747cb	-0.008256863
123	0xbd319d59	-0.04336295
124	0x3db0e3a9	0.08637173
125	0xbe6b7082	-0.22992137
126	0xbe38cc1f	-0.18046616
127	0xbe7717dc	-0.24130195

nn_model.4.weight f4 [128, 128]
0	0x3e27b4a0	0.16377497
1	0xbdd07fe8	-0.10180646
2	0x3ea50052	0.32226807
3	0xbdfe3923	-0.12413242
4	0xbd414704	-0.047186866
5	0x3dcdebe8	0.10054761
6	0xbdd95208	-0.10611349
7	0xbd4e42b3	-0.050356578
8	0xbd708166	-0.058717154
9	0x3d295e22	0.041349538
10	0x3dad06a3	0.084485315
11	0xbe03032e	-0.12794182
12	0x3e46b39b	0.19404452
13	0x3ce73dd4	0.028227724
14	0x3afe8972	0.0019419624
15	0xbdc4f2c7	-0.096166186
16	0xbd63e068	-0.055633932
17	0x3d4c993c	0.049950823
18	0x3e308b8c	0.17240733
19	0x3e0e7c79	0.1391467
20	0x3c2eaa47	0.0106607145
21	0x3daa2a34	0.08308831
22	0x3ddb34d5	0.10703436
23	0x3dd8d9ce	0.10588418
24	0x3c318f91	0.010837452
25	0x3f7b3b7f	0.9813766
26	0x3bd3c068	0.0064621456
27	0xbd0f04ff	-0.034916874
28	0x3c5620c9	0.01306934
29	0xbd8c54e1	-0.06852127
30	0xbdae9106	-0.08523755
31	0x3deff26b	0.117161594
32	0xbf7e507d	-0.99341565
33	0x3e01b0b3	0.12665062
34	0xbe7d1c0d	-0.24717732
35	0x3e005898	0.12533796
36	0x3c998010	0.018737823
37	0x3d1358d2	0.035973378
38	0xbcc03800	-0.023464203
39	0xbe0dfbff	-0.1386566
40	0x3d3ebb88	0.046565562
41	0x3cef4e34	0.029212095
42	0x3dba6273	0.09100809
43	0x3b890bb5	0.004182304
44	0x3e0f2eb9	0.13982667
45	0x3e7c5a29	0.24643768
46	0x3d5866f0	0.052832544
47	0x3d411fe0	0.04714954
48	0xbd918b94	-0.071067005
49	0x3c9f0ed1	0.019416245
50	0xbea9b1ed	-0.3314356
51	0xbdb26ff5	-0.0871276
52	0x3de70dde	0.11281942
53	0xbc9d51ea	-0.019204099
54	0x3d70c8f0	0.05878538
55	0xbdb8c2d3	-0.09021535
56	0xbcc86ec6	-0.024466883
57	0x3d6cd417	0.057819452
58	0xbe0d8956	-0.13821921
59	0x3db936f8	0.090436876
60	0x3df46147	0.11932617
61	0xbca0d049	-0.019630568
62	0x3cd56782	0.026050333
63	0xbdb64623	-0.08900096
64	0xbbb5a0cb	-0.0055428497
65	0xc01b67ff	-2.4282224
66	0x3f384d26	0.7199272
67	0xbc262ffa	-0.010143274
68	0xbf86dc57	-1.0535992
69	0x3cf7ccfd	0.030249113
70	0x3dbef890	0.09324753
71	0x3cfd4f09	0.030921476
72	0x3b0e9591	0.002175663
73	0x3d46b478	0.048511952
74	0x3decb3a5	0.11557702
75	0xbd4f1149	-0.050553594
76	0xbe7efceb	-0.24901168
77	0xbecf6f63	-0.4051467
78	0xbc6ab386	-0.014325028
79	0xbdae6a17	-0.08516329
80	0x3ddb327c	0.107029885
81	0x3e27dca4	0.16392761
82	0x3c69dc79	0.014273756
83	0xbddab317	-0.1067869
84	0xbe18f640	-0.14937687
85	0x3e0f39f1	0.13986947
86	0xbd57ba8c	-0.05266814
87	0x3d3f1e43	0.04665972
88	0x3da23721	0.07920671
89	0x3dc3dc98	0.09563559
90	0x3d7aacf1	0.061200086
91	0xbd7f25fc	-0.062292084
92	0x3d82cd46	0.06386809
93	0xbc7f71bb	-0.01559108
94	0xbdc666d0	-0.09687579
95	0x3dea3801	0.11436463
96	0xbc964910	-0.018345386
97	0xbe0b50af	-0.13604997
98	0xbcad3af5	-0.021146277
99	0x3def3ac5	0.11681131
100	0xbfdb798c	-1.7146468
101	0x3e0cc80c	0.13748187
102	0xbcd5bcf5	-0.026091078
103	0xbe394509	-0.18092741
104	0x3e85431f	0.26027772
105	0xbcac677b	-0.021045437
106	0x3c63b2ab	0.013897578
107	0xbdd5ab0a	-0.10433014
108	0xbb2fd591	-0.0026830176
109	0xbd474262	-0.048647292
110	0xbdf75c5a	-0.120781615
111	0xbde6d8f7	-0.112718515
112	0xbed902bc	-0.423849
113	0x3e8e7150	0.27820826
114	0x3d1457f5	0.036216695
115	0xb9b348c9	-0.0003419577
116	0x3dcbd6d4	0.099530846
117	0xbd962f51	-0.07333244
118	0x3c2848b6	0.010271242
119	0xbdd34991	-0.10316766
120	0xbf916fea	-1.1362278
121	0x3f2a0cd3	0.6642582
122	0x3e07e321	0.13270237
123	0x3e0f80f8	0.14014041
124	0x3e3c8c45	0.18412884
125	0xbdca7a43	-0.09886601
126	0xbe6ebc70	-0.2331407
127	0xbd618f24	-0.05506815
128	0xbccb10ff	-0.024788378
129	0x3e1c1e13	0.15245847
130	0xbd7a73b6	-0.061145507
131	0x3d598d8d	0.05311351
132	0x3cc9796d	0.024594033
133	0x3d242fe5	0.04008474
134	0xbc87963e	-0.016551133
135	0x3f584ec7	0.84495205
136	0x3cdb08da	0.02673762
137	0x3d95950b	0.07303818
138	0x3e75d436	0.24006733
139	0xbe2c12ba	-0.16804019
140	0x3e82e4a6	0.2556507
141	0x3d7e131f	0.062029954
142	0xbc943221	-0.01809031
143	0x3d6a2005	0.057159442
144	0xbddc09ad	-0.10744033
145	0x3d352c0a	0.044231452
146	0x3e85be42	0.26121718
147	0x3dd7b684	0.10532859
148	0xbde441fc	-0.11145398
149	0x3dc6fca8	0.09716159
150	0x3de5be51	0.112179406
151	0x3c08d037	0.008350424
152	0xbba16013	-0.004924783
153	0xbe3075c1	-0.1723242
154	0x3d32926a	0.043596663
155	0xbe0aa96d	-0.13541193
156	0x3e32107d	0.17389102
157	0x3d7f1758	0.06227812
158	0xbd75b0c3	-0.059983026
159	0x3d1c770c	0.03819947
160	0x3e2f0916	0.1709331
161	0x39846059	0.00025248787
162	0x3f6c24c8	0.92243624
163	0x3f1f2b93	0.62175864
164	0xbc5a4003	-0.013320926
165	0x3d93f8b2	0.07225169
166	0x3c1b531c	0.009480264
167	0xbd6c8ff4	-0.057754472
168	0x3d8f1b53	0.069876336
169	0x3bed6d62	0.0072457055
170	0x3e856ee1	0.26061156
171	0xbe26799e	-0.16257331
172	0x3df93983	0.121691726
173	0xbd9d07c5	-0.076674975
174	0x3ae3e0f7	0.001738577
175	0xbdcbed77	-0.09957402
176	0xbd1a381a	-0.03765116
177	0xbdd88c70	-0.10573661
178	0xbec33750	-0.38128138
179	0xbc2944e9	-0.010331371
180	0x3e3ae4e5	0.18251379
181	0xbc5ff9f9	-0.013670438
182	0x3d323774	0.043509915
183	0x3d1cefd4	0.038314655
184	0x3cf671fb	0.030083647
185	0xbe6cdb0f	-0.23130439
186	0x3dc5fa44	0.09666875
187	0x3d5840a6	0.05279603
188	0x3c83699c	0.01604157
189	0x3d1bf516	0.03807553
190	0x3cd3b954	0.025845207
191	0x3e2e70e9	0.1703526
192	0xbbe7cb4f	-0.007073797
193	0xbece88dc	-0.4033879
194	0x3dda1c36	0.10649912
195	0xbaa07286	-0.0012241162
196	0xbe105a38	-0.14096916
197	0xbe245c0f	-0.16050743
198	0x3cf503dd	0.029909069
199	0x3d835ae5	0.06413821
200	0x3de175c6	0.110087916
201	0x3e27c58f	0.16383956
202	0x3f08eb76	0.53484285
203	0xbd1eebf4	-0.03879924
204	0xbe499e82	-0.19689372
205	0xbea3fc53	-0.32028446
206	0xbc1a60cf	-0.009422495
207	0x3bdb6a20	0.0066960007
208	0x3d1c21e4	0.038118258
209	0x3e96e67b	0.29472718
210	0x3d31ef5d	0.043441165
211	0xbcb4199e	-0.021984871
212	0x3eb3eedf	0.35143182
213	0x3e33bae0	0.17551756
214	0x3b64fa65	0.0034939286
215	0x3ed3b8f9	0.4135206
216	0x3ccdd311	0.025125058
217	0x3e377a0b	0.1791765
218	0x3dc7c193	0.09753718
219	0xbd08f5f2	-0.033437677
220	0xbd18d386	-0.0373111
221	0x3daef772	0.0854329
222	0xbd654e13	-0.05598266
223	0xbd919442	-0.07108356
224	0x3d91aea2	0.07113387
225	0x3d3374b9	0.043812487
226	0x3ee5bc43	0.44870195
227	0x3d9383b7	0.07202857
228	0xbd8a4cc9	-0.06752927
229	0xbd485330	-0.04890746
230	0x3e3e63f9	0.18592824
231	0xbd090eec	-0.033461496
232	0x3ed000ff	0.4062576
233	0x3cfd1cd9	0.030897545
234	0xbcaf5c9c	-0.021406464
235	0xbcf830f5	-0.030296782
236	0x3cffa8c7	0.031208409
237	0xbd6974cf	-0.056996163
238	0x3edccd78	0.4312551
239	0xbe77efa4	-0.2421251
240	0xbeb1fee6	-0.34764785
241	0xbc5839c5	-0.013197367
242	0x3e79a450	0.24379086
243	0x3eacb1b8	0.3372934
244	0xbd870039	-0.06591839
245	0xbdd85c15	-0.10564438
246	0x3db9c054	0.09069887
247	0x3d2f4069	0.042786036
248	0x3d6f753f	0.058461424
249	0xbd700668	-0.05859986
250	0x3bd8cb26	0.006616014
251	0x3ee67be0	0.45016384
252	0x3e01937b	0.12653916
253	0x3e64f9cf	0.2236092
254	0xbe4a51de	-0.19757792
255	0x3c9cb091	0.019127162

nn_model.4.bias f4 [128]
0	0x3e49ee4c	0.1971981
1	0xbd3ae749	-0.045630727
2	0xbdc2c150	-0.09509528
3	0xbc7ea6e7	-0.015542722
4	0xbde0ce7a	-0.10976882
5	0xbd992182	-0.07477094
6	0xbe17dcb9	-0.14830293
7	0xbe4bbd5c	-0.19896454
8	0x3a933b5a	0.0011232898
9	0xbec1d809	-0.37860134
10	0x3b866ea2	0.004102544
11	0xbd038d56	-0.03211721
12	0x3d8accc9	0.06777341
13	0xbdc7c335	-0.0975403
14	0x3eb04fc6	0.34435862
15	0xbd797c8c	-0.060909793
16	0x3ebdf084	0.3709756
17	0xbdcf8758	-0.10133237
18	0xbe24381c	-0.16037029
19	0xbe8339e9	-0.2563012
20	0xbca6c43a	-0.02035724
21	0x3dcc44b7	0.09974044
22	0x3bb75589	0.0055949134
23	0xbe70b29f	-0.23505639
24	0xbaaef129	-0.0013347018
25	0xbd4ef49f	-0.050526258
26	0xbd5ed882	-0.054405697
27	0xbe9c20ce	-0.30493778
28	0xbd8f71cc	-0.07004127
29	0xbd946138	-0.072451055
30	0x3b08b51e	0.0020859907
31	0xbe4a6c68	-0.19767916
32	0xbd82eb5e	-0.06392549
33	0x3e26b725	0.16280802
34	0xbe0d2f04	-0.13787466
35	0xbda32bd0	-0.07967341
36	0xbc218816	-0.009859106
37	0xbca1766e	-0.019709792
38	0xbd8475e5	-0.06467799
39	0xbdf5d561	-0.120035894
40	0x3ec9c642	0.3940907
41	0xbdc7abd3	-0.0974957
42	0xbdaf00da	-0.08545084
43	0xbdfa4a44	-0.12221196
44	0x3d0aa8f8	0.033852547
45	0x3bc4332c	0.0059875455
46	0xbd07786d	-0.03307383
47	0x3e60f662	0.21968988
48	0xbd148f8d	-0.036269713
49	0xbe793e5b	-0.24340193
50	0xbc5a8825	-0.013338123
51	0x3c80db6a	0.015729625
52	0x3dd91d5a	0.106013015
53	0xbe3b0a26	-0.1826559
54	0xbe133d77	-0.14378916
55	0x3c198957	0.009371123
56	0x3e41687e	0.18887517
57	0x3e31b228	0.17353117
58	0xbde46298	-0.11151618
59	0xbe8d7850	-0.27630854
60	0xbdf65a9a	-0.120289996
61	0xbd486d32	-0.04893226
62	0x3e050229	0.12989105
63	0x3cc2f459	0.023798155
64	0xbb8cc019	-0.0042953608
65	0xbd8b5b8e	-0.06804572
66	0x3df4f44f	0.11960661
67	0x3f06d1c6	0.5266384
68	0xbe9e8bfb	-0.30966172
69	0xbe1a7a86	-0.15085801
70	0xbdc2d73e	-0.095137104
71	0x3b701d88	0.0036638696
72	0x3d4ec411	0.050479952
73	0x3caebdcc	0.021330737
74	0xbd89b4d7	-0.067239456
75	0xbd012612	-0.031530447
76	0xbd926f4f	-0.07150137
77	0xbe8f37eb	-0.2797235
78	0xbdf53deb	-0.119747005
79	0xbdb584de	-0.08863233
80	0xbe3b5ea9	-0.18297829
81	0x3dd0a681	0.10188008
82	0xbeb01172	-0.3438831
83	0xbdfdd68f	-0.123944394
84	0xbda5fe0c	-0.08105096
85	0xbcb58b7e	-0.022161242
86	0x3ed790e5	0.42102733
87	0xbdd9f23d	-0.106419064
88	0xbe33ef9b	-0.17571871
89	0xbe851434	-0.25991976
90	0xbd8b6620	-0.06806588
91	0xbb420e4d	-0.0029610575
92	0xbd7bdeff	-0.061491963
93	0xbccdf4d4	-0.025141157
94	0x3d690ead	0.05689876
95	0xbdee05d4	-0.116222054
96	0xbccd4c0f	-0.025060682
97	0xbe722d38	-0.23650062
98	0xbdf31052	-0.11868347
99	0xbdaacfa2	-0.08340384
100	0xbc3bca9b	-0.011461879
101	0xbe80ca9a	-0.25154573
102	0x3e28ee67	0.16497193
103	0x3d6823fe	0.05667495
104	0xbd2a1cdb	-0.041531425
105	0xbdfe7872	-0.12425317
106	0xbe25e6ce	-0.16201326
107	0x3ec25268	0.37953496
108	0xbe0ca2b2	-0.13733938
109	0xbd8d2983	-0.06892683
110	0x3e48042d	0.19532843
111	0xbeb46558	-0.3523357
112	0xbdc698f1	-0.0969714
113	0xbd702be4	-0.058635607
114	0xbde6c572	-0.112681285
115	0xbe5d2a1b	-0.21598093
116	0xbe09b7eb	-0.13449065
117	0xbcebd2ab	-0.028786978
118	0x3df774a9	0.12082798
119	0xbcfee749	-0.031116145
120	0x3d3983eb	0.045291822
121	0x3e823522	0.25431162
122	0x3e8a71c2	0.27039915
123	0x3e0f17bd	0.13973899
124	0xbdcbccfe	-0.099512085
125	0xbde9d3a7	-0.114173226
126	0xbddc278b	-0.1074973
127	0xbdd7927d	-0.10525987

allocation_head.0.weight f4 [12, 128]
0	0x3cc54cec	0.02408453
1	0x3e18c31e	0.14918181
2	0xbc58045c	-0.013184633
3	0x3db9db3e	0.0907502
4	0x3cd50355	0.026002565
5	0xbd5657a1	-0.052329663
6	0x3de283e9	0.11060316
7	0x3e81034f	0.25197837
8	0x3e18c95d	0.14920564
9	0x3c1e3ec8	0.009658523
10	0x3e235aa8	0.15952551
11	0x3d2edd62	0.042691596
12	0xbe595d0d	-0.21226902
13	0x3b3e92f2	0.0029079285
14	0xbd843087	-0.06454568
15	0x3dad8f54	0.08474603
16	0x3e0544e3	0.1301456
17	0x3d593b42	0.05303503
18	0x3b7ceb89	0.0038592538
19	0xbdfc2fea	-0.123138264
20	0xbcfa6270	-0.030564517
21	0x3e88a134	0.26685488
22	0x3bcd11f5	0.006258244
23	0x3e04162d	0.12899084
24	0x3d3ba0cc	0.045807645
25	0x3ca19517	0.019724412
26	0x3c2aac6f	0.010417088
27	0x3c3f8658	0.011689745
28	0x3e314190	0.17310166
29	0xbe19b55a	-0.15010586
30	0x3cd14ac8	0.025548354
31	0x3e30d890	0.17270112
32	0x3af45075	0.0018639701
33	0x3e401afd	0.18760295
34	0xbdad3562	-0.084574476
35	0xbe122bcd	-0.14274521
36	0x3e633184	0.22186857
37	0x3e2a720d	0.1664507
38	0x3d4d87dc	0.050178394
39	0x3dd2b012	0.10287489
40	0x3d9842e6	0.07434635
41	0xbdd61b81	-0.10454465
42	0x3c750170	0.014953956
43	0xbe08e5ad	-0.13368864
44	0xbd22a464	-0.039707556
45	0xbd31f869	-0.043449793
46	0x3ded3439	0.11582226
47	0x3d86a524	0.06574467
48	0x3dbe7b0f	0.09300815
49	0x3c61e1b5	0.013786723
50	0x3e075158	0.13214624
51	0x3e470d2a	0.19438615
52	0x3a816941	0.0009873287
53	0x3ef2ea10	0.474442
54	0x3dd3232f	0.10309445
55	0xbe1eaeb1	-0.15496327
56	0x3e220581	0.15822412
57	0xbd497c8b	-0.04919104
58	0xbdc63935	-0.0967888
59	0x3d719659	0.058981273
60	0xbd736060	-0.059418082
61	0x3e70cdf7	0.2351607
62	0xbdeef0bc	-0.1166701
63	0x3dabb565	0.08384208
64	0x3dde5cff	0.10857581
65	0x3d4dbc55	0.050228436
66	0x3de1a191	0.110171445
67	0x3d2cdd7d	0.042203415
68	0x3ac84b03	0.0015281144
69	0x3e9be8ec	0.30451143
70	0xbe0ef603	-0.13961034
71	0x3ce29a50	0.027661473
72	0xbd305d8a	-0.043057956
73	0x3e06f5d8	0.1317972
74	0x3e0380c8	0.12842095
75	0x3e0d5a55	0.1380399
76	0x3d9f02c7	0.077642016
77	0xbca574ab	-0.020197233
78	0x3d8b6d52	0.068079606
79	0xbd10b3e5	-0.03532781
80	0x3e86f20a	0.26356536
81	0x3e43d4e5	0.19124182
82	0x3ccadcd4	0.024763502
83	0xbe17c42c	-0.14820927
84	0x3d9cdf8a	0.07659824
85	0x3d36f7f6	0.044670068
86	0xbe92c8fc	-0.28668964
87	0xbe49b03a	-0.19696131
88	0x3e216699	0.15761794
89	0xbdb02043	-0.085999034
90	0x3d30353d	0.043019522
91	0x3e0adc0b	0.13560502
92	0x3d92f713	0.07176032
93	0x3d2dad06	0.042401336
94	0x3e96c6a3	0.29448423
95	0x3c478511	0.012177722
96	0x3dd572f3	0.104223154
97	0xbd7b80d5	-0.06140216
98	0xbe03ae53	-0.12859468
99	0xbde33936	-0.110948965
100	0x3cb114e0	0.0216164
101	0x3ce7c2ee	0.028291192
102	0x3e81f9c7	0.25385877
103	0x3e0d400c	0.13793963
104	0xbcc5cc6b	-0.024145326
105	0xbd3b3fff	-0.04571533
106	0xbdb28f98	-0.087187946
107	0x3d7eb711	0.062186304
108	0x3d653c2e	0.055965595
109	0xbd3f5e42	-0.04672075
110	0x3ddb9e16	0.10723512
111	0x3e798aa2	0.2436929
112	0x3bcbc61d	0.0062186853
113	0x3d9061ed	0.07049928
114	0x3d781ae6	0.060572527
115	0xbd60dec4	-0.054899946
116	0x3cb60d6d	0.022223199
117	0x3d8325d0	0.064036965
118	0x3e8a77d3	0.27044544
119	0x3da5ecd0	0.08101809
120	0xbd292e10	-0.041303694
121	0xba2b8450	-0.00065428484
122	0xbd4273ab	-0.04747359
123	0x3dbd6d12	0.09249319
124	0xbb95dc61	-0.0045733904
125	0xbde1eae5	-0.11031131
126	0xbda84dd3	-0.08217969
127	0x3db0a004	0.086242706
128	0xbcd13bd5	-0.025541225
129	0x3da75d8f	0.08172142
130	0x3d24e23b	0.040254813
131	0x3e2c2ff9	0.16815175
132	0x3b2169d7	0.0024629736
133	0x3c0ac4c7	0.008469767
134	0x3e36fdec	0.17870301
135	0x3e253676	0.16134056
136	0x3e476902	0.19473651
137	0x3d827f05	0.06371883
138	0x3e0f35d6	0.1398538
139	0x3dee1a14	0.11626068
140	0x3dfac7ad	0.122451164
141	0xbba6e677	-0.0050933915
142	0x3d0cd2ff	0.03438091
143	0xbca586c3	-0.020205861
144	0xbe2721ed	-0.16321535
145	0xbd2ba261	-0.041902903
146	0x3dd5c4c7	0.10437923
147	0x3ec01dd8	0.3752277
148	0xbe08d3f8	-0.1336211
149	0xbe612ca1	-0.21989681
150	0xbd24f201	-0.040269855
151	0x3da12a4a	0.07869394
152	0x3d2c8c98	0.04212627
153	0xbd23d5a1	-0.039998654
154	0xbd0370a7	-0.032089856
155	0x3d0bc154	0.03411992
156	0x3e81ea2f	0.2537398
157	0xbe473dfe	-0.19457242
158	0x3d2940ec	0.04132168
159	0xbb3b9b0c	-0.002862635
160	0xbd4eb32d	-0.050463844
161	0x3decb4e2	0.11557938
162	0x3c432602	0.011910917
163	0xbc84976d	-0.016185487
164	0x3e30b2ab	0.17255656
165	0x3e8d1083	0.2755166
166	0x3d047944	0.03234221
167	0xbcda5dcb	-0.026656052
168	0xbdcc00f2	-0.09961118
169	0xbd8658ed	-0.0655993
170	0x3d47a911	0.04874522
171	0x3c7781a6	0.015106594
172	0x3e281dc8	0.1641761
173	0x3d48f828	0.049064785
174	0xbca17bae	-0.019712295
175	0x3dbb1117	0.09134119
176	0x3e4a8cf2	0.19780329
177	0xbd6ae16f	-0.057343896
178	0x3dc14cb8	0.09438461
179	0x3dda4a0c	0.106586546
180	0x3c039a30	0.008032367
181	0x3e709742	0.234952
182	0x3c6a0383	0.014283064
183	0xbd225932	-0.039635845
184	0xbbe9de7a	-0.007137117
185	0x3dd801ac	0.10547194
186	0xbb3d53cd	-0.002888906
187	0x3dd47e9f	0.103757136
188	0xbd941b1e	-0.07231735
189	0x3e98fd1d	0.2988061
190	0xbd59148a	-0.052998103
191	0x3da2eff2	0.07955922
192	0xbb16427d	-0.0022927814
193	0xbe946d3b	-0.28989586
194	0x3e049367	0.12946855
195	0xbe23be58	-0.15990579
196	0xbecf6ba5	-0.40511814
197	0x3dd2c846	0.102921054
198	0xbda5e7cc	-0.08100852
199	0x3d6e1573	0.058125924
200	0xbe1d0c4a	-0.15336719
201	0x3dee3b74	0.116324335
202	0x3e1dbb41	0.15403463
203	0xba249d3b	-0.00062795327
204	0x3c0f0646	0.008729523
205	0xbe35f423	-0.17768912
206	0x3ce6b8fb	0.028164377
207	0x3d2d7def	0.042356428
208	0xbf0cb62e	-0.54965484
209	0x3d2a4f69	0.041579638
210	0x3dc01791	0.09379495
211	0xbd9ec2c4	-0.07751992
212	0x3d91b400	0.071144104
213	0x3d22b454	0.039722756
214	0x3e4239f4	0.1896742
215	0x3e0d7102	0.1381264
216	0x3d03baae	0.032160453
217	0xbc93cb47	-0.018041266
218	0x3c347e6f	0.011016472
219	0x3e296a66	0.16544494
220	0x3c842c34	0.016134359
221	0xbde54577	-0.1119489
222	0x3e2fc6d7	0.17165695
223	0x3d9d0a1a	0.07667942
224	0xbc878677	-0.01654361
225	0x3cac6f45	0.021049151
226	0xbdfa1271	-0.12210549
227	0xbdae5fbd	-0.085143544
228	0x3cf90416	0.030397456
229	0x3cccb020	0.024986327
230	0x3ea63a23	0.3246623
231	0x3e249c9a	0.16075364
232	0x3d91949b	0.07108422
233	0x3da22341	0.079168804
234	0x3dc17476	0.09446041
235	0x3c591128	0.013248719
236	0x3dce6877	0.10078519
237	0xbdfabc63	-0.12242963
238	0x3e3128e8	0.17300761
239	0x3e7c5250	0.24640775
240	0x3db6bce5	0.089227475
241	0x3d81abdc	0.06331608
242	0xbd8698f6	-0.06572144
243	0x3ddfc585	0.10926346
244	0x3902bb27	0.00012467486
245	0xbcd0585f	-0.025432764
246	0x3e9b6fce	0.30358738
247	0xbc54e515	-0.012994071
248	0x3d639dd3	0.055570435
249	0xbcadb0ae	-0.021202412
250	0xbdade0a5	-0.08490113
251	0x3d1066dc	0.035254344
252	0x3dc70849	0.09718377
253	0xbdac13b2	-0.08402194
254	0x3bf7f2dc	0.007566793
255	0x3d6ff712	0.058585234

allocation_head.0.bias f4 [12]
0	0xbe64a84e	-0.22329828
1	0xbdc08646	-0.094006106
2	0xbe57e283	-0.21082501
3	0x3eab59c5	0.33466926
4	0x3eefdb93	0.4684721
5	0x3eaae19c	0.3337525
6	0xbda2dad1	-0.07951892
7	0xbe26d9ce	-0.16294023
8	0xbe252698	-0.16128004
9	0x3c156feb	0.009120922
10	0xbd88bb99	-0.066764064
11	0xbe014607	-0.1262437

payment_head.0.weight f4 [3, 128]
0	0x3f280bba	0.65642893
1	0x3f123db4	0.571254
2	0x3ca3f76b	0.020015439
3	0x3e991ea9	0.29906204
4	0x3e167e33	0.14696579
5	0x3eb13884	0.3461343
6	0x3e61d801	0.22055055
7	0x3f0d48b8	0.55189085
8	0x3e9f5b31	0.3112426
9	0x3dffe4fa	0.12494846
10	0x3f63c4a8	0.8897195
11	0xbc673b80	-0.014113307
12	0x400781d1	2.1172984
13	0x3c8d09c0	0.017216563
14	0x3e9e5307	0.3092272
15	0x3ebb70f8	0.36609626
16	0x3f302788	0.6881032
17	0xbd4d6c92	-0.05015237
18	0x3f8edd30	1.1161251
19	0x3fab9f92	1.3408072
20	0x3e296923	0.16544013
21	0x3ee1b624	0.44084275
22	0x3f1448b3	0.5792343
23	0x3c5b11bd	0.013370928
24	0x3e015a6f	0.12632154
25	0x3e1cb3d4	0.15302974
26	0x3e653fa3	0.22387557
27	0x3e058d5a	0.13042203
28	0x3eb287b9	0.34869173
29	0x3d99d093	0.075104855
30	0x3d8d2c67	0.06893235
31	0x3e79fc28	0.24412596
32	0x3e85bd84	0.2612115
33	0x3f18ce01	0.59689337
34	0x3e99d27f	0.30043408
35	0x3dccd442	0.100014225
36	0x3ea45b41	0.3210087
37	0x3e4e56fd	0.20150371
38	0x3e25967f	0.16170691
39	0x3dc18e97	0.09451025
40	0x3f1f34f3	0.6219017
41	0x3d219ffa	0.039459206
42	0x3d2aa47a	0.041660763
43	0x3dabd7a7	0.08390742
44	0x3ec2febf	0.3808498
45	0x3e600489	0.2187673
46	0x3e179788	0.14803898
47	0x3ea7b454	0.32754767
48	0x3e6bac47	0.23014937
49	0x3e402314	0.18763381
50	0x3edb54e7	0.42838213
51	0x3ec120f6	0.3772046
52	0x3ec4064d	0.38286057
53	0x3e080c1c	0.1328587
54	0x3d3f85ce	0.046758465
55	0x3eb0bef9	0.345207
56	0x3ec60deb	0.38682494
57	0x3efe763c	0.4969958
58	0x3e131b4a	0.14365879
59	0x3f44f0da	0.7693001
60	0x3e7d95d1	0.24764182
61	0x3ee6dfd6	0.45092648
62	0x3ea676ae	0.3251242
63	0x3e9dffa8	0.30859113
64	0x3cd807f5	0.026370982
65	0x3f402247	0.75052303
66	0x3e2ba65d	0.16762681
67	0x3f3be1c6	0.7339138
68	0x3ddd0e8f	0.107937925
69	0x3ecb48c2	0.39703947
70	0x3e96ebd7	0.29476807
71	0x3d74a9d4	0.059732273
72	0x3ee332f3	0.4437481
73	0xbc85151e	-0.016245421
74	0x3e88107a	0.2657507
75	0x3e1131d7	0.14179169
76	0x3e012b89	0.12614264
77	0x3e562f4f	0.20916484
78	0x3ba80db3	0.005128586
79	0x3ec658c5	0.387396
80	0x3eea6bc5	0.45785347
81	0x3ec6af19	0.38805464
82	0x3e540ae7	0.20707284
83	0x3d47e228	0.048799664
84	0x3dfc10ca	0.1230789
85	0x3d73b6f6	0.059500657
86	0x3f6f64a8	0.93512964
87	0xbc0b14a1	-0.008488805
88	0x3d4a7ab6	0.049433433
89	0x3d906e28	0.07052261
90	0x3ebb79c2	0.3661633
91	0x3e823cbc	0.25436962
92	0x3f042ca4	0.51630616
93	0x3e32e542	0.17470267
94	0x3e30be87	0.1726018
95	0xbdae2eac	-0.08504996
96	0x3e066ad3	0.13126688
97	0x3ea8555e	0.3287763
98	0x3c7881cb	0.015167664
99	0x3db83918	0.08995265
100	0x3cdcea64	0.026967235
101	0x3e07f041	0.13275243
102	0x3f83aca0	1.0287056
103	0x3eb7a6dd	0.35869494
104	0xbb549b86	-0.0032441332
105	0xbd6e760a	-0.05821804
106	0x3eabf4a6	0.3358509
107	0x3e5fe765	0.21865614
108	0x3bebc7b0	0.0071954355
109	0x3c7ca40b	0.01541997
110	0x3e72214c	0.23645514
111	0xbe16f756	-0.14742789
112	0xbc8ebd0e	-0.017424133
113	0x3e51b5fe	0.20479581
114	0x3ca07ea0	0.01959163
115	0x3deab92a	0.114610985
116	0x3c4bfd08	0.012450464
117	0x3dd25b06	0.102712676
118	0x3e5db7a7	0.21652089
119	0x3e141b34	0.14463502
120	0x3eb2d04f	0.34924552
121	0x3f153771	0.5828772
122	0x3f273375	0.6531289
123	0x3ec311a7	0.38099405
124	0xbcc74daa	-0.024329025
125	0x3d43ea28	0.04783073
126	0x3dab4211	0.083622105
127	0x3e2b6782	0.16738704
128	0xbe7a5879	-0.24447812
129	0x3e033384	0.1281262
130	0xbca6cdd9	-0.020361828
131	0x3c07c5db	0.0082869185
132	0xbcb47780	-0.022029638
133	0xbe03e185	-0.12878998
134	0x3d545ce2	0.051846392
135	0x3e0076b4	0.12545282
136	0x3d7851f1	0.06062502
137	0x3e394e7e	0.18096349
138	0x3e79020c	0.24317187
139	0x3dd7466f	0.10511481
140	0x3fa27c14	1.2694116
141	0x3d2abc12	0.041683264
142	0xbdd4d496	-0.1039211
143	0x3f010365	0.50395805
144	0xbe8c705a	-0.27429467
145	0xbd4acc90	-0.049511492
146	0x3e833068	0.2562287
147	0xbf1aa060	-0.6040096
148	0x3da03e59	0.07824392
149	0x3e685fb2	0.22692755
150	0x3ed10176	0.40821427
151	0xbe6c8ffd	-0.23101802
152	0x3d9ef549	0.07761628
153	0x3eed0b02	0.4629746
154	0x3ee7525a	0.45180017
155	0xbf24588b	-0.64197606
156	0xbb87bc5a	-0.0041423263
157	0xbe14649a	-0.14491501
158	0x3dc4baad	0.09605918
159	0xbeb67820	-0.35638523
160	0x3eddabc3	0.43295106
161	0x3e330f75	0.17486365
162	0x3eb5d3ea	0.3551324
163	0x3da3ec4d	0.08004055
164	0xbe24a682	-0.16079143
165	0xbd2c0508	-0.041996986
166	0xbd2bb67b	-0.041922074
167	0x3d9c0fc7	0.07620197
168	0xbe2fce38	-0.1716851
169	0xbc53d904	-0.0129301585
170	0x3d91d371	0.071204074
171	0xbca6a040	-0.020340085
172	0x3c7e328f	0.015514984
173	0xbe95ba4c	-0.29243696
174	0x3d15119c	0.036393747
175	0x3c9154da	0.017740656
176	0x3d628467	0.05530205
177	0xbdfe8955	-0.12428538
178	0x3eba60c2	0.36401945
179	0x3d974643	0.07386448
180	0xbe2a4c67	-0.16630708
181	0xbdc22fd2	-0.09481777
182	0x3c6361f8	0.013878338
183	0x3f0344a9	0.5127664
184	0x3ee0d40d	0.43911782
185	0x3d9c5fd9	0.07635469
186	0x3e0ec29d	0.13941427
187	0x3e5f006d	0.21777506
188	0x3e806aaf	0.25081393
189	0x3d5a22f5	0.053255994
190	0x3ed3d74f	0.41375205
191	0xbf154daf	-0.5832166
192	0xbb97ff5a	-0.0046385946
193	0x3de56c92	0.11202349
194	0x3cc1fd6b	0.02368041
195	0xbec60e9c	-0.3868302
196	0xbd11e192	-0.03561551
197	0x3e82fa37	0.25581524
198	0x3e98f930	0.29877615
199	0x3c8a789f	0.01690322
200	0x3f4c8419	0.79889065
201	0x3c6e0627	0.014527834
202	0xbcb5181e	-0.022106227
203	0x3e01d458	0.12678659
204	0x3e0011bc	0.12506765
205	0xbeb57cd0	-0.35446787
206	0x3d62ebba	0.055400588
207	0x3e6b4d90	0.22978806
208	0xbf92402b	-1.1425833
209	0x3e902053	0.2814966
210	0x3e0a1524	0.13484627
211	0x3de017f0	0.10942066
212	0x3c84dd36	0.016218763
213	0x3d95cd4c	0.07314548
214	0xbea4a89f	-0.32159898
215	0x3d04f551	0.032460514
216	0x3e244c62	0.16044763
217	0xbd31bce5	-0.043393034
218	0x3e989afc	0.29805744
219	0x3e17216f	0.14758848
220	0x3ea239e4	0.31684792
221	0x3ecee7ef	0.40411326
222	0xbd4a1957	-0.049340572
223	0xbcfdea4a	-0.030995507
224	0x3d049b84	0.032374874
225	0x3f2313ed	0.6370228
226	0x3ca74c4a	0.02042212
227	0x3e09cf93	0.1345809
228	0x3c25f1b9	0.010128432
229	0x3e410124	0.18848091
230	0x3d2185e3	0.039434325
231	0x3e83e1c0	0.2575817
232	0x3e141305	0.1446038
233	0x3c67c9e0	0.014147252
234	0xbf04af24	-0.51829743
235	0xbf81bbdc	-1.0135455
236	0x3d4c8f02	0.04994107
237	0xbde072bd	-0.109593846
238	0xbd8711da	-0.06595202
239	0xbec45680	-0.38347244
240	0xbcccd6fa	-0.025004853
241	0x3e4a6d84	0.1976834
242	0xbd3824ef	-0.044957098
243	0x3e05e248	0.130746
244	0x3de5d638	0.112224996
245	0x3dd9e062	0.10638501
246	0xbda23b5d	-0.07921479
247	0x3d150666	0.036383055
248	0xbe69c404	-0.2282868
249	0xbed7ac14	-0.42123473
250	0xbe8a12f2	-0.2696758
251	0x3e96140f	0.29312178
252	0x3dbad332	0.091223136
253	0x3cecb96c	0.02889701
254	0xbb86252f	-0.004093788
255	0x3d880b4c	0.0664278

payment_head.0.bias f4 [3]
0	0x3f48c08d	0.7841881
1	0xbdf3459d	-0.11878512
2	0x3f5d5182	0.86452496
