model/3x3_sparsemax_in_linsigpmt_scratch_fast.pt (torch_old, 148061 bytes, 10 tensors)

nn_model.0.weight f4 [128, 9]
00000000: bb7d f3be 99da a6be 33d9 aabe 4822 53bf
00000010: 1945 54bf c62a 4dbf ddef ebbe c998 37bf
00000020: 41cb 1cbf d112 d0bd d4b2 c0bd 221c 09be
00000030: d1cd 1e3f c26c 30be 6deb 8cbe 29b5 35be
00000040: 99da a3bd 1835 023f 2cdf 41bb 0a39 053c
00000050: 36b2 813b 7914 bebc 1042 45bc f5f0 d0bd
00000060: 76f8 41bc 3efa 1c3a aecd 763f a9ea 31bf
00000070: 66e1 69be 7973 17bf 79dc 1cbf 07c4 2ebf
00000080: 856a 1ebf 57b9 36bf ec8e 27bf 91f8 3fbf
00000090: 9309 953b 4564 e43b ced5 adbb f49b ccbd
000000a0: fc5d 973d e6aa 7f3d 28da 703f 0cd0 3fbd
000000b0: 9aee 0bbd fef6 93be 10ee 4cbe b72d 84be
000000c0: 6940 413e ee94 a83e 5a91 963e f5f4 0bbe
000000d0: 3085 13be b429 3abe fa9a 833f 399a 2e3d
000000e0: 3f02 073d fda0 233c 8cc9 25bc 1c23 27bc
000000f0: d78c aabc ea41 40bc c325 50bc 081f 87bd
00000100: 1602 0bbd 3949 513f e2e5 92bd b7cd 4abe
00000110: 8854 76bd c04b b8bd 8efa 8ebd fb4c c03b
00000120: 14f3 afbd 804c 14be 06f9 323f 27df c7bd
00000130: 55c1 ffbd 0b4c 09be 223a 31bd 5387 b6bb
00000140: efa5 1dbd 36b1 08bf ef3a 92be 360c 35bf
00000150: f187 33bf a04d 40bf 5849 2fbf 9006 f4be
00000160: 70a1 1ebf 4807 d0be f827 8abc 13e5 4fbb
00000170: a316 153b 2577 143d b577 933c dc31 793c
00000180: eb8e 6f3f c991 6f3b 9a6d b33c d9a5 29bb
00000190: 0390 28ba 942d 4abc 3e8b 8bbc 9369 61bc
000001a0: 27d7 093c 4885 c53b 2d76 723c 74fc 673f
000001b0: 61ce 473e 023f d63e 2368 0c3e 0a09 eebd
000001c0: 71ca 9dbe f1b4 18be 93a6 6ebe fe75 96be
000001d0: 8a6a 5dbe 5d42 f5bd e160 86bd a8bb debd
000001e0: c728 e0bd 1f07 20be dffc 1d3f b6a8 d7bd
000001f0: 3104 b7bd fc06 d4bd 89ba 19be b9f1 4dbd
00000200: 76bf 0abe 6d4a b4bd eef2 203f 2d6c 89bd
00000210: cd86 35be 6aff 6fbe c166 48be f49f 7dbe
00000220: c9b0 18be d8b1 5bbe 0bbe 1b3f 6227 b4be
00000230: e3be 88be 0a58 9cbe 6a4f 62be 085b 8dbe
00000240: 49e3 9abd 2172 48bd f501 27bd 6ecf b3bd
00000250: 3831 febd 48ce 2abe 3ad3 983c 0ccf 913d
00000260: 33fc 3c3f 8a33 923d 5ece 43bc a583 e53b
00000270: dc20 40be bfa2 9d3e 9cbd 3a3c 3dbd 61bd
00000280: 12ea aebe 75f1 093d 6c06 94bb d460 f33b
00000290: ff5e 823f d6d3 9f3d 0ce4 2f3d d6f3 2fbe
000002a0: d6d0 523c 8216 2e3a 3ef4 013d df24 b3bd
000002b0: 826e 0fbd 8ec5 5dbd c600 45be 9c53 1ebe
000002c0: 387c acbd b0b5 b6bd 1757 753f 8eec 1fbb
000002d0: cb6a 3bbd f4e2 c63d c69c 9bbc dd2f 963e
000002e0: f635 97bd c5ea 1dbe 6e85 10bc 5785 a0bd
000002f0: 5392 b53d d9d5 fc3c 29b8 603d 2857 933d
00000300: 917d 6dbe cec8 8abe d576 86be 7b69 873b
00000310: 1f57 fa3c 7d29 203d 683f 3ebc 1ece 9f3c
00000320: 3080 e03c e766 5fbe c81c 3dbe c428 11be
00000330: b8bb 47bc 944b 4e3c 9585 8bbc a955 3ebf
00000340: 7153 30bf f5d6 23bf b2d7 fdbe 9490 d4be
00000350: 44a3 10bf 9a66 45bf 568d 09bf 2318 77be
00000360: 096c f83c cf4a 8b3f 63ef 0e3d 79cc 9bba
00000370: 7b9e 893c 2f48 d6bb 77f5 fcbb 72f5 6bbd
00000380: 15b3 aabc 1749 bbbd 79d1 ecbe d633 64bf
00000390: dba3 9abe a0c7 92bf 4bcd 3fbf 6c2b 75be
000003a0: ff54 f9be de22 08bf 23fc 7d3b 644e 4dbc
000003b0: c40a 27bc 5a8e 41be 221a 14be a9a0 6abe
000003c0: 1571 463d ad80 603f 0863 013e 97f4 07bb
000003d0: 9524 43bd 5c03 3dbc 2cef 93bc 0244 9c3c
000003e0: ce46 50bc add9 943c d965 853f b356 0a3d
000003f0: dfba c5be 1e78 afbe 2a4a 20bf b880 35bf
-0.47556862 -0.32588652 -0.33368835 -0.82474184 -0.82917935 -0.8014339 -0.4608144 -0.71717507
-0.6124764 -0.10159839 -0.09409109 -0.13389638 0.620328 -0.17228988 -0.27523366 -0.17744888
-0.080006786 0.50862265 -0.0029582484 0.008131275 0.003958012 -0.023203121 -0.012039676 -0.10202209
-0.011839023 0.0005988217 0.9640759 -0.6949869 -0.22839889 -0.5916057 -0.61273915 -0.68267864
-0.61881286 -0.71376556 -0.65452456 -0.7498866 0.0045482605 0.006969961 -0.0053050285 -0.09990683
0.07390973 0.06241884 0.9408288 -0.04682927 -0.034163095 -0.28899378 -0.20012689 -0.25816128
0.18872227 0.32926124 0.2940777 -0.13667662 -0.14406276 -0.18179971 1.028167 0.042627547
0.032961126 0.009987113 -0.010118853 -0.010201242 -0.02081911 -0.011734465 -0.012704316 -0.065977156
-0.033937536 0.81752354 -0.07172753 -0.19805036 -0.06013921 -0.08998823 -0.06981383 0.005868552
-0.08591285 -0.14482307 0.6991123 -0.0975936 -0.12488047 -0.13407914 -0.04326833 -0.005570331
-0.038488325 -0.533954 -0.28560588 -0.7072176 -0.70129305 -0.75118446 -0.6847129 -0.47661257
-0.61965084 -0.40630555 -0.016864762 -0.0031722232 0.0022749088 0.036246438 0.018001417 0.015209641
0.9357745 0.00365554 0.021902848 -0.0025886206 -0.0006430151 -0.012339968 -0.01703417 -0.013758081
0.008413113 0.0060278513 0.014798683 0.9061959 0.19512321 0.41844946 0.137116 -0.11622818
-0.30818513 -0.14912774 -0.2330573 -0.29386896 -0.21622673 -0.119755484 -0.06561447 -0.10875636
-0.10945278 -0.15627716 0.61713976 -0.10530226 -0.08936346 -0.10352895 -0.15012564 -0.050279353
-0.13549599 -0.08803258 0.6287068 -0.06710086 -0.17727204 -0.23437276 -0.19570448 -0.24768049
-0.14911188 -0.21454561 0.6083686 -0.35186297 -0.26708135 -0.30535918 -0.22100607 -0.27608514
-0.075628825 -0.048936967 -0.04077335 -0.087797984 -0.124117315 -0.16680253 0.018655408 0.07119569
0.73822325 0.071387365 -0.011951057 0.0070042186 -0.18762535 0.30788228 0.011397745 -0.055112112
-0.34162956 0.033677537 -0.004517367 0.0074273143 1.018524 0.078040764 0.04294209 -0.1718286
0.012867173 0.0006640927 0.031727068 -0.08747267 -0.035017498 -0.05414348 -0.19238576 -0.15461582
-0.0842213 -0.08921373 0.95836014 -0.0024402472 -0.045756143 0.097112566 -0.018995654 0.29333392
-0.07383339 -0.15421589 -0.008820875 -0.078379326 0.088658 0.03086369 0.05486313 0.07194358
-0.23192431 -0.27106327 -0.26262537 0.0041324473 0.03055912 0.039102066 -0.011611797 0.019507464
0.027404875 -0.21816598 -0.1846801 -0.14175707 -0.012190752 0.012591261 -0.01703147 -0.7434946
-0.6887732 -0.63999873 -0.49578625 -0.41516554 -0.56499124 -0.7710968 -0.53731287 -0.24130301
0.030324953 1.0882205 0.034896266 -0.0011886499 0.016799202 -0.0065393667 -0.0077196914 -0.05760712
-0.020837346 -0.091448 -0.46253565 -0.89141595 -0.30203137 -1.1467171 -0.7492263 -0.23942345
-0.4869766 -0.53178203 0.0038755022 -0.012530897 -0.010195438 -0.18901959 -0.14463094 -0.2291285
0.048447687 0.87696344 0.12635434 -0.0020745152 -0.04764231 -0.0115364455 -0.018058382 0.019075397
-0.012712194 0.018170202 1.0421706 0.03377409 -0.38619134 -0.3427133 -0.62613165 -0.70899534

nn_model.0.bias f4 [128]
00000000: c96f 3ebf 5f2a 99bf f5e1 55bf bd12 3cbf
00000010: 84ce 5abf 0a4d d8be a8f2 77bf 12ad 38bf
00000020: 6d7f 3dbf f41d 4dbf b230 6abf 07e9 55bf
00000030: 943f ebbe c071 42bf 260d 58bf 162d 65bf
00000040: 5a8a 49bf f8d1 fc3e 32d0 6dbf 4df6 66bf
00000050: 6c5c 703e 07b4 163f 9824 043f 1684 53bf
00000060: b980 71bf b130 31bf 26c7 1fbf e60d 69bf
00000070: 265b 61bf c293 58bf b5f6 64bf 76d4 37bf
00000080: 145e 47bf a195 2f3f f60e 52bf e24d 8cbf
00000090: 3307 40bf 6423 2e3f ba4e 62bf e7a2 6abf
000000a0: fd66 4fbf b345 113f 8e71 5ebf 2fd8 31bf
000000b0: 37a7 02bf ed82 40bf d323 74bf 29b2 3cbf
000000c0: 45d1 ef3e 5431 52bf fff2 0abf af51 5cbf
000000d0: 7715 60bf 5f4e 4dbf 1d5c 423f 8a6c 9a3e
000000e0: fca9 963e 42bc 48bf 3b0f a4bf e08c 5bbf
000000f0: d5d5 a33d c74e 6abf 1fd4 8abf 81d1 5bbf
00000100: f5d8 f93d 512c 6fbf e62f 38bf 7b40 29bf
00000110: 249c 6ebf ab41 e3be df2a 3cbf 7222 2ebf
00000120: 84a3 67bf 2c4d aa3e 71f4 38bf c81d 4abf
00000130: 52e8 72bf bd55 48bf 68d6 2cbf eb2b 57bf
00000140: 1898 a8bd 92c1 3bbf 4e14 0e3f 7dc5 59bf
00000150: a765 2fbf 1e4b 373e 8dec 4dbf 7895 2abf
00000160: ae87 55bf 24a2 3cbe 386d 49bf 46ca 81bf
00000170: 80f3 41bf 6e3f 2cbf ea4e 3abf 168c 1ebf
00000180: a8b8 c33e 56d8 29bf a98f df3e ff61 36bf
00000190: 8cbc bbbe 08e8 4abf 132d 46bf 1e41 023f
000001a0: a693 69bf 4870 753e 362e fd3e 702a 0cbf
000001b0: 5e4b db3e 626e 4cbf cde4 62bf 6def 39bf
000001c0: 8a73 46bf a704 74bf f578 5bbf 9cea 28bf
000001d0: 3fbc 82bf 05fb 4abf f686 8ebe 079f 26bf
000001e0: 9891 5ebf 02bd 53bf ba66 ce3e fda3 a9be
000001f0: 18a7 193f e501 34bf 42a2 75bf a017 30bf
-0.7438932 -1.1966056 -0.8354791 -0.7346609 -0.8547137 -0.42246276 -0.9685464 -0.72139084
-0.7402256 -0.8012383 -0.91480553 -0.83558697 -0.45946944 -0.7595482 -0.8439506 -0.8952192
-0.7872673 0.49378943 -0.92895806 -0.90219575 0.23472756 0.5886845 0.5161834 -0.8262342
-0.9433704 -0.6921492 -0.6241325 -0.9103683 -0.88029706 -0.8460046 -0.89438945 -0.71808565
-0.77877927 0.6858769 -0.8205408 -1.0961268 -0.75010985 0.6802275 -0.8840138 -0.9165482
-0.8101652 0.5674698 -0.8689202 -0.69470495 -0.510364 -0.75199777 -0.95367163 -0.7370935
0.46839347 -0.8210652 -0.5427703 -0.8606214 -0.8753275 -0.8019771 0.75921804 0.30160934
0.29426563 -0.7841226 -1.2817148 -0.85761833 0.079997696 -0.91526455 -1.0845984 -0.8586655
0.121995844 -0.93426996 -0.7194809 -0.66114014 -0.93207 -0.44386038 -0.73502916 -0.6802131
-0.9048388 0.33262002 -0.7224799 -0.7895169 -0.9488574 -0.78255826 -0.6751466 -0.8405139
-0.082321346 -0.7334224 0.5549973 -0.8506697 -0.68514484 0.17899749 -0.8043907 -0.6663432
-0.83410156 -0.18421227 -0.7868228 -1.0139854 -0.75762177 -0.67284286 -0.72776663 -0.61932504
0.3822682 -0.6634573 0.43664292 -0.7124328 -0.36667287 -0.792603 -0.7741253 0.5088061
-0.9124092 0.23968613 0.4944932 -0.54752254 0.42830938 -0.7985593 -0.8863037 -0.7263096
-0.7752005 -0.953196 -0.8573144 -0.65982985 -1.0213698 -0.79289275 -0.27837342 -0.65086406
-0.8694091 -0.8271028 0.4031275 -0.33132926 0.6002059 -0.7031539 -0.9595071 -0.6878605

nn_model.2.weight f4 [128, 128]
00000000: 36c5 dcbc 5df0 d4bb ec4b c8bf 54a8 4b3d
00000010: 7c4f 65be fddd 94be 80e7 8d3f dc66 9cbe
00000020: feec 7a3c 9b65 96bd d8d7 873f 3775 1f3d
00000030: cfc0 cebd 21c4 92be 913b ccbd 3779 96be
00000040: 4e61 0dbf 7d61 87bd 1e65 40bf 81c6 fbbe
00000050: 8f37 6fbd b090 c83e 63b7 f73e 9a7a 1d3d
00000060: 0fbd de3f 546b 933d ec19 b7be 7ea8 a93f
00000070: d616 bc3b 70e2 0fbf 4a10 81bf e1d3 5abf
00000080: f562 30bf b90c 17be a256 5e3d 812d f8bd
00000090: 1887 7cbf 270d 3c3e e53e 18be 839c 84bf
000000a0: 8558 29bf 231f c33e ade9 9f3f ea8d 29be
000000b0: bfb8 043e eb6c 10bc 30fc f2bc aa7b 263e
000000c0: 0f22 cd3e 84b4 bcbe 529f 81bc cf03 a63f
000000d0: 5d62 b53f 5c99 f8bd a3e0 0fbf 4c6e 18be
000000e0: b4f7 fd3e e0fd d13c f6ed 68be 9da6 89be
000000f0: dd70 d0bd 9fcd 16bd d926 4fbe 7415 073f
00000100: ffa8 f6bd 27d5 edbb 9946 30bf e40a 25bd
00000110: 3e73 25bf 8ee3 d4be c37d 2c3e 74dd 87bd
00000120: f60d 00bf f8df 7fbe f13f 48bd b6ac b63d
00000130: 2b3a a83f 62c7 96bf 8d0d 43be ecc2 c23e
00000140: f1c3 24be d9d2 e3bd 4e3b 6a3e a641 0f3f
00000150: d29f b2be 895b 0ebd 3597 0fba c569 08bf
00000160: 1fb8 a8bd 3e72 67bd 49d4 89bf 280b a9be
00000170: 481b 9bbd 18e6 5bbe e1b2 91be 76ce 47be
00000180: caf0 f03e 8b16 093d e7d0 84be c795 48bf
00000190: 5b07 05be cf5a e7bc 2c6d 3d3f 39b2 e03e
000001a0: 3955 b4bd 812a 853b ba1e fa3d a1b7 ccbd
000001b0: 103c 143f a86d c73e 6772 61bf 2fd3 8cbe
000001c0: 955c cebd 8dbe d8be ea04 08bf 7470 dfbe
000001d0: 4bdf c3bf 4770 83be fe9b 4fbe 29e2 12bf
000001e0: b268 923d e784 c73d 12df 573e be7c b9be
000001f0: dc12 3f3e 1956 89bd 2f62 96be a391 793e
00000200: fc6c 73bd ef88 4bbe 04e2 05be bf5b 4d3c
00000210: e7d4 e2bd c4de 84be 5e4a debd 08e5 a3bd
00000220: a982 d7bd e2ef 1cbd e431 debd a0e8 aebd
00000230: 461b eabd 22cc e5bd ce47 06be f38e 48be
00000240: 49d5 f8bd aa6f 7dbf 1208 5bbe c644 95bd
00000250: 9d28 2dbf 3fd4 43be d563 f7bd 0af8 97bc
00000260: 5110 86be 8a92 53bd c5d1 5bbe e5d5 d3bd
00000270: 64f4 14bd ce25 f0bd f84e 95be 5086 14be
00000280: 3636 0dbe a100 49be 519b b33d 4bb1 27be
00000290: 3882 a5bd 117a f6bd 1e49 a23c 7baf eabd
000002a0: 6f3b 89be 361c 55be 74cf d2bd a5da b9bd
000002b0: 6e1e 64bd 49a6 cebd 4f74 9f3b 834a c1be
000002c0: 9af7 90be 603d 7dbe 2850 9cbd 5842 abbd
000002d0: 6ed1 c5bd c962 69bd 4716 aabe bd04 6ebe
000002e0: 3d61 18be 58c6 6cbd 8faf f0bd 3802 8cbe
000002f0: 6b34 c5be 74bc 503b d488 ccbd 5d31 bdbd
00000300: c13e cfbd 37f8 65bc f4f3 04be 853b a33d
00000310: 9cc2 b5bd ef62 8bbe 8176 7bbd 677c ba3b
00000320: 83a8 c7bd e349 ebbd e625 60bd 38db 9cbd
00000330: 46fd 14be 2713 60be f8fb 97be ffd6 06be
00000340: 1567 96be e3fc a5bd 02dd f7bd de8c 39be
00000350: 8364 a2bd 52b4 0dbe 7af5 883c 7677 7bbe
00000360: 0d33 0e3d 8460 f6be 0fc1 bbbd 9931 9cbd
00000370: 4ff2 13be 8b3e bdbd 0d60 61be e748 0cbf
00000380: 2640 17bf d83e 23be aaa5 a7bd c2e0 17be
00000390: 6b3b d9bb 7641 013c bf20 b5bd 50fa d8be
000003a0: a8e7 96bc a280 6bbe fb05 bebd 1638 78be
000003b0: cfde ccbe 1f5f d6bd 354c ebbd c0d7 eebd
000003c0: 8ee5 56bd 573c ffbd 1b94 4dbe 4efd 2bbe
000003d0: 1738 77be 673d 30be e948 19bf 207e 95bd
000003e0: 2814 63be e050 7bbe 7966 22be e638 97be
000003f0: fb39 76be 58eb b1bd 030a ebbd ea99 1bbe
-0.026949506 -0.00649838 -1.564817 0.049721077 -0.22393602 -0.29075614 1.1086273 -0.30547225
0.015315292 -0.073435985 1.0612745 0.038930144 -0.10095369 -0.2866526 -0.09972299 -0.29389355
-0.552266 -0.06610391 -0.7515429 -0.49174884 -0.058402594 0.39172888 0.483821 0.038447
1.7401446 0.071982056 -0.35761964 1.3254545 0.005740027 -0.5620489 -1.0083096 -0.8547955
-0.68900996 -0.14750947 0.05428184 -0.12118054 -0.98643637 0.18364392 -0.14867742 -1.0360264
-0.66150695 0.38109693 1.2493187 -0.16558042 0.129611 -0.008815031 -0.029661268 0.16258112
0.40065047 -0.36856472 -0.01582304 1.2969912 1.4170643 -0.12138626 -0.56202143 -0.14885825
0.49603045 0.025633752 -0.22747025 -0.26884928 -0.10177777 -0.03681719 -0.20229663 0.5276711
-0.12043952 -0.0072580758 -0.68857723 -0.04029359 -0.6462897 -0.4157986 0.1684485 -0.06634036
-0.500213 -0.24987781 -0.048889104 0.08919661 1.3142751 -1.1779597 -0.19048138 0.3803934
-0.1609037 -0.111242004 0.22874185 0.55959547 -0.34887558 -0.034755263 -0.00054775487 -0.5328639
-0.08238243 -0.056505434 -1.0767909 -0.33016324 -0.07573563 -0.21474493 -0.28456786 -0.19512352
0.47058707 0.033468764 -0.2594063 -0.7835354 -0.12991087 -0.028241543 0.7399471 0.43885973
-0.088053174 0.0040639048 0.12212892 -0.09995962 0.5790415 0.3895085 -0.8806519 -0.2750487
-0.10076252 -0.4233288 -0.531325 -0.43640482 -1.5302519 -0.25671598 -0.2027435 -0.57376343
0.07148875 0.09742146 0.21081188 -0.36227983 0.18659538 -0.06705875 -0.29371783 0.24371962
-0.059430107 -0.19876455 -0.130745 0.012534081 -0.11075764 -0.25951207 -0.10854028 -0.080026686
-0.10522968 -0.038314708 -0.1084936 -0.085404634 -0.11430983 -0.11220576 -0.13113329 -0.19585781
-0.12150056 -0.9899851 -0.21389797 -0.07288508 -0.67640096 -0.19123934 -0.12079588 -0.018550891
-0.26184323 -0.051653422 -0.2146674 -0.103435315 -0.03636588 -0.11725961 -0.2916181 -0.14504361
-0.13790211 -0.19629146 0.08769859 -0.16376226 -0.08081478 -0.12035001 0.019810256 -0.114592515
-0.26803157 -0.20811543 -0.10293475 -0.09074906 -0.055693083 -0.1009031 0.00486616 -0.3775216
-0.28313905 -0.24730444 -0.07632476 -0.083622634 -0.09659086 -0.056978974 -0.3322012 -0.23243995
-0.14880843 -0.057806343 -0.11752235 -0.27345443 -0.38516554 0.0031850608 -0.099870354 -0.09237931
-0.10119391 -0.01403623 -0.12983686 0.07970337 -0.088750094 -0.27223918 -0.06139231 0.0056910994
-0.09748938 -0.11488702 -0.054723643 -0.07659 -0.14549741 -0.21882306 -0.29684424 -0.13167952
-0.2937552 -0.08104875 -0.12102701 -0.18120143 -0.07929327 -0.13838318 0.016718615 -0.2455729
0.034716655 -0.4812051 -0.091676824 -0.076266475 -0.14447902 -0.09240445 -0.22009297 -0.5479874
-0.5908226 -0.15941942 -0.08185895 -0.14831832 -0.0066293976 0.007889142 -0.088441364 -0.42378473
-0.01842101 -0.22998288 -0.092784844 -0.24240145 -0.4001374 -0.10467362 -0.11489145 -0.11662245
-0.052465014 -0.12462681 -0.20076029 -0.16795847 -0.2414249 -0.17210923 -0.5987688 -0.07299447
-0.22175658 -0.2454257 -0.15859403 -0.29535598 -0.24045555 -0.086874664 -0.11476519 -0.15195432

nn_model.2.bias f4 [128]
00000000: c946 0fbe 1fa1 d7be 8f1f 13be 12a9 4dbe
00000010: 8d00 66be 0ebd 20be e482 ddbd 6180 2abe
00000020: 381a 9dbe 9c6e 5ebe 8067 11be ac67 d5be
00000030: c895 ccbd 5369 033e bfa0 09be 4b0b afbd
00000040: 0e8b 9c3c 42ee 53be a6ef 3bbe 8bdf 0ebe
00000050: 4c3d 8dbe 2bd8 d7bd 8c05 efbd 2e0a ccbd
00000060: cf1a c1bd 2b89 92bc 2926 4ebe 06ba b0be
00000070: 3ead bfbe 7340 05be 0972 ddbe b7f7 babd
00000080: 5ae3 7cbe 2caa 44be 43ff 25be 2932 47be
00000090: 6bef 1abe b67b 19be 8949 debd 91b1 5a3d
000000a0: 6e48 d1bd cec1 2bbe af18 3a3e 86dc e3bd
000000b0: 2e5f 9bbd 09e5 fbbe 1e97 a7bd f8e2 e83d
000000c0: 144d 303d da28 98bd 50fb b1bc 8749 bbbe
000000d0: 9254 00bf 3f8e c8be aead 2bbe 6d23 e3be
000000e0: 273e 0ebd 6329 f43c 6d87 87be c38a c9be
000000f0: e39d 06be eec2 1cbe b444 71bd 60db 54be
00000100: bb75 1abe e2eb e0be 2e80 20be 8879 74be
00000110: cfc0 84be 074a 0d3d 5b5e 0cbe 0f40 31be
00000120: 8f8b 2cbd 2a11 63be cb71 c2bd ff51 b6be
00000130: fbb3 36be 8a96 0ebe 827e cabd ab76 6dbe
00000140: 21d7 13be 807e 03be a833 0abe af7d 42bd
00000150: 99f8 083c 0f27 c3bd 848c 46be 0c8b 96bd
00000160: 5d3b 56be 6df6 08be 986b 27be 4daa cabd
00000170: d73f b03d c782 53be 2686 92be d781 c7be
00000180: 1627 13be bcf3 ddbe 99b5 79be bad0 1b3d
00000190: 8b65 e7be 247c a6bd 022e 683c 44d3 2dbe
000001a0: fb51 973c 3913 35be 1cc3 1abe 83e2 15be
000001b0: b4b2 c2be 20a2 d2be d4a3 08be 38f5 ebbd
000001c0: 4ef6 76be 722b f7bd 18b8 fcbb 399c 4cbe
000001d0: 9376 6c3d a850 33be f747 8cbd ece8 febe
000001e0: e7a4 93be 6c27 eabd d536 58bd c280 49be
000001f0: 57ff 1fbe ee14 c3be d5a2 69be a92f 12be
-0.13991846 -0.42115113 -0.14367507 -0.20084026 -0.22461148 -0.15697119 -0.10815981 -0.16650535
-0.30684066 -0.21721882 -0.14199638 -0.41680658 -0.09989506 0.12833147 -0.13440226 -0.08547076
0.019109275 -0.20696357 -0.18353137 -0.13952462 -0.27585828 -0.10539278 -0.1167098 -0.09962879
-0.094289415 -0.017887672 -0.20131744 -0.34516925 -0.3743686 -0.13012867 -0.43251064 -0.09129279
-0.24696103 -0.1920554 -0.16210656 -0.19452728 -0.15130393 -0.14988598 -0.108538695 0.053391997
-0.10218893 -0.1677315 0.18173479 -0.11126046 -0.075865135 -0.49198177 -0.0818312 0.11371416
0.043042257 -0.07429667 -0.02172628 -0.36579534 -0.50129044 -0.39171025 -0.16765472 -0.44362965
-0.03472724 0.029804891 -0.2647051 -0.3936368 -0.13146167 -0.15308735 -0.05890341 -0.2078681
-0.15083973 -0.43929964 -0.15673897 -0.23874485 -0.2592835 0.034494426 -0.13707869 -0.17309593
-0.04212528 -0.22174516 -0.094943605 -0.35609433 -0.17842095 -0.13924614 -0.09887411 -0.231898
-0.14437534 -0.12841225 -0.13496268 -0.047483142 0.008360052 -0.09528934 -0.1938954 -0.0735074
-0.20921083 -0.13375254 -0.16349638 -0.098957635 0.086059265 -0.20655356 -0.28617972 -0.38966247
-0.14370379 -0.43350017 -0.2438568 0.038040854 -0.4519466 -0.08129147 0.014171125 -0.16975123
0.018471709 -0.17683114 -0.15113491 -0.14637189 -0.38026965 -0.41139317 -0.13343745 -0.11521381
-0.24117395 -0.120688334 -0.0077123754 -0.19981469 0.05773027 -0.17511237 -0.06849664 -0.4978708
-0.28836748 -0.114333004 -0.052786667 -0.19678023 -0.15624748 -0.38101906 -0.22816022 -0.14275993

nn_model.4.weight f4 [128, 128]
00000000: 0ab3 41be 192f 24bd 9b76 713e 357e fdbd
00000010: 5e29 42bd 52b7 fb3d 372c d8bd 4807 e93d
00000020: b508 68bd 28d7 2d3d b05b bc3e 557a e6bc
00000030: 42b4 4bbe f053 debd 6abf 5a3a cfb3 bdbd
00000040: 8787 aabd df55 e2bd adfe 8e3e 0fe4 0b3e
00000050: 56cf a73c 90bf a93d bc68 2d3e 466a d83d
00000060: 9471 ecbd 33c2 b83e bdab dd3b 8328 ad3c
00000070: 7a08 cebd 251b 733e 7207 053c 41a2 ef3d
00000080: a657 84bf 0f9d 013e defa 523d 7b8c de3d
00000090: aa15 973c b7c8 e3bd 6607 c2bc d399 4ebe
000000a0: fcb8 3f3d d145 f23c 9ba7 da3e 2a89 3d3e
000000b0: 7d54 81bc 8588 353d 92af 553d 4733 843e
000000c0: 4614 513f fe3d cd3d cc8f 02be 056d 603d
000000d0: 86b6 39bd 8099 35bd e4cc bf3d 5b93 e23c
000000e0: 33fb c6bc 1f9d 003e 2430 0dbe 8af0 61bd
000000f0: 3022 e83d 4457 a2bc e715 15bd 117f ac3d
00000100: b648 bcbb 907f 8e3d 8b90 153e cc31 30bc
00000110: c9bf c8bd df8c 9f3e 5ee2 1b3d cac8 fe3c
00000120: 7db9 fa3d 26ca 4abd 4ebc fe3e 4ca2 743d
00000130: 1b7c c8be 1714 29bc fd2b 6dbc 84df abbd
00000140: 187b d83d 7b1e 633e 58f7 733c fcc4 1e3e
00000150: 2661 213f d48c 6ebd d301 57bd fb6c 2abe
00000160: 14c7 a03d fb44 033e 0530 733d 87ac 79bd
00000170: a740 b53e c90f 1bbf bda1 333d 9f03 903d
00000180: 1fb4 95bc 5b01 67bd 2499 c53d 053b ad3b
00000190: 58b0 62bd 3eee 94bd fb0a d73d 41e5 b3bf
000001a0: e76b a13c f236 5fbd 6c65 533c 02b7 d3bd
000001b0: f4ef 2a3c d99a 623d b48f 7a3e 4e01 843e
000001c0: 9ce5 08be 4651 9bbd e108 5f3d 31ef e63d
000001d0: 5475 d43d 32f9 a53d 08a8 163c 6600 313d
000001e0: 2311 44be cdf9 9bbe d5a7 073e ba53 a63c
000001f0: ed48 1dbf 8885 18bc b866 26bd cf54 113e
00000200: f4bc 3bbd 4c3b acbc 1854 86be 723f 553d
00000210: efd2 e73c 676c bb3c 575d 85bc f2fd f43e
00000220: d4be cf3c 7d14 943d 5fbd 503f 0c7a 863d
00000230: 3d31 2db8 1048 07bd 7bb7 91bc c599 693d
00000240: f2a2 a2be b2b0 80be 8536 143e b482 d73d
00000250: 34fc dabd 15d0 c63d 2363 b2be b4dd 0b3c
00000260: bff1 6d3e 231b c4be f424 343d 2229 073e
00000270: dac3 1fbd c7d0 a4bc d8b2 043d 8e30 1d3d
00000280: 7cbf acbd 5263 e739 132d 4cbe 0da2 e2bd
00000290: 00fb 4bbc efa8 9abd ac9e 203c f023 21bf
000002a0: e5ff 8d3d 963d fa3b 07b3 1abe 2138 4e3e
000002b0: 9cea 9cbe 421b 51bd c5df f73a a34d c8be
000002c0: bea9 2bbe 6234 8a3a 9393 d2be 71fc 663c
000002d0: 743b 6cbc 3f1e 45bd 8fff 663d 7dfd 273c
000002e0: 0157 f73c 9125 0d3d 39ea c43d f0f8 4e3d
000002f0: 812b 853c 54dc 1d3d b88c c13e 7dd7 04be
00000300: c743 a0bb f575 843d bef3 f03d fc2c d4ba
00000310: 2bdb 1cbe 2b42 9c3c e36a ca3e 25ed 823d
00000320: a330 893d e425 a33d 715b c0bd e86b 70bd
00000330: 15ef a8be 59b1 5abc 787d 18bc d3f7 b63b
00000340: 5d27 1b3d f4df 9abe a3b8 323d 1ae5 63be
00000350: 059e 11be 9c92 89be eced 573b 165e 3fbd
00000360: 6e59 bf3c e4b5 423e 7131 c63d 0b22 0bbd
00000370: 8721 c3be 2fa2 29be af2f 09bd faed 4cbd
00000380: 385e 913d 00ff 763d f490 9dbe ff1f 8bbd
00000390: 9831 433c a047 b3bd a58b 823c 234f d0be
000003a0: 5fcc 033e f3b0 95be 64a8 aebc d1b6 00bd
000003b0: 7493 1c3d 96b0 903d 2af6 083c 7e11 4e3e
000003c0: 5c6b 00bf b862 17b7 ff39 a83e 0e01 1bbc
000003d0: 5faf 14bf 39c8 94bc 99bb b83d 84be 75bc
000003e0: 92e9 b23e d4db b03e c7cc dd3b 56c3 ad3d
000003f0: 17d3 59be 5e76 8cbc 0d23 8fbc c4ff 0c3e
-0.18915954 -0.04008398 0.235804 -0.12377588 -0.047402732 0.12290825 -0.10555308 0.11378342
-0.05664893 0.042441517 0.36788702 -0.028134504 -0.19892982 -0.108558536 0.0008344563 -0.092628114
-0.08326631 -0.11051535 0.27928677 0.13661216 0.020484608 0.08288491 0.16934484 0.10567145
-0.11545101 0.36085662 0.0067648576 0.021137482 -0.100602105 0.23740824 0.008119451 0.11700869
-1.0339248 0.1265757 0.051508777 0.10866638 0.018442947 -0.11122268 -0.023685168 -0.20175867
0.046807274 0.029574307 0.42705998 0.18509355 -0.015787357 0.04431965 0.05216939 0.25820372
0.8167156 0.1002159 -0.12750167 0.05479147 -0.045340084 -0.044335842 0.09365252 0.027658155
-0.024289703 0.12559937 -0.13787895 -0.055161037 0.11334646 -0.019817002 -0.03639784 0.084226735
-0.0057459725 0.06957924 0.1460592 -0.01075406 -0.09802205 0.31162164 0.038057677 0.031101603
0.1224241 -0.04950919 0.4975304 0.05972509 -0.39157185 -0.010319731 -0.01447582 -0.083922416
0.10570353 0.22179596 0.014890514 0.15504831 0.6303886 -0.058239773 -0.052491974 -0.16643135
0.07850471 0.12819283 0.059371967 -0.06095555 0.35400888 -0.6057096 0.043855418 0.07031941
-0.018274365 -0.056397777 0.0964835 0.0052865767 -0.055343956 -0.072720036 0.10500141 -1.4054338
0.019704772 -0.05449576 0.012902599 -0.1033764 0.010433186 0.055323455 0.24468881 0.25782245
-0.13368839 -0.07583861 0.054451827 0.11276091 0.10373941 0.08104171 0.009195335 0.04321327
-0.19147162 -0.3046402 0.13247617 0.020303596 -0.614394 -0.00930918 -0.040625304 0.14192508
-0.045834497 -0.021024369 -0.26236033 0.05206246 0.028298823 0.022878839 -0.01627986 0.47849995
0.025359549 0.0723047 0.8153896 0.06566247 -4.129227e-05 -0.03302771 -0.017787686 0.05703141
-0.31764942 -0.25134808 0.14473923 0.105229765 -0.10692635 0.09707657 -0.3484126 0.008536745
0.2323675 -0.38301954 0.043980554 0.13199285 -0.039005138 -0.020119084 0.03239712 0.038376383
-0.0843496 0.00044133753 -0.1993907 -0.11066065 -0.01244998 -0.07551753 0.009803455 -0.6294546
0.06933574 0.007636736 -0.15107356 0.20138599 -0.30647743 -0.051051386 0.0018911293 -0.39121732
-0.1676397 0.0010544176 -0.41128215 0.014098273 -0.014418472 -0.048124548 0.056396063 0.010253307
0.030192854 0.034459654 0.09614987 0.050530374 0.016256096 0.0385402 0.37802672 -0.12972827
-0.004890892 0.06467811 0.1176524 -0.0016187723 -0.15317981 0.01907452 0.39534673 0.06392888
0.0669873 0.079662114 -0.09392441 -0.058696657 -0.32994905 -0.013347947 -0.009307258 0.005583742
0.037879337 -0.30248988 0.043633115 -0.22255364 -0.14220436 -0.26869667 0.003294821 -0.046720587
0.023358073 0.19014698 0.09677399 -0.033968013 -0.38111517 -0.16565774 -0.03349274 -0.05003164
0.07098049 0.06030178 -0.30774653 -0.06793212 0.01191368 -0.08753896 0.015935728 -0.40685377
0.1287093 -0.29236564 -0.02132053 -0.031424347 0.03822656 0.07064931 0.008359471 0.2012386
-0.5016382 -9.023286e-06 0.32856748 -0.009460701 -0.58080095 -0.01816188 0.090201564 -0.014999036
0.34943825 0.34542716 0.006768796 0.08484523 -0.2127193 -0.017146286 -0.017472768 0.13769442

nn_model.4.bias f4 [128]
00000000: f5ab 8b3e 66db 09bd 1d01 43bf 518d a83e
00000010: 4f3c cebe 44d6 173d 0dbc e6bd 90e1 573e
00000020: 426b 143e 8bba 99bc c241 ea3d babd 97be
00000030: bd47 683c 28c9 8dbf 8f8e 4e3e 6f85 c0be
00000040: c064 6abd 2669 a5bf 59b5 c2be 8538 5dbf
00000050: 39dd 873d f3fc 503d cd44 b3bc 2579 06bc
00000060: 8b52 92be 1165 02bf cd69 4dbe 4f71 423e
00000070: 209f 91bd 86ef 90be 1984 a0be e8b6 1abe
00000080: 3b81 2a3d db2a 813e 777a b9be dd70 c4be
00000090: e464 07be 30a7 12be 8cd3 7e3e 145e 01bf
000000a0: 8b9b 73be f90e 3ebf 5f74 99bf 6ac2 9abf
000000b0: 747a 163c e3b4 4fbe e4b6 a9be 3d26 bd3d
000000c0: a217 1dbf 292f fc3e 81b6 c03d 5692 cbbc
000000d0: 83ce 1dbe 3544 e5be c198 95bf 5cba 423e
000000e0: 5303 8ebd ee34 273e 74fe 19bf 1a0f 6ebf
000000f0: 02ff afbe 91ff ce3d 44ba bbbc 6c07 8ebe
00000100: 7fdd a6be 194a acbe 6e09 7ebe a35d 86bd
00000110: 727d 08bf e939 23be c66a e8bd 0abb 98be
00000120: 850b 38be 3a07 93be b39f e13e db23 c4be
00000130: 3d2c c4be 3b4a e8bd e132 12bf e31c a2be
00000140: 502c 8bbf c0f7 913e 733a 20bf 9fdc d5be
00000150: 49d0 95be df20 01bf 074c e23c 80ad c6be
00000160: d1a9 93bf a7cc 9abf c16b 4abe 2c23 153e
00000170: 014a 323c b482 3cbe 6fe7 94bf 4759 9abf
00000180: 9e2c c1be 9a28 61be 59eb 94bf 09e1 abbe
00000190: fe94 a3be 7902 02be 9a4b 87be d5b8 213e
000001a0: 3097 a6be 4dd0 90bf 710f c9be daa6 80bf
000001b0: beed 90bf 7248 0abf b681 00bf 8657 efbe
000001c0: dea9 efbe bfa6 03be 685a 98bf c24e 87bf
000001d0: 0882 9cbf 7dc9 c6be 0809 79be 6e1e a2be
000001e0: 17d7 b43d 3e93 30bd dae9 6d3d 5b57 383e
000001f0: 0ff5 a0bf 7f6d 92bf 95bb 91be 4e96 76bd
0.2727963 -0.0336565 -0.76173574 0.32920316 -0.40280387 0.037069574 -0.112663366 0.21082139
0.1449404 -0.018765708 0.114383236 -0.29636937 0.01417726 -1.1077013 0.2017157 -0.37601802
-0.05722499 -1.2922714 -0.38028982 -0.86414367 0.06633992 0.05102248 -0.021883393 -0.008207594
-0.285786 -0.50935465 -0.20059891 0.18988536 -0.07110429 -0.28307742 -0.31350783 -0.15108836
0.04162715 0.2522801 -0.36226246 -0.38367358 -0.1322208 -0.1432159 0.24885386 -0.50534177
-0.23789804 -0.74241596 -1.1988639 -1.209058 0.009184469 -0.20283847 -0.33147347 0.09235809
-0.61364186 0.4925473 0.0940981 -0.024850052 -0.15410809 -0.447786 -1.1687242 0.19016403
-0.06934228 0.16328785 -0.6015389 -0.92991793 -0.34374243 0.10107339 -0.022915967 -0.27740037
-0.32590863 -0.33650282 -0.24808285 -0.065608285 -0.53316414 -0.1594006 -0.113484904 -0.298302
-0.17973144 -0.2871645 0.44067153 -0.38308606 -0.38315 -0.11342283 -0.57108885 -0.31662664
-1.0872898 0.2850933 -0.62589186 -0.41769883 -0.2926047 -0.5044078 0.027624143 -0.38804245
-1.1536199 -1.2093705 -0.19767667 0.14564198 0.010881902 -0.18409234 -1.1633128 -1.2058495
-0.37729353 -0.21988145 -1.1634322 -0.33570126 -0.3194961 -0.12696256 -0.26424867 0.15793164
-0.32537222 -1.1313568 -0.39269593 -1.0050919 -1.1322553 -0.5401679 -0.50197923 -0.46746463
-0.46809286 -0.12856577 -1.190259 -1.057091 -1.2227182 -0.38825598 -0.24319851 -0.3166384
0.08830088 -0.04310917 0.058084346 0.18002073 -1.2574786 -1.1439666 -0.28463426 -0.060201935

allocation_head.0.weight f4 [12, 128]
00000000: f490 e03e 1082 fc3d 5c04 58bc f9fe b83d
00000010: 5503 d53c fb6d 18bd 7a18 b7bd 6d02 db3d
00000020: 80e5 763c 8e4b 33bd 077f 1ebe 70d1 2e3d
00000030: 555b 0fbf 90c5 6fbd 64ab 923d 4223 193e
00000040: 37bf 0fbd 423b 593d a5cb 0cbd dbb3 c9bd
00000050: a275 a63d 55bd 333e 718a ccbc be5c 823d
00000060: cca0 3b3d 5156 b2bc a8e4 b03d b3ca 0dbd
00000070: a17a 98be 975b a03e 1447 d13c 281c b63d
00000080: f39c bdbd ede9 b73c 5031 ca3c cd2b 12be
00000090: 1ee3 fbbd 4571 1cbd 71d9 a1bd 12b0 d23d
000000a0: 9929 c43c 811b d6bd 7001 753c 4d04 a9bd
000000b0: 60f1 0dbe a0ac 32be 3934 ed3d 27f4 8dbd
000000c0: 45db 86bc a967 10bc 25da 413d 2672 b53d
000000d0: 1916 53be fd57 933d f2bd 723d 2f75 99be
000000e0: 5dcf 293e 2555 a2bd b9b0 83bd ff20 6c3c
000000f0: c88c ba3b 9cbb fcbc 4627 d0bd 80ca 39be
00000100: d65a de3d 032e 243d 9609 afbd 2ad9 70bc
00000110: aa44 eb3d e896 c53e 9cfa ebbc 509a e23c
00000120: 36bc 893e 98a0 083e 38f8 a3bd 555a 0d3e
00000130: c702 9f3d 9b00 353e 526d 8b3d d3b4 9abe
00000140: a4b3 a8bd 4076 b23d 80da b23d 2cc4 17be
00000150: 8adf 9c3d f6f7 363d d540 bc3e 2fd6 cdbd
00000160: 6639 0b3d d06f 56bd 726c ea3e 6547 b83d
00000170: b708 bf3e 1553 5c3c fd54 f5bc 76da 6abd
00000180: 7360 d53d 14cd ba3c 53ae 03be 3639 e3bd
00000190: 3f4f bd3c 7a44 053f 241b 62bd 5e93 d4bc
000001a0: 6bcc c5bc 003c d0ba 2f71 4f3e 0145 6c3c
000001b0: e095 9fbb 425e 3fbd 6261 a7bd 9e39 f9bb
000001c0: 1dc6 cb3b fd83 623d e61a 783d 1d8f 6ebc
000001d0: 2436 b4bc d025 833d af4c 673e d0ec a53d
000001e0: 67f9 ab3d 734f 103e e449 6abd 5f49 583d
000001f0: 81a4 adbd e5ea e1bd d34d a8bd 3081 36bc
00000200: 070a b0bd 22c4 a4be 3be2 243d d159 463e
00000210: d769 213b de39 4c3d be39 993d 000f c23e
00000220: 386c 17be 740c d2bc c1d5 8e3e 4c17 ee3d
00000230: dde6 3a3e 2eea 653d d766 a3bc 8d50 2d3e
00000240: e112 05be 61a2 2bbd 4f58 dc3d 0f83 733d
00000250: 634c 85be 6812 cbbd f4e7 b7bc 5652 c7be
00000260: 988c 2c3d babc 013d ec4e 3e3e dc33 3ebf
00000270: 1f63 8ebd 0bbd c6bd 2646 293d 0490 55bc
00000280: 8090 ed3d 6293 a23b 980a d3bc 6b02 85bc
00000290: 6efe 993d 5545 e13d 6167 14be cb5d dabc
000002a0: ac9e e5bd ed58 86bd 2131 9f3d 34ac 13bd
000002b0: f8c2 9c3e cea0 16be ae7b a1bc 774f 53bd
000002c0: 6f46 afbc 2bff debd a55d 873e 713e 753e
000002d0: d634 c6bd d724 2a3d a944 813d 1e01 35bd
000002e0: b09b 2ebd ed70 9f3b 98f9 2e3d 1c09 2a3d
000002f0: d0a1 fcbc 2e90 973e fd08 0dbc c2fc 963c
00000300: 0f4d 16bb 9c54 5e3d a203 d0bd 71f7 f6bd
00000310: 0d5e e4bd 4a8a 623e d9dd 71bd 7315 6e3d
00000320: c71a 173e 4d2e f03d 44ab e4bd 3b9d 24ba
00000330: 4606 0f3c 2208 cdbd fbb8 e63c 9336 973c
00000340: 7aea 023d ac7f 353e e3cf 9c3d c4c2 9ebd
00000350: 00b4 913d 54b4 223d 83d2 56bc b7aa 47bd
00000360: 2098 8dbd 7fc1 3dbd ead0 023e 2857 1e3e
00000370: 7f5f 93bd 901e b73b d724 ba3d c001 243b
00000380: 7786 87bc 0f1a debd 7112 fabd bd5f aebd
00000390: 1604 f93c 31ee 303e 7d3a 8abb 2264 cc3d
000003a0: 9b94 913d 4123 a23d f723 be3e b950 aabd
000003b0: 3660 223d 63bc fabd 8374 d4bd e739 b03d
000003c0: e5bc b63d e34d 3f3e 8c17 e9bc ef3e 763d
000003d0: d262 3a3d 5f58 d0bc 1695 0ebe 8493 55bc
000003e0: e736 5a3d 06c3 9abd 183f 02bd 7113 d0ba
000003f0: 33b0 953d b213 acbd dcf2 f73b f3ae 963d
0.4386059 0.12329495 -0.013184633 0.09033007 0.026002565 -0.03721426 -0.089402154 0.10693822
0.0150693655 -0.043773226 -0.15478145 0.042680204 -0.55998737 -0.05853802 0.071615964 0.14954856
-0.035094466 0.05303503 -0.034373898 -0.09848758 0.081279054 0.17552693 -0.024968358 0.063653454
0.045807645 -0.021769674 0.08637363 -0.034617137 -0.29781058 0.31319878 0.025546588 0.08892089
-0.09258451 0.022450412 0.024681717 -0.14274521 -0.122991785 -0.03819396 -0.07902802 0.10287489
0.023945617 -0.10454465 0.014953956 -0.082527734 -0.13861609 -0.17448664 0.11582226 -0.06931334
-0.016461978 -0.008813777 0.04732718 0.08859663 -0.20613898 0.07194517 0.059263177 -0.29972216
0.16583009 -0.07926396 -0.064301915 0.014412164 0.005693052 -0.030851178 -0.10163741 -0.18143654
0.10857169 0.040082943 -0.0854675 -0.014700213 0.11487706 0.38591695 -0.028806023 0.027661473
0.26901406 0.13342512 -0.08006328 0.1380399 0.077642016 0.17676012 0.068079606 -0.30216083
-0.08237389 0.08713961 0.08733082 -0.14820927 0.07659824 0.044670068 0.36768213 -0.10050618
0.033990286 -0.052352726 0.45785862 0.089979924 0.37311336 0.013447543 -0.029947752 -0.057337247
0.10418787 0.022802867 -0.12859468 -0.110948965 0.023109077 0.5205761 -0.055201665 -0.025949176
-0.024145326 -0.0015887022 0.2025802 0.014420749 -0.0048701614 -0.04672075 -0.08172871 -0.0076057455
0.0062186853 0.055301655 0.060572527 -0.014560488 -0.021998473 0.064036965 0.22587846 0.08101809
0.08397179 0.14092807 -0.057199374 0.052804347 -0.08478642 -0.11031131 -0.08217969 -0.011139199
-0.085956626 -0.32180887 0.040254813 0.193702 0.0024629736 0.049859874 0.074817166 0.3790207
-0.14787376 -0.025640704 0.27897456 0.11625537 0.1825213 0.056131534 -0.019946499 0.16925259
-0.12995483 -0.041902903 0.10759031 0.05945116 -0.2603484 -0.0991562 -0.022449471 -0.38930005
0.04212627 0.031674124 0.18584794 -0.7429788 -0.069524996 -0.09704026 0.041326664 -0.013034824
0.11599827 0.004961417 -0.025761887 -0.016236505 0.07519232 0.10999552 -0.14492561 -0.026656052
-0.11211905 -0.0655993 0.077730425 -0.036052898 0.306175 -0.1470978 -0.019712295 -0.051589455
-0.02139589 -0.10888513 0.26438633 0.23949601 -0.096780464 0.04153904 0.06311924 -0.04419052
-0.042628944 0.0048657567 0.0427185 0.041512594 -0.030838877 0.29602188 -0.0086081 0.018431071
-0.0022934114 0.05427991 -0.10156943 -0.120589145 -0.11150751 0.22123066 -0.05904946 0.058125924
0.14756308 0.11727581 -0.11165479 -0.00062795327 0.008729523 -0.10011317 0.028164377 0.01845864
0.031961896 0.17724484 0.07656839 -0.07751992 0.071144104 0.039722756 -0.013111713 -0.04874679
-0.06913781 -0.04632711 0.12775007 0.15462935 -0.07195949 0.00558836 0.09089058 0.0025025457
-0.01654361 -0.10844814 -0.12210549 -0.085143544 0.030397456 0.17278363 -0.004218398 0.09980036
0.07108422 0.079168804 0.37136814 -0.08316178 0.039642535 -0.12242963 -0.10373785 0.08604794
0.089227475 0.18682055 -0.02845361 0.060118612 0.0455044 -0.025432764 -0.1392406 -0.013035659
0.053275015 -0.07556729 -0.031798452 -0.0015874935 0.07308998 -0.08402194 0.007566793 0.07357588

allocation_head.0.bias f4 [12]
00000000: 9d04 d9bd ba5c 103d cd16 dfbd d490 6d3e
00000010: 4312 a43e 53be 283e fa0c 85bd fa29 b2bd
00000020: 16e1 39bd be0f f83d 6aa5 83bd 2446 01be
-0.10596583 0.03524468 -0.10893021 0.23199779 0.32045183 0.16478853 -0.06496616 -0.08699413
-0.045380674 0.121123776 -0.064280346 -0.12624413

payment_head.0.weight f4 [3, 128]
00000000: ac30 ba3f ee79 e73e 6bf7 a33c 86f9 853e
00000010: 337e 163e 0257 ac3e 5e9a 693e cb46 2d3f
00000020: eb56 b03e 9769 f83e 4091 0440 803b 67bc
00000030: d852 0941 c009 8d3c a489 863e 6a8b 593e
00000040: 8533 9f3e 926c 4dbd b60f 8d3e 58e2 69bc
00000050: 10ec 4f3f e1b1 0e3f 54a0 fb3e e41c 1a40
00000060: 6f5a 013e 95e7 b73d 33f9 403e 9bed a13f
00000070: 0e74 a13e a0fd 233e de2e 8d3d 30c8 1d3f
00000080: 999a 923e 9d12 333f a57c 313e 42d4 cc3d
00000090: 17aa a13f ae07 683e f7f7 4c3e 978e c13d
000000a0: a7a7 9e3e fa9f 213d 7aa4 2a3d 6431 063d
000000b0: 2f03 2e3f e234 833e 8897 173e a822 fd3e
000000c0: 4cf4 903d 8fd3 363f 4ace da3e 2c95 603e
000000d0: b9c6 923e 1c0c 083e ce85 3f3d 0f1c 303f
000000e0: d20a 8a3e 39bb 453f ee13 343e 7a46 813d
000000f0: 638e 613e 9507 743f 56be e33e d5a2 993e
00000100: ec08 d83c 7748 af3d bfb4 133e 2531 c23e
00000110: 8f0e dd3d 0294 9a3e c926 403e d4a9 743d
00000120: e7c1 653e 965d 85bc e364 483f d731 113e
00000130: 892b 013e 02e1 673e b30d a83b 07df e33e
00000140: 52c0 4b3d ba5a d03e 7e73 1a3e 28e2 473d
00000150: ca10 fc3d f6b6 733d 288d cb3e a114 0bbc
00000160: b67a 4a3d 1bf1 953d d9a9 e13e 5826 4c3f
00000170: 9821 5a3f e229 043e 2467 89bd ac2e aebd
00000180: d36a 063e e865 873e cb81 783c 1839 b83d
00000190: 64ea dc3c 0863 803e 3524 7c3e 0c77 d43e
000001a0: 869b 54bb 0a76 6ebd e238 323f ccf0 ec3d
000001b0: b0c7 eb3b 0ba4 7c3c 20bc dd3d ca8f 9a3d
000001c0: 0ebd 8ebc a588 883e d87b 9e3c 2ab9 ea3d
000001d0: ae9e e8bc 065b d23d ea86 1f3e 341b 143e
000001e0: e157 f93e 4c00 ee3e c31b 083f 2b4c 473f
000001f0: 54a3 55bd 28ea 433d 1142 ab3d 790a 523f
00000200: 27c7 05be 9a65 043e d9cd a6bc 3559 4fbe
00000210: 8077 b4bc d68a 623e 4efb e83e 94ce 37bf
00000220: aac2 0d3e 6f1e d13e 7173 9a3d 6f46 d73d
00000230: b6c1 cd40 12bc 2a3d 384f 51be f8f9 963d
00000240: e0b9 2bbb 90cc 4abd 4f3b 81ba 0f30 153e
00000250: ed37 c2be 956a 9d3e c962 bf3e d416 b63f
00000260: 49f5 9e3d 76cb 503d 3bc1 b13e 8fa7 a6be
00000270: 2497 90be 088c 723f 860f c53d fa8a 4a3f
00000280: 1b78 f93e 468a edbe 8909 a53e 4dec a33d
00000290: d4c7 a4bf f648 603d 9966 fe3c c70f 9c3d
000002a0: e29b 983e 04d9 53bc 71d3 913d f0dd 91bd
000002b0: d440 0e3f 4462 2b3e 9c11 153d 930b 0d3f
000002c0: 42d4 f63d 528d 22bf 6832 dc3e c5ef 2ebf
000002d0: d2a1 34bf 3e17 34bc f861 633c 3aa4 aabd
000002e0: b3e2 94bf c846 18bd 2e34 da3d b6f0 573d
000002f0: 283e 313e 724d c6be 1900 6c3e 6db1 613e
00000300: c2f6 97bb 75c4 0e3e b73c 643e f6cb 353e
00000310: d6d5 123d 819f 44bf 1ae6 133f 9f78 8a3c
00000320: aaac 09be 9b2b 6f3c a2ca 90bf 58d4 013e
00000330: bc11 003e cf5e 0c3e baeb 623d f72d 623f
00000340: e5ad 41bd 9715 7f3d a50d cd3d f017 e03d
00000350: 36dd 843c 4ccd 953d 5122 c33e 51f5 043d
00000360: b380 8e3d e5bc 31bd bda0 233e 3443 273c
00000370: 4a45 223e 611b 913e 1728 f239 4aea fdbc
00000380: 849b 043d 15cc d8bf 4a4c a73c 93cf 093e
00000390: 2658 3d3c a73d bcbf 6689 283e 0ae2 ef3d
000003a0: 0513 143e e0c9 673c 3cef a9bc 8297 8c3c
000003b0: 028f 4c3d bd72 e0bd 6e42 2d3d 0070 62bc
000003c0: fad6 ccbc edc6 153e 50c4 c43b 7e83 053e
000003d0: ed0a 903d 62e0 d93d 5278 3c3e 0806 183d
000003e0: 0019 693c 4072 553c 7fb9 bfbf 4287 3bbe
000003f0: 784f 583c 6cb9 ec3c 2f25 86bb 4a3d a53d
1.4546103 0.45210212 0.020015439 0.26166934 0.14696579 0.33660132 0.22812793 0.67686146
0.34441313 0.4851806 2.0713654 -0.014113307 8.582726 0.017216563 0.26276886 0.21244588
0.31093994 -0.05015237 0.2755105 -0.014275156 0.8121958 0.5574017 0.49145758 2.4080133
0.12632154 0.08979718 0.18845062 1.2650636 0.31533855 0.16014719 0.06893705 0.61633587
0.28633574 0.69950277 0.17332704 0.100014225 1.2630032 0.2265918 0.20016466 0.09451025
0.30987284 0.039459206 0.041660763 0.032761946 0.6797361 0.25626284 0.14803898 0.49440503
0.07077846 0.7141656 0.4273551 0.21931905 0.28667238 0.1328587 0.046758465 0.68792814
0.2696138 0.77238804 0.17585728 0.063122705 0.22026972 0.9532407 0.44481152 0.30007043
0.026371442 0.085587434 0.14424418 0.3792812 0.107937925 0.30191046 0.18764795 0.059732273
0.22437249 -0.016279977 0.7827894 0.14179169 0.12614264 0.22644427 0.005128586 0.44506094
0.049743958 0.4069422 0.1508312 0.048799664 0.1230789 0.059500657 0.3975613 -0.008488805
0.049433433 0.07321378 0.44074896 0.7974601 0.8520751 0.12906602 -0.06709126 -0.08504996
0.13126688 0.26444936 0.015167664 0.08995265 0.026967235 0.25075555 0.24623187 0.41497076
-0.0032441332 -0.05821804 0.69618046 0.11569366 0.0071954355 0.01541997 0.108268976 0.07546957
-0.017424133 0.26666752 0.019346163 0.114610985 -0.028395977 0.102712676 0.1557881 0.14463502
0.4869986 0.46484601 0.5316736 0.778506 -0.052157715 0.04783073 0.083622105 0.8204723
-0.13064252 0.12929383 -0.020361828 -0.20248874 -0.022029638 0.22123274 0.4550423 -0.7179959
0.1384379 0.4084353 0.0754155 0.10511481 6.4298964 0.041683264 -0.20440376 0.073718965
-0.002620332 -0.049511492 -0.0009859594 0.14569114 -0.37933293 0.30745378 0.37380055 1.4225717
0.07761628 0.050975285 0.34717736 -0.32549712 -0.2824031 0.9474492 0.096221015 0.7911831
0.48724446 -0.46394557 0.32233837 0.08004055 -1.2873483 0.05475708 0.031054782 0.07620197
0.2980643 -0.0129301585 0.071204074 -0.07122409 0.5556767 0.16736704 0.036393747 0.55095786
0.12052204 -0.6349689 0.43007207 -0.6833461 -0.7055942 -0.0109918695 0.013878338 -0.08332105
-1.1631683 -0.037176877 0.10654484 0.052719794 0.17308867 -0.3873096 0.23046912 0.22040339
-0.00463757 0.1394213 0.22288786 0.17753586 0.03584846 -0.76805884 0.5777298 0.01690322
-0.13444772 0.014597799 -1.1311839 0.12678659 0.12506765 0.13708042 0.055400588 0.88351387
-0.04728498 0.06227645 0.10012368 0.10942066 0.016218763 0.07314548 0.3811212 0.032460514
0.06958141 -0.043393034 0.15979286 0.010208894 0.15846744 0.283412 0.00046187706 -0.030995507
0.032374874 -1.6937281 0.02042212 0.1345809 0.011556661 -1.4706315 0.16458663 0.117130354
0.1446038 0.014147252 -0.020743959 0.017162088 0.04994107 -0.109593846 0.04229968 -0.013820648
-0.025004853 0.14626665 0.0060048476 0.13038442 0.07033334 0.10638501 0.18405274 0.037115127
0.014227152 0.013027728 -1.4978484 -0.18313316 0.013202541 0.02889701 -0.004093788 0.080683306

payment_head.0.bias f4 [3]
00000000: e8e9 b53f 790d 6c3e 9f8f bd3f
1.4212008 0.23052014 1.4809455
