model/3x3_sparsemax_linearpmt_distill_fast.pt (torch_old, 148074 bytes, 10 tensors)

nn_model.0.weight f4 [128, 9]
-0.4753817 -0.34708872 -0.34967065 -0.80678195 -0.8137651 -0.77685213 -0.48854443 -0.697613
-0.6041523 -0.038565278 -0.0010572006 0.1925013 0.078551665 -0.12753372 -1.3646942 -0.044763267
-0.0021356144 0.2620361 -0.41810694 -0.32083586 -0.29388112 0.054440282 -0.0015202963 -0.044823706
0.049302675 0.22622365 0.12313059 -0.69533086 -0.22876807 -0.5922131 -0.61155367 -0.6831503
-0.61811596 -0.7132534 -0.65483624 -0.75075465 -0.12742735 -0.15521973 -0.157086 -0.14399879
-0.20134044 -0.07722843 0.17821963 0.132266 -0.46442193 -0.11152695 -0.32242543 -0.015448999
0.07341178 0.06385406 0.04306009 -0.11741475 -0.4234426 -0.035374437 0.6956646 -0.08512547
-0.0764111 -0.1717898 -0.12525596 -0.1123476 -0.06922971 -0.07144875 -0.068378344 -0.27828553
0.100810155 -0.05775207 -0.27526605 -0.21041685 -0.039727475 -0.10091758 -0.52251166 -0.5465483
0.049875658 0.09991995 0.7581629 -0.16394077 -0.1451188 -0.67037153 0.028874509 0.03185896
-0.09525577 -0.53407025 -0.28438732 -0.70840853 -0.70088154 -0.7528048 -0.68528444 -0.47726023
-0.6192043 -0.40628353 0.09493234 0.057820342 0.05809487 -0.5141226 -0.08274294 -0.09016104
0.7080732 -0.0122208735 -0.032478318 -0.39772543 -0.18623932 -0.2210581 -0.7474702 0.06879635
-0.33912566 -0.53090435 -0.30364245 -0.14644766 -0.016326323 -0.055036616 -0.0051592016 0.0017661962
-0.32132617 -0.02012503 -0.0064993044 -0.035388585 -0.008912604 -0.2755318 -0.44260427 -0.3591163
-0.30457744 -0.0037139251 0.009590266 -0.6885742 -0.16648754 -0.15129589 -0.22428724 -0.45912585
-0.2694872 -0.24807589 -0.018635381 -0.9338015 -0.56506926 -0.78642106 -0.5706013 -0.057102535
-0.046049517 -0.34512794 0.19345647 0.09239305 -0.64253193 -0.012856367 -0.035005737 -0.27768406
-0.5982778 -0.5121403 -0.76370394 -0.8105952 -0.06877393 -0.40676665 -0.39550278 -0.63127965
-0.08657965 0.09939106 0.0012381187 0.017144553 -0.69528913 -0.050996784 -0.03504215 0.15118955
0.07868434 0.068775654 -0.31120858 -0.63779104 -0.08272163 -0.69928014 -0.3389468 -0.3719015
-0.50655526 -0.13453811 -0.12254133 -0.27953625 -0.4674532 -0.078350484 -0.08787254 -0.22956087
-0.40633735 -0.31121525 -0.03750426 -0.26156265 -0.027716903 -0.44579354 -0.033792432 0.02652457
-0.23582955 0.025970213 0.02314154 0.061030664 0.023611007 0.15192339 0.1839285 0.76705945
-0.06033128 -0.07544078 -0.32572827 -0.07328638 -0.07390084 -0.29382598 0.005389507 -0.3578315
0.003387204 0.04088485 -0.53464234 -0.008501557 0.04055357 -0.3791101 0.034664366 -0.7442153
-0.6885785 -0.64054596 -0.49550328 -0.41584882 -0.56488615 -0.7707317 -0.53712875 -0.2412909
-0.040184267 -0.14251839 -0.28120357 -0.20855595 -0.7067265 -0.15833361 -0.9185464 -0.5252865
-0.3737882 -0.07014027 -0.3949458 -0.7841739 -0.23410222 -0.961196 -0.49538338 -0.22957288
-0.43774164 -0.34882453 0.04934067 0.047238838 -0.08525035 -0.17503573 -0.2252521 -0.5818095
0.12602639 0.1850631 0.8520638 -0.20145272 -0.105987094 -0.1132864 -0.6899276 -0.58522296
-0.6294339 0.12079907 0.20799671 0.17903087 -0.2368836 -0.16705918 -0.53983766 -0.68428415
00000000: 3b65 f3be 9db5 b1be 0808 b3be 4389 4ebf
00000010: e952 50bf c8df 46bf 7f22 fabe c496 32bf
00000020: baa9 1abf a0f6 1dbd c491 8aba 101f 453e
00000030: b2df a03d 3398 02be 4dae aebf b059 37bd
00000040: aaf5 0bbb 9829 863e 1d12 d6be 9944 a4be
00000050: 9677 96be c6fc 5e3d ae44 c7ba 1099 37bd
00000060: 9af1 493d 2ca7 673e e42b fc3d 3401 32bf
00000070: 2d42 6abe 479b 17bf c88e 1cbf f0e2 2ebf
00000080: d93c 1ebf c697 36bf 59a3 27bf 7531 40bf
00000090: 517c 02be ecf1 1ebe 27db 20be 6b74 13be
000000a0: 302c 4ebe f029 9ebd 357f 363e bd70 073e
000000b0: b6c8 edbe 3e68 e4bd f214 a5be cc1d 7dbc
000000c0: ea58 963d ebc5 823d c75f 303d 2577 f0bd
000000d0: 78cd d8be c9e4 10bd 1317 323f 4356 aebd
000000e0: 6c7d 9cbd aae9 2fbe 1943 00be 8016 e6bd
000000f0: 4ec8 8dbd b953 92bd f209 8cbd 717b 8ebe
00000100: 8e75 ce3d 6f8d 6cbd acef 8cbe 8477 57be
00000110: 47b9 22bd e0ad cebd 53c3 05bf 97ea 0bbf
00000120: 6b4a 4c3d d5a2 cc3d f716 423f 17e0 27be
00000130: 069a 14be 789d 2bbf 3c8a ec3c 8a7e 023d
00000140: 7515 c3bd d4b8 08bf 379b 91be 435a 35bf
00000150: f96c 33bf d1b7 40bf cd6e 2fbf 745b f4be
00000160: 2c84 1ebf 6504 d0be e36b c23d 06d5 6c3d
00000170: e3f4 6d3d 8a9d 03bf 2175 a9bd 5aa6 b8bd
00000180: 4944 353f 0f3a 48bc fc07 05bd aba2 cbbe
00000190: 85b5 3ebe 0e5d 62be 355a 3fbf 1ae5 8c3d
000001a0: e1a1 adbe 59e9 07bf 0677 9bbe 60f6 15be
000001b0: c8be 85bc 136e 61bd 850e a9bb b67f e73a
000001c0: dd84 a4be 3fdd a4bc 1ef8 d4bb 9ff3 10bd
000001d0: 2c06 12bc 8112 8dbe 079d e2be 17de b7be
000001e0: 93f1 9bbe 5365 73bb 7e20 1d3c 6646 30bf
000001f0: b67b 2abe 4fed 1abe 8eab 65be 8b12 ebbe
00000200: 3afa 89be 9b07 7ebe 3aa9 98bc 9d0d 6fbf
00000210: 61a8 10bf e452 49bf ed12 12bf 59e4 69bd
00000220: 6b9e 3cbd 9cb4 b0be 7419 463e 9138 bd3d
00000230: f97c 24bf 83a3 52bc 2d62 0fbd 9b2c 8ebe
00000240: bc28 19bf a01b 03bf 1a82 43bf 2b83 4fbf
00000250: 59d9 8cbd b843 d0be 577f cabe 8b9b 21bf
00000260: ac50 b1bd 8a8d cb3d 5f48 a23a bc72 8c3c
00000270: 78fe 31bf 01e2 50bd 5c88 0fbd 6fd1 1a3e
00000280: 4125 a13d 40da 8c3d bb56 9fbe 4646 23bf
00000290: f569 a9bd 0604 33bf 6f8a adbe e069 bebe
000002a0: 9bad 01bf 5cc4 09be f3f6 fabd 601f 8fbe
000002b0: 0756 efbe 3876 a0bd 85f6 b3bd 0112 6bbe
000002c0: 730b d0be 9b57 9fbe 119e 19bd 8aeb 85be
000002d0: 8f0e e3bc 0d3f e4be ef69 0abd 0e4a d93c
000002e0: 4d7d 71be 7cbf d43c 5493 bd3c 4afb 793d
000002f0: df6b c13c ce91 1b3e c157 3c3e 025e 443f
00000300: ef1d 77bd b280 9abd dbc5 a6be 2b17 96bd
00000310: 5359 97bd 5c70 96be 769a b03b b135 b7be
00000320: dafb 5d3b df76 273d 52de 08bf 1d4a 0bbc
00000330: 801b 263d b81a c2be 39fc 0d3d e584 3ebf
00000340: ae46 30bf d2fa 23bf 9bb2 fdbe 23ea d4be
00000350: 619c 10bf ac4e 45bf 4581 09bf f614 77be
00000360: 4298 24bd 57f0 11be eaf9 8fbe b18f 55be
00000370: 07ec 34bf 3522 22be db25 6bbf 2d79 06bf
00000380: 2b61 bfbe b4a5 8fbd 5636 cabe 9fbf 48bf
00000390: 7eb8 6fbe f110 76bf e4a2 fdbe 2715 6bbe
000003a0: ac1f e0be 2199 b2be 7119 4a3d 837d 413d
000003b0: bc97 aebd 913c 33be 7da8 66be 78f1 14bf
000003c0: 100d 013e 2e81 3d3e da20 5a3f 9f49 4ebe
000003d0: c30f d9bd b302 e8bd 189f 30bf 2cd1 15bf
000003e0: 9422 21bf 8165 f73d 17fd 543e de53 373e
000003f0: 9d91 72be 9011 2bbe cd32 0abf 3f2d 2fbf

nn_model.0.bias f4 [128]
-0.74963063 0.2816633 0.3686078 -0.73446804 0.41473475 0.425291 -0.761615 -0.6119627
-0.13038689 -0.8007595 -0.35998243 -0.40599605 0.38347617 -0.65575397 -0.5455313 0.39488244
-0.42411128 0.2742844 -0.5654059 -0.629997 0.409509 -0.047449287 0.47285408 -0.82602596
-0.5944088 -0.58895624 -0.25732914 0.7754085 -0.6226354 -1.0234255 -0.8617536 0.27255446
-0.5574074 -0.12639907 -0.8202975 -0.44236386 -0.5053923 -0.5707586 -0.7129016 0.04504076
-0.4801925 0.41071454 -0.71134025 -0.8313721 -0.45336714 -0.023658577 -0.77167034 -0.008482212
0.2887856 -0.009596816 -0.35530922 -0.48265418 0.39136186 -0.5978739 0.6587343 0.08123668
0.2383906 -0.7176561 -0.32207504 -0.91388077 0.7023334 -0.9150919 -0.69124216 -0.46111628
0.5861515 -0.934253 -0.6429193 -0.6609494 -0.7799572 -0.22904491 -0.48496705 -0.68183637
-0.65514874 -0.42438686 -0.7221741 -0.786345 -0.62010163 -0.95648825 -0.1412361 -0.7952966
0.1266844 -0.815115 -0.6063941 -0.7976184 -0.72123796 0.52539545 -0.8043615 -0.11717152
-0.8355199 -1.049411 -0.36990783 -0.5627561 -0.7614345 -0.4309798 -0.9104078 -0.65735763
-0.4200987 0.14311612 -0.14510927 -0.8086996 -0.48043805 -0.79440933 -0.43250087 -0.42558628
-0.9121269 -0.22596055 0.23268387 -0.08320559 0.44084492 -0.526201 -0.6229713 -0.6437359
-0.71497715 -0.75768113 -0.34541565 0.23046112 -0.63926613 -0.40668422 -0.53602004 -0.44678164
-0.3957591 0.76734906 0.51493067 0.7422834 -0.39782146 -0.57578474 -0.69580626 -0.4897819
00000000: cbe7 3fbf 2c36 903e 29ba bc3e 1906 3cbf
00000010: 1d58 d43e bebf d93e 33f9 42bf 96a9 1cbf
00000020: 2484 05be 93fe 4cbf 9e4f b8be b7de cfbe
00000030: fd56 c43e 7edf 27bf f0a7 0bbf 082e ca3e
00000040: 1d25 d9be 016f 8c3e 71be 10bf 7c47 21bf
00000050: 2aab d13e 2f5a 42bd ee19 f23e 7076 53bf
00000060: 2d2b 18bf d6c5 16bf a5c0 83be 2c81 463f
00000070: 0965 1fbf 9bff 82bf e29b 5cbf 428c 8b3e
00000080: 40b2 0ebf c26e 01be 04ff 51bf 847d e2be
00000090: 6461 01bf 3c1d 12bf b880 36bf a97c 383d
000000a0: cbdb f5be 2d49 d23e 651a 36bf cdd4 54bf
000000b0: bd1f e8be a2cf c1bc 308c 45bf faf8 0abc
000000c0: b5db 933e f73b 1dbc 17eb b5be 731e f7be
000000d0: 9560 c83e 440e 19bf d0a2 283f 6b5f a63d
000000e0: aa1c 743e 4fb8 37bf 05e7 a4be 17f4 69bf
000000f0: 1fcc 333f 7643 6abf 3ff5 30bf 6f17 ecbe
00000100: 060e 163f 342b 6fbf 5c96 24bf fb33 29bf
00000110: 46ab 47bf c08a 6abe 9a4d f8be d48c 2ebf
00000120: d4b7 27bf 3c49 d9be 67e0 38bf e84d 49bf
00000130: fbbe 1ebf 6adc 74bf 32a0 10be 8f98 4bbf
00000140: 8eb9 013e 60ab 50bf a53c 1bbf b830 4cbf
00000150: 0da3 38bf 5180 063f a3ea 4dbf 9ff7 efbd
00000160: a2e4 55bf 1a53 86bf 8f64 bdbe c910 10bf
00000170: 5fed 42bf 62a9 dcbe 7c10 69bf 9748 28bf
00000180: 2d17 d7be 088d 123e 8697 14be f006 4fbf
00000190: fafb f5be 695e 4bbf c170 ddbe 72e6 d9be
000001a0: 2681 69bf 3462 67be ae44 6e3e b167 aabd
000001b0: 6db6 e13e 1cb5 06bf 0c7b 1fbf e0cb 24bf
000001c0: be08 37bf 64f7 41bf 52da b0be 00fe 6b3e
000001d0: f2a6 23bf ea38 d0be 9c38 09bf 90c0 e4be
000001e0: f0a0 cabe fd70 443f 7fd2 033f 4906 3e3f
000001f0: 41af cbbe a166 13bf 5c20 32bf b1c4 fabe

nn_model.2.weight f4 [128, 128]
-0.03287166 -0.059627816 -0.073143475 0.0502675 -0.029770551 -0.14982945 -0.014167346 -0.0023571246
-0.065942444 -0.0734374 -0.12796178 -0.036548454 -0.046258263 0.020270988 -0.01726312 -0.041108776
-0.0628767 -0.60630244 -0.092187405 -0.024840064 -0.19186293 -0.08553106 -0.016767608 0.038542718
-0.07951083 -0.0602657 -0.13271491 -0.06025518 -0.04949115 -0.42947862 -1.6493382 -0.14533663
-0.008688699 -0.09872778 0.05428184 -0.008168134 -0.1500047 -0.11747894 -0.13747428 -0.06609499
-0.028406339 -0.10353858 -0.17492484 -0.1698159 -0.06417403 -0.03183154 -0.08785192 -0.15390176
-0.13868105 -0.0040024994 -0.056112856 -0.13169256 -0.56858194 -0.13304745 -0.52282006 -0.10513617
-0.1445802 -0.05007457 -0.50388795 -0.4596331 -0.32480675 -0.03687921 -0.046551395 -0.101641245
-0.3239897 -0.00771055 0.001407621 -0.04029359 0.0068240496 -0.12729417 -0.14106907 -0.043201003
-0.13610137 -0.0543 -0.04887879 0.044931754 -0.014138576 -3.5208397 -0.049666326 -0.0012931395
-0.09270083 -0.19777054 -0.08717152 -1.344035 -0.004519769 -0.13834395 -0.0005719987 -0.18969712
-0.07295255 -0.0979685 0.011533355 -0.1660741 -0.0515405 -0.013932889 -0.011964346 -0.42021006
0.017731294 -0.22177856 -0.041799676 -0.10098973 -0.1348079 -0.024016121 -0.06621964 -0.019188942
-0.088053174 -0.020756202 -0.15087289 -0.034949936 -0.019380033 -0.04442869 -0.10517236 -0.033605
-0.08584566 -0.13384502 -0.17558692 -0.13393886 -2.6429675 -0.07314467 -0.14349759 -0.14691524
-0.2025191 -0.031118577 -4.107548 -0.05280745 -0.120486565 0.005613322 -0.09196219 -0.10256881
-0.058693 -0.32327184 -0.26202515 0.013154954 -0.09357697 -0.43936953 -0.105979815 -0.0444746
-0.091598056 -0.038185727 -0.11700897 -0.0733692 -0.11291564 -0.012467439 -0.07599957 -0.2010007
-0.080779985 -0.8861291 -0.024235642 -0.011354999 -0.34849948 -0.2944746 -0.13901153 -0.018572913
-0.008190342 -0.038414594 -0.29804504 -0.09788883 -0.01396464 -0.2673012 -0.5227746 -0.20817615
-0.04925918 -0.27462023 0.08769859 -0.20758809 -0.10854719 -0.11982686 -0.021253502 -0.09731729
-0.08223042 -0.3121781 -0.122864366 -0.09918145 -0.06038942 -0.09975813 -0.026883522 -0.20985554
-0.25335827 -0.32716095 -0.08105764 -0.04937749 -0.22588436 -0.06312886 -0.35036182 -0.21160185
-0.1610679 -0.056884363 -1.0806643 -0.4144549 -0.50217885 0.0033364785 -0.06701861 -0.048346557
-0.17025723 -0.014118013 -0.06868997 0.07970337 -0.07774924 -0.057598975 -0.05805473 -0.051915627
-0.115149684 -0.12548691 -0.05471869 -0.07606776 -0.114761025 -0.5597044 -0.22319596 -0.145871
-0.5944907 -0.048770655 -0.17589417 -0.4340368 -0.0704013 -0.17578942 0.016764145 -0.5786435
0.03169033 -0.15717767 -0.045498528 -0.15598093 -0.06749985 -0.091270894 -0.19277146 -0.23443992
-0.01893993 -0.11257467 -0.1101958 -0.24772388 0.01781834 0.008042412 -0.11470713 -0.08002769
-0.01842101 -0.31481633 -0.07188568 -0.3203922 -0.23016208 -0.014490599 -0.18974775 -0.11340435
-0.06204451 -0.22435789 -0.4064084 -0.11694257 -0.55084985 -0.1551913 -0.059395213 -0.048351076
-0.6036198 -0.24580516 -1.8475363 -0.24395539 -0.2710303 -0.045911036 -0.0871671 -0.3318887
00000000: 6fa4 06bd 4c3c 74bd 3fcc 95bd 4be5 4d3d
00000010: 5fe1 f3bc e46c 19be 281e 68bc fd79 1abb
00000020: d50c 87bd 5966 96bd 6a08 03be d5b3 15bd
00000030: 4e79 3dbd 580f a63c 636b 8dbc ad61 28bd
00000040: 80c5 80bd a336 1bbf c0cc bcbd 647d cbbc
00000050: b777 44be e92a afbd 395c 89bc f8de 1d3d
00000060: 93d6 a2bd 2bd9 76bd 6be6 07be 23ce 76bd
00000070: 3bb7 4abd 9fe4 dbbe 841d d3bf 20d3 14be
00000080: 0c5b 0ebc ca31 cabd a256 5e3d a3d3 05bc
00000090: d59a 19be cc98 f0bd 0fc6 0cbe cf5c 87bd
000000a0: 69b4 e8bc 090c d4bd 7f1f 33be 38e4 2dbe
000000b0: ad6d 83bd ca61 02bd b5eb b3bd 6c98 1dbe
000000c0: 6802 0ebe 6627 83bb 98d6 65bd 6ada 06be
000000d0: 968e 11bf 973d 08be 89d7 05bf a251 d7bd
000000e0: d50c 14be fe1a 4dbd cdfe 00bf 0855 ebbe
000000f0: 124d a6be a80e 17bd adac 3ebd 4929 d0bd
00000100: fae1 a5be c8a8 fcbb ec7f b83a e40a 25bd
00000110: 479c df3b 6759 02be 6974 10be 89f3 30bd
00000120: 285e 0bbe ad69 5ebd 2035 48bd 5c0a 383d
00000130: 7ca5 67bc 7055 61c0 eb6e 4bbd 907e a9ba
00000140: efd9 bdbd 5c84 4abe fb86 b2bd 5709 acbf
00000150: 921a 94bb 09aa 0dbe 2ff2 15ba f63f 42be
00000160: 2668 95bd b5a3 c8bd 66f6 3c3c 540f 2abe
00000170: 221c 53bd c646 64bc 1b06 44bc c625 d7be
00000180: 3841 913c eb19 63be 2336 2bbd b4d3 cebd
00000190: 150b 0abe 75bd c4bc 2a9e 87bd 2132 9dbc
000001a0: 3955 b4bd e908 aabc 6c7e 1abe aa27 0fbd
000001b0: e0c2 9ebc dcfa 35bd 9b64 d7bd 65a5 09bd
000001c0: d9cf afbd ab0e 09be 0fcd 33be 4527 09be
000001d0: 6126 29c0 dfcc 95bd 08f1 12be f370 16be
000001e0: 2b61 4fbe 63ec febc 0971 83c0 a04c 58bd
000001f0: a9c1 f6bd f5ef b73b ac56 bcbd 990f d2bd
00000200: 1268 70bd e383 a5be 2928 86be e087 573c
00000210: 48a5 bfbd 0bf5 e0be f20b d9bd 002b 36bd
00000220: c397 bbbd a368 1cbd 66a2 efbd 9742 96bd
00000230: 5140 e7bd 3b44 4cbc aaa5 9bbd 21d3 4dbe
00000240: fa6f a5bd 5bd9 62bf d389 c6bc 510a 3abc
00000250: 866e b2be 60c5 96be 0a59 0ebe 3926 98bc
00000260: c930 06bc 9f58 1dbd 5c99 98be f079 c8bd
00000270: f2cb 64bc b4db 88be 8ed4 05bf 212c 55be
00000280: fec3 49bd 069b 8cbe 519b b33d f991 54be
00000290: fd4d debd c967 f5bd d31b aebc 4a4e c7bd
000002a0: 6c68 a8bd cfd5 9fbe 50a0 fbbd a51f cbbd
000002b0: e55a 77bd fe4d ccbd d53a dcbc 5fe4 56be
000002c0: 2db8 81be a481 a7be 8c01 a6bd 0d40 4abd
000002d0: 3b4e 67be b449 81bd a062 b3be 28ae 58be
000002e0: fcee 24be 94ff 68bd 3553 8abf 6f33 d4be
000002f0: cb8e 00bf d2a8 5a3b 0e41 89bd 0a07 46bd
00000300: e957 2ebe 3d4f 67bc 54ad 8cbd 853b a33d
00000310: fe3a 9fbd e7ec 6bbd ccca 6dbd 7ba5 54bd
00000320: 99d3 ebbd a47f 00be b520 60bd 6ac9 9bbd
00000330: d407 ebbd ca48 0fbf 7b8d 64be 355f 15be
00000340: 8b30 18bf bdc3 47bd 9a1d 34be 123a debe
00000350: 8f2e 90bd 2402 34be f654 893c fb21 14bf
00000360: b8cd 013d 2ff3 20be aa5c 3abd 77b9 1fbe
00000370: 5d3d 8abd 3cec babd e265 45be 0511 70be
00000380: e927 9bbc 8c8d e6bd 56ae e1bd 54ab 7dbe
00000390: c4f7 913c 52c4 033c 92eb eabd 8fe5 a3bd
000003a0: a8e7 96bc 9b2f a1be cd38 93bd 720a a4be
000003b0: 9caf 6bbe fa69 6dbc 3c4d 42be 8a40 e8bd
000003c0: 6222 7ebd 13be 65be c314 d0be 967f efbd
000003d0: 7f04 0dbf 78ea 1ebe 6548 73bd c70b 46bd
000003e0: d486 1abf 59b4 7bbe 127c ecbf 71cf 79be
000003f0: 7cc4 8abe 360d 3cbd aa84 b2bd 51ed a9be

nn_model.2.bias f4 [128]
-0.27155417 -0.5727956 -0.3166592 -0.19624165 -0.19798508 0.24987951 -0.16765319 -0.20772251
-0.15772335 -0.20227522 -0.14318399 -0.6330819 -0.19444089 -0.17258924 -0.24345483 -0.14622729
0.20779848 -0.18852976 -0.18046303 -0.2021271 -0.32961145 -0.1505042 0.25806776 0.16789925
-0.14821427 -0.232112 -0.22349264 -0.16215228 -0.21688545 -0.09367048 -0.60236025 -0.16555169
-0.2281848 -0.22572902 -0.54084647 -0.32116494 -0.10733699 -0.19579016 -0.1941106 -0.20170282
-0.09691223 0.32815894 0.19786732 0.07912916 -0.19831164 -0.19808805 -0.4032222 -0.20527591
-0.23370294 -0.22828665 -0.26473764 -0.20310602 -0.66898286 -0.23416717 -0.15381885 -0.60300756
-0.13737054 0.36920258 -0.19477868 -0.5440044 0.013406997 -0.18757917 -0.12539648 0.36952165
-0.205488 -0.6501482 -0.13929728 -0.22246946 -0.01170983 -0.26441383 0.33168912 0.13558987
-0.19094634 -0.15645948 -0.15930383 -0.2552442 -0.03298516 -0.13655716 0.16749339 -0.23583642
-0.1538521 -0.21459278 -0.21403287 -0.16382849 -0.13175564 -0.15447794 -0.25874376 0.015497173
-0.57542574 -0.1306944 -0.16772367 -0.26180375 -0.16461274 -0.23184332 -0.43797454 -0.37116155
-0.18982674 -0.6335471 -0.21213052 -0.23739657 -0.5628694 -0.28216308 -0.15827003 -0.14173716
-0.23779812 -0.17573346 -0.24627419 -0.23205948 -0.5334238 -0.5543795 0.02812553 -0.23925483
-0.2325821 -0.17520909 -0.16083863 -0.43243372 -0.18679342 -0.12056753 -0.17349641 -0.65095335
-0.15222085 0.11098803 -0.12800407 -0.24004239 -0.13845217 -0.57225305 -0.18042336 -0.16044378
00000000: 2609 8bbe bca2 12bf 2821 a2be 92f3 48be
00000010: 9abc 4abe 6ae0 7f3e 47ad 2bbe 36b5 54be
00000020: 3b82 21be 3c21 4fbe d39e 12be a811 22bf
00000030: 831b 47be 3cbb 30be 394c 79be 9bbc 15be
00000040: 20c9 543e f20d 41be 4dcb 38be 68fa 4ebe
00000050: d5c2 a8be c61d 1abe 7521 843e c8ed 2b3e
00000060: 7bc5 17be c5ae 6dbe 41db 64be 3f0b 26be
00000070: 3817 5ebe 4fd6 bfbd 4834 1abf 6286 29be
00000080: 47a9 69be 8225 67be ea74 0abf bb6f a4be
00000090: 7fd3 dbbd 377d 48be eec4 46be 2f8b 4ebe
000000a0: eb79 c6bd 7304 a83e bb9d 4a3e 780e a23d
000000b0: 3512 4bbe 98d7 4abe 2473 cebe d933 52be
000000c0: d34f 6fbe fac3 69be b18b 87be 06fb 4fbe
000000d0: 7642 2bbf 85c9 6fbe b082 1dbe b45e 1abf
000000e0: ddaa 0cbe 1f08 bd3e 1074 47be df43 0bbf
000000f0: 05a9 5b3c c114 40be ef67 00be f131 bd3e
00000100: 726b 52be 1d70 26bf f2a3 0ebe 09cf 63be
00000110: 96da 3fbc 4061 87be 28d3 a93e 12d8 0a3e
00000120: 7087 43be ea36 20be 8b20 23be 5eaf 82be
00000130: 721b 07bd a4d5 0bbe 6383 2b3e 1a7f 71be
00000140: 688b 1dbe 36be 5bbe 6f2b 5bbe a8c2 27be
00000150: f3ea 06be 772f 1ebe 107a 84be dbe7 7d3c
00000160: 1a4f 13bf c1d4 05be c1bf 2bbe 240b 86be
00000170: 3e90 28be 5668 6dbe 333e e0be e308 bebe
00000180: f161 42be 2530 22bf be38 59be 1618 73be
00000190: 3618 10bf ae77 90be 8a11 22be 8c23 11be
000001a0: 5a81 73be 79f3 33be 4d2f 7cbe 00a1 6dbe
000001b0: 768e 08bf d1eb 0dbf 8367 e63c 38ff 74be
000001c0: 012a 6ebe 036a 33be e2b2 24be f467 ddbe
000001d0: c646 3fbe 1cec f6bd 0ba9 31be e1a4 26bf
000001e0: c8df 1bbe b14d e33d 8013 03be accd 75be
000001f0: 68c6 0dbe 2d7f 12bf e7c0 38be 604b 24be

nn_model.4.weight f4 [128, 128]
0.1153388 -0.049230088 -0.11412504 -0.12034664 -0.014903594 0.09381019 -0.10462044 -0.0026914342
0.043784555 0.048263147 -0.10761835 -0.031500664 0.066623814 -0.010384979 0.12082367 0.02529247
0.1161725 0.070660956 0.108223654 0.1387028 -0.102089025 0.078022 0.02323489 0.49887416
-0.10020168 -0.03395363 0.012279964 0.2527103 -0.002149679 0.15633526 0.012414226 0.115940556
0.051045053 0.13545409 -0.09737131 -0.06604125 0.15160957 -0.024926422 0.07374046 0.012441564
-0.056558248 0.029546015 -0.12448844 -0.027468784 0.13253282 0.046944488 0.054745167 -0.021880606
0.060285043 0.019644586 -0.1278219 0.03196846 -0.058845196 0.081149265 0.07836983 0.037802186
-0.060430717 -0.05559608 -0.036928833 -0.0076267566 -0.04864925 0.044832513 -0.0023371265 0.28143704
0.096096076 0.064555235 0.13295615 -0.013049309 -0.37051883 -0.039643563 0.2691504 0.2630959
0.07804432 0.05438596 0.075293995 0.034559913 0.24866092 -0.062250637 -0.2945118 -0.08109071
0.11151884 -0.04463432 0.023787372 -0.045226295 -0.055183917 -0.0024548955 -0.05164335 0.15236448
0.07923396 -0.04072513 0.047864128 -0.05138249 0.031556167 0.0021181358 0.04333561 -0.026456108
-0.00816306 -0.0077618556 0.113372825 0.0937406 -0.061705057 -0.031969 -0.089880526 0.055380333
0.112927884 -0.01773514 0.15249173 -0.099867605 0.05650533 -0.0027485718 -0.4786369 -0.0727714
-0.056572314 0.13836621 -0.027076803 -0.026156196 -0.14379181 -0.0037043344 0.12304243 0.014050793
0.0958719 0.0046800943 0.010072704 0.057286553 0.06302659 -0.026038226 0.027798522 0.131412
0.07574455 -0.032819945 0.033485815 -0.009610313 -0.06422458 -0.17625074 -0.0164093 0.046478566
0.041560628 -0.032390606 0.09113104 0.069339134 -0.053048145 0.016970983 -0.017570117 0.056973916
-0.15515335 0.010290376 0.025617689 0.10491827 0.013729543 -0.0011923397 -0.020004177 -0.22488073
0.09997218 -0.117907025 0.04184032 -0.11864251 -0.05076251 -0.11687268 0.041290324 0.037910257
-0.013713152 -0.10320632 0.047823012 0.086053744 -0.13093732 0.02396659 -0.092709206 0.022518503
-0.067993805 -0.17785108 -0.0446132 -0.064599685 0.09091236 -0.020674922 0.0011265621 0.057661988
-0.017159466 -0.09279202 0.09745051 -0.114030644 -0.03280919 -0.008704157 -0.027177794 0.03443059
-0.06706347 -0.18886152 -0.0067264293 0.06372534 -0.116237976 -0.05753556 -0.027764216 -0.21599771
-0.110895984 0.07382599 0.019239184 0.117318794 -0.19366273 0.14334308 -0.17508595 -0.084467016
0.14226668 -0.02507915 -0.086672164 -0.02609545 -0.17815179 0.08010206 -0.16870117 0.12354339
0.019940631 0.054596826 0.042693503 -0.026058758 0.039849397 0.10969066 0.1228984 -0.059724934
0.13431454 0.04350561 -0.00679886 0.08541433 -0.12244048 0.07914094 0.032226443 0.03706103
-0.030147946 0.07249774 0.038543038 -0.047719344 0.019432979 0.07908415 0.13358662 -0.09802863
-0.052887984 -0.054036777 -0.02384439 0.088480726 0.056199495 0.07664459 -0.14878018 -0.06178785
-0.020280454 0.0073243817 0.011066681 0.04795234 0.017559264 -0.019389898 0.089892335 -0.022533933
-0.012747713 -0.09588738 0.006622573 -0.0027663333 0.06742308 -0.03761133 0.036934968 0.0965458
00000000: c036 ec3d 7da5 49bd 64ba e9bd 4d78 f6bd
00000010: 342e 74bc 8f1f c03d 3e43 d6bd c662 30bb
00000020: 6f57 333d 94af 453d 0267 dcbd d706 01bd
00000030: 1172 883d c225 2abc 6672 f73d 2732 cf3c
00000040: d9eb ed3d b1b6 903d 5da4 dd3d 1b08 0e3e
00000050: 0d14 d1bd 00ca 9f3d 1957 be3c 6f6c ff3e
00000060: 8a36 cdbd f612 0bbd e731 493c 3f63 813e
00000070: a1e1 0cbb 5a16 203e 0a65 4b3c 3e72 ed3d
00000080: 9e14 513d 7ab4 0a3e 9c6a c7bd a340 87bd
00000090: 8a3f 1b3e 7f32 ccbc 3d05 973d b4d7 4b3c
000000a0: 9fa9 67bd 7c0a f23c ccf3 febd 3706 e1bc
000000b0: afb6 073e dd48 403d 783c 603d f53e b3bc
000000c0: 73ed 763d afed a03c bfe3 02be 5cf1 023d
000000d0: a907 71bd 9631 a63d 5d80 a03d 77d6 1a3d
000000e0: 3386 77bd b7b8 63bd b042 17bd dfe9 f9bb
000000f0: 7044 47bd 4ca2 373d 7a2a 19bb 8418 903e
00000100: 05ce c43d 8935 843d a825 083e c5cc 55bc
00000110: a5b4 bdbe 4a61 22bd 15ce 893e 81b4 863e
00000120: b3d5 9f3d d0c3 5e3d bd33 9a3d b28e 0d3d
00000130: f8a0 7e3e 86fa 7ebd 40ca 96be e312 a6bd
00000140: fd63 e43d 7ad2 36bd bcdd c23c 353f 39bd
00000150: 8808 62bd 50e2 20bb fa87 53bd 6f05 1c3e
00000160: 6a45 a23d 65cf 26bd 2d0d 443d 7276 52bd
00000170: 0a41 013d 6cd0 0a3b ae80 313d 7bba d8bc
00000180: 5bbe 05bc 2a57 febb 0330 e83d 12fb bf3d
00000190: 71be 7cbd edf1 02bd 4813 b8bd 7dd6 623d
000001a0: bc46 e73d 4949 91bc cb26 1c3e 6387 ccbd
000001b0: 2272 673d 6221 34bb e50f f5be 2c09 95bd
000001c0: 5fb8 67bd dfaf 0d3e 2cd0 ddbc 8545 d6bc
000001d0: 293e 13be 6bc4 72bb abfd fb3d 4c35 663c
000001e0: 7d58 c43d 7a5b 993b fc07 253c 4ea5 6a3d
000001f0: 1614 813d 1e4e d5bc bab9 e33c de90 063e
00000200: f51f 9b3d 356e 06bd 6c28 093d 9374 1dbc
00000210: 2d88 83bd 137b 34be cc6c 86bc 4f60 3e3d
00000220: 7a3b 2a3d 03ac 04bd e9a2 ba3d ad01 8e3d
00000230: 0349 59bd bb06 8b3c 35ef 8fbc 7b5d 693d
00000240: 85e0 1ebe f798 283c 30dc d13c 64df d63d
00000250: e1f1 603c 4848 9cba cddf a3bc 2247 66be
00000260: 37be cc3d 3d79 f1bd c160 2b3d d8fa f2bd
00000270: 5aec 4fbd f25a efbd 0b20 293d c947 1b3d
00000280: 21ad 60bc d65d d3bd 10e2 433d f23c b03d
00000290: 6f14 06be 9555 c43c 53de bdbd b978 b83c
000002a0: 5640 8bbd 981e 36be 55bc 36bd d74c 84bd
000002b0: 4230 ba3d 745e a9bc 27a9 933a fa2e 6c3d
000002c0: 0292 8cbc be09 bebd 2294 c73d e688 e9bd
000002d0: ee62 06bd e19b 0ebc f7a3 debc 1707 0d3d
000002e0: 9358 89bd ea64 41be 6169 dcbb 6e82 823d
000002f0: 2d0e eebd 68aa 6bbd c871 e3bc 812e 5dbe
00000300: 6f1d e3bd 1532 973d 7e9b 9d3c d644 f03d
00000310: 864f 46be 87c8 123e bb49 33be 0bfd acbd
00000320: 5bae 113e ca72 cdbc 2d81 b1bd 20c6 d5bc
00000330: 6c6d 36be 8d0c a43d 00c0 2cbe 5104 fd3d
00000340: 895a a33c eca0 5f3d 62df 2e3d 2d79 d5bc
00000350: 1f39 233d 7fa5 e03d 28b2 fb3d 22a2 74bd
00000360: c089 093e f032 323d f9c8 debb b5ed ae3d
00000370: 13c2 fabd a514 a23d e0ff 033d 4ecd 173d
00000380: d3f8 f6bc b279 943d 4edf 1d3d 5c75 43bd
00000390: e931 9f3c dff6 a13d eeca 083e 3cc3 c8bd
000003a0: 12a1 58bd ab55 5dbd 4f55 c3bc 6235 b53d
000003b0: 7131 663d d7f7 9c3d d559 18be 4215 7dbd
000003c0: 3223 a6bc 5e01 f03b 0651 353c ac69 443d
000003d0: 72d8 8f3c 90d7 9ebc 7919 b83d 1599 b8bc
000003e0: c9db 50bc 9a60 c4bd 2b02 d93b 5f4b 35bb
000003f0: 1d15 8a3d 570e 1abd 1f49 173d ceb9 c53d

nn_model.4.bias f4 [128]
-0.42716062 -0.33484215 -0.48290625 -0.37332353 -0.4685371 -0.3054867 -0.33444422 -0.7377227
-0.48058352 -0.3525086 -0.33640692 -0.37921655 -0.31452897 -1.0237193 -0.20306045 -0.4254394
0.2958524 -1.0608828 -0.31090975 0.04784037 -1.0278456 -0.01850187 -0.31410065 -0.43049493
0.15287566 -0.39249736 -0.35183242 -0.32127038 -0.40983456 -0.31960416 0.3428641 -0.33386314
0.51955193 -0.36348125 0.3696832 -0.21654083 -0.4433159 -0.38275227 -0.35169506 -0.05170792
0.15715349 -0.6451193 -1.0167694 -1.053756 -0.46453837 -0.42411307 -0.14962828 -0.37408215
-0.41361678 -0.13361047 -0.34156984 -0.36763275 -0.06342693 -0.026205389 -1.0278249 -0.01318869
-0.19518495 -0.24830534 -1.1087017 -0.24305905 -0.5515725 -0.3571211 0.124713205 -0.2989119
-0.3556717 0.12058577 0.15721585 0.1044774 -0.47962448 -0.40488732 -0.5736778 -0.33577716
0.17580706 -0.29418832 -1.0688657 -0.47951505 0.15551335 -0.5363292 -0.41655207 -0.4187494
-1.0381439 0.20759958 -1.1092205 -0.48963457 -0.36499396 -0.554177 -0.34851393 -0.42205486
-1.0231394 -1.0616617 -0.4369493 -0.23082538 -0.27426675 -0.34928378 -0.6952362 -1.0391593
0.29495645 -0.27172396 -0.61095506 -0.48367664 -0.34578368 -0.33003074 -0.5313469 -0.22481534
-0.31556448 -1.093566 0.008979001 -0.41201723 -0.07304369 -0.40940958 -0.3600682 -0.009050972
-0.3700925 -0.18012583 -1.0436206 -0.39421326 -1.0612813 0.106060416 -0.36798778 0.01859594
0.19847088 0.2782827 0.21412462 0.18729705 -1.0548737 -0.82142305 -0.34201953 -0.37280813
00000000: ccb4 dabe 6e70 abbe 7d3f f7be 4324 bfbe
00000010: 18e4 efbe c168 9cbe 463c abbe 65db 3cbf
00000020: 0b0f f6be 027c b4be 873d acbe ac28 c2be
00000030: f109 a1be 3c09 83bf 14ef 4fbe 31d3 d9be
00000040: f779 973e 02cb 87bf 902f 9fbe 44f4 433d
00000050: 7290 83bf 3c91 97bc cdd1 a0be d569 dcbe
00000060: 708b 1c3e 6af5 c8be 6123 b4be 8d7d a4be
00000070: d6d5 d1be 28a3 a3be e28b af3e 1cf0 aabe
00000080: 5b01 053f 371a babe 1e47 bd3e e1bc 5dbe
00000090: 4dfa e2be 1bf8 c3be 6011 b4be afcb 53bd
000000a0: d8ec 203e 8a26 25bf 8025 82bf 7ae1 86bf
000000b0: f9d7 edbe 5925 d9be 2838 19be b287 bfbe
000000c0: 94c5 d3be 2fd1 08be 3ee2 aebe 5c3a bcbe
000000d0: fae5 81bd afac d6bc c48f 83bf 6015 58bc
000000e0: 90de 47be c143 7ebe f0e9 8dbf 79e4 78be
000000f0: db33 0dbf 94d8 b6be a369 ff3d fb0a 99be
00000100: 9a1a b6be acf5 f63d 31fd 203e 3ff8 d53d
00000110: 5791 f5be 644d cfbe 8cdc 12bf fcea abbe
00000120: c406 343e da9f 96be 97d0 88bf ff82 f5be
00000130: e43e 1f3e df4c 09bf 5046 d5be 5266 d6be
00000140: e6e1 84bf fc94 543e f0fa 8dbf 62b1 fabe
00000150: 7de0 babe 8bde 0dbf 6b70 b2be 9317 d8be
00000160: 3bf6 82bf 88e4 87bf d2b7 dfbe 7d5d 6cbe
00000170: b16c 8cbe 53d5 b2be 00fb 31bf 2c03 85bf
00000180: 8804 973e 671f 8bbe 8d67 1cbf 77a4 f7be
00000190: 8f0a b1be caf9 a8be 5a06 08bf fe35 66be
000001a0: ab91 a1be f8f9 8bbf a91c 133c ecf3 d2be
000001b0: ee97 95bd 229e d1be dc5a b8be 874a 14bc
000001c0: c47c bdbe e872 38be 5c95 85bf 52d6 c9be
000001d0: 11d8 87bf 3436 d93d e568 bcbe 8356 983c
000001e0: f33b 4b3e 127b 8e3e 7c43 5b3e ccca 3f3e
000001f0: 1a06 87bf c848 52bf 2f1d afbe b5e0 bebe

allocation_head.0.weight f4 [12, 128]
-0.032215927 -0.035192955 -0.013763303 -0.125086 -0.09405345 -0.00054557674 -0.061805937 0.011561383
-0.067857 -0.036663987 -0.086766794 -0.095550895 -0.100270264 -0.05853802 -0.014967311 -0.045717657
0.6180123 0.05303503 -0.0022795969 -0.1568239 0.012392152 -0.028873106 -0.07824492 0.0769667
0.071467504 -0.05064696 0.019980492 -0.14204924 -0.11569207 -0.082431175 0.028393593 0.016313033
-0.0027492933 -0.04819859 -0.22880402 -0.098183274 -0.07399309 0.01592731 -0.020611487 0.08682066
-0.011905548 -0.10370698 0.014953956 -0.082527734 -0.018267965 -0.10560161 0.37353656 -0.00823014
-0.105369665 -0.01985711 -0.0018316249 0.027815234 -0.22219072 0.63450515 0.059263177 -0.062957704
0.031968426 -0.14065924 -0.061260737 -0.37883613 -0.019349888 -0.02450489 -0.04259242 0.020261262
-0.012278721 -0.06719121 0.00064566015 -0.067213796 -0.00510211 0.024817012 -0.12796211 -0.0924455
0.10382947 0.013179486 0.06798223 0.5926014 -0.010184669 -0.13253503 0.005231341 -0.11533506
-0.08237389 0.068423145 0.06720694 -0.14821452 -0.04351046 -0.0667693 -0.07459946 -0.100511126
0.033990286 -0.052352726 -0.027647683 0.022799399 -0.005120688 -0.027002718 -0.14372742 -0.057337247
0.30687225 -0.15146951 -0.12670535 -0.0068019964 0.023096967 -0.00049623044 -0.09412785 0.0050399275
-0.14425074 -0.0018354614 0.021895757 -0.02934717 0.09878348 -0.04669865 0.01656643 -0.02343077
-0.113793574 0.1083842 0.060572527 -0.02886937 -0.021998473 0.057518743 -0.04715585 0.63101125
0.03240586 0.02848357 0.034728795 0.004878551 -0.08478642 -0.007486828 -0.08217925 -0.10310254
-0.00473144 -0.034773685 0.04030931 -0.041142367 -0.117582545 0.037842456 0.0032182576 -0.06662154
-0.057558924 -0.06767848 -0.042166457 0.07739924 0.12735075 0.056131534 0.13117658 -0.066151455
0.14907165 -0.041902903 0.04751948 -0.044189937 -0.054658107 -0.16111729 -0.14277293 -0.15789124
0.64765364 -0.011460869 -0.012264587 -0.14529839 -0.0049104714 -0.12921876 0.92204505 -0.09589347
-0.41778773 0.024722803 -0.17313209 -0.030426908 -0.04520404 -0.058905944 -0.100203685 0.08853584
0.024715547 -0.06433558 0.077730425 -0.036052898 0.14538303 -0.028027378 -0.042520575 -0.0041307122
-0.07728288 -0.079130776 0.079843394 -0.1314806 0.094176665 0.063816145 0.06311924 0.042070564
-0.23556675 -0.21042971 -0.021255158 0.09922528 -0.13146482 -0.012155476 -0.00075356243 0.12684454
-0.12017492 0.10598088 -0.40574774 -0.07870355 -0.11162121 -0.02984535 -0.11250665 -0.0619817
0.016683724 -0.0030773268 -0.09153057 -0.101094715 0.27021196 0.003921983 -0.016327284 0.014521212
0.031961896 0.08810213 -0.0006579682 -0.07751625 -0.04896442 0.039205704 -0.06067517 -0.04877224
-0.06913781 -0.04632711 0.011322353 0.021985319 0.07359486 0.027385568 -0.024650024 0.0025025457
0.17246452 -0.14330786 -0.120916374 0.02029173 -0.08970983 -0.073142916 -0.054617316 -0.020036353
-0.04901801 0.060681332 0.36283252 0.014233133 0.21785314 -0.122446254 0.007866722 -0.007623686
-0.030590942 0.06624693 -0.02845361 -0.045634508 0.0455044 -0.034849543 0.0038538342 0.08057952
0.15224464 0.09364825 0.11702903 0.39891666 0.07308998 0.019240087 -0.1125277 -0.09273479
00000000: d9f4 03bd 7d26 10bd 7a7f 61bc 8b16 00be
00000010: 189f c0bd 0905 0fba 3928 7dbd f46b 3d3c
00000020: 9cf8 8abd fa2c 16bd cab2 b1bd 30b0 c3bd
00000030: 7f5a cdbd 90c5 6fbd 7439 75bc 7042 3bbd
00000040: 0e36 1e3f 423b 593d 4a65 15bb 7296 20be
00000050: 7408 4b3c 4b87 ecbc df3e a0bd b8a0 9d3d
00000060: 8e5d 923d 3073 4fbd 21ae a33c 5b75 11be
00000070: f7ef ecbd add1 a8bd ae99 e83c e9a2 853c
00000080: 7d2d 34bb e26b 45bd 9a4b 6abe 5014 c9bd
00000090: b089 97bd fd79 823c 6cd9 a8bc 08cf b13d
000000a0: 7d0f 43bc 5364 d4bd 7001 753c 4d04 a9bd
000000b0: b3a6 95bc a845 d8bd 2f40 bf3e b6d7 06bc
000000c0: 0dcc d7bd 61ab a2bc 2213 f0ba c6dc e33c
000000d0: f785 63be ee6e 223f f2bd 723d f8ef 80bd
000000e0: 53f1 023d fa08 10be 8aec 7abd cff6 c1be
000000f0: a883 9ebc 7bbe c8bc 6475 2ebd f2fa a53c
00000100: b02c 49bc 8c9b 89bd 8541 293a 63a7 89bd
00000110: 9a2f a7bb 0c4d cb3c 8008 03be 1154 bdbd
00000120: 8ca4 d43d c5ee 573c 443a 8b3d bab4 173f
00000130: 99dd 26bc 43b7 07be ab6b ab3b ca34 ecbd
00000140: a4b3 a8bd 6f21 8c3d cba3 893d 8cc5 17be
00000150: 0638 32bd 58be 88bd 9ac7 98bd c7d8 cdbd
00000160: 6639 0b3d d06f 56bd 657d e2bc cec5 ba3c
00000170: 72cb a7bb ce34 ddbc 482d 13be 76da 6abd
00000180: 5c1e 9d3e d31a 1bbe 0cbf 01be 48e3 debb
00000190: da35 bd3c 7615 02ba 1ac6 c0bd fa25 a53b
000001a0: 77b6 13be dd93 f0ba bb5e b33c 7a69 f0bc
000001b0: fe4e ca3d 1547 3fbd 52b6 873c e3f1 bfbc
000001c0: 9b0c e9bd 89f8 dd3d e61a 783d 757f ecbc
000001d0: 2436 b4bc c698 6b3d 7e26 41bd f489 213f
000001e0: 02bc 043d 6056 e93c c83f 0e3d 40dc 9f3b
000001f0: 81a4 adbd 1154 f5bb 984d a8bd 6d27 d3bd
00000200: 320a 9bbb da6e 0ebd 601b 253d e684 28bd
00000210: 1ecf f0bd b100 1b3d 67e9 523b e070 88bd
00000220: e8c2 6bbd 049b 8abd bcb6 2cbd 7e83 9e3d
00000230: 3c68 023e 2eea 653d 2753 063e 6a7a 87bd
00000240: 3da6 183e 61a2 2bbd c9a3 423d 8200 35bd
00000250: 2ee1 5fbd eefb 24be 1133 12be 3eae 21be
00000260: a1cc 253f 5ec6 3bbc 68f1 48bc 1ac9 14be
00000270: 05e8 a0bb ec51 04be 250b 6c3f cc63 c4bd
00000280: 46e8 d5be 7a87 ca3c 8a49 31be da41 f9bc
00000290: df27 39bd 5c47 71bd 9737 cdbd 4752 b53d
000002a0: 4278 ca3c 5fc2 83bd 2131 9f3d 34ac 13bd
000002b0: 4adf 143e ac99 e5bc 0e2a 2ebd ed5a 87bb
000002c0: 7d46 9ebd 510f a2bd ef84 a33d daa2 06be
000002d0: b2df c03d 0ab2 823d a944 813d 2f52 2c3d
000002e0: 6938 71be e37a 57be 4c1f aebc a036 cb3d
000002f0: b79e 06be c327 47bc b88a 45ba 89e3 013e
00000300: 451e f6bd 810c d93d 2bbe cfbe 542f a1bd
00000310: a999 e4bd 3c7e f4bc e369 e6bd 86e0 7dbd
00000320: 4eac 883c faac 49bb 6174 bbbd bf0a cfbd
00000330: 3959 8a3e fa83 803b ccc0 85bc 61ea 6d3c
00000340: 7aea 023d e46e b43d 807b 2cba d7c0 9ebd
00000350: ea8e 48bd 2996 203d 8786 78bd 66c5 47bd
00000360: 2098 8dbd 7fc1 3dbd 6481 393c 8e1a b43c
00000370: e7b8 963d b357 e03c d9ee c9bc c001 243b
00000380: 8a9a 303e 4cbf 12be 01a3 f7bd d83a a63c
00000390: cab9 b7bd f4cb 95bd 68b6 5fbd 4723 a4bc
000003a0: 1cc7 48bd fd8c 783d 2fc5 b93e 1632 693c
000003b0: e514 5f3e 1ac5 fabd 6ce3 003c 1dd0 f9bb
000003c0: db99 fabc 78ac 873d 8c17 e9bc 40eb 3abd
000003d0: d262 3a3d 65be 0ebd 9c90 7c3b e006 a53d
000003e0: 05e6 1b3e a7ca bf3d ebac ef3d ce3e cc3e
000003f0: 33b0 953d 639d 9d3c ec74 e6bd bdeb bdbd

allocation_head.0.bias f4 [12]
-0.17924252 -0.063013926 -0.0133761875 0.4074189 0.36700875 0.17124534 -0.15250282 -0.044078447
-0.14610496 -0.085503854 -0.14625402 -0.1668239
00000000: 5a8b 37be 720d 81bd cc27 5bbc 3699 d03e
00000010: 92e8 bb3e f05a 2f3e b329 1cbe 9a8b 34bd
00000020: 8a9c 15be a51c afbd 9dc3 15be e2d3 2abe

payment_head.0.weight f4 [3, 128]
-0.008352676 0.050104126 0.021769786 0.08131281 0.14705049 -0.11349481 0.051782776 0.08202688
0.009128613 -0.014213569 -0.00638643 -0.039599705 -0.017361887 0.017216563 -0.09829607 -0.026406739
0.2712926 -0.05015237 -0.07653987 -0.2509821 0.0032420643 -0.07184568 -0.022298744 0.009403744
0.5997508 0.014722556 0.023271685 0.035237864 0.09783704 0.002074974 0.6805149 0.096153036
-0.17774922 0.061251603 -0.39099142 0.02895493 0.08463991 0.04896811 -0.013030769 0.051027082
-0.09424484 0.044406187 0.041660763 0.032761946 -0.080593884 0.053918306 0.3489263 0.060472287
-0.0098991925 -0.104608014 0.059636984 0.031203005 -0.06717216 0.6263028 0.046758465 -0.23753542
-0.11538802 -0.08144075 0.020520732 0.0081682205 0.006534959 0.07643098 -0.2232507 -0.10461777
0.026321404 0.020439247 -0.33903378 -0.19136451 0.10793643 0.05032756 -0.008623284 0.05973369
0.23647892 -0.016330587 -0.027642468 0.42949346 0.09320213 0.108947136 0.09624598 0.09408036
0.049743958 0.45440525 -0.020648196 0.04881842 0.12307998 0.060010247 0.0025419288 -0.008481356
0.049433433 0.07321378 0.12869826 -0.06791277 0.1345072 -0.021097353 -0.003913079 -0.08504996
0.08847419 0.34949383 0.019234367 -0.0136756115 0.026968379 0.003367668 -0.0213535 -0.016059607
-0.0032415427 -0.09317684 0.31502283 0.060234915 0.016945114 0.015651083 -0.0011258849 0.03013661
-0.01732914 -0.0049513117 0.019346163 0.011743258 -0.028395977 0.31723756 0.005314922 0.664325
0.29610163 -0.09671861 0.6802205 0.3661282 -0.052157715 -0.023952348 0.08362462 0.040104136
-0.048062414 0.04931965 -0.018918168 0.01797508 -0.021978032 0.12535954 0.020376712 -0.0022123225
0.050499 0.0004982485 0.013883328 0.12922242 0.005259526 0.041683264 -0.14454351 0.059850555
0.06229553 -0.049511492 0.1718247 0.54444593 0.073597 0.019311314 -0.027729234 0.06367281
-0.1081325 -0.016773261 0.10306755 0.026368964 0.028086305 -0.01007354 -0.1490975 -0.0042587006
-0.13134967 -0.061256874 0.2351057 0.10223825 0.03704607 0.021609062 0.10966575 -0.55391496
0.46407294 0.09319585 0.071204074 -0.07122409 0.13675667 0.019443909 -0.27385098 0.06058404
0.042784568 -0.17540029 0.22285026 0.007244319 -0.021444608 -0.20603217 0.013878338 -0.16762763
0.47168064 0.12263801 0.047846757 0.1841432 0.08310161 0.023121461 -0.10616084 0.15067172
-0.0047921627 0.050890412 0.058279343 0.1974259 0.03586771 0.03673458 0.06445912 0.016904771
-0.4131878 0.014525672 -0.017748233 -0.19541143 -0.21141125 0.0070274826 -0.025388755 0.034543686
-0.04728498 -0.20215423 -0.030668605 0.10945941 0.016219895 0.07363551 0.010176224 0.03246844
0.06958141 -0.043393034 0.054739993 0.004186734 -0.11525691 0.015065344 0.0066969832 -0.030995507
-0.45030794 -0.029843222 0.040331926 0.14202984 0.011557969 0.032415632 0.087769106 0.15208429
0.1446066 -0.016754882 -0.31002805 -0.04967049 -0.019456351 0.008815074 0.04347035 -0.29597867
-0.02491885 0.08354746 0.0060048476 0.13689412 0.07033334 -0.09992863 0.09542744 -0.2275737
0.22437854 -0.15816861 -0.19602706 -0.15572824 0.013202541 0.08410806 -0.0040906738 0.08057296
00000000: aad9 08bc fc39 4d3d 8d56 b23c 5587 a63d
00000010: 6794 163e f86f e8bd 2d1a 543d b5fd a73d
00000020: 2e90 153c 08e0 68bc 4245 d1bb 4d33 22bd
00000030: 843a 8ebc c009 8d3c 734f c9bd f252 d8bc
00000040: dde6 8a3e 926c 4dbd efc0 9cbd ba80 80be
00000050: d078 543b d423 93bd dbab b6bc 2912 1a3c
00000060: 4589 193f e036 713c 43a4 be3c 9455 103d
00000070: c95e c83d 49fc 073b 3936 2e3f e2eb c43d
00000080: e403 36be f6e2 7a3d 0730 c8be e432 ed3c
00000090: b057 ad3d c992 483d 027f 55bc c601 513d
000000a0: 7003 c1bd 43e3 353d 7aa4 2a3d 6431 063d
000000b0: 680e a5bd 71d9 5c3d 78a6 b23e cab1 773d
000000c0: 3930 22bc ba3c d6bd e945 743d 729d ff3c
000000d0: 8f91 89bd 6155 203f ce85 3f3d 7c3c 73be
000000e0: 8e50 ecbd 68ca a6bd 181b a83c 00d4 053c
000000f0: 3623 d63b d887 9c3d d59b 64be d741 d6bd
00000100: fc9f d73c 3570 a73c d695 adbe 0ff5 43be
00000110: c60d dd3d 4624 4e3d ad48 0dbc 50ab 743d
00000120: 8827 723e b9c7 85bc 7572 e2bc 91e6 db3e
00000130: c2e0 be3d ad1f df3d 9d1c c53d 34ad c03d
00000140: 52c0 4b3d cea7 e83e 6826 a9bc d3f5 473d
00000150: 5b11 fc3d 4ecd 753d 7d96 263b 63f5 0abc
00000160: b67a 4a3d 1bf1 953d 7ac9 033e da15 8bbd
00000170: 41bc 093e 5bd4 acbc 4939 80bb ac2e aebd
00000180: f531 b53d dbf0 b23e 6491 9d3c ac0f 60bc
00000190: caec dc3c 18b4 5c3b 89ed aebc 708f 83bc
000001a0: 1070 54bb 80d3 bebd ac4a a13e e3b8 763d
000001b0: 7bd0 8a3c b336 803c 6e92 93ba 0de1 f63c
000001c0: d7f5 8dbc 9d3e a2bb d87b 9e3c cb66 403c
000001d0: ae9e e8bc f66c a23e cc28 ae3b 3411 2a3f
000001e0: a29a 973e 6814 c6bd ee22 2e3f 2875 bb3e
000001f0: 54a3 55bd b737 c4bc 6343 ab3d 3c44 243d
00000200: 18dd 44bd 6703 4a3d 46fa 9abc 7a40 933c
00000210: 460b b4bc 405e 003e 10ed a63c 9dfc 10bb
00000220: 0ad8 4e3d e49c 023a e676 633c e252 043e
00000230: 1a58 ac3b 12bc 2a3d 3703 14be db25 753d
00000240: 9929 7f3d 90cc 4abd d0f2 2f3e cf60 0b3f
00000250: 06ba 963d c332 9e3c 6b28 e3bc e466 823d
00000260: 9274 ddbd 1468 89bc 1415 d33d ba03 d83c
00000270: 4015 e63c 7d0b 25bc 04ad 18be 928c 8bbb
00000280: 8780 06be 7de8 7abd 8cbf 703e 4a62 d13d
00000290: 9fbd 173d 7d05 b13c 7098 e03d 5fcd 0dbf
000002a0: f89a ed3e 77dd be3d 71d3 913d f0dd 91bd
000002b0: f109 0c3e d548 9f3c 3236 8cbe f826 783d
000002c0: df3e 2f3d 229c 33be dc32 643e c161 ed3b
000002d0: 9aac afbc 19fa 52be f861 633c 94a6 2bbe
000002e0: 2080 f13e a329 fb3d f6fa 433d 0990 3c3e
000002f0: 2d31 aa3d 3869 bd3c db6a d9bd b049 1a3e
00000300: 9307 9dbb 7772 503d 52b6 6e3d 042a 4a3e
00000310: 05ea 123d 0077 163d 2503 843d e07b 8a3c
00000320: 5a8d d3be 16fd 6d3c be64 91bc ef19 48be
00000330: 317c 58be cc46 e63b 14fc cfbc ae7d 0d3d
00000340: e5ad 41bd 8501 4fbe ba3c fbbc 412c e03d
00000350: 96df 843c 37ce 963d 2dba 263c a0fd 043d
00000360: b380 8e3d e5bc 31bd 0b37 603d df30 893b
00000370: d10b ecbd a2d4 763c 5e72 db3b 4aea fdbc
00000380: c38e e6be c679 f4bc 1733 253d 4570 113e
00000390: a35d 3d3c 41c6 043d 4ac0 b33d fcbb 1b3e
000003a0: c113 143e 8941 89bc ffbb 9ebe 4973 4bbd
000003b0: ed62 9fbc 1a6d 103c f70d 323d 848a 97be
000003c0: 9e22 ccbc ee1a ab3d 50c4 c43b f92d 0c3e
000003d0: ed0a 903d 62a7 ccbd 766f c33d 1409 69be
000003e0: 7dc3 653e f4f6 21be 51bb 48be 3977 1fbe
000003f0: 784f 583c d940 ac3d 0f0b 86bb 7003 a53d

payment_head.0.bias f4 [3]
0.26321524 0.61607635 0.18355434
00000000: 26c4 863e 2eb7 1d3f abf5 3b3e
