result/1x2_sparsemax_in_linsigpmt_scratch_54_checkpoint.pt (torch, 88519 bytes, 9 tensors)

nn_model.0.weight f4 [100, 2]
00000000: b4f5 86be 10a3 c33e db4c 9d3e f160 63be
00000010: e465 323e 9081 7ebe 7c3b 093f 9f7a 35be
00000020: 9477 86be 48d4 253e a502 c63e 05cd 94be
00000030: 261e 253d 5baf b43e 2e16 90bd 7e5c 5c3e
00000040: 55a3 2ebe f1c9 7d3e cb46 e1be 9c2e b4be
00000050: ad07 8dbe 3112 2e3f dc1a eebd ef23 dcbc
00000060: d7e6 cdbe 57ef 3b3f e07e 1d3f 1966 0dbf
00000070: 35a1 c8be 1769 b1be 1d6e c2bd 91ae 7abe
00000080: 89f8 ecbe 6ada 81be 7e58 f73d 2dcd c2be
00000090: 6171 203e dd0a 26be 406e afbe 97f4 c63d
000000a0: 363e 193f 4908 24bf 5942 1abd 7295 98be
000000b0: d510 663f f8e2 00bf 72cf 0dbf c120 3a3f
000000c0: e80e e5be 91d2 0a3e 1af8 79bd 2e88 18be
000000d0: 95ff 42be dacc da3e 4f6f 0a3d 393e 30bf
000000e0: c05c d5be 054c 3dbe 0d2f b63e 9549 eabe
000000f0: 75c4 403f e177 d4bd 2acf 31be c721 1d3f
00000100: 9a60 283e 5ff9 003f 2aa7 003f f323 22be
00000110: e233 f0be 877e 57bd b64b 203f f324 73bd
00000120: ca37 e0be 2ef3 cc3e dbd4 413f 6f8a 0fbe
00000130: 66e3 15bf 0232 24bf a9f6 473e f983 cfbc
00000140: 2768 e9be 4fd5 a93d f2fd b73e c8fd 203f
00000150: 3424 053f 2145 25be ed9d 1fbf c192 23bf
00000160: 8b2b 423f 7a6d bd3e b9d0 9d3e 2a9f 1cbf
00000170: b2ab 3b3f 33e6 3b3f 3001 173f ebab 1bbf
00000180: 48a6 81be 0697 e4be c3de 0a3f 35ca e2be
00000190: a82a b2be 1060 ae3e f079 a7be e34f b2be
000001a0: 3efb e5bd aa00 f5bd 2a11 00bf 2383 493f
000001b0: ffb3 9fbe a66b 803e ea3c 263f ab3f c53e
000001c0: 9cf9 263e bfcd 2a3f 84ab c23d e57f a7be
000001d0: 5372 373f a95f 483e c0aa acbe 461c e3bd
000001e0: 601b eabe c462 4f3f 2228 efbd ee00 25bf
000001f0: a6a8 fdbc 0eaf e73e 981d 3c3e daf4 643e
00000200: 953e 2b3e 5d7e b93e fe03 ebbd 1995 62be
00000210: 4733 29bf 595e 08bf 950a 703e 1355 e7be
00000220: 26c6 153e 470a 983e 4d35 8bbd 6b11 02bf
00000230: a9a5 463f 5cd9 89be 4ac8 023f 164d 24bf
00000240: fb2c 2ebe 10f0 c43e b739 87be 5eae 1f3f
00000250: a623 f9be cf03 18bf 0b40 a3be 4518 ea3d
00000260: 21d8 203f c35d 9bbe 9229 923e b4c2 48be
00000270: 02ea 7ebe 6af6 063f 9549 0cbf 36d0 993d
00000280: 8b1c 073f 1173 8abe 345e 083f a7dd bbbe
00000290: b6b6 113f 021b 2fbf d86e b7bd 7aba 07be
000002a0: 58b3 9c3e 0ab7 a43e 8f11 203f 99e1 27be
000002b0: 9c09 8a3d e4c9 0f3f fd2f 58be 1ea3 193f
000002c0: 1cdb 8bbe 7eff b8bd 1965 a23b 02ee 913e
000002d0: a8a9 fb3e 2d80 60be 94f8 15bf 2963 b33e
000002e0: 778b 853e 5e25 793e a513 9cbe 03f3 133f
000002f0: 1b81 3f3f 4e3a 1a3e 09aa 30bf eaae cc3e
00000300: 8e37 06bf f771 263e 77de ed3c ff68 ccbe
00000310: da1e 7c3e dce8 21bf 5add 1d3e 0867 14bf
-0.26359332 0.38210344 0.307227 -0.22204949 0.1742168 -0.24854112 0.5360639 -0.17722557
-0.26263106 0.1619426 0.38673893 -0.29062667 0.040311955 0.35290036 -0.070354804 0.21519658
-0.17054494 0.24784066 -0.43999323 -0.3519181 -0.2754492 0.6799651 -0.11626217 -0.026872603
-0.4021518 0.7341208 0.6152172 -0.55233914 -0.3918549 -0.3465049 -0.09493659 -0.24480654
-0.46283367 -0.2536195 0.120774254 -0.38047162 0.1566825 -0.16215082 -0.34263802 0.097146206
0.5986055 -0.6407514 -0.03766093 -0.29801518 0.89869434 -0.50346327 -0.5539466 0.7270623
-0.44737935 0.13556887 -0.061027624 -0.14895698 -0.1904281 0.42734414 0.03379756 -0.68844944
-0.41672325 -0.1848603 0.35582772 -0.45759264 0.7529977 -0.103744276 -0.17364183 0.61379665
0.164431 0.5038051 0.5025507 -0.15834026 -0.46914583 -0.0526109 0.62615526 -0.05936141
-0.43792564 0.4002928 0.75715417 -0.14017652 -0.5855011 -0.64138806 0.19527687 -0.025331484
-0.45587274 0.082926385 0.35935932 0.6288724 0.52008367 -0.16139652 -0.6235035 -0.63895804
0.7584769 0.36997586 0.30823305 -0.61180365 0.7330886 0.7339813 0.58986187 -0.608092
-0.25322175 -0.44646472 0.5424616 -0.44294897 -0.3479817 0.34057665 -0.32710218 -0.34826574
-0.11229561 -0.11963017 -0.5002619 0.78715724 -0.31192014 0.2508213 0.649367 0.38525137
0.16306156 0.66720194 0.0950537 -0.32714763 0.7165882 0.19567741 -0.33724022 -0.11089377
-0.4572401 0.8101008 -0.116775766 -0.64454544 -0.030964207 0.45250744 0.18370664 0.22359028
0.16723092 0.3622922 -0.11475371 -0.22127189 -0.6609387 -0.53268963 0.23441537 -0.45182094
0.14626369 0.2969534 -0.06797276 -0.5080783 0.7759653 -0.26923645 0.51086867 -0.64180124
-0.17009346 0.38464403 -0.2641122 0.6237544 -0.4866001 -0.5938081 -0.31884798 0.1143041
0.62829787 -0.30344972 0.2854734 -0.19605523 -0.24893954 0.5271975 -0.5479978 0.07510416
0.5277793 -0.27040914 0.5326874 -0.36692545 0.5691942 -0.68400586 -0.08956689 -0.13254729
0.30605578 0.32170898 0.6252679 -0.16394652 0.06740114 0.56167436 -0.21112056 0.6001452
-0.27315605 -0.09033106 0.0049558994 0.28501898 0.49152875 -0.21923895 -0.58582425 0.3503659
0.26082966 0.2433066 -0.30483738 0.5779268 0.74806374 0.15061304 -0.69009453 0.399772
-0.5242852 0.16254412 0.029036744 -0.39923856 0.24621144 -0.6324594 0.1541647 -0.57969713

nn_model.0.bias f4 [100]
00000000: 324a 2d3d 5b9d 06be 9486 283f b43f a7be
00000010: b491 ef3e 392b 3bbe 8930 c9be afa1 1dbf
00000020: ac16 26bf 2e4a 4a3f d58e c6be 9cca 1c3e
00000030: 4fb7 3f3e 87ae 0c3f 53b4 3c3f 3a56 1d3f
00000040: 3a1d 06bf 3712 01be 5e3b d6be f7d9 cebe
00000050: a4a5 383e 212f 363f 5f39 01bf 0e91 0b3f
00000060: 7bb4 bbbe 1908 0dbe d78d 133f c9c3 23be
00000070: fca8 c23d aa13 fdbe 7126 183f 63ea dbbd
00000080: 24d5 2abf ff6e 403e 38b5 00bf a0a4 0ebf
00000090: eeac 103e 1816 0d3f fee6 4cbe 8da0 a93e
000000a0: 20b6 283f 7fcf eb3e 5e3d e8be 1bbf 9ebd
000000b0: 3845 8dbe d28f 11bf 6e00 cdbc ce5d 1b3f
000000c0: a29f 323f 32a8 50be 25e2 643e 00bc 9cbe
000000d0: 215c 0d3f 9556 88be bd7d fbbe 6c4a f23d
000000e0: a189 d63e 9c34 23bf 9361 223f 36cc ee3e
000000f0: a185 b5be c0f8 1bbe e416 1c3f 62e2 0abf
00000100: 5b41 1ebe b6f5 bb3e 9d96 1ebf fd0a e73e
00000110: 11eb c23e dc96 033f 49a8 00bf cc1a 423f
00000120: 439a d6be 1d75 373f f7b8 2dbf 6548 21bf
00000130: c6c1 ea3e b896 d3bd 82eb db3b 617b c8be
00000140: 3f44 f1be 1284 99be 4a57 30bf a22c 743e
00000150: ddf1 ff3d a553 903a 2fad 6f3e ddcf 333f
00000160: 4ce1 ba3e e2cb 98be 3aad 8dbe 65a2 e7be
00000170: 72f7 00bf df7b 12be 5909 d8bd c677 c83e
00000180: a8bf 9abe b75f 1a3f 0d09 febe 3477 9a3d
0.042307086 -0.13145964 0.6583035 -0.3266579 0.4679085 -0.18278207 -0.39294842 -0.61574835
-0.64878345 0.7901944 -0.38780847 0.15311664 0.1872227 0.5495381 0.7371265 0.61459696
-0.52388346 -0.12604605 -0.4184217 -0.4040067 0.18031937 0.71165663 -0.50478166 0.5451821
-0.36661133 -0.1377262 0.57638305 -0.15992655 0.095048875 -0.49429065 0.59433657 -0.10738065
-0.66731477 0.18792342 -0.5027652 -0.5571995 0.14128467 0.5511184 -0.20009992 0.33130303
0.659029 0.46056744 -0.4535932 -0.07751294 -0.27591872 -0.5686008 -0.025024619 0.6069001
0.6977483 -0.20376661 0.22351892 -0.30612183 0.552187 -0.26628557 -0.49119368 0.11830601
0.41901878 -0.6375215 0.63430136 0.46640176 -0.35453513 -0.1523161 0.6097243 -0.5425168
-0.15454619 0.367109 -0.6194857 0.4512557 0.38069966 0.5140207 -0.5025678 0.7582214
-0.41914567 0.71663076 -0.6786036 -0.6300109 0.45850962 -0.10331482 0.0067114243 -0.3915663
-0.4712238 -0.29983574 -0.6888319 0.23845151 0.12497304 0.0011011256 0.23405908 0.7023905
0.36500013 -0.2984305 -0.27671224 -0.45241085 -0.5037757 -0.14305066 -0.10548658 0.3915388
-0.30224347 0.603023 -0.4961628 0.075422674

nn_model.2.weight f4 [100, 100]
00000000: b3cd 4e3e 45b9 293e 283f 1cbc 7a89 3c3e
00000010: 7332 6a3d 2900 083e 7f08 86bd 33e2 dd3c
00000020: 2a69 8ebd e12d 2c3d ebe4 fe3d 60ef f3bb
00000030: a8aa dc3d a85f 3f3d e496 873d 09be 0d3e
00000040: 4d67 fabc 99a4 773d ad50 eabc 7353 6fbc
00000050: 94d3 c7bc fdf3 243d c100 823c cd01 943d
00000060: 33f1 763b 15d2 813d e58f 163d 8d4c 243c
00000070: d2c5 6ebc b282 abbd c8a2 d23d a9fa 43bb
00000080: e641 cfbc 9247 fe3c 003d d63c e1f0 e6bc
00000090: c680 053e 2a10 8a3d 90b8 1a3d 5ea7 cb3d
000000a0: df74 843c 09b4 c43d 7cf1 9a3d 00cb 963b
000000b0: d972 ee3c 0021 6e3b 87b2 a93d 5bb1 fc3b
000000c0: 9dc7 bcbc c25c d93d 70b9 a2bd 0024 d23a
000000d0: 5b88 7dbb a10f 3d3e 43ad bebd 81cd a63d
000000e0: cb25 1f3e cdc1 a53c d8ce 5d3d a45b d73d
000000f0: 5b83 ee3d 734a 03bc 8a4b 6c3c b32a 62bc
00000100: 67e8 7e3d 7664 ea3c f3b9 9abc d775 72bd
00000110: 6654 883d fe6f 553d 0619 3c3e 8ab4 fd3d
00000120: 4a11 c73d 0c75 32bb b352 ccbb ad1d 24bd
00000130: 3dab 08bd 1273 b83b 804d ef3d 63d2 6e3d
00000140: 70bc 003d 2975 e23d 95b5 a2bd 8e42 8b3c
00000150: 437c fc3d fc9c 86bd 3d57 103e b811 ac3d
00000160: 605a af3d 1211 f6bc 6a3c 853d 7d8d b5bd
00000170: 6f44 b4bd 56e1 433e 85fd 333d 7e59 033e
00000180: 883f c93d f98d 043e 4a80 893d e14e 003e
00000190: 0067 53bc 35ef 9ebd fd0d 18bd 27ef 37bc
000001a0: a357 5dbd 2760 513d e0c7 0f3d f32d 843c
000001b0: f3e2 c53c 33e8 b33d 6d30 153d e298 b3bd
000001c0: 0fa9 94bd f387 343d a747 5f3c 2dc2 473d
000001d0: b089 ccbd ef00 bdbd 732d 7b3d dbff 823d
000001e0: ea48 b9bd 677a 1b3d baea 9fbd bd18 9b3d
000001f0: 5087 003d ea80 ca3d 60ee c9bd f527 c5bd
00000200: 3877 8a3d 80d3 b53d 27f4 7a3d 3b28 883d
00000210: 477f acbd af3c 943d 805c c1bd ba02 b73c
00000220: b026 86bd f7b0 22bd 070e 913c ea0b 21bd
00000230: c09d 81bc 4b1d c2bd b719 c1bd f7a9 1e3d
00000240: f75f 2dbd 4732 79bd f39e 21bd 2370 a7bd
00000250: 98b7 a3bd e317 753d 0d2d 503d 9a3d 5a3c
00000260: 7abf 5fbd 3a46 083d 0036 933b 705d 92bd
00000270: 9348 b03c ba7a ba3d 4d71 c9bd caa6 cbbd
00000280: 80eb 513c 0f38 9a3d c73c 79bd 1a56 b43c
00000290: adf8 8f3d a092 fc3c a048 b13c 9355 cc3d
000002a0: ef6b 853d c05e 66bd 1a9e 0d3c da40 513d
000002b0: 759d b43d 23c3 cbbd f3cc 5d3d 00d7 edbc
000002c0: 658b c8bd 53d7 b53c eafd 5ebd 672e 683c
000002d0: 3df7 84bd 321e 9abd 1a05 0bbc 5d98 09bd
000002e0: 838f 6f3d 8042 0d3c c0db 9f3d 4085 993c
000002f0: 27b6 03bd cab7 8a3d 9a0f b33b cdc1 993c
00000300: 93bc 03bd 0028 bc39 9a82 9dbc da4a 0bbc
00000310: 23b8 9fbd 3337 21ba 3afe a9bd 333c b0bc
00000320: 305c 873d 8f72 9fbd 392e 9bbd 8707 c8bc
00000330: be83 12bd 27ae 8a3c 303e d73c edb4 4f3d
00000340: 2f15 8dbd 99d3 7cbc 67cc 6e3d 53f5 9f3d
00000350: 33c9 7fbc a9a6 87bd 81dc a63c 0dfe 463d
00000360: c7e5 7fbd 2db0 6dbd e00a 353d 9a97 e5bb
00000370: 0d72 d2bd 2439 87bd 331b 263d 9318 2dbd
00000380: e25b 8d3d 0fe7 a13d fe0c cb3b 5a8e 01bc
00000390: e83a 24bd b3b1 a5bb 763a 213c 4b57 abbd
000003a0: ef97 74bc 8480 bbbd dd64 7b3d 906c 82bd
000003b0: b013 aa3d dbd6 0bbd 53a6 6abd f58b 223d
000003c0: f986 d63b 7675 793d e0fe 2a3d bb4a c5bd
000003d0: bf52 933d 4744 9abc 8f4e 56bd 8ad4 613d
000003e0: 1f36 843d 46f1 c4bd 315f 8ebc e02e a83d
000003f0: 2ec1 f83c 435f c03d 905e 0cbd ddfe 81bd
0.20195656 0.16574581 -0.009536542 0.18411818 0.05717702 0.13281311 -0.06544589 0.0270854
-0.06953652 0.04203594 0.124460064 -0.007444307 0.107747376 0.046722084 0.06620577 0.13842024
-0.030566836 0.060459707 -0.028602922 -0.014607298 -0.02439288 0.040271748 0.0158695 0.07226906
0.0037680387 0.06338898 0.036758322 0.010028017 -0.014573531 -0.083745375 0.10284954 -0.0029904044
-0.025299978 0.031039987 0.026152134 -0.028191032 0.13037404 0.06741364 0.03777367 0.09944032
0.01616901 0.096046515 0.07565591 0.004601836 0.029107498 0.0036335588 0.082860045 0.007711572
-0.023044402 0.10613395 -0.07945526 0.0016032457 -0.003868601 0.18462993 -0.09310391 0.081446655
0.1554176 0.020234013 0.05415234 0.10515526 0.11646148 -0.008013356 0.014422307 -0.013804126
0.062233355 0.028612357 -0.018887496 -0.059194412 0.06656723 0.052108757 0.1836892 0.12387951
0.097200945 -0.002723041 -0.0062354445 -0.040067364 -0.03336643 0.005628952 0.11684704 0.05830611
0.031429708 0.11057503 -0.0794479 0.01699951 0.123283885 -0.06572911 0.14095779 0.08401817
0.085621595 -0.030037437 0.06505664 -0.088648774 -0.08802115 0.19128928 0.043942947 0.12827107
0.09826571 0.12944783 0.06713922 0.1253009 -0.012902975 -0.07760469 -0.037122715 -0.011226452
-0.054038655 0.05111709 0.035102725 0.016135192 0.02415607 0.08784523 0.036423136 -0.087693945
-0.07258808 0.044074964 0.013627923 0.048769165 -0.09987199 -0.09228694 0.06132264 0.06396457
-0.090471104 0.03795853 -0.078084424 0.07573078 0.031379044 0.0988787 -0.098599195 -0.09626762
0.067610204 0.08878231 0.061267998 0.06648298 -0.08422714 0.07238137 -0.09441471 0.022340167
-0.06550348 -0.039719548 0.017706884 -0.039318003 -0.015822291 -0.094782434 -0.09428733 0.03873631
-0.042327847 -0.060838964 -0.039458226 -0.08175685 -0.07994002 0.059837233 0.050824214 0.013320351
-0.054625966 0.0332701 0.0044925213 -0.07146728 0.021518981 0.091054395 -0.098360635 -0.09943922
0.012812495 0.075302236 -0.060848977 0.022013713 0.07029853 0.030831635 0.021641076 0.099772595
0.06514727 -0.056242704 0.008643651 0.051087238 0.08819095 -0.09949329 0.054150533 -0.029033184
-0.097922124 0.022197401 -0.05444137 0.014171219 -0.064924695 -0.075252905 -0.008485103 -0.03359257
0.058486473 0.008621812 0.07805586 0.018740296 -0.032156136 0.06773336 0.0054645063 0.01876917
-0.03216226 0.00035887957 -0.019227315 -0.008501733 -0.07798793 -0.0006149888 -0.08300443 -0.02151308
0.0660938 -0.07785522 -0.07577176 -0.024417652 -0.03577017 0.016928745 0.02627477 0.050709654
-0.06888806 -0.015431308 0.058300402 0.07810464 -0.0156119345 -0.06623585 0.020368816 0.048582125
-0.062474992 -0.058029342 0.044199824 -0.0070065977 -0.1027566 -0.066026956 0.040553283 -0.042259764
0.06902291 0.07905399 0.006196617 -0.007907474 -0.04009524 -0.005056584 0.009840598 -0.08366259
-0.014928802 -0.09155372 0.061375488 -0.06368363 0.08304536 -0.03414045 -0.057287525 0.039684255
0.0065468517 0.060903035 0.041746974 -0.09633394 0.07193517 -0.018831385 -0.052321013 0.055134334
0.06455635 -0.09616332 -0.017379375 0.08212066 0.030365553 0.0939317 -0.03426987 -0.063474394

nn_model.2.bias f4 [100]
00000000: 7d35 023d cd5c 7cb9 9ec2 9dbd f31a 4a3d
00000010: ad02 9cbd 2b7e 183d dd6c 94bd 2d65 22bd
00000020: 16ac c5bb 91ac f73c 49cf ccbd 0eb3 6c3d
00000030: f112 053d 407b 81bd 6cdb 193d 60c6 58bd
00000040: f4b5 2dbd 9a12 8abc 66b0 633d 3395 6f3b
00000050: 9bf9 90bd fc90 893d a6be 3d3c 29a7 9abd
00000060: bd34 073d 2fbe a7bd 7689 6c3d 5250 803d
00000070: 659f 8a3d 20f2 b9bd 23cc 693d 7372 16bc
00000080: 6775 b1bc f170 333d e85f b8bd f8ed 01bd
00000090: ab9a babd 0a4e 10bd d394 b53c 967b 473d
000000a0: 57d5 8e3d a958 10bb f021 69bc d33a 693d
000000b0: 0280 5bbd 82e7 c2bd fed6 02bd 5ef6 56bd
000000c0: c1ae cd3d 7a77 f93c 5e67 6f3c 6348 893d
000000d0: 6ce5 7dbd 7303 57bd 40d8 bdbd 0e63 36bc
000000e0: db8d 90bd 1a43 8dbb e848 80bd 5315 5c3d
000000f0: 6abd adbd 0d0f 52bd 7a34 743d ee15 923d
00000100: c76e 85bb ca9e 38bd bdbf d6bd 05d1 d43d
00000110: cd12 ff3a 1378 8bbc 8e80 81bc 04cb 0fbd
00000120: 0b6e 3e3d d386 88bd 8c38 9bbc 2bfe 653d
00000130: 331f b5bc 885e a93d a566 793d 8ccf c3bd
00000140: 78ff fb3c 8dfe 07bc b0d0 b0bc c08b 3fbd
00000150: a60a a03d 9aef 703d 9aca b73d deac dc3d
00000160: cbbf 943d 8fbd 2cbd 10bf 433d 8dc2 2dbc
00000170: e73b ea3d c1bb f73d 9f55 a83d 2136 b03c
00000180: fb24 99bd 7d54 24bd 476e 91bc 3205 89bd
0.03178929 -0.00024067164 -0.07703136 0.049342107 -0.07617698 0.0372297 -0.072473265 -0.03964727
-0.006032477 0.030233653 -0.10000474 0.057787947 0.032488767 -0.06322336 0.037562773 -0.05292356
-0.042409852 -0.016854573 0.05558815 0.0036557436 -0.070788585 0.06717107 0.011581099 -0.075514145
0.03300928 -0.081905715 0.05774828 0.0626532 0.06768683 -0.09079385 0.057079446 -0.00918256
-0.021662427 0.04380888 -0.09002668 -0.031721085 -0.09111532 -0.035230674 0.022165691 0.048701845
0.06974285 -0.0022025502 -0.014229283 0.056940865 -0.053588875 -0.09516813 -0.031943314 -0.052481048
0.10043097 0.030452479 0.014612047 0.0670326 -0.061986372 -0.052493524 -0.09269762 -0.011132015
-0.07058307 -0.0043109776 -0.06263906 0.053731274 -0.084833935 -0.051283885 0.059620358 0.07133089
-0.0040720436 -0.045073308 -0.1048579 0.1039143 0.0019460559 -0.01702503 -0.01580837 -0.03510572
0.046491664 -0.06666341 -0.018947862 0.056150597 -0.022109604 0.082699835 0.060888905 -0.09561071
0.030761465 -0.008300436 -0.021583885 -0.046764135 0.07814531 0.05882225 0.0897419 0.10775159
0.07263144 -0.042172965 0.047789633 -0.010605467 0.11437207 0.12096358 0.08219456 0.021510186
-0.074777566 -0.040119637 -0.01775278 -0.06690444

nn_model.4.weight f4 [100, 100]
00000000: 10a6 193e 17c4 56bd 8f7f 0abc 0da9 e3bc
00000010: e492 093d b570 36bd 3375 583b 4910 f13d
00000020: 5ae0 cb3c 0995 2d3d 8583 4e3d e5d1 f83d
00000030: 4a9a 90bd 1b97 80bc cc05 62bd 58f0 93bd
00000040: aa82 ddbd 0376 053d 5921 fc3d b3fd d63b
00000050: 4080 0a3c 39ef 7cba 585c 67bd 0a4e ef3d
00000060: dd58 223d d357 afbd 0d9b f73c c71a 053e
00000070: dbe0 b13d 0285 023e f8cb de3d 7bad a63d
00000080: 73ca aabc 81d8 d63c b7c0 0e3d 10b9 39bd
00000090: 3a28 083d d35c 79bd 8112 943d 57c3 a43d
000000a0: df54 f93d 30de fb3d 7bff ff3d cb11 a8bd
000000b0: 2ec1 97bd 286b aebd 7fe0 863d 676d 0d3e
000000c0: e0ea c83d 6fcc 873d 9c6f f83d 679e 0bbd
000000d0: 9daf 8abc 3fbb a8bd 9ebb 92bd 9c00 85bd
000000e0: 6aa4 703d 93a0 e3bc 287d aa3c ecff d53d
000000f0: 6048 593d 9b99 7d3d 99ad 64bd dd88 bd3d
00000100: 041c a93d 5440 57bd ccb7 d73b eccd b5bd
00000110: 4d25 cdbc a09d b03c 9eb7 bdbd 9281 31bd
00000120: 6794 213d c05b 0a3e fafb debc 3a60 e53d
00000130: 13bf a0bd 4743 02bd e02a c33d 6e0a bcbc
00000140: 8b58 9f3d 8a34 76bd 6a34 513d fa3e b5bc
00000150: 6879 133d da31 173d 5ad3 fe3c a5b1 f63d
00000160: 9ae6 823c eef4 fbbc 6278 983d 7aac db3c
00000170: 0aad 92bd b663 09bd 7ac5 7c3d 8a7f bd3d
00000180: 4cf7 acbb 7fae 923d 41f3 3b3d 8ea9 b83d
00000190: 238c 193d 0a96 423d cfd0 f7bc dfa0 afbd
000001a0: 485d 94bc be04 803d b022 4ebd 9c99 bf3d
000001b0: 770c 293e 85d9 823d 11e6 963d 7004 4dbd
000001c0: aedd 333d 0bfa f23c 3b4f 173d 8751 99bd
000001d0: ab36 b63d fa94 243d 5561 133e 73e6 45bc
000001e0: 93b3 31bd 5abb da3d 37d0 7abd f521 5d3d
000001f0: 6348 7bbd abbb 923d 0fc5 963d b72a 48be
00000200: e195 dcbd 8f7b 773d 20e0 07be 075f bc3d
00000210: 4382 2a3d 1f03 7dbd 5818 ad3d 130d 17bd
00000220: 87bf 373d 3aa7 283d f412 6cbc 2c96 0bbd
00000230: 1d41 75bc b84e debd 08e0 f53d 7dad a7bd
00000240: f143 ae3c 4bff 983d fa29 17bc fcda 62be
00000250: 9df3 733d 925d 1b3e 86bc 9a3c 4d04 27bd
00000260: a97a bb3d 7f53 843d f69d 3d3d a039 873d
00000270: 3065 983d 85b2 bf3d e1df 99bd 02b4 ad3d
00000280: afca 9a3d a4fd f93d 1f33 503d 143e a73d
00000290: b002 813d b108 8d3d 5ed4 163e 82f3 92bd
000002a0: 30e7 5a3d b7b8 a13d c022 be3b 1f71 0b3e
000002b0: a026 133e d80b c33d 025d cdbc 7d49 adbb
000002c0: 3031 223d ceea 73bc f892 28be e939 4abc
000002d0: 780d 823d e0fa aebc 1d6d dcbc c5aa af3d
000002e0: babe 9b3c a020 263d dd67 8e3d 2f24 a33d
000002f0: 93dd 1a3c ac47 c73d e799 eebb 35b8 30be
00000300: a38d 2ebe 4d68 a33c 38af 84bd bba1 163e
00000310: 61c0 a63d 93ff 9ebd ff3d f53c 46b0 1f3e
00000320: 0c7b 733c c76c 96bc 0bdf 6bbd 3d04 57bd
00000330: 33cc 923c 98be 563c 1a70 89bd e260 c33a
00000340: 3c27 6c3d 3417 f93c 038e 543c 9be1 4a3c
00000350: dc20 25bd 3267 4a3d 11cf 1e3e c01d 933c
00000360: a063 3ebe fa61 133d 0154 7bbd 220d bfbd
00000370: 4860 913d bea0 4a3d b12b 1a3d d6ed 8f3d
00000380: 1d84 1abd 939d 013d 639b d6bd 4627 643d
00000390: 64d0 16bd 4846 893c 2bc7 023e e70c 843c
000003a0: 0317 4cbd c650 093e 7098 6f3d d82d 2a3d
000003b0: 4d79 843b a7a6 bd3d 111a 6ebd 6cf0 81bd
000003c0: 5073 283e b160 213e 65f2 da3c a5c0 8d3d
000003d0: 0b1e a6bc 5371 b8bc 36c5 a03d ec1e a03e
000003e0: 1f80 b4bd 72b9 80bb e6c9 293d 7f38 fabc
000003f0: 91c7 0cbe 9af4 3b3d 8ae2 8abd 2bc4 893d
0.15004754 -0.0524331 -0.008453264 -0.02779057 0.03358735 -0.04454108 0.003302884 0.11770684
0.024887253 0.04237846 0.050418396 0.12149409 -0.07060678 -0.015697053 -0.05518131 -0.07223576
-0.10815938 0.032583248 0.12311048 0.006561005 0.008453429 -0.0009648684 -0.05648455 0.11684807
0.039635528 -0.08561673 0.030225301 0.12998496 0.08685466 0.12746051 0.10878748 0.081385575
-0.020848488 0.026226284 0.034851756 -0.045342505 0.033241488 -0.06087954 0.07230092 0.080450706
0.12174391 0.12298238 0.12499901 -0.08206519 -0.07409893 -0.08516532 0.06585788 0.13811265
0.09810424 0.066307895 0.12130663 -0.03408661 -0.016929442 -0.08238839 -0.071646914 -0.06494257
0.058750547 -0.027786529 0.020811632 0.10449204 0.053047538 0.061914068 -0.055829618 0.0925462
0.08257297 -0.052551582 0.0065831896 -0.08877167 -0.0250422 0.021559536 -0.09263538 -0.04333646
0.039448168 0.13511562 -0.027219761 0.111999944 -0.078489445 -0.031802442 0.09529662 -0.022954192
0.0778056 -0.0601087 0.051075377 -0.022124756 0.036004454 0.036912777 0.03110664 0.12045602
0.0159791 -0.03075644 0.07444836 0.026815642 -0.07161911 -0.033542357 0.061711766 0.09252842
-0.0052785035 0.07162189 0.045886282 0.09016715 0.03748716 0.04750637 -0.030250935 -0.085756056
-0.018110886 0.062509045 -0.05032605 0.093554705 0.16508661 0.06389145 0.073681004 -0.05005306
0.043912582 0.029660245 0.036940794 -0.07486253 0.08897146 0.040181138 0.14392598 -0.012078869
-0.043384146 0.10680266 -0.061233725 0.053987462 -0.06134833 0.07164701 0.07361805 -0.19547544
-0.10770775 0.06042057 -0.1326909 0.091978125 0.041628134 -0.061770555 0.08451909 -0.036877703
0.04486039 0.041175105 -0.014408816 -0.034078762 -0.0149691375 -0.10854858 0.12005621 -0.08187387
0.021272631 0.07470568 -0.009226317 -0.22153848 0.0595585 0.15172413 0.018888723 -0.040775586
0.09154255 0.06461238 0.04629322 0.06602788 0.07441175 0.09360222 -0.07513405 0.084815994
0.0755819 0.12206581 0.050830003 0.08166137 0.06299341 0.068864234 0.14729449 -0.07175352
0.053443134 0.0789656 0.0058024824 0.13617371 0.14370203 0.095237434 -0.025068764 -0.0052883015
0.03959769 -0.014887525 -0.16462314 -0.012342908 0.06350225 -0.02135986 -0.026907498 0.085774936
0.019011844 0.040558457 0.06953404 0.07965886 0.0094522415 0.09730467 -0.00728153 -0.1725777
-0.17046218 0.019947195 -0.06478733 0.14710133 0.08142162 -0.07763591 0.029936789 0.15594587
0.01486088 -0.018362416 -0.057585757 -0.052494276 0.017919635 0.0131069645 -0.06710835 0.0014906193
0.057654604 0.030406572 0.012973311 0.01238289 -0.04031454 0.04941482 0.15508677 0.017958522
-0.18592691 0.03598211 -0.06135941 -0.09328677 0.07098442 0.049469702 0.037639324 0.070277855
-0.03772365 0.031644415 -0.104788564 0.055701517 -0.03681983 0.016757146 0.12771289 0.016119434
-0.049826633 0.13409719 0.058494985 0.041547626 0.0040427805 0.09260302 -0.058130328 -0.06344685
0.16450238 0.15759541 0.02672691 0.0692151 -0.020277997 -0.022514975 0.07850115 0.31273592
-0.088135 -0.003928357 0.04145231 -0.030544518 -0.13748004 0.045887567 -0.0678149 0.06726869

nn_model.4.bias f4 [100]
00000000: 7e92 f3bb 728c 21bd 7a9f 043e 99e3 9a3d
00000010: b30b c4bd 6370 bf3d fe88 d63d 7750 c2bd
00000020: 90ac 853d 311e d8bc 588b 4fbd 0ca4 73bd
00000030: ef26 c4bd ffb5 a0bd 0074 d73d be74 86bc
00000040: 6777 78bb 37f0 a43b 18e7 b03d 508f 43bc
00000050: 287d 333d 7b9d 0ebd 40e8 863d 41c3 ccbc
00000060: c11a f33d 92a9 913c 5dd4 58bd 0707 5a3d
00000070: f6e8 c13d 9a87 b13b 6966 383c 617b 403d
00000080: 9a00 9f3b b416 c53c 3f13 c83d 5522 483d
00000090: 9371 963c 2491 2d3d 42c3 023b 56e1 47bd
000000a0: 76e7 7e3d 0768 833d f345 203d 5b66 9a3c
000000b0: fe31 4b3d 7fbe 81bd dd92 1a3d f86e 2d3c
000000c0: 53c4 25bd 1940 acbd 40a9 1ebc a12d ae3d
000000d0: bbb8 56bd 9d41 483d cc85 1dbd 6f65 84bb
000000e0: c4ef a53d fb9f f3bc fc8a b93d 6d5d a63d
000000f0: de4c aa3c e7c6 27bd 6bf5 453c dce5 c13d
00000100: 4383 9abd 5e2b f43d 500c 973d 1de1 42bd
00000110: 81d1 d53d c33b 2e3c 7a74 81bc f44b 86bd
00000120: 203e 9e3d db00 91bd 6d5b 86bd 671a 4b3a
00000130: 6672 9e3b c397 40bd d1ef 0d3d a775 dbbc
00000140: 913f 383d c60e 89bc e2b5 f9bc e77f c3bd
00000150: bdd0 f03d b4c0 6e3d 45be 043e 90c2 98bd
00000160: 2dee 1b3b a659 f3bc 0e3e 3cbd 641c 33bc
00000170: e1b1 113d b943 593d 2e63 a3bd 0834 a6bd
00000180: 3759 f23d 532a 883d 5e1d 2b3d d75c fd3d
-0.0074332347 -0.03944058 0.1295146 0.07562942 -0.09572544 0.09347608 0.10475348 -0.09488004
0.06527054 -0.026381584 -0.050669998 -0.05948262 -0.095777385 -0.07847213 0.10520172 -0.016413089
-0.0037912966 0.0050335187 0.08637828 -0.011936024 0.04382053 -0.034818154 0.06587267 -0.024995448
0.11870337 0.017781053 -0.0529369 0.053229358 0.09468262 0.0054177763 0.011254885 0.046992663
0.0048523666 0.024058677 0.09769296 0.048860867 0.018364703 0.042374745 0.0019952809 -0.04879888
0.062232457 0.06416326 0.03912921 0.018847635 0.049608223 -0.06335162 0.037737716 0.010585539
-0.040470432 -0.08410663 -0.009683907 0.08504797 -0.052422266 0.0488907 -0.038457677 -0.004040412
0.08102372 -0.02973937 0.09059712 0.08123288 0.020788606 -0.040961172 0.012082438 0.0946767
-0.075445674 0.11922334 0.07375395 -0.047577966 0.1044035 0.0106343655 -0.01580261 -0.06557456
0.07726693 -0.07080241 -0.06560407 0.00077477697 0.0048354147 -0.04701973 0.034652535 -0.0267895
0.044982497 -0.016730677 -0.030482236 -0.0954588 0.11758564 0.058289245 0.12963207 -0.07458985
0.0023793087 -0.029705834 -0.045957617 -0.010932062 0.03557003 0.0530431 -0.079779014 -0.08115393
0.11833423 0.06648698 0.041776054 0.123712234

allocation_head.0.weight f4 [4, 100]
00000000: 2cc3 933c 1ab0 ca3d a6e2 76bd d20e 8dbc
00000010: cd87 c13d adac db3c bbc1 61bc 3f62 a23d
00000020: 7a63 d03b 413c 883c dda8 703e c8ad 56bd
00000030: c7a7 c3bd 083f 87bd 6114 1abd 4f7d 40bc
00000040: e7ed 213d a68b 8f3d 8c31 a6bd e5cc 4b3c
00000050: 1c12 d53d ab4c e73d 3015 cabc 0d61 dd3d
00000060: 6f06 3abd ed4b c7bc 7332 213e a5fc bdbd
00000070: 95a3 2ebd 9a64 cfbc 6d0e 25bc ab91 153d
00000080: 48bf 84bd 808e bfbd ee5d a7bd c7b4 b3bd
00000090: 5cac 21be 35ca 3f3e 1255 183e 231d 523d
000000a0: ecb2 46bd 4058 03bd 54af 283c 396c e9bd
000000b0: 8c1b b0bd ab96 6cbd af22 9f3d a241 8f3d
000000c0: d3a7 35bd b507 823b b10f 933d d52c c23d
000000d0: a088 72be 647d 273c 2f0a 733d f8c3 f6bd
000000e0: 45c0 e33c e758 34be 0a3d 55bd 6d19 f3bd
000000f0: bc85 b43d 93b9 243d 529c c2bd b32d 0d3b
00000100: 3e3f 9d3d 678c bdbd c952 bebc 0dc7 823d
00000110: 68d9 6d3d 6d1c c33d dfd2 9dbd 05d2 c2be
00000120: 7c30 983d daaf a93d b7cb a73d e8b4 b43d
00000130: 9064 8fbd 1b61 08be 3e5b 8a3d bd1f 80bd
00000140: ac2e 08be 873d 113e f9ce cc3d b8fe bfbd
00000150: 79ab 28bd af37 58bd 3a85 97bd 4a7f 3bbd
00000160: 98a5 ab3c a728 03be bd81 b73d c51d 443d
00000170: f2c6 803d 0683 b83d 64b1 b8bd 4005 79bd
00000180: 8362 253c b386 763c f6cb b7bd 435a 93bd
00000190: 4f0d 0f3e 2369 133e f674 1abd 2f44 cbbb
000001a0: fc90 c9be 3397 ebba c7b9 95bd 4ff9 9dbd
000001b0: 623a 933c c348 ab3b 0435 5c3e 7a3a c63d
000001c0: f341 79bd b273 483e cbc1 8a3d 26b0 aabd
000001d0: d3e2 cbbc 0197 2b3d 9b60 573c 9ede 983d
000001e0: 65d2 833d a09d 973d 5264 8ebd bc93 d93c
000001f0: 2bd9 f3bd c32f 9bbd af63 9ebc 8a85 47bd
00000200: e20b 15bd c8db a7bd 4e8f 813d 5862 8f3d
00000210: 926b 85bd 00ca aebc e784 aa3d 4d39 8fbb
00000220: dc7f dcbd 19b4 f4bc cf02 49bb 9808 8d3d
00000230: 0197 073e fcbc a83d 8607 b53d 3a40 adbc
00000240: cf66 d9bd 5dc0 a1bd ed3d 943d bc23 40bc
00000250: 1797 4bbd 2abe 8ebd 65c2 aebd 0fd3 b9bd
00000260: 9383 a0be 00c2 753d bc9b 803d e342 ffbd
00000270: e3d6 973d df00 ebbd 7ebd 0bbc 9c2d 09be
00000280: 7d0c 833c 0dd8 a0bc 40d7 c6bd 28df efbd
00000290: faca 2ebb 7597 c0bd db18 8dbd 3bf2 d43d
000002a0: 5ce8 c6bd a38c ec3b e81a b43d 141c a0be
000002b0: 3915 053e 9356 143d 1543 c3bd 9093 813d
000002c0: ceec d4bd 58ba 13bc e9b8 073e 777f a5bd
000002d0: f592 01bc 7c19 103d 2317 d73d 93ee 0a3d
000002e0: 785b 813c 373a 933c 6c89 67bd 4048 acbc
000002f0: 188c cbbd 39bc fc3c 1afc 043e 5d23 2d3e
00000300: 2bb0 a2bd ce24 ae3d ab9c 7cbd fa78 61bd
00000310: 3f70 b0bd 0419 f63d 5419 cc3c 367e 23bc
00000320: d4dd 6ebc 55c7 9c3c e3ed c7bd e006 00be
00000330: 3baa 43be ab58 8f3d 85d3 c5bc 1abf ac3d
00000340: d46e ab3c 6c44 b83c 2d2f 88be 11c8 543c
00000350: 6790 4d3c b29d bcbc a028 8dbb 4a1d e73c
00000360: 1332 a0bd c000 80bd c9b9 c03d 746e 0cbe
00000370: c963 99bd 2e5c 8d3d 52b5 243d 2c4e f9bc
00000380: 84f5 6abd c2f2 ac3d f969 0dbe a78a e8bc
00000390: b4a5 5cbd 5aa0 72bc d7d5 e3bc b68a 073e
000003a0: 3389 4c3c f05b 0c3e 6590 953d 3694 8dbd
000003b0: 3cd3 133e 3627 30be 0f0a 16be f3c2 d93c
000003c0: 41be b13d 99a4 643d b675 d1bc b31e aa3c
000003d0: d68f 853d bd58 b9bd 554b 6c3d 0b88 c0bd
000003e0: 67a6 b43a 0c58 c9bc 45e2 77bd 1ef8 913c
000003f0: 05ed b73e 798b d4bc f195 53bd 46be c93c
0.018037401 0.0989687 -0.060274743 -0.017218981 0.0944973 0.026815737 -0.013779099 0.07928895
0.006359515 0.016630294 0.23501916 -0.052411824 -0.09553485 -0.06603819 -0.03761709 -0.011748626
0.039533522 0.07009058 -0.08114919 0.012438987 0.10403845 0.1129392 -0.024668306 0.108095266
-0.04541629 -0.024328196 0.15741901 -0.09276704 -0.042636473 -0.025316525 -0.01007424 0.036515873
-0.064817965 -0.093533516 -0.081722125 -0.08774715 -0.15788406 0.1872948 0.14876202 0.05129732
-0.048510477 -0.032066584 0.010295708 -0.11397595 -0.08599004 -0.057760876 0.07770287 0.0699494
-0.044349503 0.003968204 0.07180727 0.09481207 -0.23684931 0.010222767 0.059335884 -0.12049097
0.027801642 -0.17612039 -0.052060165 -0.11870084 0.0881457 0.04021604 -0.09502472 0.0021542131
0.07678078 -0.09255295 -0.023232834 0.06385622 0.058068663 0.09526906 -0.07706236 -0.38050857
0.07431123 0.08285494 0.081931524 0.08823568 -0.07001603 -0.13318293 0.06755684 -0.062560536
-0.13299054 0.14183627 0.100004144 -0.093747556 -0.041179154 -0.05278748 -0.07398458 -0.04577569
0.020952985 -0.12808476 0.089602925 0.047879953 0.06287946 0.09009366 -0.090182096 -0.060796022
0.010094288 0.015046763 -0.08974449 -0.071949504 0.1396992 0.14395575 -0.0377092 -0.0062031965
-0.39368427 -0.0017974138 -0.07310825 -0.077135675 0.017972175 0.0052271797 0.21504599 0.09679122
-0.06085391 0.19575384 0.06775244 -0.08334379 -0.024888432 0.041892055 0.013145591 0.07464336
0.06436614 0.074031115 -0.06952728 0.026559703 -0.11906656 -0.07577469 -0.019334642 -0.048711337
-0.036388285 -0.08196217 0.06326161 0.070011795 -0.06514658 -0.021336555 0.0832613 -0.0043708445
-0.10766575 -0.029871034 -0.003067184 0.06886405 0.13241197 0.08239171 0.088393256 -0.02114879
-0.10615312 -0.078980185 0.07238374 -0.01172727 -0.049704637 -0.06969865 -0.085331716 -0.09073459
-0.31350383 0.059999466 0.06279704 -0.124639295 0.07414033 -0.114747755 -0.008529065 -0.13396305
0.015997166 -0.019634271 -0.097090244 -0.117124856 -0.0026671276 -0.09403888 -0.068895064 0.10397764
-0.09712288 0.0072189136 0.087941945 -0.31271422 0.12996377 0.036215376 -0.09534279 0.063269734
-0.103967294 -0.009016596 0.13254131 -0.080809526 -0.007908572 0.035180554 0.1050246 0.03391893
0.015790686 0.017972095 -0.05652754 -0.021030545 -0.0993883 0.03085147 0.12986794 0.16908021
-0.079437576 0.08503114 -0.061672848 -0.055047013 -0.08615159 0.1201649 0.024914421 -0.0099788215
-0.014579255 0.019138018 -0.0976217 -0.12502623 -0.19107907 0.06999334 -0.024148712 0.08434887
0.02092687 0.022493564 -0.26598492 0.012987153 0.012546635 -0.023024414 -0.0043078214 0.028212208
-0.07822051 -0.06250143 0.09410436 -0.1371401 -0.07489736 0.069023475 0.040211983 -0.030432783
-0.05736305 0.0844474 -0.13809957 -0.028386427 -0.053868964 -0.014808739 -0.027811928 0.13236508
0.012483883 0.13706946 0.07302932 -0.069130346 0.14436048 -0.17202458 -0.14652275 0.026582217
0.08678866 0.055821035 -0.025568824 0.020766592 0.06521575 -0.090501286 0.05768903 -0.09400948
0.0013782502 -0.024578117 -0.06051852 0.017818507 0.3592302 -0.025945412 -0.051656667 0.024626862

allocation_head.0.bias f4 [4]
00000000: fe98 443d 2911 8abb b10c 00bd ef12 d43d
0.047997467 -0.0042134714 -0.031262103 0.10355174

payment_head.0.weight f4 [1, 100]
00000000: 716a d43c 8914 0cbe 8b36 703e 9ac3 053e
00000010: b3ea 26be 2d42 663d 87db 90bd 6061 80bc
00000020: 209f 0f3e 9b94 593c 9d8b 0bbd 4529 683e
00000030: 2d5e debc abb9 63bc b0c0 f83d 320d 123e
00000040: e770 af3b 92e4 23be 072b 103e a9bf 563d
00000050: 9156 0c3e 5a13 fcbd bcf8 993e e3ff aabd
00000060: 782e f03d 8b83 153e 7716 87bd 6342 183d
00000070: dd0e 473e 80eb d63b 5404 f0bd 3e71 2bbd
00000080: 47e2 b23c ff1a e53e c5f3 1a3e 3507 c6bd
00000090: 071a 83bd 4efb 1abe 4a1e 1fbd 6d6c 7f3d
000000a0: 126c dbbd 6505 873d 3d21 0abd 3c36 2e3e
000000b0: 61f0 153e f1d8 353e 814d 0d3e aa87 cd3d
000000c0: 0092 cb3d c844 303d aaee 97bd 0a7e 113e
000000d0: 3e30 3ebd cc9d 713d be9a 9dbd 6b21 8f3e
000000e0: fb3f 3bbe 0470 c33e 8a12 123e 77c1 aabd
000000f0: 1312 e53c 47e0 5b3d 8334 233e 5840 b03e
00000100: baaa 9dbd 7cae a9bb f5e1 773e cde2 e13d
00000110: c3e1 0c3e ef7d 45bd cd9c 0f3d f8d3 063d
00000120: ad0f febd 631f 3f3d 8c6c 58bd 8a0e 453d
00000130: 6fac 9dbc 33b9 c6be 3ef2 10be f7be 553d
00000140: ea1a 283e fd2a b63d 9fac e13c 480e 4a3d
00000150: a0af 5b3d 4028 4f3e 4e6e 213e 8dbe 593c
00000160: d098 1d3d fe8a 403e 9c76 df3d 89f6 f2bb
00000170: 08ef 76bd 28b4 b5bd 996a a33d 1109 b83d
00000180: 1590 503e d4db 683e 9c55 183e 272b 1a3e
0.025929661 -0.13679709 0.23458306 0.13062897 -0.16300468 0.056215454 -0.070731215 -0.015671432
0.14025545 0.013280059 -0.034068692 0.22671993 -0.027144516 -0.013899247 0.12146127 0.14262846
0.005354035 -0.16005161 0.14078914 0.052428875 0.13704897 -0.123083785 0.30072582 -0.08349588
0.11727613 0.14600961 -0.06596082 0.037172686 0.19439264 0.0065588355 -0.117195755 -0.041856043
0.021836413 0.4474716 0.15132053 -0.096693434 -0.06401449 -0.15134928 -0.038847245 0.062359262
-0.10713972 0.06592826 -0.033723105 0.17012876 0.14642479 0.17758538 0.13799097 0.100356415
0.09939957 0.043034345 -0.074185684 0.14208236 -0.046432726 0.058988377 -0.0769553 0.27955183
-0.18286125 0.381714 0.14264885 -0.08337682 0.02796272 0.053680684 0.15938 0.3442409
-0.07698579 -0.005178271 0.2420729 0.11029587 0.13757996 -0.048215803 0.035061646 0.032916993
-0.12405334 0.046660792 -0.052837893 0.04810957 -0.019247262 -0.3881317 -0.14154908 0.05218407
0.16416517 0.08894918 0.027548132 0.049330026 0.053634286 0.20230198 0.15764734 0.01329006
0.03847581 0.18803021 0.10911295 -0.007414643 -0.06028655 -0.08872253 0.07979316 0.08986104
0.20367463 0.22740108 0.14876407 0.15055524
