result/1x2_sparsemax_in_linsigpmt_scratch_84_checkpoint.pt (torch, 88519 bytes, 9 tensors)

nn_model.0.weight f4 [100, 2]
-0.26990813 0.38522035 0.31859007 -0.23097865 0.1724039 -0.25709447 0.47954524 0.18051763
-0.26898694 0.14976075 0.32817307 -0.22388464 0.04028738 0.35287964 -0.070354804 0.21519658
-0.17054494 0.24784066 -0.44275886 -0.3445328 -0.28452384 0.66071194 -0.123467036 -0.025832538
-0.50176656 0.6787007 0.61478853 -0.5475396 -0.39551857 -0.3387537 -0.09795989 -0.25035065
-0.46283367 -0.2536195 0.120774254 -0.38047162 0.1566825 -0.16215082 -0.34263802 0.097146206
0.5129279 -0.65568835 -0.04799387 -0.29352343 0.89167696 -0.388436 -0.54688925 0.7201854
-0.44737935 0.13556887 -0.061027624 -0.14895698 -0.20628816 0.41596207 0.03379756 -0.68844944
-0.4464166 -0.11517252 0.35582772 -0.45759264 0.7508303 -0.105625145 -0.2447305 0.56461626
0.16443522 0.5038093 0.5056554 -0.16920114 -0.46914583 -0.0526109 0.5941984 0.02034724
-0.50499064 0.34697032 0.75477636 -0.15536338 -0.5855011 -0.64138806 0.19073223 -0.038187098
-0.45612398 0.08244828 0.35254815 0.6123403 0.4782861 -0.23658971 -0.6235035 -0.63895804
0.76204306 0.36891964 0.30823305 -0.61180365 0.7325456 0.7223522 0.5904881 -0.60520416
-0.25034142 -0.43799114 0.56114876 -0.41624624 -0.35813978 0.3662026 -0.32710218 -0.34826574
-0.1266926 -0.11778832 -0.5215508 0.8007906 -0.31192014 0.2508213 0.6414454 0.36158997
0.15342842 0.6499268 0.0950537 -0.32714763 0.7310177 0.21845983 -0.3394282 -0.12951188
-0.44994378 0.8136888 -0.116775766 -0.64454544 -0.029907906 0.45855471 0.18370664 0.22359028
0.06063151 0.40189838 -0.124055855 -0.22395313 -0.6609387 -0.53268963 0.22984004 -0.4494644
0.13888334 0.2787606 -0.019283257 -0.514528 0.67556113 0.015440727 0.51074874 -0.6388452
-0.17009346 0.38464403 -0.27615032 0.60522896 -0.4866001 -0.5938081 -0.31884798 0.1143041
0.6283549 -0.31508714 0.30503434 -0.22651203 -0.31664494 0.47434732 -0.5479978 0.07510416
0.49484685 -0.30794886 0.54657423 -0.32043976 0.5691942 -0.68400586 -0.097286575 -0.13760664
0.3077314 0.31419307 0.49007535 -0.39174497 0.074195944 0.5455526 -0.21372178 0.5869697
-0.2778362 -0.09093289 0.0049558994 0.28501898 0.51930594 -0.20235917 -0.58582425 0.3503659
0.26082966 0.2433066 -0.3833046 0.6101191 0.7479011 0.15116131 -0.6799973 0.30566576
-0.5242852 0.16254412 0.017141227 -0.39419407 0.24621144 -0.6324594 0.20087059 -0.68623126
00000000: 6631 8abe 9a3b c53e 3d1e a33e ab85 6cbe
00000010: a68a 303e e3a1 83be f486 f53e 9dd9 383e
00000020: a8b8 89be e25a 193e 4d06 a83e 0442 65be
00000030: 6104 253d a4ac b43e 2e16 90bd 7e5c 5c3e
00000040: 55a3 2ebe f1c9 7d3e 4ab1 e2be 9a66 b0be
00000050: 1cad 91be 6b24 293f 49dc fcbd c29e d3bc
00000060: c673 00bf 54bf 2d3f c862 1d3f 8e2b 0cbf
00000070: 6981 cabe 2071 adbe 329f c8bd f62d 80be
00000080: 89f8 ecbe 6ada 81be 7e58 f73d 2dcd c2be
00000090: 6171 203e dd0a 26be 406e afbe 97f4 c63d
000000a0: 3e4f 033f 31db 27bf 3895 44bd b448 96be
000000b0: f144 643f 15e1 c6be ef00 0cbf 125e 383f
000000c0: e80e e5be 91d2 0a3e 1af8 79bd 2e88 18be
000000d0: 343d 53be fbf8 d43e 4f6f 0a3d 393e 30bf
000000e0: b790 e4be 92df ebbd 0d2f b63e 9549 eabe
000000f0: 6a36 403f ff51 d8bd a29a 7abe b18a 103f
00000100: b561 283e a5f9 003f a272 013f 1043 2dbe
00000110: e233 f0be 877e 57bd 631d 183f 41af a63c
00000120: 1147 01bf 18a6 b13e 0639 413f 9417 1fbe
00000130: 66e3 15bf 0232 24bf 4f4f 433e 136a 1cbd
00000140: 1589 e9be a5da a83d 3181 b43e 55c2 1c3f
00000150: eae1 f43e 9344 72be ed9d 1fbf c192 23bf
00000160: 4115 433f 09e3 bc3e b9d0 9d3e 2a9f 1cbf
00000170: 1c88 3b3f 13ec 383f 3a2a 173f a9ee 1abf
00000180: c02c 80be 6040 e0be 72a7 0f3f 3a1e d5be
00000190: 195e b7be e87e bb3e f079 a7be e34f b2be
000001a0: b4bb 01be 013b f1bd 5a84 05bf 9d00 4d3f
000001b0: ffb3 9fbe a66b 803e c435 243f 5222 b93e
000001c0: 571c 1d3e 9a61 263f 84ab c23d e57f a7be
000001d0: fa23 3b3f efb3 5f3e 88c9 adbe c39e 04be
000001e0: 085f e6be e94d 503f 2228 efbd ee00 25bf
000001f0: 6d01 f5bc afc7 ea3e 981d 3c3e daf4 643e
00000200: bf58 783d a0c5 cd3e ff10 febd f853 65be
00000210: 4733 29bf 595e 08bf 305b 6b3e 3320 e6be
00000220: 6f37 0e3e b6b9 8e3e ecf7 9dbc 1bb8 03bf
00000230: 93f1 2c3f 1afb 7c3c 6ec0 023f 5c8b 23bf
00000240: fb2c 2ebe 10f0 c43e 9363 8dbe 49f0 1a3f
00000250: a623 f9be cf03 18bf 0b40 a3be 4518 ea3d
00000260: dedb 203f 1a53 a1be 762d 9c3e c5f2 67be
00000270: 491f a2be a7dd f23e 9549 0cbf 36d0 993d
00000280: 915c fd3e 79ab 9dbe 4aec 0b3f ae10 a4be
00000290: b6b6 113f 021b 2fbf 2f3e c7bd c1e8 0cbe
000002a0: f88e 9d3e eadd a03e 28eb fa3e cc92 c8be
000002b0: 0bf4 973d 56a9 0b3f e2d9 5abe a543 163f
000002c0: 8c40 8ebe 063b babd 1965 a23b 02ee 913e
000002d0: 3cf1 043f 3e37 4fbe 94f8 15bf 2963 b33e
000002e0: 778b 853e 5e25 793e 8040 c4be c430 1c3f
000002f0: 7276 3f3f 08ca 1a3e 4e14 2ebf 3980 9c3e
00000300: 8e37 06bf f771 263e c26b 8c3c ced3 c9be
00000310: da1e 7c3e dce8 21bf 05b1 4d3e daac 2fbf

nn_model.0.bias f4 [100]
-0.0026213746 -0.17017536 0.65039444 -0.51417834 0.46279246 -0.30380058 -0.39296558 -0.61574835
-0.64878345 0.79332465 -0.40892977 0.1543601 0.1360983 0.5487518 0.7366154 0.61001706
-0.52388346 -0.12604605 -0.4184217 -0.4040067 0.22340246 0.7053697 -0.56335145 0.54400104
-0.36661133 -0.1377262 0.57048297 -0.15992655 0.11919322 -0.49429065 0.57014894 -0.1357307
-0.6673115 0.17811643 -0.5027652 -0.6042839 0.15642256 0.54364175 -0.20009992 0.32657638
0.6537511 0.45692787 -0.47742748 -0.07751294 -0.27866605 -0.5686008 -0.031320963 0.60101265
0.6966445 -0.2125305 0.2578171 -0.30612183 0.54148144 -0.26328576 -0.49119368 0.11178245
0.41290215 -0.6375215 0.61580986 0.46654835 -0.3909026 -0.1523161 0.5985982 -0.5425168
-0.11728838 0.36450374 -0.6194857 0.4490656 0.37681547 0.51559407 -0.6704121 0.7519435
-0.41914567 0.71267915 -0.6786036 -0.6300109 0.4483273 -0.08677395 -0.019254677 -0.3915663
-0.4972847 -0.34430343 -0.6888319 0.2393537 0.116531886 0.118309125 0.22139923 0.6979572
0.3680933 -0.2984305 -0.26731277 -0.45241085 -0.5037757 -0.16542529 -0.10471172 0.4462873
-0.30224347 0.601319 -0.4961628 0.13080405
00000000: 5ecb 2bbb 7342 2ebe 4080 263f 31a1 03bf
00000010: 22f3 ec3e c08b 9bbe c932 c9be afa1 1dbf
00000020: ac16 26bf 5317 4b3f 3e5f d1be 9310 1e3e
00000030: 5a5d 0b3e ff7a 0c3f d492 3c3f 142a 1c3f
00000040: 3a1d 06bf 3712 01be 5e3b d6be f7d9 cebe
00000050: 9dc3 643e 1c93 343f cd37 10bf a743 0b3f
00000060: 7bb4 bbbe 1908 0dbe 2c0b 123f c9c3 23be
00000070: 931b f43d aa13 fdbe 48f5 113f fdfc 0abe
00000080: edd4 2abf 2764 363e 38b5 00bf 5ab2 1abf
00000090: 3c2d 203e 1b2c 0b3f fee6 4cbe 0535 a73e
000000a0: 3b5c 273f 73f2 e93e 6071 f4be 1bbf 9ebd
000000b0: 51ad 8ebe d28f 11bf 694a 00bd f7db 193f
000000c0: 4b57 323f 98a1 59be 9a00 843e 00bc 9cbe
000000d0: 879e 0a3f 64cd 86be bd7d fbbe 32ee e43d
000000e0: e967 d33e 9c34 23bf b7a5 1d3f 6ddf ee3e
000000f0: 6324 c8be c0f8 1bbe bb3d 193f 62e2 0abf
00000100: e434 f0bd 3ca0 ba3e 9d96 1ebf edeb e53e
00000110: f5ed c03e f9fd 033f 21a0 2bbf 5f7f 403f
00000120: 439a d6be 2472 363f f7b8 2dbf 6548 21bf
00000130: 288b e53e 8ab6 b1bd fcbb 9dbc 617b c8be
00000140: 1a9c febe 8a48 b0be 4a57 30bf 2319 753e
00000150: 45a8 ee3d 0e4c f23d 7bb6 623e 53ad 323f
00000160: ba76 bc3e e2cb 98be 38dd 88be 65a2 e7be
00000170: 72f7 00bf 3f65 29be 1973 d6bd c57f e43e
00000180: a8bf 9abe 0bf0 193f 0d09 febe 7ff1 053e

nn_model.2.weight f4 [100, 100]
0.19961254 0.14434792 -0.020273235 0.23029613 0.046782535 0.069908306 -0.06544589 0.0270854
-0.06953652 0.03708637 0.0981578 -0.016093476 0.097736284 0.035920545 0.061079405 0.12999204
-0.030566836 0.060459707 -0.028602922 -0.014607298 -0.011919569 0.031457618 0.03324548 0.0598309
0.0037680387 0.06338898 0.024130052 0.010028017 -0.015582096 -0.083745375 0.08937191 0.031626355
-0.025299978 0.017413205 0.026152134 -0.038739964 0.15061957 0.054059282 0.03777367 0.08667362
0.0071829217 0.081604 0.111700326 0.004601836 0.017173829 0.0036335588 0.06849723 -0.0026087104
-0.027489258 0.104002655 -0.11729021 0.0016032457 -0.013024325 0.20183095 -0.09310391 0.06700641
0.1412233 0.020234013 0.039970428 0.098029934 0.08339588 -0.008013356 0.0011750668 -0.013804126
0.051984657 0.02219216 -0.018887496 -0.0670363 0.052639898 0.050983105 0.19413024 0.11422897
0.097200945 -0.015451234 -0.0062354445 -0.040067364 -0.045883287 0.07419985 0.107858464 0.05830611
0.015918337 0.05363368 -0.0794479 0.008293419 0.10838977 -0.09746578 0.12644885 0.07111836
0.07853948 -0.030037437 0.1681015 -0.088648774 -0.08802115 0.22637543 0.029972225 0.12256546
0.09826571 0.12204844 0.06713922 0.12783258 -0.012902975 -0.07760469 -0.037122715 -0.011226452
-0.054038655 0.05111709 0.035102725 0.016135192 0.02415607 0.08784523 0.036423136 -0.087693945
-0.07258808 0.044074964 0.013627923 0.048769165 -0.09987199 -0.09228694 0.06132264 0.06396457
-0.090471104 0.03795853 -0.078084424 0.07573078 0.031379044 0.0988787 -0.098599195 -0.09626762
0.067610204 0.08878231 0.061267998 0.06648298 -0.08422714 0.07238137 -0.09441471 0.022340167
-0.06550348 -0.039719548 0.017706884 -0.039318003 -0.015822291 -0.094782434 -0.09428733 0.03873631
-0.042327847 -0.060838964 -0.039458226 -0.08175685 -0.07994002 0.059837233 0.050824214 0.013320351
-0.054625966 0.0332701 0.0044925213 -0.07146728 0.021518981 0.091054395 -0.098360635 -0.09943922
0.012812495 0.075302236 -0.060848977 0.022013713 0.07029853 0.030831635 0.021641076 0.099772595
0.06514727 -0.056242704 0.008643651 0.051087238 0.08819095 -0.09949329 0.054150533 -0.029033184
-0.097922124 0.022197401 -0.05444137 0.014171219 -0.064924695 -0.075252905 -0.008485103 -0.03359257
0.058486473 0.008621812 0.07805586 0.018740296 -0.032156136 0.06773336 0.0054645063 0.01876917
-0.03216226 0.00035887957 -0.019227315 -0.008501733 -0.07798793 -0.0006149888 -0.08300443 -0.02151308
0.0660938 -0.07785522 -0.07577176 -0.024417652 -0.03577017 0.016928745 0.02627477 0.050709654
-0.06888806 -0.015431308 0.058300402 0.07810464 -0.0156119345 -0.06623585 0.020368816 0.048582125
-0.062474992 -0.058029342 0.044199824 -0.0070065977 -0.1027566 -0.066026956 0.040553283 -0.042259764
0.06902291 0.07905399 0.006196617 -0.007907474 -0.04009524 -0.005056584 0.009840598 -0.08366259
-0.014928802 -0.09155372 0.061375488 -0.06368363 0.08304536 -0.03414045 -0.057287525 0.039684255
0.0065468517 0.060903035 0.041746974 -0.09633394 0.07193517 -0.018831385 -0.052321013 0.055134334
0.06455635 -0.09616332 -0.017379375 0.08212066 0.030365553 0.0939317 -0.03426987 -0.063474394
00000000: 3b67 4c3e f1cf 133e 0e14 a6bc c0d2 6b3e
00000010: 0b9f 3f3d 162c 8f3d 7f08 86bd 33e2 dd3c
00000020: 2a69 8ebd e1e7 173d f506 c93d 77d6 83bc
00000030: f629 c83d 6c21 133d 662e 7a3d a21c 053e
00000040: 4d67 fabc 99a4 773d ad50 eabc 7353 6fbc
00000050: 4c4a 43bc b4d9 003d 6a2c 083d 3f11 753d
00000060: 33f1 763b 15d2 813d 63ac c53c 8d4c 243c
00000070: 0c4c 7fbc b282 abbd 9f08 b73d a38a 013d
00000080: e641 cfbc 23a6 8e3c 003d d63c ccad 1ebd
00000090: 043c 1a3e 446d 5d3d 90b8 1a3d f081 b13d
000000a0: b75e eb3b ff1f a73d 24c3 e43d 00cb 963b
000000b0: 21b0 8c3c 0021 6e3b 4748 8c3d e6f6 2abb
000000c0: 2731 e1bc 58ff d43d da35 f0bd 0024 d23a
000000d0: fa63 55bc c6ac 4e3e 43ad bebd a83a 893d
000000e0: d79c 103e cdc1 a53c 08b8 233d ebc3 c83d
000000f0: 76cb aa3d 734a 03bc b304 9a3a b32a 62bc
00000100: dded 543d 55cc b53c f3b9 9abc 544a 89bd
00000110: ef9c 573d a9d3 503d 14ca 463e e1f0 e93d
00000120: 4a11 c73d 2c27 7dbc b352 ccbb ad1d 24bd
00000130: 1df0 3bbd 17f6 973d e6e4 dc3d 63d2 6e3d
00000140: 2c67 823c fdae 5b3d 95b5 a2bd 1fe1 073c
00000150: 75fb dd3d 249c c7bd cf7b 013e 81a6 913d
00000160: 4fd9 a03d 1211 f6bc cd22 2c3e 7d8d b5bd
00000170: 6f44 b4bd f6ce 673e 5088 f53c 9a03 fb3d
00000180: 883f c93d 88f4 f93d 4a80 893d 8be6 023e
00000190: 0067 53bc 35ef 9ebd fd0d 18bd 27ef 37bc
000001a0: a357 5dbd 2760 513d e0c7 0f3d f32d 843c
000001b0: f3e2 c53c 33e8 b33d 6d30 153d e298 b3bd
000001c0: 0fa9 94bd f387 343d a747 5f3c 2dc2 473d
000001d0: b089 ccbd ef00 bdbd 732d 7b3d dbff 823d
000001e0: ea48 b9bd 677a 1b3d baea 9fbd bd18 9b3d
000001f0: 5087 003d ea80 ca3d 60ee c9bd f527 c5bd
00000200: 3877 8a3d 80d3 b53d 27f4 7a3d 3b28 883d
00000210: 477f acbd af3c 943d 805c c1bd ba02 b73c
00000220: b026 86bd f7b0 22bd 070e 913c ea0b 21bd
00000230: c09d 81bc 4b1d c2bd b719 c1bd f7a9 1e3d
00000240: f75f 2dbd 4732 79bd f39e 21bd 2370 a7bd
00000250: 98b7 a3bd e317 753d 0d2d 503d 9a3d 5a3c
00000260: 7abf 5fbd 3a46 083d 0036 933b 705d 92bd
00000270: 9348 b03c ba7a ba3d 4d71 c9bd caa6 cbbd
00000280: 80eb 513c 0f38 9a3d c73c 79bd 1a56 b43c
00000290: adf8 8f3d a092 fc3c a048 b13c 9355 cc3d
000002a0: ef6b 853d c05e 66bd 1a9e 0d3c da40 513d
000002b0: 759d b43d 23c3 cbbd f3cc 5d3d 00d7 edbc
000002c0: 658b c8bd 53d7 b53c eafd 5ebd 672e 683c
000002d0: 3df7 84bd 321e 9abd 1a05 0bbc 5d98 09bd
000002e0: 838f 6f3d 8042 0d3c c0db 9f3d 4085 993c
000002f0: 27b6 03bd cab7 8a3d 9a0f b33b cdc1 993c
00000300: 93bc 03bd 0028 bc39 9a82 9dbc da4a 0bbc
00000310: 23b8 9fbd 3337 21ba 3afe a9bd 333c b0bc
00000320: 305c 873d 8f72 9fbd 392e 9bbd 8707 c8bc
00000330: be83 12bd 27ae 8a3c 303e d73c edb4 4f3d
00000340: 2f15 8dbd 99d3 7cbc 67cc 6e3d 53f5 9f3d
00000350: 33c9 7fbc a9a6 87bd 81dc a63c 0dfe 463d
00000360: c7e5 7fbd 2db0 6dbd e00a 353d 9a97 e5bb
00000370: 0d72 d2bd 2439 87bd 331b 263d 9318 2dbd
00000380: e25b 8d3d 0fe7 a13d fe0c cb3b 5a8e 01bc
00000390: e83a 24bd b3b1 a5bb 763a 213c 4b57 abbd
000003a0: ef97 74bc 8480 bbbd dd64 7b3d 906c 82bd
000003b0: b013 aa3d dbd6 0bbd 53a6 6abd f58b 223d
000003c0: f986 d63b 7675 793d e0fe 2a3d bb4a c5bd
000003d0: bf52 933d 4744 9abc 8f4e 56bd 8ad4 613d
000003e0: 1f36 843d 46f1 c4bd 315f 8ebc e02e a83d
000003f0: 2ec1 f83c 435f c03d 905e 0cbd ddfe 81bd

nn_model.2.bias f4 [100]
0.02057415 -0.00024067164 -0.07703136 0.049342107 -0.07617698 0.030671775 -0.072473265 -0.03201994
-0.006838701 0.029661305 -0.10000474 0.05588527 0.022004675 -0.06623459 0.03981109 -0.05292356
-0.04993773 -0.016854573 0.060515787 0.0036557436 -0.070788585 0.06717107 0.013873626 -0.07499911
0.03300928 -0.081905715 0.05774828 0.063720144 0.073344655 -0.09890881 0.055544283 -0.00918256
-0.021662427 0.03769216 -0.09002668 -0.036270324 -0.09111532 -0.035230674 0.022165691 0.04025359
0.063693516 -0.002460937 -0.002997466 0.055802565 -0.053588875 -0.09516813 -0.031943314 -0.05163551
0.099787004 0.023239175 0.016386783 0.06073502 -0.085802175 -0.052493524 -0.09269762 -0.01770236
-0.07058307 -0.0043109776 -0.06263906 0.05406245 -0.084833935 -0.05754158 0.059620358 0.07434902
-0.0040720436 -0.040553145 -0.10457125 0.10236735 0.0019460559 -0.01702503 -0.01580837 -0.035551958
0.04328392 -0.07019417 -0.018947862 0.058110774 -0.022109604 0.08617926 0.06166077 -0.09561071
0.030846357 -0.008300436 -0.023634225 -0.046764135 0.07790819 0.05882225 0.0897419 0.10709652
0.06871454 -0.042172965 0.047789633 -0.012013759 0.117549345 0.12029512 0.08219456 0.020995567
-0.0755439 -0.040119637 -0.018809434 -0.07508805
00000000: 1f8b a83c cd5c 7cb9 9ec2 9dbd f31a 4a3d
00000010: ad02 9cbd 6043 fb3c dd6c 94bd 5727 03bd
00000020: 2f17 e0bb 44fc f23c 49cf ccbd f4e7 643d
00000030: 2643 b43c 00a6 87bd f410 233d 60c6 58bd
00000040: 818b 4cbd 9a12 8abc 67df 773d 3395 6f3b
00000050: 9bf9 90bd fc90 893d 344e 633c 2299 99bd
00000060: bd34 073d 2fbe a7bd 7689 6c3d b57f 823d
00000070: b935 963d b490 cabd 6782 633d 7372 16bc
00000080: 6775 b1bc 1863 1a3d e85f b8bd 3190 14bd
00000090: ab9a babd 0a4e 10bd d394 b53c f3e0 243d
000000a0: bf71 823d ac47 21bb 2271 44bb 3b91 643d
000000b0: 0280 5bbd 82e7 c2bd fed6 02bd c27f 53bd
000000c0: 215d cc3d 1560 be3c 933d 863c 49c5 783d
000000d0: 0db9 afbd 7303 57bd 40d8 bdbd 8a04 91bc
000000e0: db8d 90bd 1a43 8dbb e848 80bd 9670 5d3d
000000f0: 6abd adbd b8b0 6bbd 7a34 743d 4d44 983d
00000100: c76e 85bb 0e1b 26bd 7429 d6bd f9a5 d13d
00000110: cd12 ff3a 1378 8bbc 8e80 81bc ee9e 11bd
00000120: 7b4a 313d f6c1 8fbd 8c38 9bbc 9005 6e3d
00000130: 331f b5bc c07e b03d 0190 7c3d 8ccf c3bd
00000140: 80b1 fc3c 8dfe 07bc 909c c1bc c08b 3fbd
00000150: 548e 9f3d 9aef 703d 9aca b73d 6c55 db3d
00000160: 35ba 8c3d 8fbd 2cbd 10bf 433d 5cd5 44bc
00000170: b6bd f03d 4a5d f63d 9f55 a83d e5fe ab3c
00000180: c3b6 9abd 7d54 24bd 3e16 9abc c3c7 99bd

nn_model.4.weight f4 [100, 100]
0.1491265 -0.0524331 -0.008453264 -0.02779057 0.03358735 -0.04413407 0.003302884 0.098006494
0.010721742 0.050167132 0.050418396 0.12459845 -0.07120066 -0.020453107 -0.049768537 -0.07223576
-0.10298387 0.032583248 0.08792297 0.006561005 0.008453429 -0.0009648684 -0.05298969 0.11537075
0.039635528 -0.08561673 0.030225301 0.1314027 0.082101 0.119989686 0.11229393 0.081385575
-0.020848488 0.029969808 0.034851756 -0.042768616 0.033241488 -0.06087954 0.07230092 0.08429197
0.12227203 0.12677415 0.10125755 -0.07976053 -0.07409893 -0.08516532 0.06585788 0.09476849
0.10206302 0.05954682 0.11494738 -0.028916843 -0.03349785 -0.08238839 -0.071646914 -0.07206087
0.058750547 -0.027786529 0.020811632 0.110733494 0.053047538 0.050939757 -0.055829618 0.08324609
0.08257297 -0.06097548 -0.005390829 -0.08785501 -0.0250422 0.021559536 -0.09263538 -0.04533195
0.038743865 0.12925564 -0.027219761 0.11063081 -0.078489445 -0.03493436 0.09949256 -0.022954192
0.06844218 -0.0601087 0.052731667 -0.022124756 0.02354399 0.036912777 0.03110664 0.1151885
0.018038232 -0.03075644 0.07444836 0.028725576 -0.07020565 -0.02547365 0.061711766 0.08381928
-0.023769343 0.07162189 0.053932834 0.078971624 0.038263865 0.04750637 -0.030250935 -0.085756056
-0.018110886 0.06671843 -0.05032605 0.11229575 0.15538672 0.071421884 0.073681004 -0.050180044
0.0453093 0.030700412 0.04206052 -0.07486253 0.07807697 0.040181138 0.11282787 -0.012078869
-0.043384146 0.10680266 -0.053685512 0.05372265 -0.06134833 0.07164701 0.07361805 -0.19367
-0.11131945 0.058882892 -0.13015966 0.091978125 0.041628134 -0.057570692 0.08451909 -0.03360533
0.04486039 0.041175105 -0.014408816 -0.02832573 -0.011562913 -0.10313172 0.10992228 -0.08454715
0.021272631 0.07470568 -0.009226317 -0.22903852 0.067220554 0.14742036 0.017228177 -0.03594978
0.07288955 0.06461238 0.04629322 0.06398215 0.07441175 0.09360222 -0.07513405 0.09270756
0.0755819 0.11623139 0.050830003 0.07946318 0.06299341 0.06612113 0.14292768 -0.07055915
0.053443134 0.0789656 0.0058024824 0.13302505 0.15336038 0.09829756 -0.025068764 -0.010619442
0.03959769 -0.022175128 -0.1596032 -0.012342908 0.062311437 -0.02135986 -0.020407736 0.085774936
0.016661441 0.040558457 0.06953404 0.07937945 0.011169158 0.09730467 -0.00728153 -0.17160608
-0.16992515 0.028725982 -0.06478733 0.14341219 0.07290717 -0.07763591 0.03583588 0.1552503
0.015997516 -0.018362416 -0.057585757 -0.052494276 0.017919635 0.009800832 -0.06710835 -0.061320268
0.046309333 0.03619846 0.012973311 0.026956337 -0.040367875 0.045576837 0.16729012 0.017958522
-0.16170883 0.03598211 -0.07133724 -0.09328677 0.07098442 0.049469702 0.041028008 0.06522434
-0.03772365 0.031644415 -0.104788564 0.067592494 -0.033502594 0.008966258 0.1336725 0.016119434
-0.049826633 0.12819068 0.058494985 0.04532253 0.0040427805 0.09260302 -0.058130328 -0.064851284
0.16931103 0.1675921 0.009795995 0.07249443 -0.020277997 -0.022514975 0.07850115 0.2867027
-0.08604513 -0.010495342 0.0456061 -0.01936116 -0.16235895 0.045887567 -0.0678149 0.061954066
00000000: 9eb4 183e 17c4 56bd 8f7f 0abc 0da9 e3bc
00000010: e492 093d edc5 34bd 3375 583b a1b7 c83d
00000020: 3faa 2f3c 0d7c 4d3d 8583 4e3d 792d ff3d
00000030: a7d1 91bd 468d a7bc 18da 4bbd 58f0 93bd
00000040: 35e9 d2bd 0376 053d f510 b43d b3fd d63b
00000050: 4080 0a3c 39ef 7cba b80b 59bd 8047 ec3d
00000060: dd58 223d d357 afbd 0d9b f73c 6e8e 063e
00000070: 9224 a83d 27bd f53d 5cfa e53d 7bad a63d
00000080: 73ca aabc 3e83 f53c b7c0 0e3d 252e 2fbd
00000090: 3a28 083d d35c 79bd 8112 943d 45a1 ac3d
000000a0: c269 fa3d 15d1 013e 1e60 cf3d 7d59 a3bd
000000b0: 2ec1 97bd 286b aebd 7fe0 863d fb15 c23d
000000c0: 6b06 d13d 5ee7 733d 8869 eb3d 04e3 ecbc
000000d0: 0b35 09bd 3fbb a8bd 9ebb 92bd a694 93bd
000000e0: 6aa4 703d 93a0 e3bc 287d aa3c 3ec8 e23d
000000f0: 6048 593d 35a6 503d 99ad 64bd ed7c aa3d
00000100: 041c a93d 6dc1 79bd 8da5 b0bb 54ed b3bd
00000110: 4d25 cdbc a09d b03c 9eb7 bdbd ffad 39bd
00000120: e3b1 1e3d 975b 043e fafb debc 6892 e23d
00000130: 13bf a0bd 5517 0fbd c1c2 cb3d 6e0a bcbc
00000140: 6a2b 8c3d 8a34 76bd 29fd 573d fa3e b5bc
00000150: 53df c03c da31 173d 5ad3 fe3c f3e7 eb3d
00000160: eac4 933c eef4 fbbc 6278 983d e651 eb3c
00000170: fbc7 8fbd 1eae d0bc 7ac5 7c3d 71a9 ab3d
00000180: edb7 c2bc 7fae 923d ade8 5c3d e0bb a13d
00000190: 92ba 1c3d 0a96 423d cfd0 f7bc dfa0 afbd
000001a0: 485d 94bc aca3 883d b022 4ebd 50fb e53d
000001b0: b21d 1f3e a345 923d 11e6 963d 9789 4dbd
000001c0: 3f96 393d 6e7f fb3c a747 2c3d 8751 99bd
000001d0: d2e6 9f3d fa94 243d 4c12 e73d 73e6 45bc
000001e0: 93b3 31bd 5abb da3d 57e5 5bbd 480c 5c3d
000001f0: 6348 7bbd abbb 923d 0fc5 963d 6e51 46be
00000200: 74fb e3bd 302f 713d 9348 05be 075f bc3d
00000210: 4382 2a3d 3fcf 6bbd 5818 ad3d bea5 09bd
00000220: 87bf 373d 3aa7 283d f412 6cbc 5c0b e8bc
00000230: 5f72 3dbc b936 d3bd ef1e e13d 0e27 adbd
00000240: f143 ae3c 4bff 983d fa29 17bc 1389 6abe
00000250: eeaa 893d 5df5 163e 1b22 8d3c 1440 13bd
00000260: 1e47 953d 7f53 843d f69d 3d3d 1309 833d
00000270: 3065 983d 85b2 bf3d e1df 99bd 76dd bd3d
00000280: afca 9a3d b90a ee3d 1f33 503d 97bd a23d
00000290: b002 813d 846a 873d a25b 123e 5181 90bd
000002a0: 30e7 5a3d b7b8 a13d c022 be3b b837 083e
000002b0: 810a 1d3e 3b50 c93d 025d cdbc 2bfd 2dbc
000002c0: 3031 223d 9da8 b5bc 056f 23be e939 4abc
000002d0: 473a 7f3d e0fa aebc 202e a7bc c5aa af3d
000002e0: 937d 883c a020 263d dd67 8e3d b191 a23d
000002f0: d8fe 363c ac47 c73d e799 eebb 81b9 2fbe
00000300: dc00 2ebe c052 eb3c 38af 84bd a5da 123e
00000310: 5b50 953d 93ff 9ebd a5c8 123d eff9 1e3e
00000320: 390d 833c c76c 96bc 0bdf 6bbd 3d04 57bd
00000330: 33cc 923c ab93 203c 1a70 89bd f62a 7bbd
00000340: dbae 3d3d d644 143d 038e 543c 89d3 dc3c
00000350: c958 25bd c7ae 3a3d 1a4e 2b3e c01d 933c
00000360: 0097 25be fa61 133d 4219 92bd 220d bfbd
00000370: 4860 913d bea0 4a3d fc0c 283d 5794 853d
00000380: 1d84 1abd 939d 013d 639b d6bd ef6d 8a3d
00000390: 043a 09bd 36e7 123c 72e1 083e e70c 843c
000003a0: 0317 4cbd 6b44 033e 7098 6f3d 1ea4 393d
000003b0: 4d79 843b a7a6 bd3d 111a 6ebd c0d0 84bd
000003c0: df5f 2d3e 439d 2b3e 627f 203c f677 943d
000003d0: 0b1e a6bc 5371 b8bc 36c5 a03d b2ca 923e
000003e0: 6e38 b0bd a8f4 2bbc 76cd 3a3d 4c9b 9ebc
000003f0: 6d41 26be 9af4 3b3d 8ae2 8abd 8cc3 7d3d

nn_model.4.bias f4 [100]
-0.008635346 -0.039195694 0.13121736 0.07675403 -0.091959715 0.09347608 0.10475348 -0.09488004
0.06829507 -0.026383389 -0.07498672 -0.058209453 -0.095777385 -0.075431034 0.10590728 -0.014869311
-0.0037912966 0.0027800158 0.09066459 -0.012295499 0.04461829 -0.025666023 0.06800004 -0.027111381
0.11962047 0.018868184 -0.0529368 0.053229358 0.09608141 0.0054177763 0.010583407 0.04779373
-0.025130723 0.01690808 0.09702965 0.048860867 0.022168357 0.04547435 0.0022413994 -0.04879888
0.06510915 0.06416326 0.03912921 0.019198185 0.049660474 -0.06193247 0.042696256 0.011388034
-0.040470432 -0.08410663 -0.009683907 0.08726564 -0.054830886 0.048488643 -0.038457677 -0.0035915005
0.07905202 -0.03134901 0.09638433 0.086532995 0.020485105 -0.040961172 0.011964109 0.095745586
-0.076115295 0.12326851 0.07669097 -0.048059065 0.10541606 0.008452717 -0.01580261 -0.07802159
0.07687718 -0.07080241 -0.06678637 0.00077477697 0.010287521 -0.043639507 0.037689466 -0.0267895
0.045184303 -0.016530948 -0.030677186 -0.0954588 0.11603792 0.05470435 0.1303631 -0.07458985
0.0023793087 -0.029707164 -0.045862176 -0.009529733 0.03557003 0.053626835 -0.079779014 -0.08115393
0.11281982 0.06694041 0.04170753 0.1251541
00000000: 447b 0dbc aa8b 20bd d85d 063e 3831 9d3d
00000010: 6055 bcbd 6370 bf3d fe88 d63d 7750 c2bd
00000020: 49de 8b3d fa21 d8bc a392 99bd 096d 6ebd
00000030: ef26 c4bd 967b 9abd ebe5 d83d 699e 73bc
00000040: 6777 78bb ed30 363b 5bae b93d 1073 49bc
00000050: abc1 363d 8d41 d2bc 9b43 8b3d b018 debc
00000060: 94fb f43d 7391 9a3c 42d4 58bd 0707 5a3d
00000070: 55c6 c43d 9a87 b13b 0766 2d3c 5cc3 433d
00000080: f2de cdbc d082 8a3c 7bb7 c63d 5522 483d
00000090: 6a9a b53c 5043 3a3d 71e4 123b 56e1 47bd
000000a0: f257 853d 0768 833d f345 203d 8345 9d3c
000000b0: c868 4b3d e7ac 7dbd 45e2 2e3d e094 3a3c
000000c0: 53c4 25bd 1940 acbd 40a9 1ebc 54b8 b23d
000000d0: 5a96 60bd 079c 463d cc85 1dbd 615f 6bbb
000000e0: 07e6 a13d d267 00bd 2665 c53d 3638 b13d
000000f0: 61d0 a73c e7c6 27bd 1c05 443c 4316 c43d
00000100: 56e2 9bbd 3374 fc3d 2810 9d3d 95d9 44bd
00000110: 60e4 d73d 447d 0a3c 7a74 81bc c9c9 9fbd
00000120: c871 9d3d db00 91bd 4bc7 88bd 671a 4b3a
00000130: fe8c 283c 57bf 32bd 4560 1a3d a775 dbbc
00000140: 2d13 393d e96b 87bc b94e fbbc e77f c3bd
00000150: 4aa5 ed3d ab11 603d e87d 053e 90c2 98bd
00000160: 2dee 1b3b 705c f3bc fad9 3bbd 9922 1cbc
00000170: e1b1 113d d0a7 5b3d 2e63 a3bd 0834 a6bd
00000180: 140e e73d 0e18 893d 84d5 2a3d 6528 003e

allocation_head.0.weight f4 [4, 100]
0.01816487 0.07253151 -0.05306072 -0.012868104 0.11884045 0.026815737 -0.013779099 0.07928895
0.020995088 0.016630294 0.2839801 -0.044281084 -0.09553485 -0.09971236 -0.026261339 -0.004098953
0.039533522 0.066345766 -0.06529421 0.008965495 0.10680844 0.117434874 -0.012224471 0.11153861
-0.0372934 -0.013214447 0.15418543 -0.09276704 -0.042214084 -0.025316525 -0.035043094 0.024357414
-0.064817965 -0.07426184 -0.072121575 -0.08774715 -0.2583883 0.17613284 0.13529612 0.05129732
-0.085604526 -0.032066584 0.010295708 -0.1050944 -0.0758997 -0.049663816 0.10370227 0.06221469
-0.044349503 0.003968204 0.07180727 0.09923548 -0.2434683 0.013755494 0.059335884 -0.13087101
0.019767093 -0.15970455 -0.01756195 -0.17748725 0.08565986 0.04021604 -0.08050722 0.010963538
0.121513054 -0.16284823 -0.016184904 0.06391973 0.06438751 0.09370426 -0.07706236 -0.21052746
0.0608029 0.08285494 0.08100814 0.08823568 -0.11875545 -0.29542208 0.048923764 -0.062560536
-0.12685224 0.138464 0.09348363 -0.093747556 -0.038650434 -0.043888293 -0.06976815 -0.04577569
0.020952985 -0.12431917 0.08634103 0.013821696 0.06287946 0.07407638 -0.090182096 -0.060796022
0.01196737 0.022323836 -0.07521066 -0.06300505 0.13353498 0.1385813 -0.0381786 -0.0051745474
-0.5310385 -0.0017974138 -0.07310825 -0.077135675 0.015351446 0.0052249553 0.25234625 0.100375734
-0.06085391 0.18634006 0.06939115 -0.08518952 -0.024888432 0.04160792 0.012201878 0.07087568
0.06302775 0.08189012 -0.06593978 0.012653406 -0.11221246 -0.069647826 -0.017421784 -0.048711337
-0.03602944 -0.08196217 0.060632687 0.07026931 -0.05150391 0.003945736 0.08279942 -0.0043708445
-0.17533587 -0.06750425 -0.03200459 0.06886405 0.14148518 0.08239171 0.088393256 -0.016462663
-0.1035161 -0.06761174 0.07280176 -0.017494913 -0.049704637 -0.06969865 -0.085331716 -0.08173253
-0.37733236 0.05098892 0.06279704 -0.11361447 0.07212619 -0.097976975 -0.018535655 -0.20895496
0.011663645 -0.019634271 -0.09356089 -0.10689714 0.005408081 -0.16998258 -0.060920138 0.097900905
-0.09541656 0.006644597 0.087941945 -0.16699336 0.11692051 0.036215376 -0.09534279 0.063269734
-0.057882167 0.026849382 0.11952319 -0.080809526 -0.004516817 0.031606153 0.09911365 0.03391893
0.018112818 0.028932055 -0.050666396 -0.021030545 -0.0993883 0.032965936 0.12685649 0.15829408
-0.079437576 0.06604127 -0.061672848 -0.055047013 -0.07751544 0.11702113 0.023213824 -0.010553328
-0.014706763 0.04557514 -0.10483568 -0.12937725 -0.21542178 0.06999334 -0.024148712 0.08434887
0.0062913103 0.022493564 -0.31494597 0.004856389 0.012546635 0.010649801 -0.015663628 0.020562531
-0.07822051 -0.058756616 0.07824938 -0.1336666 -0.07766735 0.064527795 0.027768167 -0.033876173
-0.06548605 0.073333584 -0.13486598 -0.028386427 -0.054291353 -0.014808739 -0.0028430945 0.14452346
0.012483883 0.11779776 0.06342877 -0.069130346 0.2448647 -0.16086262 -0.13305685 0.026582217
0.12388267 0.055821035 -0.025568824 0.011885018 0.055125326 -0.098598324 0.031689603 -0.08627477
0.0013782502 -0.024578117 -0.06051852 0.01339513 0.3658492 -0.029478146 -0.051656667 0.035006735
00000000: 7ece 943c 668b 943d 3356 59bd bdd4 52bc
00000010: 9f62 f33d adac db3c bbc1 61bc 3f62 a23d
00000020: e4fd ab3c 413c 883c d765 913e 1560 35bd
00000030: c7a7 c3bd fe35 ccbd 0522 d7bc 8350 86bb
00000040: e7ed 213d 4ae0 873d f9b8 85bd 03e4 123c
00000050: 62be da3d b281 f03d 2649 48bc 5b6e e43d
00000060: f7c0 18bd 6881 58bc c9e2 1d3e a5fc bdbd
00000070: ade8 2cbd 9a64 cfbc 5989 0fbd 3389 c73c
00000080: 48bf 84bd 9716 98bd 7ab4 93bd c7b4 b3bd
00000090: 794b 84be 2b5c 343e 118b 0a3e 231d 523d
000000a0: 6d51 afbd 4058 03bd 54af 283c bc3b d7bd
000000b0: 4d71 9bbd 496c 4bbd db61 d43d d5d4 7e3d
000000c0: d3a7 35bd b507 823b b10f 933d f93b cb3d
000000d0: c14f 79be b95e 613c 2f0a 733d 0d03 06be
000000e0: 99ee a13c 9789 23be 14de 8fbc 38bf 35be
000000f0: 706e af3d 93b9 243d f8e0 a4bd 69a0 333c
00000100: d6db f83d b0c1 26be 3496 84bc 59e8 823d
00000110: 99dd 833d 05e8 bf3d dfd2 9dbd 8394 57be
00000120: 760c 793d daaf a93d 99e7 a53d e8b4 b43d
00000130: 0f36 f3bd 9041 97be 4964 483d bd1f 80bd
00000140: 8ee5 01be 82c9 0d3e 5874 bf3d b8fe bfbd
00000150: eb4f 1ebd 36c4 33bd 9be2 8ebd 4a7f 3bbd
00000160: 98a5 ab3c 0d9b febd 91d3 b03d 6574 623c
00000170: f2c6 803d 5bb5 973d 64b1 b8bd 4005 79bd
00000180: ca12 443c 7ae0 b63c 0c08 9abd cb08 81bd
00000190: 65bd 083e 42e8 0d3e 2a61 1cbd 408f a9bb
000001a0: 24f2 07bf 3397 ebba c7b9 95bd 4ff9 9dbd
000001b0: a284 7b3c 1a36 ab3b 8733 813e cb91 cd3d
000001c0: f341 79bd eecf 3e3e f21c 8e3d d877 aebd
000001d0: d3e2 cbbc 116d 2a3d 63ea 473c 4527 913d
000001e0: b114 813d 02b6 a73d 6f0b 87bd 3b50 4f3c
000001f0: a5cf e5bd 85a3 8ebd 21b8 8ebc 8a85 47bd
00000200: 9b93 13bd c8db a7bd fb59 783d 5be9 8f3d
00000210: c4f5 52bd 3c4b 813b be92 a93d 4d39 8fbb
00000220: 3f8b 33be ab3f 8abd 3f17 03bd 9808 8d3d
00000230: 7ee1 103e fcbc a83d 8607 b53d b5dc 86bc
00000240: 4000 d4bd 0678 8abd 1719 953d 7e51 8fbc
00000250: 1797 4bbd 2abe 8ebd 65c2 aebd 6263 a7bd
00000260: b531 c1be c2d9 503d bc9b 803d b4ae e8bd
00000270: e5b6 933d 27a8 c8bd 16d8 97bc 4af8 55be
00000280: df18 3f3c 0dd8 a0bc da9c bfbd e3ec dabd
00000290: 4636 b13b ea0f 2ebe 6587 79bd 4580 c83d
000002a0: c269 c3bd ebba d93b e81a b43d 4f00 2bbe
000002b0: 0574 ef3d 9356 143d 1543 c3bd 9093 813d
000002c0: da15 6dbd 3cf3 db3c 93c8 f43d 777f a5bd
000002d0: cf01 94bb 7475 013d 19fc ca3d 93ee 0a3d
000002e0: 5561 943c eb02 ed3c 9187 4fbd 4048 acbc
000002f0: 188c cbbd 4a07 073d abe6 013e d817 223e
00000300: 2bb0 a2bd a540 873d ab9c 7cbd fa78 61bd
00000310: 6ac0 9ebd c6a8 ef3d eb2a be3c dee7 2cbc
00000320: a3f4 70bc ffac 3a3d 17b4 d6bd 787b 04be
00000330: 8797 5cbe ab58 8f3d 85d3 c5bc 1abf ac3d
00000340: 5627 ce3b 6c44 b83c 9940 a1be 5822 9f3b
00000350: 6790 4d3c 817c 2e3c 0251 80bc c172 a83c
00000360: 1332 a0bd c7aa 70bd 3641 a03d e6df 08be
00000370: 0f10 9fbd 2627 843d 117a e33c bec1 0abd
00000380: 8d1d 86bd eb2f 963d 4f1a 0abe a78a e8bc
00000390: 9c60 5ebd 5aa0 72bc 3653 3abb f5fd 133e
000003a0: 3389 4c3c f43f f13d f1e6 813d 3694 8dbd
000003b0: d0bd 7a3e 2cb9 24be 0e40 08be f3c2 d93c
000003c0: 33b6 fd3d 99a4 643d b675 d1bc 61b9 423c
000003d0: 18cb 613d ebed c9bd f5cc 013d d4b0 b0bd
000003e0: 67a6 b43a 0c58 c9bc 45e2 77bd 3f77 5b3c
000003f0: 9650 bb3e 277c f1bc f195 53bd 3963 0f3d

allocation_head.0.bias f4 [4]
0.048434786 -0.0049270727 -0.031699423 0.104265355
00000000: 8e63 463d 4873 a1bb 41d7 01bd 1389 d53d

payment_head.0.weight f4 [1, 100]
0.019555407 -0.143343 0.2327445 0.13099433 -0.2712864 0.056215454 -0.070731215 -0.015671432
0.13715354 0.013280059 -0.034068692 0.23792873 -0.027144516 -0.021808764 0.11828217 0.14770998
0.005354035 -0.16082911 0.19485386 0.04550475 0.13418745 -0.124518506 0.25907058 -0.0990202
0.11788997 0.15964362 -0.06906344 0.037172686 0.18222924 0.0065588355 -0.12176987 -0.041039925
0.021836413 0.54522085 0.15930294 -0.096693434 -0.026350582 -0.16179277 -0.0473682 0.062359262
-0.10526036 0.06592826 -0.033723105 0.18795937 0.16000701 0.18939996 0.13075745 0.08321148
0.09939957 0.043034345 -0.074185684 0.1496107 -0.038218547 0.045414336 -0.0769553 0.27137864
-0.18453483 0.415583 0.1345644 -0.083449215 0.024144929 0.053680684 0.17908733 0.3621498
-0.07487556 -0.0057059694 0.26165426 0.106548406 0.13872391 -0.045599066 0.035061646 0.28866097
-0.12929082 0.046660792 -0.052837893 0.04810957 0.24755874 -0.36618453 -0.14705789 0.05218407
0.18005621 0.08343898 0.022008315 0.049330026 0.06177839 0.20375784 0.16884427 0.01329006
0.03847581 0.18803176 0.103549495 -0.015065749 -0.06028655 -0.099191196 0.07979316 0.08986104
0.17526177 0.21865208 0.15922406 0.15325329
00000000: a932 a03c 82c8 12be 9354 6e3e 6123 063e
00000010: 0de6 8abe 2d42 663d 87db 90bd 6061 80bc
00000020: fa71 0c3e 9b94 593c 9d8b 0bbd 97a3 733e
00000030: 2d5e debc 4ba8 b2bc ec3d f23d 4941 173e
00000040: e770 af3b 63b0 24be c587 473e 3063 3a3d
00000050: 6f68 093e 8f03 ffbd e6a4 843e 1acb cabd
00000060: 4c70 f13d 9e79 233e 2271 8dbd 6342 183d
00000070: 4d9a 3a3e 80eb d63b 7b62 f9bd 7b19 28bd
00000080: 47e2 b23c 9893 0b3f 4f20 233e 3507 c6bd
00000090: 2ddd d7bc 01ad 25be 2805 42bd 6d6c 7f3d
000000a0: be92 d7bd 6505 873d 3d21 0abd 6c78 403e
000000b0: e1d8 233e 10f2 413e 48e5 053e c86a aa3d
000000c0: 0092 cb3d c844 303d aaee 97bd 8c33 193e
000000d0: 0d8b 1cbd 6204 3a3d be9a 9dbd 24f2 8a3e
000000e0: b3f6 3cbe 4cc7 d43e 40cb 093e 6ce7 aabd
000000f0: 96cb c53c 47e0 5b3d ab62 373e b36b b93e
00000100: 5c58 99bd 24f9 babb 8cf7 853e 0d36 da3d
00000110: a40d 0e3e 16c6 3abd cd9c 0f3d 5fcb 933e
00000120: d064 04be 631f 3f3d 8c6c 58bd 8a0e 453d
00000130: 0a80 7d3e 8a7c bbbe 5896 16be f7be 553d
00000140: a860 383e 0ee2 aa3d c84a b43c 480e 4a3d
00000150: 560b 7d3d e5a5 503e 83e5 2c3e 8dbe 593c
00000160: d098 1d3d 668b 403e c211 d43d 55d6 76bc
00000170: 08ef 76bd c124 cbbd 996a a33d 1109 b83d
00000180: d277 333e 55e6 5f3e a20b 233e 6eee 1c3e
