result/1x2_sparsemax_in_linsigpmt_scratch_74_checkpoint.pt (torch, 88519 bytes, 9 tensors)

nn_model.0.weight f4 [100, 2]
0	0xbe8444f8	-0.2583387
1	0x3ec98ae3	0.39363775
2	0x3ea58d0d	0.32334176
3	0xbe4fafd3	-0.20281915
4	0x3e35d9b2	0.17758825
5	0xbe803001	-0.25036624
6	0x3f0d6b25	0.55241615
7	0x3d0fbbd7	0.035091247
8	0xbe8a4b3d	-0.27010527
9	0x3e198aea	0.14994398
10	0x3ec3d1c2	0.3824597
11	0xbe67a859	-0.22622813
12	0x3d250461	0.04028738
13	0x3eb4aca4	0.35287964
14	0xbd90162e	-0.070354804
15	0x3e5c5c7e	0.21519658
16	0xbe2ea355	-0.17054494
17	0x3e7dc9f1	0.24784066
18	0xbee3bb7a	-0.4447897
19	0xbeb3c2aa	-0.35109454
20	0xbe94aea0	-0.29039478
21	0x3f2b253d	0.66853696
22	0xbdf8a6c0	-0.1214118
23	0xbced74e5	-0.028986404
24	0xbeef9d8a	-0.4679988
25	0x3f346cf5	0.70478755
26	0x3f1e0b26	0.6173576
27	0xbf0c86b0	-0.54893017
28	0xbeca2f71	-0.3948932
29	0xbeb04cd7	-0.34433624
30	0xbdc5a2e8	-0.096502125
31	0xbe7f88d6	-0.24954543
32	0xbeecf889	-0.46283367
33	0xbe81da6a	-0.2536195
34	0x3df7587e	0.120774254
35	0xbec2cd2d	-0.38047162
36	0x3e207161	0.1566825
37	0xbe260add	-0.16215082
38	0xbeaf6e40	-0.34263802
39	0x3dc6f497	0.097146206
40	0x3f0daa49	0.5533796
41	0xbf21ead1	-0.63248926
42	0xbd2bd774	-0.04195352
43	0xbe972f14	-0.29528105
44	0x3f6cc99e	0.92495143
45	0xbebfe96d	-0.37482777
46	0xbf0e0e8d	-0.5549095
47	0x3f38446e	0.71979415
48	0xbee50ee8	-0.44737935
49	0x3e0ad291	0.13556887
50	0xbd79f81a	-0.061027624
51	0xbe18882e	-0.14895698
52	0xbe4c47ff	-0.1994934
53	0x3ed863ab	0.4226354
54	0x3d0a6f4f	0.03379756
55	0xbf303e39	-0.68844944
56	0xbed186e6	-0.40923232
57	0xbe298d00	-0.16557693
58	0x3eb62f0d	0.35582772
59	0xbeea4995	-0.45759264
60	0x3f42fbba	0.76165354
61	0xbdcfd793	-0.101485394
62	0xbe61fe8a	-0.22069755
63	0x3f14c23b	0.5810887
64	0x3e2861b5	0.16443522
65	0x3f00f9a5	0.5038093
66	0x3f032e1b	0.51242226
67	0xbe1e8c09	-0.15483107
68	0xbef033e2	-0.46914583
69	0xbd577e87	-0.0526109
70	0x3f20f6be	0.628765
71	0x3c06cd2e	0.00822763
72	0xbefe48c6	-0.49664897
73	0x3eb65735	0.3561341
74	0x3f42a220	0.76028633
75	0xbe12fcf4	-0.14354306
76	0xbf15e366	-0.5855011
77	0xbf243202	-0.64138806
78	0x3e46c598	0.19411314
79	0xbcd5019c	-0.026001744
80	0xbee87a53	-0.45405826
81	0x3da2cd8d	0.07949362
82	0x3eb6b813	0.35687312
83	0x3f1f8b01	0.6232148
84	0x3f01c362	0.50688756
85	0xbe5fbfac	-0.21850461
86	0xbf1f9ded	-0.6235035
87	0xbf2392c1	-0.63895804
88	0x3f4417bc	0.76598716
89	0x3ebe0fd8	0.37121463
90	0x3e9dd0b9	0.30823305
91	0xbf1c9f2a	-0.61180365
92	0x3f3c1b70	0.73479366
93	0x3f3b36b2	0.73130333
94	0x3f1919d5	0.5980504
95	0xbf1ab9b4	-0.6043961
96	0xbe80c2b4	-0.25148547
97	0xbee4bd67	-0.44675753
98	0x3f0e5a4c	0.5560653
99	0xbeda1926	-0.42597312
100	0xbebdb0c5	-0.37048927
101	0x3eb7afbe	0.35876268
102	0xbea779f0	-0.32710218
103	0xbeb24fe3	-0.34826574
104	0xbdf93bff	-0.121696465
105	0xbdfb87c6	-0.12281756
106	0xbf0adfa6	-0.5424751
107	0x3f49ac02	0.7877809
108	0xbe9fb3ff	-0.31192014
109	0x3e806ba6	0.2508213
110	0x3f249cc6	0.6430172
111	0x3ebff8e8	0.37494588
112	0x3e206a4b	0.15665548
113	0x3f287080	0.6579666
114	0x3dc2ab84	0.0950537
115	0xbea77fe5	-0.32714763
116	0x3f3a7548	0.72835207
117	0x3e57709a	0.21039048
118	0xbeacaa45	-0.33723655
119	0xbdf12a8e	-0.11775695
120	0xbefd835a	-0.49514276
121	0x3f4cfee4	0.8007643
122	0xbdef2822	-0.116775766
123	0xbf2500ee	-0.64454544
124	0xbcf8c867	-0.030368997
125	0x3eeb28ca	0.45929557
126	0x3e3c1d98	0.18370664
127	0x3e64f4da	0.22359028
128	0x3db961cb	0.09051856
129	0x3eca4b5d	0.39510623
130	0xbdf5abee	-0.119956836
131	0xbe63ba8c	-0.2223913
132	0xbf293347	-0.6609387
133	0xbf085e59	-0.53268963
134	0x3e6fdc20	0.23423815
135	0xbee6c1a7	-0.4506962
136	0x3e1006e0	0.14065123
137	0x3e9510f3	0.29114494
138	0xbd04c1cc	-0.03241138
139	0xbf04ca92	-0.518716
140	0x3f3e3c05	0.7431033
141	0xbd101582	-0.03517676
142	0x3f0398ee	0.5140523
143	0xbf23e595	-0.6402219
144	0xbe2e2cfb	-0.17009346
145	0x3ec4f010	0.38464403
146	0xbe8a7f24	-0.27050126
147	0x3f1db6de	0.6160716
148	0xbef923a6	-0.4866001
149	0xbf1803cf	-0.5938081
150	0xbea3400b	-0.31884798
151	0x3dea1845	0.1143041
152	0x3f2225ba	0.63338816
153	0xbe9ba835	-0.3040177
154	0x3e9c6867	0.30548403
155	0xbe50691e	-0.20352599
156	0xbe87073b	-0.26372704
157	0x3f03f03b	0.5153844
158	0xbf0c4995	-0.5479978
159	0x3d99d036	0.07510416
160	0x3f05caae	0.5226239
161	0xbe9c56cc	-0.3053497
162	0x3f0fc300	0.5615692
163	0xbeb366f2	-0.3503948
164	0x3f11b6b6	0.5691942
165	0xbf2f1b02	-0.68400586
166	0xbdc1498c	-0.09437856
167	0xbe0a99af	-0.13535188
168	0x3e9e5df9	0.3093107
169	0x3ea45097	0.32092735
170	0x3f0c462a	0.5479456
171	0xbea3c1e7	-0.31983873
172	0x3d9a4786	0.07533173
173	0x3f0ecfde	0.5578593
174	0xbe5adc0b	-0.21373002
175	0x3f1846c9	0.5948301
176	0xbe8db630	-0.2767806
177	0xbdbb639c	-0.09149858
178	0x3ba26519	0.0049558994
179	0x3e91ee02	0.28501898
180	0x3f04c257	0.5185904
181	0xbe61450d	-0.21998997
182	0xbf15f894	-0.58582425
183	0x3eb36329	0.3503659
184	0x3e858b77	0.26082966
185	0x3e79255e	0.2433066
186	0xbebcdf1e	-0.36888975
187	0x3f19c209	0.600617
188	0x3f401fce	0.7504853
189	0x3e1d17d0	0.15341115
190	0xbf365f69	-0.71239334
191	0x3ea7a603	0.32743844
192	0xbf06378e	-0.5242852
193	0x3e2671f7	0.16254412
194	0x3cb6b8de	0.022304948
195	0xbecbf433	-0.39834747
196	0x3e7c1eda	0.24621144
197	0xbf21e8dc	-0.6324594
198	0x3e29c2be	0.16578194
199	0xbf2feed1	-0.6872378

nn_model.0.bias f4 [100]
0	0x3c0d1e02	0.008613111
1	0xbe23e478	-0.16005123
2	0x3f26c107	0.65138286
3	0xbed74448	-0.42044282
4	0x3eed59d0	0.46357584
5	0xbe7675fc	-0.24068445
6	0xbec932c9	-0.39296558
7	0xbf1da1af	-0.61574835
8	0xbf2616ac	-0.64878345
9	0x3f4b16b3	0.7933151
10	0xbecbed4c	-0.3982948
11	0x3e1d0521	0.15333988
12	0x3e1e8973	0.1548212
13	0x3f0bf2d8	0.54667425
14	0x3f3caf0f	0.7370462
15	0x3f1c7c77	0.6112742
16	0xbf061d3a	-0.52388346
17	0xbe011237	-0.12604605
18	0xbed63b5e	-0.4184217
19	0xbeced9f7	-0.4040067
20	0x3e7c38b6	0.24631009
21	0x3f34c83a	0.7061802
22	0xbf067c3a	-0.52533305
23	0x3f0bcebf	0.54612345
24	0xbebbb47b	-0.36661133
25	0xbe0d0819	-0.1377262
26	0x3f124cae	0.57148254
27	0xbe23c3c9	-0.15992655
28	0x3dce89e7	0.100848965
29	0xbefd13aa	-0.49429065
30	0x3f1445c1	0.57918936
31	0xbdf0472f	-0.11732327
32	0xbf2ad4ed	-0.6673115
33	0x3e391b01	0.18076707
34	0xbf00b538	-0.5027652
35	0xbf11e0c1	-0.5698357
36	0x3e0df3cd	0.13862534
37	0x3f0c1ac1	0.54728323
38	0xbe4ce6fe	-0.20009992
39	0x3ea63125	0.3245937
40	0x3f27bbd0	0.65520954
41	0x3eea64e8	0.4578011
42	0xbee6ef12	-0.4510427
43	0xbd9ebf1b	-0.07751294
44	0xbe8f8004	-0.28027356
45	0xbf118fd2	-0.5686008
46	0xbce78eba	-0.0282663
47	0x3f19b997	0.6004881
48	0x3f328fa6	0.6975044
49	0xbe5534fb	-0.20820992
50	0x3e655916	0.22397265
51	0xbe9cbc00	-0.30612183
52	0x3f0c6fad	0.54857904
53	0xbe924504	-0.2856828
54	0xbefb7dbd	-0.49119368
55	0x3de8bb2e	0.11363827
56	0x3ed4b7ef	0.4154658
57	0xbf23349c	-0.6375215
58	0x3f1e9089	0.61939293
59	0x3eee3682	0.4652596
60	0xbec0c068	-0.37646794
61	0xbe1bf8c0	-0.1523161
62	0x3f19e02f	0.601077
63	0xbf0ae262	-0.5425168
64	0xbe1352b8	-0.14387023
65	0x3ebb2dad	0.36558285
66	0xbf1e969d	-0.6194857
67	0x3ee65563	0.4498702
68	0x3ebf0f9c	0.37316597
69	0x3f049250	0.51785755
70	0xbf1a9374	-0.60381246
71	0x3f407dd0	0.75191975
72	0xbed69a43	-0.41914567
73	0x3f367830	0.7127714
74	0xbf2db8f7	-0.6786036
75	0xbf214865	-0.6300109
76	0x3ee6fdd3	0.45115528
77	0xbdbfb8fd	-0.093614556
78	0x3c6f7167	0.01461444
79	0xbec87b61	-0.3915663
80	0xbef229ca	-0.47297508
81	0xbea152bb	-0.3150843
82	0xbf30574a	-0.6888319
83	0x3e751470	0.23933578
84	0x3df577d9	0.1198575
85	0x3db1b430	0.08676946
86	0x3e657409	0.22407545
87	0x3f327d40	0.69722366
88	0x3ebbde21	0.36692908
89	0xbe98cbe2	-0.2984305
90	0xbe7a1e5d	-0.24425645
91	0xbee7a265	-0.45241085
92	0xbf00f772	-0.5037757
93	0xbe20cbb6	-0.1570271
94	0xbddedbc0	-0.10881758
95	0x3ed0c870	0.40777922
96	0xbe9abfa8	-0.30224347
97	0x3f1a5b5b	0.6029565
98	0xbefe090d	-0.4961628
99	0x3deee09f	0.11663937

nn_model.2.weight f4 [100, 100]
0	0x3e5373dd	0.20649667
1	0x3e18aafd	0.14908977
2	0xbc57cb7a	-0.013171071
3	0x3e4f916b	0.20270316
4	0x3d63f966	0.055657767
5	0x3dbbf793	0.091780804
6	0xbd86087f	-0.06544589
7	0x3cdde233	0.0270854
8	0xbd8e692a	-0.06953652
9	0x3d2f5421	0.04280484
10	0x3df6bc0f	0.12047588
11	0xbbd20830	-0.0064096674
12	0x3dd070c8	0.10177761
13	0x3d278934	0.04090233
14	0x3d8929d2	0.0669743
15	0x3e0c17c5	0.13680942
16	0xbcfa674d	-0.030566836
17	0x3d77a499	0.060459707
18	0xbcea50ad	-0.028602922
19	0xbc6f5373	-0.014607298
20	0xbcbf5c7a	-0.023359526
21	0x3d1c96c8	0.038229734
22	0x3cbe61af	0.023239939
23	0x3d903fe3	0.070434354
24	0x3b76f133	0.0037680387
25	0x3d81d215	0.06338898
26	0x3d0a028e	0.033693843
27	0x3c244c8d	0.010028017
28	0xbc677589	-0.014127144
29	0xbdab82b2	-0.083745375
30	0x3dc5c5be	0.09656857
31	0x3cad94ae	0.02118906
32	0xbccf41e6	-0.025299978
33	0x3cbc6f1a	0.023002196
34	0x3cd63d00	0.026152134
35	0xbc88b049	-0.016685622
36	0x3e0c7331	0.13715817
37	0x3d7a0394	0.06103857
38	0x3d1ab890	0.03777367
39	0x3dc1670c	0.09443483
40	0x3c8044ac	0.015657745
41	0x3db9c14d	0.09070072
42	0x3de4e3c9	0.11176259
43	0x3b96cb00	0.004601836
44	0x3cb20b6d	0.021733964
45	0x3b6e2100	0.0036335588
46	0x3d9c4095	0.076295055
47	0x3b166366	0.002294743
48	0xbcb95e0f	-0.022627858
49	0x3dc33e9f	0.095334284
50	0xbdc55331	-0.09635008
51	0x3ad22400	0.0016032457
52	0xbbb92dd0	-0.005651213
53	0x3e3c7071	0.18402268
54	0xbdbead43	-0.09310391
55	0x3d98cb04	0.07460597
56	0x3e1a3de6	0.15062675
57	0x3ca5c1cd	0.020234013
58	0x3d44f6db	0.048086982
59	0x3dd9cb58	0.10634488
60	0x3dc5d137	0.09659045
61	0xbc034a73	-0.008013356
62	0x3c2d36c8	0.010572143
63	0xbc622ab3	-0.013804126
64	0x3d714512	0.05890376
65	0x3ce96378	0.028489813
66	0xbc9ab9f3	-0.018887496
67	0xbd8046c9	-0.06263501
68	0x3d7cd26b	0.061724108
69	0x3d6b8594	0.057500437
70	0x3e6b050b	0.22951142
71	0x3df4caea	0.11952765
72	0x3dc7114a	0.097200945
73	0xbbbde6ab	-0.00579532
74	0xbbcc52b3	-0.0062354445
75	0xbd241dad	-0.040067364
76	0xbd230c80	-0.039806843
77	0x3d01175f	0.03151643
78	0x3de70db8	0.112819135
79	0x3d6ed263	0.05830611
80	0x3c7dfdc3	0.015502396
81	0x3d1d6896	0.03842982
82	0xbda2b595	-0.0794479
83	0x3c86e5f6	0.016467076
84	0x3def9056	0.11697452
85	0xbdb62a7b	-0.08894821
86	0x3e0b6ea0	0.13616419
87	0x3da567b4	0.080764204
88	0x3db2153a	0.08695455
89	0xbcf61112	-0.030037437
90	0x3dd547f5	0.10414115
91	0xbdb58d7d	-0.088648774
92	0xbdb4446f	-0.08802115
93	0x3e5c4d8b	0.21513955
94	0x3d10f395	0.035388548
95	0x3e0845c7	0.13307868
96	0x3dc93f88	0.09826571
97	0x3e02b60b	0.12764756
98	0x3d89804a	0.06713922
99	0x3e0c145a	0.13679639
100	0xbc536700	-0.012902975
101	0xbd9eef35	-0.07760469
102	0xbd180dfd	-0.037122715
103	0xbc37ef27	-0.011226452
104	0xbd5d57a3	-0.054038655
105	0x3d516027	0.05111709
106	0x3d0fc7e0	0.035102725
107	0x3c842df3	0.016135192
108	0x3cc5e2f3	0.02415607
109	0x3db3e833	0.08784523
110	0x3d15306d	0.036423136
111	0xbdb398e2	-0.087693945
112	0xbd94a90f	-0.07258808
113	0x3d3487f3	0.044074964
114	0x3c5f47a7	0.013627923
115	0x3d47c22d	0.048769165
116	0xbdcc89b0	-0.09987199
117	0xbdbd00ef	-0.09228694
118	0x3d7b2d73	0.06132264
119	0x3d82ffdb	0.06396457
120	0xbdb948ea	-0.090471104
121	0x3d1b7a67	0.03795853
122	0xbd9feaba	-0.078084424
123	0x3d9b18bd	0.07573078
124	0x3d008750	0.031379044
125	0x3dca80ea	0.0988787
126	0xbdc9ee60	-0.098599195
127	0xbdc527f5	-0.09626762
128	0x3d8a7738	0.067610204
129	0x3db5d380	0.08878231
130	0x3d7af427	0.061267998
131	0x3d88283b	0.06648298
132	0xbdac7f47	-0.08422714
133	0x3d943caf	0.07238137
134	0xbdc15c80	-0.09441471
135	0x3cb702ba	0.022340167
136	0xbd8626b0	-0.06550348
137	0xbd22b0f7	-0.039719548
138	0x3c910e07	0.017706884
139	0xbd210bea	-0.039318003
140	0xbc819dc0	-0.015822291
141	0xbdc21d4b	-0.094782434
142	0xbdc119b7	-0.09428733
143	0x3d1ea9f7	0.03873631
144	0xbd2d5ff7	-0.042327847
145	0xbd793247	-0.060838964
146	0xbd219ef3	-0.039458226
147	0xbda77023	-0.08175685
148	0xbda3b798	-0.07994002
149	0x3d7517e3	0.059837233
150	0x3d502d0d	0.050824214
151	0x3c5a3d9a	0.013320351
152	0xbd5fbf7a	-0.054625966
153	0x3d08463a	0.0332701
154	0x3b933600	0.0044925213
155	0xbd925d70	-0.07146728
156	0x3cb04893	0.021518981
157	0x3dba7aba	0.091054395
158	0xbdc9714d	-0.098360635
159	0xbdcba6ca	-0.09943922
160	0x3c51eb80	0.012812495
161	0x3d9a380f	0.075302236
162	0xbd793cc7	-0.060848977
163	0x3cb4561a	0.022013713
164	0x3d8ff8ad	0.07029853
165	0x3cfc92a0	0.030831635
166	0x3cb148a0	0.021641076
167	0x3dcc5593	0.099772595
168	0x3d856bef	0.06514727
169	0xbd665ec0	-0.056242704
170	0x3c0d9e1a	0.008643651
171	0x3d5140da	0.051087238
172	0x3db49d75	0.08819095
173	0xbdcbc323	-0.09949329
174	0x3d5dccf3	0.054150533
175	0xbcedd700	-0.029033184
176	0xbdc88b65	-0.097922124
177	0x3cb5d753	0.022197401
178	0xbd5efdea	-0.05444137
179	0x3c682e67	0.014171219
180	0xbd84f73d	-0.064924695
181	0xbd9a1e32	-0.075252905
182	0xbc0b051a	-0.008485103
183	0xbd09985d	-0.03359257
184	0x3d6f8f83	0.058486473
185	0x3c0d4280	0.008621812
186	0x3d9fdbc0	0.07805586
187	0x3c998540	0.018740296
188	0xbd03b627	-0.032156136
189	0x3d8ab7ca	0.06773336
190	0x3bb30f9a	0.0054645063
191	0x3c99c1cd	0.01876917
192	0xbd03bc93	-0.03216226
193	0x39bc2800	0.00035887957
194	0xbc9d829a	-0.019227315
195	0xbc0b4ada	-0.008501733
196	0xbd9fb823	-0.07798793
197	0xba213733	-0.0006149888
198	0xbda9fe3a	-0.08300443
199	0xbcb03c33	-0.02151308
200	0x3d875c30	0.0660938
201	0xbd9f728f	-0.07785522
202	0xbd9b2e39	-0.07577176
203	0xbcc80787	-0.024417652
204	0xbd1283be	-0.03577017
205	0x3c8aae27	0.016928745
206	0x3cd73e30	0.02627477
207	0x3d4fb4ed	0.050709654
208	0xbd8d152f	-0.06888806
209	0xbc7cd399	-0.015431308
210	0x3d6ecc67	0.058300402
211	0x3d9ff553	0.07810464
212	0xbc7fc933	-0.0156119345
213	0xbd87a6a9	-0.06623585
214	0x3ca6dc81	0.020368816
215	0x3d46fe0d	0.048582125
216	0xbd7fe5c7	-0.062474992
217	0xbd6db02d	-0.058029342
218	0x3d350ae0	0.044199824
219	0xbbe5979a	-0.0070065977
220	0xbdd2720d	-0.1027566
221	0xbd873924	-0.066026956
222	0x3d261b33	0.040553283
223	0xbd2d1893	-0.042259764
224	0x3d8d5be2	0.06902291
225	0x3da1e70f	0.07905399
226	0x3bcb0cfe	0.006196617
227	0xbc018e5a	-0.007907474
228	0xbd243ae8	-0.04009524
229	0xbba5b1b3	-0.005056584
230	0x3c213a76	0.009840598
231	0xbdab574b	-0.08366259
232	0xbc7497ef	-0.014928802
233	0xbdbb8084	-0.09155372
234	0x3d7b64dd	0.061375488
235	0xbd826c90	-0.06368363
236	0x3daa13b0	0.08304536
237	0xbd0bd6db	-0.03414045
238	0xbd6aa653	-0.057287525
239	0x3d228bf5	0.039684255
240	0x3bd686f9	0.0065468517
241	0x3d797576	0.060903035
242	0x3d2afee0	0.041746974
243	0xbdc54abb	-0.09633394
244	0x3d9352bf	0.07193517
245	0xbc9a4447	-0.018831385
246	0xbd564e8f	-0.052321013
247	0x3d61d48a	0.055134334
248	0x3d84361f	0.06455635
249	0xbdc4f146	-0.09616332
250	0xbc8e5f31	-0.017379375
251	0x3da82ee0	0.08212066
252	0x3cf8c12e	0.030365553
253	0x3dc05f43	0.0939317
254	0xbd0c5e90	-0.03426987
255	0xbd81fedd	-0.063474394

nn_model.2.bias f4 [100]
0	0x3ceb0d08	0.028692737
1	0xb97c5ccd	-0.00024067164
2	0xbd9dc29e	-0.07703136
3	0x3d4a1af3	0.049342107
4	0xbd9c02ad	-0.07617698
5	0x3d02fe34	0.03198071
6	0xbd946cdd	-0.072473265
7	0xbd184be2	-0.037181742
8	0xbc0044c3	-0.007828894
9	0x3ccf650c	0.025316738
10	0xbdcccf49	-0.10000474
11	0x3d6707fd	0.056404103
12	0x3cd3ed16	0.025869887
13	0xbd842a32	-0.064533606
14	0x3d1597c4	0.036521688
15	0xbd58c660	-0.05292356
16	0xbd446c97	-0.04795512
17	0xbc8a129a	-0.016854573
18	0x3d6339fe	0.055475228
19	0x3b6f9533	0.0036557436
20	0xbd90f99b	-0.070788585
21	0x3d8990fc	0.06717107
22	0x3c1795f4	0.00925206
23	0xbd9b12b2	-0.07571925
24	0x3d0734bd	0.03300928
25	0xbda7be2f	-0.081905715
26	0x3d6c8976	0.05774828
27	0x3d79ca9d	0.060984243
28	0x3d87c6fa	0.06629749
29	0xbdbff435	-0.09372751
30	0x3d69a6f8	0.057044
31	0xbc167273	-0.00918256
32	0xbcb17567	-0.021662427
33	0x3d2bb8e0	0.041924357
34	0xbdb85fe8	-0.09002668
35	0xbd052b62	-0.032512076
36	0xbdba9aab	-0.09111532
37	0xbd104e0a	-0.035230674
38	0x3cb594d3	0.022165691
39	0x3d4254a4	0.047444
40	0x3d8f45a2	0.06995703
41	0xbb1e4f76	-0.002415625
42	0xbb955acf	-0.0045579444
43	0x3d64e74f	0.055884656
44	0xbd5b8002	-0.053588875
45	0xbdc2e782	-0.09516813
46	0xbd02d6fe	-0.031943314
47	0xbd568dba	-0.052381255
48	0x3dc752bf	0.097325794
49	0x3ce97b6d	0.028501237
50	0x3c53ca2f	0.012926622
51	0x3d86ddf1	0.06585301
52	0xbd9bba30	-0.07603872
53	0xbd570373	-0.052493524
54	0xbdbdd840	-0.09269762
55	0xbc4beaf8	-0.012446158
56	0xbd908ddb	-0.07058307
57	0xbb8d431a	-0.0043109776
58	0xbd8048e8	-0.06263906
59	0x3d4fe6a2	0.050757058
60	0xbdadbd6a	-0.084833935
61	0xbd5cac84	-0.05387546
62	0x3d74347a	0.059620358
63	0x3d934446	0.071907565
64	0xbb856ec7	-0.0040720436
65	0xbd46880d	-0.048469592
66	0xbddbdd6a	-0.10735591
67	0x3dd115f5	0.10209266
68	0x3aff12cd	0.0019460559
69	0xbc8b7813	-0.01702503
70	0xbc81808e	-0.01580837
71	0xbd2ad8be	-0.041710608
72	0x3d342293	0.043978285
73	0xbd8f0ea8	-0.06985217
74	0xbc9b388c	-0.018947862
75	0x3d6444d4	0.055729702
76	0xbcb51f33	-0.022109604
77	0x3da8c240	0.08240175
78	0x3d73591e	0.05941116
79	0xbdc3cf8c	-0.09561071
80	0x3ce56d25	0.028006146
81	0xbc07fe8d	-0.008300436
82	0xbcc05706	-0.023478996
83	0xbd3f8bc0	-0.046764135
84	0x3d95efb1	0.07321108
85	0x3d70ef9a	0.05882225
86	0x3db7ca9a	0.0897419
87	0x3dd94aee	0.10609995
88	0x3d94ad85	0.07259659
89	0xbd2cbd8f	-0.042172965
90	0x3d43bf10	0.047789633
91	0xbc4f6da2	-0.012660416
92	0x3de7b645	0.11314062
93	0x3deec84a	0.11659296
94	0x3da8559f	0.08219456
95	0x3ca81936	0.020519834
96	0xbd9af39e	-0.075659975
97	0xbd24547d	-0.040119637
98	0xbc8df4f0	-0.01732871
99	0xbd9065c2	-0.07050659

nn_model.4.weight f4 [100, 100]
0	0x3e19abcd	0.15006943
1	0xbd56c417	-0.0524331
2	0xbc0a7f8f	-0.008453264
3	0xbce3a90d	-0.02779057
4	0x3d0992e4	0.03358735
5	0xbd34d32d	-0.044146705
6	0x3b587533	0.003302884
7	0x3def1f36	0.11675875
8	0x3c9732ba	0.018456805
9	0x3d3fb36d	0.046801973
10	0x3d4e8385	0.050418396
11	0x3dfca5aa	0.123362854
12	0xbd91ab47	-0.07112747
13	0xbc80136e	-0.015634265
14	0xbd579d56	-0.05264028
15	0xbd93f058	-0.07223576
16	0xbddd0c19	-0.10793323
17	0x3d057603	0.032583248
18	0x3dcf760d	0.10129938
19	0x3bd6fdb3	0.006561005
20	0x3c0a8040	0.008453429
21	0xba7cef39	-0.0009648684
22	0xbd5f71e2	-0.054551966
23	0x3df0f88a	0.11766155
24	0x3d2258dd	0.039635528
25	0xbdaf57d3	-0.08561673
26	0x3cf79b0d	0.030225301
27	0x3e06c6a4	0.13161713
28	0x3dae835f	0.08521151
29	0x3dfc28fe	0.12312506
30	0x3de54d56	0.11196391
31	0x3da6ad7b	0.081385575
32	0xbcaaca73	-0.020848488
33	0x3cf1f32a	0.029534895
34	0x3d0ec0b7	0.034851756
35	0xbd2b4ebf	-0.041823145
36	0x3d08283a	0.033241488
37	0xbd795cd3	-0.06087954
38	0x3d941281	0.07230092
39	0x3daa48d7	0.08314674
40	0x3dfab7ea	0.1224211
41	0x3e006639	0.12538995
42	0x3de7ec04	0.11324313
43	0xbda06b4b	-0.078329645
44	0xbd97c12e	-0.07409893
45	0xbdae6b28	-0.08516532
46	0x3d86e07f	0.06585788
47	0x3e03e768	0.12881243
48	0x3dce148a	0.10062511
49	0x3d835835	0.064133085
50	0x3df0c21e	0.11755775
51	0xbcf7f1d6	-0.030266684
52	0xbcd48393	-0.025941646
53	0xbda8bb3f	-0.08238839
54	0xbd92bb9e	-0.071646914
55	0xbd8b7144	-0.06808713
56	0x3d70a46a	0.058750547
57	0xbce3a093	-0.027786529
58	0x3caa7d28	0.020811632
59	0x3ddc62b8	0.107610166
60	0x3d594860	0.053047538
61	0x3d6c28bb	0.05765603
62	0xbd64ad99	-0.055829618
63	0x3db3b572	0.08774842
64	0x3da91c04	0.08257297
65	0xbd5d9743	-0.054099333
66	0xba60f4b1	-0.0008581384
67	0xbdb1a1dd	-0.08673451
68	0xbccd254d	-0.0250422
69	0x3cb09da0	0.021559536
70	0xbdbdb79e	-0.09263538
71	0xbd328ce3	-0.04359139
72	0x3d19a49b	0.037510496
73	0x3e06aa51	0.13150908
74	0xbcdefbfa	-0.027219761
75	0x3deaf29f	0.114720576
76	0xbda0bf13	-0.078489445
77	0xbd0f4259	-0.034975383
78	0x3dcab8d9	0.09898538
79	0xbcbc0a6e	-0.022954192
80	0x3d92f3c5	0.071754016
81	0xbd76348a	-0.0601087
82	0x3d5644f9	0.05231187
83	0xbcb53efa	-0.022124756
84	0x3ce9548f	0.028482703
85	0x3d1731da	0.036912777
86	0x3cfed35a	0.03110664
87	0x3def37ad	0.11680541
88	0x3c92414f	0.017853407
89	0xbcfbf4ee	-0.03075644
90	0x3d987862	0.07444836
91	0x3ce89518	0.028391406
92	0xbd8f2221	-0.069889314
93	0xbce8185c	-0.028331928
94	0x3d7cc57a	0.061711766
95	0x3db7c1db	0.08972522
96	0xbc6ae4b5	-0.014336755
97	0x3d92ae7f	0.07162189
98	0x3d56ca02	0.052438743
99	0x3da900dc	0.08252117
100	0x3d1ab797	0.03777274
101	0x3d42960a	0.04750637
102	0xbcf7d0cf	-0.030250935
103	0xbdafa0df	-0.085756056
104	0xbc945d48	-0.018110886
105	0x3d855e09	0.065120764
106	0xbd4e22b0	-0.05032605
107	0x3debfdec	0.11523041
108	0x3e24db23	0.16099219
109	0x3d88e5d7	0.066844635
110	0x3d96e611	0.073681004
111	0xbd520b6a	-0.051280417
112	0x3d38c3a9	0.04510847
113	0x3d059f36	0.03262254
114	0x3d130ab5	0.035898883
115	0xbd995187	-0.07486253
116	0x3d8ec6b6	0.06971495
117	0x3d2494fa	0.040181138
118	0x3de7647f	0.11298465
119	0xbc45e673	-0.012078869
120	0xbd31b393	-0.043384146
121	0x3ddabb5a	0.10680266
122	0xbd652fad	-0.05595367
123	0x3d624eb1	0.055250827
124	0xbd7b4863	-0.06134833
125	0x3d92bbab	0.07164701
126	0x3d96c50f	0.07361805
127	0xbe474169	-0.19458546
128	0xbddda7ba	-0.10823007
129	0x3d734712	0.05939395
130	0xbe07595e	-0.13217685
131	0x3dbc5f07	0.091978125
132	0x3d2a8243	0.041628134
133	0xbd753d31	-0.05987281
134	0x3dad1858	0.08451909
135	0xbd0945f9	-0.033513997
136	0x3d37bf87	0.04486039
137	0x3d28a73a	0.041175105
138	0xbc6c12f4	-0.014408816
139	0xbced1da1	-0.028944792
140	0xbc5096ee	-0.012731297
141	0xbddadd59	-0.1068675
142	0x3dfe3ee4	0.12414339
143	0xbdac40a0	-0.08410764
144	0x3cae43f1	0.021272631
145	0x3d98ff4b	0.07470568
146	0xbc1729fa	-0.009226317
147	0xbe5dd0ac	-0.21661633
148	0x3d862aad	0.065511085
149	0x3e1b0b2a	0.15140978
150	0x3ca3acb1	0.019979807
151	0xbd1d2222	-0.03836263
152	0x3da515f6	0.08060829
153	0x3d84537f	0.06461238
154	0x3d3d9df6	0.04629322
155	0x3d8807dd	0.06642125
156	0x3d986530	0.07441175
157	0x3dbfb285	0.09360222
158	0xbd99dfe1	-0.07513405
159	0x3db34491	0.087533124
160	0x3d9acaaf	0.0755819
161	0x3df65edb	0.12029811
162	0x3d50331f	0.050830003
163	0x3da71613	0.08158507
164	0x3d8102b0	0.06299341
165	0x3d8d0a0d	0.06886683
166	0x3e17c806	0.14822397
167	0xbd9173dc	-0.071021765
168	0x3d5ae730	0.053443134
169	0x3da1b8b7	0.0789656
170	0x3bbe22c0	0.0058024824
171	0x3e0bf0f7	0.1366614
172	0x3e1ad5b6	0.15120587
173	0x3dc9154a	0.09818514
174	0xbccd5d02	-0.025068764
175	0xbbdf6490	-0.006817408
176	0x3d223130	0.03959769
177	0xbcd0a22c	-0.025467955
178	0xbe2402f0	-0.16016746
179	0xbc4a39e9	-0.012342908
180	0x3d80ca63	0.06288602
181	0xbcaefae0	-0.02135986
182	0xbcb65107	-0.022255434
183	0x3dafaac5	0.085774936
184	0x3c9ea655	0.019366423
185	0x3d2620a0	0.040558457
186	0x3d8e67dd	0.06953404
187	0x3da1da47	0.07902961
188	0x3c16b957	0.009199462
189	0x3dc747ac	0.09730467
190	0xbbee99e7	-0.00728153
191	0xbe317011	-0.17327906
192	0xbe2de61e	-0.16982314
193	0x3cc1346c	0.023584567
194	0xbd84af38	-0.06478733
195	0x3e167cc3	0.1469603
196	0x3da12581	0.078684814
197	0xbd9eff93	-0.07763591
198	0x3d08043a	0.033207156
199	0x3e20d9aa	0.15708032
200	0x3c83a5c0	0.016070247
201	0xbc966cc7	-0.018362416
202	0xbd6bdf0b	-0.057585757
203	0xbd57043d	-0.052494276
204	0x3c92cc33	0.017919635
205	0x3c4a477a	0.012346143
206	0xbd89701a	-0.06710835
207	0xbcc8436c	-0.024446212
208	0x3d524933	0.05133934
209	0x3d0ad3c5	0.033893365
210	0x3c548e03	0.012973311
211	0x3cb2f200	0.02184391
212	0xbd1da825	-0.038490433
213	0x3d3f3093	0.046677183
214	0x3e26c1d0	0.16284871
215	0x3c931dc0	0.017958522
216	0xbe2a8804	-0.16653448
217	0x3d1361fa	0.03598211
218	0xbd50a810	-0.050941527
219	0xbdbf0d22	-0.09328677
220	0x3d916048	0.07098442
221	0x3d4aa0be	0.049469702
222	0x3d225b8d	0.03963809
223	0x3d922db8	0.071376264
224	0xbd1a841d	-0.03772365
225	0x3d019d93	0.031644415
226	0xbdd69b63	-0.104788564
227	0x3d817d65	0.06322745
228	0xbd06636c	-0.03280966
229	0x3c4fa058	0.012672506
230	0x3e0a668a	0.13515678
231	0x3c840ce7	0.016119434
232	0xbd4c1703	-0.049826633
233	0x3e07ef12	0.13274792
234	0x3d6f9870	0.058494985
235	0x3d38980c	0.04506688
236	0x3b84794d	0.0040427805
237	0x3dbda6a7	0.09260302
238	0xbd6e1a11	-0.058130328
239	0xbd81894e	-0.06325017
240	0x3e2cb551	0.16866042
241	0x3e283ce1	0.16429473
242	0x3bf80eac	0.0075701084
243	0x3d9cd52e	0.07657848
244	0xbca61e0b	-0.020277997
245	0xbcb87153	-0.022514975
246	0x3da0c536	0.07850115
247	0x3e9d4d7f	0.30723187
248	0xbdb27cd2	-0.08715214
249	0xbbc063a8	-0.005871255
250	0x3d3587ba	0.044318892
251	0xbcbffa66	-0.023434829
252	0xbe1b70d0	-0.15179753
253	0x3d3bf49a	0.045887567
254	0xbd8ae28a	-0.0678149
255	0x3d893f1b	0.067014895

nn_model.4.bias f4 [100]
0	0xbbebd41d	-0.0071969167
1	0xbd1e9567	-0.0387167
2	0x3e071535	0.13191684
3	0x3d9dd95f	0.07707476
4	0xbdbd8ded	-0.09255586
5	0x3dbf7063	0.09347608
6	0x3dd688fe	0.10475348
7	0xbdc25077	-0.09488004
8	0x3d89255f	0.06696581
9	0xbcd81e31	-0.026381584
10	0xbd5aa91b	-0.053383928
11	0xbd6d4820	-0.057930112
12	0xbdc426ef	-0.095777385
13	0xbd9e4372	-0.07727708
14	0x3ddbe68c	0.10737333
15	0xbc7cfa19	-0.015440487
16	0xbb787767	-0.0037912966
17	0x3b73a73a	0.0037178532
18	0x3db6b920	0.089220285
19	0xbc37efcd	-0.011226607
20	0x3d39ccae	0.045361213
21	0xbd076bee	-0.033061914
22	0x3d85a1c0	0.06524992
23	0xbcd0e61c	-0.02550035
24	0x3df32816	0.1187288
25	0x3c96140a	0.018320102
26	0xbd59c17b	-0.053163033
27	0x3d5a0707	0.053229358
28	0x3dc42563	0.095774435
29	0x3bb1879a	0.0054177763
30	0x3c203fd4	0.009780843
31	0x3d3c7315	0.04600819
32	0x3b9f009a	0.0048523666
33	0x3ca205a9	0.01977809
34	0x3dc91858	0.09819096
35	0x3d482255	0.048860867
36	0x3ca57474	0.02019713
37	0x3d28e47e	0.041233532
38	0x39f581ae	0.0004682666
39	0xbd47e156	-0.04879888
40	0x3d7dfbd2	0.062007733
41	0x3d836807	0.06416326
42	0x3d2045f3	0.03912921
43	0x3c9ca400	0.01912117
44	0x3d4bb9fa	0.049737908
45	0xbd808fc3	-0.0627742
46	0x3d2a6c86	0.041607402
47	0x3c357449	0.011075088
48	0xbd25c453	-0.040470432
49	0xbdac4019	-0.08410663
50	0xbc1ea940	-0.009683907
51	0x3daf5ec7	0.08562999
52	0xbd5805e6	-0.05274
53	0x3d4a3981	0.049371246
54	0xbd1d85cc	-0.038457677
55	0xbb76319f	-0.0037566198
56	0x3da3c974	0.079974085
57	0xbcf49696	-0.029856961
58	0x3dc2972f	0.09501492
59	0x3daa5bc6	0.08318286
60	0x3cadefc9	0.021232503
61	0xbd27c6e7	-0.040961172
62	0x3c49b0b9	0.0123102
63	0x3dc32688	0.09528834
64	0xbd9c324d	-0.076267816
65	0x3dfa7903	0.122301124
66	0x3d9b7b92	0.075919285
67	0xbd3f219d	-0.046662915
68	0x3dd86cbb	0.10567614
69	0x3c1c819a	0.009552384
70	0xbc81747a	-0.01580261
71	0xbd851b42	-0.0649934
72	0x3d9f21f9	0.07770152
73	0xbd9100db	-0.07080241
74	0xbd88c74b	-0.06678637
75	0x3a4b1a67	0.00077477697
76	0x3be352a1	0.0069373404
77	0xbd34d914	-0.044152334
78	0x3d13c78b	0.03607897
79	0xbcdb75a7	-0.0267895
80	0x3d389096	0.045059763
81	0xbc83557a	-0.01603197
82	0xbcf77075	-0.03020499
83	0xbdc37fe7	-0.0954588
84	0x3dee8c9d	0.116479136
85	0x3d623c68	0.05523339
86	0x3e04f43e	0.12983796
87	0xbd98c290	-0.07458985
88	0x3b1bee2d	0.0023793087
89	0xbcf09fdf	-0.029373107
90	0xbd3825a3	-0.04495777
91	0xbc220cd9	-0.009890758
92	0x3d11b1e1	0.03557003
93	0x3d591afe	0.053004257
94	0xbda3632e	-0.079779014
95	0xbda63408	-0.08115393
96	0x3de96c7e	0.11397646
97	0x3d8bcb43	0.068258785
98	0x3d2e52dc	0.04255949
99	0x3dff1a13	0.12456145

allocation_head.0.weight f4 [4, 100]
0	0x3c954f34	0.018226244
1	0x3db2f60e	0.087383375
2	0xbd64344c	-0.055713937
3	0xbc68570c	-0.01418091
4	0x3e26df3c	0.16296095
5	0x3cdbacad	0.026815737
6	0xbc61c1bb	-0.013779099
7	0x3da2623f	0.07928895
8	0x3c5fe459	0.013665282
9	0x3c883c41	0.016630294
10	0x3e9acb09	0.3023303
11	0xbd424ee1	-0.047438506
12	0xbdc3a7c7	-0.09553485
13	0xbda1a037	-0.07891887
14	0xbcfa5f73	-0.030563092
15	0xbc0874a6	-0.008328592
16	0x3d21ede7	0.039533522
17	0x3d8c4931	0.06849898
18	0xbd984e54	-0.07436815
19	0x3c4403cc	0.011963796
20	0x3ddab3f3	0.10678854
21	0x3df3987e	0.1189432
22	0xbc9c8b85	-0.019109497
23	0x3def3149	0.11679322
24	0xbd20a260	-0.039217353
25	0xbca3f66e	-0.020014968
26	0x3e214c6e	0.15751812
27	0xbdbdfca5	-0.09276704
28	0xbd21927f	-0.03944635
29	0xbccf649a	-0.025316525
30	0xbc9b172c	-0.018931948
31	0x3d080ca1	0.03321517
32	0xbd84bf48	-0.064817965
33	0xbdb0c9a3	-0.08632209
34	0xbd9e9263	-0.07742765
35	0xbdb3b4c7	-0.08774715
36	0xbe5ece00	-0.2175827
37	0x3e420965	0.18948896
38	0x3e18c553	0.14919023
39	0x3d521d23	0.05129732
40	0xbd856440	-0.06513262
41	0xbd035840	-0.032066584
42	0x3c28af54	0.010295708
43	0xbddff7ed	-0.1093596
44	0xbda4dc00	-0.08049774
45	0xbd5df167	-0.054185297
46	0x3dbebcd6	0.09313361
47	0x3d8f0e64	0.06985167
48	0xbd35a7d3	-0.044349503
49	0x3b8207b5	0.003968204
50	0x3d930fb1	0.07180727
51	0x3dc95d76	0.098322794
52	0xbe89167c	-0.26774967
53	0x3c648b22	0.0139491875
54	0x3d730a2f	0.059335884
55	0xbe0847b4	-0.13308603
56	0x3cbfcc13	0.02341274
57	0xbe348a7e	-0.17630956
58	0xbcec90f4	-0.028877713
59	0xbe1a7d45	-0.15086849
60	0x3db52bad	0.08846221
61	0x3d24b993	0.04021604
62	0xbdb43000	-0.08798218
63	0x3bd6171c	0.0065335166
64	0x3dc44079	0.0958261
65	0xbe07c4f9	-0.13258733
66	0xbca494a6	-0.020090412
67	0x3d8313ea	0.06400283
68	0x3d7eb3cd	0.06218319
69	0x3dc1ed84	0.09469131
70	0xbd9dd2df	-0.07706236
71	0xbe90280c	-0.28155553
72	0x3d90f03c	0.07077071
73	0x3da9afda	0.08285494
74	0x3da5e799	0.08100814
75	0x3db4b4e8	0.08823568
76	0xbdf01bee	-0.11724077
77	0xbe7b19b6	-0.24521527
78	0x3d79e335	0.061007697
79	0xbd801fbd	-0.062560536
80	0xbe05034b	-0.12989537
81	0x3e1094bf	0.14119242
82	0x3dc80367	0.09766274
83	0xbdbffeb8	-0.093747556
84	0xbd2377ef	-0.0399093
85	0xbd49774a	-0.04918603
86	0xbd92223f	-0.07135438
87	0xbd3b7f4a	-0.04577569
88	0x3caba598	0.020952985
89	0xbe0065b5	-0.12538798
90	0x3db662d6	0.0890557
91	0x3d0f8768	0.035041243
92	0x3d80c6f2	0.06287946
93	0x3daf8d31	0.08571852
94	0xbdb8b164	-0.090182096
95	0xbd790540	-0.060796022
96	0x3c28fe15	0.010314484
97	0x3ca98312	0.020692382
98	0xbda9ed2c	-0.0829719
99	0xbd8b4871	-0.068009265
100	0x3e0c9ef8	0.13732517
101	0x3e108e08	0.1411668
102	0xbd142656	-0.036169372
103	0xbb800982	-0.0039073834
104	0xbf00dc75	-0.5033639
105	0xbaeb9733	-0.0017974138
106	0xbd95b9c7	-0.07310825
107	0xbd9df94f	-0.077135675
108	0x3c9506a6	0.018191647
109	0x3bab48c3	0.0052271797
110	0x3e7b0523	0.24513678
111	0x3dc9e390	0.09857857
112	0xbd7941f3	-0.06085391
113	0x3e46c786	0.1941205
114	0x3d93c7eb	0.07215866
115	0xbda7cbd9	-0.08193178
116	0xbccbe2d3	-0.024888432
117	0x3d2de232	0.042452045
118	0x3c2c3c52	0.010512428
119	0x3d97d22f	0.07413136
120	0x3d851a07	0.06499105
121	0x3d9ebbbb	0.077506505
122	0xbd9cf430	-0.076637626
123	0x3cce936c	0.02521678
124	0xbde6408e	-0.112427816
125	0xbd90abaa	-0.07063992
126	0xbc89e9a7	-0.016835047
127	0xbd47858a	-0.048711337
128	0xbd033df1	-0.032041494
129	0xbda7dbc8	-0.08196217
130	0x3d832875	0.06404201
131	0x3d936654	0.07197252
132	0xbd856b92	-0.06514658
133	0xbc2c9067	-0.010532475
134	0x3dab8c10	0.08376324
135	0xbb8f394d	-0.0043708445
136	0xbe145183	-0.14484219
137	0xbd434ed7	-0.04768261
138	0xbc669d39	-0.014075571
139	0x3d8d0898	0.06886405
140	0x3e0cfb30	0.13767695
141	0x3da8bcfc	0.08239171
142	0x3db50786	0.088393256
143	0xbc94a484	-0.018144853
144	0xbdd5b98d	-0.10435782
145	0xbd90df94	-0.07073894
146	0x3d9d541b	0.076820575
147	0xbc2fd4ad	-0.010731858
148	0xbd4b9717	-0.049704637
149	0xbd8ebe2a	-0.06969865
150	0xbdaec265	-0.085331716
151	0xbdaba4a2	-0.083810106
152	0xbeb7d97a	-0.3590811
153	0x3d72dbfd	0.05929183
154	0x3d809bbc	0.06279704
155	0xbdf2b2cd	-0.1185051
156	0x3d9627e3	0.073318265
157	0xbddbe085	-0.10736183
158	0xbc3c2a62	-0.011484714
159	0xbe332b27	-0.1749693
160	0x3c7499ef	0.014929279
161	0xbca0d80d	-0.019634271
162	0xbdc41dd8	-0.09576005
163	0xbde2a95c	-0.11067459
164	0x3cdea45b	0.02717798
165	0xbe0a4dda	-0.1350626
166	0xbd83be53	-0.06432786
167	0x3dd04635	0.10169641
168	0xbdc172a7	-0.09445696
169	0x3be1d8ca	0.0068922983
170	0x3db41ae8	0.087941945
171	0xbe689108	-0.22711575
172	0x3e005005	0.12530525
173	0x3d145693	0.036215376
174	0xbdc34315	-0.09534279
175	0x3d819390	0.063269734
176	0xbde68343	-0.11255505
177	0xbccc9720	-0.024974406
178	0x3e01eac3	0.1268721
179	0xbda57f77	-0.080809526
180	0xbbb5414a	-0.0055314647
181	0x3d0d94d0	0.034565747
182	0x3dd3aaab	0.10335287
183	0x3d0aee93	0.03391893
184	0x3c93011a	0.017944861
185	0x3cb682a1	0.022279086
186	0xbd57957e	-0.0526328
187	0xbcac4840	-0.021030545
188	0xbdcb8c18	-0.0993883
189	0x3d094ac7	0.03351858
190	0x3e04c1de	0.1296458
191	0x3e2bd955	0.16782124
192	0xbda2b02b	-0.079437576
193	0x3d9f5c43	0.077812694
194	0xbd7c9cab	-0.061672848
195	0xbd6178fa	-0.055047013
196	0xbda71787	-0.08158784
197	0x3df73880	0.120713234
198	0x3cc8adf1	0.024497004
199	0xbc07c6cd	-0.008287144
200	0xbc71f5f4	-0.014768112
201	0x3cfbaf59	0.03072326
202	0xbdd14511	-0.102182515
203	0xbe03234a	-0.1280643
204	0xbe84e2bf	-0.25954244
205	0x3d8f58ab	0.06999334
206	0xbcc5d385	-0.024148712
207	0x3dacbf1a	0.08434887
208	0x3c5f2b27	0.013621128
209	0x3cb8446c	0.022493564
210	0xbeaaa5cb	-0.33329615
211	0x3c034c66	0.00801382
212	0x3c4d9067	0.012546635
213	0xbc2631b8	-0.01014369
214	0xbc3a2723	-0.01136187
215	0x3ccb18f5	0.024792174
216	0xbda03213	-0.07822051
217	0xbd797c8d	-0.060909797
218	0x3db2d691	0.087323315
219	0xbe0bf1e1	-0.13666488
220	0xbd9f05a0	-0.07764745
221	0x3d81105b	0.06301948
222	0x3d0df081	0.03465319
223	0xbd2047b8	-0.039130896
224	0xbd822cca	-0.06356199
225	0x3da41d5a	0.08013411
226	0xbe0d83f4	-0.13819867
227	0xbce88aa7	-0.028386427
228	0xbd69b6ca	-0.057059087
229	0xbc72a05a	-0.014808739
230	0xbc9b45e9	-0.018954234
231	0x3e0aebee	0.13566563
232	0x3c4c8933	0.012483883
233	0x3e04f982	0.12985805
234	0x3d8cc4da	0.06873484
235	0xbd8d9436	-0.069130346
236	0x3e50f4e0	0.20405912
237	0xbe326666	-0.17421874
238	0xbe167a50	-0.14695096
239	0x3cd9c2f3	0.026582217
240	0x3dd3c906	0.103410766
241	0x3d64a499	0.055821035
242	0xbcd175b6	-0.025568824
243	0x3c844d7d	0.01615023
244	0x3d74a087	0.059723403
245	0xbdc0ab5f	-0.094076864
246	0x3d2d16ec	0.042258188
247	0xbdc054cd	-0.093911745
248	0x3ab4a667	0.0013782502
249	0xbcc9580c	-0.024578117
250	0xbd77e245	-0.06051852
251	0x3c6a6b57	0.014307818
252	0x3ec7bf2f	0.3901305
253	0xbcf31254	-0.029671825
254	0xbd5395f1	-0.051656667
255	0x3d1875ee	0.03722184

allocation_head.0.bias f4 [4]
0	0x3d45da9d	0.04830419
1	0xbb8002ed	-0.003906599
2	0xbd014e50	-0.031568825
3	0x3dd37208	0.10324484

payment_head.0.weight f4 [1, 100]
0	0x3cbda200	0.023148537
1	0xbe11023a	-0.14161006
2	0x3e71766e	0.23580334
3	0x3e0a2d12	0.13493755
4	0xbe10c8d8	-0.14139116
5	0x3d66422d	0.056215454
6	0xbd90db87	-0.070731215
7	0xbc806160	-0.015671432
8	0x3e0ff01d	0.1405644
9	0x3c59949b	0.013280059
10	0xbd0b8b9d	-0.034068692
11	0x3e708fb4	0.23492318
12	0xbcde5e2d	-0.027144516
13	0xbc9a708e	-0.018852498
14	0x3dfd8ce6	0.1238039
15	0x3e188cfb	0.1489753
16	0x3baf70e7	0.005354035
17	0xbe241e30	-0.1602714
18	0x3e3780ad	0.1792018
19	0x3d51e910	0.051247656
20	0x3e0f062b	0.13967197
21	0xbe020480	-0.12697029
22	0x3e9bec01	0.30453494
23	0xbdc09749	-0.09403855
24	0x3e026602	0.12734225
25	0x3e1d2285	0.153452
26	0xbd85f71a	-0.065412715
27	0x3d184263	0.037172686
28	0x3e45a004	0.19299322
29	0x3bd6eb80	0.0065588355
30	0xbdf7806e	-0.12085043
31	0xbd361c02	-0.044460304
32	0x3cb2e247	0.021836413
33	0x3f041352	0.5159198
34	0x3e20e8e8	0.15713847
35	0xbdc60735	-0.096693434
36	0xbd26d672	-0.040731855
37	0xbe2165a5	-0.1576143
38	0xbd367d24	-0.044552937
39	0x3d7f6c6d	0.062359262
40	0xbddb5296	-0.107091114
41	0x3d870565	0.06592826
42	0xbd0a213d	-0.033723105
43	0x3e399aa5	0.18125398
44	0x3e1d407f	0.15356635
45	0x3e406c69	0.18791355
46	0x3e0f12f4	0.13972074
47	0x3dc4b5e4	0.096050054
48	0x3dcb9200	0.09939957
49	0x3d3044c8	0.043034345
50	0xbd97eeaa	-0.074185684
51	0x3e1bae34	0.15203172
52	0xbd380c4d	-0.044933606
53	0x3d61ae62	0.055097945
54	0xbd9d9abe	-0.0769553
55	0x3e96d149	0.29456547
56	0xbe3c2eda	-0.18377247
57	0x3ecfd737	0.40593883
58	0x3e1535c0	0.14571285
59	0xbdab093d	-0.083513714
60	0x3cecb965	0.028896997
61	0x3d5be047	0.053680684
62	0x3e313108	0.1730386
63	0x3eb5fc7f	0.35544202
64	0xbd9daaba	-0.07698579
65	0xbbae6b2b	-0.005322834
66	0x3e8144a5	0.25247684
67	0x3de00e93	0.1094028
68	0x3e11acf2	0.1422613
69	0xbd3a3d16	-0.045468412
70	0x3d0f9ccd	0.035061646
71	0x3df04c32	0.11733283
72	0xbe026362	-0.12733224
73	0x3d3f1f63	0.046660792
74	0xbd586c8c	-0.052837893
75	0x3d450e8a	0.04810957
76	0x3d845dc0	0.06463194
77	0xbebf0fa8	-0.37316632
78	0xbe15ce2b	-0.14629428
79	0x3d55bef7	0.05218407
80	0x3e329067	0.17437898
81	0x3db73254	0.08945146
82	0x3cd79ddf	0.026320396
83	0x3d4a0e48	0.049330026
84	0x3d783830	0.06060046
85	0x3e48003a	0.19531336
86	0x3e2a0ef0	0.1660726
87	0x3c59be8d	0.01329006
88	0x3d1d98d0	0.03847581
89	0x3e40e02b	0.18835513
90	0x3ddf03f3	0.10889425
91	0xbc3dce93	-0.011584896
92	0xbd76ef08	-0.06028655
93	0xbdc1c681	-0.0946169
94	0x3da36a99	0.07979316
95	0x3db80911	0.08986104
96	0x3e391366	0.18073806
97	0x3e672ea6	0.22576389
98	0x3e1eb5e2	0.1549907
99	0x3e1cd32a	0.15314928
