result/1x2_sparsemax_in_linsigpmt_scratch_44_checkpoint.pt (torch, 88519 bytes, 9 tensors)

nn_model.0.weight f4 [100, 2]
-0.2623414 0.38419357 0.29805356 -0.23313111 0.16995768 -0.25222114 0.51214826 -0.21275352
-0.26371527 0.1626766 0.36959 -0.33402088 0.040885653 0.35350537 -0.070354804 0.21519658
-0.17054494 0.24784066 -0.4367611 -0.35278985 -0.36025265 0.6736573 -0.11301256 -0.029281959
-0.3658567 0.7489588 0.6154262 -0.5552086 -0.38925615 -0.3481504 -0.09456383 -0.24689771
-0.46283367 -0.2536195 0.120774254 -0.38047162 0.1566825 -0.16215082 -0.34263802 0.097146206
0.6842697 -0.58018076 -0.037689455 -0.30081674 0.9011345 -0.4963052 -0.55743253 0.7284739
-0.44737935 0.13556887 -0.061027624 -0.14895698 -0.18721642 0.4255494 0.03379756 -0.68844944
-0.41661334 -0.18413366 0.35582772 -0.45759264 0.74856746 -0.10164369 -0.17363311 0.6190346
0.16836812 0.50759274 0.4950114 -0.15927419 -0.46914583 -0.0526109 0.61859167 -0.054884322
-0.43994367 0.3792381 0.75726116 -0.1388314 -0.5855011 -0.64138806 0.19625461 -0.029548092
-0.45437184 0.0813619 0.35965973 0.6297192 0.5161343 -0.18174358 -0.6235035 -0.63895804
0.7542813 0.37220532 0.30823305 -0.61180365 0.7309864 0.7364233 0.5880925 -0.6129189
-0.25348836 -0.447718 0.5515002 -0.44218647 -0.32703263 0.3401744 -0.32710218 -0.34826574
-0.10862459 -0.11907121 -0.52639925 0.775097 -0.31192014 0.2508213 0.64963454 0.38851953
0.16470338 0.66949964 0.0950537 -0.32714763 0.7096977 0.19197677 -0.33509505 -0.11335462
-0.47622067 0.78259933 -0.116775766 -0.64454544 -0.032684714 0.44814757 0.18370664 0.22359028
0.17777012 0.35928416 -0.11100782 -0.22472623 -0.6609387 -0.53268963 0.23482285 -0.4541613
0.15263258 0.295631 -0.052789245 -0.49813175 0.7698345 -0.33166814 0.51085323 -0.64448726
-0.17009346 0.38464403 -0.26108703 0.62148273 -0.4866001 -0.5938081 -0.31884798 0.1143041
0.6220735 -0.30606577 0.27604884 -0.21445872 -0.23126663 0.5341951 -0.5479978 0.07510416
0.5264387 -0.2459607 0.529552 -0.3383162 0.5691942 -0.68400586 -0.08562887 -0.13479324
0.3037439 0.3237205 0.6173712 -0.10344739 0.06466118 0.5605691 -0.20962848 0.598132
-0.26913762 -0.09214116 0.0049558994 0.28501898 0.47318655 -0.21780847 -0.58582425 0.3503659
0.26400545 0.24757944 -0.30955276 0.54752094 0.74597573 0.15021965 -0.7063877 0.4156035
-0.5242852 0.16254412 0.031035015 -0.40062737 0.24621144 -0.6324594 0.17227212 -0.5164308
00000000: 9d51 86be 05b5 c43e 7a9a 983e ecb9 6ebe
00000010: 6309 2e3e 2123 81be 261c 033f 0fdc 59be
00000020: b005 87be b294 263e e73a bd3e c904 abbe
00000030: b777 273d a8fe b43e 2e16 90bd 7e5c 5c3e
00000040: 55a3 2ebe f1c9 7d3e 279f dfbe dfa0 b4be
00000050: 0973 b8be ce74 2c3f 2173 e7bd b8e0 efbc
00000060: 9251 bbbe c4bb 3f3f 928c 1d3f 2722 0ebf
00000070: 954c c7be c540 b2be aeaa c1bd c1d2 7cbe
00000080: 89f8 ecbe 6ada 81be 7e58 f73d 2dcd c2be
00000090: 6171 203e dd0a 26be 406e afbe 97f4 c63d
000000a0: 4d2c 2f3f ba86 14bf 4260 1abd a704 9abe
000000b0: c0b0 663f b71b febe e6b3 0ebf 447d 3a3f
000000c0: e80e e5be 91d2 0a3e 1af8 79bd 2e88 18be
000000d0: a9b5 3fbe 9ce1 d93e 4f6f 0a3d 393e 30bf
000000e0: 584e d5be 898d 3cbe 0d2f b63e 9549 eabe
000000f0: 1ea2 3f3f 912a d0bd e1cc 31be 0d79 1e3f
00000100: b168 2c3e 99f1 013f 2272 fd3e c618 23be
00000110: e233 f0be 877e 57bd 065c 1e3f 62ce 60bd
00000120: 4c40 e1be 7f2b c23e dedb 413f d229 0ebe
00000130: 66e3 15bf 0232 24bf f8f6 483e d70e f2bc
00000140: 6da3 e8be 11a1 a63d 5225 b83e 4735 213f
00000150: 6121 043f fd1a 3abe ed9d 1fbf c192 23bf
00000160: 9418 413f b291 be3e b9d0 9d3e 2a9f 1cbf
00000170: ed21 3b3f 3d86 3c3f 3b8d 163f 41e8 1cbf
00000180: 3ac9 81be 4b3b e5be 1e2f 0d3f 4466 e2be
00000190: d270 a7be 572b ae3e f079 a7be e34f b2be
000001a0: 9276 debd 9bdb f3bd 1ac2 06bf c26c 463f
000001b0: ffb3 9fbe a66b 803e 734e 263f 08ec c63e
000001c0: 01a8 283e 5464 2b3f 84ab c23d e57f a7be
000001d0: c0ae 353f 8f95 443e 9491 abbe 7826 e8bd
000001e0: 32d3 f3be 6e58 483f 2228 efbd ee00 25bf
000001f0: 68e0 05bd 9973 e53e 981d 3c3e daf4 643e
00000200: 5f09 363e 18f4 b73e 1158 e3bd a21e 66be
00000210: 4733 29bf 595e 08bf 6775 703e d487 e8be
00000220: b74b 1c3e f25c 973e 8939 58bd 200b ffbe
00000230: e013 453f 68d0 a9be 47c7 023f 1efd 24bf
00000240: fb2c 2ebe 10f0 c43e 33ad 85be 7e19 1f3f
00000250: a623 f9be cf03 18bf 0b40 a3be 4518 ea3d
00000260: 3540 1f3f a7b4 9cbe 4656 8d3e 119b 5bbe
00000270: 29d1 6cbe 03c1 083f 9549 0cbf 36d0 993d
00000280: b0c4 063f 1fdd 7bbe b890 073f c837 adbe
00000290: b6b6 113f 021b 2fbf 305e afbd 3d07 0abe
000002a0: 5284 9b3e b2be a53e 0a0c 1e3f 3adc d3bd
000002b0: 156d 843d 7581 0f3f d9a8 56be 2e1f 193f
000002c0: 68cc 89be 81b4 bcbd 1965 a23b 02ee 913e
000002d0: 8245 f23e 2f09 5fbe 94f8 15bf 2963 b33e
000002e0: b92b 873e 7785 7d3e b37d 9ebe 552a 0c3f
000002f0: 44f8 3e3f 2ed3 193e d3d5 34bf fbc9 d43e
00000300: 8e37 06bf f771 263e 253d fe3c 081f cdbe
00000310: da1e 7c3e dce8 21bf 1a68 303e cf34 04bf

nn_model.0.bias f4 [100]
0.037933365 -0.12159653 0.6635334 -0.32090884 0.47060663 -0.15462139 -0.39245 -0.61574835
-0.64878345 0.7908302 -0.34654373 0.1548557 0.18941638 0.5502686 0.7383792 0.617347
-0.52388346 -0.12604605 -0.4184217 -0.4040067 0.19819817 0.71474797 -0.48924223 0.54467
-0.36661133 -0.1377262 0.57995737 -0.15992655 0.095259935 -0.49429065 0.5979572 -0.101865925
-0.66437393 0.18962237 -0.5027652 -0.5624796 0.13135752 0.5518626 -0.20009992 0.33475003
0.6618895 0.46125972 -0.45728537 -0.07751294 -0.2752606 -0.5686008 -0.025190718 0.6098797
0.69954765 -0.1861518 0.23195215 -0.30612183 0.5541974 -0.28798527 -0.49119368 0.11830572
0.4196084 -0.6375215 0.638591 0.46839762 -0.4120957 -0.1523161 0.61385685 -0.5425168
-0.15402073 0.3699355 -0.6194857 0.4523977 0.3835252 0.5011128 -0.4725932 0.7616865
-0.41914567 0.7190434 -0.6786036 -0.6300109 0.4619787 -0.06690176 -0.004393492 -0.3915663
-0.47800946 -0.29538754 -0.6888319 0.24045914 0.12557098 0.00043746762 0.23658355 0.70530355
0.3668471 -0.2984305 -0.30209145 -0.45241085 -0.50067157 -0.15306117 -0.10605914 0.36513236
-0.30224347 0.6042719 -0.4961628 0.032859515
00000000: 0460 1b3d 9a07 f9bd 53dd 293f 2a4e a4be
00000010: 5af3 f03e 1255 1ebe 35ef c8be afa1 1dbf
00000020: ac16 26bf d973 4a3f 2e6e b1be 7e92 1e3e
00000030: 5ef6 413e 67de 0c3f 6b06 3d3f 740a 1e3f
00000040: 3a1d 06bf 3712 01be 5e3b d6be f7d9 cebe
00000050: 76f4 4a3e b9f9 363f f57d fabe 7e6f 0b3f
00000060: 7bb4 bbbe 1908 0dbe 1678 143f c9c3 23be
00000070: a417 c33d aa13 fdbe b913 193f 159f d0bd
00000080: 6914 2abf 5e2c 423e 38b5 00bf aafe 0fbf
00000090: 9682 063e de46 0d3f fee6 4cbe 5b64 ab3e
000000a0: 9771 293f 3c2a ec3e 4f21 eabe 1bbf 9ebd
000000b0: f5ee 8cbe d28f 11bf c45c cebc 1321 1c3f
000000c0: 8e15 333f 949e 3ebe dd84 6d3e 00bc 9cbe
000000d0: e1df 0d3f ce72 93be bd7d fbbe 454a f23d
000000e0: ead6 d63e 9c34 23bf b37a 233f d0d1 ef3e
000000f0: 35fe d2be c0f8 1bbe b925 1d3f 62e2 0abf
00000100: 9cb7 1dbe 3068 bd3e 9d96 1ebf aca0 e73e
00000110: 6a5d c43e ee48 003f bcf7 f1be e3fd 423f
00000120: 439a d6be 3a13 383f f7b8 2dbf 6548 21bf
00000130: 7988 ec3e ca03 89bd 48f7 8fbb 617b c8be
00000140: a8bd f4be 093d 97be 4a57 30bf ec3a 763e
00000150: ae95 003e e95b e539 f542 723e c68e 343f
00000160: 62d3 bb3e e2cb 98be bbab 9abe 65a2 e7be
00000170: 032c 00bf 11bc 1cbe 8935 d9bd a1f2 ba3e
00000180: a8bf 9abe 90b1 1a3f 0d09 febe b397 063d

nn_model.2.weight f4 [100, 100]
0.21174353 0.16164757 -0.0074043944 0.14228928 0.058570117 0.15651903 -0.06542239 0.0270854
-0.06953652 0.043814983 0.09984743 -0.0040537706 0.113922544 0.04940115 0.06816001 0.14048077
-0.030566836 0.060459707 -0.028602922 -0.014607298 -0.030854108 0.04232463 0.0071192984 0.07305928
0.0037680387 0.06338898 0.037954994 0.010028017 -0.01463813 -0.083745375 0.104619816 0.0008662428
-0.025254976 0.033022907 0.026152134 -0.034506984 0.12528853 0.0692128 0.03777367 0.10130471
0.017716883 0.096903555 0.067025356 0.004601836 0.027916733 0.0036335588 0.08277646 0.010435262
-0.021072013 0.102977745 -0.06853204 0.0016032457 -0.001996247 0.1835229 -0.09310391 0.08193314
0.15615614 0.020234013 0.055595502 0.10778985 0.10729816 -0.008013356 0.015613321 -0.013804126
0.05575654 0.03143631 -0.018887496 -0.05647504 0.067799136 0.033705913 0.16726048 0.12637012
0.097200945 -0.0016312042 -0.0062354445 -0.040067364 -0.03117511 -2.517217e-05 0.12091591 0.05830611
0.03864372 0.12517159 -0.0794479 0.02232731 0.123808175 -0.042138744 0.14142029 0.085125074
0.08819351 -0.030037437 0.056287587 -0.088648774 -0.0881463 0.17430793 0.043795872 0.12855594
0.09826571 0.13168027 0.06713922 0.126278 -0.012902975 -0.07760469 -0.037122715 -0.011226452
-0.054038655 0.05111709 0.035102725 0.016135192 0.02415607 0.08784523 0.036423136 -0.087693945
-0.07258808 0.044074964 0.013627923 0.048769165 -0.09987199 -0.09228694 0.06132264 0.06396457
-0.090471104 0.03795853 -0.078084424 0.07573078 0.031379044 0.0988787 -0.098599195 -0.09626762
0.067610204 0.08878231 0.061267998 0.06648298 -0.08422714 0.07238137 -0.09441471 0.022340167
-0.06550348 -0.039719548 0.017706884 -0.039318003 -0.015822291 -0.094782434 -0.09428733 0.03873631
-0.042327847 -0.060838964 -0.039458226 -0.08175685 -0.07994002 0.059837233 0.050824214 0.013320351
-0.054625966 0.0332701 0.0044925213 -0.07146728 0.021518981 0.091054395 -0.098360635 -0.09943922
0.012812495 0.075302236 -0.060848977 0.022013713 0.07029853 0.030831635 0.021641076 0.099772595
0.06514727 -0.056242704 0.008643651 0.051087238 0.08819095 -0.09949329 0.054150533 -0.029033184
-0.097922124 0.022197401 -0.05444137 0.014171219 -0.064924695 -0.075252905 -0.008485103 -0.03359257
0.058486473 0.008621812 0.07805586 0.018740296 -0.032156136 0.06773336 0.0054645063 0.01876917
-0.03216226 0.00035887957 -0.019227315 -0.008501733 -0.07798793 -0.0006149888 -0.08300443 -0.02151308
0.0660938 -0.07785522 -0.07577176 -0.024417652 -0.03577017 0.016928745 0.02627477 0.050709654
-0.06888806 -0.015431308 0.058300402 0.07810464 -0.0156119345 -0.06623585 0.020368816 0.048582125
-0.062474992 -0.058029342 0.044199824 -0.0070065977 -0.1027566 -0.066026956 0.040553283 -0.042259764
0.06902291 0.07905399 0.006196617 -0.007907474 -0.04009524 -0.005056584 0.009840598 -0.08366259
-0.014928802 -0.09155372 0.061375488 -0.06368363 0.08304536 -0.03414045 -0.057287525 0.039684255
0.0065468517 0.060903035 0.041746974 -0.09633394 0.07193517 -0.018831385 -0.052321013 0.055134334
0.06455635 -0.09616332 -0.017379375 0.08212066 0.030365553 0.0939317 -0.03426987 -0.063474394
00000000: 4cd3 583e f186 253e 90a0 f2bb 48b4 113e
00000010: 38e7 6f3d 8646 203e 2dfc 85bd 33e2 dd3c
00000020: 2a69 8ebd 5777 333d cf7c cc3d 7ed5 84bb
00000030: 3950 e93d dc58 4a3d 7a97 8b3d 31da 0f3e
00000040: 4d67 fabc 99a4 773d ad50 eabc 7353 6fbc
00000050: c1c1 fcbc 975c 2d3d 0149 e93b 1ba0 953d
00000060: 33f1 763b 15d2 813d b276 1b3d 8d4c 243c
00000070: c4d4 6fbc b282 abbd ea42 d63d 9214 633a
00000080: 86e3 cebc 0743 073d 003d d63c 3257 0dbd
00000090: a34b 003e 71bf 8d3d 90b8 1a3d d878 cf3d
000000a0: ff22 913c 5f75 c63d 9744 893d 00cb 963b
000000b0: a2b1 e43c 0021 6e3b b486 a93d a9f8 2a3c
000000c0: 379f acbc ffe5 d23d 875a 8cbd 0024 d23a
000000d0: 78d3 02bb 6ded 3b3e 43ad bebd 90cc a73d
000000e0: 65e7 1f3e cdc1 a53c 1cb8 633d edc0 dc3d
000000f0: 23bf db3d 734a 03bc 04cf 7f3c b32a 62bc
00000100: f860 643d 5cc3 003d f3b9 9abc 5f52 67bd
00000110: 46da 8a3d 360f 0a3d 5546 2b3e 2b67 013e
00000120: 4a11 c73d 21ce d5ba b352 ccbb ad1d 24bd
00000130: f262 ffbc d328 d3b7 c3a2 f73d 63d2 6e3d
00000140: e148 1e3d fb2c 003e 95b5 a2bd c3e7 b63c
00000150: 248f fd3d ad99 2cbd 7bd0 103e 0e56 ae3d
00000160: cd9e b43d 1211 f6bc d08d 663d 7d8d b5bd
00000170: 0c86 b4bd c77d 323e 4d63 333d 2ba4 033e
00000180: 883f c93d 31d7 063e 4a80 893d 054f 013e
00000190: 0067 53bc 35ef 9ebd fd0d 18bd 27ef 37bc
000001a0: a357 5dbd 2760 513d e0c7 0f3d f32d 843c
000001b0: f3e2 c53c 33e8 b33d 6d30 153d e298 b3bd
000001c0: 0fa9 94bd f387 343d a747 5f3c 2dc2 473d
000001d0: b089 ccbd ef00 bdbd 732d 7b3d dbff 823d
000001e0: ea48 b9bd 677a 1b3d baea 9fbd bd18 9b3d
000001f0: 5087 003d ea80 ca3d 60ee c9bd f527 c5bd
00000200: 3877 8a3d 80d3 b53d 27f4 7a3d 3b28 883d
00000210: 477f acbd af3c 943d 805c c1bd ba02 b73c
00000220: b026 86bd f7b0 22bd 070e 913c ea0b 21bd
00000230: c09d 81bc 4b1d c2bd b719 c1bd f7a9 1e3d
00000240: f75f 2dbd 4732 79bd f39e 21bd 2370 a7bd
00000250: 98b7 a3bd e317 753d 0d2d 503d 9a3d 5a3c
00000260: 7abf 5fbd 3a46 083d 0036 933b 705d 92bd
00000270: 9348 b03c ba7a ba3d 4d71 c9bd caa6 cbbd
00000280: 80eb 513c 0f38 9a3d c73c 79bd 1a56 b43c
00000290: adf8 8f3d a092 fc3c a048 b13c 9355 cc3d
000002a0: ef6b 853d c05e 66bd 1a9e 0d3c da40 513d
000002b0: 759d b43d 23c3 cbbd f3cc 5d3d 00d7 edbc
000002c0: 658b c8bd 53d7 b53c eafd 5ebd 672e 683c
000002d0: 3df7 84bd 321e 9abd 1a05 0bbc 5d98 09bd
000002e0: 838f 6f3d 8042 0d3c c0db 9f3d 4085 993c
000002f0: 27b6 03bd cab7 8a3d 9a0f b33b cdc1 993c
00000300: 93bc 03bd 0028 bc39 9a82 9dbc da4a 0bbc
00000310: 23b8 9fbd 3337 21ba 3afe a9bd 333c b0bc
00000320: 305c 873d 8f72 9fbd 392e 9bbd 8707 c8bc
00000330: be83 12bd 27ae 8a3c 303e d73c edb4 4f3d
00000340: 2f15 8dbd 99d3 7cbc 67cc 6e3d 53f5 9f3d
00000350: 33c9 7fbc a9a6 87bd 81dc a63c 0dfe 463d
00000360: c7e5 7fbd 2db0 6dbd e00a 353d 9a97 e5bb
00000370: 0d72 d2bd 2439 87bd 331b 263d 9318 2dbd
00000380: e25b 8d3d 0fe7 a13d fe0c cb3b 5a8e 01bc
00000390: e83a 24bd b3b1 a5bb 763a 213c 4b57 abbd
000003a0: ef97 74bc 8480 bbbd dd64 7b3d 906c 82bd
000003b0: b013 aa3d dbd6 0bbd 53a6 6abd f58b 223d
000003c0: f986 d63b 7675 793d e0fe 2a3d bb4a c5bd
000003d0: bf52 933d 4744 9abc 8f4e 56bd 8ad4 613d
000003e0: 1f36 843d 46f1 c4bd 315f 8ebc e02e a83d
000003f0: 2ec1 f83c 435f c03d 905e 0cbd ddfe 81bd

nn_model.2.bias f4 [100]
0.03347569 -0.00024067164 -0.07703136 0.049342107 -0.07617698 0.038182672 -0.072473265 -0.0397308
-0.0060895635 0.03146616 -0.10000474 0.05857911 0.03302769 -0.06332743 0.03854457 -0.05292356
-0.042489093 -0.016854573 0.054729387 0.0036557436 -0.070788585 0.06717107 0.012152491 -0.076274745
0.03300928 -0.081905715 0.05774828 0.064732455 0.06896111 -0.08914092 0.057288703 -0.00918256
-0.021662427 0.044531506 -0.09002668 -0.031109069 -0.09111532 -0.035230674 0.022165691 0.04759674
0.07070358 -0.0005293503 -0.020083893 0.057190098 -0.053588875 -0.09516813 -0.031943314 -0.052329417
0.10195864 0.029445864 0.015777668 0.06781569 -0.056519043 -0.052493524 -0.09269762 -0.0131108295
-0.07058307 -0.0043109776 -0.06263906 0.05639298 -0.084833935 -0.050581742 0.059620358 0.07049795
-0.0040720436 -0.04448315 -0.10442764 0.10473108 0.0019460559 -0.01702503 -0.01580837 -0.03410625
0.048117384 -0.06695201 -0.018947862 0.054646038 -0.022109604 0.08291411 0.061626446 -0.09561071
0.032122273 -0.008300436 -0.020594874 -0.046764135 0.07947372 0.05882225 0.0897419 0.10942388
0.07340106 -0.042172965 0.047789633 -0.008993585 0.1151666 0.12237048 0.08219456 0.02076744
-0.07474956 -0.040119637 -0.016802736 -0.0661726
00000000: ce1d 093d cd5c 7cb9 9ec2 9dbd f31a 4a3d
00000010: ad02 9cbd 6f65 1c3d dd6c 94bd c3bc 22bd
00000020: f68a c7bb a9e2 003d 49cf ccbd a6f0 6f3d
00000030: 0b48 073d d0b1 81bd e9e0 1d3d 60c6 58bd
00000040: 0b09 2ebd 9a12 8abc ec2b 603d 3395 6f3b
00000050: 9bf9 90bd fc90 893d 3e1b 473c ef35 9cbd
00000060: bd34 073d 2fbe a7bd 7689 6c3d 7392 843d
00000070: 7c3b 8d3d 848f b6bd 8fa7 6a3d 7372 16bc
00000080: 6775 b1bc ab66 363d e85f b8bd 72d8 febc
00000090: ab9a babd 0a4e 10bd d394 b53c cdf4 423d
000000a0: 0acd 903d 19c4 0aba fa86 a4bc 2a40 6a3d
000000b0: 0280 5bbd 82e7 c2bd fed6 02bd 5f57 56bd
000000c0: b1cf d03d 7438 f13c 2b40 813c f4e2 8a3d
000000d0: 8380 67bd 7303 57bd 40d8 bdbd cece 56bc
000000e0: db8d 90bd 1a43 8dbb e848 80bd 53fc 663d
000000f0: 6abd adbd cd2e 4fbd 7a34 743d 3b61 903d
00000100: c76e 85bb f733 36bd 29de d5bd 407d d63d
00000110: cd12 ff3a 1378 8bbc 8e80 81bc ffb2 0bbd
00000120: bc16 453d 231e 89bd 8c38 9bbc 86d4 5f3d
00000130: 331f b5bc dfce a93d 036c 7c3d 8ccf c3bd
00000140: a592 033d 8dfe 07bc 95b6 a8bc c08b 3fbd
00000150: 1ec3 a23d 9aef 703d 9aca b73d a119 e03d
00000160: 4c53 963d 8fbd 2cbd 10bf 433d d459 13bc
00000170: 77dc eb3d 609d fa3d 9f55 a83d 7a20 aa3c
00000180: 4c16 99bd 7d54 24bd e4a5 89bc 8085 87bd

nn_model.4.weight f4 [100, 100]
0.15084626 -0.0524331 -0.008453264 -0.02779057 0.03358735 -0.044590555 0.003302884 0.1186842
0.026461273 0.040919952 0.050418396 0.119550206 -0.070555255 -0.016135935 -0.054507244 -0.07223576
-0.10598299 0.032583248 0.12599689 0.006561005 0.008453429 -0.0009648684 -0.058742594 0.1148412
0.039635528 -0.08561673 0.030225301 0.1288265 0.08533535 0.12987733 0.10737308 0.081385575
-0.020848488 0.025031816 0.034851756 -0.048196513 0.033241488 -0.06087954 0.07230092 0.07969329
0.120701894 0.122334205 0.1280226 -0.084449016 -0.07409893 -0.08516532 0.06585788 0.14200589
0.09615997 0.06720977 0.122468315 -0.03480865 -0.012251899 -0.08238839 -0.071646914 -0.06510859
0.058750547 -0.027786529 0.020811632 0.10506278 0.053047538 0.06563626 -0.055829618 0.093278766
0.08257297 -0.052577425 0.010500554 -0.0906283 -0.0250422 0.021559536 -0.09263538 -0.04023029
0.044584956 0.13817376 -0.027219761 0.10906965 -0.078489445 -0.030743113 0.09358012 -0.022954192
0.07942924 -0.0601087 0.049825497 -0.022124756 0.03836885 0.036912777 0.03110664 0.12366976
0.015714552 -0.03075644 0.07444836 0.026650522 -0.07304075 -0.036269184 0.061711766 0.09367087
-0.002934079 0.07162189 0.04381454 0.09396533 0.035873037 0.04750637 -0.030250935 -0.085756056
-0.018110886 0.06133607 -0.05032605 0.092341416 0.16477732 0.062205154 0.073681004 -0.04913946
0.04448295 0.026745278 0.03536505 -0.07486253 0.08508221 0.040181138 0.14574116 -0.012078869
-0.043384146 0.10680266 -0.06179648 0.054491144 -0.06134833 0.07164701 0.07361805 -0.19686447
-0.109017126 0.059838977 -0.13554311 0.091978125 0.041628134 -0.06611121 0.08451909 -0.037832096
0.04486039 0.041175105 -0.014408816 -0.03604935 -0.015500737 -0.10946127 0.11291416 -0.08233652
0.021272631 0.07470568 -0.009226317 -0.22001743 0.057435054 0.15057266 0.01774381 -0.042027824
0.10104977 0.06461238 0.04629322 0.06718138 0.07441175 0.09360222 -0.07513405 0.08258903
0.0755819 0.12143815 0.050830003 0.08145778 0.06299341 0.06708769 0.14534877 -0.07235495
0.053443134 0.0789656 0.0058024824 0.13380209 0.14017232 0.089679025 -0.025068764 -0.0064163785
0.03959769 -0.0102660665 -0.16867451 -0.012342908 0.06446229 -0.02135986 -0.028121756 0.085774936
0.018044936 0.040558457 0.06953404 0.07800709 0.0074851196 0.09730467 -0.00728153 -0.17286663
-0.1705324 0.017489472 -0.06478733 0.14724201 0.08131411 -0.07763591 0.02771919 0.15476355
0.015423743 -0.018362416 -0.057585757 -0.052494276 0.017919635 0.012163031 -0.06710835 0.0022692871
0.058942456 0.030169476 0.012973311 0.007587999 -0.04445202 0.048746455 0.15662865 0.017958522
-0.17708863 0.03598211 -0.05582438 -0.09328677 0.07098442 0.049469702 0.035594676 0.06740615
-0.03772365 0.031644415 -0.104788564 0.054133546 -0.038936917 0.018483205 0.12924775 0.016119434
-0.049826633 0.13832173 0.058494985 0.03764767 0.0040427805 0.09260302 -0.058130328 -0.06475266
0.16029653 0.15698083 0.04117576 0.06902039 -0.020277997 -0.022514975 0.07850115 0.31622446
-0.08803207 -0.00273168 0.04087795 -0.031959016 -0.12635587 0.045887567 -0.0678149 0.06294455
00000000: 7177 1a3e 17c4 56bd 8f7f 0abc 0da9 e3bc
00000010: e492 093d 96a4 36bd 3375 583b b410 f33d
00000020: 50c5 d83c ae9b 273d 8583 4e3d bdd6 f43d
00000030: 467f 90bd 822f 84bc fd42 5fbd 58f0 93bd
00000040: 9c0d d9bd 0376 053d 5405 013e b3fd d63b
00000050: 4080 0a3c 39ef 7cba 139c 70bd dd31 eb3d
00000060: dd58 223d d357 afbd 0d9b f73c 18eb 033e
00000070: 4dc4 ae3d 90fe 043e 6be6 db3d 7bad a63d
00000080: 73ca aabc 860f cd3c b7c0 0e3d b569 45bd
00000090: 3a28 083d d35c 79bd 8112 943d 3c36 a33d
000000a0: 8e32 f73d 5b8a fa3d 5b18 033e 9bf3 acbd
000000b0: 2ec1 97bd 286b aebd 7fe0 863d fe69 113e
000000c0: 85ef c43d 47a5 893d abd0 fa3d 8493 0ebd
000000d0: 30bc 48bc 3fbb a8bd 9ebb 92bd a757 85bd
000000e0: 6aa4 703d 93a0 e3bc 287d aa3c 282b d73d
000000f0: 6048 593d 4e6c 863d 99ad 64bd f008 bf3d
00000100: 041c a93d 6d5b 57bd 840a 2c3c 559b b9bd
00000110: 4d25 cdbc a09d b03c 9eb7 bdbd 84c8 24bd
00000120: b79e 363d 6c7d 0d3e fafb debc e95f df3d
00000130: 13bf a0bd fbd8 fbbc efa6 bf3d 6e0a bcbc
00000140: ccab a23d 8a34 76bd d215 4c3d fa3e b5bc
00000150: a828 1d3d da31 173d 5ad3 fe3c 9246 fd3d
00000160: cebb 803c eef4 fbbc 6278 983d 3252 da3c
00000170: 6496 95bd ff8e 14bd 7ac5 7c3d 83d6 bf3d
00000180: ad49 40bb 7fae 923d e076 333d e570 c03d
00000190: 9bef 123d 0a96 423d cfd0 f7bc dfa0 afbd
000001a0: 485d 94bc 883b 7b3d b022 4ebd 7f1d bd3d
000001b0: 63bb 283e d5ca 7e3d 11e6 963d 7546 49bd
000001c0: c133 363d ea18 db3c f1da 103d 8751 99bd
000001d0: 953f ae3d fa94 243d 2c3d 153e 73e6 45bc
000001e0: 93b3 31bd 5abb da3d 4e1e 7dbd 1b32 5f3d
000001f0: 6348 7bbd abbb 923d 0fc5 963d d796 49be
00000200: 5f44 dfbd b719 753d d0cb 0abe 075f bc3d
00000210: 4382 2a3d 5065 87bd 5818 ad3d d4f5 1abd
00000220: 87bf 373d 3aa7 283d f412 6cbc 7ca8 13bd
00000230: cef6 7dbc 3b2d e0bd 8a3f e73d 0da0 a8bd
00000240: f143 ae3c 4bff 983d fa29 17bc 404c 61be
00000250: 0541 6b3d b82f 1a3e 775b 913c 5e25 2cbd
00000260: 2ff3 ce3d 7f53 843d f69d 3d3d 6496 893d
00000270: 3065 983d 85b2 bf3d e1df 99bd 7024 a93d
00000280: afca 9a3d 91b4 f83d 1f33 503d 56d3 a63d
00000290: b002 813d 4565 893d 4fd6 143e d52e 94bd
000002a0: 30e7 5a3d b7b8 a13d c022 be3b 6a03 093e
000002b0: 5589 0f3e a3a9 b73d 025d cdbc 7c40 d2bb
000002c0: 3031 223d 0133 28bc 03b9 2cbe e939 4abc
000002d0: ce04 843d e0fa aebc 995f e6bc c5aa af3d
000002e0: f9d2 933c a020 263d dd67 8e3d 2ec2 9f3d
000002f0: bc45 f53b ac47 c73d e799 eebb f303 31be
00000300: 0ca0 2ebe 1546 8f3c 38af 84bd 9cc6 163e
00000310: 0388 a63d 93ff 9ebd 5b13 e33c 567a 1e3e
00000320: deb3 7c3c c76c 96bc 0bdf 6bbd 3d04 57bd
00000330: 33cc 923c 7347 473c 1a70 89bd 52b8 143b
00000340: a56d 713d fa25 f73c 038e 543c c0a4 f83b
00000350: 5213 36bd 5daa 473d 4363 203e c01d 933c
00000360: b956 35be fa61 133d 1ba8 64bd 220d bfbd
00000370: 4860 913d bea0 4a3d b9cb 113d 3c0c 8a3d
00000380: 1d84 1abd 939d 013d 639b d6bd 23bb 5d3d
00000390: 517c 1fbd 176a 973c 8659 043e e70c 843c
000003a0: 0317 4cbd 36a4 0d3e 7098 6f3d 7134 1a3d
000003b0: 4d79 843b a7a6 bd3d 111a 6ebd 0b9d 84bd
000003c0: c624 243e 95bf 203e eaa7 283d 905a 8d3d
000003d0: 0b1e a6bc 5371 b8bc 36c5 a03d 2ce8 a13e
000003e0: 284a b4bd fc05 33bb a36f 273d 75e7 02bd
000003f0: 6f63 01be 9af4 3b3d 8ae2 8abd 12e9 803d

nn_model.4.bias f4 [100]
-0.007531142 -0.040365793 0.12907891 0.0753904 -0.096205376 0.09347608 0.10475348 -0.09488004
0.06514482 -0.026381584 -0.04958823 -0.060169116 -0.095777385 -0.07834945 0.105069734 -0.016379992
-0.0037912966 0.0052984753 0.08600256 -0.012155268 0.043386284 -0.03515747 0.06662526 -0.025532955
0.118907444 0.017951205 -0.052869085 0.053229358 0.09457748 0.0054177763 0.012328964 0.04737463
0.0048523666 0.026578538 0.09763437 0.048860867 0.018102977 0.041622963 -0.000105201834 -0.04879888
0.06335478 0.06416326 0.03912921 0.018945139 0.049703516 -0.06327034 0.036570698 0.010503997
-0.040470432 -0.08410663 -0.009683907 0.085044146 -0.05273663 0.048832748 -0.038457677 -0.0068316567
0.0812032 -0.03098253 0.08870391 0.08094825 0.020632455 -0.040961172 0.012225876 0.09465701
-0.0754169 0.118706815 0.07383719 -0.04787441 0.1043497 0.010922499 -0.01580261 -0.06542044
0.07699295 -0.07080241 -0.06560407 0.00077477697 0.0046447148 -0.050930943 0.03374874 -0.0267895
0.045100637 -0.016930887 -0.030572738 -0.0954588 0.11836482 0.06027014 0.12991424 -0.07458985
0.0023793087 -0.029532673 -0.04625844 -0.011214236 0.03557003 0.052360374 -0.079779014 -0.08115393
0.11912759 0.06595747 0.04171382 0.123664655
00000000: ccc7 f6bb 9a56 25bd 432d 043e 4866 9a3d
00000010: 5307 c5bd 6370 bf3d fe88 d63d 7750 c2bd
00000020: a66a 853d 311e d8bc 071d 4bbd e473 76bd
00000030: ef26 c4bd ad75 a0bd cd2e d73d 552f 86bc
00000040: 6777 78bb d59e ad3b 1c22 b03d e426 47bc
00000050: d1b5 313d 4701 10bd d372 883d 7d2a d1bc
00000060: bf85 f33d 680e 933c 418d 58bd 0707 5a3d
00000070: d6b1 c13d 9a87 b13b 6cff 493c e60b 423d
00000080: 9a00 9f3b 3cbb d93c 87f4 c73d 5522 483d
00000090: b24c 943c d77c 2a3d ce9f dcb8 56e1 47bd
000000a0: 27c0 813d 0768 833d f345 203d d632 9b3c
000000b0: ea95 4b3d e193 81bd 28cb 153d f518 2c3c
000000c0: 53c4 25bd 1940 acbd 40a9 1ebc a02b ae3d
000000d0: 5d02 58bd d904 483d cc85 1dbd 17dc dfbb
000000e0: dd4d a63d 13cf fdbc 65aa b53d 32c8 a53d
000000f0: 6505 a93c e7c6 27bd 0a4f 483c 89db c13d
00000100: 2d74 9abd 8f1c f33d f437 973d f517 44bd
00000110: 4cb5 d53d 48f4 323c 7a74 81bc 27fb 85bd
00000120: 7bae 9d3d db00 91bd 6d5b 86bd 671a 4b3a
00000130: b132 983b f79c 50bd 1e3c 0a3d a775 dbbc
00000140: 72bb 383d a5b2 8abc ae73 fabc e77f c3bd
00000150: 4169 f23d d3dd 763d 3d08 053e 90c2 98bd
00000160: 2dee 1b3b 81ee f1bc 7d79 3dbd eabb 37bc
00000170: e1b1 113d d577 563d 2e63 a3bd 0834 a6bd
00000180: 2af9 f33d b614 873d 1cdc 2a3d e543 fd3d

allocation_head.0.weight f4 [4, 100]
0.017443234 0.10134988 -0.06153462 -0.016743079 0.070687965 0.026815737 -0.013779099 0.07928895
0.0035369534 0.016630294 0.2052448 -0.054469697 -0.09553485 -0.061453737 -0.03793948 -0.014292216
0.039533522 0.07067485 -0.08431684 0.013881909 0.10407613 0.105900936 -0.026864756 0.10407098
-0.046500366 -0.026608113 0.15924898 -0.09276704 -0.040909488 -0.025316525 -0.007875809 0.032459687
-0.064817965 -0.10256779 -0.08471635 -0.08774715 -0.13334404 0.18749432 0.14864875 0.05129732
-0.04670095 -0.032066584 0.010295708 -0.116612434 -0.088525236 -0.05792607 0.07355499 0.07535096
-0.044349503 0.003968204 0.07180727 0.09519524 -0.21375765 0.010978024 0.059335884 -0.111938134
0.030328175 -0.18008874 -0.05905987 -0.105584875 0.09024015 0.04021604 -0.10003349 -0.00021188248
0.06964876 -0.07480183 -0.024227014 0.06378355 0.057669178 0.096209556 -0.07706236 -0.416505
0.075373195 0.08285494 0.081931524 0.08823568 -0.053249277 -0.15486524 0.06933668 -0.062560536
-0.13455963 0.14425643 0.10306899 -0.093747556 -0.04081531 -0.055381503 -0.0748741 -0.04577569
0.020952985 -0.12911263 0.09168618 0.05310496 0.06287946 0.09124702 -0.090182096 -0.060796022
0.010508092 0.012865642 -0.09445948 -0.073104344 0.14075786 0.14452468 -0.038949843 -0.0076528178
-0.30150175 -0.0017974138 -0.07310825 -0.077135675 0.018036777 0.0052271797 0.19922796 0.0948115
-0.06085391 0.19566631 0.06624979 -0.08396385 -0.024888432 0.04174995 0.013229662 0.07457368
0.063616544 0.070075005 -0.060781166 0.024196602 -0.12278903 -0.07678828 -0.021227114 -0.048711337
-0.03818596 -0.08196217 0.06114056 0.068453826 -0.06514658 -0.025809426 0.08404582 -0.0043708445
-0.08683115 -0.022785205 0.0020147453 0.06886405 0.13145211 0.08239171 0.088393256 -0.022778481
-0.10807356 -0.08244455 0.070992984 -0.013274818 -0.049704637 -0.06969865 -0.085331716 -0.0936303
-0.28058845 0.05990105 0.06279704 -0.12787224 0.07451553 -0.117925525 -0.009864978 -0.11776587
0.01576551 -0.019634271 -0.09737454 -0.11918456 -0.008238647 -0.077309094 -0.07141455 0.105162084
-0.09789933 0.0074378224 0.087941945 -0.33553234 0.13068916 0.036215376 -0.09534279 0.063269734
-0.09233943 -0.051704913 0.13440794 -0.080809526 -0.009674274 0.035026688 0.10507688 0.03391893
0.014035815 0.016381335 -0.058614105 -0.021030545 -0.0993883 0.029156627 0.1295511 0.1687785
-0.079437576 0.08720723 -0.061672848 -0.055047013 -0.08799343 0.119889155 0.02494004 -0.009480231
-0.0139851 0.016756859 -0.09636188 -0.12550206 -0.16726981 0.06999334 -0.024148712 0.08434887
0.023749437 0.022493564 -0.23621047 0.015045026 0.012546635 -0.027608918 -0.0039854404 0.030755807
-0.07822051 -0.0630857 0.09727201 -0.13858293 -0.07493504 0.07606174 0.04240843 -0.026408542
-0.056278974 0.08672728 -0.13992953 -0.028386427 -0.05559595 -0.014808739 -0.03001037 0.13642132
0.012483883 0.14610371 0.07602354 -0.069130346 0.11982048 -0.1722241 -0.14640948 0.026582217
0.084979214 0.055821035 -0.025568824 0.023403123 0.067750946 -0.09033608 0.06183695 -0.09941104
0.0013782502 -0.024578117 -0.06051852 0.017435336 0.3361383 -0.02670069 -0.051656667 0.016074007
00000000: 1de5 8e3c 8790 cf3d ba0b 7cbd c828 89bc
00000010: dac4 903d adac db3c bbc1 61bc 3f62 a23d
00000020: 3bcc 673b 413c 883c b12b 523e 9e1b 5fbd
00000030: c7a7 c3bd eab6 7bbd 6e66 1bbd e629 6abc
00000040: e7ed 213d fabd 903d 4fae acbd f270 633c
00000050: de25 d53d 97e2 d83d 7a13 dcbc 2a23 d53d
00000060: 2b77 3ebd 42f9 d9bc 2a12 233e a5fc bdbd
00000070: b590 27bd 9a64 cfbc 8a09 01bc 73f4 043d
00000080: 48bf 84bd 100f d2bd c47f adbd c7b4 b3bd
00000090: 578b 08be 83fe 3f3e 6137 183e 231d 523d
000000a0: 7f49 3fbd 4058 03bd 54af 283c 80d2 eebd
000000b0: b84c b5bd e343 6dbd 00a4 963d 9b51 9a3d
000000c0: d3a7 35bd b507 823b b10f 933d b9f5 c23d
000000d0: 49e3 5abe 2cdd 333c 2f0a 733d d23f e5bd
000000e0: cb72 f83c 2f69 38be c3e8 71bd e23c d8bd
000000f0: d4cf b83d 93b9 243d 5cde ccbd c52c 5eb9
00000100: 02a4 8e3d b431 99bd bb77 c6bc f3a0 823d
00000110: 8436 6c3d 8409 c53d dfd2 9dbd 2540 d5be
00000120: 435d 9a3d daaf a93d b7cb a73d e8b4 b43d
00000130: ea1b 5abd fe94 1ebe 6400 8e3d bd1f 80bd
00000140: 00ca 09be f5b7 133e d615 d33d b8fe bfbd
00000150: f42d 27bd b7d7 62bd 9857 99bd 4a7f 3bbd
00000160: 98a5 ab3c 1a36 04be f7c5 bb3d 9684 593d
00000170: f2c6 803d b8df ba3d 64b1 b8bd 4005 79bd
00000180: 222a 2c3c 6aca 523c f973 c1bd bbb7 95bd
00000190: d422 103e 47fe 133e df89 1fbd 7dc4 fabb
000001a0: 705e 9abe 3397 ebba c7b9 95bd 4ff9 9dbd
000001b0: ddc1 933c c348 ab3b 6a02 4c3e 882c c23d
000001c0: f341 79bd c05c 483e f8ad 873d 3df5 abbd
000001d0: d3e2 cbbc ff01 2b3d 39c1 583c 16ba 983d
000001e0: 6449 823d 7c83 8f3d acf5 78bd f437 c63c
000001f0: d178 fbbd 2c43 9dbd 7ce4 adbc 8a85 47bd
00000200: e268 1cbd c8db a7bd 866e 7a3d 8531 8c3d
00000210: 926b 85bd 4a6e d3bc 3720 ac3d 4d39 8fbb
00000220: 88d4 b1bd 0aa8 babc d109 043b 9808 8d3d
00000230: 629b 063e fcbc a83d 8607 b53d f099 babc
00000240: ac55 ddbd b0d8 a8bd c564 913d 9f7e 59bc
00000250: 1797 4bbd 2abe 8ebd 65c2 aebd 3ec1 bfbd
00000260: 4aa9 8fbe ce5a 753d bc9b 803d f1f0 02be
00000270: 999b 983d f082 f1bd b7a0 21bc 3c2f f1bd
00000280: ac26 813c 0dd8 a0bc 4e6c c7bd 0917 f4bd
00000290: 64fb 06bc 3b54 9ebd cb41 92bd 385f d73d
000002a0: 727f c8bd fab8 f33b e81a b43d e5ca abbe
000002b0: 61d3 053e 9356 143d 1543 c3bd 9093 813d
000002c0: 741c bdbd 88c8 53bd 3ca2 093e 777f a5bd
000002d0: d980 1ebc 2578 0f3d 8c32 d73d 93ee 0a3d
000002e0: 7af6 653c 2632 863c 5815 70bd 4048 acbc
000002f0: 188c cbbd e1d9 ee3c 0ba9 043e 45d4 2c3e
00000300: 2bb0 a2bd b499 b23d ab9c 7cbd fa78 61bd
00000310: e635 b4bd 7288 f53d 0e4f cc3c f952 1bbc
00000320: c321 65bc ae45 893c 6159 c5bd 9d83 00be
00000330: c748 2bbe ab58 8f3d 85d3 c5bc 1abf ac3d
00000340: 2e8e c23c 6c44 b83c 28e1 71be 6a7f 763c
00000350: 6790 4d3c 192c e2bc 4c98 82bb 9af3 fb3c
00000360: 1332 a0bd 1333 81bd 8c36 c73d afe8 0dbe
00000370: 8b77 99bd 42c6 9b3d 76b4 2d3d ba56 d8bc
00000380: c884 66bd 129e b13d b049 0fbe a78a e8bc
00000390: 94b8 63bd 5aa0 72bc 4fd8 f5bc 08b2 0b3e
000003a0: 3389 4c3c 369c 153e 3bb2 9b3d 3694 8dbd
000003b0: 7164 f53d 845b 30be 5eec 15be f3c2 d93c
000003c0: 9509 ae3d 99a4 643d b675 d1bc e8b7 bf3c
000003d0: 02c1 8a3d 1f02 b9bd be48 7d3d 0498 cbbd
000003e0: 67a6 b43a 0c58 c9bc 45e2 77bd 8dd4 8e3c
000003f0: 521a ac3e 68bb dabc f195 53bd a3ad 833c

allocation_head.0.bias f4 [4]
0.04788741 -0.004355849 -0.03115205 0.10369412
00000000: 9725 443d 83bb 8ebb 9532 ffbc 955d d43d

payment_head.0.weight f4 [1, 100]
0.02822627 -0.13381368 0.23337828 0.12909107 -0.1469562 0.056215454 -0.070731215 -0.015671432
0.14221402 0.013280059 -0.034068692 0.2175255 -0.027144516 -0.012308785 0.12057746 0.14643645
0.005354035 -0.16015804 0.13290547 0.052649733 0.13525636 -0.12154087 0.3221834 -0.080417976
0.11441064 0.14282869 -0.066567644 0.037172686 0.19230083 0.0065588355 -0.1153085 -0.039122425
0.021836413 0.40479353 0.14966834 -0.096693434 -0.06417194 -0.14901589 -0.037711497 0.062359262
-0.1068673 0.06592826 -0.033723105 0.16589956 0.14337438 0.17345217 0.13587902 0.10008208
0.09939957 0.043034345 -0.074185684 0.13866395 -0.045937765 0.060070373 -0.0769553 0.24110825
-0.18227653 0.35364446 0.13964054 -0.083362825 0.027326876 0.053680684 0.15580231 0.33792174
-0.07698579 -0.0051477016 0.24431106 0.1112119 0.13705558 -0.049097043 0.035061646 0.0048843245
-0.12179206 0.046660792 -0.052837893 0.04810957 -0.019923622 -0.4015532 -0.13903168 0.05218407
0.15965354 0.08788905 0.028830431 0.049330026 0.051364023 0.23746258 0.15388925 0.01329006
0.03847581 0.18449676 0.1084763 -0.005803999 -0.06028655 -0.08587351 0.07979316 0.08986104
0.20924881 0.22572164 0.14883395 0.14918225
00000000: c73a e73c 7406 09be b7fa 6e3e 7330 043e
00000010: b07b 16be 2d42 663d 87db 90bd 6061 80bc
00000020: 8da0 113e 9b94 593c 9d8b 0bbd 01bf 5e3e
00000030: 2d5e debc c9aa 49bc 51f1 f63d 70f3 153e
00000040: e770 af3b 7800 24be 5f18 083e 3fa7 573d
00000050: a580 0a3e 6bea f8bd 39f5 a43e 2eb2 a4bd
00000060: 2050 ea3d af41 123e 9e54 88bd 6342 183d
00000070: 82ea 443e 80eb d63b dd26 ecbd d63e 20bd
00000080: 47e2 b23c 1941 cf3e a842 193e 3507 c6bd
00000090: 946c 83bd 9f97 18be 5f77 1abd 6d6c 7f3d
000000a0: 3edd dabd 6505 873d 3d21 0abd 93e1 293e
000000b0: bcd0 123e 729d 313e df23 0b3e d5f7 cc3d
000000c0: 0092 cb3d c844 303d aaee 97bd ecfd 0d3e
000000d0: 3d29 3cbd 5a0c 763d be9a 9dbd 15e5 763e
000000e0: b3a6 3abe e310 b53e eefd 0e3e 21ba aabd
000000f0: 9ddc df3c 47e0 5b3d a48a 1f3e 1404 ad3e
00000100: baaa 9dbd 0dae a8bb ae2c 7a3e 11c3 e33d
00000110: 4c58 0c3e fb19 49bd cd9c 0f3d af0c a03b
00000120: 1e6e f9bd 631f 3f3d 8c6c 58bd 8a0e 453d
00000130: dd36 a3bc 6298 cdbe 525e 0ebe f7be 553d
00000140: 387c 233e 2dff b33d cc2d ec3c 480e 4a3d
00000150: 1563 523d 6429 733e 2595 1d3e 8dbe 593c
00000160: d098 1d3d b8ec 3c3e d328 de3d 792f bebb
00000170: 08ef 76bd 73de afbd 996a a33d 1109 b83d
00000180: 5245 563e 9323 673e ed67 183e 3bc3 183e
