result/1x2_sparsemax_in_linsigpmt_scratch_19_checkpoint.pt (torch, 88519 bytes, 9 tensors)

nn_model.0.weight f4 [100, 2]
-0.31313047 0.35535252 0.2929264 -0.23797509 0.14961109 -0.250594 0.47040725 -0.2948287
-0.26406386 0.17631134 0.34185648 -0.24763213 0.04524706 0.3590866 -0.070354804 0.21519658
-0.17054494 0.24784066 -0.43966398 -0.35458753 -0.3787537 0.6528682 -0.1353732 -0.039711483
-0.3155098 0.73256284 0.62246716 -0.5462985 -0.39263868 -0.34864843 -0.103110164 -0.24228431
-0.46283367 -0.2536195 0.120774254 -0.38047162 0.1566825 -0.16215082 -0.34263802 0.097146206
0.64848226 -0.42341354 -0.050574616 -0.29362968 0.9066496 -0.4962514 -0.5755293 0.7464826
-0.44737935 0.13556887 -0.061027624 -0.14895698 -0.19730675 0.42375085 0.03379756 -0.68844944
-0.41553035 -0.17550914 0.35582772 -0.45759264 0.74917656 -0.09192784 -0.18898353 0.6085446
0.2858566 0.5818448 0.47647148 -0.1639977 -0.46914583 -0.0526109 0.65366983 -0.05306807
-0.42175385 0.39581472 0.7493068 -0.14159405 -0.5855011 -0.64138806 0.17254224 -0.044001214
-0.4485793 0.08949108 0.3462187 0.6265089 0.50377667 -0.134554 -0.6235035 -0.63895804
0.7469885 0.3206135 0.30823305 -0.61180365 0.73118407 0.7343339 0.5767831 -0.6076148
-0.25644234 -0.44392276 0.6104745 -0.41286147 -0.29411653 0.34181878 -0.32710218 -0.34826574
-0.1088746 -0.10873591 -0.6436116 0.72510487 -0.31192014 0.2508213 0.65269184 0.39414907
0.16427708 0.6684953 0.0950537 -0.32714763 0.6943743 0.19416331 -0.4114206 -0.17513415
-0.53741974 0.692678 -0.116775766 -0.64454544 -0.06501113 0.43580523 0.18370664 0.22359028
0.17004828 0.34637517 -0.13024358 -0.23520331 -0.6609387 -0.53268963 0.23101784 -0.4508317
0.12403056 0.27133217 -0.016770143 -0.48465538 0.74307066 -0.32291716 0.5144785 -0.6345132
-0.17009346 0.38464403 -0.28440854 0.6173293 -0.4866001 -0.5938081 -0.31884798 0.1143041
0.60397124 -0.30131373 0.23990007 -0.23427786 -0.17031969 0.5567248 -0.5479978 0.07510416
0.6018944 -0.19661586 0.5311684 -0.26744446 0.5691942 -0.68400586 -0.09578366 -0.1402311
0.3014135 0.324665 0.61180526 -0.039611124 0.060413424 0.5594633 -0.22706874 0.58897406
-0.31929588 -0.11434219 0.0049558994 0.28501898 0.46847904 -0.19929656 -0.58582425 0.3503659
0.26614848 0.25039464 -0.34709793 0.5228948 0.74322784 0.14169833 -0.74695086 0.4057073
-0.5242852 0.16254412 0.03369322 -0.3921353 0.24621144 -0.6324594 0.17856494 -0.4762699
00000000: a352 a0be c4f0 b53e 73fa 953e beaf 73be
00000010: a633 193e db4d 80be 38d9 f03e caf3 96be
00000020: 6133 87be f68a 343e d007 af3e 4793 7dbe
00000030: fb54 393d 33da b73e 2e16 90bd 7e5c 5c3e
00000040: 55a3 2ebe f1c9 7d3e a31b e1be 7f8c b5be
00000050: 01ec c1be 5f22 273f 469f 0abe 82a8 22bd
00000060: 808a a1be 3d89 3b3f 025a 1f3f 38da 0bbf
00000070: f007 c9be 0c82 b2be 6c2b d3bd 6119 78be
00000080: 89f8 ecbe 6ada 81be 7e58 f73d 2dcd c2be
00000090: 6171 203e dd0a 26be 406e afbe 97f4 c63d
000000a0: ef02 263f a9c9 d8be 5427 4fbd a156 96be
000000b0: 301a 683f aa14 febe e355 13bf 7c19 3f3f
000000c0: e80e e5be 91d2 0a3e 1af8 79bd 2e88 18be
000000d0: c80a 4abe dff5 d83e 4f6f 0a3d 393e 30bf
000000e0: 65c0 d4be abb8 33be 0d2f b63e 9549 eabe
000000f0: 09ca 3f3f aa44 bcbd e684 41be 94c9 1b3f
00000100: cc5b 923e c8f3 143f 12f4 f33e 03ef 27be
00000110: e233 f0be 877e 57bd e856 273f e85d 59bd
00000120: 1ff0 d7be 3aa8 ca3e 92d2 3f3f 08fe 10be
00000130: 66e3 15bf 0232 24bf eaae 303e 9e3a 34bd
00000140: 30ac e5be 1947 b73d 9443 b13e e362 203f
00000150: 82f7 003f 86c8 09be ed9d 1fbf c192 23bf
00000160: a33a 3f3f 7427 a43e b9d0 9d3e 2a9f 1cbf
00000170: e12e 3b3f 4efd 3b3f 0fa8 133f a58c 1bbf
00000180: 694c 83be d849 e3be 0f48 1c3f 9462 d3be
00000190: 7196 96be df02 af3e f079 a7be e34f b2be
000001a0: a5f9 debd efb0 debd bbc3 24bf 79a0 393f
000001b0: ffb3 9fbe a66b 803e d016 273f e8cd c93e
000001c0: 4038 283e 8222 2b3f 84ab c23d e57f a7be
000001d0: 84c2 313f bfd2 463e b9a5 d2be 5e56 33be
000001e0: 5794 09bf 5853 313f 2228 efbd ee00 25bf
000001f0: 8e24 85bd dd21 df3e 981d 3c3e daf4 643e
00000200: 2321 2e3e 1658 b13e 935e 05be 23d9 70be
00000210: 4733 29bf 595e 08bf f18f 6c3e 6ad3 e6be
00000220: bc03 fe3d 0dec 8a3e 8a61 89bc c024 f8be
00000230: e139 3e3f 6655 a5be ddb4 033f 756f 22bf
00000240: fb2c 2ebe 10f0 c43e ff9d 91be 4b09 1e3f
00000250: a623 f9be cf03 18bf 0b40 a3be 4518 ea3d
00000260: dc9d 1a3f cb45 9abe 5da8 753e 89e6 6fbe
00000270: 4968 2ebe 8485 0e3f 9549 0cbf 36d0 993d
00000280: c015 1a3f ab55 49be a7fa 073f 7bee 88be
00000290: b6b6 113f 021b 2fbf 392a c4bd be98 0fbe
000002a0: df52 9a3e 7e3a a63e 459f 1c3f 463f 22bd
000002b0: 1174 773d fd38 0f3f b584 68be 01c7 163f
000002c0: c07a a3be 3d2c eabd 1965 a23b 02ee 913e
000002d0: 7cdc ef3e 6614 4cbe 94f8 15bf 2963 b33e
000002e0: 9d44 883e ba33 803e d2b6 b1be 6fdc 053f
000002f0: 2e44 3e3f 5e19 113e 2c38 3fbf deb8 cf3e
00000300: 8e37 06bf f771 263e e701 0a3d f5c5 c8be
00000310: da1e 7c3e dce8 21bf bad9 363e a6d9 f3be

nn_model.0.bias f4 [100]
-0.006227956 -0.09578655 0.66549695 -0.31940076 0.4722856 -0.14649281 -0.38784721 -0.61574835
-0.64878345 0.78984356 -0.28227556 0.14267896 0.19025941 0.54992825 0.7352679 0.61902547
-0.52388346 -0.12604605 -0.4184217 -0.4040067 0.21344608 0.71445537 -0.3889834 0.5267536
-0.36661133 -0.1377262 0.58553183 -0.15992655 0.09764522 -0.49429065 0.6001409 -0.09603863
-0.58897823 0.1911244 -0.5027652 -0.5178045 0.07387999 0.5560491 -0.20009992 0.34150714
0.6604573 0.46641588 -0.47509053 -0.07751294 -0.311405 -0.5686008 -0.024149574 0.60442346
0.6960423 -0.12769172 0.23823996 -0.30612183 0.55023587 -0.2446142 -0.49119368 0.12209854
0.42373425 -0.6375215 0.6464325 0.41958043 -0.41352326 -0.1523161 0.62082726 -0.5425168
-0.1473036 0.364877 -0.6194857 0.45097318 0.38972968 0.49864748 -0.42665297 0.7653138
-0.41914567 0.7217683 -0.6786036 -0.6300109 0.46274027 -0.030575735 -0.026072325 -0.3915663
-0.4137852 -0.2758269 -0.6888319 0.23458588 0.12674959 0.030586243 0.24256437 0.7047493
0.33441663 -0.2984305 -0.31477767 -0.45241085 -0.49835914 -0.11731227 -0.10387767 0.32263884
-0.30224347 0.6072342 -0.4961628 0.036964595
00000000: e213 ccbb bd2b c4bd 025e 2a3f 7f88 a3be
00000010: 6bcf f13e 3602 16be e993 c6be afa1 1dbf
00000020: ac16 26bf 3033 4a3f 6c86 90be 6f1a 123e
00000030: 5dd3 423e 19c8 0c3f 843a 3c3f 7478 1e3f
00000040: 3a1d 06bf 3712 01be 5e3b d6be f7d9 cebe
00000050: 9c91 5a3e 8ce6 363f d528 c7be 53d9 063f
00000060: 7bb4 bbbe 1908 0dbe 6ae5 153f c9c3 23be
00000070: 38fa c73d aa13 fdbe d6a2 193f e7af c4bd
00000080: 47c7 16bf 1db6 433e 38b5 00bf d68e 04bf
00000090: 644e 973d 3c59 0e3f fee6 4cbe 06da ae3e
000000a0: bb13 293f 10ce ee3e 113f f3be 1bbf 9ebd
000000b0: 7a70 9fbe d28f 11bf 54d5 c5bc 7fbb 1a3f
000000c0: d42f 323f 9ec1 02be 2df5 733e 00bc 9cbe
000000d0: 42dc 0c3f 257c 7abe bd7d fbbe cd0e fa3d
000000e0: b2f3 d83e 9c34 23bf 9a7c 253f 3fd3 d63e
000000f0: 52b9 d3be c0f8 1bbe 89ee 1e3f 62e2 0abf
00000100: c1d6 16be 28d1 ba3e 9d96 1ebf f5e5 e63e
00000110: a68a c73e b94e ff3e 4272 dabe 9beb 433f
00000120: 439a d6be cfc5 383f f7b8 2dbf 6548 21bf
00000130: 4bec ec3e f779 fabc a195 d5bc 617b c8be
00000140: a7db d3be 2f39 8dbe 4a57 30bf 4837 703e
00000150: a5ca 013e 0090 fa3c cb62 783e 736a 343f
00000160: a838 ab3e e2cb 98be 8a2a a1be 65a2 e7be
00000170: ee28 ffbe 6a41 f0bd d1bd d4bd eb30 a53e
00000180: a8bf 9abe b373 1b3f 0d09 febe 3068 173d

nn_model.2.weight f4 [100, 100]
0.16643283 0.15284117 -0.0024894688 -0.065261036 0.062559225 0.07838838 -0.06513899 0.0270854
-0.06953652 0.051141165 0.09266433 0.014905037 0.12403536 0.05373165 0.07623143 0.14699697
-0.030566836 0.060459707 -0.028602922 -0.014607298 0.042939294 0.04840126 -0.04572078 0.075298645
0.0037680387 0.06338898 0.039467502 0.010028017 -0.0146748945 -0.083745375 0.10422388 -0.0023662546
-0.019855067 0.031372752 0.026152134 -0.08764571 0.10560175 0.06887501 0.03777367 0.1035138
0.023455609 0.09339092 0.0750554 0.004601836 0.015474843 0.0036335588 0.07475664 0.015691381
-0.013372381 0.07584971 -0.044371646 0.0016032457 0.0034727396 0.1403479 -0.09310391 0.0752443
0.15278846 0.020234013 0.054104205 0.11998157 0.061003078 -0.008013356 0.016295346 -0.013804126
0.02688396 0.042866033 -0.018887496 -0.049211666 0.066982016 0.037397724 0.036972243 0.13171454
0.097200945 -0.0005497586 -0.0062354445 -0.040067364 -0.029636754 -0.008829946 0.10319821 0.05830611
0.04784469 0.0839793 -0.0794479 0.056975298 0.11743606 -0.04172084 0.13672249 0.08602429
0.10127362 -0.030037437 0.017525177 -0.088648774 -0.08766286 0.16593635 0.03307142 0.12821904
0.09826571 0.13844366 0.06713922 0.09580401 -0.012902975 -0.07760469 -0.037122715 -0.011226452
-0.054038655 0.05111709 0.035102725 0.016135192 0.02415607 0.08784523 0.036423136 -0.087693945
-0.07258808 0.044074964 0.013627923 0.048769165 -0.09987199 -0.09228694 0.06132264 0.06396457
-0.090471104 0.03795853 -0.078084424 0.07573078 0.031379044 0.0988787 -0.098599195 -0.09626762
0.067610204 0.08878231 0.061267998 0.06648298 -0.08422714 0.07238137 -0.09441471 0.022340167
-0.06550348 -0.039719548 0.017706884 -0.039318003 -0.015822291 -0.094782434 -0.09428733 0.03873631
-0.042327847 -0.060838964 -0.039458226 -0.08175685 -0.07994002 0.059837233 0.050824214 0.013320351
-0.054625966 0.0332701 0.0044925213 -0.07146728 0.021518981 0.091054395 -0.098360635 -0.09943922
0.012812495 0.075302236 -0.060848977 0.022013713 0.07029853 0.030831635 0.021641076 0.099772595
0.06514727 -0.056242704 0.008643651 0.051087238 0.08819095 -0.09949329 0.054150533 -0.029033184
-0.097922124 0.022197401 -0.05444137 0.014171219 -0.064924695 -0.075252905 -0.008485103 -0.03359257
0.058486473 0.008621812 0.07805586 0.018740296 -0.032156136 0.06773336 0.0054645063 0.01876917
-0.03216226 0.00035887957 -0.019227315 -0.008501733 -0.07798793 -0.0006149888 -0.08300443 -0.02151308
0.0660938 -0.07785522 -0.07577176 -0.024417652 -0.03577017 0.016928745 0.02627477 0.050709654
-0.06888806 -0.015431308 0.058300402 0.07810464 -0.0156119345 -0.06623585 0.020368816 0.048582125
-0.062474992 -0.058029342 0.044199824 -0.0070065977 -0.1027566 -0.066026956 0.040553283 -0.042259764
0.06902291 0.07905399 0.006196617 -0.007907474 -0.04009524 -0.005056584 0.009840598 -0.08366259
-0.014928802 -0.09155372 0.061375488 -0.06368363 0.08304536 -0.03414045 -0.057287525 0.039684255
0.0065468517 0.060903035 0.041746974 -0.09633394 0.07193517 -0.018831385 -0.052321013 0.055134334
0.06455635 -0.09616332 -0.017379375 0.08212066 0.030365553 0.0939317 -0.03426987 -0.063474394
00000000: 5e6d 2a3e 6582 1c3e 5b26 23bb 94a7 85bd
00000010: 0d1f 803d 168a a03d 9767 85bd 33e2 dd3c
00000020: 2a69 8ebd 6679 513d ccc6 bd3d 4234 743c
00000030: 4006 fe3d b815 5c3d 391f 9c3d 6086 163e
00000040: 4d67 fabc 99a4 773d ad50 eabc 7353 6fbc
00000050: 1de1 2f3d 6640 463d b645 3bbd 2d36 9a3d
00000060: 33f1 763b 15d2 813d ada8 213d 8d4c 243c
00000070: f86e 70bc b282 abbd 5473 d53d 2a13 1bbb
00000080: 18a7 a2bc b780 003d 003d d63c 987f b3bd
00000090: bb45 d83d 570e 8d3d 90b8 1a3d 0bff d33d
000000a0: fa25 c03c bd43 bf3d a5b6 993d 00cb 963b
000000b0: 328a 7d3c 0021 6e3b 021a 993d 368b 803c
000000c0: d517 5bbc 1857 9b3d 0bbf 35bd 0024 d23a
000000d0: e796 633b 5cb7 0f3e 43ad bebd af19 9a3d
000000e0: 9474 1c3e cdc1 a53c 5f9c 5d3d e6b8 f53d
000000f0: 5dde 793d 734a 03bc d17d 853c b32a 62bc
00000100: c03b dc3c 4b94 2f3d f3b9 9abc 2c92 49bd
00000110: de2d 893d 5b2e 193d 3570 173d 2de0 063e
00000120: 4a11 c73d ad1d 10ba b352 ccbb ad1d 24bd
00000130: c7c8 f2bc 7aab 10bc 9559 d33d 63d2 6e3d
00000140: cbf8 433d 57fd ab3d 95b5 a2bd ee5e 693d
00000150: 5182 f03d 79e3 2abd fb00 0c3e 812d b03d
00000160: 8b68 cf3d 1211 f6bc f690 8f3c 7d8d b5bd
00000170: 9688 b3bd 38eb 293e e675 073d da4b 033e
00000180: 883f c93d 2dc4 0d3e 4a80 893d e534 c43d
00000190: 0067 53bc 35ef 9ebd fd0d 18bd 27ef 37bc
000001a0: a357 5dbd 2760 513d e0c7 0f3d f32d 843c
000001b0: f3e2 c53c 33e8 b33d 6d30 153d e298 b3bd
000001c0: 0fa9 94bd f387 343d a747 5f3c 2dc2 473d
000001d0: b089 ccbd ef00 bdbd 732d 7b3d dbff 823d
000001e0: ea48 b9bd 677a 1b3d baea 9fbd bd18 9b3d
000001f0: 5087 003d ea80 ca3d 60ee c9bd f527 c5bd
00000200: 3877 8a3d 80d3 b53d 27f4 7a3d 3b28 883d
00000210: 477f acbd af3c 943d 805c c1bd ba02 b73c
00000220: b026 86bd f7b0 22bd 070e 913c ea0b 21bd
00000230: c09d 81bc 4b1d c2bd b719 c1bd f7a9 1e3d
00000240: f75f 2dbd 4732 79bd f39e 21bd 2370 a7bd
00000250: 98b7 a3bd e317 753d 0d2d 503d 9a3d 5a3c
00000260: 7abf 5fbd 3a46 083d 0036 933b 705d 92bd
00000270: 9348 b03c ba7a ba3d 4d71 c9bd caa6 cbbd
00000280: 80eb 513c 0f38 9a3d c73c 79bd 1a56 b43c
00000290: adf8 8f3d a092 fc3c a048 b13c 9355 cc3d
000002a0: ef6b 853d c05e 66bd 1a9e 0d3c da40 513d
000002b0: 759d b43d 23c3 cbbd f3cc 5d3d 00d7 edbc
000002c0: 658b c8bd 53d7 b53c eafd 5ebd 672e 683c
000002d0: 3df7 84bd 321e 9abd 1a05 0bbc 5d98 09bd
000002e0: 838f 6f3d 8042 0d3c c0db 9f3d 4085 993c
000002f0: 27b6 03bd cab7 8a3d 9a0f b33b cdc1 993c
00000300: 93bc 03bd 0028 bc39 9a82 9dbc da4a 0bbc
00000310: 23b8 9fbd 3337 21ba 3afe a9bd 333c b0bc
00000320: 305c 873d 8f72 9fbd 392e 9bbd 8707 c8bc
00000330: be83 12bd 27ae 8a3c 303e d73c edb4 4f3d
00000340: 2f15 8dbd 99d3 7cbc 67cc 6e3d 53f5 9f3d
00000350: 33c9 7fbc a9a6 87bd 81dc a63c 0dfe 463d
00000360: c7e5 7fbd 2db0 6dbd e00a 353d 9a97 e5bb
00000370: 0d72 d2bd 2439 87bd 331b 263d 9318 2dbd
00000380: e25b 8d3d 0fe7 a13d fe0c cb3b 5a8e 01bc
00000390: e83a 24bd b3b1 a5bb 763a 213c 4b57 abbd
000003a0: ef97 74bc 8480 bbbd dd64 7b3d 906c 82bd
000003b0: b013 aa3d dbd6 0bbd 53a6 6abd f58b 223d
000003c0: f986 d63b 7675 793d e0fe 2a3d bb4a c5bd
000003d0: bf52 933d 4744 9abc 8f4e 56bd 8ad4 613d
000003e0: 1f36 843d 46f1 c4bd 315f 8ebc e02e a83d
000003f0: 2ec1 f83c 435f c03d 905e 0cbd ddfe 81bd

nn_model.2.bias f4 [100]
0.036995318 -0.00024067164 -0.07703136 0.049342107 -0.07617698 0.029917875 -0.072473265 -0.03678063
-0.0026839406 0.024062522 -0.10000474 0.05692526 0.027294856 -0.054404926 0.03885676 -0.05292356
-0.06929315 -0.016854573 0.053771105 0.0036557436 -0.070788585 0.06717107 0.009788343 -0.0749671
0.03300928 -0.081905715 0.05774828 0.06705832 0.070689484 -0.09075191 0.056115657 -0.00918256
-0.021662427 0.044728886 -0.09002668 -0.025950257 -0.09111532 -0.035230674 0.022165691 0.04354288
0.07891813 0.00091488037 -0.01966711 0.054964244 -0.053588875 -0.09516813 -0.031943314 -0.05138508
0.09241283 0.027268805 0.018575486 0.067035764 -0.07396064 -0.052493524 -0.09269762 -0.012000478
-0.07058307 -0.0043109776 -0.06263906 0.057608347 -0.084833935 -0.049104407 0.059620358 0.07769589
-0.0040720436 -0.03467769 -0.10553023 0.108613804 0.0019460559 -0.01702503 -0.01580837 -0.033128083
0.041607346 -0.058067404 -0.018947862 0.06987324 -0.022109604 0.08448568 0.06306381 -0.09561071
0.03664396 -0.008300436 -0.020766485 -0.046764135 0.08430077 0.05882225 0.0897419 0.11307625
0.074577294 -0.042172965 0.047789633 -0.0066279634 0.115810476 0.11616618 0.08219456 0.023795737
-0.07065158 -0.040119637 -0.014703742 -0.07305198
00000000: 6788 173d cd5c 7cb9 9ec2 9dbd f31a 4a3d
00000010: ad02 9cbd 5516 f53c dd6c 94bd 49a7 16bd
00000020: 0de5 2fbb c41e c53c 49cf ccbd 762a 693d
00000030: 7699 df3c b3d7 5ebd 4428 1f3d 60c6 58bd
00000040: 91e9 8dbd 9a12 8abc 173f 5c3d 3395 6f3b
00000050: 9bf9 90bd fc90 893d 495f 203c 5a88 99bd
00000060: bd34 073d 2fbe a7bd 7689 6c3d df55 893d
00000070: a6c5 903d 23dc b9bd 88d9 653d 7372 16bc
00000080: 6775 b1bc a335 373d e85f b8bd a295 d4bc
00000090: ab9a babd 0a4e 10bd d394 b53c 055a 323d
000000a0: d49f a13d 95d4 6f3a eb1c a1bc 3022 613d
000000b0: 0280 5bbd 82e7 c2bd fed6 02bd 2979 52bd
000000c0: f042 bd3d d462 df3c 9e2b 983c 0c4a 893d
000000d0: ad78 97bd 7303 57bd 40d8 bdbd a79d 44bc
000000e0: db8d 90bd 1a43 8dbb e848 80bd bbf6 6b3d
000000f0: 6abd adbd b421 49bd 7a34 743d 061f 9f3d
00000100: c76e 85bb 320a 0ebd 3c20 d8bd ea70 de3d
00000110: cd12 ff3a 1378 8bbc 8e80 81bc 50b1 07bd
00000120: 776c 2a3d 16d8 6dbd 8c38 9bbc b419 8f3d
00000130: 331f b5bc d406 ad3d 9927 813d 8ccf c3bd
00000140: fa17 163d 8dfe 07bc 7a1e aabc c08b 3fbd
00000150: e2a5 ac3d 9aef 703d 9aca b73d 8594 e73d
00000160: fbbb 983d 8fbd 2cbd 10bf 433d 632f d9bb
00000170: 0b2e ed3d 89e8 ed3d 9f55 a83d 47ef c23c
00000180: c7b1 90bd 7d54 24bd f7e7 70bc 479c 95bd

nn_model.4.weight f4 [100, 100]
0.15385062 -0.0524331 -0.008453264 -0.02779057 0.03358735 -0.04273079 0.003302884 0.12226229
0.009512522 0.042181265 0.050418396 0.10887392 -0.06543421 -0.011313622 -0.056020238 -0.07223576
-0.06860755 0.032583248 0.115662046 0.006561005 0.008453429 -0.0009648684 -0.063862644 0.118253745
0.039635528 -0.08561673 0.030225301 0.11530495 0.06741663 0.13838612 0.10206832 0.081385575
-0.020848488 0.02166582 0.034851756 -0.06153886 0.033241488 -0.06087954 0.07230092 0.08218288
0.11365032 0.11083645 0.135207 -0.085875265 -0.07409893 -0.08516532 0.06585788 0.11304791
0.087226555 0.07465649 0.12350744 -0.038383693 0.007155682 -0.08238839 -0.071646914 -0.060017798
0.058750547 -0.027786529 0.020811632 0.10907703 0.053047538 0.07950772 -0.055829618 0.09919028
0.08257297 -0.0524342 0.016524833 -0.09266528 -0.0250422 0.021559536 -0.09263538 -0.030788496
0.050356384 0.12670079 -0.027219761 0.11041081 -0.078489445 -0.034181774 0.08301757 -0.022954192
0.08774266 -0.0601087 0.036625747 -0.022124756 0.041437946 0.036912777 0.03110664 0.1344293
0.013738907 -0.03075644 0.07444836 0.017899768 -0.08035596 -0.050938968 0.061711766 0.083876796
-0.014025442 0.07162189 0.039473943 0.10511412 0.034907453 0.04750637 -0.030250935 -0.085756056
-0.018110886 0.060312934 -0.05032605 0.08875831 0.14954142 0.058002364 0.073681004 -0.041616227
0.04434448 0.019375414 0.035796214 -0.07486253 0.044183962 0.040181138 0.14057861 -0.012078869
-0.043384146 0.10680266 -0.057691623 0.05452759 -0.06134833 0.07164701 0.07361805 -0.1892779
-0.09203076 0.05296371 -0.124423064 0.091978125 0.041628134 -0.06311365 0.08451909 -0.029777993
0.04486039 0.041175105 -0.014408816 -0.04128831 -0.013469659 -0.10090044 0.10227707 -0.07240507
0.021272631 0.07470568 -0.009226317 -0.23555423 0.052690115 0.1459707 0.012340164 -0.039612725
0.103694096 0.06461238 0.04629322 0.068811916 0.07441175 0.09360222 -0.07513405 0.07594406
0.0755819 0.1133884 0.050830003 0.078634046 0.06299341 0.06500118 0.14089105 -0.06664321
0.053443134 0.0789656 0.0058024824 0.12372844 0.12657073 0.075635694 -0.025068764 -0.018836109
0.03959769 -0.007515384 -0.16268907 -0.012342908 0.056304432 -0.02135986 -0.016154472 0.085774936
0.014670108 0.040558457 0.06953404 0.065131195 0.012295528 0.09730467 -0.00728153 -0.16633797
-0.16664656 0.032510545 -0.06478733 0.14043412 0.07572434 -0.07763591 0.03556739 0.14361408
0.029518072 -0.018362416 -0.057585757 -0.052494276 0.017919635 0.02246737 -0.06710835 0.008602625
0.04937142 0.059296973 0.012973311 0.025419487 -0.03579102 0.037025735 0.17016625 0.017958522
-0.08612014 0.03598211 -0.06382037 -0.09328677 0.07098442 0.049469702 0.04606067 0.07606497
-0.03772365 0.031644415 -0.104788564 0.089260764 -0.0013711733 0.024522616 0.13412233 0.016119434
-0.049826633 0.15824567 0.058494985 0.057083625 0.0040427805 0.09260302 -0.058130328 -0.056913454
0.17782952 0.17239767 0.046456113 0.071965896 -0.020277997 -0.022514975 0.07850115 0.28150472
-0.03752748 -0.0003232063 0.05981153 -0.018162975 -0.014150368 0.045887567 -0.0678149 0.060534842
00000000: 048b 1d3e 17c4 56bd 8f7f 0abc 0da9 e3bc
00000010: e492 093d 7b06 2fbd 3375 583b a764 fa3d
00000020: 69da 1b3c 43c6 2c3d 8583 4e3d 4af9 de3d
00000030: 5f02 86bd c55c 39bc 7a75 65bd 58f0 93bd
00000040: 1d82 8cbd 0376 053d 39e0 ec3d b3fd d63b
00000050: 4080 0a3c 39ef 7cba 6bca 82bd 052f f23d
00000060: dd58 223d d357 afbd 0d9b f73c 0025 ec3d
00000070: bb11 8a3d 17b5 0d3e 3209 d13d 7bad a63d
00000080: 73ca aabc 857c b13c b7c0 0e3d 2c10 7cbd
00000090: 3a28 083d d35c 79bd 8112 943d 7f4f a83d
000000a0: 80c1 e83d 38fe e23d b473 0a3e 5fdf afbd
000000b0: 2ec1 97bd 286b aebd 7fe0 863d aa85 e73d
000000c0: d6a3 b23d 80e5 983d 78f1 fc3d 3838 1dbd
000000d0: 367a ea3b 3fbb a8bd 9ebb 92bd 39d5 75bd
000000e0: 6aa4 703d 93a0 e3bc 287d aa3c c763 df3d
000000f0: 6048 593d f2d4 a23d 99ad 64bd 4624 cb3d
00000100: 041c a93d 3ec5 56bd 165f 873c 4bc7 bdbd
00000110: 4d25 cdbc a09d b03c 9eb7 bdbd 2838 fcbc
00000120: 7f42 4e3d dabd 013e fafb debc 101f e23d
00000130: 13bf a0bd 3002 0cbd 1e05 aa3d 6e0a bcbc
00000140: 6cb2 b33d 8a34 76bd e104 163d fa3e b5bc
00000150: d6ba 293d da31 173d 5ad3 fe3c d6a7 093e
00000160: 2719 613c eef4 fbbc 6278 983d 89a2 923c
00000170: aa91 a4bd 61a5 50bd 7ac5 7c3d 99c7 ab3d
00000180: f8ca 65bc 7fae 923d 6eaf 213d 1246 d73d
00000190: 1efb 0e3d 0a96 423d cfd0 f7bc dfa0 afbd
000001a0: 485d 94bc b20a 773d b022 4ebd ebc6 b53d
000001b0: 6321 193e e393 6d3d 11e6 963d c775 2abd
000001c0: 8fa2 353d 30b9 9e3c 0d9f 123d 8751 99bd
000001d0: 3efa 343d fa94 243d d7f3 0f3e 73e6 45bc
000001e0: 93b3 31bd 5abb da3d 0d4e 6cbd 5258 5f3d
000001f0: 6348 7bbd abbb 923d 0fc5 963d 11d2 41be
00000200: a07a bcbd 7af0 583d 85d1 febd 075f bc3d
00000210: 4382 2a3d bb41 81bd 5818 ad3d faf0 f3bc
00000220: 87bf 373d 3aa7 283d f412 6cbc ee1d 29bd
00000230: d8af 5cbc e4a4 cebd a476 d13d 1c49 94bd
00000240: f143 ae3c 4bff 983d fa29 17bc 2135 71be
00000250: 97d1 573d 5879 153e 662e 4a3c f440 22bd
00000260: 925d d43d 7f53 843d f69d 3d3d 43ed 8c3d
00000270: 3065 983d 85b2 bf3d e1df 99bd 8f88 9b3d
00000280: afca 9a3d 2d38 e83d 1f33 503d e30a a13d
00000290: b002 813d 571f 853d be45 103e 3c7c 88bd
000002a0: 30e7 5a3d b7b8 a13d c022 be3b 5665 fd3d
000002b0: c29b 013e e3e6 9a3d 025d cdbc 2f4e 9abc
000002c0: 3031 223d 9c43 f6bb f797 26be e939 4abc
000002d0: 7a9f 663d e0fa aebc 6256 84bc c5aa af3d
000002e0: e55a 703c a020 263d dd67 8e3d 8163 853d
000002f0: 2f73 493c ac47 c73d e799 eebb 8054 2abe
00000300: 65a5 2abe c729 053d 38af 84bd f6cd 0f3e
00000310: 5d15 9b3d 93ff 9ebd 1daf 113d 920f 133e
00000320: e2cf f13c c76c 96bc 0bdf 6bbd 3d04 57bd
00000330: 33cc 923c 7d0d b83c 1a70 89bd 06f2 0c3c
00000340: b039 4a3d 62e1 723d 038e 543c 873c d03c
00000350: 9b99 12bd 4ca8 173d 1040 2e3e c01d 933c
00000360: c25f b0bd fa61 133d 41b4 82bd 220d bfbd
00000370: 4860 913d bea0 4a3d 1daa 3c3d f3c7 9b3d
00000380: 1d84 1abd 939d 013d 639b d6bd 59ce b63d
00000390: f1b8 b3ba a7e3 c83c 5d57 093e e70c 843c
000003a0: 0317 4cbd 270b 223e 7098 6f3d 85d0 693d
000003b0: 4d79 843b a7a6 bd3d 111a 6ebd 151e 69bd
000003c0: f118 363e 0489 303e c448 3e3d db62 933d
000003d0: 0b1e a6bc 5371 b8bc 36c5 a03d 6321 903e
000003e0: 6ab6 19bd 0474 a9b9 effc 743d 85ca 94bc
000003f0: f2d6 67bc 9af4 3b3d 8ae2 8abd 62f3 773d

nn_model.4.bias f4 [100]
-0.007853116 -0.03861364 0.1368364 0.08614305 -0.098574616 0.09347608 0.10475348 -0.09488004
0.06940981 -0.026381584 -0.05408409 -0.056794316 -0.095777385 -0.08111587 0.108998 -0.014190321
-0.0037912966 0.002597729 0.086978145 -0.010396711 0.05148482 -0.034945823 0.047230713 -0.027328528
0.12374064 0.020597607 -0.05289855 0.053229358 0.09897906 0.0054177763 0.011632152 0.042931665
0.0048523666 0.016522698 0.1001541 0.048860867 0.018016541 0.040832113 -0.0034765934 -0.04879888
0.061569296 0.06416326 0.03912921 0.021360343 0.051300704 -0.056870904 0.043774117 0.013077016
-0.040470432 -0.08410663 -0.009683907 0.09149442 -0.058061406 0.051031608 -0.038457677 -0.015342184
0.07888171 -0.04001569 0.09208657 0.080768034 0.021003647 -0.040961172 0.013570826 0.093280226
-0.07428478 0.11965543 0.06393595 -0.046297275 0.1101764 0.009911439 -0.01580261 -0.07534
0.077327065 -0.07080241 -0.06560407 0.00077477697 0.004156992 -0.054030105 0.03625197 -0.0267895
0.046703923 -0.015620865 -0.030058045 -0.0954588 0.122240186 0.053883795 0.13044286 -0.07458985
0.0023793087 -0.024763336 -0.044378925 -0.01223407 0.03557003 0.051190466 -0.07977816 -0.08115393
0.11213909 0.071446866 0.046883743 0.12747362
00000000: 5baa 00bc 5629 1ebd d71e 0c3e c46b b03d
00000010: 7de1 c9bd 6370 bf3d fe88 d63d 7750 c2bd
00000020: bb26 8e3d 311e d8bc 4787 5dbd 28a1 68bd
00000030: ef26 c4bd 1420 a6bd 583a df3d 857e 68bc
00000040: 6777 78bb a93e 2a3b 9921 b23d f756 2abc
00000050: bfe1 523d 5a23 0fbd fe74 413d 14e0 dfbc
00000060: bc6b fd3d 50bc a83c 26ac 58bd 0707 5a3d
00000070: 89b5 ca3d 9a87 b13b c894 3e3c 1dd9 2f3d
00000080: 9a00 9f3b 9c5a 873c 981d cd3d 5522 483d
00000090: 6d97 933c 933f 273d 8fd7 63bb 56e1 47bd
000000a0: 1630 7c3d 0768 833d f345 203d e3fb ae3c
000000b0: b020 523d 77f1 68bd 7d4c 333d fb40 563c
000000c0: 53c4 25bd 1940 acbd 40a9 1ebc 6d61 bb3d
000000d0: ccd1 6dbd 8506 513d cc85 1dbd c95d 7bbc
000000e0: bc8c a13d 7ee7 23bd e297 bc3d b669 a53d
000000f0: d70f ac3c e7c6 27bd 2b58 5e3c b409 bf3d
00000100: 9e22 98bd e80d f53d daf0 823d 36a2 3dbd
00000110: 2aa4 e13d 9763 223c 7a74 81bc dc4b 9abd
00000120: a75d 9e3d db00 91bd 6d5b 86bd 671a 4b3a
00000130: 6037 883b ac4e 5dbd f27c 143d a775 dbbc
00000140: 9d4c 3f3d a8ee 7fbc 4a3c f6bc e77f c3bd
00000150: 1059 fa3d 41b5 5c3d d092 053e 90c2 98bd
00000160: 2dee 1b3b 7bdc cabc adc6 35bd 6971 48bc
00000170: e1b1 113d 18ad 513d bb62 a3bd 0834 a6bd
00000180: 2ea9 e53d bc52 923d 2b09 403d 7288 023e

allocation_head.0.weight f4 [4, 100]
0.020154549 0.09473133 -0.074421465 -0.027320396 -0.010287542 0.026815737 -0.013779099 0.07928895
-0.009663475 0.016630294 -0.031162161 -0.06501628 -0.09553485 -0.05944452 -0.049458146 -0.023611195
0.039533522 0.07774572 -0.09072434 0.011716744 0.09461812 0.10430587 -0.036369212 0.0871866
-0.06668815 -0.029909585 0.15245648 -0.09276704 -0.0524903 -0.025316525 -0.008309138 0.04363665
-0.064817965 -0.10107787 -0.08678041 -0.08774715 -0.10953922 0.157002 0.11864664 0.05129732
-0.03317883 -0.032066584 0.010295708 -0.12619026 -0.0944838 -0.07542605 0.05593209 0.070446394
-0.044349503 0.003968204 0.07180727 0.083800085 -0.15267457 0.008439358 0.059335884 -0.105050586
0.037565805 -0.14181209 -0.07979409 -0.09282697 0.090194546 0.04021604 -0.10723541 -0.0061112
0.061956134 -0.062085453 -0.031162057 0.065054186 0.051430978 0.101650886 -0.07706236 -0.47314504
0.06315465 0.08285494 0.081931524 0.08823568 -0.0370006 0.08853196 0.05575936 -0.062560536
-0.14245753 0.14314465 0.104232155 -0.093747556 -0.05171222 -0.05885594 -0.07953294 -0.04577569
0.020952985 -0.14214431 0.09048668 0.050074104 0.06287946 0.07698501 -0.090182096 -0.060796022
0.006046916 0.006421982 -0.10568244 -0.07736481 0.13959065 0.12937212 -0.047866754 -0.01629396
-0.14282289 -0.0017974138 -0.07310825 -0.077135675 0.005938928 0.0052271797 0.024930121 0.083794676
-0.06085391 0.1689883 0.05844214 -0.09660699 -0.024888432 0.044155404 0.0066350135 0.07234057
0.056894694 0.04830572 -0.05274196 0.029257195 -0.1360817 -0.082053475 -0.024110304 -0.048711337
-0.041991442 -0.08196217 0.03820905 0.05162722 -0.06514658 -0.03709861 0.07779183 -0.0043708445
-0.0430118 -0.003050543 0.022449255 0.06886405 0.111570016 0.08239171 0.088393256 -0.03371244
-0.115558825 -0.09597981 0.05995847 -0.013172219 -0.049704637 -0.06969865 -0.085331716 -0.10136377
-0.16293706 0.05899917 0.06279704 -0.14054824 0.07925259 -0.12583837 -0.02085055 -0.08403564
0.018823484 -0.019634271 -0.11098855 -0.12519147 -0.010324113 -0.04478681 -0.07922134 0.10279104
-0.10378839 0.01028172 0.087941945 -0.37846833 0.12169009 0.036215376 -0.09534279 0.063269734
-0.06567037 -0.19982621 0.13060096 -0.080809526 -0.021403184 0.033777248 0.104168326 0.03391893
-4.2039246e-05 0.009736062 -0.06860472 -0.021030545 -0.0993883 0.01599535 0.12799422 0.13776726
-0.079437576 0.073832765 -0.061672848 -0.055047013 -0.09460251 0.11347625 0.01007996 -0.0153046455
-0.016696421 0.023375347 -0.0834751 -0.11492478 -0.08629405 0.06999334 -0.024148712 0.08434887
0.03694986 0.022493564 0.00019642549 0.025591569 0.012546635 -0.029618159 0.0075331847 0.04007484
-0.07822051 -0.07015657 0.10367951 -0.13641776 -0.06547703 0.077656806 0.051912893 -0.009524139
-0.036091197 0.09002876 -0.13313703 -0.028386427 -0.044015136 -0.014808739 -0.029577034 0.1252442
0.012483883 0.1446138 0.0780876 -0.069130346 0.0960156 -0.14173178 -0.11640732 0.026582217
0.071457185 0.055821035 -0.025568824 0.032980878 0.07370951 -0.07283615 0.079459846 -0.09450647
0.0013782502 -0.024578117 -0.06051852 0.028830403 0.2750547 -0.02416205 -0.051656667 0.009186401
00000000: 271b a53c 8002 c23d 486a 98bd 06cf dfbc
00000010: 148d 28bc adac db3c bbc1 61bc 3f62 a23d
00000020: 8d53 1ebc 413c 883c ca47 ffbc 4127 85bd
00000030: c7a7 c3bd 197c 73bd a094 4abd 446c c1bc
00000040: e7ed 213d 2639 9f3d afcd b9bd 96f7 3f3c
00000050: 25c7 c13d 519e d53d e2f7 14bd e38e b23d
00000060: cc93 88bd f204 f5bc 8d1d 1c3e a5fc bdbd
00000070: 1200 57bd 9a64 cfbc 0d23 08bc 58bc 323d
00000080: 48bf 84bd ea01 cfbd edb9 b1bd c7b4 b3bd
00000090: 1956 e0bd 22c5 203e 02fd f23d 231d 523d
000000a0: 86e6 07bd 4058 03bd 54af 283c 0538 01be
000000b0: b980 c1bd f978 9abd 0c19 653d 3346 903d
000000c0: d3a7 35bd b507 823b b10f 933d 619f ab3d
000000d0: b956 1cbe 3c45 0a3c 2f0a 733d c324 d7bd
000000e0: 9ade 193d 3037 11be 156b a3bd 111c bebd
000000f0: ebb7 b83d 93b9 243d 3d9e dbbd 7640 c8bb
00000100: b7c5 7d3d 514d 7ebd 9247 ffbc 213b 853d
00000110: 4aa9 523d 572e d03d dfd2 9dbd 1140 f2be
00000120: 3a57 813d daaf a93d b7cb a73d e8b4 b43d
00000130: f18d 17bd 3f50 b53d ed63 643d bd1f 80bd
00000140: 63e0 11be 8394 123e ab77 d53d b8fe bfbd
00000150: 31d0 53bd ed12 71bd 2be2 a2bd 4a7f 3bbd
00000160: 98a5 ab3c 478e 11be 1551 b93d 811a 4d3d
00000170: f2c6 803d 51aa 9d3d 64b1 b8bd 4005 79bd
00000180: 3525 c63b 7d6f d23b 0970 d8bd 7171 9ebd
00000190: daf0 0e3e 207a 043e ee0f 44bd e97a 85bc
000001a0: 2a40 12be 3397 ebba c7b9 95bd 4ff9 9dbd
000001b0: 579b c23b c348 ab3b 413a cc3c 8b9c ab3d
000001c0: f341 79bd 450b 2d3e 0761 6f3d e3d9 c5bd
000001d0: d3e2 cbbc 4cdc 343d 876a d93b 4b27 943d
000001e0: 690a 693d 38dc 453d f407 58bd c9ac ef3c
000001f0: 0059 0bbe a70b a8bd f982 c5bc 8a85 47bd
00000200: 38ff 2bbd c8db a7bd 1881 1c3d 1077 533d
00000210: 926b 85bd b6f4 17bd 5351 9f3d 4d39 8fbb
00000220: 242d 30bd 9eeb 47bb 80e7 b73c 9808 8d3d
00000230: d27e e43d fcbc a83d 8607 b53d 0e16 0abd
00000240: 1baa ecbd 1091 c4bd 0397 753d 4ad0 57bc
00000250: 1797 4bbd 2abe 8ebd 65c2 aebd cf97 cfbd
00000260: f9d8 26be 1da9 713d bc9b 803d e1eb 0fbe
00000270: 2f4f a23d c6db 00be c6ce aabc e11a acbd
00000280: b533 9a3c 0dd8 a0bc f74d e3bd 3132 00be
00000290: 7826 29bc 6072 37bd cc3e a2bd 1c84 d23d
000002a0: 028f d4bd a974 283c e81a b43d 9ac6 c1be
000002b0: a738 f93d 9356 143d 1543 c3bd 9093 813d
000002c0: 307e 86bd 3e9f 4cbe 42bc 053e 777f a5bd
000002d0: bb55 afbc 035a 0a3d 3456 d53d 93ee 0a3d
000002e0: 4c53 30b8 0184 1f3c a280 8cbd 4048 acbc
000002f0: 188c cbbd ae08 833c eb10 033e dc12 0d3e
00000300: 2bb0 a2bd a235 973d ab9c 7cbd fa78 61bd
00000310: f6be c1bd 3c66 e83d 6b26 253c 56c0 7abc
00000320: efc6 88bc a87d bf3c fef4 aabd af5d ebbd
00000330: efba b0bd ab58 8f3d 85d3 c5bc 1abf ac3d
00000340: bd58 173d 6c44 b83c 91f7 4d39 69a5 d13c
00000350: 6790 4d3c c8a1 f2bc efd8 f63b 8425 243d
00000360: 1332 a0bd 3fae 8fbd ec55 d43d 19b1 0bbe
00000370: d218 86bd 880a 9f3d 9da2 543d 220b 1cbc
00000380: 5dd4 13bd 0061 b83d 1355 08be a78a e8bc
00000390: 3749 34bd 5aa0 72bc 894b f2bc 0440 003e
000003a0: 3389 4c3c a415 143e 64ec 9f3d 3694 8dbd
000003b0: d4a3 c43d 2322 11be f666 eebd f3c2 d93c
000003c0: 2558 923d 99a4 643d b675 d1bc f516 073d
000003d0: 03f5 963d 1f2b 95bd d8bb a23d 9c8c c1bd
000003e0: 67a6 b43a 0c58 c9bc 45e2 77bd bd2d ec3c
000003f0: f8d3 8c3e 7eef c5bc f195 53bd 8f82 163c

allocation_head.0.bias f4 [4]
0.048114035 -0.005207914 -0.031378716 0.104546234
00000000: 3913 453d 26a7 aabb f886 00bd 561c d63d

payment_head.0.weight f4 [1, 100]
0.03870452 -0.1397955 0.24396123 0.14660473 -0.14834325 0.056215454 -0.070731215 -0.015671432
0.15249787 0.013280059 -0.034068692 0.3194979 -0.027144516 -0.033893127 0.12934944 0.17039114
0.005354035 -0.14843923 0.13947637 0.06254828 0.1477868 -0.12646016 0.10169665 -0.092395015
0.13813104 0.1682818 -0.05780781 0.037172686 0.19597426 0.0065588355 -0.12733303 -0.07697749
0.021836413 0.081814274 0.16212781 -0.096693434 -0.074716784 -0.16826549 -0.05756929 0.062359262
-0.11552205 0.06592826 -0.033723105 0.19840938 0.15438762 0.2135244 0.13731298 0.10901343
0.09939957 0.043034345 -0.074185684 0.15124786 -0.07999081 0.059206553 -0.0769553 0.11064457
-0.16984749 0.084907815 0.13417645 -0.08356666 0.022307055 0.053680684 0.18256134 0.3021349
-0.07698579 -0.007093885 0.22264403 0.12159433 0.14882806 -0.042151906 0.035061646 -0.05674048
-0.1308314 0.046660792 -0.052837893 0.04810957 -0.02301792 -0.1835786 -0.14017595 0.05218407
0.21236913 0.10198522 0.037549186 0.049330026 0.14079285 0.16870296 0.23150393 0.01329006
0.03847581 0.25164333 0.12264615 -0.023373375 -0.06028655 -0.09645543 0.07979316 0.08986104
0.14970277 0.23154432 0.16815127 0.15374905
00000000: a188 1e3d 8d26 0fbe f9d0 793e 8d1f 163e
00000010: 4be7 17be 2d42 663d 87db 90bd 6061 80bc
00000020: 6728 1c3e 9b94 593c 9d8b 0bbd 3b95 a33e
00000030: 2d5e debc 85d3 0abd 2e74 043e 047b 2e3e
00000040: e770 af3b 7400 18be e5d2 0e3e 5019 803d
00000050: 6c55 173e c67e 01be 5546 d03d 9939 bdbd
00000060: 3972 0d3e 1052 2c3e e2c7 6cbd 6342 183d
00000070: 7aad 483e 80eb d63b 9763 02be 60a6 9dbd
00000080: 47e2 b23c 3e8e a73d d504 263e 3507 c6bd
00000090: 1d05 99bd ca4d 2cbe c7cd 6bbd 6d6c 7f3d
000000a0: d396 ecbd 6505 873d 3d21 0abd d42b 4b3e
000000b0: ca17 1e3e 24a6 5a3e c69b 0c3e 6f42 df3d
000000c0: 0092 cb3d c844 303d aaee 97bd b8e0 1a3e
000000d0: 39d2 a3bd 9282 723d be9a 9dbd 9f99 e23d
000000e0: 80ec 2dbe 26e4 ad3d 8d65 093e ff24 abbd
000000f0: 49bd b63c 47e0 5b3d 5cf1 3a3e 6db1 9a3e
00000100: baaa 9dbd d273 e8bb ccfc 633e 7306 f93d
00000110: 6266 183e 7aa7 2cbd cd9c 0f3d b568 68bd
00000120: abf8 05be 631f 3f3d 8c6c 58bd 8a0e 453d
00000130: 1490 bcbc 07fc 3bbe 498a 0fbe f7be 553d
00000140: 4b77 593e a1dd d03d 2dcd 193d 480e 4a3d
00000150: 002c 103e 78c0 2c3e 5e0f 6d3e 8dbe 593c
00000160: d098 1d3d 65d7 803e e82d fb3d 8579 bfbc
00000170: 08ef 76bd 6d8a c5bd 996a a33d 1109 b83d
00000180: af4b 193e f419 6d3e d92f 2c3e 6470 1d3e
