result/1x2_sparsemax_in_linsigpmt_scratch_79_checkpoint.pt (torch, 88519 bytes, 9 tensors)

nn_model.0.weight f4 [100, 2]
000000 88 f3 86 be 94 df c7 3e 99 24 a5 3e d2 cd 5e be
       -0.26357675 0.39037764 0.32254484 -0.21758202
000010 bb 99 35 3e 78 fb 80 be 2b 70 02 3f da 45 1d 3e
       0.17734425 -0.25191855 0.50952405 0.15358678
000020 1b 0c 8a be b3 9f 16 3e 25 d9 bf 3e f5 f0 45 be
       -0.2696236 0.14709358 0.37470356 -0.19330199
000030 61 04 25 3d a4 ac b4 3e 2e 16 90 bd 7e 5c 5c 3e
       0.04028738 0.35287964 -0.070354804 0.21519658
000040 55 a3 2e be f1 c9 7d 3e 47 0c e4 be 7d 8f b2 be
       -0.17054494 0.24784066 -0.44540617 -0.34875098
000050 5a 98 98 be 57 31 2b 3f 4d aa fb bd cf 3f df bc
       -0.29803735 0.6687216 -0.12288342 -0.027252106
000060 85 6f f8 be f1 2f 32 3f 78 24 1e 3f c1 7d 0c bf
       -0.48522583 0.696044 0.61774397 -0.54879385
000070 4f ca ca be 61 86 ae be be 75 c6 bd 22 0d 80 be
       -0.39607474 -0.34086898 -0.09690426 -0.2501002
000080 89 f8 ec be 6a da 81 be 7e 58 f7 3d 2d cd c2 be
       -0.46283367 -0.2536195 0.120774254 -0.38047162
000090 61 71 20 3e dd 0a 26 be 40 6e af be 97 f4 c6 3d
       0.1566825 -0.16215082 -0.34263802 0.097146206
0000a0 0a ab 09 3f 84 e5 24 bf 64 db 3b bd c8 cc 96 be
       0.5377661 -0.64412713 -0.045863524 -0.2945311
0000b0 b8 59 67 3f 3e 64 c5 be 7a 0a 0e bf 65 6c 37 3f
       0.90371275 -0.3855304 -0.55484736 0.7164977
0000c0 e8 0e e5 be 91 d2 0a 3e 1a f8 79 bd 2e 88 18 be
       -0.44737935 0.13556887 -0.061027624 -0.14895698
0000d0 41 86 50 be 0b e4 d6 3e 4f 6f 0a 3d 39 3e 30 bf
       -0.20363714 0.41970858 0.03379756 -0.68844944
0000e0 fb 0d b5 be c7 39 02 be 0d 2f b6 3e 95 49 ea be
       -0.3536223 -0.12717353 0.35582772 -0.45759264
0000f0 ce 62 41 3f cc 8a d5 bd 5e f6 6e be 99 b2 12 3f
       0.7554139 -0.10426864 -0.23336169 0.5730377
000100 b5 61 28 3e a5 f9 00 3f 01 83 03 3f 69 93 21 be
       0.16443522 0.5038093 0.5137177 -0.15778889
000110 e2 33 f0 be 87 7e 57 bd ed 53 1c 3f c0 73 d9 39
       -0.46914583 -0.0526109 0.6106556 0.00041475706
000120 9d f0 01 bf a3 d1 b3 3e 79 98 42 3f a0 cc 18 be
       -0.5075777 0.35120878 0.76013905 -0.14921808
000130 66 e3 15 bf 02 32 24 bf c3 80 46 3e 05 49 f6 bc
       -0.5855011 -0.64138806 0.19385056 -0.030064115
000140 dc 61 e9 be a1 a5 a2 3d ed d0 b5 3e 34 1a 1e 3f
       -0.45582473 0.079417475 0.3551096 0.6175873
000150 27 5b fe 3e f3 8d 71 be ed 9d 1f bf c1 92 23 bf
       0.4967892 -0.23589306 -0.6235035 -0.63895804
000160 91 61 44 3f 25 86 bd 3e b9 d0 9d 3e 2a 9f 1c bf
       0.76711375 0.37016407 0.30823305 -0.61180365
000170 f9 02 3c 3f 68 2e 3a 3f e0 1a 19 3f 1b bd 1a bf
       0.73442036 0.7272706 0.59806633 -0.604448
000180 3e f6 80 be 5b 6f e3 be ff 8b 10 3f e0 ab d4 be
       -0.25187868 -0.44420895 0.5646362 -0.4153738
000190 f3 ba bd be 51 5e b2 3e f0 79 a7 be e3 4f b2 be
       -0.37056693 0.34837583 -0.32710218 -0.34826574
0001a0 6a 4d 00 be 4c 72 fa bd 28 5d 0b bf 7c 92 4b 3f
       -0.12529531 -0.12228832 -0.5443902 0.7952039
0001b0 ff b3 9f be a6 6b 80 3e 3a 05 24 3f 79 9c bb 3e
       -0.31192014 0.2508213 0.64070475 0.36642817
0001c0 e2 2e 1d 3e a4 a5 26 3f 84 ab c2 3d e5 7f a7 be
       0.15349916 0.650965 0.0950537 -0.32714763
0001d0 6b de 3a 3f 0c 1a 5b 3e a0 ea ac be c0 5e fa bd
       0.7299563 0.21396655 -0.33772755 -0.122251034
0001e0 0e 7e fd be 2a 11 4e 3f 22 28 ef bd ee 00 25 bf
       -0.49510235 0.8049494 -0.116775766 -0.64454544
0001f0 a6 55 fc bc dd 2d ec 3e 98 1d 3c 3e da f4 64 3e
       -0.03080256 0.4612874 0.18370664 0.22359028
000200 55 7b 91 3d 01 9b cb 3e c7 9c fa bd 79 34 62 be
       0.07103602 0.39766696 -0.12236934 -0.22090329
000210 47 33 29 bf 59 5e 08 bf 0f d1 6e 3e fe b5 e6 be
       -0.6609387 -0.53268963 0.23321937 -0.45060724
000220 65 fc 0e 3e f4 a1 92 3e cb 9f d3 bc 69 f8 03 bf
       0.13963468 0.28639185 -0.025833031 -0.5155092
000230 07 0f 36 3f 43 76 1c bc 70 8d 03 3f 97 58 23 bf
       0.7111668 -0.00954968 0.5138769 -0.6380705
000240 fb 2c 2e be 10 f0 c4 3e 26 09 8c be ac 7b 1c 3f
       -0.17009346 0.38464403 -0.2735073 0.6112621
000250 a6 23 f9 be cf 03 18 bf 0b 40 a3 be 45 18 ea 3d
       -0.4866001 -0.5938081 -0.31884798 0.1143041
000260 4d 1f 22 3f 97 35 9d be df 03 9d 3e b6 76 5e be
       0.6332901 -0.30704948 0.30667016 -0.21724972
000270 38 46 8c be 5a c6 01 3f 95 49 0c bf 36 d0 99 3d
       -0.27397323 0.50693285 -0.5479978 0.07510416
000280 0f 60 02 3f ee 9e 9d be f6 c0 0d 3f 2e d1 ae be
       0.50927824 -0.30785316 0.5537256 -0.34143966
000290 b6 b6 11 3f 02 1b 2f bf 89 2d c3 bd de 11 0a be
       0.5691942 -0.68400586 -0.095301695 -0.13483378
0002a0 38 64 9e 3e 3a fd a2 3e 4f b5 01 3f 5d c1 bd be
       0.30935836 0.31833822 0.5066728 -0.37061587
0002b0 14 3d 9a 3d c4 23 0d 3f ac e7 5a be 6d 74 17 3f
       0.07531181 0.551327 -0.21377438 0.59162027
0002c0 bd 2c 8e be bf 0b b9 bd 19 65 a2 3b 02 ee 91 3e
       -0.27768508 -0.090354435 0.0049558994 0.28501898
0002d0 26 b2 04 3f 00 14 66 be 94 f8 15 bf 29 63 b3 3e
       0.5183433 -0.22468567 -0.58582425 0.3503659
0002e0 77 8b 85 3e 5e 25 79 3e 2e 8c c9 be b8 4e 1b 3f
       0.26082966 0.2433066 -0.3936476 0.6066699
0002f0 83 29 40 3f 36 0a 1e 3e a1 78 32 bf ad 76 9d 3e
       0.7506334 0.15433583 -0.69715315 0.30754605
000300 8e 37 06 bf f7 71 26 3e 19 ed a1 3c 77 ec cb be
       -0.5242852 0.16254412 0.019766377 -0.39828846
000310 da 1e 7c 3e dc e8 21 bf ee 2f 3a 3e 08 ce 30 bf
       0.24621144 -0.6324594 0.18182346 -0.6906438

nn_model.0.bias f4 [100]
000000 33 02 43 3c c9 bc 27 be 1c 94 26 3f af ad f8 be
       0.01190238 -0.1638061 0.65069747 -0.4857001
000010 4d 43 ed 3e 37 df 84 be c9 32 c9 be af a1 1d bf
       0.4634041 -0.2595155 -0.39296558 -0.61574835
000020 ac 16 26 bf a8 4a 4b 3f 61 69 ca be e8 02 1e 3e
       -0.64878345 0.7941079 -0.39533523 0.15430796
000030 b9 91 13 3e 2c 3f 0c 3f 13 f6 3c 3f 63 9d 1c 3f
       0.14411058 0.5478389 0.7381298 0.61177653
000040 3a 1d 06 bf 37 12 01 be 5e 3b d6 be f7 d9 ce be
       -0.52388346 -0.12604605 -0.4184217 -0.4040067
000050 e3 f6 70 3e 54 ca 34 3f 97 a0 0c bf eb 0c 0c 3f
       0.2353168 0.7062123 -0.5493254 0.5470721
000060 7b b4 bb be 19 08 0d be 2d 1d 12 3f c9 c3 23 be
       -0.36661133 -0.1377262 0.5707577 -0.15992655
000070 a8 71 f4 3d aa 13 fd be 53 1d 13 3f d2 54 01 be
       0.11935741 -0.49429065 0.5746662 -0.12630013
000080 ed d4 2a bf e3 2d 38 3e 38 b5 00 bf ba b7 16 bf
       -0.6673115 0.17986254 -0.5027652 -0.58874094
000090 65 79 15 3e 1a 74 0b 3f fe e6 4c be f1 01 a6 3e
       0.1459709 0.5447403 -0.20009992 0.32423356
0000a0 e4 9c 27 3f ca e7 e9 3e 86 22 eb be 1b bf 9e bd
       0.6547377 0.45684654 -0.45924777 -0.07751294
0000b0 82 57 90 be d2 8f 11 bf 43 0b f4 bc f2 d8 19 3f
       -0.28191763 -0.5686008 -0.029790526 0.6009666
0000c0 b5 91 32 3f eb f5 5a be fc 5d 79 3e 00 bc 9c be
       0.6975358 -0.21382873 0.24352258 -0.30612183
0000d0 05 af 0b 3f 39 2f 8e be bd 7d fb be c4 5a e3 3d
       0.54563934 -0.27770403 -0.49119368 0.111012965
0000e0 c0 8f d3 3e 9c 34 23 bf f9 e9 1d 3f d9 68 ee 3e
       0.4132061 -0.6375215 0.6168514 0.46564367
0000f0 c7 35 c0 be c0 f8 1b be 3f 99 19 3f 62 e2 0a bf
       -0.3754103 -0.1523161 0.5999946 -0.5425168
000100 4c dd 0a be 9e 75 bb 3e 9d 96 1e bf 58 6e e6 3e
       -0.1356098 0.36613172 -0.6194857 0.4500606
000110 d3 9a be 3e e6 e8 04 3f 6d c8 23 bf 45 93 40 3f
       0.37227497 0.51917875 -0.639777 0.75224715
000120 43 9a d6 be e4 2e 36 3f f7 b8 2d bf 65 48 21 bf
       -0.41914567 0.711653 -0.6786036 -0.6300109
000130 c2 86 e6 3e a3 20 b8 bd 75 71 99 3b 61 7b c8 be
       0.45024687 -0.089906 0.0046827146 -0.3915663
000140 35 05 f8 be 98 b0 a7 be 4a 57 30 bf f0 5a 76 3e
       -0.48441473 -0.32751918 -0.6888319 0.24058127
000150 fc 3e f1 3d bb 05 e5 3d 94 20 62 3e 19 8b 32 3f
       0.117795914 0.111827336 0.2208274 0.69743496
000160 86 d4 bc 3e e2 cb 98 be e2 82 7e be 65 a2 e7 be
       0.36880893 -0.2984305 -0.24854615 -0.45241085
000170 72 f7 00 bf f0 bf 22 be 3e 2a db bd c1 8f dc 3e
       -0.5037757 -0.15893531 -0.107014164 0.43078426
000180 a8 bf 9a be 67 47 1a 3f 0d 09 fe be ef 4d fb 3d
       -0.30224347 0.602652 -0.4961628 0.12270724

nn_model.2.weight f4 [100, 100]
000000 a5 c7 54 3e b8 26 18 3e b3 8d 84 bc 45 5a 6d 3e
       0.20779283 0.1485852 -0.016180849 0.23178966
000010 01 0c 59 3d 56 f7 9d 3d 7f 08 86 bd 33 e2 dd 3c
       0.052989963 0.07713191 -0.06544589 0.0270854
000020 2a 69 8e bd ab 67 2f 3d 1e b4 fc 3d fc 4d dd bb
       -0.06953652 0.042823475 0.12339042 -0.006753681
000030 79 d0 cc 3d 4a 67 1a 3d 2b 3e 89 3d cc 57 0a 3e
       0.100007005 0.03769616 0.06701311 0.13510054
000040 4d 67 fa bc 99 a4 77 3d ad 50 ea bc 73 53 6f bc
       -0.030566836 0.060459707 -0.028602922 -0.014607298
000050 7d aa 86 bc 00 8c 14 3d cc a5 02 3d ee 64 88 3d
       -0.016438717 0.036266327 0.031896397 0.06659876
000060 33 f1 76 3b 15 d2 81 3d e2 8f f3 3c 8d 4c 24 3c
       0.0037680387 0.06338898 0.029731695 0.010028017
000070 45 08 5c bc b2 82 ab bd 85 4b bc 3d 1e db 04 3d
       -0.013429706 -0.083745375 0.09194092 0.03243553
000080 e6 41 cf bc c6 68 94 3c 00 3d d6 3c 3d 7f ed bc
       -0.025299978 0.018116366 0.026152134 -0.028991336
000090 5f df 1a 3e 84 1e 67 3d 90 b8 1a 3d 78 fc b8 3d
       0.15124272 0.056425586 0.03777367 0.090325296
0000a0 0d 54 62 3c df fc ae 3d 02 b5 db 3d 00 cb 96 3b
       0.013813985 0.08544325 0.10727884 0.004601836
0000b0 58 48 7a 3c 00 21 6e 3b 3e ce 8f 3d 10 f1 2d ba
       0.015276037 0.0036335588 0.070217595 -0.00066353474
0000c0 5d 41 b8 bc 5d ca c7 3d f5 d0 cf bd 00 24 d2 3a
       -0.022492105 0.097553946 -0.10147277 0.0016032457
0000d0 22 12 fe bb c6 b2 48 3e 43 ad be bd c9 f9 8c 3d
       -0.0077536264 0.19599447 -0.09310391 0.0688358
0000e0 d1 01 15 3e cd c1 a5 3c b2 70 30 3d 5b 5a d9 3d
       0.14551474 0.020234013 0.043076225 0.10612937
0000f0 d6 9e cb 3d 73 4a 03 bc c8 d8 ca 3b b3 2a 62 bc
       0.09942405 -0.008013356 0.006190393 -0.013804126
000100 7f f1 61 3d b7 d1 e7 3c f3 b9 9a bc 4c c7 83 bd
       0.05516195 0.028298242 -0.018887496 -0.06434497
000110 11 43 69 3d 4b b1 69 3d a3 9a 67 3e 08 63 ef 3d
       0.056948725 0.057053845 0.22617583 0.116888106
000120 4a 11 c7 3d 6a 8f 21 bc b3 52 cc bb ad 1d 24 bd
       0.097200945 -0.009860853 -0.0062354445 -0.040067364
000130 5d 09 34 bd 41 04 6f 3d 27 3b e3 3d 63 d2 6e 3d
       -0.043954242 0.058353666 0.11095267 0.05830611
000140 a1 f5 7f 3c f1 06 49 3d 95 b5 a2 bd d0 e8 85 3c
       0.015622527 0.049078885 -0.0794479 0.016346365
000150 c1 b0 e3 3d 50 95 b5 bd b2 ed 05 3e 74 de 9c 3d
       0.111176975 -0.0886637 0.13078955 0.07659617
000160 1e cb b1 3d 12 11 f6 bc d0 01 11 3e 7d 8d b5 bd
       0.0868132 -0.030037437 0.14160848 -0.088648774
000170 6f 44 b4 bd 75 ad 6a 3e bc 61 ed 3c df 4e 07 3e
       -0.08802115 0.22917731 0.028977267 0.1321368
000180 88 3f c9 3d c0 51 01 3e 4a 80 89 3d 67 b5 19 3e
       0.09826571 0.12628841 0.06713922 0.15010606
000190 00 67 53 bc 35 ef 9e bd fd 0d 18 bd 27 ef 37 bc
       -0.012902975 -0.07760469 -0.037122715 -0.011226452
0001a0 a3 57 5d bd 27 60 51 3d e0 c7 0f 3d f3 2d 84 3c
       -0.054038655 0.05111709 0.035102725 0.016135192
0001b0 f3 e2 c5 3c 33 e8 b3 3d 6d 30 15 3d e2 98 b3 bd
       0.02415607 0.08784523 0.036423136 -0.087693945
0001c0 0f a9 94 bd f3 87 34 3d a7 47 5f 3c 2d c2 47 3d
       -0.07258808 0.044074964 0.013627923 0.048769165
0001d0 b0 89 cc bd ef 00 bd bd 73 2d 7b 3d db ff 82 3d
       -0.09987199 -0.09228694 0.06132264 0.06396457
0001e0 ea 48 b9 bd 67 7a 1b 3d ba ea 9f bd bd 18 9b 3d
       -0.090471104 0.03795853 -0.078084424 0.07573078
0001f0 50 87 00 3d ea 80 ca 3d 60 ee c9 bd f5 27 c5 bd
       0.031379044 0.0988787 -0.098599195 -0.09626762
000200 38 77 8a 3d 80 d3 b5 3d 27 f4 7a 3d 3b 28 88 3d
       0.067610204 0.08878231 0.061267998 0.06648298
000210 47 7f ac bd af 3c 94 3d 80 5c c1 bd ba 02 b7 3c
       -0.08422714 0.07238137 -0.09441471 0.022340167
000220 b0 26 86 bd f7 b0 22 bd 07 0e 91 3c ea 0b 21 bd
       -0.06550348 -0.039719548 0.017706884 -0.039318003
000230 c0 9d 81 bc 4b 1d c2 bd b7 19 c1 bd f7 a9 1e 3d
       -0.015822291 -0.094782434 -0.09428733 0.03873631
000240 f7 5f 2d bd 47 32 79 bd f3 9e 21 bd 23 70 a7 bd
       -0.042327847 -0.060838964 -0.039458226 -0.08175685
000250 98 b7 a3 bd e3 17 75 3d 0d 2d 50 3d 9a 3d 5a 3c
       -0.07994002 0.059837233 0.050824214 0.013320351
000260 7a bf 5f bd 3a 46 08 3d 00 36 93 3b 70 5d 92 bd
       -0.054625966 0.0332701 0.0044925213 -0.07146728
000270 93 48 b0 3c ba 7a ba 3d 4d 71 c9 bd ca a6 cb bd
       0.021518981 0.091054395 -0.098360635 -0.09943922
000280 80 eb 51 3c 0f 38 9a 3d c7 3c 79 bd 1a 56 b4 3c
       0.012812495 0.075302236 -0.060848977 0.022013713
000290 ad f8 8f 3d a0 92 fc 3c a0 48 b1 3c 93 55 cc 3d
       0.07029853 0.030831635 0.021641076 0.099772595
0002a0 ef 6b 85 3d c0 5e 66 bd 1a 9e 0d 3c da 40 51 3d
       0.06514727 -0.056242704 0.008643651 0.051087238
0002b0 75 9d b4 3d 23 c3 cb bd f3 cc 5d 3d 00 d7 ed bc
       0.08819095 -0.09949329 0.054150533 -0.029033184
0002c0 65 8b c8 bd 53 d7 b5 3c ea fd 5e bd 67 2e 68 3c
       -0.097922124 0.022197401 -0.05444137 0.014171219
0002d0 3d f7 84 bd 32 1e 9a bd 1a 05 0b bc 5d 98 09 bd
       -0.064924695 -0.075252905 -0.008485103 -0.03359257
0002e0 83 8f 6f 3d 80 42 0d 3c c0 db 9f 3d 40 85 99 3c
       0.058486473 0.008621812 0.07805586 0.018740296
0002f0 27 b6 03 bd ca b7 8a 3d 9a 0f b3 3b cd c1 99 3c
       -0.032156136 0.06773336 0.0054645063 0.01876917
000300 93 bc 03 bd 00 28 bc 39 9a 82 9d bc da 4a 0b bc
       -0.03216226 0.00035887957 -0.019227315 -0.008501733
000310 23 b8 9f bd 33 37 21 ba 3a fe a9 bd 33 3c b0 bc
       -0.07798793 -0.0006149888 -0.08300443 -0.02151308
000320 30 5c 87 3d 8f 72 9f bd 39 2e 9b bd 87 07 c8 bc
       0.0660938 -0.07785522 -0.07577176 -0.024417652
000330 be 83 12 bd 27 ae 8a 3c 30 3e d7 3c ed b4 4f 3d
       -0.03577017 0.016928745 0.02627477 0.050709654
000340 2f 15 8d bd 99 d3 7c bc 67 cc 6e 3d 53 f5 9f 3d
       -0.06888806 -0.015431308 0.058300402 0.07810464
000350 33 c9 7f bc a9 a6 87 bd 81 dc a6 3c 0d fe 46 3d
       -0.0156119345 -0.06623585 0.020368816 0.048582125
000360 c7 e5 7f bd 2d b0 6d bd e0 0a 35 3d 9a 97 e5 bb
       -0.062474992 -0.058029342 0.044199824 -0.0070065977
000370 0d 72 d2 bd 24 39 87 bd 33 1b 26 3d 93 18 2d bd
       -0.1027566 -0.066026956 0.040553283 -0.042259764
000380 e2 5b 8d 3d 0f e7 a1 3d fe 0c cb 3b 5a 8e 01 bc
       0.06902291 0.07905399 0.006196617 -0.007907474
000390 e8 3a 24 bd b3 b1 a5 bb 76 3a 21 3c 4b 57 ab bd
       -0.04009524 -0.005056584 0.009840598 -0.08366259
0003a0 ef 97 74 bc 84 80 bb bd dd 64 7b 3d 90 6c 82 bd
       -0.014928802 -0.09155372 0.061375488 -0.06368363
0003b0 b0 13 aa 3d db d6 0b bd 53 a6 6a bd f5 8b 22 3d
       0.08304536 -0.03414045 -0.057287525 0.039684255
0003c0 f9 86 d6 3b 76 75 79 3d e0 fe 2a 3d bb 4a c5 bd
       0.0065468517 0.060903035 0.041746974 -0.09633394
0003d0 bf 52 93 3d 47 44 9a bc 8f 4e 56 bd 8a d4 61 3d
       0.07193517 -0.018831385 -0.052321013 0.055134334
0003e0 1f 36 84 3d 46 f1 c4 bd 31 5f 8e bc e0 2e a8 3d
       0.06455635 -0.09616332 -0.017379375 0.08212066
0003f0 2e c1 f8 3c 43 5f c0 3d 90 5e 0c bd dd fe 81 bd
       0.030365553 0.0939317 -0.03426987 -0.063474394

nn_model.2.bias f4 [100]
000000 83 30 d0 3c cd 5c 7c b9 9e c2 9d bd f3 1a 4a 3d
       0.025413757 -0.00024067164 -0.07703136 0.049342107
000010 ad 02 9c bd 6a 7e fa 3c dd 6c 94 bd 70 60 07 bd
       -0.07617698 0.030577857 -0.072473265 -0.033050954
000020 9e a1 ce bb ca 5e e3 3c 49 cf cc bd 19 02 66 3d
       -0.0063058874 0.02775516 -0.10000474 0.056154344
000030 7d 15 bb 3c 6a 69 84 bd f7 46 19 3d 60 c6 58 bd
       0.022837395 -0.06465419 0.037421193 -0.05292356
000040 67 ac 47 bd 9a 12 8a bc b9 78 65 3d 33 95 6f 3b
       -0.0487484 -0.016854573 0.056023333 0.0036557436
000050 9b f9 90 bd fc 90 89 3d d6 df 2f 3c e9 65 9b bd
       -0.070788585 0.06717107 0.010734519 -0.07587797
000060 bd 34 07 3d 2f be a7 bd 76 89 6c 3d 5f 72 7d 3d
       0.03300928 -0.081905715 0.05774828 0.06187665
000070 74 fe 8c 3d 97 47 c4 bd 94 37 63 3d 73 72 16 bc
       0.068844706 -0.09583967 0.055472925 -0.00918256
000080 67 75 b1 bc ea 05 23 3d e8 5f b8 bd 8d 81 08 bd
       -0.021662427 0.039800562 -0.09002668 -0.033326674
000090 ab 9a ba bd 0a 4e 10 bd d3 94 b5 3c 8d f9 36 3d
       -0.09111532 -0.035230674 0.022165691 0.044671584
0000a0 d5 19 8b 3d 90 6c 43 bb 5d dd 7b bb c0 c4 60 3d
       0.067920364 -0.0029819347 -0.0038431503 0.054875135
0000b0 02 80 5b bd 82 e7 c2 bd fe d6 02 bd 81 b2 55 bd
       -0.053588875 -0.09516813 -0.031943314 -0.052172188
0000c0 42 09 ca 3d e1 bb d9 3c b9 ce 6d 3c c0 c2 83 3d
       0.09865047 0.026578845 0.014514619 0.0643363
0000d0 da bc a1 bd 73 03 57 bd 40 d8 bd bd 01 ab 6a bc
       -0.07897349 -0.052493524 -0.09269762 -0.014322997
0000e0 db 8d 90 bd 1a 43 8d bb e8 48 80 bd 8c 1a 54 3d
       -0.07058307 -0.0043109776 -0.06263906 0.05178313
0000f0 6a bd ad bd 24 b8 67 bd 7a 34 74 3d 2b f2 93 3d
       -0.084833935 -0.056572095 0.059620358 0.07223924
000100 c7 6e 85 bb 37 b8 49 bd 52 cc dc bd fb 52 cf 3d
       -0.0040720436 -0.049247947 -0.107811585 0.10123249
000110 cd 12 ff 3a 13 78 8b bc 8e 80 81 bc 0b af 2b bd
       0.0019460559 -0.01702503 -0.01580837 -0.04191498
000120 93 b6 2e 3d 8a 6c 90 bd 8c 38 9b bc 5b 07 67 3d
       0.042654585 -0.07051952 -0.018947862 0.0564035
000130 33 1f b5 bc 3f e2 ab 3d f5 da 76 3d 8c cf c3 bd
       -0.022109604 0.083927624 0.060267407 -0.09561071
000140 30 fd ea 3c 8d fe 07 bc 4b 9c c6 bc c0 8b 3f bd
       0.028685182 -0.008300436 -0.024244448 -0.046764135
000150 fe 81 96 3d 9a ef 70 3d 9a ca b7 3d e6 f8 d9 3d
       0.07349013 0.05882225 0.0897419 0.10643177
000160 3f 70 90 3d 8f bd 2c bd 10 bf 43 3d ce 7d 4f bc
       0.07052659 -0.042172965 0.047789633 -0.0126642715
000170 d2 90 ea 3d 86 3f f2 3d 9f 55 a8 3d de fd aa 3c
       0.114534035 0.118285224 0.08219456 0.020873006
000180 8e 67 9c bd 7d 54 24 bd 61 56 93 bc a5 fe 9e bd
       -0.07636939 -0.040119637 -0.017985525 -0.07763413

nn_model.4.weight f4 [100, 100]
000000 62 76 19 3e 17 c4 56 bd 8f 7f 0a bc 0d a9 e3 bc
       0.14986566 -0.0524331 -0.008453264 -0.02779057
000010 e4 92 09 3d 4a b9 34 bd 33 75 58 3b 74 93 e5 3d
       0.03358735 -0.044122018 0.003302884 0.11209765
000020 a1 08 5b 3c 60 81 48 3d 85 83 4e 3d 49 a9 ff 3d
       0.0133687565 0.048951507 0.050418396 0.124834605
000030 0c 57 92 bd 6f 3d 9d bc cd db 4d bd 58 f0 93 bd
       -0.07145509 -0.019194333 -0.050258446 -0.07223576
000040 6a 44 d4 bd 03 76 05 3d 39 01 c7 3d b3 fd d6 3b
       -0.103646114 0.032583248 0.0971703 0.006561005
000050 40 80 0a 3c 39 ef 7c ba a0 c2 5b bd 36 29 ef 3d
       0.008453429 -0.0009648684 -0.053652406 0.11677782
000060 dd 58 22 3d d3 57 af bd 0d 9b f7 3c 9a a8 07 3e
       0.039635528 -0.08561673 0.030225301 0.1324791
000070 80 24 ad 3d a8 52 f9 3d 68 ed e6 3d 7b ad a6 3d
       0.084542274 0.121739686 0.112757504 0.081385575
000080 73 ca aa bc 7c ed fb 3c b7 c0 0e 3d db 51 28 bd
       -0.020848488 0.03075289 0.034851756 -0.04109369
000090 3a 28 08 3d d3 5c 79 bd 81 12 94 3d 94 02 ab 3d
       0.033241488 -0.06087954 0.07230092 0.08350101
0000a0 97 4f fb 3d 02 17 02 3e 5e 71 db 3d eb 88 9f bd
       0.1227104 0.1270409 0.107149825 -0.07789787
0000b0 2e c1 97 bd 28 6b ae bd 7f e0 86 3d fd 99 f5 3d
       -0.07409893 -0.08516532 0.06585788 0.119922616
0000c0 c4 c0 d0 3d fe f8 7c 3d 8f fb ec 3d 06 9c ed bc
       0.10193017 0.061760895 0.115714185 -0.029005062
0000d0 e2 37 ec bc 3f bb a8 bd 9e bb 92 bd fe a2 90 bd
       -0.02883524 -0.08238839 -0.071646914 -0.07062338
0000e0 6a a4 70 3d 93 a0 e3 bc 28 7d aa 3c a4 eb df 3d
       0.058750547 -0.027786529 0.020811632 0.10933617
0000f0 60 48 59 3d 5d 52 5f 3d 99 ad 64 bd a2 9f ad 3d
       0.053047538 0.054521907 -0.055829618 0.08477713
000100 04 1c a9 3d 10 84 6c bd 35 c9 8d bb b4 68 b1 bd
       0.08257297 -0.057743132 -0.0043269643 -0.08662549
000110 4d 25 cd bc a0 9d b0 3c 9e b7 bd bd 78 ed 35 bd
       -0.0250422 0.021559536 -0.09263538 -0.04441592
000120 f3 31 18 3d 96 1c 04 3e fa fb de bc a9 bb e4 3d
       0.03715701 0.1290153 -0.027219761 0.11168606
000130 13 bf a0 bd aa 3c 0a bd 41 93 cd 3d 6e 0a bc bc
       -0.078489445 -0.03374926 0.10037852 -0.022954192
000140 11 00 8e 3d 8a 34 76 bd cd f1 5a 3d fa 3e b5 bc
       0.069336064 -0.0601087 0.053453255 -0.022124756
000150 b7 53 cd 3c da 31 17 3d 5a d3 fe 3c b0 5e ec 3d
       0.025064332 0.036912777 0.03110664 0.11541498
000160 21 34 99 3c ee f4 fb bc 62 78 98 3d 80 cf f1 3c
       0.018701615 -0.03075644 0.07444836 0.029517889
000170 d6 32 8d bd 51 96 d3 bc 7a c5 7c 3d a1 bb b0 3d
       -0.06894462 -0.025828512 0.061711766 0.086295374
000180 75 a5 a7 bc 7f ae 92 3d 6d 2f 61 3d a1 bd a2 3d
       -0.020464638 0.07162189 0.05497687 0.07946325
000190 0e 31 20 3d 0a 96 42 3d cf d0 f7 bc df a0 af bd
       0.039109282 0.04750637 -0.030250935 -0.085756056
0001a0 48 5d 94 bc 90 60 85 3d b0 22 4e bd 5b 06 f7 3d
       -0.018110886 0.065125585 -0.05032605 0.12061759
0001b0 a5 da 20 3e c8 89 8e 3d 11 e6 96 3d d4 66 4e bd
       0.15708406 0.069598734 0.073681004 -0.050391033
0001c0 d0 0c 3a 3d 26 fd ec 3c a5 f1 2b 3d 87 51 99 bd
       0.045422375 0.028929304 0.041978497 -0.07486253
0001d0 58 96 a5 3d fa 94 24 3d f1 21 e5 3d 73 e6 45 bc
       0.080853164 0.040181138 0.111881144 -0.012078869
0001e0 93 b3 31 bd 5a bb da 3d 05 d7 5a bd 1d a3 5f 3d
       -0.043384146 0.10680266 -0.053427715 0.054598916
0001f0 63 48 7b bd ab bb 92 3d 0f c5 96 3d 0f dd 44 be
       -0.06134833 0.07164701 0.07361805 -0.19224952
000200 ae cd dc bd 40 48 74 3d be 8d 05 be 07 5f bc 3d
       -0.10781418 0.059639215 -0.13042352 0.091978125
000210 43 82 2a 3d c8 c8 6d bd 58 18 ad 3d d7 df 03 bd
       0.041628134 -0.058052808 0.08451909 -0.032195892
000220 87 bf 37 3d 3a a7 28 3d f4 12 6c bc b6 99 ed bc
       0.04486039 0.041175105 -0.014408816 -0.02900396
000230 84 3b 35 bc d7 b7 d3 bd cc 7c f7 3d 27 c9 a9 bd
       -0.011061553 -0.10337799 0.1208435 -0.0829032
000240 f1 43 ae 3c 4b ff 98 3d fa 29 17 bc d1 fa 5b be
       0.021272631 0.07470568 -0.009226317 -0.21482398
000250 77 bb 8c 3d 4a bd 18 3e 42 b3 a9 3c 12 fc 0f bd
       0.068716936 0.14915958 0.02071536 -0.035152502
000260 72 98 95 3d 7f 53 84 3d f6 9d 3d 3d 0f ac 83 3d
       0.07304467 0.06461238 0.04629322 0.06429302
000270 30 65 98 3d 85 b2 bf 3d e1 df 99 bd d7 fb bf 3d
       0.07441175 0.09360222 -0.07513405 0.093742065
000280 af ca 9a 3d bf 21 f4 3d 1f 33 50 3d 74 ad a3 3d
       0.0755819 0.11920499 0.050830003 0.07992068
000290 b0 02 81 3d ac 57 86 3d 53 42 14 3e c5 7f 90 bd
       0.06299341 0.06559691 0.14478426 -0.0705562
0002a0 30 e7 5a 3d b7 b8 a1 3d c0 22 be 3b 7a 70 09 3e
       0.053443134 0.0789656 0.0058024824 0.13421813
0002b0 23 6d 1b 3e 4b 7d c1 3d 02 5d cd bc be 6a 1d bc
       0.15178351 0.09447726 -0.025068764 -0.009607969
0002c0 30 31 22 3d 12 70 a1 bc e8 c2 21 be e9 39 4a bc
       0.03959769 -0.01970676 -0.15797007 -0.012342908
0002d0 34 23 80 3d e0 fa ae bc dd 12 ad bc c5 aa af 3d
       0.062567145 -0.02135986 -0.021127159 0.085774936
0002e0 ec 4c 8b 3c a0 20 26 3d dd 67 8e 3d 72 7c a7 3d
       0.017004453 0.040558457 0.06953404 0.08178033
0002f0 f3 48 4a 3c ac 47 c7 3d e7 99 ee bb 7f d5 2e be
       0.012346494 0.09730467 -0.00728153 -0.1707363
000300 cb 9c 2b be 83 2d df 3c 38 af 84 bd ed 89 13 3e
       -0.1675903 0.027243381 -0.06478733 0.14408083
000310 cb 91 98 3d 93 ff 9e bd 3d d3 17 3d 2f 60 1f 3e
       0.07449683 -0.07763591 0.037066687 0.15564035
000320 eb 6a 88 3c c7 6c 96 bc 0b df 6b bd 3d 04 57 bd
       0.016652545 -0.018362416 -0.057585757 -0.052494276
000330 33 cc 92 3c 6a 4b 4f 3c 1a 70 89 bd 93 a0 40 bd
       0.017919635 0.012652257 -0.06710835 -0.047028136
000340 b3 78 47 3d 5e e0 19 3d 03 8e 54 3c c6 45 cd 3c
       0.048699092 0.03756749 0.012973311 0.025057685
000350 7f 64 1d bd 9f 1c 3f 3d 09 f2 2a 3e c0 1d 93 3c
       -0.03842592 0.046658155 0.16693892 0.017958522
000360 27 26 27 be fa 61 13 3d 75 ef 5d bd 22 0d bf bd
       -0.16323148 0.03598211 -0.054183442 -0.09328677
000370 48 60 91 3d be a0 4a 3d 8d 19 25 3d 0a b0 8d 3d
       0.07098442 0.049469702 0.04030757 0.069183424
000380 1d 84 1a bd 93 9d 01 3d 63 9b d6 bd ea e8 86 3d
       -0.03772365 0.031644415 -0.104788564 0.065873936
000390 31 d1 0a bd da 80 3f 3c 90 23 0b 3e e7 0c 84 3c
       -0.033890907 0.011688435 0.13587785 0.016119434
0003a0 03 17 4c bd 61 9e 07 3e 70 98 6f 3d 35 e4 3a 3d
       -0.049826633 0.1324401 0.058494985 0.04562779
0003b0 4d 79 84 3b a7 a6 bd 3d 11 1a 6e bd df 0a 82 bd
       0.0040427805 0.09260302 -0.058130328 -0.0634973
0003c0 e6 0f 2d 3e 94 0f 2a 3e 45 e0 08 3c ff d4 9b 3d
       0.16900596 0.16607505 0.008354251 0.07608985
0003d0 0b 1e a6 bc 53 71 b8 bc 36 c5 a0 3d 5f 67 98 3e
       -0.020277997 -0.022514975 0.07850115 0.29766366
0003e0 4c 96 b2 bd b9 93 fd bb 0e ce 34 3d ed cc ad bc
       -0.08720073 -0.007738557 0.04414182 -0.02121588
0003f0 d2 e4 1a be 9a f4 3b 3d 8a e2 8a bd ca ab 84 3d
       -0.1512635 0.045887567 -0.0678149 0.06478079

nn_model.4.bias f4 [100]
000000 be a7 f7 bb d3 2b 1a bd 4c f8 06 3e 54 ed 9d 3d
       -0.007557838 -0.03763945 0.13180655 0.07711282
000010 dd 85 b9 bd 63 70 bf 3d fe 88 d6 3d 77 50 c2 bd
       -0.090587355 0.09347608 0.10475348 -0.09488004
000020 88 ac 89 3d 31 1e d8 bc fe 3c 6a bd d3 aa 6e bd
       0.06722361 -0.026381584 -0.057187073 -0.05826838
000030 ef 26 c4 bd 7e cb 9d bd 5c 28 db 3d 01 cd 7a bc
       -0.095777385 -0.07704829 0.10701057 -0.015307666
000040 67 77 78 bb bc bd 67 3b 95 6c b9 3d f7 14 3b bc
       -0.0037912966 0.0035360893 0.090539135 -0.011418573
000050 a8 7d 39 3d d5 fe 05 bd 61 ca 84 3d 44 bb c8 bc
       0.04528585 -0.03271373 0.06483913 -0.024503358
000060 45 a8 f3 3d ef e3 96 3c 23 23 59 bd 07 07 5a 3d
       0.11897329 0.018419234 -0.053012025 0.053229358
000070 14 59 c4 3d 9a 87 b1 3b 01 88 4a 3c 43 81 36 3d
       0.09587303 0.0054177763 0.012361527 0.044556867
000080 9a 00 9f 3b 78 71 92 3c 2f 64 c8 3d 55 22 48 3d
       0.0048523666 0.017876372 0.097847335 0.048860867
000090 07 f6 a5 3c 08 36 2c 3d 43 a1 48 3a 56 e1 47 bd
       0.020258917 0.042043716 0.00076534244 -0.04879888
0000a0 89 a1 80 3d 07 68 83 3d f3 45 20 3d ad 58 9c 3c
       0.062808104 0.06416326 0.03912921 0.019085253
0000b0 14 6d 4b 3d 0a 0c 80 bd 2c 7f 2a 3d c6 00 38 3c
       0.049664572 -0.06252296 0.041625187 0.011230653
0000c0 53 c4 25 bd 19 40 ac bd 40 a9 1e bc 6f e8 af 3d
       -0.040470432 -0.08410663 -0.009683907 0.08589255
0000d0 c8 50 58 bd 1d 87 49 3d cc 85 1d bd 49 5f 97 bb
       -0.052811414 0.04920112 -0.038457677 -0.004619513
0000e0 c4 62 a3 3d 5b 68 f8 bc f3 24 c4 3d 42 d9 aa 3d
       0.079778224 -0.030323198 0.0957736 0.0834222
0000f0 cf 0a ad 3c e7 c6 27 bd 21 f0 46 3c 08 5b c3 3d
       0.021123318 -0.040961172 0.012142212 0.09538847
000100 f4 5b 9c bd 49 fb f7 3d 5d e8 9b 3d 6f 77 40 bd
       -0.07634726 0.12108476 0.07612679 -0.0469889
000110 22 44 d8 3d 03 c0 18 3c 7a 74 81 bc 7d 2c 8f bd
       0.1055987 0.009323123 -0.01580261 -0.06990907
000120 7f 56 a0 3d db 00 91 bd 4b c7 88 bd 67 1a 4b 3a
       0.07828998 -0.07080241 -0.06678637 0.00077477697
000130 1c 7a 0b 3c d3 89 3f bd 3a 12 17 3d a7 75 db bc
       0.008513 -0.0467623 0.036882617 -0.0267895
000140 19 77 38 3d 2a aa 83 bc 8f df f7 bc e7 7f c3 bd
       0.045035455 -0.016072351 -0.030257968 -0.0954588
000150 f4 11 ee 3d 85 da 60 3d 0f 09 05 3e 90 c2 98 bd
       0.11624518 0.054895896 0.12991737 -0.07458985
000160 2d ee 1b 3b 4a 20 f2 bc ba c3 38 bd aa f1 16 bc
       0.0023793087 -0.029556412 -0.045108534 -0.009212891
000170 e1 b1 11 3d 28 81 5e 3d 2e 63 a3 bd 08 34 a6 bd
       0.03557003 0.05432239 -0.079779014 -0.08115393
000180 f0 91 e6 3d 25 3a 8b 3d 2c 80 2d 3d ec 5a ff 3d
       0.11258304 0.067981996 0.042358562 0.12468514

allocation_head.0.weight f4 [4, 100]
000000 9f 99 97 3c e2 34 a6 3d 2d 8a 5e bd d5 96 5a bc
       0.01850587 0.08115555 -0.054330993 -0.013341625
000010 d2 d2 2d 3e ad ac db 3c bb c1 61 bc 3f 62 a2 3d
       0.16974953 0.026815737 -0.013779099 0.07928895
000020 b2 d8 88 3c 41 3c 88 3c 36 47 9c 3e eb 13 3b bd
       0.01670489 0.016630294 0.3052308 -0.045673292
000030 c7 a7 c3 bd 6d 11 b4 bd e8 1f ea bc 3f f2 dd bb
       -0.09553485 -0.08792386 -0.028579667 -0.0067732628
000040 e7 ed 21 3d 7f d5 8a 3d 67 02 92 bd df 07 37 3c
       0.039533522 0.067790024 -0.071293645 0.01117131
000050 88 6a db 3d ce d7 f3 3d e1 b0 87 bc 55 e7 f0 3d
       0.107136786 0.11906396 -0.016563835 0.11762873
000060 3a b7 1b bd ea bc 90 bc f4 38 20 3e a5 fc bd bd
       -0.038016535 -0.017668206 0.15646726 -0.09276704
000070 02 25 23 bd 9a 64 cf bc bc 03 d5 bc a5 a7 e8 3c
       -0.039830215 -0.025316525 -0.026002757 0.028400252
000080 48 bf 84 bd ac 12 a8 bd 1b af 9a bd c7 b4 b3 bd
       -0.064817965 -0.082066864 -0.0755293 -0.08774715
000090 d9 dc 71 be 01 0c 40 3e 2f 19 16 3e 23 1d 52 3d
       -0.23619403 0.18754579 0.14658044 0.05129732
0000a0 ce 74 9b bd 40 58 03 bd 54 af 28 3c 1f fa dc bd
       -0.07590638 -0.032066584 0.010295708 -0.10789894
0000b0 e2 c1 a0 bd 8f 6f 57 bd a1 ca c8 3d 2d 4d 8b 3d
       -0.0784948 -0.052596625 0.098042734 0.068018295
0000c0 d3 a7 35 bd b5 07 82 3b b1 0f 93 3d b2 02 ca 3d
       -0.044349503 0.003968204 0.07180727 0.09863795
0000d0 0b 4c 8c be 78 a5 69 3c 2f 0a 73 3d 33 5d 07 be
       -0.27401766 0.014260642 0.059335884 -0.13219146
0000e0 b1 74 b3 3c 3e 31 2d be c4 95 ba bc fb b6 26 be
       0.021906229 -0.16913316 -0.022776492 -0.16280739
0000f0 1c ee b2 3d 93 b9 24 3d 42 ad ae bd 16 e0 02 3c
       0.08736822 0.04021604 -0.0852914 0.007987997
000100 bd 90 d9 3d ed 8b 15 be d5 d4 99 bc e2 26 83 3d
       0.1062331 -0.14604159 -0.018778244 0.06403901
000110 2e d1 81 3d 13 d7 c0 3d df d2 9d bd c3 1b 7c be
       0.06338726 0.09416022 -0.07706236 -0.24619965
000120 5a c0 89 3d da af a9 3d 99 e7 a5 3d e8 b4 b4 3d
       0.06726141 0.08285494 0.08100814 0.08823568
000130 7e ac 05 be c4 35 a0 be e0 de 6a 3d bd 1f 80 bd
       -0.13054082 -0.3129102 0.057341456 -0.062560536
000140 97 a6 03 be 41 cf 0f 3e 89 cb c4 3d b8 fe bf bd
       -0.12856518 0.14043905 0.09609134 -0.093747556
000150 e9 db 1f bd f7 cc 42 bd f8 f0 8f bd 4a 7f 3b bd
       -0.039028082 -0.04755875 -0.07028383 -0.04577569
000160 98 a5 ab 3c 1b d5 fe bd 20 b7 b4 3d 3d e9 d4 3c
       0.020952985 -0.124429904 0.08823991 0.025990123
000170 f2 c6 80 3d 00 69 a9 3d 64 b1 b8 bd 40 05 79 bd
       0.06287946 0.0827198 -0.090182096 -0.060796022
000180 c9 9e 30 3c e4 cf b4 3c 98 54 a3 bd ac 75 88 bd
       0.010780045 0.022071786 -0.07975119 -0.06663069
000190 6d 2e 0b 3e fd b9 0d 3e c8 4e 13 bd 9e 40 4f bb
       0.13591929 0.1384048 -0.035963804 -0.0031624208
0001a0 20 6b 07 bf 33 97 eb ba c7 b9 95 bd 4f f9 9d bd
       -0.52897835 -0.0017974138 -0.07310825 -0.077135675
0001b0 0f 79 9d 3c c3 48 ab 3b 9f 62 81 3e fa 67 cc 3d
       0.019222764 0.0052271797 0.25270554 0.099807695
0001c0 f3 41 79 bd 16 67 42 3e 58 d5 97 3d ca 62 a9 bd
       -0.06085391 0.18984637 0.07413739 -0.08270796
0001d0 d3 e2 cb bc cb 43 2c 3d 56 de 3c 3c 40 53 96 3d
       -0.024888432 0.04205684 0.011527618 0.073400974
0001e0 e7 44 85 3d cc c7 9b 3d 62 ae 8f bd 80 a9 9a 3c
       0.06507283 0.076064676 -0.07015683 0.018879652
0001f0 e4 04 e3 bd 25 5c 8f bd cc c9 87 bc 8a 85 47 bd
       -0.11084917 -0.06999997 -0.016575716 -0.048711337
000200 e1 89 02 bd c8 db a7 bd 2f 96 7a 3d 1b 04 8e 3d
       -0.031869773 -0.08196217 0.061178382 0.06934377
000210 92 6b 85 bd 9f 37 ad bb 0a 5a ac 3d 4d 39 8f bb
       -0.06514658 -0.0052861716 0.08415611 -0.0043708445
000220 4f 69 24 be d8 5b 72 bd 7c 76 bf bc 98 08 8d 3d
       -0.16055797 -0.05916962 -0.023371927 0.06886405
000230 44 b6 0c 3e fc bc a8 3d 86 07 b5 3d 01 4a 8b bc
       0.13741404 0.08239171 0.088393256 -0.017003061
000240 df e8 d4 bd 7f 1c 8b bd cf af a1 3d 20 b7 3d bc
       -0.10395979 -0.067925446 0.07894861 -0.011579305
000250 17 97 4b bd 2a be 8e bd 65 c2 ae bd c2 f9 a5 bd
       -0.049704637 -0.06969865 -0.085331716 -0.08104278
000260 2e b9 bf be 40 b5 6c 3d bc 9b 80 3d 0a 34 ed bd
       -0.37445968 0.05779004 0.06279704 -0.11582191
000270 31 d6 94 3d e7 51 d4 bd 80 a9 41 bc a2 3d 45 be
       0.07267416 -0.10367184 -0.011820197 -0.19261792
000280 b4 3f 65 3c 0d d8 a0 bc af 13 c1 bd 21 39 de bd
       0.013992239 -0.019634271 -0.094275825 -0.1085074
000290 80 b5 f0 3c 50 31 1c be 95 ce 7e bd 84 86 cd 3d
       0.029383421 -0.15253186 -0.06220873 0.100354224
0002a0 18 13 bf bd da 05 de 3b e8 1a b4 3d 4e a6 46 be
       -0.09329814 0.0067756 0.087941945 -0.19399378
0002b0 33 ae f5 3d 93 56 14 3d 15 43 c3 bd 90 93 81 3d
       0.119961165 0.036215376 -0.09534279 0.063269734
0002c0 0a f2 d5 bd d5 4a 88 3c 67 7e f7 3d 77 7f a5 bd
       -0.10446556 0.016637245 0.12084656 -0.080809526
0002d0 17 e8 99 bb ea 69 0b 3d 11 df d0 3d 93 ee 0a 3d
       -0.0046968567 0.034036554 0.101987965 0.03391893
0002e0 27 f0 9a 3c 36 bb d2 3c 15 2e 52 bd 40 48 ac bc
       0.018913342 0.025724035 -0.05131348 -0.021030545
0002f0 18 8c cb bd e1 a4 0b 3d df 3b 04 3e c9 fd 26 3e
       -0.0993883 0.034092788 0.12913464 0.16307749
000300 2b b0 a2 bd eb f2 90 3d ab 9c 7c bd fa 78 61 bd
       -0.079437576 0.07077583 -0.061672848 -0.055047013
000310 ad 0b a2 bd 38 4b f6 3d d5 69 cd 3c b7 80 07 bc
       -0.07912383 0.120260656 0.025074879 -0.008270434
000320 d4 8a 76 bc ff 59 17 3d 1e 1a d4 bd 53 ff 03 be
       -0.015047748 0.03695106 -0.10356544 -0.12890367
000330 86 5c 88 be ab 58 8f 3d 85 d3 c5 bc 1a bf ac 3d
       -0.2663309 0.06999334 -0.024148712 0.08434887
000340 1c 5e 2d 3c 6c 44 b8 3c f8 21 ac be 19 c1 cc 3b
       0.010581519 0.022493564 -0.33619666 0.006248605
000350 67 90 4d 3c 7a 3f 95 ba 40 a6 5a bc 33 5b be 3c
       0.012546635 -0.0011386715 -0.013345301 0.023236847
000360 13 32 a0 bd 2e 95 76 bd a4 8a ac 3d 24 22 0b be
       -0.07822051 -0.060200863 0.08424881 -0.13587242
000370 35 bc 9f bd 0b d1 80 3d 31 83 03 3d c0 b3 23 bd
       -0.077995695 0.06289872 0.032107536 -0.039966345
000380 69 a2 84 bd fa 4e 9f 3d 7a 70 0c be a7 8a e8 bc
       -0.0647629 0.077787355 -0.13714781 -0.028386427
000390 47 24 68 bd 5a a0 72 bc b4 b2 42 bc 2a da 0f 3e
       -0.05667522 -0.014808739 -0.011883426 0.14048067
0003a0 33 89 4c 3c 04 9e 00 3e 92 e1 88 3d 36 94 8d bd
       0.012483883 0.12560278 0.06683649 -0.069130346
0003b0 b9 03 64 3e 02 69 30 be 2c ce 13 be f3 c2 d9 3c
       0.22267045 -0.17227557 -0.14434117 0.026582217
0003c0 94 d9 e9 3d 99 a4 64 3d b6 75 d1 bc 87 ac 70 3c
       0.11418453 0.055821035 -0.025568824 0.014689571
0003d0 46 6c 6c 3d 46 ec c3 bd 62 fb 18 3d 96 93 bc bd
       0.057720445 -0.0956655 0.037349112 -0.09207837
0003e0 67 a6 b4 3a 0c 58 c9 bc 45 e2 77 bd 59 41 65 3c
       0.0013782502 -0.024578117 -0.06051852 0.013992631
0003f0 be f4 ca 3e 84 9f f5 bc f1 95 53 bd e6 cb 14 3d
       0.39639848 -0.02998329 -0.051656667 0.036327265

allocation_head.0.bias f4 [4]
000000 35 47 46 3d 70 69 88 bb e8 ba 01 bd 73 f8 d3 3d
       0.048407752 -0.0041629598 -0.03167239 0.10350122

payment_head.0.weight f4 [1, 100]
000000 aa 0e ae 3c c6 1f 11 be 8a 45 6f 3e b9 f0 07 3e
       0.021247227 -0.14172277 0.23366371 0.13275422
000010 62 ab 2f be 2d 42 66 3d 87 db 90 bd 60 61 80 bc
       -0.17155221 0.056215454 -0.070731215 -0.015671432
000020 36 46 0f 3e 9b 94 59 3c 9d 8b 0b bd 95 91 72 3e
       0.13991627 0.013280059 -0.034068692 0.23688348
000030 2d 5e de bc 0e 90 a3 bc 60 8e f4 3d 43 03 1a 3e
       -0.027144516 -0.019966152 0.119412184 0.15040307
000040 e7 70 af 3b 9d 4a 24 be 2d c3 43 3e 5f ab 47 3d
       0.005354035 -0.16044088 0.19117422 0.048747417
000050 f3 14 0c 3e 76 8a 00 be b2 41 91 3e dc 2b c8 bd
       0.13679866 -0.12552819 0.28370434 -0.097739905
000060 02 3c fd 3d 60 f1 20 3e 14 a1 89 bd 63 42 18 3d
       0.12364961 0.15717077 -0.06720176 0.037172686
000070 dd 2a 3f 3e 80 eb d6 3b bc 41 f8 bd 2f 95 2c bd
       0.18668695 0.0065588355 -0.12121913 -0.04213446
000080 47 e2 b2 3c ed df 08 3f ef 84 22 3e 35 07 c6 bd
       0.021836413 0.53466684 0.15871023 -0.096693434
000090 f3 cb e5 bc 14 df 23 be 5f c3 3d bd 6d 6c 7f 3d
       -0.028051352 -0.16003066 -0.0463289 0.062359262
0000a0 18 5a d6 bd 65 05 87 3d 3d 21 0a bd d3 73 3d 3e
       -0.10466403 0.06592826 -0.033723105 0.18501215
0000b0 7d 64 20 3e ed 88 40 3e b3 43 08 3e a2 9f b5 3d
       0.15663333 0.18802233 0.13307075 0.08868338
0000c0 00 92 cb 3d c8 44 30 3d aa ee 97 bd 8a 26 1b 3e
       0.09939957 0.043034345 -0.074185684 0.1515142
0000d0 4d cb 25 bd 64 88 45 3d be 9a 9d bd 9a 78 99 3e
       -0.040477086 0.048225775 -0.0769553 0.29974824
0000e0 63 69 3b be 28 df da 3e 80 d7 0a 3e bc 0c ab bd
       -0.1830192 0.4274838 0.13558769 -0.08352038
0000f0 e8 1f dc 3c 47 e0 5b 3d c5 a1 33 3e 75 e9 b7 3e
       0.026870683 0.053680684 0.17542179 0.359203
000100 d1 5e 9d bd f3 39 af bb ac 9f 83 3e 76 72 de 3d
       -0.076841004 -0.0053474843 0.25707757 0.108616754
000110 44 d2 0f 3e d7 5f 39 bd cd 9c 0f 3d 2d 8c 27 3e
       0.14045054 -0.045257416 0.035061646 0.16362067
000120 a4 fa 02 be 63 1f 3f 3d 8c 6c 58 bd 8a 0e 45 3d
       -0.12790924 0.046660792 -0.052837893 0.04810957
000130 b9 c8 18 3e fc 4f b7 be 33 66 15 be f7 be 55 3d
       0.1492032 -0.3580321 -0.14589767 0.05218407
000140 bc 5e 35 3e 29 f2 b1 3d 01 ae cb 3c 48 0e 4a 3d
       0.1771192 0.086887665 0.024863245 0.049330026
000150 9f b3 7d 3d 19 c4 4b 3e e9 c9 2b 3e 8d be 59 3c
       0.06193888 0.19899024 0.16776241 0.01329006
000160 d0 98 1d 3d 75 79 3f 3e 57 0c da 3d a1 84 5d bc
       0.03847581 0.18698676 0.10646885 -0.013520391
000170 08 ef 76 bd 4e 20 c6 bd 99 6a a3 3d 11 09 b8 3d
       -0.06028655 -0.096741304 0.07979316 0.08986104
000180 04 4c 33 3e 5b 34 62 3e 2a d3 20 3e 19 05 1e 3e
       0.17509466 0.22090285 0.15705553 0.15431632
