result/1x2_sparsemax_in_linsigpmt_scratch_94_checkpoint.pt (torch, 88519 bytes, 9 tensors)

nn_model.0.weight f4 [100, 2]
0	0xbe985136	-0.2974946
1	0x3eb95cfa	0.36203748
2	0x3e9f7e52	0.31151062
3	0xbe840d0d	-0.25791207
4	0x3e321490	0.17390656
5	0xbe808bdc	-0.25106704
6	0x3ed5bb38	0.417444
7	0x3e211d3a	0.15733805
8	0xbe717c28	-0.23582518
9	0x3e26d38a	0.16291633
10	0x3ea27b60	0.31734753
11	0xbe646189	-0.22302832
12	0x3d250461	0.04028738
13	0x3eb4aca4	0.35287964
14	0xbd90162e	-0.070354804
15	0x3e5c5c7e	0.21519658
16	0xbe2ea355	-0.17054494
17	0x3e7dc9f1	0.24784066
18	0xbed62a12	-0.41828972
19	0xbea90c2a	-0.33017093
20	0xbe65658d	-0.2240202
21	0x3f2780cc	0.65430903
22	0xbdd35899	-0.10319633
23	0xbbd2bde9	-0.0064313305
24	0xbef0881f	-0.46978852
25	0x3f310509	0.6914831
26	0x3f221a11	0.63321024
27	0xbf059988	-0.52187395
28	0xbebdd04c	-0.3707298
29	0xbea3daa3	-0.32002744
30	0xbd9d6a67	-0.0768631
31	0xbe7246d9	-0.23659839
32	0xbeecf889	-0.46283367
33	0xbe81da6a	-0.2536195
34	0x3df7587e	0.120774254
35	0xbec2cd2d	-0.38047162
36	0x3e207161	0.1566825
37	0xbe260add	-0.16215082
38	0xbeaf6e40	-0.34263802
39	0x3dc6f497	0.097146206
40	0x3effd4c8	0.49967027
41	0xbf25aa69	-0.6471315
42	0xbd0e9897	-0.03481349
43	0xbe90bb10	-0.28267717
44	0x3f5bf67f	0.85923
45	0xbef6d597	-0.4820983
46	0xbf088cfb	-0.5334012
47	0x3f389e46	0.72116506
48	0xbee50ee8	-0.44737935
49	0x3e0ad291	0.13556887
50	0xbd79f81a	-0.061027624
51	0xbe18882e	-0.14895698
52	0xbe5959e2	-0.21225694
53	0x3ecfd518	0.40592265
54	0x3d0a6f4f	0.03379756
55	0xbf303e39	-0.68844944
56	0xbe4e9a9d	-0.20176168
57	0xbe722194	-0.23645622
58	0x3eb62f0d	0.35582772
59	0xbeea4995	-0.45759264
60	0x3f36c428	0.7139306
61	0xbe1affc8	-0.15136635
62	0xbe76997b	-0.24081986
63	0x3f122a29	0.5709558
64	0x3e2861b5	0.16443522
65	0x3f00f9a5	0.5038093
66	0x3ef276e4	0.4735633
67	0xbe6995cc	-0.22811049
68	0xbef033e2	-0.46914583
69	0xbd577e87	-0.0526109
70	0x3f175a8f	0.59122556
71	0x3c866103	0.01640368
72	0xbed0a1fb	-0.4074858
73	0x3ed0e8ad	0.40802518
74	0x3f3c8500	0.7364044
75	0xbe31f7bf	-0.17379664
76	0xbf15e366	-0.5855011
77	0xbf243202	-0.64138806
78	0x3e38dacc	0.18052214
79	0xbd3dcf0c	-0.046340033
80	0xbee0d765	-0.43914333
81	0x3dbbedb2	0.09176196
82	0x3eae0b4f	0.33993003
83	0x3f1798ac	0.59217334
84	0x3ef4c9e4	0.4781028
85	0xbe7244d8	-0.23659074
86	0xbf1f9ded	-0.6235035
87	0xbf2392c1	-0.63895804
88	0x3f3b41c8	0.7314725
89	0x3ebd94b7	0.37027523
90	0x3e9dd0b9	0.30823305
91	0xbf1c9f2a	-0.61180365
92	0x3f361d30	0.71138287
93	0x3f32e2e1	0.6987744
94	0x3f17ad22	0.59248555
95	0xbf17b0ce	-0.5925416
96	0xbe6acbbd	-0.22929282
97	0xbed70d40	-0.42002296
98	0x3f05c3d2	0.52251923
99	0xbedfe8e3	-0.43732366
100	0xbeafa62e	-0.34306473
101	0x3ec073bd	0.375883
102	0xbea779f0	-0.32710218
103	0xbeb24fe3	-0.34826574
104	0xbde5dfc6	-0.11224322
105	0xbdd77a09	-0.10521323
106	0xbf0ddd5e	-0.55415905
107	0x3f3fcf3e	0.749256
108	0xbe9fb3ff	-0.31192014
109	0x3e806ba6	0.2508213
110	0x3f1f6ca7	0.62275165
111	0x3ea68c8d	0.32529107
112	0x3e17502d	0.14776678
113	0x3f2052cb	0.6262633
114	0x3dc2ab84	0.0950537
115	0xbea77fe5	-0.32714763
116	0x3f3cf699	0.7381378
117	0x3e61be12	0.22045162
118	0xbeaedcaf	-0.34152743
119	0xbe045e34	-0.1292656
120	0xbeea3297	-0.45741722
121	0x3f4ae027	0.7924828
122	0xbdef2822	-0.116775766
123	0xbf2500ee	-0.64454544
124	0xbcb51014	-0.022102393
125	0x3eeb64a2	0.45975214
126	0x3e3c1d98	0.18370664
127	0x3e64f4da	0.22359028
128	0x3c878d86	0.016546976
129	0x3ecbe6b8	0.39824462
130	0xbdeb7ee5	-0.114988126
131	0xbe5bf7da	-0.21481267
132	0xbf293347	-0.6609387
133	0xbf085e59	-0.53268963
134	0x3e7b3a52	0.24533966
135	0xbedd30d7	-0.43201324
136	0x3e080d2b	0.13286273
137	0x3e885209	0.26625088
138	0x3b8a1239	0.004213598
139	0xbeff05f7	-0.49809238
140	0x3f2b84bf	0.6699943
141	0x3ba13b3e	0.0049203923
142	0x3f062d9f	0.5241336
143	0xbf211878	-0.6292796
144	0xbe2e2cfb	-0.17009346
145	0x3ec4f010	0.38464403
146	0xbe91e5ee	-0.28495735
147	0x3f19666b	0.599219
148	0xbef923a6	-0.4866001
149	0xbf1803cf	-0.5938081
150	0xbea3400b	-0.31884798
151	0x3dea1845	0.1143041
152	0x3f1f02d8	0.62113714
153	0xbea497a7	-0.32146952
154	0x3e95c05f	0.2924833
155	0xbe750248	-0.23926651
156	0xbec0ff1b	-0.3769463
157	0x3edc65be	0.43046373
158	0xbf0c4995	-0.5479978
159	0x3d99d036	0.07510416
160	0x3efd5c91	0.49484685
161	0xbe9dab79	-0.30794886
162	0x3f051b31	0.51994616
163	0xbeba8b95	-0.36434618
164	0x3f11b6b6	0.5691942
165	0xbf2f1b02	-0.68400586
166	0xbda86cea	-0.08223899
167	0xbdeec10e	-0.11657916
168	0x3e936e3b	0.28795037
169	0x3e950f7d	0.2911338
170	0x3efeb0be	0.4974422
171	0xbed2b087	-0.41150305
172	0x3d630bdb	0.055431228
173	0x3f0353e4	0.5129988
174	0xbe562049	-0.20910753
175	0x3f1601c6	0.58596456
176	0xbe856a5a	-0.26057702
177	0xbda40e5b	-0.080105506
178	0x3ba26519	0.0049558994
179	0x3e91ee02	0.28501898
180	0x3efe2d01	0.4964371
181	0xbe63d032	-0.22247389
182	0xbf15f894	-0.58582425
183	0x3eb36329	0.3503659
184	0x3e858b77	0.26082966
185	0x3e79255e	0.2433066
186	0xbec8260b	-0.39091524
187	0x3f1109b5	0.56655437
188	0x3f3a133f	0.7268562
189	0x3e0ec6cf	0.13943027
190	0xbf2eea69	-0.6832643
191	0x3e898b69	0.26864174
192	0xbf06378e	-0.5242852
193	0x3e2671f7	0.16254412
194	0x3cf40789	0.02978875
195	0xbec357d6	-0.3815295
196	0x3e7c1eda	0.24621144
197	0xbf21e8dc	-0.6324594
198	0x3e48a24f	0.19593166
199	0xbf3948d7	-0.7237677

nn_model.0.bias f4 [100]
0	0xbd655038	-0.055984706
1	0xbe372a47	-0.17887221
2	0x3f25a398	0.6470275
3	0xbf0f9131	-0.5608092
4	0x3eee8369	0.46584633
5	0xbea0a369	-0.31374672
6	0xbec932c9	-0.39296558
7	0xbf1da1af	-0.61574835
8	0xbf2616ac	-0.64878345
9	0x3f4a8ceb	0.79121274
10	0xbee2f874	-0.4433018
11	0x3e1bf411	0.15229823
12	0x3e3982c9	0.18116297
13	0x3f0c7cfe	0.5487822
14	0x3f3c5763	0.7357084
15	0x3f1bd702	0.6087495
16	0xbf061d3a	-0.52388346
17	0xbe011237	-0.12604605
18	0xbed63b5e	-0.4184217
19	0xbeced9f7	-0.4040067
20	0x3e6fc299	0.23414077
21	0x3f33e67e	0.7027358
22	0xbf13349b	-0.57502145
23	0x3f0b20de	0.54347026
24	0xbebbb47b	-0.36661133
25	0xbe0d0819	-0.1377262
26	0x3f0ff9c6	0.562405
27	0xbe23c3c9	-0.15992655
28	0x3e9a41f2	0.30128437
29	0xbefd13aa	-0.49429065
30	0x3f0f5040	0.55981827
31	0xbdf0b8a8	-0.117539704
32	0xbf2ad4ed	-0.6673115
33	0x3e237a7f	0.15964697
34	0xbf00b538	-0.5027652
35	0xbf1b6fe7	-0.60717624
36	0x3e44dd68	0.19225085
37	0x3f0ac483	0.54206103
38	0xbe4ce6fe	-0.20009992
39	0x3ea4cfe1	0.3218985
40	0x3f2612ae	0.6487225
41	0x3ee943f7	0.45559666
42	0xbef48863	-0.47760305
43	0xbd9ebf1b	-0.07751294
44	0xbe862bc2	-0.2620526
45	0xbf118fd2	-0.5686008
46	0xbd023ec0	-0.031798124
47	0x3f19005a	0.5976616
48	0x3f318bbe	0.69353855
49	0xbe893464	-0.26797783
50	0x3e8ddbae	0.27706665
51	0xbe9cbc00	-0.30612183
52	0x3f09889e	0.53724086
53	0xbea3511d	-0.31897822
54	0xbefb7dbd	-0.49119368
55	0x3de5c0a0	0.11218381
56	0x3ed3342b	0.41250739
57	0xbf23349c	-0.6375215
58	0x3f1d1912	0.6136638
59	0x3eef5868	0.46747136
60	0xbee190e3	-0.44055852
61	0xbe1bf8c0	-0.1523161
62	0x3f18b57f	0.5965194
63	0xbf0ae262	-0.5425168
64	0xbdbab676	-0.09116833
65	0x3eb7ea3a	0.35920888
66	0xbf1e969d	-0.6194857
67	0x3ee55ced	0.4479746
68	0x3ebf148e	0.3732037
69	0x3f03cc23	0.5148336
70	0xbf2cf0cd	-0.6755493
71	0x3f3f5a81	0.74747473
72	0xbed69a43	-0.41914567
73	0x3f354800	0.7081299
74	0xbf2db8f7	-0.6786036
75	0xbf214865	-0.6300109
76	0x3ee50449	0.44729832
77	0xbdc79217	-0.09744661
78	0xbd40eabb	-0.047098856
79	0xbec87b61	-0.3915663
80	0xbefe9c1a	-0.4972847
81	0xbeb9c9e4	-0.36286843
82	0xbf30574a	-0.6888319
83	0x3e725054	0.23663455
84	0x3dee2513	0.11628165
85	0x3e0aece6	0.13566932
86	0x3e5e6199	0.21716918
87	0x3f3250be	0.6965445
88	0x3ebac6cc	0.36479795
89	0xbe98cbe2	-0.2984305
90	0xbe96307d	-0.2933387
91	0xbee7a265	-0.45241085
92	0xbf00f772	-0.5037757
93	0xbe4ae822	-0.19815114
94	0xbdc4b63d	-0.09605072
95	0x3ee2998e	0.44257778
96	0xbe9abfa8	-0.30224347
97	0x3f1914b3	0.5979721
98	0xbefe090d	-0.4961628
99	0x3de29310	0.11063206

nn_model.2.weight f4 [100, 100]
0	0x3e40d30d	0.1883051
1	0x3e26b6e3	0.16280703
2	0xbce1dd63	-0.027571386
3	0x3e4754f6	0.19466004
4	0x3d1b03c5	0.03784539
5	0x3d8fec46	0.070274875
6	0xbd86087f	-0.06544589
7	0x3cdde233	0.0270854
8	0xbd8e692a	-0.06953652
9	0x3d05f638	0.032705516
10	0x3d58230f	0.05276781
11	0xbcc6c8ac	-0.02426561
12	0x3dbf078f	0.093276136
13	0x3cf4db00	0.029889584
14	0x3d684d0b	0.0567141
15	0x3dfcd035	0.123444
16	0xbcfa674d	-0.030566836
17	0x3d77a499	0.060459707
18	0xbcea50ad	-0.028602922
19	0xbc6f5373	-0.014607298
20	0xbc428c7f	-0.011874317
21	0x3ccba913	0.024860894
22	0x3d0dc45e	0.0346111
23	0x3d4a6fac	0.049422905
24	0x3b76f133	0.0037680387
25	0x3d81d215	0.06338898
26	0x3c6d6da1	0.01449147
27	0x3c244c8d	0.010028017
28	0x3e856691	0.26054814
29	0xbdab82b2	-0.083745375
30	0x3da67d28	0.081293404
31	0x3c9e7aa6	0.019345593
32	0xbccf41e6	-0.025299978
33	0x3c0fbe70	0.008773431
34	0x3cd63d00	0.026152134
35	0xbd21cb25	-0.039500374
36	0x3e16f1c4	0.14740664
37	0x3d3c7714	0.046012
38	0x3d1ab890	0.03777367
39	0x3da0b4e0	0.07846999
40	0xba1b0f28	-0.0005915039
41	0x3d9290e0	0.07156539
42	0x3de4c44b	0.111702524
43	0x3b96cb00	0.004601836
44	0x3c079a63	0.008276555
45	0x3b6e2100	0.0036335588
46	0x3d6f6f92	0.05845601
47	0xbc067f89	-0.008209118
48	0xbcfea67c	-0.031085245
49	0x3def41fe	0.11682509
50	0xbe07d7a7	-0.13265859
51	0x3ad22400	0.0016032457
52	0xbca568bd	-0.020191545
53	0x3e31270e	0.17300054
54	0xbdbead43	-0.09310391
55	0x3d6ba1b8	0.057527274
56	0x3e061dad	0.13097258
57	0x3ca5c1cd	0.020234013
58	0x3cfb3ada	0.030667711
59	0x3dbd6f9d	0.09249804
60	0x3d18a38e	0.037265353
61	0xbc034a73	-0.008013356
62	0xbc0e856c	-0.008698802
63	0xbc622ab3	-0.013804126
64	0x3d38880b	0.045051616
65	0x3c927b4e	0.017881062
66	0xbc9ab9f3	-0.018887496
67	0xbd92c3d5	-0.07166258
68	0x3d2fc5ee	0.04291337
69	0x3d3f4a62	0.046701796
70	0x3e437dba	0.1909093
71	0x3ddddeb6	0.10833494
72	0x3dc7114a	0.097200945
73	0xbcceb260	-0.02523154
74	0xbbcc52b3	-0.0062354445
75	0xbd241dad	-0.040067364
76	0xbd58da2c	-0.05294244
77	0x3dd306cf	0.10304033
78	0x3dcdfb6e	0.10057722
79	0x3d6ed263	0.05830611
80	0x3c82672c	0.015918337
81	0x3d99d74a	0.07511766
82	0xbda2b595	-0.0794479
83	0x3b330a45	0.0027319354
84	0x3dc9baf0	0.098501086
85	0xbe00c319	-0.12574424
86	0x3dedba9e	0.1160786
87	0x3d7ab130	0.061204135
88	0x3d944b3c	0.07240912
89	0xbcf61112	-0.030037437
90	0x3e2a457c	0.16628069
91	0xbdb58d7d	-0.088648774
92	0xbdb4446f	-0.08802115
93	0x3e4bcab3	0.19901542
94	0x3cafb17c	0.021446936
95	0x3debcfa3	0.11514213
96	0x3dc93f88	0.09826571
97	0x3deef893	0.116685055
98	0x3d89804a	0.06713922
99	0x3e10891c	0.14114803
100	0xbc536700	-0.012902975
101	0xbd9eef35	-0.07760469
102	0xbd180dfd	-0.037122715
103	0xbc37ef27	-0.011226452
104	0xbd5d57a3	-0.054038655
105	0x3d516027	0.05111709
106	0x3d0fc7e0	0.035102725
107	0x3c842df3	0.016135192
108	0x3cc5e2f3	0.02415607
109	0x3db3e833	0.08784523
110	0x3d15306d	0.036423136
111	0xbdb398e2	-0.087693945
112	0xbd94a90f	-0.07258808
113	0x3d3487f3	0.044074964
114	0x3c5f47a7	0.013627923
115	0x3d47c22d	0.048769165
116	0xbdcc89b0	-0.09987199
117	0xbdbd00ef	-0.09228694
118	0x3d7b2d73	0.06132264
119	0x3d82ffdb	0.06396457
120	0xbdb948ea	-0.090471104
121	0x3d1b7a67	0.03795853
122	0xbd9feaba	-0.078084424
123	0x3d9b18bd	0.07573078
124	0x3d008750	0.031379044
125	0x3dca80ea	0.0988787
126	0xbdc9ee60	-0.098599195
127	0xbdc527f5	-0.09626762
128	0x3d8a7738	0.067610204
129	0x3db5d380	0.08878231
130	0x3d7af427	0.061267998
131	0x3d88283b	0.06648298
132	0xbdac7f47	-0.08422714
133	0x3d943caf	0.07238137
134	0xbdc15c80	-0.09441471
135	0x3cb702ba	0.022340167
136	0xbd8626b0	-0.06550348
137	0xbd22b0f7	-0.039719548
138	0x3c910e07	0.017706884
139	0xbd210bea	-0.039318003
140	0xbc819dc0	-0.015822291
141	0xbdc21d4b	-0.094782434
142	0xbdc119b7	-0.09428733
143	0x3d1ea9f7	0.03873631
144	0xbd2d5ff7	-0.042327847
145	0xbd793247	-0.060838964
146	0xbd219ef3	-0.039458226
147	0xbda77023	-0.08175685
148	0xbda3b798	-0.07994002
149	0x3d7517e3	0.059837233
150	0x3d502d0d	0.050824214
151	0x3c5a3d9a	0.013320351
152	0xbd5fbf7a	-0.054625966
153	0x3d08463a	0.0332701
154	0x3b933600	0.0044925213
155	0xbd925d70	-0.07146728
156	0x3cb04893	0.021518981
157	0x3dba7aba	0.091054395
158	0xbdc9714d	-0.098360635
159	0xbdcba6ca	-0.09943922
160	0x3c51eb80	0.012812495
161	0x3d9a380f	0.075302236
162	0xbd793cc7	-0.060848977
163	0x3cb4561a	0.022013713
164	0x3d8ff8ad	0.07029853
165	0x3cfc92a0	0.030831635
166	0x3cb148a0	0.021641076
167	0x3dcc5593	0.099772595
168	0x3d856bef	0.06514727
169	0xbd665ec0	-0.056242704
170	0x3c0d9e1a	0.008643651
171	0x3d5140da	0.051087238
172	0x3db49d75	0.08819095
173	0xbdcbc323	-0.09949329
174	0x3d5dccf3	0.054150533
175	0xbcedd700	-0.029033184
176	0xbdc88b65	-0.097922124
177	0x3cb5d753	0.022197401
178	0xbd5efdea	-0.05444137
179	0x3c682e67	0.014171219
180	0xbd84f73d	-0.064924695
181	0xbd9a1e32	-0.075252905
182	0xbc0b051a	-0.008485103
183	0xbd09985d	-0.03359257
184	0x3d6f8f83	0.058486473
185	0x3c0d4280	0.008621812
186	0x3d9fdbc0	0.07805586
187	0x3c998540	0.018740296
188	0xbd03b627	-0.032156136
189	0x3d8ab7ca	0.06773336
190	0x3bb30f9a	0.0054645063
191	0x3c99c1cd	0.01876917
192	0xbd03bc93	-0.03216226
193	0x39bc2800	0.00035887957
194	0xbc9d829a	-0.019227315
195	0xbc0b4ada	-0.008501733
196	0xbd9fb823	-0.07798793
197	0xba213733	-0.0006149888
198	0xbda9fe3a	-0.08300443
199	0xbcb03c33	-0.02151308
200	0x3d875c30	0.0660938
201	0xbd9f728f	-0.07785522
202	0xbd9b2e39	-0.07577176
203	0xbcc80787	-0.024417652
204	0xbd1283be	-0.03577017
205	0x3c8aae27	0.016928745
206	0x3cd73e30	0.02627477
207	0x3d4fb4ed	0.050709654
208	0xbd8d152f	-0.06888806
209	0xbc7cd399	-0.015431308
210	0x3d6ecc67	0.058300402
211	0x3d9ff553	0.07810464
212	0xbc7fc933	-0.0156119345
213	0xbd87a6a9	-0.06623585
214	0x3ca6dc81	0.020368816
215	0x3d46fe0d	0.048582125
216	0xbd7fe5c7	-0.062474992
217	0xbd6db02d	-0.058029342
218	0x3d350ae0	0.044199824
219	0xbbe5979a	-0.0070065977
220	0xbdd2720d	-0.1027566
221	0xbd873924	-0.066026956
222	0x3d261b33	0.040553283
223	0xbd2d1893	-0.042259764
224	0x3d8d5be2	0.06902291
225	0x3da1e70f	0.07905399
226	0x3bcb0cfe	0.006196617
227	0xbc018e5a	-0.007907474
228	0xbd243ae8	-0.04009524
229	0xbba5b1b3	-0.005056584
230	0x3c213a76	0.009840598
231	0xbdab574b	-0.08366259
232	0xbc7497ef	-0.014928802
233	0xbdbb8084	-0.09155372
234	0x3d7b64dd	0.061375488
235	0xbd826c90	-0.06368363
236	0x3daa13b0	0.08304536
237	0xbd0bd6db	-0.03414045
238	0xbd6aa653	-0.057287525
239	0x3d228bf5	0.039684255
240	0x3bd686f9	0.0065468517
241	0x3d797576	0.060903035
242	0x3d2afee0	0.041746974
243	0xbdc54abb	-0.09633394
244	0x3d9352bf	0.07193517
245	0xbc9a4447	-0.018831385
246	0xbd564e8f	-0.052321013
247	0x3d61d48a	0.055134334
248	0x3d84361f	0.06455635
249	0xbdc4f146	-0.09616332
250	0xbc8e5f31	-0.017379375
251	0x3da82ee0	0.08212066
252	0x3cf8c12e	0.030365553
253	0x3dc05f43	0.0939317
254	0xbd0c5e90	-0.03426987
255	0xbd81fedd	-0.063474394

nn_model.2.bias f4 [100]
0	0x3c479c1d	0.012183216
1	0xb97c5ccd	-0.00024067164
2	0xbd9dc29e	-0.07703136
3	0x3d4a1af3	0.049342107
4	0xbd9c02ad	-0.07617698
5	0x3ce471ea	0.02788635
6	0xbd946cdd	-0.072473265
7	0xbcdb9167	-0.026802732
8	0x39fc1aa2	0.00048085029
9	0x3ce9fdb5	0.02856336
10	0xbdcccf49	-0.10000474
11	0x3d6203cb	0.0551794
12	0x3c7b8ce4	0.015353415
13	0xbd830916	-0.063982174
14	0x3d132781	0.035926346
15	0xbd58c660	-0.05292356
16	0xbd699ad8	-0.057032436
17	0xbc8a129a	-0.016854573
18	0x3d7f9b91	0.06240422
19	0x3b6f9533	0.0036557436
20	0xbd90f99b	-0.070788585
21	0x3d8990fc	0.06717107
22	0x3cb264bc	0.02177655
23	0xbd94f919	-0.07274074
24	0x3d0734bd	0.03300928
25	0xbda7be2f	-0.081905715
26	0x3d6c8976	0.05774828
27	0x3d7de3c1	0.06198478
28	0x3d9b44e3	0.075814985
29	0xbdd12ef6	-0.10214035
30	0x3d4f38b9	0.050591204
31	0xbc167273	-0.00918256
32	0xbcb17567	-0.021662427
33	0x3cff7245	0.031182418
34	0xbdb85fe8	-0.09002668
35	0xbd27e809	-0.04099277
36	0xbdba9aab	-0.09111532
37	0xbd104e0a	-0.035230674
38	0x3cb594d3	0.022165691
39	0x3d2907fc	0.04126738
40	0x3d65b1af	0.056077655
41	0xbb248ea2	-0.002510943
42	0x3bcdb792	0.006277987
43	0x3d5c8e6e	0.05384677
44	0xbd5b8002	-0.053588875
45	0xbdc2e782	-0.09516813
46	0xbd02d6fe	-0.031943314
47	0xbd59556f	-0.05305999
48	0x3dd454de	0.1036775
49	0x3c84e5bc	0.016222827
50	0x3c6695ca	0.014073798
51	0x3d70b5e1	0.058767203
52	0xbdb98b36	-0.090597555
53	0xbd570373	-0.052493524
54	0xbdbdd840	-0.09269762
55	0xbc96254f	-0.018328337
56	0xbd908ddb	-0.07058307
57	0xbb8d431a	-0.0043109776
58	0xbd8048e8	-0.06263906
59	0x3d5e02fc	0.054202065
60	0xbdadbd6a	-0.084833935
61	0xbd761098	-0.06007442
62	0x3d74347a	0.059620358
63	0x3da5e817	0.08100908
64	0xbb856ec7	-0.0040720436
65	0xbd453ac8	-0.04815176
66	0xbdd1bc2b	-0.10240968
67	0x3dd22dcd	0.10262642
68	0x3aff12cd	0.0019460559
69	0xbc8b7813	-0.01702503
70	0xbc81808e	-0.01580837
71	0xbd149e13	-0.036283564
72	0x3d2cb190	0.042161524
73	0xbd89d90e	-0.06730853
74	0xbc9b388c	-0.018947862
75	0x3d763bd1	0.06011564
76	0xbcb51f33	-0.022109604
77	0x3dad83d4	0.0847241
78	0x3d80abdf	0.06282782
79	0xbdc3cf8c	-0.09561071
80	0x3cc03cd3	0.023466503
81	0xbc07fe8d	-0.008300436
82	0xbce282b0	-0.027650207
83	0xbd3f8bc0	-0.046764135
84	0x3da130e6	0.07870655
85	0x3d70ef9a	0.05882225
86	0x3db7ca9a	0.0897419
87	0x3ddbefb4	0.10739079
88	0x3d79dfdb	0.0610045
89	0xbd2cbd8f	-0.042172965
90	0x3d43bf10	0.047789633
91	0xbc8b9d1b	-0.017042687
92	0x3dfc2977	0.12312596
93	0x3df9ffee	0.12207018
94	0x3da8559f	0.08219456
95	0x3ce3d969	0.02781363
96	0xbd94b022	-0.07260157
97	0xbd24547d	-0.040119637
98	0xbc84c45a	-0.016206909
99	0xbd9cbef7	-0.07653611

nn_model.4.weight f4 [100, 100]
0	0x3e162a45	0.14664562
1	0xbd56c417	-0.0524331
2	0xbc0a7f8f	-0.008453264
3	0xbce3a90d	-0.02779057
4	0x3d0992e4	0.03358735
5	0xbd43fd31	-0.047848884
6	0x3b587533	0.003302884
7	0x3da7c420	0.08191705
8	0xbc59e29f	-0.01329866
9	0x3d4d2d33	0.050091933
10	0x3d4e8385	0.050418396
11	0x3e05444d	0.13014336
12	0xbd984e85	-0.074368514
13	0xbd37e5a1	-0.044896726
14	0xbd3c53f9	-0.04597852
15	0xbd93f058	-0.07223576
16	0xbdc662bf	-0.09686803
17	0x3d057603	0.032583248
18	0x3da66f35	0.0812668
19	0x3bd6fdb3	0.006561005
20	0x3c0a8040	0.008453429
21	0xba7cef39	-0.0009648684
22	0xbd490f04	-0.049086586
23	0x3def6d74	0.116907984
24	0x3d2258dd	0.039635528
25	0xbdaf57d3	-0.08561673
26	0x3cf79b0d	0.030225301
27	0x3e0b0824	0.13577324
28	0x3dacfb0f	0.08446323
29	0x3de907e4	0.11378458
30	0x3def34f9	0.116800256
31	0x3da6ad7b	0.081385575
32	0xbcaaca73	-0.020848488
33	0x3cf7dd98	0.030257031
34	0x3d0ec0b7	0.034851756
35	0xbd185381	-0.03718901
36	0x3d08283a	0.033241488
37	0xbd795cd3	-0.06087954
38	0x3d941281	0.07230092
39	0x3dadcd1d	0.08486388
40	0x3e009025	0.12554987
41	0x3e09213a	0.13391581
42	0x3dcd8482	0.100350395
43	0xbd966010	-0.07342541
44	0xbd97c12e	-0.07409893
45	0xbdae6b28	-0.08516532
46	0x3d86e07f	0.06585788
47	0x3d93a03f	0.07208299
48	0x3dd957af	0.106124274
49	0x3d5988bc	0.053108916
50	0x3de8464c	0.11341533
51	0xbccaa971	-0.024739
52	0xbd1ffef5	-0.039061505
53	0xbda8bb3f	-0.08238839
54	0xbd92bb9e	-0.071646914
55	0xbd9d1540	-0.07670069
56	0x3d70a46a	0.058750547
57	0xbce3a093	-0.027786529
58	0x3caa7d28	0.020811632
59	0x3de203e8	0.11035901
60	0x3d594860	0.053047538
61	0x3d356537	0.04428598
62	0xbd64ad99	-0.055829618
63	0x3da24916	0.07924096
64	0x3da91c04	0.08257297
65	0xbd9ddf9b	-0.07708665
66	0xbc9e6e1c	-0.019339614
67	0xbdafbd4f	-0.085810296
68	0xbccd254d	-0.0250422
69	0x3cb09da0	0.021559536
70	0xbdbdb79e	-0.09263538
71	0xbd6ca94a	-0.057778634
72	0x3cf236dc	0.029567175
73	0x3dc4a225	0.09601239
74	0xbcdefbfa	-0.027219761
75	0x3dcd0781	0.10011197
76	0xbda0bf13	-0.078489445
77	0xbce3e348	-0.027818337
78	0x3dd6be6b	0.10485538
79	0xbcbc0a6e	-0.022954192
80	0x3d87adab	0.066249214
81	0xbd76348a	-0.0601087
82	0x3d690da9	0.056897793
83	0xbcb53efa	-0.022124756
84	0x3c555d6b	0.013022761
85	0x3d1731da	0.036912777
86	0x3cfed35a	0.03110664
87	0x3ddf5c00	0.109062195
88	0x3cbd7622	0.02312762
89	0xbcfbf4ee	-0.03075644
90	0x3d987862	0.07444836
91	0x3d048e49	0.032362256
92	0xbd8979ac	-0.0671266
93	0xbcc023c4	-0.023454554
94	0x3d7cc57a	0.061711766
95	0x3d81a3d9	0.063300796
96	0xbd31b64c	-0.043386742
97	0x3d92ae7f	0.07162189
98	0x3d7854be	0.06062769
99	0x3d872a90	0.06599915
100	0x3d291590	0.04128033
101	0x3d42960a	0.04750637
102	0xbcf7d0cf	-0.030250935
103	0xbdafa0df	-0.085756056
104	0xbc945d48	-0.018110886
105	0x3d90cae2	0.07069947
106	0xbd4e22b0	-0.05032605
107	0x3ddff35f	0.10935091
108	0x3e15934a	0.14606968
109	0x3da25155	0.07925669
110	0x3d96e611	0.073681004
111	0xbd1ffa18	-0.039056867
112	0x3d4d3772	0.050101705
113	0x3c72b597	0.014813802
114	0x3d6a60aa	0.057221092
115	0xbd995187	-0.07486253
116	0x3d6b8ff5	0.057510335
117	0x3d2494fa	0.040181138
118	0x3df4e865	0.11958388
119	0xbc45e673	-0.012078869
120	0xbd31b393	-0.043384146
121	0x3ddabb5a	0.10680266
122	0xbd113548	-0.035451204
123	0x3d876954	0.066118866
124	0xbd7b4863	-0.06134833
125	0x3d92bbab	0.07164701
126	0x3d96c50f	0.07361805
127	0xbe3947cc	-0.18093795
128	0xbdc9f4e1	-0.0986116
129	0x3d6e9ede	0.058256976
130	0xbdf32d20	-0.11873841
131	0x3dbc5f07	0.091978125
132	0x3d2a8243	0.041628134
133	0xbd5cb24c	-0.053880975
134	0x3dad1858	0.08451909
135	0xbcb0ddbd	-0.021590108
136	0x3d37bf87	0.04486039
137	0x3d28a73a	0.041175105
138	0xbc6c12f4	-0.014408816
139	0xbcab7b4a	-0.020932812
140	0xba81b7e9	-0.0009896728
141	0xbdb18d6b	-0.086695515
142	0x3dfa15aa	0.12211163
143	0xbd91aab3	-0.071126364
144	0x3cae43f1	0.021272631
145	0x3d98ff4b	0.07470568
146	0xbc1729fa	-0.009226317
147	0xbe7b7c15	-0.24559052
148	0x3dadf9e0	0.084949255
149	0x3e153010	0.14569116
150	0x3cd9c1da	0.026581693
151	0xbcccb415	-0.024988214
152	0x3d3ca199	0.04605255
153	0x3d84537f	0.06461238
154	0x3d3d9df6	0.04629322
155	0x3d87df72	0.06634416
156	0x3d986530	0.07441175
157	0x3dbfb285	0.09360222
158	0xbd99dfe1	-0.07513405
159	0x3dcfaf6d	0.10140882
160	0x3d9acaaf	0.0755819
161	0x3de9a867	0.11409073
162	0x3d50331f	0.050830003
163	0x3db05bc8	0.08611256
164	0x3d8102b0	0.06299341
165	0x3d76f241	0.060289625
166	0x3e0d6c94	0.1381095
167	0xbd775dc2	-0.06039215
168	0x3d5ae730	0.053443134
169	0x3da1b8b7	0.0789656
170	0x3bbe22c0	0.0058024824
171	0x3e043b4d	0.12913246
172	0x3e1bcda6	0.15215167
173	0x3da4bc70	0.08043754
174	0xbccd5d02	-0.025068764
175	0xbbd04a01	-0.006356478
176	0x3d223130	0.03959769
177	0xbb7fbbc1	-0.0039021822
178	0xbe146218	-0.14490545
179	0xbc4a39e9	-0.012342908
180	0x3d88aecb	0.06673964
181	0xbcaefae0	-0.02135986
182	0xbc0ecc5c	-0.008715715
183	0x3dafaac5	0.085774936
184	0x3c6b7615	0.014371415
185	0x3d2620a0	0.040558457
186	0x3d8e67dd	0.06953404
187	0x3da8c54a	0.08240755
188	0x3cc9846d	0.024599278
189	0x3dc747ac	0.09730467
190	0xbbee99e7	-0.00728153
191	0xbe2415bb	-0.16023915
192	0xbe20e247	-0.15711318
193	0x3d15c0df	0.03656089
194	0xbd84af38	-0.06478733
195	0x3e09a46f	0.13441633
196	0x3d7ed5a1	0.06221545
197	0xbd9eff93	-0.07763591
198	0x3d4fb9db	0.050714355
199	0x3e17d003	0.14825444
200	0x3c3409db	0.010988678
201	0xbc966cc7	-0.018362416
202	0xbd6bdf0b	-0.057585757
203	0xbd57043d	-0.052494276
204	0x3c92cc33	0.017919635
205	0x3b5a6fac	0.0033330722
206	0xbd89701a	-0.06710835
207	0xbda06a52	-0.07832779
208	0x3cfff63c	0.031245343
209	0x3cfb980a	0.030712146
210	0x3c548e03	0.012973311
211	0x3d118e74	0.035536245
212	0xbd3ea449	-0.046543393
213	0x3d155144	0.036454454
214	0x3e21b5b4	0.1579197
215	0x3c931dc0	0.017958522
216	0xbdf2c082	-0.11853124
217	0x3d1361fa	0.03598211
218	0xbda66bdd	-0.08126042
219	0xbdbf0d22	-0.09328677
220	0x3d916048	0.07098442
221	0x3d4aa0be	0.049469702
222	0x3d106790	0.035255015
223	0x3d7770b5	0.06041022
224	0xbd1a841d	-0.03772365
225	0x3d019d93	0.031644415
226	0xbdd69b63	-0.104788564
227	0x3d8af829	0.06785614
228	0xbd141b25	-0.0361587
229	0x3ac36ebf	0.0014910324
230	0x3e089409	0.13337721
231	0x3c840ce7	0.016119434
232	0xbd4c1703	-0.049826633
233	0x3dfd5904	0.12370494
234	0x3d6f9870	0.058494985
235	0x3d53bcd4	0.051693752
236	0x3b84794d	0.0040427805
237	0x3dbda6a7	0.09260302
238	0xbd6e1a11	-0.058130328
239	0xbd8b565b	-0.068035804
240	0x3e2d32c9	0.16913904
241	0x3e2c1d58	0.16808069
242	0x3b615c17	0.0034387165
243	0x3d98085b	0.07423469
244	0xbca61e0b	-0.020277997
245	0xbcb87153	-0.022514975
246	0x3da0c536	0.07850115
247	0x3e8f928d	0.28041497
248	0xbdbc2a8a	-0.09187801
249	0xbc7979a1	-0.0152267525
250	0x3d1eee6a	0.038801588
251	0xbc9f8669	-0.019473271
252	0xbdec2e8a	-0.11532314
253	0x3d3bf49a	0.045887567
254	0xbd8ae28a	-0.0678149
255	0x3d6f0c32	0.05836124

nn_model.4.bias f4 [100]
0	0xbc0ebf7f	-0.008712648
1	0xbcf87434	-0.030328847
2	0x3e008807	0.1255189
3	0x3d984a75	0.074360766
4	0xbdaa65bb	-0.08320185
5	0x3dbf7063	0.09347608
6	0x3dd688fe	0.10475348
7	0xbdc25077	-0.09488004
8	0x3d86eeee	0.06588541
9	0xbcd821ff	-0.026383398
10	0xbd9b87a4	-0.07594231
11	0xbd77cc04	-0.0604973
12	0xbdc426ef	-0.095777385
13	0xbd8da484	-0.069161445
14	0x3dd5a751	0.10432304
15	0xbc905a60	-0.01762122
16	0xbb787767	-0.0037912966
17	0x3be11d7b	0.0068699694
18	0x3db22713	0.08698859
19	0xbc46b599	-0.012128257
20	0x3d32f395	0.04368933
21	0xbcb8b029	-0.022544937
22	0x3d88dd08	0.06682783
23	0xbcaf3f4a	-0.021392483
24	0x3df170a4	0.117890626
25	0x3c80d307	0.015725626
26	0xbd50fecc	-0.051024243
27	0x3d5a0707	0.053229358
28	0x3dbbfae3	0.09178712
29	0x3bb1879a	0.0054177763
30	0x3c81e725	0.015857289
31	0x3d50b4dc	0.05095373
32	0xbcce90ea	-0.025215585
33	0x3c553408	0.0130128935
34	0x3dc1a16d	0.09454618
35	0x3d482255	0.048860867
36	0x3cf12d6f	0.02944061
37	0x3d5c4d3b	0.05378459
38	0x3c603bb1	0.013686107
39	0xbd47e156	-0.04879888
40	0x3d8f2bfe	0.06990813
41	0x3d836807	0.06416326
42	0x3d2045f3	0.03912921
43	0x3c73f135	0.014889051
44	0x3d3cbf9e	0.046081178
45	0xbd8444a9	-0.064584084
46	0x3d2d6bbc	0.04233907
47	0x3c320add	0.010866848
48	0xbd25c453	-0.040470432
49	0xbdac4019	-0.08410663
50	0xbc1ea940	-0.009683907
51	0x3daeebbe	0.08541058
52	0xbd83c393	-0.06433787
53	0x3d424e64	0.04743804
54	0xbd1d85cc	-0.038457677
55	0xbbd0ad66	-0.006368327
56	0x3da90ffc	0.08255002
57	0xbd0c7c01	-0.034297947
58	0x3dc6e029	0.09710724
59	0x3db5450b	0.088510595
60	0x3cae0dfc	0.021246903
61	0xbd27c6e7	-0.040961172
62	0x3bf8833d	0.007584004
63	0x3dbcaf48	0.0921312
64	0xbdaa2726	-0.08308248
65	0x3df751ee	0.12076174
66	0x3d92b6af	0.071637504
67	0xbd47ff57	-0.048827495
68	0x3dd0861b	0.101818286
69	0x3c2ea3dc	0.010659184
70	0xbc81747a	-0.01580261
71	0xbdb35238	-0.08755916
72	0x3da88824	0.08229092
73	0xbdcaaeec	-0.09896645
74	0xbd88c74b	-0.06678637
75	0x3a4b1a67	0.00077477697
76	0x3cc1a18d	0.023636604
77	0xbd029d14	-0.031888083
78	0x3d4215f3	0.047384214
79	0xbcdb75a7	-0.0267895
80	0x3d2afecd	0.041746903
81	0xbc85131a	-0.01624446
82	0xbcf60275	-0.030030468
83	0xbdc37fe7	-0.0954588
84	0x3de46c3a	0.11153455
85	0x3d52f9b0	0.05150765
86	0x3e005c1b	0.12535135
87	0xbd98c290	-0.07458985
88	0x3b1bee2d	0.0023793087
89	0xbd0f3cfd	-0.034970272
90	0xbd3cc2be	-0.046084158
91	0xbb7e5941	-0.0038810524
92	0x3d11b1e1	0.03557003
93	0x3d75f92b	0.06005208
94	0xbda3632e	-0.079779014
95	0xbda63408	-0.08115393
96	0x3de1cddc	0.11025593
97	0x3d853cb3	0.06505718
98	0x3d2053cd	0.03914242
99	0x3e121356	0.14265189

allocation_head.0.weight f4 [4, 100]
0	0x3c99eb27	0.018788887
1	0x3d46bbf0	0.048519075
2	0xbd429cc1	-0.047512773
3	0xbc0622d2	-0.008187013
4	0x3dd4868a	0.10377224
5	0x3cdbacad	0.026815737
6	0xbc61c1bb	-0.013779099
7	0x3da2623f	0.07928895
8	0x3ce48bf7	0.027898772
9	0x3c883c41	0.016630294
10	0x3e8584b4	0.26077807
11	0xbd069ec2	-0.032866247
12	0xbdc3a7c7	-0.09553485
13	0xbe032838	-0.12808311
14	0xbc87f05a	-0.0165941
15	0xbba1f8d0	-0.004942991
16	0x3d21ede7	0.039533522
17	0x3d86f2de	0.06589292
18	0xbd61da75	-0.055139977
19	0x3bffc1bb	0.007805077
20	0x3de0abfc	0.109703034
21	0x3de6971e	0.11259292
22	0xbb564de6	-0.003270024
23	0x3dcefffb	0.10107418
24	0xbd0607d8	-0.032722324
25	0xbc1317b8	-0.008977823
26	0x3e1e839b	0.15479891
27	0xbdbdfca5	-0.09276704
28	0xbd262736	-0.04056474
29	0xbccf649a	-0.025316525
30	0xbd5d4349	-0.054019246
31	0x3c0433d7	0.008069
32	0xbd84bf48	-0.064817965
33	0xbd88374c	-0.06651172
34	0xbd8b0307	-0.06787687
35	0xbdb3b4c7	-0.08774715
36	0xbe948fd8	-0.29015994
37	0x3e204c0b	0.15654008
38	0x3de64514	0.11243644
39	0x3d521d23	0.05129732
40	0xbdf6d735	-0.12052766
41	0xbd035840	-0.032066584
42	0x3c28af54	0.010295708
43	0xbdca31d3	-0.098727845
44	0xbd889cdc	-0.066705436
45	0xbd28bba6	-0.04119458
46	0x3decf4ff	0.11570167
47	0x3d7998b2	0.060936637
48	0xbd35a7d3	-0.044349503
49	0x3b8207b5	0.003968204
50	0x3d930fb1	0.07180727
51	0x3dd757a1	0.10514761
52	0xbe552485	-0.20814712
53	0x3c8b3bc9	0.016996281
54	0x3d730a2f	0.059335884
55	0xbdfeef34	-0.12447968
56	0x3c905ca7	0.017622305
57	0xbe17189e	-0.14755484
58	0xbb00e8e6	-0.0019670068
59	0xbe7c0ad6	-0.24613509
60	0x3daf69f6	0.08565132
61	0x3d24b993	0.04021604
62	0xbd97bdf1	-0.07409275
63	0x3c7b771c	0.015348222
64	0x3e07c2f7	0.13257967
65	0xbe7915cb	-0.2432472
66	0xbbed1203	-0.007234813
67	0x3d80e40f	0.06293499
68	0x3d8b87ad	0.068129875
69	0x3dc0c1df	0.09411978
70	0xbd9dd2df	-0.07706236
71	0xbe29c3d6	-0.16578612
72	0x3d49969a	0.04921589
73	0x3da9afda	0.08285494
74	0x3da5e799	0.08100814
75	0x3db4b4e8	0.08823568
76	0xbcdebe8a	-0.027190465
77	0xbec33638	-0.38127303
78	0x3d04e610	0.032445967
79	0xbd801fbd	-0.062560536
80	0xbdf61a86	-0.12016778
81	0x3e0e6daf	0.13909028
82	0x3dbbf10b	0.09176835
83	0xbdbffeb8	-0.093747556
84	0xbd05cfd0	-0.03266889
85	0xbd196173	-0.03744645
86	0xbd82f5ca	-0.06394537
87	0xbd3b7f4a	-0.04577569
88	0x3caba598	0.020952985
89	0xbdf2470a	-0.11829956
90	0x3db2134a	0.08695085
91	0xbc5456d4	-0.012960155
92	0x3d80c6f2	0.06287946
93	0x3d66efb6	0.05638095
94	0xbdb8b164	-0.090182096
95	0xbd790540	-0.060796022
96	0x3c8b6662	0.017016593
97	0x3ccec7c8	0.025241747
98	0xbd895a62	-0.06706692
99	0xbd77d133	-0.060502242
100	0x3e06943c	0.13142484
101	0x3df66e40	0.12032747
102	0xbd0db52c	-0.034596607
103	0xbacaf817	-0.0015485313
104	0xbf0f5566	-0.5598968
105	0xbaeb9733	-0.0017974138
106	0xbd95b9c7	-0.07310825
107	0xbd9df94f	-0.077135675
108	0x3cac2c47	0.021017207
109	0x3bab35fc	0.0052249413
110	0x3e7d08b7	0.24710356
111	0x3ddb4041	0.10705615
112	0xbd7941f3	-0.06085391
113	0x3e27c1e9	0.16382565
114	0x3da02b38	0.07820743
115	0xbdaf80f0	-0.08569515
116	0xbccbe2d3	-0.024888432
117	0x3d20cdaf	0.039258655
118	0x3cac5f1c	0.021041445
119	0x3d8b34dc	0.067971915
120	0x3d82a48f	0.06379043
121	0x3d96ce33	0.07363548
122	0xbd61e814	-0.055152968
123	0xbb0c9f6a	-0.0021457323
124	0xbde019e9	-0.10942442
125	0xbd881f99	-0.06646652
126	0xbc8f4a2e	-0.017491426
127	0xbd47858a	-0.048711337
128	0xbd12abd7	-0.03580841
129	0xbda7dbc8	-0.08196217
130	0x3d38c824	0.045112744
131	0x3d6544cc	0.055973813
132	0xbd52cdf5	-0.051465947
133	0x3c316a57	0.010828576
134	0x3daf4653	0.08558335
135	0xbb8f394d	-0.0043708445
136	0xbe37c371	-0.17945649
137	0xbdbac019	-0.09118671
138	0xbd6f3f6a	-0.058410086
139	0x3d8d0898	0.06886405
140	0x3dee7122	0.11642672
141	0x3da8bcfc	0.08239171
142	0x3db50786	0.088393256
143	0xbc3e2fee	-0.011608107
144	0xbdc58993	-0.09645381
145	0xbd7186e2	-0.058966525
146	0x3da3d5cd	0.07999764
147	0xbc914691	-0.017733844
148	0xbd4b9717	-0.049704637
149	0xbd8ebe2a	-0.06969865
150	0xbdaec265	-0.085331716
151	0xbd95fa80	-0.0732317
152	0xbeb419a6	-0.35175818
153	0x3d521d07	0.051297214
154	0x3d809bbc	0.06279704
155	0xbddb26ea	-0.10700782
156	0x3d8cf984	0.06883529
157	0xbdb4cfd9	-0.08828706
158	0xbc1d0f5a	-0.00958618
159	0xbe7dccdc	-0.24785179
160	0x3c14bbd4	0.009077985
161	0xbca0d80d	-0.019634271
162	0xbdb3d0a0	-0.087800264
163	0xbdd1d312	-0.102453366
164	0x3ca5f84a	0.020259995
165	0xbe562ec4	-0.20916277
166	0xbd5675c1	-0.052358393
167	0x3dc1b2af	0.09457909
168	0xbdb93ce4	-0.09044817
169	0x3bbb8149	0.005722199
170	0x3db41ae8	0.087941945
171	0xbdf4696b	-0.119341694
172	0x3dd58875	0.10426418
173	0x3d145693	0.036215376
174	0xbdc34315	-0.09534279
175	0x3d819390	0.063269734
176	0x3d0d959c	0.034566507
177	0xbc5a94b7	-0.01334112
178	0x3dd576b2	0.1042303
179	0xbda57f77	-0.080809526
180	0x393356e3	0.00017103138
181	0x3cfabd26	0.030607771
182	0x3dc50d72	0.09621705
183	0x3d0aee93	0.03391893
184	0x3cba42b4	0.022736885
185	0x3d192b82	0.037395008
186	0xbd3b3ebd	-0.04571413
187	0xbcac4840	-0.021030545
188	0xbdcb8c18	-0.0993883
189	0x3d143ecc	0.0361927
190	0x3e00e4de	0.12587306
191	0x3e0add68	0.13561022
192	0xbda2b02b	-0.079437576
193	0x3d402c65	0.046917338
194	0xbd7c9cab	-0.061672848
195	0xbd6178fa	-0.055047013
196	0xbd90b43a	-0.070656255
197	0x3ded47b8	0.11585945
198	0x3ceeedbe	0.029166099
199	0xbaebbe94	-0.0017985874
200	0xbc7b2dee	-0.015330775
201	0x3d8e83e9	0.069587536
202	0xbde210cb	-0.11038359
203	0xbe094694	-0.1340583
204	0xbe4d2984	-0.20035368
205	0x3d8f58ab	0.06999334
206	0xbcc5d385	-0.024148712
207	0x3dacbf1a	0.08434887
208	0xba208760	-0.0006123688
209	0x3cb8446c	0.022493564
210	0xbe955f76	-0.29174393
211	0xbbd6e884	-0.0065584797
212	0x3c4d9067	0.012546635
213	0x3d1fd3f8	0.03902051
214	0xbccf82ad	-0.025330866
215	0x3caf5cd5	0.02140657
216	0xbda03213	-0.07822051
217	0xbd6ecfdb	-0.058303695
218	0x3d8b7579	0.068095155
219	0xbe07afaa	-0.13250604
220	0xbda4fda9	-0.08056194
221	0x3d8e11ba	0.06936975
222	0x3c9a1f45	0.018813739
223	0xbcbfc9e2	-0.023411695
224	0xbd8f7a25	-0.07005719
225	0x3d8d82b1	0.06909693
226	0xbe0abb21	-0.13547947
227	0xbce88aa7	-0.028386427
228	0xbd652213	-0.0559407
229	0xbc72a05a	-0.014808739
230	0x3c842988	0.016133085
231	0x3e24abe8	0.16081202
232	0x3c4c8933	0.012483883
233	0x3de160a9	0.110047646
234	0x3d726af2	0.059184022
235	0xbd8d9436	-0.069130346
236	0x3e8da349	0.2766364
237	0xbe10a90c	-0.14126986
238	0xbde1af0d	-0.110197164
239	0x3cd9c2f3	0.026582217
240	0x3e229dfe	0.15880582
241	0x3d64a499	0.055821035
242	0xbcd175b6	-0.025568824
243	0x3bb4d42a	0.005518456
244	0x3d3c222f	0.045931038
245	0xbddb463a	-0.10706754
246	0x3ca14d72	0.01969025
247	0xbdae12be	-0.084996685
248	0x3ab4a667	0.0013782502
249	0xbcc9580c	-0.024578117
250	0xbd77e245	-0.06051852
251	0x3bf5342e	0.007483027
252	0x3ea93af7	0.330528
253	0xbd06044a	-0.032718934
254	0xbd5395f1	-0.051656667
255	0x3cea6adc	0.028615408

allocation_head.0.bias f4 [4]
0	0x3d4ae2c8	0.04953268
1	0xbb9c9dbd	-0.004779546
2	0xbd06567b	-0.032797318
3	0x3dd53bb1	0.10411776

payment_head.0.weight f4 [1, 100]
0	0x3c013ab3	0.00788753
1	0xbe1501af	-0.14551423
2	0x3e5930fe	0.21210095
3	0x3dffa083	0.12481787
4	0xbec380e7	-0.38184282
5	0x3d66422d	0.056215454
6	0xbd90db87	-0.070731215
7	0xbc806160	-0.015671432
8	0x3dfe18ed	0.12407098
9	0x3c59949b	0.013280059
10	0xbd0b8b9d	-0.034068692
11	0x3e7168ac	0.23575085
12	0xbcde5e2d	-0.027144516
13	0xbcd95ce0	-0.026533544
14	0x3ddccce1	0.10781265
15	0x3e0ebd51	0.13939406
16	0x3baf70e7	0.005354035
17	0xbe2c51f6	-0.1682814
18	0x3e3ab810	0.18234277
19	0x3d23d727	0.040000107
20	0x3df8fc9e	0.12157558
21	0xbe069cf5	-0.13145812
22	0x3e66d516	0.22542223
23	0xbde369e8	-0.111041844
24	0x3dc979ad	0.09837661
25	0x3e0c4f72	0.13702181
26	0xbd9e5dab	-0.077327095
27	0x3d184263	0.037172686
28	0x3e26a117	0.16272388
29	0x3bd6eb80	0.0065588355
30	0xbe016dfb	-0.1263961
31	0xbd4ad0b4	-0.04951544
32	0x3cb2e247	0.021836413
33	0x3ef24858	0.4732082
34	0x3e186fe9	0.1488644
35	0xbdc60735	-0.096693434
36	0x3e401f42	0.18761924
37	0xbe2b405a	-0.16723767
38	0xbd5141a4	-0.05108799
39	0x3d7f6c6d	0.062359262
40	0xbdd84ee2	-0.10561921
41	0x3d870565	0.06592826
42	0xbd0a213d	-0.033723105
43	0x3e440f92	0.19146565
44	0x3e17dcb2	0.14830282
45	0x3e29d4cc	0.16585082
46	0x3da838ba	0.08213945
47	0x3db51595	0.08842007
48	0x3dcb9200	0.09939957
49	0x3d3044c8	0.043034345
50	0xbd97eeaa	-0.074185684
51	0x3e14c24f	0.14527248
52	0x3dc38cb8	0.09548324
53	0x3cd53ed4	0.026030935
54	0xbd9d9abe	-0.0769553
55	0x3e83cc8f	0.25742003
56	0xbe3d7cd3	-0.18504648
57	0x3ebf6896	0.3738448
58	0x3da6ca1d	0.08144019
59	0xbd848dd9	-0.06472368
60	0x3c78ce06	0.015185839
61	0x3d5be047	0.053680684
62	0x3e2ebb66	0.17063674
63	0x3eb1d273	0.34730873
64	0xbd997f76	-0.07495014
65	0xbb071b7f	-0.0020615754
66	0x3e816e3e	0.2527942
67	0x3dc9ef20	0.098600626
68	0x3e132757	0.14370476
69	0xbd4f7ed5	-0.050658066
70	0x3d0f9ccd	0.035061646
71	0x3ea1923f	0.3155689
72	0xbe0b5e90	-0.13610291
73	0x3d263fd9	0.040588234
74	0xbd586c8c	-0.052837893
75	0x3d450e8a	0.04810957
76	0x3efc6e78	0.4930303
77	0xbeb84e38	-0.35997176
78	0xbe16ead2	-0.14738014
79	0x3d55bef7	0.05218407
80	0x3e356b95	0.1771682
81	0x3da1a225	0.07892255
82	0x3c996e38	0.018729314
83	0x3d4a0e48	0.049330026
84	0x3d9606fd	0.07325552
85	0x3e4d68f8	0.20059574
86	0x3e2c757d	0.16841693
87	0x3c59be8d	0.01329006
88	0x3d1d98d0	0.03847581
89	0x3e444b26	0.19169292
90	0x3dc9f7d8	0.098617256
91	0xbc9abccb	-0.018888852
92	0xbd76ef08	-0.06028655
93	0xbdd2e09f	-0.10296749
94	0x3da36a99	0.07979316
95	0x3db80911	0.08986104
96	0x3e40f260	0.18842459
97	0x3e4b91c9	0.19879831
98	0x3e14509b	0.14483874
99	0x3e8cbba9	0.27486923
