result/1x2_sparsemax_in_linsigpmt_scratch_89_checkpoint.pt (torch, 88519 bytes, 9 tensors)

nn_model.0.weight f4 [100, 2]
0	0xbe8ed81a	-0.27899247
1	0x3ec2fe56	0.38084668
2	0x3ea4875f	0.3213453
3	0xbe54e3de	-0.2079005
4	0x3e2d8eb6	0.16948971
5	0xbe83c6f5	-0.2573773
6	0x3edf2b63	0.4358779
7	0x3e302692	0.17202213
8	0xbe82202d	-0.25415173
9	0x3e1d3bc8	0.15354836
10	0x3ea24f85	0.31701294
11	0xbe642882	-0.22281078
12	0x3d250461	0.04028738
13	0x3eb4aca4	0.35287964
14	0xbd90162e	-0.070354804
15	0x3e5c5c7e	0.21519658
16	0xbe2ea355	-0.17054494
17	0x3e7dc9f1	0.24784066
18	0xbedafcd2	-0.42771012
19	0xbeacf0d4	-0.33777487
20	0xbe863bcb	-0.26217493
21	0x3f27e632	0.65585625
22	0xbdea0cd5	-0.11428229
23	0xbca169b3	-0.019703722
24	0xbef3442e	-0.47512954
25	0x3f30a1f3	0.68997115
26	0x3f1d9917	0.6156172
27	0xbf0aea05	-0.54263335
28	0xbec59942	-0.3859349
29	0xbeaa7e6c	-0.33299577
30	0xbdb88b39	-0.090109296
31	0xbe7b6e4e	-0.24553797
32	0xbeecf889	-0.46283367
33	0xbe81da6a	-0.2536195
34	0x3df7587e	0.120774254
35	0xbec2cd2d	-0.38047162
36	0x3e207161	0.1566825
37	0xbe260add	-0.16215082
38	0xbeaf6e40	-0.34263802
39	0x3dc6f497	0.097146206
40	0x3effad95	0.4993712
41	0xbf268da6	-0.6505989
42	0xbd3495a1	-0.04408801
43	0xbe95348c	-0.29141653
44	0x3f5fb0f4	0.87379384
45	0xbed963b5	-0.42458883
46	0xbf09d9c7	-0.53847927
47	0x3f384285	0.719765
48	0xbee50ee8	-0.44737935
49	0x3e0ad291	0.13556887
50	0xbd79f81a	-0.061027624
51	0xbe18882e	-0.14895698
52	0xbe53505a	-0.2063612
53	0x3ed23c50	0.4106164
54	0x3d0a6f4f	0.03379756
55	0xbf303e39	-0.68844944
56	0xbea17df7	-0.31541416
57	0xbe116309	-0.14197935
58	0x3eb62f0d	0.35582772
59	0xbeea4995	-0.45759264
60	0x3f3b832c	0.7324703
61	0xbe025567	-0.12727891
62	0xbe828a38	-0.25496078
63	0x3f0f2839	0.5592075
64	0x3e2861b5	0.16443522
65	0x3f00f9a5	0.5038093
66	0x3efa22ed	0.4885477
67	0xbe366ea0	-0.17815638
68	0xbef033e2	-0.46914583
69	0xbd577e87	-0.0526109
70	0x3f17691f	0.5914478
71	0x3c89fb85	0.016843567
72	0xbee20c68	-0.4415009
73	0x3ec68a8d	0.3877758
74	0x3f3e4cbf	0.74335855
75	0xbe28e6e0	-0.16494322
76	0xbf15e366	-0.5855011
77	0xbf243202	-0.64138806
78	0x3e3b4d06	0.18291101
79	0xbd35586d	-0.044273783
80	0xbee675a4	-0.45011628
81	0x3dac02a4	0.08398941
82	0x3eb214ca	0.34781486
83	0x3f1a4c0e	0.602723
84	0x3ef4e04f	0.47827384
85	0xbe7244c2	-0.23659042
86	0xbf1f9ded	-0.6235035
87	0xbf2392c1	-0.63895804
88	0x3f3f4341	0.74711996
89	0x3ec07483	0.3758889
90	0x3e9dd0b9	0.30823305
91	0xbf1c9f2a	-0.61180365
92	0x3f397042	0.72436917
93	0x3f36d375	0.7141641
94	0x3f162517	0.58650345
95	0xbf1aa444	-0.604069
96	0xbe780808	-0.24221814
97	0xbedce3d8	-0.4314258
98	0x3f0b13df	0.54327196
99	0xbed753cb	-0.42056116
100	0xbeb2fa9a	-0.3495682
101	0x3ebee360	0.37282848
102	0xbea779f0	-0.32710218
103	0xbeb24fe3	-0.34826574
104	0xbdfa054c	-0.122080415
105	0xbdee3ed0	-0.11633074
106	0xbf055c63	-0.52094096
107	0x3f461ed4	0.7739079
108	0xbe9fb3ff	-0.31192014
109	0x3e806ba6	0.2508213
110	0x3f22407a	0.63379633
111	0x3eb275a5	0.3485538
112	0x3e1c566a	0.1526734
113	0x3f23e11c	0.64015365
114	0x3dc2ab84	0.0950537
115	0xbea77fe5	-0.32714763
116	0x3f3a6bec	0.72820926
117	0x3e650d6d	0.22368403
118	0xbeadec7f	-0.33969495
119	0xbe07806a	-0.1323258
120	0xbed6e1db	-0.4196919
121	0x3f4ffaec	0.8124225
122	0xbdef2822	-0.116775766
123	0xbf2500ee	-0.64454544
124	0xbcd91de5	-0.026503513
125	0x3eeb760f	0.4598851
126	0x3e3c1d98	0.18370664
127	0x3e64f4da	0.22359028
128	0x3d3f672f	0.046729263
129	0x3ecdc28c	0.4018749
130	0xbdf562f2	-0.11981763
131	0xbe64d0e8	-0.22345316
132	0xbf293347	-0.6609387
133	0xbf085e59	-0.53268963
134	0x3e6f6146	0.2337695
135	0xbee3df48	-0.44506288
136	0x3e0b90af	0.13629411
137	0x3e8c4236	0.27394265
138	0xbbac10c9	-0.0052510244
139	0xbf01b059	-0.5065971
140	0x3f2b8539	0.67000157
141	0x3ba1938f	0.0049309204
142	0x3f02d4b6	0.5110582
143	0xbf22e023	-0.63623255
144	0xbe2e2cfb	-0.17009346
145	0x3ec4f010	0.38464403
146	0xbe8f25b9	-0.27958468
147	0x3f19f604	0.60141015
148	0xbef923a6	-0.4866001
149	0xbf1803cf	-0.5938081
150	0xbea3400b	-0.31884798
151	0x3dea1845	0.1143041
152	0x3f1ef791	0.62096506
153	0xbea4b4f6	-0.32169312
154	0x3e965468	0.29361272
155	0xbe72b3a3	-0.23701338
156	0xbeb33b0c	-0.35005987
157	0x3ee575a5	0.44816318
158	0xbf0c4995	-0.5479978
159	0x3d99d036	0.07510416
160	0x3efd5c91	0.49484685
161	0xbe9dab79	-0.30794886
162	0x3f084334	0.53227544
163	0xbeb12b9b	-0.3460358
164	0x3f11b6b6	0.5691942
165	0xbf2f1b02	-0.68400586
166	0xbdbc2037	-0.09185832
167	0xbe07f10d	-0.13275547
168	0x3e98af61	0.29821303
169	0x3e9cb3b4	0.30605853
170	0x3ef5c588	0.48002267
171	0xbed1ae8e	-0.40953487
172	0x3d85cd81	0.065333374
173	0x3f087714	0.533067
174	0xbe579c70	-0.2105577
175	0x3f160ea0	0.58616066
176	0xbe89e42b	-0.2693189
177	0xbdb5e79b	-0.08882066
178	0x3ba26519	0.0049558994
179	0x3e91ee02	0.28501898
180	0x3ef9ba2c	0.4877485
181	0xbe5da19d	-0.21643682
182	0xbf15f894	-0.58582425
183	0x3eb36329	0.3503659
184	0x3e858b77	0.26082966
185	0x3e79255e	0.2433066
186	0xbeb81bc0	-0.35958672
187	0x3f18945c	0.5960138
188	0x3f3cc36e	0.737357
189	0x3e190484	0.14943129
190	0xbf26e2c4	-0.65189767
191	0x3e9c5490	0.30533266
192	0xbf06378e	-0.5242852
193	0x3e2671f7	0.16254412
194	0x3cb55e98	0.022139832
195	0xbec83df6	-0.39109772
196	0x3e7c1eda	0.24621144
197	0xbf21e8dc	-0.6324594
198	0x3e47fec3	0.19530778
199	0xbf339765	-0.70152885

nn_model.0.bias f4 [100]
0	0xbd043104	-0.032273307
1	0xbe38057e	-0.17970845
2	0x3f25eb05	0.64811736
3	0xbf0bb129	-0.545672
4	0x3eed0c9c	0.46298683
5	0xbea0d046	-0.314089
6	0xbec932c9	-0.39296558
7	0xbf1da1af	-0.61574835
8	0xbf2616ac	-0.64878345
9	0x3f4b1b2f	0.79338354
10	0xbedcae33	-0.43101653
11	0x3e1e3ba6	0.15452442
12	0x3e2451e5	0.16046865
13	0x3f0c1945	0.5472606
14	0x3f3c6e0a	0.73605406
15	0x3f1c3501	0.6101838
16	0xbf061d3a	-0.52388346
17	0xbe011237	-0.12604605
18	0xbed63b5e	-0.4184217
19	0xbeced9f7	-0.4040067
20	0x3e67a9b5	0.22623332
21	0x3f340b43	0.70329684
22	0xbf14187a	-0.5784985
23	0x3f0a9e27	0.5414757
24	0xbebbb47b	-0.36661133
25	0xbe0d0819	-0.1377262
26	0x3f11be84	0.5693133
27	0xbe23c3c9	-0.15992655
28	0x3e2d07c3	0.16897492
29	0xbefd13aa	-0.49429065
30	0x3f1077d1	0.56432825
31	0xbe0cf103	-0.13763814
32	0xbf2ad4ed	-0.6673115
33	0x3e35fbca	0.17771831
34	0xbf00b538	-0.5027652
35	0xbf1b61d2	-0.60696137
36	0x3e39c7e2	0.18142655
37	0x3f0ad82b	0.54236096
38	0xbe4ce6fe	-0.20009992
39	0x3ea6469b	0.32475743
40	0x3f269e0f	0.6508493
41	0x3ee9b506	0.45645922
42	0xbef472ea	-0.47743922
43	0xbd9ebf1b	-0.07751294
44	0xbe880e92	-0.26573616
45	0xbf118fd2	-0.5686008
46	0xbd012a9d	-0.03153478
47	0x3f197885	0.59949523
48	0x3f31d4ef	0.69465536
49	0xbe76b5cc	-0.24092788
50	0x3e879834	0.2648331
51	0xbe9cbc00	-0.30612183
52	0x3f097351	0.53691584
53	0xbe960688	-0.29301858
54	0xbefb7dbd	-0.49119368
55	0x3de39baa	0.11113675
56	0x3ed33d18	0.41257548
57	0xbf23349c	-0.6375215
58	0x3f1ca146	0.61183584
59	0x3ef072a8	0.46962476
60	0xbed505bb	-0.41605935
61	0xbe1bf8c0	-0.1523161
62	0x3f18ec17	0.59735245
63	0xbf0ae262	-0.5425168
64	0xbdd47f86	-0.10375886
65	0x3eb9605b	0.36206326
66	0xbf1e969d	-0.6194857
67	0x3ee56439	0.44803026
68	0x3ec0d23d	0.376604
69	0x3f03ed01	0.51533514
70	0xbf2cf058	-0.67554235
71	0x3f401697	0.7503447
72	0xbed69a43	-0.41914567
73	0x3f361a11	0.71133524
74	0xbf2db8f7	-0.6786036
75	0xbf214865	-0.6300109
76	0x3ee44e49	0.44590977
77	0xbdbab533	-0.09116592
78	0xbce88c41	-0.02838719
79	0xbec87b61	-0.3915663
80	0xbefe9c1a	-0.4972847
81	0xbeb5e5e3	-0.35526952
82	0xbf30574a	-0.6888319
83	0x3e7490de	0.23883387
84	0x3ded7412	0.11594404
85	0x3deeddfc	0.11663434
86	0x3e60b561	0.2194419
87	0x3f32ae57	0.6979727
88	0x3ebcb610	0.36857653
89	0xbe98cbe2	-0.2984305
90	0xbe9ebd41	-0.31003764
91	0xbee7a265	-0.45241085
92	0xbf00f772	-0.5037757
93	0xbe31ff41	-0.17382528
94	0xbdcb393d	-0.09923027
95	0x3eeec448	0.46634126
96	0xbe9abfa8	-0.30224347
97	0x3f19b83d	0.6004675
98	0xbefe090d	-0.4961628
99	0x3df886a0	0.12135053

nn_model.2.weight f4 [100, 100]
0	0x3e440ce6	0.19145545
1	0x3e1ed2af	0.15510057
2	0xbcb18768	-0.021671012
3	0x3e53a18a	0.20667091
4	0x3d3033e2	0.04301823
5	0x3d8fe96e	0.07026945
6	0xbd86087f	-0.06544589
7	0x3cdde233	0.0270854
8	0xbd8e692a	-0.06953652
9	0x3d10e6ba	0.035376288
10	0x3d8b4e3a	0.0680203
11	0xbca48d37	-0.020086868
12	0x3dc716a1	0.09721113
13	0x3d1552d4	0.036455944
14	0x3d738e94	0.059462145
15	0x3e036793	0.12832479
16	0xbcfa674d	-0.030566836
17	0x3d77a499	0.060459707
18	0xbcea50ad	-0.028602922
19	0xbc6f5373	-0.014607298
20	0xbc7a23cd	-0.015267325
21	0x3cf502b2	0.029908512
22	0x3cd24d7a	0.02567171
23	0x3d602010	0.054718077
24	0x3b76f133	0.0037680387
25	0x3d81d215	0.06338898
26	0x3ca5de1e	0.020247515
27	0x3c244c8d	0.010028017
28	0x3d147077	0.036240067
29	0xbdab82b2	-0.083745375
30	0x3db456bb	0.08805605
31	0x3cd62b9f	0.026143847
32	0xbccf41e6	-0.025299978
33	0x3c900b49	0.017583506
34	0x3cd63d00	0.026152134
35	0xbd21ba90	-0.03948456
36	0x3e15fcca	0.14647213
37	0x3d58e049	0.05294827
38	0x3d1ab890	0.03777367
39	0x3dadc736	0.08485262
40	0x3b6b0cc1	0.0035865756
41	0x3da09257	0.07840412
42	0x3de4c2fd	0.111700036
43	0x3b96cb00	0.004601836
44	0x3c82443e	0.015901681
45	0x3b6e2100	0.0036335588
46	0x3d869bf7	0.06572717
47	0xbb0299de	-0.0019928138
48	0xbce77961	-0.02825612
49	0x3ddb7b5f	0.107168905
50	0xbe0047c9	-0.12527384
51	0x3ad22400	0.0016032457
52	0xbc79be4b	-0.015243123
53	0x3e2a09ce	0.16605303
54	0xbdbead43	-0.09310391
55	0x3d84b199	0.064791866
56	0x3e0ce71b	0.13760035
57	0x3ca5c1cd	0.020234013
58	0x3d1aecaa	0.037823357
59	0x3dc2c0ec	0.09509453
60	0x3d1a9887	0.037743118
61	0xbc034a73	-0.008013356
62	0xbb1c94ea	-0.002389247
63	0xbc622ab3	-0.013804126
64	0x3d4ade92	0.049528666
65	0x3cae1c3d	0.0212537
66	0xbc9ab9f3	-0.018887496
67	0xbd87acee	-0.066247806
68	0x3d4ac9dd	0.049508918
69	0x3d4b9dcd	0.049711037
70	0x3e437dc8	0.1909095
71	0x3dea34c9	0.11435849
72	0x3dc7114a	0.097200945
73	0xbc9f36bf	-0.019435285
74	0xbbcc52b3	-0.0062354445
75	0xbd241dad	-0.040067364
76	0xbd3d1841	-0.04616571
77	0x3daabc92	0.08336748
78	0x3dd05282	0.10171987
79	0x3d6ed263	0.05830611
80	0x3c82672c	0.015918337
81	0x3d84d6cc	0.06486282
82	0xbda2b595	-0.0794479
83	0x3be02fa9	0.006841619
84	0x3dd8292b	0.10554727
85	0xbde5fac9	-0.11229474
86	0x3dfae1f7	0.122501306
87	0x3d89a375	0.0672063
88	0x3d9a5efe	0.075376496
89	0xbcf61112	-0.030037437
90	0x3e2d7a5e	0.1694121
91	0xbdb58d7d	-0.088648774
92	0xbdb4446f	-0.08802115
93	0x3e4d1576	0.20027718
94	0x3cf004c7	0.029299153
95	0x3defa41e	0.11701225
96	0x3dc93f88	0.09826571
97	0x3df8a393	0.12140574
98	0x3d89804a	0.06713922
99	0x3e0eaff0	0.13934302
100	0xbc536700	-0.012902975
101	0xbd9eef35	-0.07760469
102	0xbd180dfd	-0.037122715
103	0xbc37ef27	-0.011226452
104	0xbd5d57a3	-0.054038655
105	0x3d516027	0.05111709
106	0x3d0fc7e0	0.035102725
107	0x3c842df3	0.016135192
108	0x3cc5e2f3	0.02415607
109	0x3db3e833	0.08784523
110	0x3d15306d	0.036423136
111	0xbdb398e2	-0.087693945
112	0xbd94a90f	-0.07258808
113	0x3d3487f3	0.044074964
114	0x3c5f47a7	0.013627923
115	0x3d47c22d	0.048769165
116	0xbdcc89b0	-0.09987199
117	0xbdbd00ef	-0.09228694
118	0x3d7b2d73	0.06132264
119	0x3d82ffdb	0.06396457
120	0xbdb948ea	-0.090471104
121	0x3d1b7a67	0.03795853
122	0xbd9feaba	-0.078084424
123	0x3d9b18bd	0.07573078
124	0x3d008750	0.031379044
125	0x3dca80ea	0.0988787
126	0xbdc9ee60	-0.098599195
127	0xbdc527f5	-0.09626762
128	0x3d8a7738	0.067610204
129	0x3db5d380	0.08878231
130	0x3d7af427	0.061267998
131	0x3d88283b	0.06648298
132	0xbdac7f47	-0.08422714
133	0x3d943caf	0.07238137
134	0xbdc15c80	-0.09441471
135	0x3cb702ba	0.022340167
136	0xbd8626b0	-0.06550348
137	0xbd22b0f7	-0.039719548
138	0x3c910e07	0.017706884
139	0xbd210bea	-0.039318003
140	0xbc819dc0	-0.015822291
141	0xbdc21d4b	-0.094782434
142	0xbdc119b7	-0.09428733
143	0x3d1ea9f7	0.03873631
144	0xbd2d5ff7	-0.042327847
145	0xbd793247	-0.060838964
146	0xbd219ef3	-0.039458226
147	0xbda77023	-0.08175685
148	0xbda3b798	-0.07994002
149	0x3d7517e3	0.059837233
150	0x3d502d0d	0.050824214
151	0x3c5a3d9a	0.013320351
152	0xbd5fbf7a	-0.054625966
153	0x3d08463a	0.0332701
154	0x3b933600	0.0044925213
155	0xbd925d70	-0.07146728
156	0x3cb04893	0.021518981
157	0x3dba7aba	0.091054395
158	0xbdc9714d	-0.098360635
159	0xbdcba6ca	-0.09943922
160	0x3c51eb80	0.012812495
161	0x3d9a380f	0.075302236
162	0xbd793cc7	-0.060848977
163	0x3cb4561a	0.022013713
164	0x3d8ff8ad	0.07029853
165	0x3cfc92a0	0.030831635
166	0x3cb148a0	0.021641076
167	0x3dcc5593	0.099772595
168	0x3d856bef	0.06514727
169	0xbd665ec0	-0.056242704
170	0x3c0d9e1a	0.008643651
171	0x3d5140da	0.051087238
172	0x3db49d75	0.08819095
173	0xbdcbc323	-0.09949329
174	0x3d5dccf3	0.054150533
175	0xbcedd700	-0.029033184
176	0xbdc88b65	-0.097922124
177	0x3cb5d753	0.022197401
178	0xbd5efdea	-0.05444137
179	0x3c682e67	0.014171219
180	0xbd84f73d	-0.064924695
181	0xbd9a1e32	-0.075252905
182	0xbc0b051a	-0.008485103
183	0xbd09985d	-0.03359257
184	0x3d6f8f83	0.058486473
185	0x3c0d4280	0.008621812
186	0x3d9fdbc0	0.07805586
187	0x3c998540	0.018740296
188	0xbd03b627	-0.032156136
189	0x3d8ab7ca	0.06773336
190	0x3bb30f9a	0.0054645063
191	0x3c99c1cd	0.01876917
192	0xbd03bc93	-0.03216226
193	0x39bc2800	0.00035887957
194	0xbc9d829a	-0.019227315
195	0xbc0b4ada	-0.008501733
196	0xbd9fb823	-0.07798793
197	0xba213733	-0.0006149888
198	0xbda9fe3a	-0.08300443
199	0xbcb03c33	-0.02151308
200	0x3d875c30	0.0660938
201	0xbd9f728f	-0.07785522
202	0xbd9b2e39	-0.07577176
203	0xbcc80787	-0.024417652
204	0xbd1283be	-0.03577017
205	0x3c8aae27	0.016928745
206	0x3cd73e30	0.02627477
207	0x3d4fb4ed	0.050709654
208	0xbd8d152f	-0.06888806
209	0xbc7cd399	-0.015431308
210	0x3d6ecc67	0.058300402
211	0x3d9ff553	0.07810464
212	0xbc7fc933	-0.0156119345
213	0xbd87a6a9	-0.06623585
214	0x3ca6dc81	0.020368816
215	0x3d46fe0d	0.048582125
216	0xbd7fe5c7	-0.062474992
217	0xbd6db02d	-0.058029342
218	0x3d350ae0	0.044199824
219	0xbbe5979a	-0.0070065977
220	0xbdd2720d	-0.1027566
221	0xbd873924	-0.066026956
222	0x3d261b33	0.040553283
223	0xbd2d1893	-0.042259764
224	0x3d8d5be2	0.06902291
225	0x3da1e70f	0.07905399
226	0x3bcb0cfe	0.006196617
227	0xbc018e5a	-0.007907474
228	0xbd243ae8	-0.04009524
229	0xbba5b1b3	-0.005056584
230	0x3c213a76	0.009840598
231	0xbdab574b	-0.08366259
232	0xbc7497ef	-0.014928802
233	0xbdbb8084	-0.09155372
234	0x3d7b64dd	0.061375488
235	0xbd826c90	-0.06368363
236	0x3daa13b0	0.08304536
237	0xbd0bd6db	-0.03414045
238	0xbd6aa653	-0.057287525
239	0x3d228bf5	0.039684255
240	0x3bd686f9	0.0065468517
241	0x3d797576	0.060903035
242	0x3d2afee0	0.041746974
243	0xbdc54abb	-0.09633394
244	0x3d9352bf	0.07193517
245	0xbc9a4447	-0.018831385
246	0xbd564e8f	-0.052321013
247	0x3d61d48a	0.055134334
248	0x3d84361f	0.06455635
249	0xbdc4f146	-0.09616332
250	0xbc8e5f31	-0.017379375
251	0x3da82ee0	0.08212066
252	0x3cf8c12e	0.030365553
253	0x3dc05f43	0.0939317
254	0xbd0c5e90	-0.03426987
255	0xbd81fedd	-0.063474394

nn_model.2.bias f4 [100]
0	0x3c93e744	0.018054612
1	0xb97c5ccd	-0.00024067164
2	0xbd9dc29e	-0.07703136
3	0x3d4a1af3	0.049342107
4	0xbd9c02ad	-0.07617698
5	0x3ce8e433	0.028429126
6	0xbd946cdd	-0.072473265
7	0xbcdb5206	-0.02677251
8	0xbb9d4087	-0.004798952
9	0x3d116b42	0.03550268
10	0xbdcccf49	-0.10000474
11	0x3d65594e	0.05599337
12	0x3c8ec91a	0.017429877
13	0xbd873c7d	-0.06603334
14	0x3d1ad446	0.037800096
15	0xbd58c660	-0.05292356
16	0xbd560d8b	-0.05225901
17	0xbc8a129a	-0.016854573
18	0x3d78c3de	0.06073367
19	0x3b6f9533	0.0036557436
20	0xbd90f99b	-0.070788585
21	0x3d8990fc	0.06717107
22	0x3c91f811	0.017818483
23	0xbd973ecc	-0.073850244
24	0x3d0734bd	0.03300928
25	0xbda7be2f	-0.081905715
26	0x3d6c8976	0.05774828
27	0x3d817ee3	0.0632303
28	0x3d970793	0.073744915
29	0xbdcfab49	-0.10140092
30	0x3d58d534	0.0529377
31	0xbc167273	-0.00918256
32	0xbcb17567	-0.021662427
33	0x3d0cdd5c	0.034390792
34	0xbdb85fe8	-0.09002668
35	0xbd1dbe03	-0.038511287
36	0xbdba9aab	-0.09111532
37	0xbd104e0a	-0.035230674
38	0x3cb594d3	0.022165691
39	0x3d28af48	0.041182786
40	0x3d7d77fa	0.061881997
41	0xbb41e104	-0.0029583583
42	0xbb1775d6	-0.0023111007
43	0x3d604dfa	0.054761864
44	0xbd5b8002	-0.053588875
45	0xbdc2e782	-0.09516813
46	0xbd02d6fe	-0.031943314
47	0xbd5017e8	-0.05080405
48	0x3dd23ae4	0.10265139
49	0x3cb020a4	0.02149994
50	0x3c90d3a8	0.01767905
51	0x3d6fd99d	0.05855714
52	0xbdc28183	-0.09497359
53	0xbd570373	-0.052493524
54	0xbdbdd840	-0.09269762
55	0xbc81153e	-0.0157572
56	0xbd908ddb	-0.07058307
57	0xbb8d431a	-0.0043109776
58	0xbd8048e8	-0.06263906
59	0x3d5d72e4	0.054064646
60	0xbdadbd6a	-0.084833935
61	0xbd77f257	-0.060533848
62	0x3d74347a	0.059620358
63	0x3d9ba804	0.07600406
64	0xbb856ec7	-0.0040720436
65	0xbd1cbec8	-0.03826788
66	0xbdd2aa76	-0.10286419
67	0x3dcf45a7	0.10120707
68	0x3aff12cd	0.0019460559
69	0xbc8b7813	-0.01702503
70	0xbc81808e	-0.01580837
71	0xbd28579b	-0.041099172
72	0x3d2fb232	0.04289455
73	0xbd8f41c6	-0.06994967
74	0xbc9b388c	-0.018947862
75	0x3d6ea4be	0.05826258
76	0xbcb51f33	-0.022109604
77	0x3dacf8d1	0.084458955
78	0x3d8272bb	0.06369539
79	0xbdc3cf8c	-0.09561071
80	0x3cfc5109	0.03080036
81	0xbc07fe8d	-0.008300436
82	0xbcd056ae	-0.025431957
83	0xbd3f8bc0	-0.046764135
84	0x3d9fe8c2	0.07808067
85	0x3d70ef9a	0.05882225
86	0x3db7ca9a	0.0897419
87	0x3dda0fa7	0.10647517
88	0x3d85c467	0.065316014
89	0xbd2cbd8f	-0.042172965
90	0x3d43bf10	0.047789633
91	0xbc682e5a	-0.014171207
92	0x3df3139e	0.11868976
93	0x3dfca2a5	0.123357095
94	0x3da8559f	0.08219456
95	0x3cbf5ed3	0.023360645
96	0xbd997024	-0.07492092
97	0xbd24547d	-0.040119637
98	0xbc96159b	-0.01832085
99	0xbda3d905	-0.080003776

nn_model.4.weight f4 [100, 100]
0	0x3e1743a5	0.14771898
1	0xbd56c417	-0.0524331
2	0xbc0a7f8f	-0.008453264
3	0xbce3a90d	-0.02779057
4	0x3d0992e4	0.03358735
5	0xbd3bb48d	-0.045826484
6	0x3b587533	0.003302884
7	0x3db60dee	0.088893756
8	0x3b8889e1	0.004166827
9	0x3d4cedc6	0.050031446
10	0x3d4e8385	0.050418396
11	0x3e026a4d	0.12735863
12	0xbd9497ee	-0.07255541
13	0xbcea2f73	-0.028587079
14	0xbd464ac3	-0.048411142
15	0xbd93f058	-0.07223576
16	0xbdd075ad	-0.10178695
17	0x3d057603	0.032583248
18	0x3daed206	0.085361525
19	0x3bd6fdb3	0.006561005
20	0x3c0a8040	0.008453429
21	0xba7cef39	-0.0009648684
22	0xbd4f4de8	-0.050611407
23	0x3def6a3e	0.11690186
24	0x3d2258dd	0.039635528
25	0xbdaf57d3	-0.08561673
26	0x3cf79b0d	0.030225301
27	0x3e08818e	0.13330671
28	0x3dab4319	0.08362407
29	0x3dee8cf6	0.1164798
30	0x3dea955a	0.11454268
31	0x3da6ad7b	0.081385575
32	0xbcaaca73	-0.020848488
33	0x3cf5f50a	0.03002407
34	0x3d0ec0b7	0.034851756
35	0xbd2448ec	-0.040108606
36	0x3d08283a	0.033241488
37	0xbd795cd3	-0.06087954
38	0x3d941281	0.07230092
39	0x3dade4c0	0.08490896
40	0x3dfdd4a7	0.12394076
41	0x3e0575d1	0.13033225
42	0x3dcfcd62	0.101465955
43	0xbd9bc8bf	-0.07606649
44	0xbd97c12e	-0.07409893
45	0xbdae6b28	-0.08516532
46	0x3d86e07f	0.06585788
47	0x3da59827	0.080856614
48	0x3dd5d0c4	0.104402095
49	0x3d680ffa	0.05665586
50	0x3de9bc80	0.11412907
51	0xbcdcc04a	-0.02694716
52	0xbd1c0b67	-0.03809681
53	0xbda8bb3f	-0.08238839
54	0xbd92bb9e	-0.071646914
55	0xbd9786b8	-0.073987424
56	0x3d70a46a	0.058750547
57	0xbce3a093	-0.027786529
58	0x3caa7d28	0.020811632
59	0x3de138d6	0.10997169
60	0x3d594860	0.053047538
61	0x3d427a10	0.04747969
62	0xbd64ad99	-0.055829618
63	0x3da7f514	0.08201042
64	0x3da91c04	0.08257297
65	0xbd8d6e03	-0.06905749
66	0xbc4fa92c	-0.012674611
67	0xbdb0c016	-0.086303875
68	0xbccd254d	-0.0250422
69	0x3cb09da0	0.021559536
70	0xbdbdb79e	-0.09263538
71	0xbd54521f	-0.05183613
72	0x3d09a456	0.03360399
73	0x3df08061	0.11743236
74	0xbcdefbfa	-0.027219761
75	0x3dd9bb17	0.10631388
76	0xbda0bf13	-0.078489445
77	0xbcffe60e	-0.031237628
78	0x3dd0e2e9	0.1019953
79	0xbcbc0a6e	-0.022954192
80	0x3d899778	0.067183435
81	0xbd76348a	-0.0601087
82	0x3d5f8ff0	0.05458063
83	0xbcb53efa	-0.022124756
84	0x3c976422	0.018480364
85	0x3d1731da	0.036912777
86	0x3cfed35a	0.03110664
87	0x3de4872c	0.111585945
88	0x3ca7e4e2	0.020494882
89	0xbcfbf4ee	-0.03075644
90	0x3d987862	0.07444836
91	0x3cf697c8	0.030101672
92	0xbd8d0cc4	-0.068872005
93	0xbcccc871	-0.024997922
94	0x3d7cc57a	0.061711766
95	0x3d9dd530	0.07706678
96	0xbcec8ec1	-0.028876664
97	0x3d92ae7f	0.07162189
98	0x3d6a5fb7	0.057220187
99	0x3d966cc4	0.07344964
100	0x3d20e9ea	0.039285578
101	0x3d42960a	0.04750637
102	0xbcf7d0cf	-0.030250935
103	0xbdafa0df	-0.085756056
104	0xbc945d48	-0.018110886
105	0x3d9019b3	0.07036152
106	0xbd4e22b0	-0.05032605
107	0x3df27b3e	0.11839913
108	0x3e1baec6	0.1520339
109	0x3d9a0f02	0.07522394
110	0x3d96e611	0.073681004
111	0xbd2d98be	-0.042381994
112	0x3d477ec1	0.048704866
113	0x3cc9a0f5	0.024612883
114	0x3d3f50e2	0.046707995
115	0xbd995187	-0.07486253
116	0x3d86d845	0.06584219
117	0x3d2494fa	0.040181138
118	0x3deed40f	0.11661541
119	0xbc45e673	-0.012078869
120	0xbd31b393	-0.043384146
121	0x3ddabb5a	0.10680266
122	0xbd2debec	-0.04246132
123	0x3d80642a	0.06269105
124	0xbd7b4863	-0.06134833
125	0x3d92bbab	0.07164701
126	0x3d96c50f	0.07361805
127	0xbe3f7fc7	-0.18701087
128	0xbdd4b3bf	-0.10385846
129	0x3d70ec25	0.058818955
130	0xbdfc0892	-0.12306322
131	0x3dbc5f07	0.091978125
132	0x3d2a8243	0.041628134
133	0xbd6472e0	-0.055773616
134	0x3dad1858	0.08451909
135	0xbcd7d365	-0.026345918
136	0x3d37bf87	0.04486039
137	0x3d28a73a	0.041175105
138	0xbc6c12f4	-0.014408816
139	0xbcbaece2	-0.022818033
140	0xbba55b7c	-0.005046306
141	0xbdbf98db	-0.09355327
142	0x3ded1de8	0.1157797
143	0xbd9d569e	-0.076825365
144	0x3cae43f1	0.021272631
145	0x3d98ff4b	0.07470568
146	0xbc1729fa	-0.009226317
147	0xbe735f04	-0.23766714
148	0x3d9ed451	0.0775534
149	0x3e17900e	0.14801046
150	0x3cb609f9	0.022221552
151	0xbcfd3ff5	-0.030914286
152	0x3d74f0bd	0.0597999
153	0x3d84537f	0.06461238
154	0x3d3d9df6	0.04629322
155	0x3d8b2f38	0.06796116
156	0x3d986530	0.07441175
157	0x3dbfb285	0.09360222
158	0xbd99dfe1	-0.07513405
159	0x3dc05af6	0.093923494
160	0x3d9acaaf	0.0755819
161	0x3dec68d7	0.11543434
162	0x3d50331f	0.050830003
163	0x3db0e8a2	0.08638121
164	0x3d8102b0	0.06299341
165	0x3d882cb4	0.066491514
166	0x3e1193d8	0.14216554
167	0xbd81262a	-0.06306107
168	0x3d5ae730	0.053443134
169	0x3da1b8b7	0.0789656
170	0x3bbe22c0	0.0058024824
171	0x3e0801a4	0.13281876
172	0x3e1bd56f	0.15218137
173	0x3dba30bf	0.09091329
174	0xbccd5d02	-0.025068764
175	0xbbd9f59d	-0.006651594
176	0x3d223130	0.03959769
177	0xbc80d60f	-0.015727071
178	0xbe1c7a4f	-0.15281032
179	0xbc4a39e9	-0.012342908
180	0x3d8a79a2	0.06761481
181	0xbcaefae0	-0.02135986
182	0xbc599025	-0.013278996
183	0x3dafaac5	0.085774936
184	0x3c90cd30	0.017675966
185	0x3d2620a0	0.040558457
186	0x3d8e67dd	0.06953404
187	0x3da0f56b	0.0785931
188	0x3c90c1c7	0.017670525
189	0x3dc747ac	0.09730467
190	0xbbee99e7	-0.00728153
191	0xbe2ac962	-0.16678384
192	0xbe27f380	-0.16401482
193	0x3d0474c7	0.03233793
194	0xbd84af38	-0.06478733
195	0x3e0f9200	0.14020538
196	0x3d8fa694	0.07014194
197	0xbd9eff93	-0.07763591
198	0x3d31755c	0.043324813
199	0x3e1bb439	0.15205468
200	0x3c5f87bf	0.013643204
201	0xbc966cc7	-0.018362416
202	0xbd6bdf0b	-0.057585757
203	0xbd57043d	-0.052494276
204	0x3c92cc33	0.017919635
205	0x3be5c1bc	0.0070116203
206	0xbd89701a	-0.06710835
207	0xbda30fc9	-0.07961995
208	0x3d2c0282	0.04199458
209	0x3d064fad	0.03279083
210	0x3c548e03	0.012973311
211	0x3cf2a5ff	0.029620169
212	0xbd317db8	-0.043332785
213	0x3d304eab	0.043043774
214	0x3e259d55	0.16173299
215	0x3c931dc0	0.017958522
216	0xbe1e78f6	-0.1547583
217	0x3d1361fa	0.03598211
218	0xbd938168	-0.07202417
219	0xbdbf0d22	-0.09328677
220	0x3d916048	0.07098442
221	0x3d4aa0be	0.049469702
222	0x3d175c47	0.036953237
223	0x3d8276ab	0.0637029
224	0xbd1a841d	-0.03772365
225	0x3d019d93	0.031644415
226	0xbdd69b63	-0.104788564
227	0x3d863690	0.06553376
228	0xbd091055	-0.03346284
229	0x3bb29fe4	0.0054511894
230	0x3e084192	0.13306263
231	0x3c840ce7	0.016119434
232	0xbd4c1703	-0.049826633
233	0x3e0266fe	0.12734601
234	0x3d6f9870	0.058494985
235	0x3d3f3d6e	0.046689443
236	0x3b84794d	0.0040427805
237	0x3dbda6a7	0.09260302
238	0xbd6e1a11	-0.058130328
239	0xbd890ee1	-0.06692291
240	0x3e2bae9d	0.16765828
241	0x3e2a3e13	0.16625242
242	0x3c0e6aac	0.008692425
243	0x3d9b57f0	0.07585132
244	0xbca61e0b	-0.020277997
245	0xbcb87153	-0.022514975
246	0x3da0c536	0.07850115
247	0x3e8fcbce	0.28085178
248	0xbdb98c5c	-0.090599746
249	0xbc38702d	-0.011257214
250	0x3d2bf54e	0.041981988
251	0xbca64821	-0.020298066
252	0xbe0c56c2	-0.1370497
253	0x3d3bf49a	0.045887567
254	0xbd8ae28a	-0.0678149
255	0x3d7860d9	0.060639236

nn_model.4.bias f4 [100]
0	0xbc0c2ac7	-0.008555121
1	0xbd0d6ea8	-0.03452936
2	0x3e044704	0.12917715
3	0x3d9bd057	0.07608097
4	0xbdb7b5fb	-0.08970257
5	0x3dbf7063	0.09347608
6	0x3dd688fe	0.10475348
7	0xbdc25077	-0.09488004
8	0x3d896d92	0.06710352
9	0xbcd821ff	-0.026383398
10	0xbd9266e9	-0.07148535
11	0xbd7388c2	-0.059456594
12	0xbdc426ef	-0.095777385
13	0xbd949c6b	-0.07256397
14	0x3dd57658	0.10422963
15	0xbc834e8f	-0.01602867
16	0xbb787767	-0.0037912966
17	0x3b94b5f9	0.0045382944
18	0x3db67902	0.08909799
19	0xbc43b630	-0.011945292
20	0x3d36a005	0.0445862
21	0xbcc71710	-0.02430299
22	0x3d8bfadb	0.06834956
23	0xbcc334aa	-0.023828823
24	0x3df367b7	0.118850164
25	0x3c8edfb1	0.017440649
26	0xbd54cdff	-0.051954266
27	0x3d5a0707	0.053229358
28	0x3dc145b9	0.09437127
29	0x3bb1879a	0.0054177763
30	0x3c4a127c	0.012333509
31	0x3d40cb3c	0.04706882
32	0xbcce90ea	-0.025215585
33	0x3c7177c9	0.014738032
34	0x3dc4905a	0.095978454
35	0x3d482255	0.048860867
36	0x3cd5bdbe	0.026091453
37	0x3d4515b9	0.04811642
38	0x3bd51922	0.00650324
39	0xbd47e156	-0.04879888
40	0x3d87cbb9	0.06630654
41	0x3d836807	0.06416326
42	0x3d2045f3	0.03912921
43	0x3c8e8347	0.017396582
44	0x3d451166	0.048112296
45	0xbd810c8f	-0.063012235
46	0x3d2ef046	0.04270961
47	0x3c39c77a	0.011339063
48	0xbd25c453	-0.040470432
49	0xbdac4019	-0.08410663
50	0xbc1ea940	-0.009683907
51	0x3db161ac	0.086612076
52	0xbd600109	-0.054688487
53	0x3d451c84	0.048122898
54	0xbd1d85cc	-0.038457677
55	0xbb71cb85	-0.0036894989
56	0x3da4f726	0.08054952
57	0xbd022414	-0.031772688
58	0x3dc6379b	0.09678575
59	0x3dac03ef	0.08399188
60	0x3cac6b02	0.021047119
61	0xbd27c6e7	-0.040961172
62	0x3c248263	0.010040852
63	0x3dc1163a	0.094280675
64	0xbda1544e	-0.07877408
65	0x3df4f644	0.11961034
66	0x3d98e050	0.07464659
67	0xbd4561fb	-0.048189145
68	0x3dd4029e	0.10352062
69	0x3c1b002a	0.009460488
70	0xbc81747a	-0.01580261
71	0xbdad76f9	-0.08469958
72	0x3da5f11a	0.08102627
73	0xbd9100db	-0.07080241
74	0xbd88c74b	-0.06678637
75	0x3a4b1a67	0.00077477697
76	0x3cca2bad	0.02467903
77	0xbd204119	-0.039124582
78	0x3d2c3276	0.04204031
79	0xbcdb75a7	-0.0267895
80	0x3d32e916	0.04367932
81	0xbc841d6a	-0.016127307
82	0xbcf7562d	-0.030192459
83	0xbdc37fe7	-0.0954588
84	0x3de963c7	0.11395984
85	0x3d5c3c67	0.05376854
86	0x3e0349aa	0.1282107
87	0xbd98c290	-0.07458985
88	0x3b1bee2d	0.0023793087
89	0xbd0348a2	-0.03205169
90	0xbd3b0316	-0.04565724
91	0xbbe2c3d1	-0.006920316
92	0x3d11b1e1	0.03557003
93	0x3d6c2cac	0.05765979
94	0xbda3632e	-0.079779014
95	0xbda63408	-0.08115393
96	0x3de5b7b0	0.11216676
97	0x3d880222	0.06641032
98	0x3d268cc5	0.040661592
99	0x3dfc60b2	0.12323131

allocation_head.0.weight f4 [4, 100]
0	0x3c947105	0.018120298
1	0x3d81dc0e	0.063408
2	0xbd4a2281	-0.04934931
3	0xbc24c29c	-0.010056164
4	0x3ddb6a23	0.10713603
5	0x3cdbacad	0.026815737
6	0xbc61c1bb	-0.013779099
7	0x3da2623f	0.07928895
8	0x3cd2b411	0.025720628
9	0x3c883c41	0.016630294
10	0x3e90b029	0.282594
11	0xbd1d8314	-0.038455084
12	0xbdc3a7c7	-0.09553485
13	0xbde39e67	-0.11114197
14	0xbcb316ff	-0.021861551
15	0xbb433d60	-0.002979122
16	0x3d21ede7	0.039533522
17	0x3d871d8b	0.06597432
18	0xbd779299	-0.06044254
19	0x3c06ddcd	0.008231592
20	0x3dde5b3c	0.10857245
21	0x3de841df	0.11340689
22	0xbbe41745	-0.0069607818
23	0x3dd8b02e	0.105804786
24	0xbd087a1b	-0.033319574
25	0xbc372717	-0.011178753
26	0x3e1e5f22	0.15465978
27	0xbdbdfca5	-0.09276704
28	0xbd275288	-0.040850192
29	0xbccf649a	-0.025316525
30	0xbd2d6056	-0.0423282
31	0x3c8f4e96	0.017493527
32	0xbd84bf48	-0.064817965
33	0xbd8996af	-0.06718194
34	0xbd8f9cdc	-0.070123404
35	0xbdb3b4c7	-0.08774715
36	0xbe8f806c	-0.28027666
37	0x3e2baffe	0.16766354
38	0x3e00a3de	0.1256251
39	0x3d521d23	0.05129732
40	0xbdc99c47	-0.09844261
41	0xbd035840	-0.032066584
42	0x3c28af54	0.010295708
43	0xbdd057e1	-0.101730116
44	0xbd90973c	-0.07060096
45	0xbd39d25b	-0.045366626
46	0x3de5a37a	0.11212821
47	0x3d7a7736	0.061148845
48	0xbd35a7d3	-0.044349503
49	0x3b8207b5	0.003968204
50	0x3d930fb1	0.07180727
51	0x3dd3143d	0.103065945
52	0xbe602168	-0.21887743
53	0x3c6bba4c	0.014387678
54	0x3d730a2f	0.059335884
55	0xbe01dba1	-0.12681438
56	0x3c948827	0.018131329
57	0xbe1beedb	-0.15227835
58	0xbbe983d7	-0.0071263122
59	0xbe48f8ce	-0.19626161
60	0x3dadaecb	0.08480605
61	0x3d24b993	0.04021604
62	0xbd9dc04b	-0.077026926
63	0x3c69f231	0.014278934
64	0x3e039853	0.12851076
65	0xbe3d63da	-0.18495122
66	0xbc412e7f	-0.011790871
67	0x3d815d11	0.06316579
68	0x3d894af9	0.06703753
69	0x3dbf41f5	0.09338752
70	0xbd9dd2df	-0.07706236
71	0xbe2e1af5	-0.17002471
72	0x3d62bcb4	0.055355743
73	0x3da9afda	0.08285494
74	0x3da5e799	0.08100814
75	0x3db4b4e8	0.08823568
76	0xbd9dc52d	-0.07703624
77	0xbe9f99dc	-0.31172073
78	0x3d298308	0.041384727
79	0xbd801fbd	-0.062560536
80	0xbdfc3efc	-0.12316701
81	0x3e0d692a	0.13809648
82	0x3dbbcb14	0.091695935
83	0xbdbffeb8	-0.093747556
84	0xbd12235f	-0.035678264
85	0xbd248bfc	-0.040172562
86	0xbd87b97b	-0.066271745
87	0xbd3b7f4a	-0.04577569
88	0x3caba598	0.020952985
89	0xbdf80edd	-0.1211221
90	0x3db04acf	0.086080186
91	0x3b4bb227	0.003108153
92	0x3d80c6f2	0.06287946
93	0x3d87f244	0.066380054
94	0xbdb8b164	-0.090182096
95	0xbd790540	-0.060796022
96	0x3c724f39	0.014789396
97	0x3cc6722d	0.024224365
98	0xbd9019ab	-0.07036146
99	0xbd7e5ecf	-0.062102135
100	0x3e07a9e7	0.13248406
101	0x3e0823d3	0.13294916
102	0xbd14a5bb	-0.036290865
103	0xbb82049c	-0.0039678346
104	0xbf0d7eac	-0.5527141
105	0xbaeb9733	-0.0017974138
106	0xbd95b9c7	-0.07310825
107	0xbd9df94f	-0.077135675
108	0x3c8c20d9	0.017105507
109	0x3bab35fc	0.0052249413
110	0x3e81aae2	0.25325686
111	0x3dd4857a	0.10377021
112	0xbd7941f3	-0.06085391
113	0x3e3727a0	0.1788621
114	0x3d94a59c	0.0725815
115	0xbdad38fb	-0.08458134
116	0xbccbe2d3	-0.024888432
117	0x3d25e29d	0.04049932
118	0x3c87cb9d	0.016576583
119	0x3d8e0b51	0.06935752
120	0x3d81d1a2	0.063388124
121	0x3da0cc16	0.07851426
122	0xbd79d2a2	-0.06099189
123	0x3c1257d3	0.008932072
124	0xbde34ae9	-0.11098272
125	0xbd8c2997	-0.0684387
126	0xbc8c6128	-0.017136171
127	0xbd47858a	-0.048711337
128	0xbd14f030	-0.036361873
129	0xbda7dbc8	-0.08196217
130	0x3d682b47	0.056681897
131	0x3d8657d8	0.065597236
132	0xbd52cdf5	-0.051465947
133	0x3c01e850	0.007928923
134	0x3dab559b	0.08365937
135	0xbb8f394d	-0.0043708445
136	0xbe3531b5	-0.17694743
137	0xbd93ba67	-0.07213288
138	0xbd1c41b7	-0.038148608
139	0x3d8d0898	0.06886405
140	0x3e085574	0.13313848
141	0x3da8bcfc	0.08239171
142	0x3db50786	0.088393256
143	0xbc633f08	-0.013870008
144	0xbdcbfa0a	-0.099598005
145	0xbd8233a5	-0.06357507
146	0x3d9aaa00	0.07551956
147	0xbc967fa0	-0.018371403
148	0xbd4b9717	-0.049704637
149	0xbd8ebe2a	-0.06969865
150	0xbdaec265	-0.085331716
151	0xbd9fa929	-0.077959366
152	0xbebf169a	-0.3732193
153	0x3d4dd79e	0.050254457
154	0x3d809bbc	0.06279704
155	0xbde24512	-0.1104833
156	0x3d90a0ce	0.07061921
157	0xbdbe4ff3	-0.09292593
158	0xbc6aa9d4	-0.014322717
159	0xbe5d54c6	-0.2161437
160	0x3c2815bb	0.010259087
161	0xbca0d80d	-0.019634271
162	0xbdba4582	-0.09095289
163	0xbdd6ab95	-0.104819454
164	0x3ce0e074	0.027450778
165	0xbe3460f3	-0.17615108
166	0xbd6873e3	-0.056751143
167	0x3dc50257	0.09619587
168	0xbdc05785	-0.09391693
169	0x3bc753c5	0.006082984
170	0x3db41ae8	0.087941945
171	0xbe1491a0	-0.14508677
172	0x3deaba48	0.114613116
173	0x3d145693	0.036215376
174	0xbdc34315	-0.09534279
175	0x3d819390	0.063269734
176	0xbc9b29fb	-0.018940916
177	0xbb958e85	-0.004564109
178	0x3ded9eb5	0.116025366
179	0xbda57f77	-0.080809526
180	0xbb01fbbd	-0.0019833886
181	0x3cfc6051	0.030807646
182	0x3dc7f8d8	0.0976426
183	0x3d0aee93	0.03391893
184	0x3ca36dde	0.01994985
185	0x3d08a490	0.033360064
186	0xbd45d9e3	-0.048303496
187	0xbcac4840	-0.021030545
188	0xbdcb8c18	-0.0993883
189	0x3d0ceeab	0.0344073
190	0x3e014e1d	0.12627454
191	0x3e1997ac	0.14999264
192	0xbda2b02b	-0.079437576
193	0x3d76c784	0.060248867
194	0xbd7c9cab	-0.061672848
195	0xbd6178fa	-0.055047013
196	0xbd9862d9	-0.07440729
197	0x3dee29f3	0.11629095
198	0x3cd32b2b	0.02577742
199	0xbc3a36bd	-0.01136559
200	0xbc7039a7	-0.014662183
201	0x3d600bac	0.05469863
202	0xbdde4de9	-0.10854704
203	0xbe075c98	-0.13218915
204	0xbe509b4c	-0.20371741
205	0x3d8f58ab	0.06999334
206	0xbcc5d385	-0.024148712
207	0x3dacbf1a	0.08434887
208	0x3acd3a8c	0.0015657707
209	0x3cb8446c	0.022493564
210	0xbea08aeb	-0.31355986
211	0xba7e2eb0	-0.0009696288
212	0x3c4d9067	0.012546635
213	0x3cb4dfe2	0.022079412
214	0xbca45c08	-0.020063415
215	0x3c9f464f	0.019442705
216	0xbda03213	-0.07822051
217	0xbd6f2541	-0.058385137
218	0x3d965187	0.07339769
219	0xbe081f7d	-0.13293262
220	0xbda2ace9	-0.07943136
221	0x3d8c66f9	0.06855578
222	0x3cb85b58	0.022504494
223	0xbce68ab2	-0.028142307
224	0xbd8e4100	-0.069459915
225	0x3d92049b	0.07129785
226	0xbe0a96a8	-0.13534033
227	0xbce88aa7	-0.028386427
228	0xbd63f6c1	-0.055655245
229	0xbc72a05a	-0.014808739
230	0x3b918e78	0.0044420324
231	0x3e1b054f	0.15138744
232	0x3c4c8933	0.012483883
233	0x3de2c00c	0.11071786
234	0x3d7b9ea3	0.061430585
235	0xbd8d9436	-0.069130346
236	0x3e8893dd	0.2667531
237	0xbe1c0cff	-0.15239333
238	0xbdfcb1b7	-0.12338584
239	0x3cd9c2f3	0.026582217
240	0x3e0c0089	0.13672079
241	0x3d64a499	0.055821035
242	0xbcd175b6	-0.025568824
243	0x3c0b9a6c	0.008520704
244	0x3d4c16ef	0.04982656
245	0xbdd2bae4	-0.10289553
246	0x3cbe936b	0.023263654
247	0xbdae8203	-0.085208915
248	0x3ab4a667	0.0013782502
249	0xbcc9580c	-0.024578117
250	0xbd77e245	-0.06051852
251	0x3c1cb51b	0.009564663
252	0x3eaeb96b	0.34125838
253	0xbcf6a9f3	-0.030110335
254	0xbd5395f1	-0.051656667
255	0x3cfd8b17	0.030950112

allocation_head.0.bias f4 [4]
0	0x3d49010d	0.049073268
1	0xbb9c7e8b	-0.0047758273
2	0xbd0474c0	-0.032337904
3	0x3dd539c3	0.10411408

payment_head.0.weight f4 [1, 100]
0	0x3c607fbd	0.01370233
1	0xbe12c1f8	-0.14331806
2	0x3e636d8b	0.22209756
3	0x3dff7573	0.124735735
4	0xbe8971df	-0.2684469
5	0x3d66422d	0.056215454
6	0xbd90db87	-0.070731215
7	0xbc806160	-0.015671432
8	0x3e041258	0.12897623
9	0x3c59949b	0.013280059
10	0xbd0b8b9d	-0.034068692
11	0x3e707049	0.23480333
12	0xbcde5e2d	-0.027144516
13	0xbcbecc8f	-0.0232909
14	0x3dd81d76	0.10552494
15	0x3e1582d1	0.14600684
16	0x3baf70e7	0.005354035
17	0xbe2824fb	-0.16420357
18	0x3e40c72d	0.1882598
19	0x3d2b3b7f	0.041804787
20	0x3e019ef2	0.12658289
21	0xbe01b226	-0.12665614
22	0x3e67d9e8	0.22641718
23	0xbdd5acd5	-0.10433356
24	0x3dd8dc65	0.10588912
25	0x3e190696	0.14943919
26	0xbd976422	-0.07392146
27	0x3d184263	0.037172686
28	0x3e2f9207	0.17145549
29	0x3bd6eb80	0.0065588355
30	0xbdfbadc8	-0.122890055
31	0xbd2f2cdf	-0.0427674
32	0x3cb2e247	0.021836413
33	0x3f021863	0.5081846
34	0x3e1b9084	0.15191847
35	0xbdc60735	-0.096693434
36	0x3d0fc2bf	0.035097834
37	0xbe27440b	-0.1633455
38	0xbd44a2a3	-0.048006665
39	0x3d7f6c6d	0.062359262
40	0xbdd43360	-0.103613615
41	0x3d870565	0.06592826
42	0xbd0a213d	-0.033723105
43	0x3e3ef876	0.18649468
44	0x3e200d0e	0.1562998
45	0x3e306d48	0.17229187
46	0x3dd784d0	0.10523379
47	0x3da3a878	0.07991117
48	0x3dcb9200	0.09939957
49	0x3d3044c8	0.043034345
50	0xbd97eeaa	-0.074185684
51	0x3e1156f0	0.1419332
52	0xbccabe91	-0.024749072
53	0x3d0373cd	0.032092858
54	0xbd9d9abe	-0.0769553
55	0x3e81c668	0.25346684
56	0xbe3bdd5e	-0.18346164
57	0x3ec77ff5	0.3896481
58	0x3dd63fc6	0.104613826
59	0xbda8f796	-0.08250348
60	0x3c9fc753	0.019504225
61	0x3d5be047	0.053680684
62	0x3e2e9d48	0.17052186
63	0x3eb4fc70	0.35348845
64	0xbd9a40db	-0.075319014
65	0xbb1f16e4	-0.0024275118
66	0x3e82598a	0.25458938
67	0x3dd356f6	0.10319321
68	0x3e0c75a8	0.13716757
69	0xbd470b76	-0.048594914
70	0x3d0f9ccd	0.035061646
71	0x3ea774cb	0.32706293
72	0xbe0581c7	-0.13037787
73	0x3d3f1f63	0.046660792
74	0xbd586c8c	-0.052837893
75	0x3d450e8a	0.04810957
76	0x3f03b088	0.5144124
77	0xbeb25c62	-0.34836107
78	0xbe15055e	-0.14552829
79	0x3d55bef7	0.05218407
80	0x3e35cd31	0.17754056
81	0x3da2ec9d	0.07955287
82	0x3ca5cd37	0.020239456
83	0x3d4a0e48	0.049330026
84	0x3d857cba	0.0651793
85	0x3e464db0	0.19365573
86	0x3e2b0ba9	0.16703667
87	0x3c59be8d	0.01329006
88	0x3d1d98d0	0.03847581
89	0x3e404471	0.18776108
90	0x3dccb309	0.09995086
91	0xbc853123	-0.016258782
92	0xbd76ef08	-0.06028655
93	0xbdcd25a5	-0.10016946
94	0x3da36a99	0.07979316
95	0x3db80911	0.08986104
96	0x3e3721e7	0.17884026
97	0x3e5358b5	0.20639308
98	0x3e19eb54	0.15031177
99	0x3e1f8888	0.15579426
