result/1x2_sparsemax_in_linsigpmt_scratch_59_checkpoint.pt (torch, 88519 bytes, 9 tensors)

nn_model.0.weight f4 [100, 2]
0	0xbe818633	-0.25297698
1	0x3ec672b5	0.3875939
2	0x3e9c641d	0.3054513
3	0xbe62fa4f	-0.22165798
4	0x3e32957d	0.17439838
5	0xbe7e5722	-0.24837926
6	0x3f0bcd92	0.5461055
7	0xbe06684b	-0.13125722
8	0xbe85e1b3	-0.26148757
9	0x3e2317b6	0.15927014
10	0x3ec67ed0	0.38768625
11	0xbe953e96	-0.29149312
12	0x3d251e26	0.040311955
13	0x3eb4af5b	0.35290036
14	0xbd90162e	-0.070354804
15	0x3e5c5c7e	0.21519658
16	0xbe2ea355	-0.17054494
17	0x3e7dc9f1	0.24784066
18	0xbee1e7b5	-0.4412209
19	0xbeb45b01	-0.3522568
20	0xbe80eadf	-0.25179192
21	0x3f2c0a6c	0.672034
22	0xbdf17648	-0.117901385
23	0xbce33797	-0.027736468
24	0xbed83191	-0.42225316
25	0x3f396230	0.7241545
26	0x3f1d9409	0.6155401
27	0xbf0d1777	-0.5511393
28	0xbec8efbc	-0.39245403
29	0xbeb180ed	-0.34668675
30	0xbdc2a6b8	-0.09504455
31	0xbe7b2b87	-0.24528323
32	0xbeecf889	-0.46283367
33	0xbe81da6a	-0.2536195
34	0x3df7587e	0.120774254
35	0xbec2cd2d	-0.38047162
36	0x3e207161	0.1566825
37	0xbe260add	-0.16215082
38	0xbeaf6e40	-0.34263802
39	0x3dc6f497	0.097146206
40	0x3f16da3a	0.5892674
41	0xbf20990e	-0.6273354
42	0xbd1ad09f	-0.037796613
43	0xbe97d70c	-0.29656255
44	0x3f687bce	0.9081391
45	0xbef4bebe	-0.47801775
46	0xbf0d2479	-0.5513378
47	0x3f3a5b6b	0.7279574
48	0xbee50ee8	-0.44737935
49	0x3e0ad291	0.13556887
50	0xbd79f81a	-0.061027624
51	0xbe18882e	-0.14895698
52	0xbe45f93d	-0.19333358
53	0x3edb36bf	0.42815205
54	0x3d0a6f4f	0.03379756
55	0xbf303e39	-0.68844944
56	0xbed557e2	-0.41668612
57	0xbe3d113a	-0.18463603
58	0x3eb62f0d	0.35582772
59	0xbeea4995	-0.45759264
60	0x3f4152a1	0.75516707
61	0xbdcd0fdf	-0.10012793
62	0xbe35532d	-0.1770751
63	0x3f1c6c79	0.61103016
64	0x3e28609a	0.164431
65	0x3f00f95f	0.5038051
66	0x3f0131dd	0.5046671
67	0xbe20143f	-0.15632723
68	0xbef033e2	-0.46914583
69	0xbd577e87	-0.0526109
70	0x3f21792f	0.63075536
71	0xbd24dd51	-0.040250126
72	0xbee0002b	-0.43750128
73	0x3ecddcf8	0.40207648
74	0x3f41e829	0.75744873
75	0xbe0eb11f	-0.13934754
76	0xbf15e366	-0.5855011
77	0xbf243202	-0.64138806
78	0x3e464cf2	0.1936529
79	0xbcb76dc2	-0.022391204
80	0xbee931d0	-0.45545816
81	0x3da9af34	0.082853705
82	0x3eb820eb	0.35962614
83	0x3f212e15	0.6296094
84	0x3f053bba	0.5204426
85	0xbe24af32	-0.16082457
86	0xbf1f9ded	-0.6235035
87	0xbf2392c1	-0.63895804
88	0x3f428ca1	0.7599583
89	0x3ebcc004	0.36865246
90	0x3e9dd0b9	0.30823305
91	0xbf1c9f2a	-0.61180365
92	0x3f3c2afa	0.7350308
93	0x3f3bed29	0.7340875
94	0x3f172dcf	0.59054273
95	0xbf1b154d	-0.6057938
96	0xbe81773c	-0.2528628
97	0xbee4dbb0	-0.44698858
98	0x3f0a4178	0.5400615
99	0xbee246cb	-0.44194636
100	0xbeb594eb	-0.35465178
101	0x3eb272ed	0.34853306
102	0xbea779f0	-0.32710218
103	0xbeb24fe3	-0.34826574
104	0xbde9489b	-0.113908015
105	0xbdf7ab3f	-0.120932095
106	0xbf04528e	-0.5168847
107	0x3f485f50	0.78270435
108	0xbe9fb3ff	-0.31192014
109	0x3e806ba6	0.2508213
110	0x3f262264	0.64896226
111	0x3ec563a5	0.38552585
112	0x3e26dbef	0.16294836
113	0x3f2abf58	0.6669822
114	0x3dc2ab84	0.0950537
115	0xbea77fe5	-0.32714763
116	0x3f384ded	0.71993905
117	0x3e4cd7e8	0.20004237
118	0xbeacf8d8	-0.33783603
119	0xbde33743	-0.11094525
120	0xbef3cf65	-0.47619167
121	0x3f4dd758	0.80406713
122	0xbdef2822	-0.116775766
123	0xbf2500ee	-0.64454544
124	0xbcf8edef	-0.030386893
125	0x3ee91ea4	0.4553119
126	0x3e3c1d98	0.18370664
127	0x3e64f4da	0.22359028
128	0x3e267bc9	0.16258158
129	0x3ebc1e04	0.3674165
130	0xbdef061f	-0.116710894
131	0xbe62d2cc	-0.22150725
132	0xbf293347	-0.6609387
133	0xbf085e59	-0.53268963
134	0x3e6f1907	0.23349391
135	0xbee6fb50	-0.4511361
136	0x3e134279	0.14380826
137	0x3e98fca0	0.29880238
138	0xbd59764c	-0.053091332
139	0xbf031eab	-0.5121867
140	0x3f474cf4	0.77851796
141	0xbe63ce67	-0.22246705
142	0x3f02e780	0.5113449
143	0xbf23eba7	-0.6403145
144	0xbe2e2cfb	-0.17009346
145	0x3ec4f010	0.38464403
146	0xbe887693	-0.26652965
147	0x3f1fe1bf	0.62453836
148	0xbef923a6	-0.4866001
149	0xbf1803cf	-0.5938081
150	0xbea3400b	-0.31884798
151	0x3dea1845	0.1143041
152	0x3f214429	0.6299463
153	0xbe9af8fb	-0.30268082
154	0x3e959473	0.2921482
155	0xbe3c106f	-0.18365644
156	0xbe834e66	-0.2564575
157	0x3f0654fe	0.5247344
158	0xbf0c4995	-0.5479978
159	0x3d99d036	0.07510416
160	0x3f062e0b	0.52414006
161	0xbe9305de	-0.28715414
162	0x3f09aef0	0.5378256
163	0xbec0ae41	-0.37632945
164	0x3f11b6b6	0.5691942
165	0xbf2f1b02	-0.68400586
166	0xbdbb9c75	-0.09160701
167	0xbe088d05	-0.13335045
168	0x3e9d5951	0.30732206
169	0x3ea4f168	0.32215428
170	0x3f1fa19c	0.6235597
171	0xbe494afc	-0.1965751
172	0x3d90595c	0.07048294
173	0x3f1080b2	0.56446373
174	0xbe57d5f5	-0.21077712
175	0x3f19c4fe	0.6006621
176	0xbe8c58a6	-0.27411383
177	0xbdba4a2a	-0.09096177
178	0x3ba26519	0.0049558994
179	0x3e91ee02	0.28501898
180	0x3f003700	0.50083923
181	0xbe656829	-0.22403015
182	0xbf15f894	-0.58582425
183	0x3eb36329	0.3503659
184	0x3e858b77	0.26082966
185	0x3e79255e	0.2433066
186	0xbea3f0dc	-0.320197
187	0x3f15918e	0.58425224
188	0x3f3fc7f9	0.7491451
189	0x3e1a94d4	0.15095836
190	0xbf312919	-0.69203335
191	0x3ec79c0c	0.38986242
192	0xbf06378e	-0.5242852
193	0x3e2671f7	0.16254412
194	0x3cdd71ed	0.027031863
195	0xbecbc7b4	-0.398008
196	0x3e7c1eda	0.24621144
197	0xbf21e8dc	-0.6324594
198	0x3e1bdc27	0.152207
199	0xbf20df4b	-0.6284072

nn_model.0.bias f4 [100]
0	0x3d0d2d8f	0.034467276
1	0xbe128429	-0.14308228
2	0x3f2810fe	0.6565093
3	0xbeaa735e	-0.33291143
4	0x3eef419d	0.46729746
5	0xbe42dd73	-0.19029789
6	0xbec93089	-0.39294842
7	0xbf1da1af	-0.61574835
8	0xbf2616ac	-0.64878345
9	0x3f4a65d8	0.7906165
10	0xbed16d14	-0.40903533
11	0x3e1cc653	0.1531003
12	0x3e3e71e5	0.18598135
13	0x3f0c7c4c	0.5487716
14	0x3f3cb2ff	0.73710626
15	0x3f1d1934	0.6136658
16	0xbf061d3a	-0.52388346
17	0xbe011237	-0.12604605
18	0xbed63b5e	-0.4184217
19	0xbeced9f7	-0.4040067
20	0x3e58f823	0.21188407
21	0x3f35f4a6	0.7107643
22	0xbf00995d	-0.50234014
23	0x3f0b66ac	0.5445354
24	0xbebbb47b	-0.36661133
25	0xbe0d0819	-0.1377262
26	0x3f132279	0.57474476
27	0xbe23c3c9	-0.15992655
28	0x3dc2cbbd	0.09511516
29	0xbefd13aa	-0.49429065
30	0x3f17537d	0.5911177
31	0xbddbaea8	-0.107266724
32	0xbf2ad524	-0.66731477
33	0x3e3f1bca	0.18662944
34	0xbf00b538	-0.5027652
35	0xbf0e88b0	-0.5567732
36	0x3e0a7a62	0.13523248
37	0x3f0ce02a	0.5502955
38	0xbe4ce6fe	-0.20009992
39	0x3ea8af47	0.32946226
40	0x3f2861bd	0.65774137
41	0x3eeb7ecb	0.45995173
42	0xbee5a2ba	-0.44850713
43	0xbd9ebf1b	-0.07751294
44	0xbe8e798f	-0.27827117
45	0xbf118fd2	-0.5686008
46	0xbcd140a8	-0.025543526
47	0x3f1aec48	0.60516787
48	0x3f32962a	0.6976038
49	0xbe57f5e1	-0.21089889
50	0x3e5e41e7	0.21704827
51	0xbe9cbc00	-0.30612183
52	0x3f0d50a5	0.5520118
53	0xbe8b19e3	-0.27168187
54	0xbefb7dbd	-0.49119368
55	0x3deffa96	0.11717717
56	0x3ed62d9b	0.4183167
57	0xbf23349c	-0.6375215
58	0x3f21763b	0.6307103
59	0x3eeea799	0.46612242
60	0xbeb95178	-0.36194968
61	0xbe1bf8c0	-0.1523161
62	0x3f1b7ce1	0.60737425
63	0xbf0ae262	-0.5425168
64	0xbe1c5f20	-0.15270662
65	0x3ebbd6f9	0.3668745
66	0xbf1e969d	-0.6194857
67	0x3ee6d4e4	0.45084298
68	0x3ec1ba0b	0.37837252
69	0x3f04e92d	0.519183
70	0xbf029fb2	-0.51024926
71	0x3f41ad3d	0.75654966
72	0xbed69a43	-0.41914567
73	0x3f3723b9	0.71538883
74	0xbf2db8f7	-0.6786036
75	0xbf214865	-0.6300109
76	0x3ee9f97e	0.4569816
77	0xbdec0aa3	-0.11525466
78	0x3b917cb5	0.004439915
79	0xbec87b61	-0.3915663
80	0xbef1ec26	-0.4725048
81	0xbe963a3b	-0.293413
82	0xbf30574a	-0.6888319
83	0x3e745de3	0.2386394
84	0x3dfdcbab	0.12392362
85	0x3cb2760f	0.02178481
86	0x3e6cffb2	0.23144415
87	0x3f3384e7	0.7012467
88	0x3ebacf2d	0.36486188
89	0xbe98cbe2	-0.2984305
90	0xbe854a43	-0.2603322
91	0xbee7a265	-0.45241085
92	0xbf00f772	-0.5037757
93	0xbe146e22	-0.14495137
94	0xbddaf360	-0.10690951
95	0x3eca9d69	0.3957322
96	0xbe9abfa8	-0.30224347
97	0x3f1a5cd8	0.6029792
98	0xbefe090d	-0.4961628
99	0x3dba95b0	0.09110582

nn_model.2.weight f4 [100, 100]
0	0x3e4b4f36	0.19854435
1	0x3e25b8e9	0.16183819
2	0xbc3ab2a9	-0.011395135
3	0x3e4aa5b4	0.19789773
4	0x3d676e7a	0.056501843
5	0x3df9eb54	0.122030884
6	0xbd86087f	-0.06544589
7	0x3cdde233	0.0270854
8	0xbd8e692a	-0.06953652
9	0x3d26bd68	0.040707976
10	0x3e059aff	0.13047408
11	0xbc18b882	-0.009321334
12	0x3dd96c2f	0.106163375
13	0x3d33920b	0.04384045
14	0x3d849068	0.06472856
15	0x3e0c087f	0.13675116
16	0xbcfa674d	-0.030566836
17	0x3d77a499	0.060459707
18	0xbcea50ad	-0.028602922
19	0xbc6f5373	-0.014607298
20	0xbccfb337	-0.025354011
21	0x3d1deb9d	0.038554776
22	0x3c851a29	0.016247826
23	0x3d946e1e	0.07247566
24	0x3b76f133	0.0037680387
25	0x3d81d215	0.06338898
26	0x3d148b12	0.03626544
27	0x3c244c8d	0.010028017
28	0xbc6e3b68	-0.014540531
29	0xbdab82b2	-0.083745375
30	0x3dcf1eac	0.10113272
31	0xbb1ca12f	-0.0023899784
32	0xbccf41e6	-0.025299978
33	0x3ceb1e1f	0.028700886
34	0x3cd63d00	0.026152134
35	0xbcb023e0	-0.021501482
36	0x3e03e6d3	0.12881021
37	0x3d86629f	0.06561779
38	0x3d1ab890	0.03777367
39	0x3dc86dfb	0.09786602
40	0x3c7bb037	0.015361837
41	0x3dc3bb4d	0.09557209
42	0x3dc44dbd	0.0958514
43	0x3b96cb00	0.004601836
44	0x3cf2df3d	0.029647464
45	0x3b6e2100	0.0036335588
46	0x3da9da41	0.08293582
47	0x3b9db09c	0.0048123132
48	0xbcca5bd3	-0.024701988
49	0x3dd26b13	0.10274329
50	0xbdac7127	-0.084200196
51	0x3ad22400	0.0016032457
52	0xbbacf9ee	-0.0052788174
53	0x3e35dcfc	0.1776008
54	0xbdbead43	-0.09310391
55	0x3da5c09d	0.08093379
56	0x3e1ee2ca	0.155162
57	0x3ca5c1cd	0.020234013
58	0x3d58b054	0.052902535
59	0x3dd40b29	0.10353691
60	0x3dda4ddb	0.10659381
61	0xbc034a73	-0.008013356
62	0x3c62807a	0.0138245765
63	0xbc622ab3	-0.013804126
64	0x3d8867f1	0.0666045
65	0x3cd79c94	0.02631978
66	0xbc9ab9f3	-0.018887496
67	0xbd7df0d1	-0.06199724
68	0x3d86d0c6	0.06582789
69	0x3d6320c9	0.05545119
70	0x3e3d5cf5	0.18492492
71	0x3df8809b	0.121339045
72	0x3dc7114a	0.097200945
73	0xbb4b676e	-0.003103699
74	0xbbcc52b3	-0.0062354445
75	0xbd241dad	-0.040067364
76	0xbd122038	-0.035675257
77	0x3983d490	0.00025144638
78	0x3ded0982	0.11574079
79	0x3d6ed263	0.05830611
80	0x3cc79dd9	0.02436726
81	0x3dd1db82	0.10246946
82	0xbda2b595	-0.0794479
83	0x3c59e457	0.013299069
84	0x3dfbc5e0	0.12293601
85	0xbda2f1aa	-0.0795625
86	0x3e106912	0.14102581
87	0x3dab366e	0.08359991
88	0x3dac21f0	0.084049106
89	0xbcf61112	-0.030037437
90	0x3d7a3386	0.061084293
91	0xbdb58d7d	-0.088648774
92	0xbdb4446f	-0.08802115
93	0x3e40c723	0.18825965
94	0x3d31c046	0.043396257
95	0x3e0432ea	0.12910047
96	0x3dc93f88	0.09826571
97	0x3e027922	0.12741521
98	0x3d89804a	0.06713922
99	0x3dee9103	0.116487525
100	0xbc536700	-0.012902975
101	0xbd9eef35	-0.07760469
102	0xbd180dfd	-0.037122715
103	0xbc37ef27	-0.011226452
104	0xbd5d57a3	-0.054038655
105	0x3d516027	0.05111709
106	0x3d0fc7e0	0.035102725
107	0x3c842df3	0.016135192
108	0x3cc5e2f3	0.02415607
109	0x3db3e833	0.08784523
110	0x3d15306d	0.036423136
111	0xbdb398e2	-0.087693945
112	0xbd94a90f	-0.07258808
113	0x3d3487f3	0.044074964
114	0x3c5f47a7	0.013627923
115	0x3d47c22d	0.048769165
116	0xbdcc89b0	-0.09987199
117	0xbdbd00ef	-0.09228694
118	0x3d7b2d73	0.06132264
119	0x3d82ffdb	0.06396457
120	0xbdb948ea	-0.090471104
121	0x3d1b7a67	0.03795853
122	0xbd9feaba	-0.078084424
123	0x3d9b18bd	0.07573078
124	0x3d008750	0.031379044
125	0x3dca80ea	0.0988787
126	0xbdc9ee60	-0.098599195
127	0xbdc527f5	-0.09626762
128	0x3d8a7738	0.067610204
129	0x3db5d380	0.08878231
130	0x3d7af427	0.061267998
131	0x3d88283b	0.06648298
132	0xbdac7f47	-0.08422714
133	0x3d943caf	0.07238137
134	0xbdc15c80	-0.09441471
135	0x3cb702ba	0.022340167
136	0xbd8626b0	-0.06550348
137	0xbd22b0f7	-0.039719548
138	0x3c910e07	0.017706884
139	0xbd210bea	-0.039318003
140	0xbc819dc0	-0.015822291
141	0xbdc21d4b	-0.094782434
142	0xbdc119b7	-0.09428733
143	0x3d1ea9f7	0.03873631
144	0xbd2d5ff7	-0.042327847
145	0xbd793247	-0.060838964
146	0xbd219ef3	-0.039458226
147	0xbda77023	-0.08175685
148	0xbda3b798	-0.07994002
149	0x3d7517e3	0.059837233
150	0x3d502d0d	0.050824214
151	0x3c5a3d9a	0.013320351
152	0xbd5fbf7a	-0.054625966
153	0x3d08463a	0.0332701
154	0x3b933600	0.0044925213
155	0xbd925d70	-0.07146728
156	0x3cb04893	0.021518981
157	0x3dba7aba	0.091054395
158	0xbdc9714d	-0.098360635
159	0xbdcba6ca	-0.09943922
160	0x3c51eb80	0.012812495
161	0x3d9a380f	0.075302236
162	0xbd793cc7	-0.060848977
163	0x3cb4561a	0.022013713
164	0x3d8ff8ad	0.07029853
165	0x3cfc92a0	0.030831635
166	0x3cb148a0	0.021641076
167	0x3dcc5593	0.099772595
168	0x3d856bef	0.06514727
169	0xbd665ec0	-0.056242704
170	0x3c0d9e1a	0.008643651
171	0x3d5140da	0.051087238
172	0x3db49d75	0.08819095
173	0xbdcbc323	-0.09949329
174	0x3d5dccf3	0.054150533
175	0xbcedd700	-0.029033184
176	0xbdc88b65	-0.097922124
177	0x3cb5d753	0.022197401
178	0xbd5efdea	-0.05444137
179	0x3c682e67	0.014171219
180	0xbd84f73d	-0.064924695
181	0xbd9a1e32	-0.075252905
182	0xbc0b051a	-0.008485103
183	0xbd09985d	-0.03359257
184	0x3d6f8f83	0.058486473
185	0x3c0d4280	0.008621812
186	0x3d9fdbc0	0.07805586
187	0x3c998540	0.018740296
188	0xbd03b627	-0.032156136
189	0x3d8ab7ca	0.06773336
190	0x3bb30f9a	0.0054645063
191	0x3c99c1cd	0.01876917
192	0xbd03bc93	-0.03216226
193	0x39bc2800	0.00035887957
194	0xbc9d829a	-0.019227315
195	0xbc0b4ada	-0.008501733
196	0xbd9fb823	-0.07798793
197	0xba213733	-0.0006149888
198	0xbda9fe3a	-0.08300443
199	0xbcb03c33	-0.02151308
200	0x3d875c30	0.0660938
201	0xbd9f728f	-0.07785522
202	0xbd9b2e39	-0.07577176
203	0xbcc80787	-0.024417652
204	0xbd1283be	-0.03577017
205	0x3c8aae27	0.016928745
206	0x3cd73e30	0.02627477
207	0x3d4fb4ed	0.050709654
208	0xbd8d152f	-0.06888806
209	0xbc7cd399	-0.015431308
210	0x3d6ecc67	0.058300402
211	0x3d9ff553	0.07810464
212	0xbc7fc933	-0.0156119345
213	0xbd87a6a9	-0.06623585
214	0x3ca6dc81	0.020368816
215	0x3d46fe0d	0.048582125
216	0xbd7fe5c7	-0.062474992
217	0xbd6db02d	-0.058029342
218	0x3d350ae0	0.044199824
219	0xbbe5979a	-0.0070065977
220	0xbdd2720d	-0.1027566
221	0xbd873924	-0.066026956
222	0x3d261b33	0.040553283
223	0xbd2d1893	-0.042259764
224	0x3d8d5be2	0.06902291
225	0x3da1e70f	0.07905399
226	0x3bcb0cfe	0.006196617
227	0xbc018e5a	-0.007907474
228	0xbd243ae8	-0.04009524
229	0xbba5b1b3	-0.005056584
230	0x3c213a76	0.009840598
231	0xbdab574b	-0.08366259
232	0xbc7497ef	-0.014928802
233	0xbdbb8084	-0.09155372
234	0x3d7b64dd	0.061375488
235	0xbd826c90	-0.06368363
236	0x3daa13b0	0.08304536
237	0xbd0bd6db	-0.03414045
238	0xbd6aa653	-0.057287525
239	0x3d228bf5	0.039684255
240	0x3bd686f9	0.0065468517
241	0x3d797576	0.060903035
242	0x3d2afee0	0.041746974
243	0xbdc54abb	-0.09633394
244	0x3d9352bf	0.07193517
245	0xbc9a4447	-0.018831385
246	0xbd564e8f	-0.052321013
247	0x3d61d48a	0.055134334
248	0x3d84361f	0.06455635
249	0xbdc4f146	-0.09616332
250	0xbc8e5f31	-0.017379375
251	0x3da82ee0	0.08212066
252	0x3cf8c12e	0.030365553
253	0x3dc05f43	0.0939317
254	0xbd0c5e90	-0.03426987
255	0xbd81fedd	-0.063474394

nn_model.2.bias f4 [100]
0	0x3cfa2ed4	0.030539908
1	0xb97c5ccd	-0.00024067164
2	0xbd9dc29e	-0.07703136
3	0x3d4a1af3	0.049342107
4	0xbd9c02ad	-0.07617698
5	0x3d15863b	0.036504965
6	0xbd946cdd	-0.072473265
7	0xbd23ce6f	-0.039991792
8	0xbbcc41d5	-0.0062334337
9	0x3cf3b4c5	0.029749284
10	0xbdcccf49	-0.10000474
11	0x3d6c7048	0.057724267
12	0x3d02ea5d	0.031961787
13	0xbd821b7e	-0.063529
14	0x3d17eae1	0.037089232
15	0xbd58c660	-0.05292356
16	0xbd314c97	-0.043285932
17	0xbc8a129a	-0.016854573
18	0x3d626c3f	0.055279013
19	0x3b6f9533	0.0036557436
20	0xbd90f99b	-0.070788585
21	0x3d8990fc	0.06717107
22	0x3c3de5be	0.011590419
23	0xbd99bcaf	-0.07506692
24	0x3d0734bd	0.03300928
25	0xbda7be2f	-0.081905715
26	0x3d6c8976	0.05774828
27	0x3d7d87ba	0.061897017
28	0x3d8a38be	0.06749104
29	0xbdbb75b4	-0.091533095
30	0x3d696fb2	0.056991287
31	0xbc167273	-0.00918256
32	0xbcb17567	-0.021662427
33	0x3d3158cc	0.043297574
34	0xbdb85fe8	-0.09002668
35	0xbd02cf04	-0.031935707
36	0xbdba9aab	-0.09111532
37	0xbd104e0a	-0.035230674
38	0x3cb594d3	0.022165691
39	0x3d4a2dcf	0.049360093
40	0x3d8edd8c	0.069758505
41	0xbb1c8e34	-0.002388847
42	0xbc3eda48	-0.011648722
43	0x3d687bbe	0.056758635
44	0xbd5b8002	-0.053588875
45	0xbdc2e782	-0.09516813
46	0xbd02d6fe	-0.031943314
47	0xbd569306	-0.052386306
48	0x3dcd2c74	0.100182444
49	0x3cfb7e79	0.030699955
50	0x3c692f34	0.0142324455
51	0x3d8854fa	0.06656833
52	0xbd84ffab	-0.06494077
53	0xbd570373	-0.052493524
54	0xbdbdd840	-0.09269762
55	0xbc282f5f	-0.0102652
56	0xbd908ddb	-0.07058307
57	0xbb8d431a	-0.0043109776
58	0xbd8048e8	-0.06263906
59	0x3d563580	0.052297115
60	0xbdadbd6a	-0.084833935
61	0xbd546d9d	-0.051862348
62	0x3d74347a	0.059620358
63	0x3d92782d	0.07151828
64	0xbb856ec7	-0.0040720436
65	0xbd402da1	-0.046918515
66	0xbdd9259d	-0.10602877
67	0x3dd36f99	0.1032402
68	0x3aff12cd	0.0019460559
69	0xbc8b7813	-0.01702503
70	0xbc81808e	-0.01580837
71	0xbd1cffa8	-0.03832975
72	0x3d3af690	0.045645297
73	0xbd8a5591	-0.06754602
74	0xbc9b388c	-0.018947862
75	0x3d649ec5	0.055815477
76	0xbcb51f33	-0.022109604
77	0x3da95020	0.08267236
78	0x3d78d9d9	0.06075463
79	0xbdc3cf8c	-0.09561071
80	0x3cf61027	0.030036999
81	0xbc07fe8d	-0.008300436
82	0xbcb1fd58	-0.021727249
83	0xbd3f8bc0	-0.046764135
84	0x3d9d714f	0.076876275
85	0x3d70ef9a	0.05882225
86	0x3db7ca9a	0.0897419
87	0x3ddaddba	0.10686822
88	0x3d948bf1	0.07253254
89	0xbd2cbd8f	-0.042172965
90	0x3d43bf10	0.047789633
91	0xbc39ee0b	-0.011348258
92	0x3de94be2	0.113914266
93	0x3df60d3d	0.12014244
94	0x3da8559f	0.08219456
95	0x3caec712	0.021335158
96	0xbd999565	-0.07499198
97	0xbd24547d	-0.040119637
98	0xbc90da09	-0.017682092
99	0xbd8a0079	-0.067383714

nn_model.4.weight f4 [100, 100]
0	0x3e19f2d6	0.15034041
1	0xbd56c417	-0.0524331
2	0xbc0a7f8f	-0.008453264
3	0xbce3a90d	-0.02779057
4	0x3d0992e4	0.03358735
5	0xbd33b977	-0.043878045
6	0x3b587533	0.003302884
7	0x3df10246	0.11768012
8	0x3cbf8d3b	0.023382774
9	0x3d33d19f	0.043901082
10	0x3d4e8385	0.050418396
11	0x3dfabe46	0.12243323
12	0xbd8fba10	-0.070179105
13	0xbc6ab608	-0.014325626
14	0xbd612dcb	-0.054975312
15	0xbd93f058	-0.07223576
16	0xbde2fa31	-0.110828765
17	0x3d057603	0.032583248
18	0x3df37ae2	0.118886724
19	0x3bd6fdb3	0.006561005
20	0x3c0a8040	0.008453429
21	0xba7cef39	-0.0009648684
22	0xbd62064f	-0.055181798
23	0x3df27abf	0.11839818
24	0x3d2258dd	0.039635528
25	0xbdaf57d3	-0.08561673
26	0x3cf79b0d	0.030225301
27	0x3e05ba71	0.13059403
28	0x3db248e5	0.0870531
29	0x3e01ac06	0.12663278
30	0x3de117f6	0.10990898
31	0x3da6ad7b	0.081385575
32	0xbcaaca73	-0.020848488
33	0x3cde6413	0.027147328
34	0x3d0ec0b7	0.034851756
35	0xbd32fa5c	-0.043695793
36	0x3d08283a	0.033241488
37	0xbd795cd3	-0.06087954
38	0x3d941281	0.07230092
39	0x3da6f09d	0.08151362
40	0x3dfab0d8	0.122407615
41	0x3dfd50b4	0.123689085
42	0x3dfb75fb	0.12278362
43	0xbda4a344	-0.08038953
44	0xbd97c12e	-0.07409893
45	0xbdae6b28	-0.08516532
46	0x3d86e07f	0.06585788
47	0x3e0b96f6	0.13631806
48	0x3dcb7a88	0.0993548
49	0x3d8874e5	0.06662921
50	0x3df779c8	0.12083775
51	0xbd07d5c9	-0.033162866
52	0xbca354a6	-0.019937824
53	0xbda8bb3f	-0.08238839
54	0xbd92bb9e	-0.071646914
55	0xbd844df9	-0.064601846
56	0x3d70a46a	0.058750547
57	0xbce3a093	-0.027786529
58	0x3caa7d28	0.020811632
59	0x3dd738ff	0.10508918
60	0x3d594860	0.053047538
61	0x3d7b3526	0.061329983
62	0xbd64ad99	-0.055829618
63	0x3dbd5bf6	0.09246056
64	0x3da91c04	0.08257297
65	0xbd53da5e	-0.051721923
66	0x3b9e7a07	0.004836324
67	0xbdb31a83	-0.08745291
68	0xbccd254d	-0.0250422
69	0x3cb09da0	0.021559536
70	0xbdbdb79e	-0.09263538
71	0xbd3284c3	-0.043583643
72	0x3d1c91bb	0.038224917
73	0x3e09ce19	0.13457526
74	0xbcdefbfa	-0.027219761
75	0x3de8a7dd	0.113601424
76	0xbda0bf13	-0.078489445
77	0xbd039327	-0.032122757
78	0x3dc5a1db	0.09650012
79	0xbcbc0a6e	-0.022954192
80	0x3d9de1d6	0.077090904
81	0xbd76348a	-0.0601087
82	0x3d53a82f	0.051674064
83	0xbcb53efa	-0.022124756
84	0x3d0f6ee3	0.03501786
85	0x3d1731da	0.036912777
86	0x3cfed35a	0.03110664
87	0x3df5128e	0.1196643
88	0x3c8757c8	0.01652135
89	0xbcfbf4ee	-0.03075644
90	0x3d987862	0.07444836
91	0x3cdeacbb	0.027181974
92	0xbd911755	-0.07084528
93	0xbd02f2de	-0.031969897
94	0x3d7cc57a	0.061711766
95	0x3dbbfe98	0.09179419
96	0xbbe3f88f	-0.0069571207
97	0x3d92ae7f	0.07162189
98	0x3d43bfea	0.047790445
99	0x3db58a8d	0.08864317
100	0x3d181a4d	0.037134457
101	0x3d42960a	0.04750637
102	0xbcf7d0cf	-0.030250935
103	0xbdafa0df	-0.085756056
104	0xbc945d48	-0.018110886
105	0x3d7ff7c2	0.06249214
106	0xbd4e22b0	-0.05032605
107	0x3dc10815	0.0942537
108	0x3e27c09f	0.16382073
109	0x3d8376a9	0.06419117
110	0x3d96e611	0.073681004
111	0xbd516e25	-0.051130433
112	0x3d31c503	0.043400776
113	0x3cf86bb8	0.030324802
114	0x3d15d2db	0.03657804
115	0xbd995187	-0.07486253
116	0x3da63501	0.081155784
117	0x3d2494fa	0.040181138
118	0x3e0cd177	0.1375178
119	0xbc45e673	-0.012078869
120	0xbd31b393	-0.043384146
121	0x3ddabb5a	0.10680266
122	0xbd7743bb	-0.060367327
123	0x3d5c455a	0.053777076
124	0xbd7b4863	-0.06134833
125	0x3d92bbab	0.07164701
126	0x3d96c50f	0.07361805
127	0xbe484460	-0.19557333
128	0xbddbddb7	-0.10735648
129	0x3d74af65	0.05973758
130	0xbe07fa60	-0.13279104
131	0x3dbc5f07	0.091978125
132	0x3d2a8243	0.041628134
133	0xbd7d12f3	-0.06178565
134	0x3dad1858	0.08451909
135	0xbd14a96f	-0.036294397
136	0x3d37bf87	0.04486039
137	0x3d28a73a	0.041175105
138	0xbc6c12f4	-0.014408816
139	0xbd08ee29	-0.033430252
140	0xbc75a5df	-0.01499316
141	0xbdde3430	-0.10849798
142	0x3dfcd720	0.12345719
143	0xbda90e23	-0.082546495
144	0x3cae43f1	0.021272631
145	0x3d98ff4b	0.07470568
146	0xbc1729fa	-0.009226317
147	0xbe632d55	-0.22185262
148	0x3d797336	0.06090089
149	0x3e1b12f6	0.15143952
150	0x3c9d7e63	0.019225305
151	0xbd266e97	-0.04063281
152	0x3dabf7bf	0.08396863
153	0x3d84537f	0.06461238
154	0x3d3d9df6	0.04629322
155	0x3d85d514	0.06534782
156	0x3d986530	0.07441175
157	0x3dbfb285	0.09360222
158	0xbd99dfe1	-0.07513405
159	0x3dade45a	0.0849082
160	0x3d9acaaf	0.0755819
161	0x3df93eda	0.12170191
162	0x3d50331f	0.050830003
163	0x3da65f07	0.08123594
164	0x3d8102b0	0.06299341
165	0x3d8cd6fb	0.06876942
166	0x3e175ed1	0.14782263
167	0xbd93523a	-0.07193418
168	0x3d5ae730	0.053443134
169	0x3da1b8b7	0.0789656
170	0x3bbe22c0	0.0058024824
171	0x3e0b3123	0.13592963
172	0x3e150fe5	0.14556845
173	0x3dc44429	0.09583313
174	0xbccd5d02	-0.025068764
175	0xbbaecfa1	-0.00533481
176	0x3d223130	0.03959769
177	0xbc92eac7	-0.017934216
178	0xbe26a10b	-0.1627237
179	0xbc4a39e9	-0.012342908
180	0x3d807037	0.06271403
181	0xbcaefae0	-0.02135986
182	0xbcd5fa66	-0.026120376
183	0x3dafaac5	0.085774936
184	0x3c9c89be	0.01910865
185	0x3d2620a0	0.040558457
186	0x3d8e67dd	0.06953404
187	0x3da25d4e	0.07927953
188	0x3c15004a	0.009094307
189	0x3dc747ac	0.09730467
190	0xbbee99e7	-0.00728153
191	0xbe311001	-0.17291261
192	0xbe2ecf0b	-0.17071168
193	0x3ca8f4a5	0.020624468
194	0xbd84af38	-0.06478733
195	0x3e16132a	0.14655748
196	0x3da54f29	0.08071739
197	0xbd9eff93	-0.07763591
198	0x3cf93742	0.030421857
199	0x3e1f5193	0.15558462
200	0x3c76b471	0.015057669
201	0xbc966cc7	-0.018362416
202	0xbd6bdf0b	-0.057585757
203	0xbd57043d	-0.052494276
204	0x3c92cc33	0.017919635
205	0x3c588bcc	0.013216924
206	0xbd89701a	-0.06710835
207	0x3a149b52	0.00056688965
208	0x3d69abfe	0.05704879
209	0x3cffcf41	0.031226756
210	0x3c548e03	0.012973311
211	0x3c6a0ba9	0.014285007
212	0xbd1ecd4a	-0.038769998
213	0x3d4a942c	0.049457714
214	0x3e1f074a	0.15530124
215	0x3c931dc0	0.017958522
216	0xbe3b4888	-0.18289387
217	0x3d1361fa	0.03598211
218	0xbd7666bb	-0.060156565
219	0xbdbf0d22	-0.09328677
220	0x3d916048	0.07098442
221	0x3d4aa0be	0.049469702
222	0x3d1f634d	0.03891306
223	0x3d92fe8e	0.07177459
224	0xbd1a841d	-0.03772365
225	0x3d019d93	0.031644415
226	0xbdd69b63	-0.104788564
227	0x3d6710b9	0.056412432
228	0xbd1bc866	-0.03803291
229	0x3c8369cf	0.016041664
230	0x3e02fd9b	0.12792055
231	0x3c840ce7	0.016119434
232	0xbd4c1703	-0.049826633
233	0x3e073248	0.13202775
234	0x3d6f9870	0.058494985
235	0x3d2d9abf	0.042383906
236	0x3b84794d	0.0040427805
237	0x3dbda6a7	0.09260302
238	0xbd6e1a11	-0.058130328
239	0xbd8169ca	-0.06319006
240	0x3e29c213	0.1657794
241	0x3e21ceb8	0.15801513
242	0x3ca07f1f	0.019591866
243	0x3d8f6e34	0.070034415
244	0xbca61e0b	-0.020277997
245	0xbcb87153	-0.022514975
246	0x3da0c536	0.07850115
247	0x3ea045c4	0.31303227
248	0xbdb372f7	-0.08762162
249	0xbb8919d0	-0.0041839853
250	0x3d2e7b59	0.042598102
251	0xbcf20f02	-0.029548172
252	0xbe115646	-0.14193067
253	0x3d3bf49a	0.045887567
254	0xbd8ae28a	-0.0678149
255	0x3d8c189b	0.068406306

nn_model.4.bias f4 [100]
0	0xbbe6551f	-0.00702919
1	0xbd21e68e	-0.039526515
2	0x3e04f12b	0.12982623
3	0x3d9b4fb1	0.07583559
4	0xbdc1635e	-0.09442781
5	0x3dbf7063	0.09347608
6	0x3dd688fe	0.10475348
7	0xbdc25077	-0.09488004
8	0x3d85c07f	0.06530856
9	0xbcd81e31	-0.026381584
10	0xbd53b458	-0.05168566
11	0xbd723a3d	-0.05913757
12	0xbdc426ef	-0.095777385
13	0xbda0be9d	-0.078488566
14	0x3dd88159	0.10571546
15	0xbc86d787	-0.016460193
16	0xbb787767	-0.0037912966
17	0x3ba6ecea	0.0050941603
18	0x3db1ca23	0.08681133
19	0xbc3bafea	-0.011455515
20	0x3d35c36a	0.044375814
21	0xbd0d1216	-0.034441076
22	0x3d85cb4f	0.06532919
23	0xbccc2637	-0.024920566
24	0x3df22044	0.118225604
25	0x3c8fb294	0.017541207
26	0xbd58cbf1	-0.05292887
27	0x3d5a0707	0.053229358
28	0x3dc1b510	0.09458363
29	0x3bb1879a	0.0054177763
30	0x3c2c8731	0.010530279
31	0x3d3eac1a	0.046550848
32	0x3b9f009a	0.0048523666
33	0x3cb5ea38	0.02220641
34	0x3dc86a3c	0.097858876
35	0x3d482255	0.048860867
36	0x3c9a800e	0.01885989
37	0x3d2ad4bf	0.041706797
38	0x3b11f332	0.00222702
39	0xbd47e156	-0.04879888
40	0x3d7d9e5b	0.061918598
41	0x3d836807	0.06416326
42	0x3d2045f3	0.03912921
43	0x3c988505	0.018618116
44	0x3d4a6e20	0.04942143
45	0xbd828077	-0.06372159
46	0x3d1fcead	0.03901546
47	0x3c2d906b	0.010593514
48	0xbd25c453	-0.040470432
49	0xbdac4019	-0.08410663
50	0xbc1ea940	-0.009683907
51	0x3dad9e42	0.08477451
52	0xbd555fd7	-0.052093353
53	0x3d48ce73	0.04902501
54	0xbd1d85cc	-0.038457677
55	0xbb2c56a0	-0.002629675
56	0x3da623ae	0.08112274
57	0xbced580a	-0.028972644
58	0x3dbb98c0	0.09159994
59	0x3da742d6	0.08167045
60	0x3cad1537	0.02112828
61	0xbd27c6e7	-0.040961172
62	0x3c427392	0.011868374
63	0x3dc1942e	0.09452091
64	0xbd9b03e9	-0.07569105
65	0x3df5fdd8	0.120113075
66	0x3d9803da	0.074226096
67	0xbd40856c	-0.04700224
68	0x3dd5810f	0.104250066
69	0x3c2e2c57	0.010630689
70	0xbc81747a	-0.01580261
71	0xbd868cf3	-0.06569853
72	0x3d9ea644	0.077465564
73	0xbd9100db	-0.07080241
74	0xbd865b6d	-0.06560407
75	0x3a4b1a67	0.00077477697
76	0x3baad9f9	0.0052139726
77	0xbd381898	-0.04494533
78	0x3d100299	0.035158727
79	0xbcdb75a7	-0.0267895
80	0x3d374a75	0.044748742
81	0xbc86737a	-0.016412485
82	0xbcf804a9	-0.03027566
83	0xbdc37fe7	-0.0954588
84	0x3def47bf	0.11683606
85	0x3d6a97d5	0.057273705
86	0x3e04261d	0.12905164
87	0xbd98c290	-0.07458985
88	0x3b1bee2d	0.0023793087
89	0xbcf5da4b	-0.030011317
90	0xbd3a3e8c	-0.045469806
91	0xbc2aaadb	-0.010416712
92	0x3d11b1e1	0.03557003
93	0x3d5a9d96	0.053372942
94	0xbda3632e	-0.079779014
95	0xbda63408	-0.08115393
96	0x3df07b00	0.117422104
97	0x3d899167	0.067171864
98	0x3d2bf022	0.041977055
99	0x3dfce26b	0.12347873

allocation_head.0.weight f4 [4, 100]
0	0x3c972349	0.018449442
1	0x3dc663ee	0.09687029
2	0xbd711f1b	-0.058867555
3	0xbc87d9bb	-0.016583314
4	0x3db8ec1f	0.090294115
5	0x3cdbacad	0.026815737
6	0xbc61c1bb	-0.013779099
7	0x3da2623f	0.07928895
8	0x3c05c4a2	0.008164557
9	0x3c883c41	0.016630294
10	0x3e81587b	0.25262818
11	0xbd4f22dc	-0.050570354
12	0xbdc3a7c7	-0.09553485
13	0xbd8caa4f	-0.06868421
14	0xbd13c142	-0.036072977
15	0xbc30775d	-0.010770646
16	0x3d21ede7	0.039533522
17	0x3d8f4e5c	0.06997368
18	0xbda2b54e	-0.079447374
19	0x3c4b94e1	0.012425632
20	0x3dd69965	0.104784764
21	0x3dec52ad	0.11539207
22	0xbcc6085c	-0.024173908
23	0x3de2c986	0.11073594
24	0xbd33bdde	-0.043882243
25	0xbcbbb1d7	-0.02291195
26	0x3e21469c	0.15749592
27	0xbdbdfca5	-0.09276704
28	0xbd2ad595	-0.041707594
29	0xbccf649a	-0.025316525
30	0xbc3cdafc	-0.011526819
31	0x3d1b4760	0.037909865
32	0xbd84bf48	-0.064817965
33	0xbdb9dcc8	-0.09075314
34	0xbda4b1b8	-0.0804171
35	0xbdb3b4c7	-0.08774715
36	0xbe3267bf	-0.17422388
37	0x3e4014e6	0.18757972
38	0x3e18d876	0.14926323
39	0x3d521d23	0.05129732
40	0xbd521a85	-0.051294822
41	0xbd035840	-0.032066584
42	0x3c28af54	0.010295708
43	0xbde6920a	-0.112583235
44	0xbdac7d08	-0.08422285
45	0xbd68c2df	-0.05682647
46	0x3da751d4	0.08169904
47	0x3d8d91f6	0.069126055
48	0xbd35a7d3	-0.044349503
49	0x3b8207b5	0.003968204
50	0x3d930fb1	0.07180727
51	0x3dc35bc1	0.09538985
52	0xbe7ff801	-0.2499695
53	0x3c359389	0.011082538
54	0x3d730a2f	0.059335884
55	0xbdff4711	-0.12464727
56	0x3cdb9ad1	0.02680722
57	0xbe3372ce	-0.17524263
58	0xbd3eb139	-0.04655573
59	0xbe02840d	-0.12745686
60	0x3db48774	0.08814898
61	0x3d24b993	0.04021604
62	0xbdbef5ea	-0.09324248
63	0x3b60a898	0.0034280177
64	0x3da53a07	0.080677085
65	0xbdd506d4	-0.10401693
66	0xbcb77c97	-0.022398276
67	0x3d835f84	0.064147025
68	0x3d7091ce	0.0587328
69	0x3dc2ab68	0.095053494
70	0xbd9dd2df	-0.07706236
71	0xbebac950	-0.36481714
72	0x3d97b18e	0.07406913
73	0x3da9afda	0.08285494
74	0x3da7cbb7	0.081931524
75	0x3db4b4e8	0.08823568
76	0xbda6ea20	-0.081501245
77	0xbe1e8087	-0.15478717
78	0x3d87eaf8	0.066366136
79	0xbd801fbd	-0.062560536
80	0xbe071be5	-0.13194235
81	0x3e10fefc	0.14159769
82	0x3dcbb4ec	0.099466175
83	0xbdbffeb8	-0.093747556
84	0xbd273dca	-0.04083041
85	0xbd55b8d1	-0.052178208
86	0xbd95e223	-0.07318523
87	0xbd3b7f4a	-0.04577569
88	0x3caba598	0.020952985
89	0xbe020db2	-0.12700537
90	0x3db74ede	0.089505896
91	0x3d38cac1	0.045115236
92	0x3d80c6f2	0.06287946
93	0x3db6f9f6	0.08934395
94	0xbdb8b164	-0.090182096
95	0xbd790540	-0.060796022
96	0x3c22528b	0.009907375
97	0x3c8aba3e	0.01693451
98	0xbdb3c770	-0.08778274
99	0xbd91c202	-0.07117082
100	0x3e0ee241	0.13953497
101	0x3e1242ce	0.14283296
102	0xbd16046f	-0.036625322
103	0xbbabd1ed	-0.005243531
104	0xbed48154	-0.4150492
105	0xbaeb9733	-0.0017974138
106	0xbd95b9c7	-0.07310825
107	0xbd9df94f	-0.077135675
108	0x3c958dd2	0.018256102
109	0x3bab48c3	0.0052271797
110	0x3e598dff	0.21245573
111	0x3dc8f0f2	0.09811582
112	0xbd7941f3	-0.06085391
113	0x3e47f67b	0.19527619
114	0x3d8ce4a8	0.0687955
115	0xbda993c8	-0.0828014
116	0xbccbe2d3	-0.024888432
117	0x3d2e09c8	0.042489797
118	0x3c5b8139	0.013397508
119	0x3d9989cb	0.07496985
120	0x3d854933	0.06508102
121	0x3d9b6af5	0.0758876
122	0xbd993ea6	-0.07482652
123	0x3ce4aa0f	0.027913122
124	0xbdeedb78	-0.11662954
125	0xbd970a14	-0.07374969
126	0xbc935b7f	-0.017987965
127	0xbd47858a	-0.048711337
128	0xbd0d7873	-0.034538697
129	0xbda7dbc8	-0.08196217
130	0x3d8273d5	0.063697495
131	0x3d91d3ba	0.07120462
132	0xbd856b92	-0.06514658
133	0xbc8f95b0	-0.017527431
134	0x3daae9d4	0.083453804
135	0xbb8f394d	-0.0043708445
136	0xbdf4a08f	-0.119446866
137	0xbd0d53a2	-0.034503587
138	0xbba97999	-0.0051719663
139	0x3d8d0898	0.06886405
140	0x3e0820fb	0.13293831
141	0x3da8bcfc	0.08239171
142	0x3db50786	0.088393256
143	0xbca329f3	-0.019917464
144	0xbdd673ee	-0.104713306
145	0xbd9c9e56	-0.07647388
146	0x3d980741	0.074232586
147	0xbc32f8fa	-0.010923618
148	0xbd4b9717	-0.049704637
149	0xbd8ebe2a	-0.06969865
150	0xbdaec265	-0.085331716
151	0xbdb5cc46	-0.08876853
152	0xbea80584	-0.32816708
153	0x3d774aff	0.060374256
154	0x3d809bbc	0.06279704
155	0xbdfb2f1e	-0.12264846
156	0x3d98465a	0.074352935
157	0xbde66443	-0.11249592
158	0xbc010c36	-0.0078764465
159	0xbe139173	-0.14410953
160	0x3c86be20	0.01644808
161	0xbca0d80d	-0.019634271
162	0xbdc5d283	-0.096592925
163	0xbdeb6e85	-0.11495689
164	0x3ae66ce7	0.0017580063
165	0xbdd5f83a	-0.10447736
166	0xbd89a146	-0.067202136
167	0x3dd48c0b	0.103782736
168	0xbdc57877	-0.096421175
169	0x3bf652c2	0.0075171897
170	0x3db41ae8	0.087941945
171	0xbe96ae19	-0.294297
172	0x3e041166	0.12897262
173	0x3d145693	0.036215376
174	0xbdc34315	-0.09534279
175	0x3d819390	0.063269734
176	0xbde16688	-0.110058844
177	0xbcaa3ed6	-0.020781916
178	0x3e05c91c	0.13064998
179	0xbda57f77	-0.080809526
180	0xbbe023d8	-0.0068402104
181	0x3d1162ad	0.035494495
182	0x3dd73b7d	0.10509393
183	0x3d0aee93	0.03391893
184	0x3c8944b7	0.016756399
185	0x3c9c2dd8	0.019064829
186	0xbd6147af	-0.055000003
187	0xbcac4840	-0.021030545
188	0xbdcb8c18	-0.0993883
189	0x3d033d8a	0.03204111
190	0x3e0575d5	0.1303323
191	0x3e2caa91	0.16861941
192	0xbda2b02b	-0.079437576
193	0x3da9f6da	0.08299036
194	0xbd7c9cab	-0.061672848
195	0xbd6178fa	-0.055047013
196	0xbdae11da	-0.08499499
197	0x3df7972c	0.120893806
198	0x3ccd67d6	0.025073927
199	0xbc1c61d1	-0.009544806
200	0xbc759e1a	-0.014991308
201	0x3cadf7f2	0.021236394
202	0xbdcacfa8	-0.099028885
203	0xbe00ad7d	-0.1256618
204	0xbe3f5c63	-0.18687586
205	0x3d8f58ab	0.06999334
206	0xbcc5d385	-0.024148712
207	0x3dacbf1a	0.08434887
208	0x3c9ca564	0.019121833
209	0x3cb8446c	0.022493564
210	0xbe91333d	-0.28359404
211	0x3c369c5b	0.0111456765
212	0x3c4d9067	0.012546635
213	0xbca6f08f	-0.02037838
214	0xbbbfc1af	-0.0058519463
215	0x3cdf1a53	0.027234232
216	0xbda03213	-0.07822051
217	0xbd7f86e9	-0.06238452
218	0x3dbd3d8b	0.09240254
219	0xbe0c6af1	-0.1371267
220	0xbd9aeb12	-0.07564367
221	0x3d88562c	0.06657061
222	0x3d22aeea	0.039717592
223	0xbd077809	-0.03307346
224	0xbd713e15	-0.058897097
225	0x3daa0c3e	0.08303116
226	0xbe0d7e22	-0.13817647
227	0xbce88aa7	-0.028386427
228	0xbd6073b4	-0.054797843
229	0xbc72a05a	-0.014808739
230	0xbcd7ef95	-0.026359359
231	0x3e061d47	0.13097106
232	0x3c4c8933	0.012483883
233	0x3e098319	0.13428916
234	0x3d92e42f	0.07172429
235	0xbd8d9436	-0.069130346
236	0x3e248e9f	0.1607003
237	0xbe3071e7	-0.1723095
238	0xbe168d73	-0.14702396
239	0x3cd9c2f3	0.026582217
240	0x3db77201	0.089572914
241	0x3d64a499	0.055821035
242	0xbcd175b6	-0.025568824
243	0x3c9eb5f2	0.019373868
244	0x3d81f152	0.06344856
245	0xbdbb42a2	-0.091435686
246	0x3d5bed09	0.05369285
247	0xbdbed85f	-0.09318613
248	0x3ab4a667	0.0013782502
249	0xbcc9580c	-0.024578117
250	0xbd77e245	-0.06051852
251	0x3c8d3c75	0.017240742
252	0x3ebea4b4	0.37235034
253	0xbcdb968a	-0.026805181
254	0xbd5395f1	-0.051656667
255	0x3cebcab1	0.028783174

allocation_head.0.bias f4 [4]
0	0x3d451c96	0.048122965
1	0xbb7e7de8	-0.003883237
2	0xbd009049	-0.0313876
3	0x3dd365c8	0.103221476

payment_head.0.weight f4 [1, 100]
0	0x3cd02f6d	0.02541324
1	0xbe0c597c	-0.1370601
2	0x3e703e14	0.23461181
3	0x3e06845d	0.1313643
4	0xbe42b894	-0.19015723
5	0x3d66422d	0.056215454
6	0xbd90db87	-0.070731215
7	0xbc806160	-0.015671432
8	0x3e0e517c	0.13898271
9	0x3c59949b	0.013280059
10	0xbd0b8b9d	-0.034068692
11	0x3e699352	0.22810104
12	0xbcde5e2d	-0.027144516
13	0xbc61fe2d	-0.01379351
14	0x3dfa62eb	0.12225898
15	0x3e11261a	0.14174691
16	0x3baf70e7	0.005354035
17	0xbe23dae9	-0.16001476
18	0x3e153af9	0.14573278
19	0x3d57fb6b	0.052730005
20	0x3e0d4c9c	0.13798755
21	0xbdfd1add	-0.123586394
22	0x3e9e9e57	0.3098018
23	0xbdad6525	-0.084665574
24	0x3df13e6e	0.11779486
25	0x3e16a216	0.14710268
26	0xbd861bb8	-0.06548256
27	0x3d184263	0.037172686
28	0x3e47d010	0.19512963
29	0x3bd6eb80	0.0065588355
30	0xbdf016ad	-0.11723075
31	0xbd2cd04b	-0.04219083
32	0x3cb2e247	0.021836413
33	0x3ee93d99	0.45554808
34	0x3e1c2312	0.15247753
35	0xbdc60735	-0.096693434
36	0xbd7f713f	-0.06236386
37	0xbe1ba239	-0.15198602
38	0xbd207491	-0.039173666
39	0x3d7f6c6d	0.062359262
40	0xbdd915fe	-0.10599898
41	0x3d870565	0.06592826
42	0xbd0a213d	-0.033723105
43	0x3e2f45db	0.17116491
44	0x3e15e67a	0.14638701
45	0x3e382ae3	0.1798511
46	0x3e0e2ca9	0.13884224
47	0x3dcea764	0.10090521
48	0x3dcb9200	0.09939957
49	0x3d3044c8	0.043034345
50	0xbd97eeaa	-0.074185684
51	0x3e130e85	0.14361008
52	0xbd3a6e9b	-0.045515638
53	0x3d727424	0.05919279
54	0xbd9d9abe	-0.0769553
55	0x3e96b00e	0.29431194
56	0xbe3b4dee	-0.18291447
57	0x3ec93836	0.39300698
58	0x3e12b7b7	0.14327894
59	0xbdaaceff	-0.083402626
60	0x3cecedc0	0.028921962
61	0x3d5be047	0.053680684
62	0x3e253b57	0.16135918
63	0x3eb0f41a	0.34561235
64	0xbd9daaba	-0.07698579
65	0xbba7dea9	-0.0051229787
66	0x3e76a12d	0.24084921
67	0x3de1e925	0.11030797
68	0x3e0d670b	0.13808839
69	0xbd413c3e	-0.047176592
70	0x3d0f9ccd	0.035061646
71	0x3d4eda86	0.05050137
72	0xbdfec1ce	-0.12439309
73	0x3d3f1f63	0.046660792
74	0xbd586c8c	-0.052837893
75	0x3d450e8a	0.04810957
76	0xbc6b6e40	-0.014369547
77	0xbec449a2	-0.38337427
78	0xbe116aae	-0.14200851
79	0x3d55bef7	0.05218407
80	0x3e28a354	0.16468555
81	0x3db82d07	0.08992963
82	0x3ce23645	0.027613768
83	0x3d4a0e48	0.049330026
84	0x3d5afcc0	0.053463697
85	0x3e441d6e	0.19151852
86	0x3e21d54b	0.15804021
87	0x3c59be8d	0.01329006
88	0x3d1d98d0	0.03847581
89	0x3e3fa5c7	0.18715583
90	0x3de131bc	0.10995814
91	0xbbe37960	-0.0069419593
92	0xbd76ef08	-0.06028655
93	0xbdb68b3e	-0.08913277
94	0x3da36a99	0.07979316
95	0x3db80911	0.08986104
96	0x3e48fadc	0.19626945
97	0x3e6995be	0.22811028
98	0x3e18208a	0.14856163
99	0x3e1a2f1b	0.15057032
