result/1x2_sparsemax_in_linsigpmt_scratch_34_checkpoint.pt (torch, 88519 bytes, 9 tensors)

nn_model.0.weight f4 [100, 2]
-0.2589709 0.38121942 0.29175952 -0.22719349 0.16178326 -0.2536725 0.49276948 -0.2178987
-0.26677302 0.16756327 0.35141873 -0.31080475 0.04161574 0.35437518 -0.070354804 0.21519658
-0.17054494 0.24784066 -0.43746805 -0.35192475 -0.37823173 0.6653547 -0.11572407 -0.028832126
-0.34341785 0.7450546 0.6145564 -0.5556306 -0.3903957 -0.3468881 -0.09937235 -0.24546811
-0.46283367 -0.2536195 0.120774254 -0.38047162 0.1566825 -0.16215082 -0.34263802 0.097146206
0.6597711 -0.546882 -0.041287564 -0.29957673 0.88050497 -0.535393 -0.56252486 0.73354465
-0.44737935 0.13556887 -0.061027624 -0.14895698 -0.18893616 0.42477757 0.03379756 -0.68844944
-0.41569668 -0.1773947 0.35582772 -0.45759264 0.7523349 -0.09968235 -0.17618527 0.6208423
0.16773584 0.50730807 0.49172214 -0.16203354 -0.46914583 -0.0526109 0.60900134 -0.04022228
-0.44029808 0.37849742 0.75640196 -0.13917363 -0.5855011 -0.64138806 0.19205199 -0.03334633
-0.4552268 0.08321675 0.3592955 0.6293225 0.507699 -0.1617905 -0.6235035 -0.63895804
0.7550939 0.36978164 0.30823305 -0.61180365 0.7326618 0.73591834 0.58443904 -0.6144014
-0.25696775 -0.44705018 0.5533044 -0.44648537 -0.30323136 0.33374926 -0.32710218 -0.34826574
-0.10903264 -0.11711414 -0.5314011 0.7520886 -0.31192014 0.2508213 0.6529076 0.38887984
0.16624562 0.6707721 0.0950537 -0.32714763 0.705596 0.19125196 -0.3391865 -0.117536694
-0.49910322 0.7741368 -0.116775766 -0.64454544 -0.042433497 0.44540027 0.18370664 0.22359028
0.18506455 0.35439625 -0.11512352 -0.22642097 -0.6609387 -0.53268963 0.23231332 -0.45413518
0.15250504 0.29166192 -0.021159854 -0.48501366 0.74528056 -0.36989084 0.5086189 -0.64030856
-0.17009346 0.38464403 -0.26373157 0.61897 -0.4866001 -0.5938081 -0.31884798 0.1143041
0.6149417 -0.30674773 0.2664308 -0.22158164 -0.21081625 0.54136014 -0.5479978 0.07510416
0.5304253 -0.23278426 0.5212561 -0.31249225 0.5691942 -0.68400586 -0.08830666 -0.13484739
0.30487362 0.3232855 0.61841327 -0.04516264 0.064705394 0.5586889 -0.2133596 0.5956672
-0.27095667 -0.09236186 0.0049558994 0.28501898 0.46307883 -0.2031024 -0.58582425 0.3503659
0.26250812 0.24588765 -0.34771752 0.5220445 0.7470136 0.14824793 -0.7008293 0.43598178
-0.5242852 0.16254412 0.03158669 -0.3979394 0.24621144 -0.6324594 0.17966624 -0.49074852
00000000: d597 84be 312f c33e 8161 953e 69a5 68be
00000010: 83aa 253e 5de1 81be 484c fc3e d620 5fbe
00000020: 7996 88be b595 2b3e 28ed b33e cd21 9fbe
00000030: 4475 2a3d aa70 b53e 2e16 90bd 7e5c 5c3e
00000040: 55a3 2ebe f1c9 7d3e d0fb dfbe 7b2f b4be
00000050: 97a7 c1be b054 2a3f be00 edbd 5a31 ecbc
00000060: 77d4 afbe e6bb 3e3f 9153 1d3f cf3d 0ebf
00000070: f2e1 c7be 519b b1be bb83 cbbd fe5b 7bbe
00000080: 89f8 ecbe 6ada 81be 7e58 f73d 2dcd c2be
00000090: 6171 203e dd0a 26be 406e afbe 97f4 c63d
000000a0: c2e6 283f 7500 0cbf 261d 29bd 1f62 99be
000000b0: c668 613f 840f 09bf a101 10bf 95c9 3b3f
000000c0: e80e e5be 91d2 0a3e 1af8 79bd 2e88 18be
000000d0: 7b78 41be 727c d93e 4f6f 0a3d 393e 30bf
000000e0: 32d6 d4be f5a6 35be 0d2f b63e 9549 eabe
000000f0: 0599 403f 4326 ccbd e969 34be 85ef 1e3f
00000100: f2c2 2b3e f1de 013f 01c3 fb3e 1fec 25be
00000110: e233 f0be 877e 57bd 83e7 1b3f 1ec0 24bd
00000120: c06e e1be 6aca c13e 8fa3 413f 8883 0ebe
00000130: 66e3 15bf 0232 24bf 47a9 443e 2996 08bd
00000140: 7d13 e9be 8b6d aa3d 94f5 b73e 481b 213f
00000150: 90f8 013f 69ac 25be ed9d 1fbf c192 23bf
00000160: d54d 413f 0554 bd3e b9d0 9d3e 2a9f 1cbf
00000170: b98f 3b3f 2565 3c3f cc9d 153f 6949 1dbf
00000180: 4791 83be c3e3 e4be 5ba5 0d3f bb99 e4be
00000190: 2441 9bbe 2fe1 aa3e f079 a7be e34f b2be
000001a0: 814c dfbd 8ad9 efbd e709 08bf e188 403f
000001b0: ffb3 9fbe a66b 803e f424 273f 421b c73e
000001c0: 4b3c 2a3e b8b7 2b3f 84ab c23d e57f a7be
000001d0: f1a1 343f 8ed7 433e daa9 adbe 14b7 f0bd
000001e0: 758a ffbe d42d 463f 2228 efbd ee00 25bf
000001f0: bfce 2dbd 810b e43e 981d 3c3e daf4 643e
00000200: 9081 3d3e 6d73 b53e e1c5 ebbd e6da 67be
00000210: 4733 29bf 595e 08bf 8be3 6d3e 6884 e8be
00000220: 482a 1c3e b654 953e 6e57 adbc b653 f8be
00000230: b5ca 3e3f 5562 bdbe d934 023f 43eb 23bf
00000240: fb2c 2ebe 10f0 c43e d307 87be d174 1e3f
00000250: a623 f9be cf03 18bf 0b40 a3be 4518 ea3d
00000260: d26c 1d3f 0a0e 9dbe 9e69 883e 4ce6 62be
00000270: 37e0 57be 9496 0a3f 9549 0cbf 36d0 993d
00000280: f4c9 073f ff5e 6ebe 0a71 053f fcfe 9fbe
00000290: b6b6 113f 021b 2fbf 1fda b4bd 6f15 0abe
000002a0: 6518 9c3e ad85 a53e 5550 1e3f 76fc 38bd
000002b0: 4384 843d 3c06 0f3f f07a 5abe a57d 183f
000002c0: d5ba 8abe 3728 bdbd 1965 a23b 02ee 913e
000002d0: ab18 ed3e 13fa 4fbe 94f8 15bf 2963 b33e
000002e0: 7767 863e f9c9 7b3e 0808 b2be b5a4 053f
000002f0: 493c 3f3f 4ece 173e 8d69 33bf 0139 df3e
00000300: 8e37 06bf f771 263e 0c61 013d b7be cbbe
00000310: da1e 7c3e dce8 21bf 6dfa 373e 6443 fbbe

nn_model.0.bias f4 [100]
0.045314264 -0.12249712 0.66557336 -0.31908256 0.4735305 -0.16056919 -0.39173284 -0.61574835
-0.64878345 0.7912228 -0.31225675 0.15498176 0.18390052 0.5473913 0.738078 0.6185943
-0.52388346 -0.12604605 -0.4184217 -0.4040067 0.20140278 0.7150847 -0.46951565 0.54067916
-0.36661133 -0.1377262 0.582702 -0.15992655 0.097146116 -0.49429065 0.5989467 -0.093673296
-0.6647178 0.19132225 -0.5027652 -0.5696223 0.12194897 0.5520766 -0.20009992 0.3354693
0.66223377 0.46216187 -0.46898678 -0.07751294 -0.27245614 -0.5686008 -0.024670763 0.6091303
0.6994683 -0.17267066 0.24111257 -0.30612183 0.5527663 -0.2935221 -0.49119368 0.119968936
0.42099714 -0.6375215 0.6424194 0.4671751 -0.39457828 -0.1523161 0.6171614 -0.5425168
-0.15068732 0.36895704 -0.6194857 0.4514142 0.38583383 0.50481236 -0.45291284 0.76327485
-0.41914567 0.7194674 -0.6786036 -0.6300109 0.46342692 -0.033545233 -0.015291156 -0.3915663
-0.47691667 -0.2958111 -0.6888319 0.2394571 0.1264325 0.030356873 0.23909731 0.7067651
0.36611867 -0.2984305 -0.31241515 -0.45241085 -0.50202495 -0.13510372 -0.10472805 0.36539945
-0.30224347 0.60479105 -0.4961628 0.015421592
00000000: 739b 393d c5df fabd 0463 2a3f ca5e a3be
00000010: 9772 f23e 406c 24be 3591 c8be afa1 1dbf
00000020: ac16 26bf 948d 4a3f 1ee0 9fbe 8ab3 1e3e
00000030: 6b50 3c3e d621 0c3f aef2 3c3f 325c 1e3f
00000040: 3a1d 06bf 3712 01be 5e3b d6be f7d9 cebe
00000050: 883c 4e3e ca0f 373f 5b64 f0be f369 0a3f
00000060: 7bb4 bbbe 1908 0dbe f52b 153f c9c3 23be
00000070: 8bf4 c63d aa13 fdbe 9254 193f c9d7 bfbd
00000080: f22a 2abf fbe9 433e 38b5 00bf c4d2 11bf
00000090: 62c0 f93d e454 0d3f fee6 4cbe a2c2 ab3e
000000a0: 2788 293f 7ba0 ec3e 091f f0be 1bbf 9ebd
000000b0: 5f7f 8bbe d28f 11bf 571a cabc f7ef 1b3f
000000c0: 5b10 333f 94d0 30be 37e6 763e 00bc 9cbe
000000d0: 1882 0d3f 8748 96be bd7d fbbe 46b2 f53d
000000e0: f08c d73e 9c34 23bf 9975 243f 9331 ef3e
000000f0: 2a06 cabe c0f8 1bbe 4afe 1d3f 62e2 0abf
00000100: c74d 1abe f0e7 bc3e 9d96 1ebf c31f e73e
00000110: 038c c53e 623b 013f 31e4 e7be fb65 433f
00000120: 439a d6be 042f 383f f7b8 2dbf 6548 21bf
00000130: 4b46 ed3e ba66 09bd c287 7abc 617b c8be
00000140: 6c2e f4be 8d74 97be 4a57 30bf 3e34 753e
00000150: 8577 013e faae f83c edd5 743e 8fee 343f
00000160: e873 bb3e e2cb 98be e1f4 9fbe 65a2 e7be
00000170: b584 00bf a158 0abe a97b d6bd a315 bb3e
00000180: a8bf 9abe 96d3 1a3f 0d09 febe d8aa 7c3c

nn_model.2.weight f4 [100, 100]
0.20424344 0.15965505 -0.0064498484 0.06495112 0.05859594 0.13747531 -0.06536207 0.0270854
-0.06953652 0.04430432 0.09482898 -0.0034763208 0.120582625 0.051239137 0.068721674 0.14122851
-0.030566836 0.060459707 -0.028602922 -0.014607298 0.0035797746 0.043120842 -0.008620357 0.07238864
0.0037680387 0.06338898 0.037896086 0.010028017 -0.014672014 -0.083745375 0.10565609 0.0040523135
-0.025153387 0.034674156 0.026152134 -0.04954354 0.116170436 0.070322216 0.03777367 0.102165945
0.01781492 0.09699249 0.06916637 0.004601836 0.027653914 0.0036335588 0.08272258 0.012242586
-0.020348247 0.09732258 -0.05634406 0.0016032457 -0.0014208085 0.1838172 -0.09310391 0.082253754
0.15604228 0.020234013 0.05628644 0.10826549 0.06461661 -0.008013356 0.015675317 -0.013804126
0.052894253 0.032513294 -0.018887496 -0.05485662 0.06804295 0.03003456 0.13122581 0.12785329
0.097200945 -0.0017719152 -0.0062354445 -0.040067364 -0.029706582 -0.004611943 0.12036895 0.05830611
0.042820204 0.12195935 -0.0794479 0.024456128 0.12391369 -0.033476003 0.1410568 0.08501197
0.08865187 -0.030037437 0.06334921 -0.088648774 -0.08815534 0.14373446 0.04434371 0.12616067
0.09826571 0.13270038 0.06713922 0.107183255 -0.012902975 -0.07760469 -0.037122715 -0.011226452
-0.054038655 0.05111709 0.035102725 0.016135192 0.02415607 0.08784523 0.036423136 -0.087693945
-0.07258808 0.044074964 0.013627923 0.048769165 -0.09987199 -0.09228694 0.06132264 0.06396457
-0.090471104 0.03795853 -0.078084424 0.07573078 0.031379044 0.0988787 -0.098599195 -0.09626762
0.067610204 0.08878231 0.061267998 0.06648298 -0.08422714 0.07238137 -0.09441471 0.022340167
-0.06550348 -0.039719548 0.017706884 -0.039318003 -0.015822291 -0.094782434 -0.09428733 0.03873631
-0.042327847 -0.060838964 -0.039458226 -0.08175685 -0.07994002 0.059837233 0.050824214 0.013320351
-0.054625966 0.0332701 0.0044925213 -0.07146728 0.021518981 0.091054395 -0.098360635 -0.09943922
0.012812495 0.075302236 -0.060848977 0.022013713 0.07029853 0.030831635 0.021641076 0.099772595
0.06514727 -0.056242704 0.008643651 0.051087238 0.08819095 -0.09949329 0.054150533 -0.029033184
-0.097922124 0.022197401 -0.05444137 0.014171219 -0.064924695 -0.075252905 -0.008485103 -0.03359257
0.058486473 0.008621812 0.07805586 0.018740296 -0.032156136 0.06773336 0.0054645063 0.01876917
-0.03216226 0.00035887957 -0.019227315 -0.008501733 -0.07798793 -0.0006149888 -0.08300443 -0.02151308
0.0660938 -0.07785522 -0.07577176 -0.024417652 -0.03577017 0.016928745 0.02627477 0.050709654
-0.06888806 -0.015431308 0.058300402 0.07810464 -0.0156119345 -0.06623585 0.020368816 0.048582125
-0.062474992 -0.058029342 0.044199824 -0.0070065977 -0.1027566 -0.066026956 0.040553283 -0.042259764
0.06902291 0.07905399 0.006196617 -0.007907474 -0.04009524 -0.005056584 0.009840598 -0.08366259
-0.014928802 -0.09155372 0.061375488 -0.06368363 0.08304536 -0.03414045 -0.057287525 0.039684255
0.0065468517 0.060903035 0.041746974 -0.09633394 0.07193517 -0.018831385 -0.052321013 0.055134334
0.06455635 -0.09616332 -0.017379375 0.08212066 0.030365553 0.0939317 -0.03426987 -0.063474394
00000000: 3125 513e 9d7c 233e 4059 d3bb 1805 853d
00000010: 4c02 703d 54c6 0c3e 8ddc 85bd 33e2 dd3c
00000020: 2a69 8ebd 7278 353d b235 c23d fcd2 63bb
00000030: 06f4 f63d 21e0 513d f3bd 8c3d 359e 103e
00000040: 4d67 fabc 99a4 773d ad50 eabc 7353 6fbc
00000050: a79a 6a3b 7b9f 303d 663c 0dbc 7f40 943d
00000060: 33f1 763b 15d2 813d ed38 1b3d 8d4c 243c
00000070: e362 70bc b282 abbd 3862 d83d 45c9 843b
00000080: 7a0e cebc 7d06 0e3d 003d d63c 2bee 4abd
00000090: c4ea ed3d 1805 903d 90b8 1a3d 613c d13d
000000a0: 98f0 913c 00a4 c63d 19a7 8d3d 00cb 963b
000000b0: 768a e23c 0021 6e3b 756a a93d 2195 483c
000000c0: 5eb1 a6bc 1051 c73d 07c9 66bd 0024 d23a
000000d0: 6c3a baba 933a 3c3e 43ad bebd a874 a83d
000000e0: 8cc9 1f3e cdc1 a53c 9c8c 663d 4cba dd3d
000000f0: b755 843d 734a 03bc 8669 803c b32a 62bc
00000100: a5a7 583d a92c 053d f3b9 9abc 56b1 60bd
00000110: 1a5a 8b3d 0a0b f63c 0f60 063e f9eb 023e
00000120: 4a11 c73d 9c3f e8ba b352 ccbb ad1d 24bd
00000130: 385b f3bc c81f 97bb ff83 f63d 63d2 6e3d
00000140: 3d64 2f3d d3c5 f93d 95b5 a2bd 3858 c83c
00000150: 76c6 fd3d 221e 09bd 3271 103e c11a ae3d
00000160: 1d8f b53d 1211 f6bc 3bbd 813d 7d8d b5bd
00000170: c98a b4bd 202f 133e c0a1 353d 4330 013e
00000180: 883f c93d 9ce2 073e 4a80 893d e582 db3d
00000190: 0067 53bc 35ef 9ebd fd0d 18bd 27ef 37bc
000001a0: a357 5dbd 2760 513d e0c7 0f3d f32d 843c
000001b0: f3e2 c53c 33e8 b33d 6d30 153d e298 b3bd
000001c0: 0fa9 94bd f387 343d a747 5f3c 2dc2 473d
000001d0: b089 ccbd ef00 bdbd 732d 7b3d dbff 823d
000001e0: ea48 b9bd 677a 1b3d baea 9fbd bd18 9b3d
000001f0: 5087 003d ea80 ca3d 60ee c9bd f527 c5bd
00000200: 3877 8a3d 80d3 b53d 27f4 7a3d 3b28 883d
00000210: 477f acbd af3c 943d 805c c1bd ba02 b73c
00000220: b026 86bd f7b0 22bd 070e 913c ea0b 21bd
00000230: c09d 81bc 4b1d c2bd b719 c1bd f7a9 1e3d
00000240: f75f 2dbd 4732 79bd f39e 21bd 2370 a7bd
00000250: 98b7 a3bd e317 753d 0d2d 503d 9a3d 5a3c
00000260: 7abf 5fbd 3a46 083d 0036 933b 705d 92bd
00000270: 9348 b03c ba7a ba3d 4d71 c9bd caa6 cbbd
00000280: 80eb 513c 0f38 9a3d c73c 79bd 1a56 b43c
00000290: adf8 8f3d a092 fc3c a048 b13c 9355 cc3d
000002a0: ef6b 853d c05e 66bd 1a9e 0d3c da40 513d
000002b0: 759d b43d 23c3 cbbd f3cc 5d3d 00d7 edbc
000002c0: 658b c8bd 53d7 b53c eafd 5ebd 672e 683c
000002d0: 3df7 84bd 321e 9abd 1a05 0bbc 5d98 09bd
000002e0: 838f 6f3d 8042 0d3c c0db 9f3d 4085 993c
000002f0: 27b6 03bd cab7 8a3d 9a0f b33b cdc1 993c
00000300: 93bc 03bd 0028 bc39 9a82 9dbc da4a 0bbc
00000310: 23b8 9fbd 3337 21ba 3afe a9bd 333c b0bc
00000320: 305c 873d 8f72 9fbd 392e 9bbd 8707 c8bc
00000330: be83 12bd 27ae 8a3c 303e d73c edb4 4f3d
00000340: 2f15 8dbd 99d3 7cbc 67cc 6e3d 53f5 9f3d
00000350: 33c9 7fbc a9a6 87bd 81dc a63c 0dfe 463d
00000360: c7e5 7fbd 2db0 6dbd e00a 353d 9a97 e5bb
00000370: 0d72 d2bd 2439 87bd 331b 263d 9318 2dbd
00000380: e25b 8d3d 0fe7 a13d fe0c cb3b 5a8e 01bc
00000390: e83a 24bd b3b1 a5bb 763a 213c 4b57 abbd
000003a0: ef97 74bc 8480 bbbd dd64 7b3d 906c 82bd
000003b0: b013 aa3d dbd6 0bbd 53a6 6abd f58b 223d
000003c0: f986 d63b 7675 793d e0fe 2a3d bb4a c5bd
000003d0: bf52 933d 4744 9abc 8f4e 56bd 8ad4 613d
000003e0: 1f36 843d 46f1 c4bd 315f 8ebc e02e a83d
000003f0: 2ec1 f83c 435f c03d 905e 0cbd ddfe 81bd

nn_model.2.bias f4 [100]
0.0339812 -0.00024067164 -0.07703136 0.049342107 -0.07617698 0.03932725 -0.072473265 -0.038973153
-0.0042583137 0.033291742 -0.10000474 0.058503155 0.033799596 -0.058083687 0.038854737 -0.05292356
-0.044112492 -0.016854573 0.051695526 0.0036557436 -0.070788585 0.06717107 0.012252612 -0.07538459
0.03300928 -0.081905715 0.05774828 0.06543124 0.07017957 -0.08794096 0.057242133 -0.00918256
-0.021662427 0.044677705 -0.09002668 -0.030966725 -0.09111532 -0.035230674 0.022165691 0.047328163
0.07060761 -0.0003507784 -0.025953121 0.05735268 -0.053588875 -0.09516813 -0.031943314 -0.05318763
0.103101216 0.030033031 0.017087836 0.06731762 -0.06195959 -0.052493524 -0.09269762 -0.012565503
-0.07058307 -0.0043109776 -0.06263906 0.057442587 -0.084833935 -0.049333572 0.059620358 0.07133283
-0.0040720436 -0.04314751 -0.103969686 0.1054989 0.0019460559 -0.01702503 -0.01580837 -0.033328205
0.047959708 -0.06598977 -0.018947862 0.056304526 -0.022109604 0.0830452 0.06167568 -0.09561071
0.033768777 -0.008300436 -0.020795004 -0.046764135 0.08074444 0.05882225 0.0897419 0.11033516
0.07349311 -0.042172965 0.047789633 -0.0083774775 0.11525793 0.1229549 0.08219456 0.022375008
-0.07311685 -0.040119637 -0.017264523 -0.065711685
00000000: df2f 0b3d cd5c 7cb9 9ec2 9dbd f31a 4a3d
00000010: ad02 9cbd 9c15 213d dd6c 94bd 50a2 1fbd
00000020: 5389 8bbb ec5c 083d 49cf ccbd 01a1 6f3d
00000030: 7271 0a3d 29e9 6dbd 2526 1f3d 60c6 58bd
00000040: 4daf 34bd 9a12 8abc b0be 533d 3395 6f3b
00000050: 9bf9 90bd fc90 893d 2ebf 483c 3c63 9abd
00000060: bd34 073d 2fbe a7bd 7689 6c3d d000 863d
00000070: 4eba 8f3d 641a b4bd ba76 6a3d 7372 16bc
00000080: 6775 b1bc f8ff 363d e85f b8bd eead fdbc
00000090: ab9a babd 0a4e 10bd d394 b53c 2ddb 413d
000000a0: b99a 903d aee8 b7b9 a49b d4bc a5ea 6a3d
000000b0: 0280 5bbd 82e7 c2bd fed6 02bd 46db 59bd
000000c0: bb26 d33d d507 f63c cafb 8b3c d2dd 893d
000000d0: 57c9 7dbd 7303 57bd 40d8 bdbd 8adf 4dbc
000000e0: db8d 90bd 1a43 8dbb e848 80bd eb48 6b3d
000000f0: 6abd adbd 0012 4abd 7a34 743d f216 923d
00000100: c76e 85bb 72bb 30bd 0fee d4bd cf0f d83d
00000110: cd12 ff3a 1378 8bbc 8e80 81bc 2883 08bd
00000120: 6671 443d a525 87bd 8c38 9bbc 939f 663d
00000130: 331f b5bc 9a13 aa3d a39f 7c3d 8ccf c3bd
00000140: 2151 0a3d 8dfe 07bc 495a aabc c08b 3fbd
00000150: 575d a53d 9aef 703d 9aca b73d 66f7 e13d
00000160: 8e83 963d 8fbd 2cbd 10bf 433d b041 09bc
00000170: 590c ec3d c7cf fb3d 9f55 a83d cb4b b73c
00000180: 49be 95bd 7d54 24bd 546e 8dbc d993 86bd

nn_model.4.weight f4 [100, 100]
0.1510944 -0.0524331 -0.008453264 -0.02779057 0.03358735 -0.04422517 0.003302884 0.120577656
0.021733526 0.04326927 0.050418396 0.11818013 -0.069185786 -0.021311622 -0.053698678 -0.07223576
-0.09998205 0.032583248 0.124424525 0.006561005 0.008453429 -0.0009648684 -0.05767199 0.117896535
0.039635528 -0.08561673 0.030225301 0.12646462 0.0819848 0.13248694 0.10578854 0.081385575
-0.020848488 0.023474203 0.034851756 -0.051169828 0.033241488 -0.06087954 0.07230092 0.07972604
0.11914609 0.121019475 0.12984642 -0.08398476 -0.07409893 -0.08516532 0.06585788 0.15174174
0.09785006 0.068600774 0.1228614 -0.035616085 -0.0036515077 -0.08238839 -0.071646914 -0.064430244
0.058750547 -0.027786529 0.020811632 0.105671145 0.053047538 0.069522604 -0.055829618 0.095290944
0.08257297 -0.05545042 0.012309108 -0.090247184 -0.0250422 0.021559536 -0.09263538 -0.03862688
0.04493708 0.13074562 -0.027219761 0.10557496 -0.078489445 -0.030269617 0.091414355 -0.022954192
0.0825567 -0.0601087 0.046476346 -0.022124756 0.039075445 0.036912777 0.03110664 0.1261734
0.015834913 -0.03075644 0.07444836 0.02508129 -0.074273154 -0.039377835 0.061711766 0.09086404
-0.0040777596 0.07162189 0.042990677 0.09483376 0.03338072 0.04750637 -0.030250935 -0.085756056
-0.018110886 0.060758054 -0.05032605 0.092773445 0.15596288 0.06265942 0.073681004 -0.044781573
0.04483764 0.020205649 0.036559064 -0.07486253 0.069498464 0.040181138 0.14399293 -0.012078869
-0.043384146 0.10680266 -0.057299268 0.05919284 -0.06134833 0.07164701 0.07361805 -0.19496891
-0.105127774 0.056910165 -0.13314782 0.091978125 0.041628134 -0.06826991 0.08451909 -0.03525808
0.04486039 0.041175105 -0.014408816 -0.037328184 -0.0150670605 -0.106798604 0.10619499 -0.077687085
0.021272631 0.07470568 -0.009226317 -0.20714374 0.06137078 0.1484335 0.014732183 -0.041913956
0.116510995 0.06461238 0.04629322 0.068124816 0.07441175 0.09360222 -0.07513405 0.07789899
0.0755819 0.117979124 0.050830003 0.08138713 0.06299341 0.066312924 0.14223844 -0.06918052
0.053443134 0.0789656 0.0058024824 0.12842113 0.13047184 0.08100486 -0.025068764 -0.01121556
0.03959769 -0.007448849 -0.16717997 -0.012342908 0.06394301 -0.02135986 -0.024935389 0.085774936
0.015791822 0.040558457 0.06953404 0.07133709 0.008893276 0.09730467 -0.00728153 -0.17237101
-0.1694094 0.020431045 -0.06478733 0.14294814 0.078297034 -0.07763591 0.029349368 0.14867227
0.016519783 -0.018362416 -0.057585757 -0.052494276 0.017919635 0.012191122 -0.06710835 0.0029542313
0.062991925 0.0328024 0.012973311 0.005841381 -0.045285847 0.04758536 0.15614998 0.017958522
-0.15476672 0.03598211 -0.052402973 -0.09328677 0.07098442 0.049469702 0.033383626 0.06359467
-0.03772365 0.031644415 -0.104788564 0.05288081 -0.04430297 0.021428905 0.12520465 0.016119434
-0.049826633 0.13859549 0.058494985 0.035719853 0.0040427805 0.09260302 -0.058130328 -0.063867874
0.15831043 0.15515766 0.04958141 0.06508606 -0.020277997 -0.022514975 0.07850115 0.30537328
-0.08794708 -0.0006517052 0.043195613 -0.03217216 -0.10785283 0.045887567 -0.0678149 0.060646184
00000000: 7eb8 1a3e 17c4 56bd 8f7f 0abc 0da9 e3bc
00000010: e492 093d 7425 35bd 3375 583b 6bf1 f63d
00000020: 820a b23c 1e3b 313d 8583 4e3d 6d08 f23d
00000030: 47b1 8dbd b695 aebc 25f3 5bbd 58f0 93bd
00000040: 64c3 ccbd 0376 053d 49d2 fe3d b3fd d63b
00000050: 4080 0a3c 39ef 7cba 7739 6cbd bd73 f13d
00000060: dd58 223d d357 afbd 0d9b f73c f17f 013e
00000070: a6e7 a73d a8aa 073e a9a7 d83d 7bad a63d
00000080: 73ca aabc f94c c03c b7c0 0e3d 7497 51bd
00000090: 3a28 083d d35c 79bd 8112 943d 6847 a33d
000000a0: dd02 f43d 0fd9 f73d 76f6 043e 3400 acbd
000000b0: 2ec1 97bd 286b aebd 7fe0 863d 3062 1b3e
000000c0: 9d65 c83d 907e 8c3d c29e fb3d 2ce2 11bd
000000d0: 224e 6fbb 3fbb a8bd 9ebb 92bd 01f4 83bd
000000e0: 6aa4 703d 93a0 e3bc 287d aa3c 1d6a d83d
000000f0: 6048 593d de61 8e3d 99ad 64bd e627 c33d
00000100: 041c a93d fb1f 63bd 24ac 493c 84d3 b8bd
00000110: 4d25 cdbc a09d b03c 9eb7 bdbd 3837 1ebd
00000120: f20f 383d 2ee2 053e fafb debc af37 d83d
00000130: 13bf a0bd fdf7 f7bc 7337 bb3d 6e0a bcbc
00000140: 7d13 a93d 8a34 76bd fb5d 3e3d fa3e b5bc
00000150: 930d 203d da31 173d 5ad3 fe3c 9a33 013e
00000160: 38b8 813c eef4 fbbc 6278 983d 4777 cd3c
00000170: 861c 98bd a74a 21bd 7ac5 7c3d ed16 ba3d
00000180: ba9e 85bb 7fae 923d fe16 303d 3438 c23d
00000190: 39ba 083d 0a96 423d cfd0 f7bc dfa0 afbd
000001a0: 485d 94bc 70dd 783d b022 4ebd 0100 be3d
000001b0: bcb4 1f3e 9553 803d 11e6 963d e26c 37bd
000001c0: aca7 373d 5186 a53c f5be 153d 8751 99bd
000001d0: 3655 8e3d fa94 243d e272 133e 73e6 45bc
000001e0: 93b3 31bd 5abb da3d a3b2 6abd 3174 723d
000001f0: 6348 7bbd abbb 923d 0fc5 963d eea5 47be
00000200: 3b4d d7bd a21a 693d e757 08be 075f bc3d
00000210: 4382 2a3d 18d1 8bbd 5818 ad3d c76a 10bd
00000220: 87bf 373d 3aa7 283d f412 6cbc 70e5 18bd
00000230: d5db 76bc 3ab9 dabd c27c d93d 681a 9fbd
00000240: f143 ae3c 4bff 983d fa29 17bc 7d1d 54be
00000250: ed5f 7b3d f4fe 173e 415f 713c f8ad 2bbd
00000260: 519d ee3d 7f53 843d f69d 3d3d 0685 8b3d
00000270: 3065 983d 85b2 bf3d e1df 99bd 8189 9f3d
00000280: afca 9a3d 0a9f f13d 1f33 503d 4cae a63d
00000290: b002 813d 12cf 873d f4a6 113e 84ae 8dbd
000002a0: 30e7 5a3d b7b8 a13d c022 be3b d480 033e
000002b0: 699a 053e e0e5 a53d 025d cdbc 78c1 37bc
000002c0: 3031 223d 7915 f4bb 3a31 2bbe e939 4abc
000002d0: 8ef4 823d e0fa aebc 4d45 ccbc c5aa af3d
000002e0: da5d 813c a020 263d dd67 8e3d 2e19 923d
000002f0: 1ab5 113c ac47 c73d e799 eebb 0782 30be
00000300: a879 2dbe 025f a73c 38af 84bd ff60 123e
00000310: 325a a03d 93ff 9ebd 166e f03c 8b3d 183e
00000320: 7f54 873c c76c 96bc 0bdf 6bbd 3d04 57bd
00000330: 33cc 923c 46bd 473c 1a70 89bd c79b 413b
00000340: e901 813d cf5b 063d 038e 543c 0e69 bf3b
00000350: a77d 39bd dee8 423d c8e5 1f3e c01d 933c
00000360: 2b7b 1ebe fa61 133d 80a4 56bd 220d bfbd
00000370: 4860 913d bea0 4a3d 45bd 083d ec3d 823d
00000380: 1d84 1abd 939d 013d 639b d6bd 8c99 583d
00000390: 0877 35bd ac8b af3c a635 003e e70c 843c
000003a0: 0317 4cbd faeb 0d3e 7098 6f3d fb4e 123d
000003b0: 4d79 843b a7a6 bd3d 111a 6ebd 29cd 82bd
000003c0: 211c 223e a6e1 1e3e e015 4b3d d74b 853d
000003d0: 0b1e a6bc 5371 b8bc 36c5 a03d e359 9c3e
000003e0: 991d b4bd 32d7 2aba e2ed 303d f4c6 03bd
000003f0: f2e1 dcbd 9af4 3b3d 8ae2 8abd 2268 783d

nn_model.4.bias f4 [100]
-0.007495053 -0.04042834 0.12912707 0.07606718 -0.09757939 0.09347608 0.10475348 -0.09488004
0.06508625 -0.026381584 -0.05549601 -0.06087097 -0.095777385 -0.078248896 0.104637586 -0.016395023
-0.0037912966 0.005731065 0.08598513 -0.011678979 0.044117935 -0.036500443 0.0670693 -0.026036918
0.11913943 0.017897623 -0.052135903 0.053229358 0.09464018 0.0054177763 0.0111646615 0.04644342
0.0048523666 0.02590293 0.09726734 0.048860867 0.017685939 0.04200136 -0.00041791712 -0.04879888
0.062496826 0.06416326 0.03912921 0.018832557 0.04957388 -0.06300617 0.035677668 0.010834659
-0.040470432 -0.08410663 -0.009683907 0.085383035 -0.05222311 0.049014177 -0.038457677 -0.00845028
0.081503615 -0.03201937 0.08758584 0.08033801 0.020958131 -0.040961172 0.011982165 0.09457331
-0.0749536 0.117834985 0.07456716 -0.0478041 0.1043043 0.011361173 -0.01580261 -0.06692424
0.07729034 -0.07080241 -0.06560407 0.00077477697 0.004072993 -0.05185881 0.03557052 -0.0267895
0.044994436 -0.01661599 -0.030326307 -0.0954588 0.11818204 0.061254915 0.12985465 -0.07458985
0.0023793087 -0.029894425 -0.045941696 -0.011316013 0.03557003 0.052940108 -0.079779014 -0.08115393
0.119228505 0.065975554 0.041251563 0.1235514
00000000: 1099 f5bb 3098 25bd e339 043e 1cc9 9b3d
00000010: b4d7 c7bd 6370 bf3d fe88 d63d 7750 c2bd
00000020: f14b 853d 311e d8bc c94f 63bd d753 79bd
00000030: ef26 c4bd f540 a0bd 3b4c d63d db4e 86bc
00000040: 6777 78bb a8cb bb3b f918 b03d 3059 3fbc
00000050: 02b5 343d 7d81 15bd a15b 893d 604b d5bc
00000060: 60ff f33d 099e 923c 758c 55bd 0707 5a3d
00000070: b6d2 c13d 9a87 b13b fceb 363c 753b 3e3d
00000080: 9a00 9f3b 6232 d43c 1934 c73d 5522 483d
00000090: 1ae2 903c 9e09 2c3d e31b dbb9 56e1 47bd
000000a0: acfc 7f3d 0768 833d f345 203d bc46 9a3c
000000b0: fb0d 4b3d 6109 81bd bf22 123d db83 313c
000000c0: 53c4 25bd 1940 acbd 40a9 1ebc 4ddd ae3d
000000d0: e6e7 55bd 17c3 483d cc85 1dbd 0b73 0abc
000000e0: 5eeb a63d be26 03bd 3460 b33d 4188 a43d
000000f0: 63b0 ab3c e7c6 27bd d850 443c a7af c13d
00000100: 4681 99bd 7853 f13d abb6 983d 3bce 43bd
00000110: 7e9d d53d 3724 3a3c 7a74 81bc 930f 89bd
00000120: 664a 9e3d db00 91bd 6d5b 86bd 671a 4b3a
00000130: be76 853b e769 54bd 65b2 113d a775 dbbc
00000140: 164c 383d 421e 88bc e06e f8bc e77f c3bd
00000150: 6d09 f23d 6fe6 7a3d 9ef8 043e 90c2 98bd
00000160: 2dee 1b3b 27e5 f4bc 5c2d 3cbd cc66 39bc
00000170: e1b1 113d bad7 583d 2e63 a3bd 0834 a6bd
00000180: 132e f43d 311e 873d 66f7 283d 8408 fd3d

allocation_head.0.weight f4 [4, 100]
0.01785927 0.101260126 -0.06427188 -0.01844758 0.03454079 0.026815737 -0.013779099 0.07928895
0.00084866205 0.016630294 0.027028149 -0.057070926 -0.09553485 -0.061135642 -0.040489968 -0.015524797
0.039533522 0.07209076 -0.08578738 0.013313823 0.1020966 0.10485699 -0.028502082 0.09760552
-0.050629366 -0.0263623 0.15726724 -0.09276704 -0.043302357 -0.025316525 -0.007744805 0.031313423
-0.064817965 -0.10663939 -0.08488778 -0.08774715 -0.115190916 0.18124013 0.1416124 0.05129732
-0.04281521 -0.032066584 0.010295708 -0.11817918 -0.090180404 -0.059988577 0.06831007 0.07385339
-0.044349503 0.003968204 0.07180727 0.09298373 -0.18926282 0.009722917 0.059335884 -0.10297605
0.03226429 -0.16655223 -0.06655784 -0.0961431 0.08957643 0.04021604 -0.100769214 -0.0013814605
0.066550426 -0.062614486 -0.025247289 0.06419745 0.05703478 0.097346425 -0.07706236 -0.45201054
0.073582456 0.08285494 0.081931524 0.08823568 -0.040714424 -0.065290816 0.068214834 -0.062560536
-0.13573544 0.14398743 0.10321771 -0.093747556 -0.04129986 -0.055583604 -0.07534881 -0.04577569
0.020952985 -0.13045709 0.09145175 0.053740133 0.06287946 0.08941832 -0.090182096 -0.060796022
0.010958594 0.010339579 -0.09640446 -0.07348332 0.14088379 0.14083917 -0.039753523 -0.007975309
-0.24719977 -0.0017974138 -0.07310825 -0.077135675 0.016569884 0.0052271797 0.13535744 0.0937364
-0.06085391 0.1895159 0.06702674 -0.08736641 -0.024888432 0.041507438 0.012824378 0.07516814
0.063629106 0.060605306 -0.048503388 0.023390586 -0.1249376 -0.07762016 -0.021279335 -0.048711337
-0.036952093 -0.08196217 0.05501955 0.058568504 -0.06514658 -0.03473436 0.08298064 -0.0043708445
-0.060952842 -0.018932069 0.0059935013 0.06886405 0.123898886 0.08239171 0.088393256 -0.024651108
-0.10893682 -0.082597695 0.06933507 -0.010982303 -0.049704637 -0.06969865 -0.085331716 -0.09438679
-0.23995753 0.06120271 0.06279704 -0.12854297 0.07591038 -0.11996581 -0.011652295 -0.098402835
0.017200124 -0.019634271 -0.0998495 -0.12123874 -0.009056942 -0.058041647 -0.071712755 0.105300754
-0.09836537 0.008095477 0.087941945 -0.35298413 0.12853223 0.036215376 -0.09534279 0.063269734
-0.07676474 -0.07557923 0.1330491 -0.080809526 -0.010781915 0.036844254 0.10662052 0.03391893
0.013975199 0.0148564335 -0.059328664 -0.021030545 -0.0993883 0.02860573 0.13069573 0.16181411
-0.079437576 0.083645776 -0.061672848 -0.055047013 -0.08811868 0.11912114 0.02278906 -0.010377734
-0.014401141 0.016846573 -0.09362468 -0.12379767 -0.13112248 0.06999334 -0.024148712 0.08434887
0.026437737 0.022493564 -0.057993867 0.01764623 0.012546635 -0.027927047 -0.0014349825 0.031988405
-0.07822051 -0.064501606 0.098742545 -0.13801487 -0.07295551 0.077105686 0.044045787 -0.019943029
-0.052149974 0.086481474 -0.1379478 -0.028386427 -0.05320308 -0.014808739 -0.030141387 0.13756742
0.012483883 0.15017545 0.07619497 -0.069130346 0.1016673 -0.16596991 -0.13937312 0.026582217
0.0810935 0.055821035 -0.025568824 0.02496984 0.069406115 -0.08827354 0.06708189 -0.09791347
0.0013782502 -0.024578117 -0.06051852 0.01964677 0.3116431 -0.025445608 -0.051656667 0.007111933
00000000: 9b4d 923c 7861 cf3d faa0 83bd 611f 97bc
00000010: a57a 0d3d adac db3c bbc1 61bc 3f62 a23d
00000020: bf78 5e3a 413c 883c 236a dd3c 34c3 69bd
00000030: c7a7 c3bd 5e69 7abd cfd8 25bd b85b 7ebc
00000040: e7ed 213d 52a4 933d 4bb1 afbd 3922 5a3c
00000050: 0618 d13d 43bf d63d 337d e9bc 67e5 c73d
00000060: bd60 4fbd c0f5 d7bc aa0a 213e a5fc bdbd
00000070: d05d 31bd 9a64 cfbc 22c8 fdbb 8142 003d
00000080: 48bf 84bd c165 dabd a5d9 adbd c7b4 b3bd
00000090: 37e9 ebbd 0397 393e d702 113e 231d 523d
000000a0: 005f 2fbd 4058 03bd 54af 283c ed07 f2bd
000000b0: 81b0 b8bd 95b6 75bd 26e6 8b3d 7240 973d
000000c0: d3a7 35bd b507 823b b10f 933d 416e be3d
000000d0: 1dce 41be df4c 1f3c 2f0a 733d 1be5 d2bd
000000e0: 8f27 043d ab8c 2abe 7a4f 88bd ace6 c4bd
000000f0: d973 b73d 93b9 243d 1760 cebd 1f12 b5ba
00000100: 974b 883d 063c 80bd 67d3 cebc f479 833d
00000110: 4d9d 693d 905d c73d dfd2 9dbd ed6d e7be
00000120: 66b2 963d daaf a93d b7cb a73d e8b4 b43d
00000130: 2bc4 26bd 31b7 85bd 38b4 8b3d bd1f 80bd
00000140: 3bfe 0abe 7171 133e cf63 d33d b8fe bfbd
00000150: 0b2a 29bd a2ab 63bd 7a50 9abd 4a7f 3bbd
00000160: 98a5 ab3c 8b96 05be 0e4b bb3d 9d1e 5c3d
00000170: f2c6 803d f420 b73d 64b1 b8bd 4005 79bd
00000180: ad8b 333c 5667 293c b46f c5bd 6c7e 96bd
00000190: d743 103e 2538 103e 97d4 22bd dfaa 02bc
000001a0: f021 7dbe 3397 ebba c7b9 95bd 4ff9 9dbd
000001b0: 91bd 873c c348 ab3b 249b 0a3e dff8 bf3d
000001c0: f341 79bd 7510 423e 5145 893d 29ed b2bd
000001d0: d3e2 cbbc b403 2a3d 571d 523c c1f1 993d
000001e0: fa4f 823d 453d 783d 7dab 46bd 9d9d bf3c
000001f0: 49df ffbd 52f7 9ebd 0052 aebc 8a85 47bd
00000200: 145b 17bd c8db a7bd 2e5c 613d 87e5 6f3d
00000210: 926b 85bd 9e45 0ebd c1f1 a93d 4d39 8fbb
00000220: b0a9 79bd 6d17 9bbc 2265 c43b 9808 8d3d
00000230: b3be fd3d fcbc a83d 8607 b53d 1ff1 c9bc
00000240: 441a dfbd fb28 a9bd 8cff 8d3d 1eef 33bc
00000250: 1797 4bbd 2abe 8ebd 65c2 aebd dd4d c1bd
00000260: 6db7 75be b1af 7a3d bc9b 803d c5a0 03be
00000270: e776 9b3d a2b0 f5bd 44e9 3ebc 6d87 c9bd
00000280: 46e7 8c3c 0dd8 a0bc e57d ccbd 044c f8bd
00000290: 9163 14bc 14bd 6dbd 23de 92bd eca7 d73d
000002a0: c873 c9bd e4a2 043c e81a b43d 56ba b4be
000002b0: f49d 033e 9356 143d 1543 c3bd 9093 813d
000002c0: d536 9dbd 49c9 9abd 063e 083e 777f a5bd
000002d0: a1a6 30bc 00ea 163d dc5b da3d 93ee 0a3d
000002e0: 3cf8 643c 6668 733c 9d02 73bd 4048 acbc
000002f0: 188c cbbd 9056 ea3c 1ad5 053e 99b2 253e
00000300: 2bb0 a2bd 7a4e ab3d ab9c 7cbd fa78 61bd
00000310: 9177 b4bd c9f5 f33d 1fb0 ba3c 5f07 2abc
00000320: c3f2 6bbc d301 8a3c 4cbe bfbd a289 fdbd
00000330: f944 06be ab58 8f3d 85d3 c5bc 1abf ac3d
00000340: f493 d83c 6c44 b83c fa8a 6dbd d48e 903c
00000350: 6790 4d3c 43c7 e4bc 0616 bcba 4606 033d
00000360: 1332 a0bd 6b19 84bd 8839 ca3d c553 0dbe
00000370: b369 95bd 96e9 9d3d 5b69 343d 905f a3bc
00000380: 369b 55bd 331d b13d 3042 0dbe a78a e8bc
00000390: 79eb 59bd 5aa0 72bc 12eb f6bc 79de 0c3e
000003a0: 3389 4c3c 98c7 193e 1c0c 9c3d 3694 8dbd
000003b0: f236 d03d 04f4 29be d4b7 0ebe f3c2 d93c
000003c0: 5914 a63d 99a4 643d b675 d1bc 8d8d cc3c
000003d0: cb24 8e3d c2c8 b4bd 3b62 893d db86 c8bd
000003e0: 67a6 b43a 0c58 c9bc 45e2 77bd 43f2 a03c
000003f0: af8f 9f3e 4f73 d0bc f195 53bd 380b e93b

allocation_head.0.bias f4 [4]
0.048067607 -0.004439466 -0.031332288 0.10377778
00000000: 8ae2 443d f178 91bb 4956 00bd 7289 d43d

payment_head.0.weight f4 [1, 100]
0.028860081 -0.12821044 0.22950828 0.12522534 -0.16110991 0.056215454 -0.070731215 -0.015671432
0.13969456 0.013280059 -0.034068692 0.2111371 -0.027144516 -0.009692201 0.11674315 0.1438737
0.005354035 -0.158448 0.12884557 0.051200982 0.13041453 -0.115122035 0.33814752 -0.076840326
0.102498166 0.13727264 -0.0696518 0.037172686 0.18693225 0.0065588355 -0.11112314 -0.033675276
0.021836413 0.37594214 0.1470713 -0.096693434 -0.06410791 -0.14633171 -0.035633925 0.062359262
-0.0994133 0.06592826 -0.033723105 0.16069286 0.13881864 0.16634586 0.12946132 0.09582667
0.09939957 0.043034345 -0.074185684 0.1338379 -0.042742867 0.05554968 -0.0769553 0.22431062
-0.17991014 0.33978903 0.13088408 -0.08347558 0.024754856 0.053680684 0.15138605 0.3298377
-0.07698579 -0.0052661616 0.2529261 0.11056552 0.13427025 -0.048677146 0.035061646 -0.008241301
-0.11858736 0.046660792 -0.052837893 0.04810957 -0.01977901 -0.42268097 -0.13377692 0.05218407
0.15458424 0.08535058 0.028080506 0.049330026 0.048663467 0.26815155 0.14966579 0.01329006
0.03847581 0.18118721 0.106418036 -0.0034729652 -0.06028655 -0.082192086 0.07979316 0.08986104
0.21386057 0.22012486 0.14598578 0.14555024
00000000: fa6b ec3c 9949 03be 3804 6b3e 123b 003e
00000010: fff9 24be 2d42 663d 87db 90bd 6061 80bc
00000020: 170c 0f3e 9b94 593c 9d8b 0bbd 5334 583e
00000030: 2d5e debc 0acc 1ebc 0817 ef3d a153 133e
00000040: e770 af3b 3140 22be 18f0 033e 1fb8 513d
00000050: 638b 053e 1ac5 ebbd ac21 ad3e 765e 9dbd
00000060: 8fea d13d 3391 0c3e 9aa5 8ebd 6342 183d
00000070: 2b6b 3f3e 80eb d63b 8794 e3bd 16ef 09bd
00000080: 47e2 b23c 7d7b c03e dc99 163e 3507 c6bd
00000090: 024b 83bd fbd7 15be e1f4 11bd 6d6c 7f3d
000000a0: 3399 cbbd 6505 873d 3d21 0abd ab8c 243e
000000b0: 7926 0e3e 9256 2a3e 8291 043e c640 c43d
000000c0: 0092 cb3d c844 303d aaee 97bd cd0c 093e
000000d0: 2513 2fbd 1088 633d be9a 9dbd afb1 653e
000000e0: 5d3a 38be d4f8 ad3e 7a06 063e 3ff5 aabd
000000f0: b2ca ca3c 47e0 5b3d f204 1b3e 7de0 a83e
00000100: baaa 9dbd c48f acbb 887f 813e 2d70 e23d
00000110: 247e 093e b061 47bd cd9c 0f3d 8606 07bc
00000120: eedd f2bd 631f 3f3d 8c6c 58bd 8a0e 453d
00000130: 9707 a2bc a469 d8be d1fc 08be f7be 553d
00000140: 554b 1e3e 49cc ae3d 1709 e63c 480e 4a3d
00000150: 5853 473d 294b 893e fd41 193e 8dbe 593c
00000160: d098 1d3d 2489 393e b3f1 d93d b09a 63bb
00000170: 08ef 76bd 5354 a8bd 996a a33d 1109 b83d
00000180: 44fe 5a3e 6968 613e 4c7d 153e 1f0b 153e
