result/1x2_sparsemax_in_linsigpmt_scratch_14_checkpoint.pt (torch, 88519 bytes, 9 tensors)

nn_model.0.weight f4 [100, 2]
000000 36 04 e1 be 81 5d a9 3e 85 d0 97 3e 53 03 82 be
       -0.43948525 0.3307915 0.29651275 -0.2539316
000010 ae 58 14 3e dc ca 82 be bf c3 c7 3e 26 30 66 be
       0.14486954 -0.25545394 0.3901653 -0.22479305
000020 af 65 87 be 5e 7d 2c 3e 4e 2a a9 3e bf 9a 83 be
       -0.26444766 0.16844699 0.33040088 -0.25704
000030 fd 6d 47 3d 15 7c ba 3e 2e 16 90 bd 7e 5c 5c 3e
       0.048688877 0.36422792 -0.070354804 0.21519658
000040 55 a3 2e be f1 c9 7d 3e f2 33 e1 be 29 ca b5 be
       -0.17054494 0.24784066 -0.43984944 -0.35505798
000050 c5 47 cb be 69 1d 26 3f d7 27 08 be 33 19 d6 bc
       -0.39703193 0.64888626 -0.13296448 -0.026135063
000060 50 60 94 be 60 02 39 3f 42 b6 1f 3f 21 4b 0d bf
       -0.2897973 0.7226925 0.6238748 -0.5519276
000070 c0 28 cb be 65 91 b5 be 4d 6a d6 bd b8 a4 7b be
       -0.39679527 -0.3546249 -0.10469494 -0.24574554
000080 89 f8 ec be 6a da 81 be 7e 58 f7 3d 2d cd c2 be
       -0.46283367 -0.2536195 0.120774254 -0.38047162
000090 61 71 20 3e dd 0a 26 be 40 6e af be 97 f4 c6 3d
       0.1566825 -0.16215082 -0.34263802 0.097146206
0000a0 15 2b 20 3f 1c c8 cc be 13 d1 55 bd a9 dd 98 be
       0.6256574 -0.3999642 -0.05220134 -0.29856613
0000b0 19 8d 61 3f d0 21 ff be ca 97 15 bf f9 1d 3f 3f
       0.8810592 -0.49830484 -0.58434737 0.7465511
0000c0 e8 0e e5 be 91 d2 0a 3e 1a f8 79 bd 2e 88 18 be
       -0.44737935 0.13556887 -0.061027624 -0.14895698
0000d0 e7 69 4c be 5b 3a d7 3e 4f 6f 0a 3d 39 3e 30 bf
       -0.19962274 0.4203671 0.03379756 -0.68844944
0000e0 65 c0 d4 be ab b8 33 be 0d 2f b6 3e 95 49 ea be
       -0.41553035 -0.17550914 0.35582772 -0.45759264
0000f0 04 a7 3c 3f 30 61 c4 bd 66 8f 3e be 26 53 1b 3f
       0.73692346 -0.095888495 -0.1860939 0.6067375
000100 1c cb a7 3e 88 37 1e 3f e2 da ee 3e 5f 68 29 be
       0.32772148 0.61803484 0.4665137 -0.1654372
000110 e2 33 f0 be 87 7e 57 bd 38 3c 2b 3f eb 6b ac bd
       -0.46914583 -0.0526109 0.6688876 -0.08419021
000120 fd ab ed be f0 2f c8 3e 68 16 3e 3f f6 76 17 be
       -0.4642028 0.39099073 0.7425294 -0.14791474
000130 66 e3 15 bf 02 32 24 bf 43 37 26 3e 45 77 64 bd
       -0.5855011 -0.64138806 0.16232018 -0.055777807
000140 67 d9 e3 be f3 b2 b4 3d c4 65 ab 3e 85 b8 1e 3f
       -0.44501802 0.08823194 0.3347608 0.62000304
000150 11 5f 05 3f bd b9 f3 bd ed 9d 1f bf c1 92 23 bf
       0.52098185 -0.11900661 -0.6235035 -0.63895804
000160 6c e8 3e 3f b2 80 a8 3e b9 d0 9d 3e 2a 9f 1c bf
       0.745734 0.32910687 0.30823305 -0.61180365
000170 e4 08 3a 3f e9 d5 3b 3f b1 47 14 3f b0 0c 1d bf
       0.72669816 0.73373276 0.5792189 -0.61347485
000180 08 12 82 be 13 e4 e3 be f8 00 34 3f 55 3b a4 be
       -0.25404382 -0.44509944 0.7031398 -0.32076517
000190 29 9d 9c be d4 aa af 3e f0 79 a7 be e3 4f b2 be
       -0.30588654 0.3431002 -0.32710218 -0.34826574
0001a0 ff 29 df bd 7d f8 ee bd 43 4d 20 bf 10 b6 20 3f
       -0.10896682 -0.11668489 -0.6261789 0.62777805
0001b0 ff b3 9f be a6 6b 80 3e 03 cd 25 3f d1 7d c8 3e
       -0.31192014 0.2508213 0.6476595 0.3915849
0001c0 2e ec 21 3e 1a 02 2a 3f 84 ab c2 3d e5 7f a7 be
       0.15812752 0.66409457 0.0950537 -0.32714763
0001d0 3c e8 2e 3f 07 98 3e 3e 77 a9 cd be 31 b7 29 be
       0.6832311 0.18612681 -0.40168354 -0.16573788
0001e0 93 a6 e4 be 3e da 33 3f 22 28 ef bd ee 00 25 bf
       -0.44658336 0.70254886 -0.116775766 -0.64454544
0001f0 1d 9b 99 bd bf e8 db 3e 98 1d 3c 3e da f4 64 3e
       -0.07500289 0.4295101 0.18370664 0.22359028
000200 8f 2b 33 3e 63 2b b0 3e a1 84 21 be 24 63 8f be
       0.17497085 0.344081 -0.1577325 -0.28005326
000210 47 33 29 bf 59 5e 08 bf 9b 41 6e 3e 2a 8a e8 be
       -0.6609387 -0.53268963 0.23267214 -0.4541791
000220 fb c5 dd 3d 6a 8c 81 3e f7 86 74 bc 4d 0d f9 be
       0.108287774 0.2530244 -0.014924756 -0.4864296
000230 9e c1 35 3f 7e 5b b9 be 84 d8 03 3f 98 c1 24 bf
       0.7099856 -0.36202615 0.5150225 -0.643579
000240 fb 2c 2e be 10 f0 c4 3e f3 95 97 be 35 53 1b 3f
       -0.17009346 0.38464403 -0.2960659 0.6067384
000250 a6 23 f9 be cf 03 18 bf 0b 40 a3 be 45 18 ea 3d
       -0.4866001 -0.5938081 -0.31884798 0.1143041
000260 91 5f 17 3f 61 52 9e be 29 58 8d 3e 5d 03 64 be
       0.591302 -0.30922225 0.27606323 -0.22266908
000270 aa 12 23 be 91 ee 0f 3f 95 49 0c bf 36 d0 99 3d
       -0.15925089 0.562234 -0.5479978 0.07510416
000280 69 49 1d 3f 37 ee 38 be 9f 5b 04 3f 8b c6 87 be
       0.6144014 -0.18059622 0.517023 -0.26518664
000290 b6 b6 11 3f 02 1b 2f bf 94 e2 d1 bd 0f 9c 23 be
       0.5691942 -0.68400586 -0.102482945 -0.159775
0002a0 e9 6f 97 3e 04 17 a5 3e d5 9f 1b 3f b9 2a 1b bd
       0.29577568 0.32244122 0.6079076 -0.03788254
0002b0 02 b7 48 3d 07 cf 0d 3f 79 93 6f be 9e 92 15 3f
       0.049002655 0.55394024 -0.233961 0.58426845
0002c0 09 a8 ac be 60 b3 a7 bd 61 f1 bf 3b 4c 7f 92 3e
       -0.3372195 -0.0818851 0.005857632 0.28612745
0002d0 01 23 e4 3e fc 67 45 be 94 f8 15 bf 29 63 b3 3e
       0.44557956 -0.19277948 -0.58582425 0.3503659
0002e0 e7 54 88 3e 2d 5a 80 3e e7 64 b7 be fc ca 04 3f
       0.26627275 0.250688 -0.3581917 0.5187223
0002f0 21 17 3d 3f f7 fd 04 3e 47 2b 3c bf 6b 05 d4 3e
       0.73863417 0.12987505 -0.73503536 0.41410384
000300 8e 37 06 bf f7 71 26 3e 06 b9 11 3d f5 d0 c9 be
       -0.5242852 0.16254412 0.035576843 -0.39417234
000310 da 1e 7c 3e dc e8 21 bf 52 a7 2e 3e 16 3a e2 be
       0.24621144 -0.6324594 0.17056015 -0.4418494

nn_model.0.bias f4 [100]
000000 37 fd b5 bc b5 51 89 bd 73 b9 2a 3f 55 45 c4 be
       -0.022215469 -0.067050375 0.66689223 -0.38334146
000010 14 06 f1 3e 9f 84 03 be 75 6a c4 be af a1 1d bf
       0.4707495 -0.1284356 -0.3836247 -0.61574835
000020 ac 16 26 bf 56 3a 4a 3f a9 c2 72 be 29 9f 01 3e
       -0.64878345 0.78995264 -0.2370707 0.12658371
000030 ec 1f 64 3e 1d e3 0c 3f 34 c8 3b 3f 12 d6 1e 3f
       0.22277802 0.5503405 0.7335236 0.62045395
000040 3a 1d 06 bf 37 12 01 be 5e 3b d6 be f7 d9 ce be
       -0.52388346 -0.12604605 -0.4184217 -0.4040067
000050 c2 99 58 3e a7 f8 36 3f f6 a6 ca be d4 70 07 3f
       0.21152404 0.71473163 -0.39580506 0.5290654
000060 7b b4 bb be 19 08 0d be 7c b6 16 3f c9 c3 23 be
       -0.36661133 -0.1377262 0.588722 -0.15992655
000070 38 fa c7 3d aa 13 fd be 11 e5 19 3f 8f 68 de bd
       0.09764522 -0.49429065 0.6011515 -0.10859787
000080 3b c2 05 bf 36 5c 43 3e 38 b5 00 bf 9d 05 01 bf
       -0.522495 0.19078144 -0.5027652 -0.5039919
000090 0a 40 74 3d a0 b1 0e 3f fe e6 4c be e8 c6 b1 3e
       0.059631385 0.55739784 -0.20009992 0.34722066
0000a0 e1 5a 29 3f 24 79 f0 3e 25 2d eb be 1b bf 9e bd
       0.66154295 0.46967423 -0.4593288 -0.07751294
0000b0 cb 06 9b be d2 8f 11 bf 31 1f c6 bc 82 8c 1a 3f
       -0.3027862 -0.5686008 -0.024184795 0.6037065
0000c0 48 22 32 3f 87 3f 1f bc 52 1f 6e 3e 00 bc 9c be
       0.6958356 -0.009719736 0.23254135 -0.30612183
0000d0 99 75 0c 3f a2 76 ab be bd 7d fb be 90 a6 fa 3d
       0.5486694 -0.33488947 -0.49119368 0.122388005
0000e0 22 e7 d9 3e 9c 34 23 bf 6d 8c 25 3f cb b4 c0 3e
       0.42559153 -0.6375215 0.646674 0.37637934
0000f0 e7 19 d6 be c0 f8 1b be a7 a0 20 3f 62 e2 0a bf
       -0.41816637 -0.1523161 0.62745136 -0.5425168
000100 74 e7 0a be 35 07 b0 3e 9d 96 1e bf 94 0e e7 3e
       -0.13564855 0.343805 -0.6194857 0.4512831
000110 d3 3a c9 3e e6 5c fd 3e 16 01 eb be ab d3 43 3f
       0.39302692 0.49484938 -0.45899266 0.76494855
000120 43 9a d6 be af 4a 3a 3f f7 b8 2d bf 65 48 21 bf
       -0.41914567 0.7277021 -0.6786036 -0.6300109
000130 78 35 ed 3e ed 67 a3 bc 58 b8 04 bd 61 7b c8 be
       0.46329856 -0.019947017 -0.032402366 -0.3915663
000140 04 c6 ce be df 8e 91 be 4a 57 30 bf 7a f5 64 3e
       -0.4038545 -0.28429314 -0.6888319 0.22359267
000150 d4 27 01 3e 7e dd 0b 3d f1 39 7a 3e 5f 22 35 3f
       0.1261285 0.03414678 0.24436165 0.7075557
000160 59 fe 9d 3e 00 3f 98 be a0 73 ae be 65 a2 e7 be
       0.30858114 -0.29735565 -0.3407259 -0.45241085
000170 23 02 ff be 69 ea c5 bd 51 0e e9 bd 21 0d a9 3e
       -0.49806318 -0.09663851 -0.11379684 0.3301783
000180 a8 bf 9a be 53 5a 1b 3f 0d 09 fe be 8c e4 2b 3d
       -0.30224347 0.606847 -0.4961628 0.041966006

nn_model.2.weight f4 [100, 100]
000000 55 a5 ef 3d dd 75 11 3e 4b a9 2c bb a6 49 cd 3c
       0.117014565 0.14205118 -0.0026346024 0.025059532
000010 ab 0d 84 3d a8 58 84 3c 05 e3 85 bd 33 e2 dd 3c
       0.064479195 0.016155556 -0.06537441 0.0270854
000020 2a 69 8e bd 2a d9 65 3d a7 dd 9e 3d b1 60 a2 3c
       -0.06953652 0.056115307 0.077571206 0.019821497
000030 7c 19 fe 3d b6 3a 4b 3d 0d 4d a7 3d 42 48 19 3e
       0.124072045 0.049616538 0.08168993 0.1496897
000040 4d 67 fa bc 99 a4 77 3d ad 50 ea bc 73 53 6f bc
       -0.030566836 0.060459707 -0.028602922 -0.014607298
000050 96 eb 21 3d 3d b6 4e 3d c1 7e ca bd b0 70 9d 3d
       0.039531313 0.050466765 -0.09887458 0.07687509
000060 33 f1 76 3b 15 d2 81 3d 57 2a 1d 3d 8d 4c 24 3c
       0.0037680387 0.06338898 0.038370457 0.010028017
000070 f8 6e 70 bc b2 82 ab bd 50 f0 c6 3d 51 91 28 bc
       -0.0146748945 -0.083745375 0.09713805 -0.010288552
000080 64 e2 7f bd 04 fe aa 3c 00 3d d6 3c 31 94 ab bd
       -0.062471762 0.020873077 0.026152134 -0.08377875
000090 e7 23 c1 3d 36 6a 7c 3d 90 b8 1a 3d c6 bf cd 3d
       0.09430676 0.06162473 0.03777367 0.100463435
0000a0 9c 23 df 3c e2 e9 af 3d 39 5b 9c 3d 00 cb 96 3b
       0.02723866 0.085895315 0.07634587 0.004601836
0000b0 2c e1 4b 3a 00 21 6e 3b d4 7f 83 3d 94 78 54 3c
       0.00077773887 0.0036335588 0.06420866 0.012968201
0000c0 3c 1a 0f bc 75 b3 5c 3d b2 ba 18 bd 00 24 d2 3a
       -0.008734282 0.05388208 -0.03728742 0.0016032457
0000d0 fd b5 b2 3b ca a6 17 3e 43 ad be bd 16 98 83 3d
       0.0054538236 0.14809719 -0.09310391 0.064254925
0000e0 e0 9e 15 3e cd c1 a5 3c 5b c4 3f 3d 04 dc ec 3d
       0.14611387 0.020234013 0.04681812 0.11565402
0000f0 5e a4 13 3d 73 4a 03 bc df 24 64 3c b3 2a 62 bc
       0.036045425 -0.008013356 0.013924806 -0.013804126
000100 38 77 bb 3a 16 ed 4c 3d f3 b9 9a bc 28 e8 46 bd
       0.0014302498 0.05003079 -0.018887496 -0.048561245
000110 28 bf 7e 3d 5e 04 2a 3d 1f 8c 44 bd ba 83 05 3e
       0.06219402 0.04150807 -0.047985192 0.13038531
000120 4a 11 c7 3d b2 0d e2 ba b3 52 cc bb ad 1d 24 bd
       0.097200945 -0.0017246513 -0.0062354445 -0.040067364
000130 49 50 12 bd 8e 18 ec bc fa 7f bd 3d 63 d2 6e 3d
       -0.035721097 -0.028820302 0.09252925 0.05830611
000140 32 81 19 3d a6 18 5e 3d 95 b5 a2 bd 9c 12 b6 3d
       0.037476726 0.054222725 -0.0794479 0.08890268
000150 e4 fb da 3d b0 09 67 bd 38 83 04 3e 1b e4 ac 3d
       0.106925756 -0.056405723 0.12940681 0.08441945
000160 58 f8 d4 3d b9 66 f6 bc 48 e2 a2 3c 7d 8d b5 bd
       0.1039893 -0.030078279 0.01988329 -0.088648774
000170 76 ee b2 bd 57 4b 10 3e f1 41 91 3c 3d b0 07 3e
       -0.08736889 0.1409124 0.017731639 0.13250823
000180 88 3f c9 3d 57 07 10 3e 4a 80 89 3d 3e ce af 3d
       0.09826571 0.140653 0.06713922 0.085842595
000190 00 67 53 bc 35 ef 9e bd fd 0d 18 bd 27 ef 37 bc
       -0.012902975 -0.07760469 -0.037122715 -0.011226452
0001a0 a3 57 5d bd 27 60 51 3d e0 c7 0f 3d f3 2d 84 3c
       -0.054038655 0.05111709 0.035102725 0.016135192
0001b0 f3 e2 c5 3c 33 e8 b3 3d 6d 30 15 3d e2 98 b3 bd
       0.02415607 0.08784523 0.036423136 -0.087693945
0001c0 0f a9 94 bd f3 87 34 3d a7 47 5f 3c 2d c2 47 3d
       -0.07258808 0.044074964 0.013627923 0.048769165
0001d0 b0 89 cc bd ef 00 bd bd 73 2d 7b 3d db ff 82 3d
       -0.09987199 -0.09228694 0.06132264 0.06396457
0001e0 ea 48 b9 bd 67 7a 1b 3d ba ea 9f bd bd 18 9b 3d
       -0.090471104 0.03795853 -0.078084424 0.07573078
0001f0 50 87 00 3d ea 80 ca 3d 60 ee c9 bd f5 27 c5 bd
       0.031379044 0.0988787 -0.098599195 -0.09626762
000200 38 77 8a 3d 80 d3 b5 3d 27 f4 7a 3d 3b 28 88 3d
       0.067610204 0.08878231 0.061267998 0.06648298
000210 47 7f ac bd af 3c 94 3d 80 5c c1 bd ba 02 b7 3c
       -0.08422714 0.07238137 -0.09441471 0.022340167
000220 b0 26 86 bd f7 b0 22 bd 07 0e 91 3c ea 0b 21 bd
       -0.06550348 -0.039719548 0.017706884 -0.039318003
000230 c0 9d 81 bc 4b 1d c2 bd b7 19 c1 bd f7 a9 1e 3d
       -0.015822291 -0.094782434 -0.09428733 0.03873631
000240 f7 5f 2d bd 47 32 79 bd f3 9e 21 bd 23 70 a7 bd
       -0.042327847 -0.060838964 -0.039458226 -0.08175685
000250 98 b7 a3 bd e3 17 75 3d 0d 2d 50 3d 9a 3d 5a 3c
       -0.07994002 0.059837233 0.050824214 0.013320351
000260 7a bf 5f bd 3a 46 08 3d 00 36 93 3b 70 5d 92 bd
       -0.054625966 0.0332701 0.0044925213 -0.07146728
000270 93 48 b0 3c ba 7a ba 3d 4d 71 c9 bd ca a6 cb bd
       0.021518981 0.091054395 -0.098360635 -0.09943922
000280 80 eb 51 3c 0f 38 9a 3d c7 3c 79 bd 1a 56 b4 3c
       0.012812495 0.075302236 -0.060848977 0.022013713
000290 ad f8 8f 3d a0 92 fc 3c a0 48 b1 3c 93 55 cc 3d
       0.07029853 0.030831635 0.021641076 0.099772595
0002a0 ef 6b 85 3d c0 5e 66 bd 1a 9e 0d 3c da 40 51 3d
       0.06514727 -0.056242704 0.008643651 0.051087238
0002b0 75 9d b4 3d 23 c3 cb bd f3 cc 5d 3d 00 d7 ed bc
       0.08819095 -0.09949329 0.054150533 -0.029033184
0002c0 65 8b c8 bd 53 d7 b5 3c ea fd 5e bd 67 2e 68 3c
       -0.097922124 0.022197401 -0.05444137 0.014171219
0002d0 3d f7 84 bd 32 1e 9a bd 1a 05 0b bc 5d 98 09 bd
       -0.064924695 -0.075252905 -0.008485103 -0.03359257
0002e0 83 8f 6f 3d 80 42 0d 3c c0 db 9f 3d 40 85 99 3c
       0.058486473 0.008621812 0.07805586 0.018740296
0002f0 27 b6 03 bd ca b7 8a 3d 9a 0f b3 3b cd c1 99 3c
       -0.032156136 0.06773336 0.0054645063 0.01876917
000300 93 bc 03 bd 00 28 bc 39 9a 82 9d bc da 4a 0b bc
       -0.03216226 0.00035887957 -0.019227315 -0.008501733
000310 23 b8 9f bd 33 37 21 ba 3a fe a9 bd 33 3c b0 bc
       -0.07798793 -0.0006149888 -0.08300443 -0.02151308
000320 30 5c 87 3d 8f 72 9f bd 39 2e 9b bd 87 07 c8 bc
       0.0660938 -0.07785522 -0.07577176 -0.024417652
000330 be 83 12 bd 27 ae 8a 3c 30 3e d7 3c ed b4 4f 3d
       -0.03577017 0.016928745 0.02627477 0.050709654
000340 2f 15 8d bd 99 d3 7c bc 67 cc 6e 3d 53 f5 9f 3d
       -0.06888806 -0.015431308 0.058300402 0.07810464
000350 33 c9 7f bc a9 a6 87 bd 81 dc a6 3c 0d fe 46 3d
       -0.0156119345 -0.06623585 0.020368816 0.048582125
000360 c7 e5 7f bd 2d b0 6d bd e0 0a 35 3d 9a 97 e5 bb
       -0.062474992 -0.058029342 0.044199824 -0.0070065977
000370 0d 72 d2 bd 24 39 87 bd 33 1b 26 3d 93 18 2d bd
       -0.1027566 -0.066026956 0.040553283 -0.042259764
000380 e2 5b 8d 3d 0f e7 a1 3d fe 0c cb 3b 5a 8e 01 bc
       0.06902291 0.07905399 0.006196617 -0.007907474
000390 e8 3a 24 bd b3 b1 a5 bb 76 3a 21 3c 4b 57 ab bd
       -0.04009524 -0.005056584 0.009840598 -0.08366259
0003a0 ef 97 74 bc 84 80 bb bd dd 64 7b 3d 90 6c 82 bd
       -0.014928802 -0.09155372 0.061375488 -0.06368363
0003b0 b0 13 aa 3d db d6 0b bd 53 a6 6a bd f5 8b 22 3d
       0.08304536 -0.03414045 -0.057287525 0.039684255
0003c0 f9 86 d6 3b 76 75 79 3d e0 fe 2a 3d bb 4a c5 bd
       0.0065468517 0.060903035 0.041746974 -0.09633394
0003d0 bf 52 93 3d 47 44 9a bc 8f 4e 56 bd 8a d4 61 3d
       0.07193517 -0.018831385 -0.052321013 0.055134334
0003e0 1f 36 84 3d 46 f1 c4 bd 31 5f 8e bc e0 2e a8 3d
       0.06455635 -0.09616332 -0.017379375 0.08212066
0003f0 2e c1 f8 3c 43 5f c0 3d 90 5e 0c bd dd fe 81 bd
       0.030365553 0.0939317 -0.03426987 -0.063474394

nn_model.2.bias f4 [100]
000000 aa 69 16 3d cd 5c 7c b9 9e c2 9d bd f3 1a 4a 3d
       0.036721863 -0.00024067164 -0.07703136 0.049342107
000010 ad 02 9c bd 02 b9 d6 3c dd 6c 94 bd 65 07 16 bd
       -0.07617698 0.026211265 -0.072473265 -0.036628146
000020 57 85 29 bb a5 43 96 3c 49 cf cc bd cf 8b 6d 3d
       -0.002586683 0.018342802 -0.10000474 0.05799466
000030 bd e6 ae 3c e8 5f 5c bd 04 8e 27 3d 60 c6 58 bd
       0.021350259 -0.0538024 0.04090692 -0.05292356
000040 50 f2 b0 bd 9a 12 8a bc 5e 84 65 3d 33 95 6f 3b
       -0.086399674 -0.016854573 0.05603444 0.0036557436
000050 9b f9 90 bd fc 90 89 3d 9d 89 f1 3b ba 47 a0 bd
       -0.070788585 0.06717107 0.007371141 -0.07826181
000060 bd 34 07 3d 2f be a7 bd 76 89 6c 3d b4 04 8c 3d
       0.03300928 -0.081905715 0.05774828 0.068368345
000070 2a 5e 90 3d 35 cc b8 bd e3 96 66 3d 73 72 16 bc
       0.0704921 -0.090233244 0.05629624 -0.00918256
000080 67 75 b1 bc 0a b8 39 3d e8 5f b8 bd da f8 b9 bc
       -0.021662427 0.04534153 -0.09002668 -0.02270167
000090 ab 9a ba bd 0a 4e 10 bd 43 62 bb 3c 3d 61 2c 3d
       -0.09111532 -0.035230674 0.022874003 0.04208492
0000a0 c9 f3 aa 3d 58 fc 4a 3b 5a 83 95 bc b8 fa 56 3d
       0.083472796 0.0030973163 -0.01825111 0.052485198
0000b0 02 80 5b bd 82 e7 c2 bd ed bd 02 bd 5c ef 32 bd
       -0.053588875 -0.09516813 -0.03191941 -0.043685302
0000c0 ad a9 ab 3d 44 e8 d3 3c 1b 3f 8a 3c 3c 5e 8a 3d
       0.083819725 0.025867589 0.016875794 0.06756255
0000d0 c6 55 a4 bd 73 03 57 bd 40 d8 bd bd 6f 9f 69 bc
       -0.080241725 -0.052493524 -0.09269762 -0.014259203
0000e0 db 8d 90 bd 1a 43 8d bb e8 48 80 bd fc 36 6c 3d
       -0.07058307 -0.0043109776 -0.06263906 0.057669625
0000f0 6a bd ad bd 9a 21 41 bd 7a 34 74 3d 9e 87 a6 3d
       -0.084833935 -0.047151186 0.059620358 0.08131336
000100 c7 6e 85 bb 55 55 0e bd 87 25 d8 bd d9 77 d9 3d
       -0.0040720436 -0.034749348 -0.10554033 0.10618562
000110 cd 12 ff 3a 13 78 8b bc 8e 80 81 bc bf 42 ff bc
       0.0019460559 -0.01702503 -0.01580837 -0.031159757
000120 81 c2 35 3d f1 89 5d bd 8c 38 9b bc c3 6f 98 3d
       0.044374947 -0.05408663 -0.018947862 0.07443192
000130 33 1f b5 bc 62 63 ae 3d 98 40 82 3d 8c cf c3 bd
       -0.022109604 0.085150495 0.063599765 -0.09561071
000140 fe 3a 24 3d 8d fe 07 bc d3 87 9e bc c0 8b 3f bd
       0.04009532 -0.008300436 -0.019351875 -0.046764135
000150 e3 3e ac 3d 9a ef 70 3d 9a ca b7 3d ae 7a ed 3d
       0.08410432 0.05882225 0.0897419 0.11595665
000160 23 73 a0 3d 8f bd 2c bd 10 bf 43 3d 65 f7 9e bb
       0.078344606 -0.042172965 0.047789633 -0.004851269
000170 32 b8 f1 3d 8c e9 e2 3d 9f 55 a8 3d 6d 43 eb 3c
       0.118027106 0.11079702 0.08219456 0.028718675
000180 ca 05 90 bd 7d 54 24 bd f8 20 68 bc 9e 8d 95 bd
       -0.07032354 -0.040119637 -0.014168017 -0.07302402

nn_model.4.weight f4 [100, 100]
000000 98 55 1b 3e 17 c4 56 bd 8f 7f 0a bc 0d a9 e3 bc
       0.1516937 -0.0524331 -0.008453264 -0.02779057
000010 e4 92 09 3d 29 af 3a bd 33 75 58 3b f8 f8 ef 3d
       0.03358735 -0.045577202 0.003302884 0.11717409
000020 52 9a 60 3b dd a5 2d 3d 85 83 4e 3d 66 e5 da 3d
       0.003427167 0.042394508 0.050418396 0.106882855
000030 f2 7a 8a bd 5a f5 3e bc c0 a8 67 bd 58 f0 93 bd
       -0.06761731 -0.011655176 -0.056557417 -0.07223576
000040 f7 a4 6e bd 03 76 05 3d 6f c9 e7 3d b3 fd d6 3b
       -0.05826279 0.032583248 0.11317717 0.006561005
000050 40 80 0a 3c 39 ef 7c ba 21 6e 87 bd 45 07 eb 3d
       0.008453429 -0.0009648684 -0.06612802 0.11475996
000060 dd 58 22 3d d3 57 af bd 0d 9b f7 3c 15 33 e3 3d
       0.039635528 -0.08561673 0.030225301 0.110937275
000070 7d 34 74 3d 9e 3f 0c 3e 1e e2 cd 3d 7b ad a6 3d
       0.05962037 0.13696143 0.10052894 0.081385575
000080 73 ca aa bc 33 5b 99 3c b7 c0 0e 3d f2 c0 8a bd
       -0.020848488 0.018720245 0.034851756 -0.06775083
000090 3a 28 08 3d d3 5c 79 bd 96 96 95 3d a8 1a a7 3d
       0.033241488 -0.06087954 0.073041126 0.08159381
0000a0 3c a3 df 3d 14 fb da 3d 9c 43 09 3e 72 6a b0 bd
       0.10919806 0.106924206 0.13404697 -0.08614053
0000b0 2e c1 97 bd 28 6b ae bd 7f e0 86 3d b2 41 9c 3d
       -0.07409893 -0.08516532 0.06585788 0.07629718
0000c0 ce 20 ab 3d 1e dd 94 3d 1a d9 f5 3d c0 c8 20 bd
       0.083558664 0.07268737 0.120042995 -0.03925395
0000d0 cf 27 ae 3a 3f bb a8 bd 9e bb 92 bd 7e 37 7e bd
       0.001328701 -0.08238839 -0.071646914 -0.06206464
0000e0 6a a4 70 3d 93 a0 e3 bc 28 7d aa 3c c2 94 e0 3d
       0.058750547 -0.027786529 0.020811632 0.10965873
0000f0 60 48 59 3d 6e f5 a0 3d 99 ad 64 bd 0e 93 c5 3d
       0.053047538 0.07859312 -0.055829618 0.09647189
000100 04 1c a9 3d bc 51 63 bd 42 db 62 3c fb a5 c5 bd
       0.08257297 -0.05549787 0.01384622 -0.09650799
000110 4d 25 cd bc a0 9d b0 3c 9e b7 bd bd e0 e8 fc bc
       -0.0250422 0.021559536 -0.09263538 -0.030872762
000120 0e b0 43 3d 11 fe f9 3d fa fb de bc 4f a1 dc 3d
       0.04777532 0.122066624 -0.027219761 0.10772955
000130 13 bf a0 bd 5f 70 10 bd e0 24 a5 3d 6e 0a bc bc
       -0.078489445 -0.035263415 0.08063674 -0.022954192
000140 44 33 b1 3d 8a 34 76 bd 55 99 06 3d fa 3e b5 bc
       0.08652356 -0.0601087 0.032861073 -0.022124756
000150 66 41 1c 3d da 31 17 3d 5a d3 fe 3c a8 ae 09 3e
       0.038148306 0.036912777 0.03110664 0.13445532
000160 be 91 4e 3c ee f4 fb bc 62 78 98 3d 2b 0b 79 3c
       0.01260799 -0.03075644 0.07444836 0.015200417
000170 54 e7 a7 bd db fb 72 bd 7a c5 7c 3d 3c 41 a1 3d
       -0.08198419 -0.05932222 0.061711766 0.078737706
000180 f1 55 9a bc 7f ae 92 3d 72 cd 1c 3d 9b bd d2 3d
       -0.018839808 0.07162189 0.038281865 0.102900706
000190 ef 6c 13 3d 0a 96 42 3d cf d0 f7 bc df a0 af bd
       0.03599256 0.04750637 -0.030250935 -0.085756056
0001a0 48 5d 94 bc 43 a5 70 3d b0 22 4e bd bf 60 ad 3d
       -0.018110886 0.058751356 -0.05032605 0.084657185
0001b0 3f 28 16 3e 6d 93 69 3d 11 e6 96 3d 17 1e 28 bd
       0.1466379 0.05702536 0.073681004 -0.04104432
0001c0 f1 3c 27 3d 6f 98 8c 3c 0f 5a 1c 3d 87 51 99 bd
       0.040829603 0.01716253 0.038171824 -0.07486253
0001d0 93 4d 32 3d fa 94 24 3d 66 c8 0f 3e 73 e6 45 bc
       0.04353101 0.040181138 0.1404129 -0.012078869
0001e0 93 b3 31 bd 5a bb da 3d 07 86 78 bd 60 09 51 3d
       -0.043384146 0.10680266 -0.060674693 0.05103433
0001f0 63 48 7b bd ab bb 92 3d 0f c5 96 3d 0c 74 40 be
       -0.06134833 0.07164701 0.07361805 -0.18794268
000200 ce 73 bd bd 06 04 56 3d 54 20 f8 bd 07 5f bc 3d
       -0.092506036 0.05224993 -0.12115541 0.091978125
000210 43 82 2a 3d e0 b2 65 bd 58 18 ad 3d 21 3f da bc
       0.041628134 -0.05607879 0.08451909 -0.02664143
000220 87 bf 37 3d 3a a7 28 3d 97 e6 75 bc 4f 6b 30 bd
       0.04486039 0.041175105 -0.01500859 -0.043071087
000230 e6 77 95 bc 9f 37 d1 bd f6 20 cd 3d 21 51 8f bd
       -0.018245649 -0.10215687 0.100160524 -0.06997896
000240 f1 43 ae 3c 4b ff 98 3d 14 2a 17 bc 32 c4 41 be
       0.021272631 0.07470568 -0.009226341 -0.18922499
000250 85 06 3e 3d df 13 16 3e 9e 9f 16 3c 5d 7b 1d bd
       0.046392936 0.14656018 0.009193329 -0.038447727
000260 2a 15 bc 3d 7f 53 84 3d f6 9d 3d 3d 2a 5b 87 3d
       0.09183724 0.06461238 0.04629322 0.06609185
000270 30 65 98 3d 85 b2 bf 3d e1 df 99 bd 8f 01 a0 3d
       0.07441175 0.09360222 -0.07513405 0.07812797
000280 af ca 9a 3d ab eb e8 3d 1f 33 50 3d 79 00 9b 3d
       0.0755819 0.11373075 0.050830003 0.075684495
000290 b0 02 81 3d 66 46 80 3d 0e 69 0d 3e 57 88 89 bd
       0.06299341 0.062634274 0.13809606 -0.06715458
0002a0 30 e7 5a 3d b7 b8 a1 3d c0 22 be 3b c7 8a 00 3e
       0.053443134 0.0789656 0.0058024824 0.1255294
0002b0 42 8e f2 3d d3 e9 9e 3d 02 5d cd bc 67 f0 ad bc
       0.1184354 0.07759442 -0.025068764 -0.021232797
0002c0 30 31 22 3d 18 0f 02 bc 5e ac 21 be e9 39 4a bc
       0.03959769 -0.007938169 -0.15788409 -0.012342908
0002d0 6d e7 58 3d e0 fa ae bc 4e c2 84 bc c5 aa af 3d
       0.05295508 -0.02135986 -0.016205933 0.085774936
0002e0 74 e7 47 3c a0 20 26 3d dd 67 8e 3d a8 63 80 3d
       0.012201179 0.040558457 0.06953404 0.06269008
0002f0 63 73 26 3c ac 47 c7 3d e7 99 ee bb c2 22 2e be
       0.010159346 0.09730467 -0.00728153 -0.17005447
000300 c6 ca 2a be 4d 30 5e 3d 38 af 84 bd b0 8b 0f 3e
       -0.16678914 0.054245282 -0.06478733 0.1401813
000310 ca 83 99 3d 93 ff 9e bd 32 e8 17 3d c8 2d 0f 3e
       0.0749584 -0.07763591 0.037086673 0.13982308
000320 49 71 35 3d c7 6c 96 bc 0b df 6b bd 3d 04 57 bd
       0.04429749 -0.018362416 -0.057585757 -0.052494276
000330 33 cc 92 3c b4 8c 04 3d 1a 70 89 bd e4 96 78 3c
       0.017919635 0.032360747 -0.06710835 0.015172694
000340 65 49 31 3d bb 8b 94 3d 03 8e 54 3c 86 00 26 3d
       0.043282885 0.07253214 0.012973311 0.040527843
000350 c4 53 c7 bc 8e a7 1e 3d b8 7e 36 3e c0 1d 93 3c
       -0.024331935 0.03873401 0.17821777 0.017958522
000360 ef 3c 9c bd fa 61 13 3d 34 b9 8e bd 22 0d bf bd
       -0.0762881 0.03598211 -0.069689184 -0.09328677
000370 48 60 91 3d be a0 4a 3d 50 ad 70 3d cf 86 bb 3d
       0.07098442 0.049469702 0.058759034 0.09156572
000380 1d 84 1a bd 93 9d 01 3d 63 9b d6 bd 2c 9a f1 3d
       -0.03772365 0.031644415 -0.104788564 0.11796984
000390 59 a0 47 3d b4 9e d5 3c 67 0e 15 3e e7 0c 84 3c
       0.048736904 0.026076652 0.14556275 0.016119434
0003a0 03 17 4c bd bd 0e 35 3e 70 98 6f 3d c6 e6 97 3d
       -0.049826633 0.17681403 0.058494985 0.074170634
0003b0 4d 79 84 3b a7 a6 bd 3d 34 22 6b bd 8e 60 55 bd
       0.0040427805 0.09260302 -0.057405666 -0.052094035
0003c0 e4 db 4d 3e ef 1a 43 3e d4 3b 47 3d cd 3e a5 3d
       0.20103413 0.19053243 0.04864104 0.08068619
0003d0 0b 1e a6 bc 53 71 b8 bc 39 c5 a0 3d 8b 47 4e 3e
       -0.020277997 -0.022514975 0.07850117 0.20144479
0003e0 6b 42 8b bb 11 e3 2b bb d2 49 94 3d 7b 74 ea bb
       -0.004249861 -0.0026227871 0.072406426 -0.007154999
0003f0 bd 18 7c 3c 9a f4 3b 3d 8a e2 8a bd 2a 3c 8b 3d
       0.015386757 0.045887567 -0.0678149 0.06798585

nn_model.4.bias f4 [100]
000000 1e ac 11 bc 9c da 1f bd 80 f2 13 3e 3a 29 c4 3d
       -0.008891134 -0.03902684 0.14447975 0.09578176
000010 b7 7e c8 bd 63 70 bf 3d fe 88 d6 3d 77 50 c2 bd
       -0.09789794 0.09347608 0.10475348 -0.09488004
000020 59 62 98 3d 31 1e d8 bc 56 d7 5b bd 02 23 88 bd
       0.07440633 -0.026381584 -0.053672157 -0.06647302
000030 ef 26 c4 bd d8 3e ab bd f3 d8 eb 3d b1 39 3e bc
       -0.095777385 -0.08361596 0.11515989 -0.011610434
000040 67 77 78 bb bd 73 de ba d2 27 b4 3d c3 0b 3a bc
       -0.0037912966 -0.0016971749 0.087966576 -0.011355343
000050 79 81 67 3d 0b ba 0e bd e3 5b 53 3d db 7a e5 bc
       0.05651996 -0.034845393 0.051601302 -0.028012684
000060 9f 21 fd 3d 12 94 af 3c a6 9a 66 bd 07 07 5a 3d
       0.12359928 0.02143291 -0.056299828 0.053229358
000070 a4 d4 d3 3d 9a 87 b1 3b 2f fa 4c 3c 2e e8 30 3d
       0.10343292 0.0054177763 0.01251082 0.043190174
000080 9a 00 9f 3b 17 70 6c 3c f9 76 d6 3d 55 22 48 3d
       0.0048523666 0.014431021 0.10471911 0.048860867
000090 c0 7b 93 3c af 20 26 3d ef da 96 bb 56 e1 47 bd
       0.018003345 0.040558513 -0.0046037356 -0.04879888
0000a0 8c ed 78 3d 07 68 83 3d f3 45 20 3d 37 5c ba 3c
       0.060773417 0.06416326 0.03912921 0.02274905
0000b0 71 b5 4d 3d 24 3f 6d bd 5a d3 5b 3d db 11 6b 3c
       0.050221864 -0.057921544 0.053668357 0.014347519
0000c0 53 c4 25 bd 19 40 ac bd 40 a9 1e bc 6f f4 c8 3d
       -0.040470432 -0.08410663 -0.009683907 0.09812247
0000d0 c7 8a 7d bd 37 d1 56 3d cc 85 1d bd a0 81 99 bc
       -0.061899927 0.052445617 -0.038457677 -0.018738568
0000e0 c8 5c 9a 3d b7 4e 2c bd 78 7e ca 3d 62 5a a6 3d
       0.07537228 -0.042067256 0.09887403 0.08122708
0000f0 98 70 9e 3c e7 c6 27 bd ca dc 18 3c c6 6a bb 3d
       0.019340798 -0.040961172 0.009329984 0.09151225
000100 38 53 96 bd 87 66 f6 3d 81 4e 70 3d 38 ef 3c bd
       -0.073400915 0.12031274 0.058668617 -0.046126574
000110 8a 89 ef 3d c7 f3 f0 3b 7a 74 81 bc 12 5c a5 bd
       0.11696155 0.0073532793 -0.01580261 -0.08074202
000120 ed 00 9e 3d db 00 91 bd 6d 5b 86 bd 67 1a 4b 3a
       0.0771502 -0.07080241 -0.06560407 0.00077477697
000130 15 c4 92 3b 34 3d 77 bd ac 66 16 3d a7 75 db bc
       0.004478941 -0.060361102 0.03671901 -0.0267895
000140 ed 39 3b 3d 02 89 83 bc 04 f5 fc bc e7 7f c3 bd
       0.04570954 -0.016056541 -0.030878551 -0.0954588
000150 ca dc ce 3d ff f5 4d 3d 37 c6 f4 3d 90 c2 98 bd
       0.10100706 0.05028343 0.11951869 -0.07458985
000160 2d ee 1b 3b ba 6e dd bc 05 88 36 bd 29 2e 60 bc
       0.0023793087 -0.027030338 -0.044563312 -0.01368288
000170 e1 b1 11 3d 50 19 4c 3d bb 62 a3 bd 08 34 a6 bd
       0.03557003 0.049828827 -0.07977816 -0.08115393
000180 99 a3 df 3d 5a ab 9b 3d cc af 6b 3d 6e 05 07 3e
       0.10919876 0.07601042 0.0575407 0.13185665

allocation_head.0.weight f4 [4, 100]
000000 78 c2 88 3c 82 75 b8 3d 82 48 a8 bd 18 33 11 bd
       0.016694292 0.09006788 -0.08216955 -0.035449117
000010 62 15 cb bc ad ac db 3c bb c1 61 bc 3f 62 a2 3d
       -0.02479047 0.026815737 -0.013779099 0.07928895
000020 f4 26 7c bc 41 3c 88 3c d9 56 1d bd 28 6b 62 bd
       -0.0153901465 0.016630294 -0.038412903 -0.055277973
000030 c7 a7 c3 bd 61 f5 60 bd a4 68 5c bd ec 20 dd bc
       -0.09553485 -0.05492151 -0.05381073 -0.026993237
000040 e7 ed 21 3d d7 11 99 3d 9e 14 c1 bd 70 82 eb 3b
       0.039533522 0.07474106 -0.094277605 0.00718718
000050 54 60 af 3d 51 c8 cc 3d 1e 9b 21 bd f7 83 a3 3d
       0.08563295 0.09999145 -0.039454572 0.07984155
000060 54 7f 97 bd c9 e7 0e bd 6c 52 13 3e a5 fc bd bd
       -0.07397333 -0.034889016 0.1438691 -0.09276704
000070 d6 ed 70 bd 9a 64 cf bc 6f 97 1b bc 13 91 49 3d
       -0.058820568 -0.025316525 -0.009496554 0.04921062
000080 48 bf 84 bd 7c 95 bc bd a1 f9 b8 bd c7 b4 b3 bd
       -0.064817965 -0.092081994 -0.09031988 -0.08774715
000090 a8 1d d5 bd 51 e7 11 3e 0e 92 d7 3d 23 1d 52 3d
       -0.10406047 0.14248396 0.105259046 0.05129732
0000a0 02 32 eb bc 40 58 03 bd 54 af 28 3c 36 e1 06 be
       -0.028710369 -0.032066584 0.010295708 -0.13171849
0000b0 68 18 c9 bd 9d 25 b4 bd 39 0e 4f 3d 08 cf 86 3d
       -0.09819108 -0.08796237 0.050550673 0.06582457
0000c0 d3 a7 35 bd b5 07 82 3b b1 0f 93 3d d2 f0 a3 3d
       -0.044349503 0.003968204 0.07180727 0.08004917
0000d0 db ac f6 bd a5 29 c0 3b 2f 0a 73 3d ec 97 cd bd
       -0.12044688 0.0058643394 0.059335884 -0.100387424
0000e0 f5 5d 10 3d 93 4e 05 be 3d 38 ad bd e0 25 b9 bd
       0.035245854 -0.13018255 -0.08457992 -0.09040427
0000f0 3b 96 b3 3d 93 b9 24 3d 28 e7 e3 bd d4 05 b7 bb
       0.087688886 0.04021604 -0.11128074 -0.0055854116
000100 92 89 77 3d f2 da 70 bd 74 b9 d6 bc 5c 5e 77 3d
       0.06043393 -0.058802553 -0.026211478 0.060392722
000110 f6 0d 45 3d 82 48 cc 3d df d2 9d bd 27 13 d9 be
       0.048109017 0.09974767 -0.07706236 -0.42397425
000120 8d ef 67 3d da af a9 3d b7 cb a7 3d e8 b4 b4 3d
       0.056624938 0.08285494 0.081931524 0.08823568
000130 33 49 05 bd 2d 17 b2 bd ec c8 42 3d bd 1f 80 bd
       -0.03254051 -0.08695827 0.047554895 -0.062560536
000140 54 c8 16 be c9 b4 0c 3e ac b5 cf 3d b8 fe bf bd
       -0.14724857 0.13740839 0.10142073 -0.093747556
000150 a5 b9 55 bd 35 9a 5f bd 86 c7 94 bd 4a 7f 3b bd
       -0.052178998 -0.054590423 -0.072646186 -0.04577569
000160 98 a5 ab 3c 29 5c 21 be d0 06 ae 3d 64 d2 53 3d
       0.020952985 -0.15757813 0.08497393 0.051714316
000170 f2 c6 80 3d a0 94 92 3d 64 b1 b8 bd 40 05 79 bd
       0.06287946 0.07157254 -0.090182096 -0.060796022
000180 13 12 26 3c 96 83 8a ba 58 85 e8 bd 0c b6 a2 bd
       0.010136145 -0.001056778 -0.11353558 -0.07944879
000190 8f e9 09 3e ce 85 fa 3d 77 26 63 bd d7 bd ca bc
       0.13468002 0.122325525 -0.055456605 -0.024748726
0001a0 4f 9c e7 bd 33 97 eb ba c7 b9 95 bd 4f f9 9d bd
       -0.113091104 -0.0017974138 -0.07310825 -0.077135675
0001b0 87 ff d7 ba c3 48 ab 3b e0 19 65 39 c0 7b 9a 3d
       -0.0016479351 0.0052271797 0.00021848781 0.07543135
0001c0 f3 41 79 bd 68 97 21 3e 48 a8 59 3d 2c 64 cf bd
       -0.06085391 0.15780413 0.053139 -0.10126528
0001d0 d3 e2 cb bc f6 6b 26 3d b0 30 4d 3b dd dd 87 3d
       -0.024888432 0.040630303 0.0031309538 0.06634114
0001e0 31 14 47 3d 81 60 2e 3d 01 70 6c bd 6e 62 00 3d
       0.04860324 0.042572502 -0.057724003 0.03134387
0001f0 17 c3 12 be 2e d7 b1 bd 15 14 02 bd 8a 85 47 bd
       -0.14332233 -0.086836204 -0.031757433 -0.048711337
000200 58 b5 41 bd c8 db a7 bd 95 1c ef 3c 98 e7 31 3d
       -0.047292084 -0.08196217 0.029188434 0.043433756
000210 92 6b 85 bd b1 e6 22 bd 60 a2 95 3d 4d 39 8f bb
       -0.06514658 -0.039770786 0.07306361 -0.0043708445
000220 8a ad 13 bd 29 b2 a5 3b ae 84 f5 3c 98 08 8d 3d
       -0.03605417 0.0050566387 0.029970493 0.06886405
000230 db fb d1 3d fc bc a8 3d 86 07 b5 3d 52 3e 23 bd
       0.10253116 0.08239171 0.088393256 -0.039854355
000240 5f e9 f5 bd 59 38 d9 bd 52 de 5e 3d cf 08 9e bc
       -0.12007403 -0.106064506 0.05441124 -0.01929131
000250 17 97 4b bd 2a be 8e bd 65 c2 ae bd be 62 d7 bd
       -0.049704637 -0.06969865 -0.085331716 -0.105168805
000260 04 b4 0f be b4 46 62 3d bc 9b 80 3d 1c f5 0f be
       -0.14033514 0.05524321 0.06279704 -0.14058346
000270 ff f5 9c 3d 15 5d 01 be 0a 77 dd bc 0d 34 a1 bd
       0.076641075 -0.12633164 -0.027034301 -0.07871256
000280 ad 21 89 3c 0d d8 a0 bc 77 7a f2 bd 15 38 01 be
       0.01673969 -0.019634271 -0.118397646 -0.1261905
000290 9a a0 2f bc 19 88 21 bd 78 3a a5 bd a8 aa c5 3d
       -0.010719443 -0.039436433 -0.08067793 0.09651691
0002a0 28 ba dd bd 76 a4 f2 3b e8 1a b4 3d 98 9f b5 be
       -0.10826522 0.007404859 0.087941945 -0.35473323
0002b0 0d 59 f0 3d 93 56 14 3d 15 43 c3 bd 90 93 81 3d
       0.11735735 0.036215376 -0.09534279 0.063269734
0002c0 3b d7 79 bd c6 cc 47 bd d4 69 01 3e 77 7f a5 bd
       -0.060996275 -0.04877927 0.12638026 -0.080809526
0002d0 18 27 e7 bc 83 eb db 3c 9c ad c9 3d 93 ee 0a 3d
       -0.028216884 0.0268457 0.098475665 0.03391893
0002e0 7d 54 36 bc 4f 7a bd 3b 67 1d 91 bd 40 48 ac bc
       -0.011128542 0.0057824026 -0.07085686 -0.021030545
0002f0 18 8c cb bd d3 37 70 3a f8 2d f9 3d 99 39 fe 3d
       -0.0993883 0.0009163592 0.12166971 0.1241333
000300 2b b0 a2 bd 67 26 88 3d ab 9c 7c bd fa 78 61 bd
       -0.079437576 0.0664795 -0.061672848 -0.055047013
000310 29 a8 c2 bd c7 7e d8 3d 36 56 d3 3a 02 44 97 bc
       -0.0950473 0.10571056 0.0016123715 -0.018465046
000320 80 dc 58 bc a9 b1 e5 3c c4 16 9b bd e5 b7 da bd
       -0.013236165 0.028038817 -0.075727016 -0.10679606
000330 3e 07 93 bd ab 58 8f 3d 85 d3 c5 bc 1a bf ac 3d
       -0.07179116 0.06999334 -0.024148712 0.08434887
000340 98 cd 2e 3d 6c 44 b8 3c 51 07 f4 3b c5 de 81 3c
       0.04267654 0.022493564 0.0074471612 0.015853295
000350 67 90 4d 3c 9d d7 0b bd 94 bc 42 3c d8 ff 31 3d
       0.012546635 -0.03414117 0.011885781 0.043456882
000360 13 32 a0 bd f0 86 89 bd db 9c db 3d b1 0d 07 be
       -0.07822051 -0.067151904 0.10723277 -0.13188817
000370 ff 63 67 bd 88 e0 a7 3d d9 45 61 3d 6f ce 0e bb
       -0.056491848 0.08197123 0.054998253 -0.0021790524
000380 77 fa eb bc a5 93 c2 3d e4 13 ff bd a7 8a e8 bc
       -0.028805954 0.09500817 -0.12454966 -0.028386427
000390 73 5b 1a bd 5a a0 72 bc 55 91 e8 bc a6 15 f5 3d
       -0.03768487 -0.014808739 -0.028389612 0.1196702
0003a0 33 89 4c 3c 76 df 0a 3e 18 2c a7 3d 36 94 8d bd
       0.012483883 0.13561806 0.08162707 -0.069130346
0003b0 63 6b b9 3d 52 44 02 be 02 fc d2 bd f3 c2 d9 3c
       0.090536855 -0.12721375 -0.10301973 0.026582217
0003c0 68 31 89 3d 99 a4 64 3d b6 75 d1 bc ba bb 1d 3d
       0.066988766 0.055821035 -0.025568824 0.038509108
0003d0 b2 8c 9e 3d f1 fc 76 bd 40 c1 ad 3d 71 15 b8 bd
       0.07741679 -0.060299817 0.08484125 -0.089884646
0003e0 67 a6 b4 3a 0c 58 c9 bc 45 e2 77 bd 01 74 05 3d
       0.0013782502 -0.024578117 -0.06051852 0.032581333
0003f0 9c a7 78 3e 47 d7 b0 bc f1 95 53 bd 61 37 94 3b
       0.24282688 -0.021587027 -0.051656667 0.0045232032

allocation_head.0.bias f4 [4]
000000 06 ff 41 3d 3c 04 cc bb 8e e5 fa bc 1f 32 d8 3d
       0.04736235 -0.0062260907 -0.030627038 0.10556435

payment_head.0.weight f4 [1, 100]
000000 6b e5 50 3d 74 fa 17 be 19 fa 85 3e e6 cb 29 3e
       0.05100004 -0.14841634 0.26167372 0.16581687
000010 24 45 b4 bd 2d 42 66 3d 87 db 90 bd 60 61 80 bc
       -0.0880225 0.056215454 -0.070731215 -0.015671432
000020 c6 cd 29 3e 9b 94 59 3c 9d 8b 0b bd a9 a0 5d 3e
       0.16582403 0.013280059 -0.034068692 0.21643318
000030 2d 5e de bc 98 c3 4a bd 0d 0e 12 3e 22 a2 54 3e
       -0.027144516 -0.04950294 0.14263172 0.20764974
000040 e7 70 af 3b e6 eb 14 be b0 81 1f 3e 8f b1 92 3d
       0.005354035 -0.14543113 0.15576816 0.07162773
000050 2a b9 2b 3e ba a2 02 be ac a3 df 3d c4 f9 ce bd
       0.16769853 -0.12757388 0.1091989 -0.10106233
000060 9a f9 36 3e 0b 6d 54 3e 7c 40 3b bd 63 42 18 3d
       0.17868653 0.20744722 -0.045715794 0.037172686
000070 02 fd 51 3e 80 eb d6 3b a0 30 0b be 29 42 b5 bd
       0.20506671 0.0065588355 -0.13592768 -0.0885051
000080 47 e2 b2 3c a8 37 a7 3c 52 54 36 3e 35 07 c6 bd
       0.021836413 0.020412281 0.17805603 -0.096693434
000090 60 77 a4 bd c4 29 39 be 2c 58 95 bd 6d 6c 7f 3d
       -0.080305815 -0.18082339 -0.07292208 0.062359262
0000a0 3d 29 fd bd 65 05 87 3d 3d 21 0a bd 72 02 7b 3e
       -0.12361381 0.06592826 -0.033723105 0.24512652
0000b0 f0 c7 2f 3e e3 8c 78 3e f2 17 1d 3e 7d 22 f6 3d
       0.17166114 0.24272494 0.15341166 0.12018297
0000c0 00 92 cb 3d c8 44 30 3d aa ee 97 bd cc ed 2b 3e
       0.09939957 0.043034345 -0.074185684 0.16789931
0000d0 5f 77 e3 bd a3 16 87 3d be 9a 9d bd 23 e3 4f 3d
       -0.111067526 0.065961145 -0.0769553 0.050753724
0000e0 62 03 2d be 9b da e1 3c 8e 3d 1f 3e 77 e1 ab bd
       -0.16895822 0.02757006 0.15550825 -0.083926134
0000f0 46 6e a3 3c 47 e0 5b 3d 42 06 26 3e e2 5e 07 3e
       0.019950043 0.053680684 0.16213325 0.13219789
000100 ba aa 9d bd ca 26 3a bc 9a f9 9e 3d 0c fe 07 3e
       -0.07698579 -0.011361787 0.077624515 0.13280505
000110 b4 95 25 3e 47 1f 1a bd cd 9c 0f 3d c9 d7 d3 bd
       0.16170388 -0.037627485 0.035061646 -0.10343892
000120 9c 0f 0d be 63 1f 3f 3d 8c 6c 58 bd 8a 0e 45 3d
       -0.13775486 0.046660792 -0.052837893 0.04810957
000130 27 d2 ce bc a5 68 3b bd d5 00 15 be f7 be 55 3d
       -0.025246693 -0.045754094 -0.14551099 0.05218407
000140 17 72 8d 3e cd e1 e7 3d 44 62 16 3d 48 0e 4a 3d
       0.27626106 0.11322365 0.036714807 0.049330026
000150 8b 23 a6 3d a3 35 af 3d 76 3f de 3d 8d be 59 3c
       0.08112248 0.08555152 0.10851948 0.01329006
000160 d0 98 1d 3d 83 a5 93 3e 8f 27 0b 3e 96 cd 1e bd
       0.03847581 0.28837213 0.13589309 -0.03877028
000170 08 ef 76 bd 83 97 da bd 99 6a a3 3d 11 09 b8 3d
       -0.06028655 -0.1067343 0.07979316 0.08986104
000180 26 d8 2b 3d fb bf 7f 3e c8 98 44 3e 06 a0 27 3e
       0.041954182 0.24975578 0.19198906 0.16369638
