result/1x2_sparsemax_in_linsigpmt_scratch_99_checkpoint.pt (torch, 88519 bytes, 9 tensors)

nn_model.0.weight f4 [100, 2]
000000 fc 4e 9c be cc f2 b4 3e 8a c8 a3 3e 05 10 87 be
       -0.3052901 0.3534149 0.31988937 -0.2637941
000010 21 00 38 3e e7 68 7f be 33 ec d3 3e 27 9e 1b 3e
       0.17968799 -0.24942361 0.41391143 0.15197049
000020 11 80 67 be 18 1c 26 3e 19 e6 a4 3e 0a cb 63 be
       -0.22607447 0.16221654 0.322068 -0.22245422
000030 61 04 25 3d a4 ac b4 3e 2e 16 90 bd 7e 5c 5c 3e
       0.04028738 0.35287964 -0.070354804 0.21519658
000040 55 a3 2e be f1 c9 7d 3e 4a 27 d6 be 86 2b aa be
       -0.17054494 0.24784066 -0.4182685 -0.3323633
000050 47 08 4c be b3 95 25 3f e3 ce cb bd 4f 97 bc bb
       -0.19925033 0.6468155 -0.0995157 -0.005755342
000060 67 68 f0 be 70 3f 30 3f 37 6d 25 3f 1c a3 03 bf
       -0.46954653 0.688468 0.64619774 -0.5142076
000070 9f 41 bb be f3 b5 a3 be c0 35 91 bd e6 b7 71 be
       -0.36573502 -0.31974754 -0.0709033 -0.23605308
000080 89 f8 ec be 6a da 81 be 7e 58 f7 3d 2d cd c2 be
       -0.46283367 -0.2536195 0.120774254 -0.38047162
000090 61 71 20 3e dd 0a 26 be 40 6e af be 97 f4 c6 3d
       0.1566825 -0.16215082 -0.34263802 0.097146206
0000a0 dd c1 fb 3e d1 09 28 bf 40 d6 ea bc e5 a9 8f be
       0.49171343 -0.6563998 -0.028666615 -0.28059307
0000b0 78 bb 5f 3f e4 5e dd be a5 11 08 bf 67 32 38 3f
       0.8739543 -0.43236458 -0.53151923 0.7195191
0000c0 e8 0e e5 be 91 d2 0a 3e 1a f8 79 bd 2e 88 18 be
       -0.44737935 0.13556887 -0.061027624 -0.14895698
0000d0 d3 12 5e be 47 38 ce 3e 4f 6f 0a 3d 39 3e 30 bf
       -0.21686868 0.4027731 0.03379756 -0.68844944
0000e0 96 25 34 be 05 41 77 be 0d 2f b6 3e 95 49 ea be
       -0.17592463 -0.24145897 0.35582772 -0.45759264
0000f0 b9 e9 34 3f ff b6 1f be b7 8d 80 be 24 9f 11 3f
       0.7066913 -0.15597151 -0.2510812 0.56883454
000100 b5 61 28 3e a5 f9 00 3f fc 54 ef 3e ac d2 81 be
       0.16443522 0.5038093 0.46744525 -0.25356042
000110 e2 33 f0 be 87 7e 57 bd 5e 65 17 3f 9c 0f 89 3c
       -0.46914583 -0.0526109 0.5913905 0.016731076
000120 1b 01 e4 be c8 80 c6 3e f2 e4 3c 3f 13 d2 34 be
       -0.44532093 0.38770127 0.7378684 -0.17658262
000130 66 e3 15 bf 02 32 24 bf 8a 17 3d 3e fa b4 3d bd
       -0.5855011 -0.64138806 0.1846601 -0.04631517
000140 ec a6 df be 44 e7 bb 3d 90 f9 ac 3e 20 a6 16 3f
       -0.4368204 0.0917497 0.3378415 0.58847237
000150 69 d9 f4 3e d8 44 72 be ed 9d 1f bf c1 92 23 bf
       0.4782212 -0.23659074 -0.6235035 -0.63895804
000160 c4 cc 39 3f 51 b2 bc 3e b9 d0 9d 3e 2a 9f 1c bf
       0.7257807 0.36854795 0.30823305 -0.61180365
000170 6f e8 34 3f d7 2c 32 3f 16 48 19 3f 8e 87 16 bf
       0.70667166 0.6959967 0.5987562 -0.5880059
000180 b0 27 65 be eb 66 d6 be cd 09 0c 3f 99 27 da be
       -0.22378421 -0.41875395 0.54702455 -0.42608336
000190 15 c5 af be ce d3 c3 3e f0 79 a7 be e3 4f b2 be
       -0.3433005 0.38247532 -0.32710218 -0.34826574
0001a0 7d 6d de bd 9f fa dd bd 04 4f 07 bf 07 65 45 3f
       -0.10860727 -0.10838818 -0.52854943 0.7710728
0001b0 ff b3 9f be a6 6b 80 3e 69 84 1e 3f 86 fc a2 3e
       -0.31192014 0.2508213 0.6192079 0.31833285
0001c0 16 a0 16 3e de a8 1e 3f 84 ab c2 3d e5 7f a7 be
       0.14709505 0.6197642 0.0950537 -0.32714763
0001d0 7f 27 3f 3f 33 94 65 3e 58 45 af be 59 ec 05 be
       0.7466964 0.22419815 -0.34232593 -0.1307844
0001e0 9b a5 fd be a4 a4 49 3f 22 28 ef bd ee 00 25 bf
       -0.4954041 0.78766847 -0.116775766 -0.64454544
0001f0 e7 3c a1 bc e8 88 eb 3e 98 1d 3c 3e da f4 64 3e
       -0.01968236 0.4600289 0.18370664 0.22359028
000200 be ac ac 3b b8 c7 cd 3e 86 ad ea bd 18 12 5e be
       0.005269616 0.40191436 -0.11458878 -0.2168659
000210 47 33 29 bf 59 5e 08 bf ff 19 81 3e 11 c2 db be
       -0.6609387 -0.53268963 0.25215146 -0.42921498
000220 1a 7f 05 3e 2c 9f 86 3e b9 d7 05 3c 8b bd fe be
       0.13036767 0.26293314 0.008169108 -0.49753985
000230 bf 84 2b 3f 3e 3b a1 3b 7f e6 07 3f 1b e5 21 bf
       0.6699943 0.0049203923 0.53086084 -0.6324021
000240 fb 2c 2e be 10 f0 c4 3e 7d 83 93 be f4 ce 18 3f
       -0.17009346 0.38464403 -0.28811255 0.59690785
000250 a6 23 f9 be cf 03 18 bf 0b 40 a3 be 45 18 ea 3d
       -0.4866001 -0.5938081 -0.31884798 0.1143041
000260 64 d9 20 3f 01 52 a3 be 84 ab 96 3e f6 99 69 be
       0.6283171 -0.31898502 0.2942773 -0.22812638
000270 de 35 c1 be bd bd d9 3e 95 49 0c bf 36 d0 99 3d
       -0.3773641 0.4252757 -0.5479978 0.07510416
000280 91 5c fd 3e 79 ab 9d be 23 ec 05 3f 80 9d b7 be
       0.49484685 -0.30794886 0.5231344 -0.3586235
000290 b6 b6 11 3f 02 1b 2f bf dd cd a0 bd 5b e2 ea bd
       0.5691942 -0.68400586 -0.07851765 -0.11468955
0002a0 d5 60 92 3e b4 cc 93 3e 96 f3 fe 3e da 00 d3 be
       0.28589502 0.28867114 0.49795216 -0.41211587
0002b0 b8 62 59 3d 05 ca 02 3f 3d 5a 53 be fb 7e 15 3f
       0.05307266 0.5108951 -0.20639892 0.5839688
0002c0 bc dc 84 be a5 41 a9 bd 19 65 a2 3b 02 ee 91 3e
       -0.25949657 -0.08264474 0.0049558994 0.28501898
0002d0 17 88 fd 3e 85 55 3d be 94 f8 15 bf 29 63 b3 3e
       0.4951789 -0.18489654 -0.58582425 0.3503659
0002e0 77 8b 85 3e 5e 25 79 3e ba f7 d9 be d0 69 0a 3f
       0.26082966 0.2433066 -0.42571813 0.5406771
0002f0 e7 46 39 3f f3 2a 0f 3e 06 24 34 bf e3 c5 85 3e
       0.72373813 0.13981228 -0.7036747 0.26127538
000300 8e 37 06 bf f7 71 26 3e 61 96 0b 3d a2 d7 c2 be
       -0.5242852 0.16254412 0.03407896 -0.3805514
000310 da 1e 7c 3e dc e8 21 bf 85 9f 59 3e 42 ee 37 bf
       0.24621144 -0.6324594 0.21252258 -0.7184793

nn_model.0.bias f4 [100]
000000 45 4c 81 bd 95 4b 2c be ff 6c 25 3f ad 60 10 bf
       -0.063133754 -0.16825707 0.6461944 -0.56397516
000010 c5 87 ed 3e df 58 9e be c9 32 c9 be af a1 1d bf
       0.46392646 -0.30927178 -0.39296558 -0.61574835
000020 ac 16 26 bf 4a 57 4a 3f 69 e2 eb be da f5 1b 3e
       -0.64878345 0.7903944 -0.46071175 0.15230504
000030 58 51 47 3e 16 69 0c 3f fb 6a 3c 3f df 8e 1b 3f
       0.19464624 0.5484785 0.7360074 0.6076488
000040 3a 1d 06 bf 37 12 01 be 5e 3b d6 be f7 d9 ce be
       -0.52388346 -0.12604605 -0.4184217 -0.4040067
000050 fd 87 5f 3e 74 c1 33 3f 3e 6d 11 bf 88 cf 0a 3f
       0.21829219 0.7021706 -0.56807315 0.5422292
000060 7b b4 bb be 19 08 0d be ed 6d 0f 3f c9 c3 23 be
       -0.36661133 -0.1377262 0.5602711 -0.15992655
000070 7e 2a 9f 3e aa 13 fd be eb 0c 0f 3f 64 af ef bd
       0.31087106 -0.49429065 0.55879086 -0.11703375
000080 ed d4 2a bf 18 16 1d 3e 38 b5 00 bf 7d 65 1b bf
       -0.6673115 0.1534046 -0.5027652 -0.60701734
000090 a2 e6 32 3e 4b 5f 0a 3f fe e6 4c be 28 65 a3 3e
       0.17470792 0.54051656 -0.20009992 0.31913114
0000a0 4f 65 26 3f 7c 89 e8 3e 7b 79 f4 be 1b bf 9e bd
       0.64998335 0.45417392 -0.47748932 -0.07751294
0000b0 7c ab 88 be d2 8f 11 bf c3 6f 09 bd c8 0c 19 3f
       -0.26693332 -0.5686008 -0.03355385 0.5978513
0000c0 0e cd 31 3f 10 fc 79 be dd 78 8b 3e 00 bc 9c be
       0.69453514 -0.2441256 0.2724065 -0.30612183
0000d0 e4 3b 09 3f 59 38 9b be bd 7d fb be 46 97 de 3d
       0.5360701 -0.30316427 -0.49119368 0.10868697
0000e0 84 0e d2 3e 9c 34 23 bf 83 94 1c 3f 62 60 ef 3e
       0.410267 -0.6375215 0.6116411 0.46753222
0000f0 93 05 df be c0 f8 1b be 76 0e 18 3f 62 e2 0a bf
       -0.4355894 -0.1523161 0.59397066 -0.5425168
000100 ac a1 aa bd 2a 8d b7 3e 9d 96 1e bf 53 60 e5 3e
       -0.08331618 0.35849887 -0.6194857 0.44800052
000110 3e 3a be 3e 76 f3 03 3f cd f0 2c bf 5e 71 3f 3f
       0.3715381 0.51543367 -0.6755493 0.7478236
000120 43 9a d6 be e1 f5 34 3f f7 b8 2d bf 65 48 21 bf
       -0.41914567 0.7068768 -0.6786036 -0.6300109
000130 8f 66 e4 3e 73 eb d5 bd 06 1f 88 bd 61 7b c8 be
       0.44609496 -0.10445299 -0.06646542 -0.3915663
000140 1a 9c fe be 05 b3 b7 be 4a 57 30 bf 0a 7a 72 3e
       -0.4972847 -0.3587877 -0.6888319 0.23679367
000150 75 f6 e9 3d d1 28 14 3e 5f d0 5c 3e fe ae 31 3f
       0.11423961 0.14468695 0.21563862 0.6940764
000160 03 3a ba 3e e2 cb 98 be 29 44 9e be 65 a2 e7 be
       0.36372384 -0.2984305 -0.30911377 -0.45241085
000170 72 f7 00 bf 91 e9 5c be f6 c7 c3 bd f7 b5 d6 3e
       -0.5037757 -0.21573474 -0.09559624 0.41935703
000180 a8 bf 9a be 34 0b 19 3f 0d 09 fe be d3 9f f6 3d
       -0.30224347 0.5978272 -0.4961628 0.12042203

nn_model.2.weight f4 [100, 100]
000000 3c 9d 3f 3e ff 1c 28 3e 38 bf fd bc 61 ae 46 3e
       0.18712324 0.16417311 -0.03097497 0.19402458
000010 bb c7 14 3d 8d ea 91 3d 7f 08 86 bd 33 e2 dd 3c
       0.03632329 0.07124815 -0.06544589 0.0270854
000020 2a 69 8e bd 4c cf f9 3c 6f d6 22 3d ca 65 d7 bc
       -0.06953652 0.030494355 0.03975528 -0.026293654
000030 0d 86 c8 3d d1 18 ce 3c 73 72 5e 3d 03 6f f6 3d
       0.09791193 0.025158318 0.054308366 0.120328926
000040 4d 67 fa bc 99 a4 77 3d ad 50 ea bc 73 53 6f bc
       -0.030566836 0.060459707 -0.028602922 -0.014607298
000050 20 b8 6e bc 41 a7 b1 3c e9 81 06 3d 42 3d 49 3d
       -0.014570266 0.021686198 0.032838736 0.049130686
000060 33 f1 76 3b 15 d2 81 3d 2b e2 57 3c 8d 4c 24 3c
       0.0037680387 0.06338898 0.013176481 0.010028017
000070 3a d9 47 3e b2 82 ab bd d9 bf 9f 3d b1 6b b1 3c
       0.19516459 -0.083745375 0.07800264 0.021657797
000080 e6 41 cf bc 2c 32 c7 3a 00 3d d6 3c 1e d3 21 bd
       -0.025299978 0.0015197448 0.026152134 -0.039507978
000090 12 ce 17 3e a5 40 2e 3d 90 b8 1a 3d 74 6e 9a 3d
       0.14824703 0.04254212 0.03777367 0.075405985
0000a0 74 06 f7 ba c8 b9 8e 3d fc c3 e4 3d 00 cb 96 3b
       -0.0018846528 0.06969029 0.111701936 0.004601836
0000b0 8d d3 da 3b 00 21 6e 3b 47 4a 68 3d ac 3b 54 bc
       0.006678051 0.0036335588 0.05671146 -0.01295368
0000c0 cf d7 0b bd b9 1b f0 3d 89 0d 08 be 00 24 d2 3a
       -0.034141358 0.11724038 -0.13286413 0.0016032457
0000d0 a1 46 ba bc ca 27 27 3e 43 ad be bd 3d ef 61 3d
       -0.022738757 0.16323772 -0.09310391 0.055159796
0000e0 06 8b 04 3e cd c1 a5 3c 9c 06 e4 3c fd e5 b9 3d
       0.12943658 0.020234013 0.027835183 0.0907707
0000f0 00 0d 1b 3d 73 4a 03 bc 23 79 2a bc b3 2a 62 bc
       0.037854195 -0.008013356 -0.010404858 -0.013804126
000100 12 69 4b 3d 84 92 6c 3c f3 b9 9a bc 98 d7 9c bd
       0.04966075 0.014439229 -0.018887496 -0.07658309
000110 90 75 27 3d d2 79 2c 3d ba 7d 43 3e 98 ba d4 3d
       0.0408836 0.042108364 0.1909093 0.103871524
000120 4a 11 c7 3d 85 b9 d8 bc b3 52 cc bb ad 1d 24 bd
       0.097200945 -0.02645565 -0.0062354445 -0.040067364
000130 ba 8e 69 bd 15 d5 c3 3d 21 d7 cb 3d 63 d2 6e 3d
       -0.05702088 0.095621265 0.09953142 0.05830611
000140 2c 67 82 3c 9b 5b a1 3d 95 b5 a2 bd 03 8e 96 ba
       0.015918337 0.078788005 -0.0794479 -0.0011486415
000150 2a c1 c5 3d e5 9e 0c be 2f 61 eb 3d be 10 75 3d
       0.09655984 -0.13732488 0.11493146 0.05983042
000160 7e ba 90 3d 12 11 f6 bc 46 8b 20 3e 7d 8d b5 bd
       0.070668206 -0.030037437 0.15678129 -0.088648774
000170 6f 44 b4 bd 1b 80 40 3e bb 66 97 3c ee fd e0 3d
       -0.08802115 0.18798868 0.018481603 0.10985933
000180 88 3f c9 3d e3 40 e7 3d 4a 80 89 3d 96 b2 59 3e
       0.09826571 0.11291673 0.06713922 0.21259531
000190 00 67 53 bc 35 ef 9e bd fd 0d 18 bd 27 ef 37 bc
       -0.012902975 -0.07760469 -0.037122715 -0.011226452
0001a0 a3 57 5d bd 27 60 51 3d e0 c7 0f 3d f3 2d 84 3c
       -0.054038655 0.05111709 0.035102725 0.016135192
0001b0 f3 e2 c5 3c 33 e8 b3 3d 6d 30 15 3d e2 98 b3 bd
       0.02415607 0.08784523 0.036423136 -0.087693945
0001c0 0f a9 94 bd f3 87 34 3d a7 47 5f 3c 2d c2 47 3d
       -0.07258808 0.044074964 0.013627923 0.048769165
0001d0 b0 89 cc bd ef 00 bd bd 73 2d 7b 3d db ff 82 3d
       -0.09987199 -0.09228694 0.06132264 0.06396457
0001e0 ea 48 b9 bd 67 7a 1b 3d ba ea 9f bd bd 18 9b 3d
       -0.090471104 0.03795853 -0.078084424 0.07573078
0001f0 50 87 00 3d ea 80 ca 3d 60 ee c9 bd f5 27 c5 bd
       0.031379044 0.0988787 -0.098599195 -0.09626762
000200 38 77 8a 3d 80 d3 b5 3d 27 f4 7a 3d 3b 28 88 3d
       0.067610204 0.08878231 0.061267998 0.06648298
000210 47 7f ac bd af 3c 94 3d 80 5c c1 bd ba 02 b7 3c
       -0.08422714 0.07238137 -0.09441471 0.022340167
000220 b0 26 86 bd f7 b0 22 bd 07 0e 91 3c ea 0b 21 bd
       -0.06550348 -0.039719548 0.017706884 -0.039318003
000230 c0 9d 81 bc 4b 1d c2 bd b7 19 c1 bd f7 a9 1e 3d
       -0.015822291 -0.094782434 -0.09428733 0.03873631
000240 f7 5f 2d bd 47 32 79 bd f3 9e 21 bd 23 70 a7 bd
       -0.042327847 -0.060838964 -0.039458226 -0.08175685
000250 98 b7 a3 bd e3 17 75 3d 0d 2d 50 3d 9a 3d 5a 3c
       -0.07994002 0.059837233 0.050824214 0.013320351
000260 7a bf 5f bd 3a 46 08 3d 00 36 93 3b 70 5d 92 bd
       -0.054625966 0.0332701 0.0044925213 -0.07146728
000270 93 48 b0 3c ba 7a ba 3d 4d 71 c9 bd ca a6 cb bd
       0.021518981 0.091054395 -0.098360635 -0.09943922
000280 80 eb 51 3c 0f 38 9a 3d c7 3c 79 bd 1a 56 b4 3c
       0.012812495 0.075302236 -0.060848977 0.022013713
000290 ad f8 8f 3d a0 92 fc 3c a0 48 b1 3c 93 55 cc 3d
       0.07029853 0.030831635 0.021641076 0.099772595
0002a0 ef 6b 85 3d c0 5e 66 bd 1a 9e 0d 3c da 40 51 3d
       0.06514727 -0.056242704 0.008643651 0.051087238
0002b0 75 9d b4 3d 23 c3 cb bd f3 cc 5d 3d 00 d7 ed bc
       0.08819095 -0.09949329 0.054150533 -0.029033184
0002c0 65 8b c8 bd 53 d7 b5 3c ea fd 5e bd 67 2e 68 3c
       -0.097922124 0.022197401 -0.05444137 0.014171219
0002d0 3d f7 84 bd 32 1e 9a bd 1a 05 0b bc 5d 98 09 bd
       -0.064924695 -0.075252905 -0.008485103 -0.03359257
0002e0 83 8f 6f 3d 80 42 0d 3c c0 db 9f 3d 40 85 99 3c
       0.058486473 0.008621812 0.07805586 0.018740296
0002f0 27 b6 03 bd ca b7 8a 3d 9a 0f b3 3b cd c1 99 3c
       -0.032156136 0.06773336 0.0054645063 0.01876917
000300 93 bc 03 bd 00 28 bc 39 9a 82 9d bc da 4a 0b bc
       -0.03216226 0.00035887957 -0.019227315 -0.008501733
000310 23 b8 9f bd 33 37 21 ba 3a fe a9 bd 33 3c b0 bc
       -0.07798793 -0.0006149888 -0.08300443 -0.02151308
000320 30 5c 87 3d 8f 72 9f bd 39 2e 9b bd 87 07 c8 bc
       0.0660938 -0.07785522 -0.07577176 -0.024417652
000330 be 83 12 bd 27 ae 8a 3c 30 3e d7 3c ed b4 4f 3d
       -0.03577017 0.016928745 0.02627477 0.050709654
000340 2f 15 8d bd 99 d3 7c bc 67 cc 6e 3d 53 f5 9f 3d
       -0.06888806 -0.015431308 0.058300402 0.07810464
000350 33 c9 7f bc a9 a6 87 bd 81 dc a6 3c 0d fe 46 3d
       -0.0156119345 -0.06623585 0.020368816 0.048582125
000360 c7 e5 7f bd 2d b0 6d bd e0 0a 35 3d 9a 97 e5 bb
       -0.062474992 -0.058029342 0.044199824 -0.0070065977
000370 0d 72 d2 bd 24 39 87 bd 33 1b 26 3d 93 18 2d bd
       -0.1027566 -0.066026956 0.040553283 -0.042259764
000380 e2 5b 8d 3d 0f e7 a1 3d fe 0c cb 3b 5a 8e 01 bc
       0.06902291 0.07905399 0.006196617 -0.007907474
000390 e8 3a 24 bd b3 b1 a5 bb 76 3a 21 3c 4b 57 ab bd
       -0.04009524 -0.005056584 0.009840598 -0.08366259
0003a0 ef 97 74 bc 84 80 bb bd dd 64 7b 3d 90 6c 82 bd
       -0.014928802 -0.09155372 0.061375488 -0.06368363
0003b0 b0 13 aa 3d db d6 0b bd 53 a6 6a bd f5 8b 22 3d
       0.08304536 -0.03414045 -0.057287525 0.039684255
0003c0 f9 86 d6 3b 76 75 79 3d e0 fe 2a 3d bb 4a c5 bd
       0.0065468517 0.060903035 0.041746974 -0.09633394
0003d0 bf 52 93 3d 47 44 9a bc 8f 4e 56 bd 8a d4 61 3d
       0.07193517 -0.018831385 -0.052321013 0.055134334
0003e0 1f 36 84 3d 46 f1 c4 bd 31 5f 8e bc e0 2e a8 3d
       0.06455635 -0.09616332 -0.017379375 0.08212066
0003f0 2e c1 f8 3c 43 5f c0 3d 90 5e 0c bd dd fe 81 bd
       0.030365553 0.0939317 -0.03426987 -0.063474394

nn_model.2.bias f4 [100]
000000 e4 09 1f 3c cd 5c 7c b9 9e c2 9d bd f3 1a 4a 3d
       0.009706948 -0.00024067164 -0.07703136 0.049342107
000010 ad 02 9c bd df a6 e5 3c dd 6c 94 bd 2f 69 d7 bc
       -0.07617698 0.028033672 -0.072473265 -0.026295273
000020 0e 17 93 39 39 6a d9 3c 49 cf cc bd 2f 35 68 3d
       0.00028055202 0.026539909 -0.10000474 0.056691345
000030 5c a3 70 3c a8 56 82 bd 1b ea 13 3d 60 c6 58 bd
       0.014687385 -0.063641846 0.036111932 -0.05292356
000040 01 6d 68 bd 9a 12 8a bc 87 2c 83 3d 33 95 6f 3b
       -0.05674458 -0.016854573 0.06404977 0.0036557436
000050 9b f9 90 bd fc 90 89 3d d4 83 af 3c 4e 7b 98 bd
       -0.070788585 0.06717107 0.021425165 -0.074453935
000060 bd 34 07 3d 2f be a7 bd 76 89 6c 3d d3 4e 80 3d
       0.03300928 -0.081905715 0.05774828 0.062650345
000070 42 27 99 3d 85 a1 d0 bd af b3 4f 3d 73 72 16 bc
       0.07478191 -0.101870574 0.05070847 -0.00918256
000080 67 75 b1 bc c8 e0 05 3d e8 5f b8 bd a8 11 24 bd
       -0.021662427 0.03268507 -0.09002668 -0.0400559
000090 ab 9a ba bd 0a 4e 10 bd d3 94 b5 3c 52 c6 2c 3d
       -0.09111532 -0.035230674 0.022165691 0.04218132
0000a0 6b e3 63 3d 22 89 44 bb 0f 55 9a 3b 5f 28 5c 3d
       0.055636805 -0.0029988964 0.004709847 0.05374944
0000b0 02 80 5b bd 82 e7 c2 bd fe d6 02 bd 79 c1 5d bd
       -0.053588875 -0.09516813 -0.031943314 -0.054139588
0000c0 e1 d9 d1 3d 80 28 8f 3c 3f 86 4d 3c c4 09 73 3d
       0.10246635 0.017475367 0.012544214 0.059335485
0000d0 c7 3a b4 bd 73 03 57 bd 40 d8 bd bd 79 56 d4 bc
       -0.088002734 -0.052493524 -0.09269762 -0.02592014
0000e0 db 8d 90 bd 1a 43 8d bb e8 48 80 bd 6d d1 5f 3d
       -0.07058307 -0.0043109776 -0.06263906 0.054643083
0000f0 6a bd ad bd aa 7f 77 bd 7a 34 74 3d aa fb a4 3d
       -0.084833935 -0.060424484 0.059620358 0.080558136
000100 c7 6e 85 bb 13 4e 45 bd 4f 02 d5 bd 8c a3 d3 3d
       -0.0040720436 -0.04817016 -0.10400831 0.103339285
000110 cd 69 e5 bc 13 78 8b bc 8e 80 81 bc cb 90 0a bd
       -0.028004551 -0.01702503 -0.01580837 -0.03382949
000120 f4 aa 28 3d 6a a9 87 bd 8c 38 9b bc 6c 36 73 3d
       0.04117866 -0.0662411 -0.018947862 0.059378073
000130 33 1f b5 bc e1 36 b1 3d 42 e7 7a 3d 8c cf c3 bd
       -0.022109604 0.086530454 0.0612557 -0.09561071
000140 1a e6 c1 3c 8d fe 07 bc 69 9f e6 bc c0 8b 3f bd
       0.023669291 -0.008300436 -0.028152185 -0.046764135
000150 81 d4 9f 3d 9a ef 70 3d 9a ca b7 3d f6 45 db 3d
       0.07804204 0.05882225 0.0897419 0.10706703
000160 35 00 78 3d 8f bd 2c bd 10 bf 43 3d a5 08 90 bc
       0.060547072 -0.042172965 0.047789633 -0.017582247
000170 31 84 fe 3d c4 b8 f7 3d 9f 55 a8 3d 06 10 e2 3c
       0.12427557 0.12095788 0.08219456 0.027595531
000180 0e 5f 98 bd 7d 54 24 bd a8 09 82 bc 7e 27 9c bd
       -0.07440005 -0.040119637 -0.015873745 -0.0762472

nn_model.4.weight f4 [100, 100]
000000 9f 82 15 3e 17 c4 56 bd 8f 7f 0a bc 0d a9 e3 bc
       0.14600609 -0.0524331 -0.008453264 -0.02779057
000010 e4 92 09 3d 25 41 47 bd 33 75 58 3b 93 74 a4 3d
       0.03358735 -0.04864611 0.003302884 0.08030047
000020 66 2d ac bc 12 1a 4a 3d 85 83 4e 3d 38 ff 06 3e
       -0.021017741 0.04934127 0.050418396 0.13183296
000030 e4 d5 9a bd d3 be 55 bd af 2c 3a bd 58 f0 93 bd
       -0.07560328 -0.052183937 -0.04545277 -0.07223576
000040 bb b7 c6 bd 03 76 05 3d c7 ed a6 3d b3 fd d6 3b
       -0.097030126 0.032583248 0.08150821 0.006561005
000050 40 80 0a 3c 39 ef 7c ba 88 98 46 bd 32 5d ee 3d
       0.008453429 -0.0009648684 -0.04848531 0.11638869
000060 dd 58 22 3d d3 57 af bd 0d 9b f7 3c ef e1 0c 3e
       0.039635528 -0.08561673 0.030225301 0.13758062
000070 fe 5f ae 3d 8d 36 e6 3d 5d 23 f1 3d 7b ad a6 3d
       0.08514403 0.112408735 0.11774323 0.081385575
000080 73 ca aa bc b4 e2 f9 3c b7 c0 0e 3d 7d 03 12 bd
       -0.020848488 0.030503608 0.034851756 -0.035647858
000090 3a 28 08 3d d3 5c 79 bd 81 12 94 3d 13 f5 ac 3d
       0.033241488 -0.06087954 0.07230092 0.08445182
0000a0 a2 76 01 3e b3 97 0b 3e 36 9b cb 3d ce 19 96 bd
       0.12642911 0.13632087 0.099417135 -0.073291406
0000b0 2e c1 97 bd 28 6b ae bd 7f e0 86 3d 80 f2 94 3d
       -0.07409893 -0.08516532 0.06585788 0.07272816
0000c0 c3 29 db 3d 53 ba 50 3d df 9c e7 3d f9 7f c3 bc
       0.10701325 0.050958943 0.11309218 -0.023864733
0000d0 6c 37 f6 bc 3f bb a8 bd 9e bb 92 bd 2a 5c 9f bd
       -0.030055724 -0.08238839 -0.071646914 -0.07781251
0000e0 6a a4 70 3d 93 a0 e3 bc 28 7d aa 3c 63 65 e1 3d
       0.058750547 -0.027786529 0.020811632 0.11005666
0000f0 60 48 59 3d 43 2e 28 3d 99 ad 64 bd 7e 71 a1 3d
       0.053047538 0.041059744 -0.055829618 0.07882975
000100 04 1c a9 3d 5f 3e a6 bd a3 f0 a8 bc c7 8b af bd
       0.08257297 -0.08117365 -0.020622557 -0.08571582
000110 e8 3d cd bc a0 9d b0 3c 9e b7 bd bd 7d fb 77 bd
       -0.025053933 0.021559536 -0.09263538 -0.060542572
000120 ac f2 e9 3c 49 be b0 3d fa fb de bc 7d 55 ca 3d
       0.028558098 0.08630044 -0.027219761 0.09879587
000130 13 bf a0 bd 47 1e db bc 98 29 d9 3d 6e 0a bc bc
       -0.078489445 -0.026747836 0.106036365 -0.022954192
000140 d8 86 85 3d 8a 34 76 bd a1 74 71 3d fa 3e b5 bc
       0.0651986 -0.0601087 0.058949117 -0.022124756
000150 36 11 37 3c da 31 17 3d 5a d3 fe 3c 7b 6a dc 3d
       0.011173537 0.036912777 0.03110664 0.10762497
000160 61 d9 c5 3c ee f4 fb bc 62 78 98 3d 98 08 09 3d
       0.024151506 -0.03075644 0.07444836 0.03345546
000170 8b 45 87 bd e6 11 b5 bc 7a c5 7c 3d e7 9e 6f 3d
       -0.06605061 -0.022103261 0.061711766 0.05850115
000180 39 27 4a bd 7f ae 92 3d 97 bf 7e 3d 9b e5 80 3d
       -0.049353812 0.07162189 0.062194433 0.06293794
000190 df 93 2d 3d 0a 96 42 3d cf d0 f7 bc df a0 af bd
       0.04237735 0.04750637 -0.030250935 -0.085756056
0001a0 48 5d 94 bc e3 29 8e 3d b0 22 4e bd cd c4 db 3d
       -0.018110886 0.06941583 -0.05032605 0.10730896
0001b0 80 26 14 3e de ad a3 3d 11 e6 96 3d 42 d0 1d bd
       0.14467812 0.07992147 0.073681004 -0.03852869
0001c0 af 93 4b 3d ad 72 51 3c 96 b6 81 3d 87 51 99 bd
       0.04970139 0.0127836885 0.06333654 -0.07486253
0001d0 f5 3b 48 3d fa 94 24 3d 87 f5 eb 3d 73 e6 45 bc
       0.048885304 0.040181138 0.1152144 -0.012078869
0001e0 93 b3 31 bd 5a bb da 3d 51 04 0a bd ab f2 81 3d
       -0.043384146 0.10680266 -0.033695523 0.06345113
0001f0 63 48 7b bd ab bb 92 3d 0f c5 96 3d bb 52 36 be
       -0.06134833 0.07164701 0.07361805 -0.17804997
000200 e4 7c c9 bd 4e b0 68 3d f2 63 f4 bd 07 5f bc 3d
       -0.09838274 0.056808762 -0.119331256 0.091978125
000210 43 82 2a 3d a2 fc 5c bd 58 18 ad 3d 90 b5 a6 bc
       0.041628134 -0.053951867 0.08451909 -0.020350248
000220 87 bf 37 3d 3a a7 28 3d f4 12 6c bc e5 ad b9 bc
       0.04486039 0.041175105 -0.014408816 -0.022665927
000230 2e c8 30 3a 44 5c ab bd 28 b2 f6 3d 9b 18 9a bd
       0.0006743696 -0.08367208 0.12045699 -0.07524224
000240 f1 43 ae 3c 4b ff 98 3d fa 29 17 bc 2e f6 78 be
       0.021272631 0.07470568 -0.009226317 -0.2431266
000250 71 93 b4 3d 2c b5 10 3e 54 03 eb 3c e8 04 b5 bc
       0.08817185 0.14131612 0.02868811 -0.022097066
000260 53 16 57 3d 7f 53 84 3d f6 9d 3d 3d a3 10 81 3d
       0.052511524 0.06461238 0.04629322 0.06302001
000270 30 65 98 3d 85 b2 bf 3d e1 df 99 bd 4c 24 dd 3d
       0.07441175 0.09360222 -0.07513405 0.10797939
000280 af ca 9a 3d 91 01 df 3d 1f 33 50 3d 83 7e ab 3d
       0.0755819 0.10888971 0.050830003 0.083737396
000290 b0 02 81 3d 87 b6 71 3d 70 39 0a 3e a5 4c 80 bd
       0.06299341 0.059011962 0.13498473 -0.06264619
0002a0 46 db 5b 3d b7 b8 a1 3d c0 22 be 3b 99 72 01 3e
       0.053675912 0.0789656 0.0058024824 0.12641372
0002b0 8f f9 1d 3e bf 7e 9c 3d 02 5d cd bc e5 47 1d bb
       0.1542723 0.076413624 -0.025068764 -0.0023999151
0002c0 30 31 22 3d 30 91 5e ba ef c2 11 be e9 39 4a bc
       0.03959769 -0.00084902626 -0.14234518 -0.012342908
0002d0 39 73 88 3d e0 fa ae bc 93 81 cf bb c5 aa af 3d
       0.06662602 -0.02135986 -0.006332585 0.085774936
0002e0 3d b3 43 3c a0 20 26 3d dd 67 8e 3d f7 01 b3 3d
       0.011944589 0.040558457 0.06953404 0.08740609
0002f0 7a 5f dd 3c ac 47 c7 3d e7 99 ee bb 03 7f 20 be
       0.027023066 0.09730467 -0.00728153 -0.15673451
000300 90 0d 1e be 55 0b 23 3d 38 af 84 bd 18 5d 08 3e
       -0.15434861 0.03980573 -0.06478733 0.13316762
000310 12 eb 78 3d 93 ff 9e bd 8f 6b 59 3d 72 59 15 3e
       0.060771056 -0.07763591 0.05308109 0.14584902
000320 3c e2 1c 3c c7 6c 96 bc 0b df 6b bd 3d 04 57 bd
       0.009575423 -0.018362416 -0.057585757 -0.052494276
000330 33 cc 92 3c 50 ee 4f 3b 1a 70 89 bd c6 9e ac bd
       0.017919635 0.0031727739 -0.06710835 -0.08428721
000340 f7 e2 d7 3c 8a bd f2 3c 03 8e 54 3c 27 cb 0f 3d
       0.026353342 0.029631395 0.012973311 0.03510585
000350 38 ff 3c bd 55 1e 04 3d ff 9f 1d 3e c0 1d 93 3c
       -0.046141833 0.03225549 0.15393065 0.017958522
000360 d8 67 c8 bd fa 61 13 3d 13 b4 9e bd 22 0d bf bd
       -0.097854316 0.03598211 -0.0774919 -0.09328677
000370 48 60 91 3d be a0 4a 3d 13 16 0b 3d b6 e7 7e 3d
       0.07098442 0.049469702 0.0339566 0.062232696
000380 1d 84 1a bd 93 9d 01 3d 63 9b d6 bd 94 fd 88 3d
       -0.03772365 0.031644415 -0.104788564 0.06688991
000390 a9 7d 14 bd 2d e4 a7 3a 0d d0 09 3e e7 0c 84 3c
       -0.03625265 0.001280909 0.13458271 0.016119434
0003a0 03 17 4c bd e5 96 fb 3d 70 98 6f 3d c7 a5 58 3d
       -0.049826633 0.1228464 0.058494985 0.052892473
0003b0 4d 79 84 3b a7 a6 bd 3d 11 1a 6e bd ee 2b 87 bd
       0.0040427805 0.09260302 -0.058130328 -0.06600176
0003c0 a4 69 2c 3e 6c 96 29 3e 32 93 b3 3b 17 d1 a2 3d
       0.16837174 0.16561288 0.0054801935 0.07950037
0003d0 0b 1e a6 bc 53 71 b8 bc 36 c5 a0 3d 99 90 8e 3e
       -0.020277997 -0.022514975 0.07850115 0.27844694
0003e0 39 8f c1 bd 68 f3 56 bc 11 fa 17 3d 84 7a a4 bc
       -0.09451146 -0.013119556 0.037103716 -0.020077951
0003f0 92 a1 f2 bd 9a f4 3b 3d 8a e2 8a bd 45 aa 74 3d
       -0.11847223 0.045887567 -0.0678149 0.059732694

nn_model.4.bias f4 [100]
000000 65 ec 11 bc eb 82 f7 bc 9f b5 00 3e fd 54 98 3d
       -0.0089064585 -0.030213794 0.12569283 0.07438085
000010 37 d9 aa bd 63 70 bf 3d fe 88 d6 3d 77 50 c2 bd
       -0.08342212 0.09347608 0.10475348 -0.09488004
000020 c2 3b 88 3d ff 21 d8 bc be 25 a1 bd e5 b1 76 bd
       0.06652023 -0.026383398 -0.07868527 -0.060228247
000030 ef 26 c4 bd c8 b2 8d bd 92 ea d6 3d 69 02 90 bc
       -0.095777385 -0.069188654 0.104939595 -0.017579274
000040 67 77 78 bb 24 3f cc 3b cb 35 b2 3d 05 12 49 bc
       -0.0037912966 0.006233113 0.087016664 -0.012272363
000050 36 f9 32 3d 79 ad be bc b0 4d 89 3d d1 b7 b3 bc
       0.043694697 -0.023276078 0.06704271 -0.021938236
000060 de 67 f1 3d 74 0d 81 3c b9 6d 51 bd 07 07 5a 3d
       0.11787389 0.015753485 -0.05113003 0.053229358
000070 6c 46 bc 3d 9a 87 b1 3b 85 96 86 3c 7f 40 4d 3d
       0.091931194 0.0054177763 0.016429195 0.050110336
000080 ea 90 ce bc 89 4d 6d 3c 73 b7 bb 3d 55 22 48 3d
       -0.025215585 0.014483818 0.091658495 0.048860867
000090 86 1e bf 3c 45 0c 5c 3d 25 21 73 3c 56 e1 47 bd
       0.023329984 0.05372264 0.014839445 -0.04879888
0000a0 ab b2 90 3d 07 68 83 3d f3 45 20 3d c1 c6 75 3c
       0.07065328 0.06416326 0.03912921 0.015001
0000b0 54 a2 3c 3d 28 22 84 bd ea 82 2d 3d da 70 3c 3c
       0.046053246 -0.06451827 0.042361178 0.011501515
0000c0 53 c4 25 bd 19 40 ac bd 40 a9 1e bc 4e 58 af 3d
       -0.040470432 -0.08410663 -0.009683907 0.08561765
0000d0 15 b4 86 bd 2f b2 42 3d cc 85 1d bd 67 c5 cc bb
       -0.06577317 0.04753321 -0.038457677 -0.006249118
0000e0 33 e8 a7 3d 72 b3 0b bd 97 bf c7 3d fc 58 c5 3d
       0.08198585 -0.03410668 0.0975334 0.09636113
0000f0 ce 12 ad 3c e7 c6 27 bd 78 72 06 3c c4 2e bd 3d
       0.02112713 -0.040961172 0.008206002 0.092374355
000100 be 90 a8 bd cb c6 fc 3d f5 33 93 3d ea 2c 48 bd
       -0.082307324 0.12342604 0.071876444 -0.04887096
000110 82 2e d3 3d 28 87 24 3c 7a 74 81 bc f3 0d b3 bd
       0.10311605 0.010041989 -0.01580261 -0.08742895
000120 24 79 a7 3d 45 b2 ca bd 4b c7 88 bd 67 1a 4b 3a
       0.081774026 -0.098972835 -0.06678637 0.00077477697
000130 56 c1 bf 3c c9 c2 fd bc c9 27 3f 3d a7 75 db bc
       0.02340762 -0.03097667 0.0466688 -0.0267895
000140 af 14 2b 3d b5 13 85 bc 2d ce f6 bc e7 7f c3 bd
       0.041767772 -0.016244749 -0.03012761 -0.0954588
000150 a8 cf e3 3d a5 d3 53 3d 41 6e 00 3e 90 c2 98 bd
       0.11123592 0.05171551 0.12542059 -0.07458985
000160 2d ee 1b 3b 5e 4e 0f bd 46 d1 3c bd 06 be 81 bb
       0.0023793087 -0.034986846 -0.046098016 -0.00395942
000170 e1 b1 11 3d f7 0c 74 3d 2e 63 a3 bd 08 34 a6 bd
       0.03557003 0.059582677 -0.079779014 -0.08115393
000180 0a 01 e2 3d 19 5c 85 3d 4e 06 20 3d fa 71 1d 3e
       0.110353544 0.06511707 0.039068513 0.1537551

allocation_head.0.weight f4 [4, 100]
000000 ed 55 9b 3c 05 76 29 3d df 6f 40 bd 07 47 fb bb
       0.018961871 0.041372318 -0.04698169 -0.007668379
000010 f1 cf 10 3e ad ac db 3c bb c1 61 bc 3f 62 a2 3d
       0.14141823 0.026815737 -0.013779099 0.07928895
000020 19 7d e0 3c 41 3c 88 3c d0 e1 74 3e 3c d6 fc bc
       0.027403401 0.016630294 0.23914266 -0.030863874
000030 c7 a7 c3 bd 9b 59 0b be 3b 2e 84 bc a5 7d 02 bc
       -0.09553485 -0.136084 -0.016135326 -0.007964526
000040 e7 ed 21 3d 64 e0 88 3d 82 7e 5c bd f4 17 03 3c
       0.039533522 0.06683424 -0.053831585 0.008001316
000050 e6 8f e2 3d 6b 26 eb 3d db 2e 3a bb b4 a3 d5 3d
       0.11062603 0.11481937 -0.0028409276 0.104316145
000060 fc cf 00 bd fa 58 0a bc 64 d6 1f 3e a5 fc bd bd
       -0.03144835 -0.008444065 0.15609127 -0.09276704
000070 1c 31 21 bd 9a 64 cf bc 57 dc 6e bd d6 73 86 3b
       -0.039353475 -0.025316525 -0.0583156 0.004103164
000080 48 bf 84 bd e4 ee 86 bd fa 54 8b bd c7 b4 b3 bd
       -0.064817965 -0.065885335 -0.06803317 -0.08774715
000090 47 9e 6f be 73 f8 22 3e 85 95 e5 3d 23 1d 52 3d
       -0.23400222 0.15915088 0.11210159 0.05129732
0000a0 36 24 08 be 40 58 03 bd 54 af 28 3c c6 8d c8 bd
       -0.13295063 -0.032066584 0.010295708 -0.09792666
0000b0 eb a8 83 bd e0 23 25 bd d0 86 ef 3d 4e 6a 7b 3d
       -0.06428703 -0.040317416 0.11695635 0.061380677
0000c0 d3 a7 35 bd b5 07 82 3b b1 0f 93 3d 68 40 da 3d
       -0.044349503 0.003968204 0.07180727 0.10656816
0000d0 01 5b 42 be b5 e2 90 3c 2f 0a 73 3d 9a 60 00 be
       -0.18980028 0.017686227 0.059335884 -0.1253685
0000e0 7b 25 94 3c 1b ff 15 be e0 c5 4b 3a 64 81 88 be
       0.018084278 -0.14648096 0.0007773321 -0.26661217
0000f0 e4 ca b3 3d 93 b9 24 3d b7 dc 96 bd 5a 64 80 3c
       0.08778933 0.04021604 -0.07366317 0.015672851
000100 e3 cb 06 3e e5 fe 8f be 3f d6 bc bb 62 56 80 3d
       0.13163714 -0.28124157 -0.005762845 0.06266476
000110 24 8e 8a 3d d6 4f c3 3d df d2 9d bd d6 c3 29 be
       0.067653924 0.09536712 -0.07706236 -0.16578612
000120 30 5b 4a 3d da af a9 3d 99 e7 a5 3d e8 b4 b4 3d
       0.04940337 0.08285494 0.08100814 0.08823568
000130 6e f0 c2 bc d3 9c 02 bf d7 fc ff 3c bd 1f 80 bd
       -0.023796286 -0.51020545 0.031248493 -0.062560536
000140 3f 7f f4 bd 6c 26 0f 3e 88 f7 bc 3d b8 fe bf bd
       -0.11938333 0.139795 0.092269 -0.093747556
000150 da d9 05 bd 7c fe 18 bd 9f c9 81 bd 4a 7f 3b bd
       -0.032678463 -0.03735207 -0.06337284 -0.04577569
000160 98 a5 ab 3c 23 ae f1 bd 79 33 b3 3d cc d4 a9 bc
       0.020952985 -0.11800792 0.08750052 -0.020731352
000170 f2 c6 80 3d 21 ff 5b 3d 64 b1 b8 bd 40 05 79 bd
       0.06287946 0.053710107 -0.090182096 -0.060796022
000180 74 16 8a 3c 49 06 d4 3c 6f e1 88 bd 9b 97 79 bd
       0.01685641 0.025881903 -0.06683623 -0.060935598
000190 9a 94 06 3e b3 a0 ea 3d 55 d2 0a bd e0 0b 38 b9
       0.13142624 0.11456432 -0.033891995 -0.00017552031
0001a0 78 fc 08 bf 33 97 eb ba c7 b9 95 bd 4f f9 9d bd
       -0.53510237 -0.0017974138 -0.07310825 -0.077135675
0001b0 ff 1b c5 3c fc 35 ab 3b 84 1e 79 3e 35 6b df 3d
       0.024061201 0.0052249413 0.24328047 0.1090912
0001c0 f3 41 79 bd 7b cd 21 3e fa 53 a5 3d c6 95 aa bd
       -0.06085391 0.15801041 0.08072658 -0.08329348
0001d0 d3 e2 cb bc f5 51 1c 3d a6 f0 b7 3c 61 03 8b 3d
       -0.024888432 0.038164098 0.022453617 0.06787754
0001e0 7b b6 82 3d 31 2c 8e 3d 69 8f 5b bd 63 db 11 bc
       0.06382462 0.069420226 -0.053603563 -0.0089024035
0001f0 69 98 df bd aa 30 86 bd a7 86 98 bc 8a 85 47 bd
       -0.10917742 -0.06552251 -0.018618895 -0.048711337
000200 4b 29 11 bd c8 db a7 bd d6 c8 1a 3d 82 8f 50 3d
       -0.03543977 -0.08196217 0.03778919 0.05091811
000210 f5 cd 52 bd 82 6d 1f 3c c2 92 b1 3d 4d 39 8f bb
       -0.051465947 0.009730699 0.0867057 -0.0043708445
000220 1e e0 0e be e2 15 d2 bd 4a 47 92 bd 98 08 8d 3d
       -0.13952681 -0.1025808 -0.071425036 0.06886405
000230 78 e4 dc 3d fc bc a8 3d 86 07 b5 3d fa d0 27 bc
       0.107857645 0.08239171 0.088393256 -0.010242695
000240 ab f7 c2 bd cb 4b 6c bd 54 8c a5 3d 06 ee 89 bc
       -0.09519895 -0.05768947 0.08083406 -0.016837131
000250 17 97 4b bd 2a be 8e bd 65 c2 ae bd 26 21 93 bd
       -0.049704637 -0.06969865 -0.085331716 -0.07184057
000260 c1 8f 9f be 28 24 50 3d bc 9b 80 3d d8 87 d4 bd
       -0.31164363 0.05081573 0.06279704 -0.10377473
000270 9a 10 8c 3d 3b 97 af bd 73 99 23 bc 35 f9 8a be
       0.06839104 -0.08573767 -0.009985316 -0.27143255
000280 ad 2d fe 3b 0d d8 a0 bc 9a 01 b2 bd f2 d1 d0 bd
       0.00775691 -0.019634271 -0.08691712 -0.10196294
000290 9b dd 6a 3c 55 6a 72 be cc cb 51 bd 4a b5 c1 3d
       0.014335061 -0.23673375 -0.051219746 0.09458406
0002a0 75 41 b3 bd c3 f9 92 3b e8 1a b4 3d c6 0b da bd
       -0.08752719 0.0044853403 0.087941945 -0.10646777
0002b0 40 a1 c9 3d 93 56 14 3d 15 43 c3 bd 90 93 81 3d
       0.09845209 0.036215376 -0.09534279 0.063269734
0002c0 50 f1 35 3d e4 28 4e 3a f8 d7 c8 3d 77 7f a5 bd
       0.044419587 0.00078643695 0.09806818 -0.080809526
0002d0 8d d6 e5 3a 1c 5a fd 3c 6e c9 c4 3d 93 ee 0a 3d
       0.0017535255 0.030926757 0.09608732 0.03391893
0002e0 66 86 ce 3c 93 98 1b 3d f7 4f 35 bd 40 48 ac bc
       0.02521057 0.037987303 -0.044265714 -0.021030545
0002f0 18 8c cb bd d3 e3 1c 3d 87 24 01 3e 98 a9 05 3e
       -0.0993883 0.038303208 0.1261159 0.13052976
000300 2b b0 a2 bd 06 20 2b 3d ab 9c 7c bd fa 78 61 bd
       -0.079437576 0.041778587 -0.061672848 -0.055047013
000310 48 d5 8b bd e3 e1 ec 3d 8d 6a fd 3c 39 ff b7 3c
       -0.068277895 0.11566522 0.030934596 0.022460567
000320 8b 03 7e bc db 26 9d 3d 3a 27 e3 bd 8f ce 09 be
       -0.015503774 0.07673427 -0.11091466 -0.13457702
000330 32 b6 73 be ab 58 8f 3d 85 d3 c5 bc 1a bf ac 3d
       -0.23799971 0.06999334 -0.024148712 0.08434887
000340 8e 5e f5 b8 6c 44 b8 3c ae 4b 8a be de 42 0c bc
       -0.000117001226 0.022493564 -0.27010864 -0.008560864
000350 67 90 4d 3c 85 99 40 3d cc 44 d3 bc 75 1d c8 3c
       0.012546635 0.047021408 -0.02578964 0.024428109
000360 13 32 a0 bd e1 aa 72 bd 81 c7 88 3d 1e e3 07 be
       -0.07822051 -0.059244994 0.06678677 -0.13270232
000370 93 e1 a6 bd 6d 82 89 3d 66 9b 96 3c ca 58 da bc
       -0.081484936 0.0671433 0.018384647 -0.026653666
000380 14 16 92 bd e0 6a 8c 3d ea 0d 0c be a7 8a e8 bc
       -0.07133117 0.06856322 -0.13677183 -0.028386427
000390 2d 18 6a bd 5a a0 72 bc 9e 5b a7 3c 89 bb 28 3e
       -0.057151962 -0.014808739 0.020429429 0.16477789
0003a0 33 89 4c 3c 41 18 e0 3d e8 0e 73 3d 36 94 8d bd
       0.012483883 0.10942126 0.059340388 -0.069130346
0003b0 2f c5 61 3e 74 55 13 be 7e ff e0 bd f3 c2 d9 3c
       0.22047876 -0.14388067 -0.10986231 0.026582217
0003c0 9a 56 2f 3e 99 a4 64 3d b6 75 d1 bc b0 93 9a 3b
       0.1712288 0.055821035 -0.025568824 0.0047173128
0003d0 41 3a 32 3d 28 12 dd bd 39 06 97 3c 8c fb ae bd
       0.043512587 -0.10794479 0.018435584 -0.085440725
0003e0 67 a6 b4 3a 0c 58 c9 bc 45 e2 77 bd c8 a7 c6 3b
       0.0013782502 -0.024578117 -0.06051852 0.0060624816
0003f0 34 d6 9f 3e b8 d7 08 bd f1 95 53 bd 05 b3 f1 3c
       0.31218112 -0.03340885 -0.051656667 0.029504308

allocation_head.0.bias f4 [4]
000000 a9 23 4b 3d 96 b8 9d bb 5c 97 06 bd 5d 4d d5 3d
       0.049594555 -0.004813264 -0.03285919 0.104151465

payment_head.0.weight f4 [1, 100]
000000 8b ae 9e 3b 91 89 14 be 44 57 55 3e 45 38 ff 3d
       0.0048425845 -0.14505602 0.2083407 0.124619044
000010 7c 94 e6 be 2d 42 66 3d 87 db 90 bd 60 61 80 bc
       -0.4503516 0.056215454 -0.070731215 -0.015671432
000020 98 57 f9 3d 9b 94 59 3c 9d 8b 0b bd 8a ac 6e 3e
       0.1217491 0.013280059 -0.034068692 0.23308006
000030 2d 5e de bc 24 51 e4 bc c2 4e db 3d 62 1f 05 3e
       -0.027144516 -0.027870722 0.10708381 0.13000253
000040 e7 70 af 3b e8 45 2d be 74 c8 3a 3e ac 83 1d 3d
       0.005354035 -0.16921198 0.1824053 0.03845565
000050 3e 09 f7 3d ed da 03 be 65 d0 6e 3e 82 12 e4 bd
       0.1206231 -0.12876482 0.23321684 -0.111363426
000060 79 c4 c3 3d 7d ca 03 3e 0e ea 9e bd 63 42 18 3d
       0.095589586 0.12870212 -0.07759486 0.037172686
000070 c5 3e 22 3e 80 eb d6 3b cc bb 01 be be fb 53 bd
       0.15844257 0.0065588355 -0.12669295 -0.051753752
000080 47 e2 b2 3c da 6a ec 3e d8 c8 15 3e 35 07 c6 bd
       0.021836413 0.4617527 0.14627397 -0.096693434
000090 7d 23 98 3e 4a d1 2a be 8b 8f 50 bd 6d 6c 7f 3d
       0.29714575 -0.166814 -0.050918143 0.062359262
0000a0 84 29 d8 bd 65 05 87 3d 3d 21 0a bd a4 33 45 3e
       -0.105547935 0.06592826 -0.033723105 0.1925798
0000b0 d3 ec 16 3e 8c 47 25 3e ba 19 90 3d b6 eb b9 3d
       0.14738779 0.16140574 0.07036157 0.090781614
0000c0 00 92 cb 3d c8 44 30 3d aa ee 97 bd 2c 3b 17 3e
       0.09939957 0.043034345 -0.074185684 0.14768666
0000d0 67 18 46 3e 80 92 be 3c be 9a 9d bd 33 d2 81 3e
       0.19345246 0.023263216 -0.0769553 0.25355682
0000e0 a0 5d 3d be 0c 1d bd 3e d6 d0 ac 3d 30 55 7a 3c
       -0.18492746 0.36936224 0.0843827 0.015279099
0000f0 59 dc 79 3c 47 e0 5b 3d 1e af 31 3e 95 fe af 3e
       0.015250289 0.053680684 0.17351958 0.34373918
000100 66 78 97 bd e6 11 28 3c ad 9d 83 3e c1 f6 c4 3d
       -0.07396011 0.010258174 0.25706235 0.09617377
000110 99 7b 14 3e 3e 6d 49 bd cd 9c 0f 3d a6 7d 96 3e
       0.14500274 -0.049176447 0.035061646 0.29392737
000120 b4 8b 0b be 76 3e 26 3d 8c 6c 58 bd 8a 0e 45 3d
       -0.13627511 0.04058691 -0.052837893 0.04810957
000130 b3 10 e1 3e f8 08 cd be a8 cc 16 be f7 be 55 3d
       0.43958053 -0.40045905 -0.14726508 0.05218407
000140 7f e6 34 3e 09 f0 a0 3d 14 44 99 3c 48 0e 4a 3d
       0.17666052 0.07858283 0.01870922 0.049330026
000150 ec 58 95 3d a0 31 54 3e e3 30 2c 3e 8d be 59 3c
       0.07292351 0.20722055 0.16815524 0.01329006
000160 d0 98 1d 3d 3e 71 42 3e f9 da c7 3d 22 c1 a3 bc
       0.03847581 0.18988511 0.097585626 -0.019989554
000170 08 ef 76 bd 54 59 d4 bd 99 6a a3 3d 11 09 b8 3d
       -0.06028655 -0.103686005 0.07979316 0.08986104
000180 0e 0a 44 3e d0 38 46 3e 10 17 12 3e 8c af c2 3e
       0.1914446 0.1935761 0.1426661 0.38024557
