result/1x2_sparsemax_in_linsigpmt_scratch_49_checkpoint.pt (torch, 88519 bytes, 9 tensors)

nn_model.0.weight f4 [100, 2]
0	0xbe85d1b2	-0.26136547
1	0x3ec4aff6	0.38415498
2	0x3e9aa909	0.3020709
3	0xbe66e632	-0.2254875
4	0x3e316dac	0.17326993
5	0xbe7fdbc0	-0.24986172
6	0x3f058913	0.52162284
7	0xbe4f5255	-0.20246251
8	0xbe8612e7	-0.26186296
9	0x3e2632a1	0.16230251
10	0x3ebf2e90	0.37340212
11	0xbea72ef7	-0.3265302
12	0x3d27168d	0.04079299
13	0x3eb4e6c5	0.35332313
14	0xbd90162e	-0.070354804
15	0x3e5c5c7e	0.21519658
16	0xbe2ea355	-0.17054494
17	0x3e7dc9f1	0.24784066
18	0xbedff735	-0.43743291
19	0xbeb47449	-0.3524497
20	0xbea1fa1f	-0.3163614
21	0x3f2bb163	0.67067546
22	0xbde83a2d	-0.11339221
23	0xbce4f50d	-0.02794888
24	0xbec52dff	-0.38511655
25	0x3f3e902f	0.74438757
26	0x3f1d797f	0.61513513
27	0xbf0de8cf	-0.5543336
28	0xbec7ab17	-0.3899772
29	0xbeb1cf76	-0.34728593
30	0xbdbfb1ca	-0.093600824
31	0xbe7bdb47	-0.24595366
32	0xbeecf889	-0.46283367
33	0xbe81da6a	-0.2536195
34	0x3df7587e	0.120774254
35	0xbec2cd2d	-0.38047162
36	0x3e207161	0.1566825
37	0xbe260add	-0.16215082
38	0xbeaf6e40	-0.34263802
39	0x3dc6f497	0.097146206
40	0x3f28f297	0.6599516
41	0xbf1bba0e	-0.6083077
42	0xbd183ddf	-0.03716838
43	0xbe997024	-0.2996837
44	0x3f65106d	0.8947819
45	0xbf01ba3d	-0.506748
46	0xbf0e5808	-0.55603075
47	0x3f3a4455	0.72760516
48	0xbee50ee8	-0.44737935
49	0x3e0ad291	0.13556887
50	0xbd79f81a	-0.061027624
51	0xbe18882e	-0.14895698
52	0xbe3fde0c	-0.18737048
53	0x3eda6258	0.42653155
54	0x3d0a6f4f	0.03379756
55	0xbf303e39	-0.68844944
56	0xbed56576	-0.4167897
57	0xbe3dbb88	-0.18528569
58	0x3eb62f0d	0.35582772
59	0xbeea4995	-0.45759264
60	0x3f3fbda9	0.74898773
61	0xbdd2b4a2	-0.10288359
62	0xbe2dd72d	-0.16976614
63	0x3f1e5a4d	0.6185654
64	0x3e292904	0.16519552
65	0x3f01264d	0.5044907
66	0x3eff3076	0.4984166
67	0xbe224803	-0.15847783
68	0xbef033e2	-0.46914583
69	0xbd577e87	-0.0526109
70	0x3f1ed9f9	0.6205135
71	0xbd6b2d83	-0.05741645
72	0xbede2f41	-0.43395427
73	0x3ec6b559	0.38810232
74	0x3f41e99c	0.75747085
75	0xbe0ebf0b	-0.13940065
76	0xbf15e366	-0.5855011
77	0xbf243202	-0.64138806
78	0x3e499850	0.19687009
79	0xbcdd46bd	-0.02701127
80	0xbee8d740	-0.45476723
81	0x3da74d95	0.081690945
82	0x3eb81d2d	0.3595976
83	0x3f2123f7	0.62945503
84	0x3f04cddb	0.5187661
85	0xbe366ee9	-0.17815746
86	0xbf1f9ded	-0.6235035
87	0xbf2392c1	-0.63895804
88	0x3f417241	0.7556496
89	0x3ebead8f	0.3724179
90	0x3e9dd0b9	0.30823305
91	0xbf1c9f2a	-0.61180365
92	0x3f3b26be	0.7310599
93	0x3f3c3996	0.7352537
94	0x3f16d342	0.58916104
95	0xbf1c7984	-0.6112292
96	0xbe818c9a	-0.25302583
97	0xbee50040	-0.44726753
98	0x3f0ad83f	0.54236215
99	0xbee3b96f	-0.44477412
100	0xbeaa6712	-0.3328176
101	0x3eaf6621	0.34257606
102	0xbea779f0	-0.32710218
103	0xbeb24fe3	-0.34826574
104	0xbde06516	-0.109567806
105	0xbdf382ae	-0.118901595
106	0xbf00f0c0	-0.50367355
107	0x3f48547a	0.782539
108	0xbe9fb3ff	-0.31192014
109	0x3e806ba6	0.2508213
110	0x3f2626ca	0.6490294
111	0x3ec5fd4b	0.3866981
112	0x3e277ef3	0.16357021
113	0x3f2afb61	0.66789824
114	0x3dc2ab84	0.0950537
115	0xbea77fe5	-0.32714763
116	0x3f364ba2	0.71209157
117	0x3e45359c	0.19258732
118	0xbeab6347	-0.3347418
119	0xbde312bd	-0.110875584
120	0xbef8dbb5	-0.48605123
121	0x3f4a09d6	0.7892126
122	0xbdef2822	-0.116775766
123	0xbf2500ee	-0.64454544
124	0xbcf92ac3	-0.030415898
125	0x3ee6ad55	0.45054117
126	0x3e3c1d98	0.18370664
127	0x3e64f4da	0.22359028
128	0x3e3151c1	0.17316343
129	0x3eb8b417	0.36074898
130	0xbde3ed18	-0.111292064
131	0xbe637478	-0.22212398
132	0xbf293347	-0.6609387
133	0xbf085e59	-0.53268963
134	0x3e70c072	0.23510912
135	0xbee82347	-0.45339414
136	0x3e19f342	0.15034202
137	0x3e97b5f5	0.2963101
138	0xbd82edeb	-0.063930355
139	0xbf007bcf	-0.50188917
140	0x3f46b472	0.7761909
141	0xbe9fb91d	-0.31195918
142	0x3f02de1f	0.5112018
143	0xbf24d947	-0.6439404
144	0xbe2e2cfb	-0.17009346
145	0x3ec4f010	0.38464403
146	0xbe85dc94	-0.2614485
147	0x3f1f5bbb	0.62249345
148	0xbef923a6	-0.4866001
149	0xbf1803cf	-0.5938081
150	0xbea3400b	-0.31884798
151	0x3dea1845	0.1143041
152	0x3f203e90	0.6259546
153	0xbe9b7c72	-0.30368382
154	0x3e8ea38e	0.27859157
155	0xbe56c918	-0.20975149
156	0xbe738889	-0.23782553
157	0x3f083258	0.5320182
158	0xbf0c4995	-0.5479978
159	0x3d99d036	0.07510416
160	0x3f05db07	0.52287334
161	0xbe8217c2	-0.2540875
162	0x3f08baf0	0.53410244
163	0xbeb65bee	-0.35617012
164	0x3f11b6b6	0.5691942
165	0xbf2f1b02	-0.68400586
166	0xbdb0a582	-0.08625318
167	0xbe087416	-0.13325533
168	0x3e9bbcab	0.3041738
169	0x3ea5587e	0.32294077
170	0x3f1f050d	0.6211708
171	0xbdf92026	-0.12164335
172	0x3d85d4dc	0.0653474
173	0x3f0f9c9f	0.5609836
174	0xbe563b80	-0.20921135
175	0x3f1985b0	0.59969616
176	0xbe8a32d3	-0.269919
177	0xbdba47d3	-0.09095731
178	0x3ba26519	0.0049558994
179	0x3e91ee02	0.28501898
180	0x3ef51e0f	0.47874495
181	0xbe690cd8	-0.22758806
182	0xbf15f894	-0.58582425
183	0x3eb36329	0.3503659
184	0x3e858d7d	0.2608451
185	0x3e792afd	0.24332805
186	0xbe9bac3e	-0.30404848
187	0x3f0fc4fa	0.5615994
188	0x3f3f1c04	0.74652123
189	0x3e1a5c59	0.1507429
190	0xbf31af9b	-0.6940858
191	0x3ed1ac2c	0.4095167
192	0xbf06378e	-0.5242852
193	0x3e2671f7	0.16254412
194	0x3cf73952	0.0301787
195	0xbecd0ea9	-0.40050247
196	0x3e7c1eda	0.24621144
197	0xbf21e8dc	-0.6324594
198	0x3e24fdb8	0.16112411
199	0xbf0b7994	-0.5448239

nn_model.0.bias f4 [100]
0	0x3d30159b	0.042989355
1	0xbe042d30	-0.12907863
2	0x3f294ae2	0.6612989
3	0xbea8254a	-0.3284095
4	0x3ef04f17	0.4693534
5	0xbe2e02fd	-0.16993327
6	0xbec9029c	-0.39259803
7	0xbf1da1af	-0.61574835
8	0xbf2616ac	-0.64878345
9	0x3f4a5561	0.7903653
10	0xbec12ab8	-0.37727904
11	0x3e1dba50	0.15403104
12	0x3e3f0587	0.18654452
13	0x3f0ce029	0.5502954
14	0x3f3ce398	0.7378478
15	0x3f1dbc6c	0.61615634
16	0xbf061d3a	-0.52388346
17	0xbe011237	-0.12604605
18	0xbed63b5e	-0.4184217
19	0xbeced9f7	-0.4040067
20	0x3e4cf74f	0.20016216
21	0x3f36a825	0.7135032
22	0xbf01600c	-0.5053718
23	0x3f0b9930	0.5453062
24	0xbebbb47b	-0.36661133
25	0xbe0d0819	-0.1377262
26	0x3f140ed7	0.57835144
27	0xbe23c3c9	-0.15992655
28	0x3dc26742	0.09492351
29	0xbefd13aa	-0.49429065
30	0x3f18cfba	0.59691966
31	0xbdd411ff	-0.10354995
32	0xbf2ab190	-0.6667719
33	0x3e419405	0.18904121
34	0xbf00b538	-0.5027652
35	0xbf100e82	-0.5627214
36	0x3e0f2cbb	0.13981907
37	0x3f0d41bd	0.55178434
38	0xbe4ce6fe	-0.20009992
39	0x3eaac32d	0.33352032
40	0x3f2927b8	0.6607623
41	0x3eec14a8	0.4610951
42	0xbee7b2f9	-0.45253733
43	0xbd9ebf1b	-0.07751294
44	0xbe8ca84e	-0.27472156
45	0xbf118fd2	-0.5686008
46	0xbcccef14	-0.025016345
47	0x3f1be340	0.6089363
48	0x3f32d7e1	0.69860655
49	0xbe4c1b6f	-0.1993234
50	0x3e6f96bd	0.23397346
51	0xbe9cbc00	-0.30612183
52	0x3f0daca8	0.5534158
53	0xbe8f0e60	-0.27940655
54	0xbefb7dbd	-0.49119368
55	0x3df24264	0.11829069
56	0x3ed6ac42	0.41928297
57	0xbf23349c	-0.6375215
58	0x3f23193d	0.63710386
59	0x3eef861e	0.4678201
60	0xbec63fee	-0.3872065
61	0xbe1bf8c0	-0.1523161
62	0x3f1cb758	0.6121726
63	0xbf0ae262	-0.5425168
64	0xbe1e2671	-0.15444352
65	0x3ebcd0fd	0.36878195
66	0xbf1e969d	-0.6194857
67	0x3ee767d1	0.45196393
68	0x3ec3d3de	0.3824758
69	0x3f01e53c	0.5074041
70	0xbef74595	-0.48295274
71	0x3f429f64	0.7602446
72	0xbed69a43	-0.41914567
73	0x3f37d236	0.7180513
74	0xbf2db8f7	-0.6786036
75	0xbf214865	-0.6300109
76	0x3eebdd30	0.4606719
77	0xbda65716	-0.08122079
78	0x3b6f4fa4	0.0036515975
79	0xbec87b61	-0.3915663
80	0xbef574ef	-0.47940776
81	0xbe96a4b5	-0.29422536
82	0xbf30574a	-0.6888319
83	0x3e754dee	0.23955509
84	0x3e008784	0.12551695
85	0x3b8428b9	0.004033175
86	0x3e7176e9	0.23580517
87	0x3f34498d	0.7042473
88	0x3ebb78d1	0.36615613
89	0xbe98cbe2	-0.2984305
90	0xbe96cee6	-0.29454726
91	0xbee7a265	-0.45241085
92	0xbf00f673	-0.5037605
93	0xbe187fbe	-0.1489248
94	0xbdd83e30	-0.10558736
95	0x3ec32c59	0.38119772
96	0xbe9abfa8	-0.30224347
97	0x3f1a7d47	0.6034741
98	0xbefe090d	-0.4961628
99	0x3d57f88c	0.052727267

nn_model.2.weight f4 [100, 100]
0	0x3e58d198	0.21173704
1	0x3e27bfa6	0.16381702
2	0xbc0bc06d	-0.008529765
3	0x3e225a78	0.15854824
4	0x3d6e5f91	0.058196608
5	0x3e1594a7	0.14607488
6	0xbd860874	-0.06544581
7	0x3cdde233	0.0270854
8	0xbd8e692a	-0.06953652
9	0x3d30c70f	0.043158587
10	0x3deabe83	0.114621185
11	0xbba7fa09	-0.005126242
12	0x3de42fc2	0.111419216
13	0x3d42f4ac	0.04759662
14	0x3d8a142e	0.0674213
15	0x3e0ee61c	0.13954967
16	0xbcfa674d	-0.030566836
17	0x3d77a499	0.060459707
18	0xbcea50ad	-0.028602922
19	0xbc6f5373	-0.014607298
20	0xbd1c2a64	-0.038126364
21	0x3d296362	0.041354544
22	0x3c69a18c	0.014259707
23	0x3d95f2d5	0.07321707
24	0x3b76f133	0.0037680387
25	0x3d81d215	0.06338898
26	0x3d1a18ee	0.03762143
27	0x3c244c8d	0.010028017
28	0xbc6f5b1c	-0.0146091245
29	0xbdab82b2	-0.083745375
30	0x3dd3dc5b	0.10344764
31	0xb93a481d	-0.00017765207
32	0xbccf3ffc	-0.025299065
33	0x3d009eb6	0.03140136
34	0x3cd63d00	0.026152134
35	0xbc9564fd	-0.018236632
36	0x3e057a7f	0.1303501
37	0x3d8b3ccf	0.06798708
38	0x3d1ab890	0.03777367
39	0x3dcd50fa	0.10025211
40	0x3c8dc50e	0.017305877
41	0x3dc599f7	0.09648507
42	0x3d97ad44	0.07406095
43	0x3b96cb00	0.004601836
44	0x3ce51468	0.027963832
45	0x3b6e2100	0.0036335588
46	0x3da9391f	0.08262848
47	0x3c0dac34	0.008647013
48	0xbcb38adc	-0.0219168
49	0x3dd8467e	0.1056032
50	0xbd968a77	-0.07350629
51	0x3ad22400	0.0016032457
52	0xbb37287f	-0.0027947722
53	0x3e464c04	0.19364935
54	0xbdbead43	-0.09310391
55	0x3da6c59c	0.0814316
56	0x3e1fa291	0.15589358
57	0x3ca5c1cd	0.020234013
58	0x3d600784	0.054694667
59	0x3ddb0d90	0.10695946
60	0x3de5b4c6	0.112161204
61	0xbc034a73	-0.008013356
62	0x3c78d580	0.015187621
63	0xbc622ab3	-0.013804126
64	0x3d6ffba0	0.058589578
65	0x3cf74673	0.03018496
66	0xbc9ab9f3	-0.018887496
67	0xbd6dfbe3	-0.058101546
68	0x3d89afbb	0.06722971
69	0x3d2e691a	0.0425807
70	0x3e3416ea	0.17586866
71	0x3dffae51	0.1248442
72	0x3dc7114a	0.097200945
73	0xbaf87e8d	-0.0018958614
74	0xbbcc52b3	-0.0062354445
75	0xbd241dad	-0.040067364
76	0xbd05e8e3	-0.0326928
77	0x3bc5f8b9	0.006041613
78	0x3df5b04f	0.11996519
79	0x3d6ed263	0.05830611
80	0x3d151bef	0.036403593
81	0x3df5dca5	0.12004975
82	0xbda2b595	-0.0794479
83	0x3ca32893	0.019916808
84	0x3dfcc5df	0.123424284
85	0xbd522271	-0.051302377
86	0x3e10bf89	0.14135565
87	0x3dadbca4	0.08483246
88	0x3db2fc03	0.08739474
89	0xbcf61112	-0.030037437
90	0x3d62891f	0.05530655
91	0xbdb58d7d	-0.088648774
92	0xbdb4448d	-0.088021375
93	0x3e423ed9	0.18969287
94	0x3d3103aa	0.043216385
95	0x3e04ba4f	0.12961696
96	0x3dc93f88	0.09826571
97	0x3e05ae67	0.1305481
98	0x3d89804a	0.06713922
99	0x3e03cd0e	0.12871191
100	0xbc536700	-0.012902975
101	0xbd9eef35	-0.07760469
102	0xbd180dfd	-0.037122715
103	0xbc37ef27	-0.011226452
104	0xbd5d57a3	-0.054038655
105	0x3d516027	0.05111709
106	0x3d0fc7e0	0.035102725
107	0x3c842df3	0.016135192
108	0x3cc5e2f3	0.02415607
109	0x3db3e833	0.08784523
110	0x3d15306d	0.036423136
111	0xbdb398e2	-0.087693945
112	0xbd94a90f	-0.07258808
113	0x3d3487f3	0.044074964
114	0x3c5f47a7	0.013627923
115	0x3d47c22d	0.048769165
116	0xbdcc89b0	-0.09987199
117	0xbdbd00ef	-0.09228694
118	0x3d7b2d73	0.06132264
119	0x3d82ffdb	0.06396457
120	0xbdb948ea	-0.090471104
121	0x3d1b7a67	0.03795853
122	0xbd9feaba	-0.078084424
123	0x3d9b18bd	0.07573078
124	0x3d008750	0.031379044
125	0x3dca80ea	0.0988787
126	0xbdc9ee60	-0.098599195
127	0xbdc527f5	-0.09626762
128	0x3d8a7738	0.067610204
129	0x3db5d380	0.08878231
130	0x3d7af427	0.061267998
131	0x3d88283b	0.06648298
132	0xbdac7f47	-0.08422714
133	0x3d943caf	0.07238137
134	0xbdc15c80	-0.09441471
135	0x3cb702ba	0.022340167
136	0xbd8626b0	-0.06550348
137	0xbd22b0f7	-0.039719548
138	0x3c910e07	0.017706884
139	0xbd210bea	-0.039318003
140	0xbc819dc0	-0.015822291
141	0xbdc21d4b	-0.094782434
142	0xbdc119b7	-0.09428733
143	0x3d1ea9f7	0.03873631
144	0xbd2d5ff7	-0.042327847
145	0xbd793247	-0.060838964
146	0xbd219ef3	-0.039458226
147	0xbda77023	-0.08175685
148	0xbda3b798	-0.07994002
149	0x3d7517e3	0.059837233
150	0x3d502d0d	0.050824214
151	0x3c5a3d9a	0.013320351
152	0xbd5fbf7a	-0.054625966
153	0x3d08463a	0.0332701
154	0x3b933600	0.0044925213
155	0xbd925d70	-0.07146728
156	0x3cb04893	0.021518981
157	0x3dba7aba	0.091054395
158	0xbdc9714d	-0.098360635
159	0xbdcba6ca	-0.09943922
160	0x3c51eb80	0.012812495
161	0x3d9a380f	0.075302236
162	0xbd793cc7	-0.060848977
163	0x3cb4561a	0.022013713
164	0x3d8ff8ad	0.07029853
165	0x3cfc92a0	0.030831635
166	0x3cb148a0	0.021641076
167	0x3dcc5593	0.099772595
168	0x3d856bef	0.06514727
169	0xbd665ec0	-0.056242704
170	0x3c0d9e1a	0.008643651
171	0x3d5140da	0.051087238
172	0x3db49d75	0.08819095
173	0xbdcbc323	-0.09949329
174	0x3d5dccf3	0.054150533
175	0xbcedd700	-0.029033184
176	0xbdc88b65	-0.097922124
177	0x3cb5d753	0.022197401
178	0xbd5efdea	-0.05444137
179	0x3c682e67	0.014171219
180	0xbd84f73d	-0.064924695
181	0xbd9a1e32	-0.075252905
182	0xbc0b051a	-0.008485103
183	0xbd09985d	-0.03359257
184	0x3d6f8f83	0.058486473
185	0x3c0d4280	0.008621812
186	0x3d9fdbc0	0.07805586
187	0x3c998540	0.018740296
188	0xbd03b627	-0.032156136
189	0x3d8ab7ca	0.06773336
190	0x3bb30f9a	0.0054645063
191	0x3c99c1cd	0.01876917
192	0xbd03bc93	-0.03216226
193	0x39bc2800	0.00035887957
194	0xbc9d829a	-0.019227315
195	0xbc0b4ada	-0.008501733
196	0xbd9fb823	-0.07798793
197	0xba213733	-0.0006149888
198	0xbda9fe3a	-0.08300443
199	0xbcb03c33	-0.02151308
200	0x3d875c30	0.0660938
201	0xbd9f728f	-0.07785522
202	0xbd9b2e39	-0.07577176
203	0xbcc80787	-0.024417652
204	0xbd1283be	-0.03577017
205	0x3c8aae27	0.016928745
206	0x3cd73e30	0.02627477
207	0x3d4fb4ed	0.050709654
208	0xbd8d152f	-0.06888806
209	0xbc7cd399	-0.015431308
210	0x3d6ecc67	0.058300402
211	0x3d9ff553	0.07810464
212	0xbc7fc933	-0.0156119345
213	0xbd87a6a9	-0.06623585
214	0x3ca6dc81	0.020368816
215	0x3d46fe0d	0.048582125
216	0xbd7fe5c7	-0.062474992
217	0xbd6db02d	-0.058029342
218	0x3d350ae0	0.044199824
219	0xbbe5979a	-0.0070065977
220	0xbdd2720d	-0.1027566
221	0xbd873924	-0.066026956
222	0x3d261b33	0.040553283
223	0xbd2d1893	-0.042259764
224	0x3d8d5be2	0.06902291
225	0x3da1e70f	0.07905399
226	0x3bcb0cfe	0.006196617
227	0xbc018e5a	-0.007907474
228	0xbd243ae8	-0.04009524
229	0xbba5b1b3	-0.005056584
230	0x3c213a76	0.009840598
231	0xbdab574b	-0.08366259
232	0xbc7497ef	-0.014928802
233	0xbdbb8084	-0.09155372
234	0x3d7b64dd	0.061375488
235	0xbd826c90	-0.06368363
236	0x3daa13b0	0.08304536
237	0xbd0bd6db	-0.03414045
238	0xbd6aa653	-0.057287525
239	0x3d228bf5	0.039684255
240	0x3bd686f9	0.0065468517
241	0x3d797576	0.060903035
242	0x3d2afee0	0.041746974
243	0xbdc54abb	-0.09633394
244	0x3d9352bf	0.07193517
245	0xbc9a4447	-0.018831385
246	0xbd564e8f	-0.052321013
247	0x3d61d48a	0.055134334
248	0x3d84361f	0.06455635
249	0xbdc4f146	-0.09616332
250	0xbc8e5f31	-0.017379375
251	0x3da82ee0	0.08212066
252	0x3cf8c12e	0.030365553
253	0x3dc05f43	0.0939317
254	0xbd0c5e90	-0.03426987
255	0xbd81fedd	-0.063474394

nn_model.2.bias f4 [100]
0	0x3d0605ce	0.03272038
1	0xb97c5ccd	-0.00024067164
2	0xbd9dc29e	-0.07703136
3	0x3d4a1af3	0.049342107
4	0xbd9c02ad	-0.07617698
5	0x3d1b1ed2	0.03787119
6	0xbd946cdd	-0.072473265
7	0xbd231133	-0.039811324
8	0xbbc46a23	-0.005994098
9	0x3cfd1f11	0.030898603
10	0xbdcccf49	-0.10000474
11	0x3d6f19e9	0.05837432
12	0x3d05c00e	0.03265386
13	0xbd8276aa	-0.063702896
14	0x3d1c1364	0.03810443
15	0xbd58c660	-0.05292356
16	0xbd281837	-0.041038718
17	0xbc8a129a	-0.016854573
18	0x3d632888	0.055458575
19	0x3b6f9533	0.0036557436
20	0xbd90f99b	-0.070788585
21	0x3d8990fc	0.06717107
22	0x3c452a71	0.012034045
23	0xbd9bc7c7	-0.07606464
24	0x3d0734bd	0.03300928
25	0xbda7be2f	-0.081905715
26	0x3d6c8976	0.05774828
27	0x3d82f149	0.06393678
28	0x3d8bf940	0.0683465
29	0xbdb7e623	-0.08979442
30	0x3d6a56f4	0.05721183
31	0xbc167273	-0.00918256
32	0xbcb17567	-0.021662427
33	0x3d350959	0.044198368
34	0xbdb85fe8	-0.09002668
35	0xbd008646	-0.031378053
36	0xbdba9aab	-0.09111532
37	0xbd104e0a	-0.035230674
38	0x3cb594d3	0.022165691
39	0x3d44860c	0.0479794
40	0x3d9009fc	0.07033154
41	0xba8ff3bf	-0.0010982676
42	0xbc8b7a3f	-0.017026065
43	0x3d69f411	0.057117525
44	0xbd5b8002	-0.053588875
45	0xbdc2e782	-0.09516813
46	0xbd02d6fe	-0.031943314
47	0xbd55a610	-0.052160323
48	0x3dcf5b7d	0.10124872
49	0x3cf29181	0.029610397
50	0x3c76cfa1	0.015064151
51	0x3d8a470a	0.06751831
52	0xbd6ab351	-0.057299916
53	0xbd570373	-0.052493524
54	0xbdbdd840	-0.09269762
55	0xbc4f4b63	-0.012652251
56	0xbd908ddb	-0.07058307
57	0xbb8d431a	-0.0043109776
58	0xbd8048e8	-0.06263906
59	0x3d622397	0.055209722
60	0xbdadbd6a	-0.084833935
61	0xbd512236	-0.051058017
62	0x3d74347a	0.059620358
63	0x3d90cedb	0.070707045
64	0xbb856ec7	-0.0040720436
65	0xbd34f03b	-0.044174414
66	0xbdd6360f	-0.104595296
67	0x3dd5eb00	0.10445213
68	0x3aff12cd	0.0019460559
69	0xbc8b7813	-0.01702503
70	0xbc81808e	-0.01580837
71	0xbd0bed77	-0.03416201
72	0x3d429bf8	0.047512025
73	0xbd87c4ec	-0.06629357
74	0xbc9b388c	-0.018947862
75	0x3d64a0bb	0.055817347
76	0xbcb51f33	-0.022109604
77	0x3da9beb9	0.082883306
78	0x3d7b59d2	0.061364956
79	0xbdc3cf8c	-0.09561071
80	0x3d00f7ab	0.031486195
81	0xbc07fe8d	-0.008300436
82	0xbcabc3ae	-0.02096733
83	0xbd3f8bc0	-0.046764135
84	0x3da16377	0.078802995
85	0x3d70ef9a	0.05882225
86	0x3db7ca9a	0.0897419
87	0x3dde5355	0.10855738
88	0x3d959f82	0.07305814
89	0xbd2cbd8f	-0.042172965
90	0x3d43bf10	0.047789633
91	0xbc1fb6fe	-0.009748219
92	0x3deb4406	0.11487584
93	0x3df96686	0.12177758
94	0x3da8559f	0.08219456
95	0x3cacf339	0.021112071
96	0xbd994959	-0.07484693
97	0xbd24547d	-0.040119637
98	0xbc8cf012	-0.017204318
99	0xbd889543	-0.066690944

nn_model.4.weight f4 [100, 100]
0	0x3e1a3aeb	0.15061538
1	0xbd56c417	-0.0524331
2	0xbc0a7f8f	-0.008453264
3	0xbce3a90d	-0.02779057
4	0x3d0992e4	0.03358735
5	0xbd368300	-0.044558525
6	0x3b587533	0.003302884
7	0x3df1b877	0.11802762
8	0x3cd7b9c7	0.026333703
9	0x3d29843d	0.041385878
10	0x3d4e8385	0.050418396
11	0x3df6ffa2	0.12060477
12	0xbd90c6aa	-0.07069142
13	0xbc7f685f	-0.015588849
14	0xbd5f9508	-0.054585487
15	0xbd93f058	-0.07223576
16	0xbdd91db6	-0.1060137
17	0x3d057603	0.032583248
18	0x3e005528	0.12532485
19	0x3bd6fdb3	0.006561005
20	0x3c0a8040	0.008453429
21	0xba7cef39	-0.0009648684
22	0xbd6dc503	-0.058049213
23	0x3debb3df	0.11508917
24	0x3d2258dd	0.039635528
25	0xbdaf57d3	-0.08561673
26	0x3cf79b0d	0.030225301
27	0x3e04c605	0.12966163
28	0x3db0afb1	0.086272605
29	0x3e04030c	0.12891787
30	0x3ddd6757	0.10810726
31	0x3da6ad7b	0.081385575
32	0xbcaaca73	-0.020848488
33	0x3cd41c6a	0.025892455
34	0x3d0ec0b7	0.034851756
35	0xbd402b0a	-0.046916045
36	0x3d08283a	0.033241488
37	0xbd795cd3	-0.06087954
38	0x3d941281	0.07230092
39	0x3da3ea44	0.08003667
40	0x3df8731b	0.121313296
41	0x3dfba6d9	0.12287683
42	0x3e01a922	0.12662175
43	0xbdab76a6	-0.0837224
44	0xbd97c12e	-0.07409893
45	0xbdae6b28	-0.08516532
46	0x3d86e07f	0.06585788
47	0x3e0e18e0	0.13876677
48	0x3dc62ed1	0.09676898
49	0x3d886e1b	0.06661626
50	0x3df9e59e	0.12201999
51	0xbd0caaa5	-0.034342427
52	0xbc5df878	-0.013548009
53	0xbda8bb3f	-0.08238839
54	0xbd92bb9e	-0.071646914
55	0xbd85a35b	-0.06525298
56	0x3d70a46a	0.058750547
57	0xbce3a093	-0.027786529
58	0x3caa7d28	0.020811632
59	0x3dd6fe27	0.104976945
60	0x3d594860	0.053047538
61	0x3d826029	0.06365997
62	0xbd64ad99	-0.055829618
63	0x3dbdde32	0.09270896
64	0x3da91c04	0.08257297
65	0xbd55f6b7	-0.05223724
66	0x3c10e9db	0.008844818
67	0xbdb85a0f	-0.09001552
68	0xbccd254d	-0.0250422
69	0x3cb09da0	0.021559536
70	0xbdbdb79e	-0.09263538
71	0xbd2a01d3	-0.041505646
72	0x3d2f7298	0.042833894
73	0x3e0d27ef	0.13784765
74	0xbcdefbfa	-0.027219761
75	0x3de284aa	0.1106046
76	0xbda0bf13	-0.078489445
77	0xbcfc1b79	-0.030774819
78	0x3dc17cab	0.09447607
79	0xbcbc0a6e	-0.022954192
80	0x3da0af71	0.07845963
81	0xbd76348a	-0.0601087
82	0x3d4ff5fc	0.0507717
83	0xbcb53efa	-0.022124756
84	0x3d18faf1	0.03734869
85	0x3d1731da	0.036912777
86	0x3cfed35a	0.03110664
87	0x3dfa8a78	0.12233442
88	0x3c8285dc	0.01593297
89	0xbcfbf4ee	-0.03075644
90	0x3d987862	0.07444836
91	0x3cde04c4	0.027101882
92	0xbd93d949	-0.07219178
93	0xbd0e5c86	-0.034756206
94	0x3d7cc57a	0.061711766
95	0x3dbf8a54	0.09352556
96	0xbb7990ef	-0.0038080772
97	0x3d92ae7f	0.07162189
98	0x3d370712	0.044684477
99	0x3dbd8bb9	0.092551656
100	0x3d15bd82	0.03655768
101	0x3d42960a	0.04750637
102	0xbcf7d0cf	-0.030250935
103	0xbdafa0df	-0.085756056
104	0xbc945d48	-0.018110886
105	0x3d7c31d3	0.061570954
106	0xbd4e22b0	-0.05032605
107	0x3dbd3881	0.09239293
108	0x3e29cac8	0.16581261
109	0x3d7ff34e	0.062487893
110	0x3d96e611	0.073681004
111	0xbd4ec6a7	-0.05048242
112	0x3d3479e9	0.044061575
113	0x3ceb98cb	0.02875938
114	0x3d115ad2	0.035487004
115	0xbd995187	-0.07486253
116	0x3db6fe3e	0.089352116
117	0x3d2494fa	0.040181138
118	0x3e131e44	0.14367014
119	0xbc45e673	-0.012078869
120	0xbd31b393	-0.043384146
121	0x3ddabb5a	0.10680266
122	0xbd80dadb	-0.06291743
123	0x3d589b74	0.052882627
124	0xbd7b4863	-0.06134833
125	0x3d92bbab	0.07164701
126	0x3d96c50f	0.07361805
127	0xbe498c3e	-0.19682404
128	0xbde0ef4a	-0.10983141
129	0x3d7588e5	0.059945006
130	0xbe0a35ca	-0.13497081
131	0x3dbc5f07	0.091978125
132	0x3d2a8243	0.041628134
133	0xbd839559	-0.0642497
134	0x3dad1858	0.08451909
135	0xbd1c51c2	-0.038163908
136	0x3d37bf87	0.04486039
137	0x3d28a73a	0.041175105
138	0xbc6c12f4	-0.014408816
139	0xbd0fcfbe	-0.035110228
140	0xbc821b82	-0.015882257
141	0xbde0ffc4	-0.109862834
142	0x3dee1d78	0.116267145
143	0xbdaa6c4f	-0.083214395
144	0x3cae43f1	0.021272631
145	0x3d98ff4b	0.07470568
146	0xbc1729fa	-0.009226317
147	0xbe647de1	-0.22313644
148	0x3d68896d	0.056771684
149	0x3e1ae0cc	0.15124816
150	0x3c958439	0.018251525
151	0xbd2ab185	-0.041673202
152	0x3dc34253	0.09534135
153	0x3d84537f	0.06461238
154	0x3d3d9df6	0.04629322
155	0x3d87e050	0.06634581
156	0x3d986530	0.07441175
157	0x3dbfb285	0.09360222
158	0xbd99dfe1	-0.07513405
159	0x3dabda76	0.083912775
160	0x3d9acaaf	0.0755819
161	0x3df9dc41	0.12200213
162	0x3d50331f	0.050830003
163	0x3da5f359	0.081030555
164	0x3d8102b0	0.06299341
165	0x3d89f885	0.067368545
166	0x3e159907	0.14609157
167	0xbd954777	-0.072890215
168	0x3d5ae730	0.053443134
169	0x3da1b8b7	0.0789656
170	0x3bbe22c0	0.0058024824
171	0x3e0a9a5d	0.13535447
172	0x3e1267c8	0.14297402
173	0x3dbe5865	0.09294204
174	0xbccd5d02	-0.025068764
175	0xbbb96595	-0.0056578615
176	0x3d223130	0.03959769
177	0xbc456fcc	-0.01205058
178	0xbe2bc654	-0.16774875
179	0xbc4a39e9	-0.012342908
180	0x3d820677	0.06348889
181	0xbcaefae0	-0.02135986
182	0xbcea1bb9	-0.028577672
183	0x3dafaac5	0.085774936
184	0x3c945c3b	0.018110385
185	0x3d2620a0	0.040558457
186	0x3d8e67dd	0.06953404
187	0x3da21180	0.07913494
188	0x3c00267d	0.007821676
189	0x3dc747ac	0.09730467
190	0xbbee99e7	-0.00728153
191	0xbe3167d2	-0.1732476
192	0xbe2f2fc2	-0.17108062
193	0x3c92af65	0.0179059
194	0xbd84af38	-0.06478733
195	0x3e1759fd	0.14780422
196	0x3da6b70d	0.08140383
197	0xbd9eff93	-0.07763591
198	0x3ce3d351	0.027810724
199	0x3e1fcae5	0.15604742
200	0x3c79f96e	0.015257223
201	0xbc966cc7	-0.018362416
202	0xbd6bdf0b	-0.057585757
203	0xbd57043d	-0.052494276
204	0x3c92cc33	0.017919635
205	0x3c4cbb50	0.012495831
206	0xbd89701a	-0.06710835
207	0x3ad17103	0.0015979115
208	0x3d6dbdff	0.058042523
209	0x3cf694bf	0.030100225
210	0x3c548e03	0.012973311
211	0x3c2670fb	0.010158773
212	0xbd30c352	-0.043155022
213	0x3d466c84	0.048443332
214	0x3e20b828	0.1569525
215	0x3c931dc0	0.017958522
216	0xbe38fc61	-0.18065025
217	0x3d1361fa	0.03598211
218	0xbd62b656	-0.05534967
219	0xbdbf0d22	-0.09328677
220	0x3d916048	0.07098442
221	0x3d4aa0be	0.049469702
222	0x3d177abb	0.03698228
223	0x3d8e1505	0.06937603
224	0xbd1a841d	-0.03772365
225	0x3d019d93	0.031644415
226	0xbdd69b63	-0.104788564
227	0x3d62a118	0.055329412
228	0xbd14acec	-0.036297724
229	0x3c96e93e	0.018421765
230	0x3e0476b5	0.12935908
231	0x3c840ce7	0.016119434
232	0xbd4c1703	-0.049826633
233	0x3e0c93da	0.13728276
234	0x3d6f9870	0.058494985
235	0x3d20499f	0.03913271
236	0x3b84794d	0.0040427805
237	0x3dbda6a7	0.09260302
238	0xbd6e1a11	-0.058130328
239	0xbd858e4c	-0.065212816
240	0x3e266d76	0.16252694
241	0x3e21ee38	0.1581353
242	0x3d0d3011	0.034469668
243	0x3d8f2b7f	0.06990718
244	0xbca61e0b	-0.020277997
245	0xbcb87153	-0.022514975
246	0x3da0c536	0.07850115
247	0x3ea1dafa	0.31612378
248	0xbdb19447	-0.0867086
249	0xbb88b64c	-0.004172122
250	0x3d259297	0.040423002
251	0xbd0095ac	-0.03139274
252	0xbe041ab9	-0.12900819
253	0x3d3bf49a	0.045887567
254	0xbd8ae28a	-0.0678149
255	0x3d839f6f	0.06426894

nn_model.4.bias f4 [100]
0	0xbbf3ec0c	-0.0074439105
1	0xbd24be00	-0.04022026
2	0x3e044e92	0.12920597
3	0x3d9a8a20	0.075458765
4	0xbdc362a8	-0.095403016
5	0x3dbf7063	0.09347608
6	0x3dd688fe	0.10475348
7	0xbdc25077	-0.09488004
8	0x3d856faf	0.065154426
9	0xbcd81e31	-0.026381584
10	0xbd4dd504	-0.050251976
11	0xbd75594f	-0.059899624
12	0xbdc426ef	-0.095777385
13	0xbda10461	-0.07862163
14	0x3dd73625	0.10508374
15	0xbc86af46	-0.016440999
16	0xbb787767	-0.0037912966
17	0x3babacbc	0.0052390974
18	0x3db056bf	0.086102955
19	0xbc44e0f3	-0.012016523
20	0x3d329aec	0.043604776
21	0xbd0ea32d	-0.034823585
22	0x3d87aac7	0.0662437
23	0xbcce63b0	-0.02519402
24	0x3df32bf9	0.118736215
25	0x3c91ecda	0.017813135
26	0xbd589f87	-0.052886512
27	0x3d5a0707	0.053229358
28	0x3dc1aa89	0.09456355
29	0x3bb1879a	0.0054177763
30	0x3c3c81ed	0.011505586
31	0x3d405e1d	0.046964753
32	0x3b9f009a	0.0048523666
33	0x3cd3fbfa	0.025876988
34	0x3dc7fea1	0.097653635
35	0x3d482255	0.048860867
36	0x3c9610c7	0.018318547
37	0x3d2ba528	0.041905552
38	0x3a7a8ab5	0.0009557412
39	0xbd47e156	-0.04879888
40	0x3d81289c	0.06306574
41	0x3d836807	0.06416326
42	0x3d2045f3	0.03912921
43	0x3c9a748e	0.018854406
44	0x3d4b43c2	0.049625166
45	0xbd81d569	-0.06339533
46	0x3d17da6f	0.03707355
47	0x3c2c6735	0.010522653
48	0xbd25c453	-0.040470432
49	0xbdac4019	-0.08410663
50	0xbc1ea940	-0.009683907
51	0x3dae074b	0.08497485
52	0xbd5858d3	-0.052819084
53	0x3d4818ad	0.048851658
54	0xbd1d85cc	-0.038457677
55	0xbbbea170	-0.0058175847
56	0x3da63fd6	0.081176445
57	0xbcf92c31	-0.03041658
58	0x3db72858	0.08943242
59	0x3da661ba	0.081241086
60	0x3ca9d847	0.020733012
61	0xbd27c6e7	-0.040961172
62	0x3c46759d	0.012113002
63	0x3dc1c798	0.094618976
64	0xbd9ab8e8	-0.07554799
65	0x3df3fec1	0.11913825
66	0x3d96ff57	0.07372921
67	0xbd4360bb	-0.04769967
68	0x3dd59865	0.104294576
69	0x3c3172fc	0.010830637
70	0xbc81747a	-0.01580261
71	0xbd85c3a0	-0.06531453
72	0x3d9dd667	0.077069096
73	0xbd9100db	-0.07080241
74	0xbd865b6d	-0.06560407
75	0x3a4b1a67	0.00077477697
76	0x3b9df165	0.0048200362
77	0xbd4a41bf	-0.049379107
78	0x3d0be644	0.034155145
79	0xbcdb75a7	-0.0267895
80	0x3d385af3	0.04500861
81	0xbc89d3f0	-0.016824692
82	0xbcf9fb39	-0.0305153
83	0xbdc37fe7	-0.0954588
84	0x3df177d1	0.11790431
85	0x3d739bdd	0.059474815
86	0x3e04ca22	0.12967733
87	0xbd98c290	-0.07458985
88	0x3b1bee2d	0.0023793087
89	0xbcf33481	-0.029688122
90	0xbd3ccea2	-0.046095498
91	0xbc370919	-0.011171603
92	0x3d11b1e1	0.03557003
93	0x3d559aea	0.05214969
94	0xbda3632e	-0.079779014
95	0xbda63408	-0.08115393
96	0x3df33b94	0.11876598
97	0x3d879af0	0.06621349
98	0x3d2af27c	0.041735157
99	0x3dfd2a50	0.12361586

allocation_head.0.weight f4 [4, 100]
0	0x3c913848	0.017727032
1	0x3dcce59f	0.10004734
2	0xbd785c76	-0.060635053
3	0xbc886d5c	-0.01665371
4	0x3db8e94b	0.09028872
5	0x3cdbacad	0.026815737
6	0xbc61c1bb	-0.013779099
7	0x3da2623f	0.07928895
8	0x3ba28827	0.0049600783
9	0x3c883c41	0.016630294
10	0x3e634e9e	0.22197959
11	0xbd5a02c6	-0.0532253
12	0xbdc3a7c7	-0.09553485
13	0xbd823182	-0.06357099
14	0xbd18d679	-0.037313912
15	0xbc59cea0	-0.013293892
16	0x3d21ede7	0.039533522
17	0x3d902671	0.07038582
18	0xbda96e9f	-0.082730524
19	0x3c5d0e00	0.013492107
20	0x3dd5d0b8	0.104402006
21	0x3ddeccb7	0.1087889
22	0xbcd0d01b	-0.025489857
23	0x3dda00a2	0.10644652
24	0xbd3aa805	-0.045570392
25	0xbcd1fa4c	-0.025632046
26	0x3e22b533	0.15889435
27	0xbdbdfca5	-0.09276704
28	0xbd28a111	-0.04116923
29	0xbccf649a	-0.025316525
30	0xbc127a18	-0.008940242
31	0x3d0b02d2	0.033938237
32	0xbd84bf48	-0.064817965
33	0xbdcae003	-0.09906008
34	0xbdaaf92b	-0.08348306
35	0xbdb3b4c7	-0.08774715
36	0xbe1404cc	-0.14454955
37	0x3e405d14	0.18785506
38	0x3e18e036	0.1492928
39	0x3d521d23	0.05129732
40	0xbd453997	-0.048150625
41	0xbd035840	-0.032066584
42	0x3c28af54	0.010295708
43	0xbdec2e4a	-0.115322664
44	0xbdb29d5f	-0.087214224
45	0xbd6bb9f9	-0.057550404
46	0x3d9b6357	0.07587307
47	0x3d96f574	0.07371035
48	0xbd35a7d3	-0.044349503
49	0x3b8207b5	0.003968204
50	0x3d930fb1	0.07180727
51	0x3dc373d5	0.095435776
52	0xbe6762cf	-0.22596286
53	0x3c345bbe	0.011008201
54	0x3d730a2f	0.059335884
55	0xbded7e1d	-0.1159632
56	0x3cef3634	0.02920065
57	0xbe3674b9	-0.17817964
58	0xbd629486	-0.055317424
59	0xbde45c94	-0.111504704
60	0x3db7b737	0.08970492
61	0x3d24b993	0.04021604
62	0xbdc84631	-0.09779013
63	0x3a819998	0.0009887693
64	0x3d94da86	0.072682425
65	0xbda9a83d	-0.08284042
66	0xbcc0d349	-0.023538249
67	0x3d82bc90	0.06383622
68	0x3d6d8bbb	0.057994585
69	0x3dc458fe	0.095872864
70	0xbd9dd2df	-0.07706236
71	0xbecb62e2	-0.3972388
72	0x3d997a60	0.07494044
73	0x3da9afda	0.08285494
74	0x3da7cbb7	0.081931524
75	0x3db4b4e8	0.08823568
76	0xbd7904c4	-0.06079556
77	0xbe1bfbb9	-0.15232743
78	0x3d8c1ecf	0.06841814
79	0xbd801fbd	-0.062560536
80	0xbe08f3b3	-0.13374214
81	0x3e12ea78	0.14347255
82	0x3dd0c1a0	0.10193181
83	0xbdbffeb8	-0.093747556
84	0xbd2728d4	-0.04081042
85	0xbd5d8e0f	-0.054090556
86	0xbd984577	-0.07435124
87	0xbd3b7f4a	-0.04577569
88	0x3caba598	0.020952985
89	0xbe038c5a	-0.12846509
90	0x3dba6d45	0.09102873
91	0x3d4f5998	0.050622553
92	0x3d80c6f2	0.06287946
93	0x3db9d253	0.09073319
94	0xbdb8b164	-0.090182096
95	0xbd790540	-0.060796022
96	0x3c2ad31c	0.010426309
97	0x3c670489	0.014100202
98	0xbdbd1442	-0.092323795
99	0xbd94d5ff	-0.07267379
100	0x3e0fa708	0.14028561
101	0x3e1486da	0.14504567
102	0xbd1dfee1	-0.03857315
103	0xbbe7db33	-0.007075691
104	0xbeb0a360	-0.34499645
105	0xbaeb9733	-0.0017974138
106	0xbd95b9c7	-0.07310825
107	0xbd9df94f	-0.077135675
108	0x3c943509	0.018091695
109	0x3bab48c3	0.0052271797
110	0x3e56b555	0.2096761
111	0x3dc3bcdc	0.095575064
112	0xbd7941f3	-0.06085391
113	0x3e491ea9	0.19640602
114	0x3d8831bf	0.06650113
115	0xbdaab79d	-0.08335803
116	0xbccbe2d3	-0.024888432
117	0x3d2bb09f	0.041916486
118	0x3c5756f3	0.013143289
119	0x3d989da8	0.074519455
120	0x3d82aeca	0.063809946
121	0x3d95d38d	0.07315741
122	0xbd853668	-0.06504518
123	0x3ccfce37	0.025366886
124	0xbdf88188	-0.12134081
125	0xbd9c898f	-0.07643425
126	0xbca850a6	-0.020546269
127	0xbd47858a	-0.048711337
128	0xbd1b7574	-0.03795381
129	0xbda7dbc8	-0.08196217
130	0x3d803652	0.06260361
131	0x3d8f8828	0.070083916
132	0xbd856b92	-0.06514658
133	0xbcb9fa34	-0.022702314
134	0x3dabcc8b	0.08388623
135	0xbb8f394d	-0.0043708445
136	0xbdc942f7	-0.09827226
137	0xbcd49a2d	-0.025952423
138	0xb9f1b74a	-0.00046103663
139	0x3d8d0898	0.06886405
140	0x3e080f20	0.1328702
141	0x3da8bcfc	0.08239171
142	0x3db50786	0.088393256
143	0xbcb46592	-0.022021089
144	0xbddc0a96	-0.107442066
145	0xbda6565e	-0.08121942
146	0x3d918d70	0.07107055
147	0xbc543eb2	-0.012954401
148	0xbd4b9717	-0.049704637
149	0xbd8ebe2a	-0.06969865
150	0xbdaec265	-0.085331716
151	0xbdbd7048	-0.092499316
152	0xbe98b647	-0.29826567
153	0x3d73711d	0.059434045
154	0x3d809bbc	0.06279704
155	0xbe016364	-0.12635571
156	0x3d985e89	0.07439906
157	0xbdedff5c	-0.116209716
158	0xbc2534b9	-0.010083371
159	0xbe018224	-0.12647301
160	0x3c7f37ef	0.0155773
161	0xbca0d80d	-0.019634271
162	0xbdc6cf50	-0.097075105
163	0xbdf215fc	-0.118205994
164	0xbbd0397e	-0.00635451
165	0xbdb07d64	-0.08617666
166	0xbd902779	-0.07038779
167	0x3dd6605f	0.104676
168	0xbdc7b74c	-0.09751758
169	0x3bf1c002	0.0073776254
170	0x3db41ae8	0.087941945
171	0xbea7d88a	-0.32782394
172	0x3e05b18d	0.13056011
173	0x3d145693	0.036215376
174	0xbdc34315	-0.09534279
175	0x3d819390	0.063269734
176	0xbdca7c5f	-0.09887003
177	0xbcca7e03	-0.02471829
178	0x3e0957a2	0.13412336
179	0xbda57f77	-0.080809526
180	0xbc1279eb	-0.0089402
181	0x3d0ef3d7	0.034900513
182	0x3dd6e84c	0.10493526
183	0x3d0aee93	0.03391893
184	0x3c72e9b0	0.014826223
185	0x3c8da9d0	0.017292887
186	0xbd6c36aa	-0.05766932
187	0xbcac4840	-0.021030545
188	0xbdcb8c18	-0.0993883
189	0x3cf4460d	0.029818559
190	0x3e04a5cc	0.12953871
191	0x3e2dac98	0.1696037
192	0xbda2b02b	-0.079437576
193	0x3db1b434	0.08676949
194	0xbd7c9cab	-0.061672848
195	0xbd6178fa	-0.055047013
196	0xbdb24468	-0.08704454
197	0x3df56c73	0.11983576
198	0x3ccdbb56	0.025113743
199	0xbc1ccd91	-0.009570495
200	0xbc69c81f	-0.014268904
201	0x3c93f152	0.018059406
202	0xbdc73104	-0.09726146
203	0xbe009b0a	-0.12559143
204	0xbe3f5afc	-0.18687052
205	0x3d8f58ab	0.06999334
206	0xbcc5d385	-0.024148712
207	0x3dacbf1a	0.08434887
208	0x3cb6e5ac	0.022326313
209	0x3cb8446c	0.022493564
210	0xbe81820e	-0.25294536
211	0x3c621c02	0.013800623
212	0x3c4d9067	0.012546635
213	0xbcd0d3d6	-0.025491636
214	0xbb9717d0	-0.004610993
215	0x3cf3c5f8	0.029757485
216	0xbda03213	-0.07822051
217	0xbd809b8a	-0.06279667
218	0x3dc3f6dc	0.09568569
219	0xbe0d8282	-0.13819316
220	0xbd9a2265	-0.075260915
221	0x3d95dc22	0.073173776
222	0x3d2812c8	0.041033536
223	0xbcebcc8a	-0.028784055
224	0xbd6a53ee	-0.057208948
225	0x3daf9e58	0.085751235
226	0xbe0eecb9	-0.1395749
227	0xbce88aa7	-0.028386427
228	0xbd62a838	-0.055336207
229	0xbc72a05a	-0.014808739
230	0xbced2005	-0.028945932
231	0x3e0a2e6f	0.13494276
232	0x3c4c8933	0.012483883
233	0x3e1204ae	0.14259598
234	0x3d992ba2	0.074790254
235	0xbd8d9436	-0.069130346
236	0x3e062bac	0.13102597
237	0xbe30ba15	-0.17258485
238	0xbe169533	-0.14705352
239	0x3cd9c2f3	0.026582217
240	0x3db1019f	0.08642887
241	0x3d64a499	0.055821035
242	0xbcd175b6	-0.025568824
243	0x3cb52706	0.022113334
244	0x3d8811a9	0.066439934
245	0xbdb9c714	-0.09071174
246	0x3d73ca16	0.059518896
247	0xbdc83bdd	-0.09777043
248	0x3ab4a667	0.0013782502
249	0xbcc9580c	-0.024578117
250	0xbd77e245	-0.06051852
251	0x3c8cdc23	0.017194813
252	0x3eb25a1b	0.3483437
253	0xbcdafaad	-0.02673086
254	0xbd5395f1	-0.051656667
255	0x3ca4a6dc	0.020099096

allocation_head.0.bias f4 [4]
0	0x3d44610c	0.047944114
1	0xbb8b9dc5	-0.004260751
2	0xbcffa989	-0.03120877
3	0x3dd42bbb	0.103599034

payment_head.0.weight f4 [1, 100]
0	0x3ce1a830	0.027546018
1	0xbe0af7e5	-0.13571127
2	0x3e6ff847	0.23434554
3	0x3e059e53	0.13048677
4	0xbe086e52	-0.13323334
5	0x3d66422d	0.056215454
6	0xbd90db87	-0.070731215
7	0xbc806160	-0.015671432
8	0x3e11a0f1	0.1422155
9	0x3c59949b	0.013280059
10	0xbd0b8b9d	-0.034068692
11	0x3e63d823	0.22250418
12	0xbcde5e2d	-0.027144516
13	0xbc5a4f2a	-0.013324538
14	0x3df8b144	0.12143186
15	0x3e15e443	0.14637856
16	0x3baf70e7	0.005354035
17	0xbe242b93	-0.16032247
18	0x3e0bf59a	0.13667908
19	0x3d5a0d83	0.053235542
20	0x3e0c1851	0.13681151
21	0xbdfc940e	-0.12332927
22	0x3e9cbac5	0.30611244
23	0xbda86db6	-0.08224051
24	0x3def5ff3	0.11688223
25	0x3e12e681	0.14345743
26	0xbd86a9df	-0.06575369
27	0x3d184263	0.037172686
28	0x3e45eefd	0.19329448
29	0x3bd6eb80	0.0065588355
30	0xbdef90d5	-0.116975464
31	0xbd28c136	-0.041199885
32	0x3cb2e247	0.021836413
33	0x3ed9bc09	0.42526272
34	0x3e1a1e74	0.1505068
35	0xbdc60735	-0.096693434
36	0xbd837103	-0.0641804
37	0xbe1a8b36	-0.15092167
38	0xbd1f422b	-0.038881462
39	0x3d7f6c6d	0.062359262
40	0xbdde86d9	-0.10865564
41	0x3d870565	0.06592826
42	0xbd0a213d	-0.033723105
43	0x3e2bfca2	0.1679559
44	0x3e1426f6	0.14467987
45	0x3e33a687	0.17543994
46	0x3e0c6dfc	0.1371383
47	0x3dcf0764	0.101088315
48	0x3dcb9200	0.09939957
49	0x3d3044c8	0.043034345
50	0xbd97eeaa	-0.074185684
51	0x3e0fed65	0.14055403
52	0xbd4031c3	-0.046922456
53	0x3d75c8dd	0.06000601
54	0xbd9d9abe	-0.0769553
55	0x3e81fc3f	0.2538776
56	0xbe3ac54f	-0.1823933
57	0x3ebf688d	0.37384453
58	0x3e1072c9	0.14106287
59	0xbdaab74a	-0.08335741
60	0x3ce5255e	0.02797192
61	0x3d5be047	0.053680684
62	0x3e2126b2	0.15737417
63	0x3eae6046	0.34057826
64	0xbd9daaba	-0.07698579
65	0xbba8cf62	-0.005151675
66	0x3e79203a	0.243287
67	0x3de3cfcd	0.11123619
68	0x3e0d2488	0.13783467
69	0xbd47d74c	-0.048789307
70	0x3d0f9ccd	0.035061646
71	0x3c850973	0.016239857
72	0xbdfc968f	-0.12333404
73	0x3d3f1f63	0.046660792
74	0xbd586c8c	-0.052837893
75	0x3d450e8a	0.04810957
76	0xbca3999a	-0.019970704
77	0xbec582b9	-0.38576296
78	0xbe10396c	-0.14084405
79	0x3d55bef7	0.05218407
80	0x3e26067f	0.16213416
81	0x3db61238	0.08890194
82	0x3ceadd4c	0.028669976
83	0x3d4a0e48	0.049330026
84	0x3d5c881b	0.053840738
85	0x3e622615	0.2208484
86	0x3e1fb748	0.1559726
87	0x3c59be8d	0.01329006
88	0x3d1d98d0	0.03847581
89	0x3e3ec066	0.18628082
90	0x3de01009	0.109405585
91	0xbbe14fa7	-0.0068759504
92	0xbd76ef08	-0.06028655
93	0xbdb35bfd	-0.0875778
94	0x3da36a99	0.07979316
95	0x3db80911	0.08986104
96	0x3e57e503	0.21083455
97	0x3e6867a1	0.22695781
98	0x3e19338d	0.14961071
99	0x3e1971b1	0.14984776
