result/1x2_sparsemax_in_linsigpmt_scratch_4_checkpoint.pt (torch, 88519 bytes, 9 tensors)

nn_model.0.weight f4 [100, 2]
00000000: 95c4 e6be 0874 6d3e 3765 ac3e a3ca 43be
00000010: 55d7 2b3e a697 7cbe 8ba4 c63e 7f4d 66be
00000020: e8d7 84be 2418 233e d89c 923e 3b98 a0be
00000030: d1f1 c53d 9503 de3e 2e16 90bd 7e5c 5c3e
00000040: 55a3 2ebe f1c9 7d3e c275 01bf 63b1 d3be
00000050: e3f8 d2be 922b 203f 314c 0bbe f6f4 ea3c
00000060: 0ecc acbe 9604 373f 44e3 243f 1304 11bf
00000070: b3a2 03bf 2e44 febe f956 8ebd c898 6ebe
00000080: 89f8 ecbe 6ada 81be 7e58 f73d 2dcd c2be
00000090: 6171 203e dd0a 26be 406e afbe 97f4 c63d
000000a0: cea9 193f 13ee e1be 1e21 03bd 8a2e 95be
000000b0: 812d 343f 09f3 33bf b076 28bf 2fd8 393f
000000c0: e80e e5be 91d2 0a3e 1af8 79bd 2e88 18be
000000d0: 0d08 49be f60e d53e 4f6f 0a3d 393e 30bf
000000e0: 69b1 cfbe ab82 20be 0d2f b63e 9549 eabe
000000f0: ad6c 343f 45a1 fabd 123c 07be 6222 0f3f
00000100: d9c7 c33e 3fa7 1b3f a169 e03e d11e 40be
00000110: e233 f0be 877e 57bd 35c8 163f f9dd 5fbe
00000120: d444 2bbf 4f0f 7f3e aced 393f c528 2abe
00000130: 66e3 15bf 0232 24bf 59c4 193e 9f17 91bd
00000140: 896a d7be c299 ca3d c479 993e 4bda 173f
00000150: e47e 113f d87a 33bd ed9d 1fbf c192 23bf
00000160: fc93 373f 0ccc b23e b9d0 9d3e 2a9f 1cbf
00000170: bee8 333f 804c 373f c579 183f 5287 20bf
00000180: 5b7e 88be 64b3 f2be 4635 363f f52b 8cbe
00000190: da69 b1be 6ab7 b13e f079 a7be e34f b2be
000001a0: 4743 a8bd bd2a ccbd 7a6e 03bf ebda 283f
000001b0: ffb3 9fbe a66b 803e 2d1e 1e3f 44e9 bb3e
000001c0: 5796 0b3e 9df4 243f 84ab c23d e57f a7be
000001d0: c0e6 293f 6282 2d3e ad4f 29bf f015 51be
000001e0: 9550 e2be 2e99 273f 2228 efbd ee00 25bf
000001f0: 1baf afbd 9748 d93e 981d 3c3e daf4 643e
00000200: 02f1 f23d a695 a13e 81ed 21be 4032 92be
00000210: 4733 29bf 595e 08bf 3ff5 813e 86b4 e9be
00000220: abe3 be3d 4979 6a3e ee61 453c 0c15 f7be
00000230: 43eb 363f 679f acbe efb9 083f f160 20bf
00000240: fb2c 2ebe 10f0 c43e ac72 9cbe b3c9 193f
00000250: a623 f9be cf03 18bf 0b40 a3be 4518 ea3d
00000260: 989a 173f 3496 acbe 08ea 903e 6df7 27be
00000270: 32d7 f7bd 846d 0f3f 9549 0cbf 36d0 993d
00000280: 592e 373f e451 72bd 79d3 123f f27e 5abe
00000290: b6b6 113f 021b 2fbf 72c6 84bd 0d37 d0bd
000002a0: 6c2b 893e df72 9b3e 9435 163f 1989 77bd
000002b0: e64a 4b3c 1432 063f 5168 6ebe 60db 143f
000002c0: 4318 b7be 9d54 f5bb 5f0b b43c fca3 a83e
000002d0: dbfd 033f 5bf7 bcbd 94f8 15bf 2963 b33e
000002e0: aa0c 9f3e c218 b63e 1bf0 e3be e153 ec3e
000002f0: 5ceb 353f 259a e03d ccfb 32bf 31be e73e
00000300: 8e37 06bf f771 263e ad4f 623d 8962 c3be
00000310: da1e 7c3e dce8 21bf cb06 353e 5ce3 d9be
-0.45071855 0.23188794 0.3367097 -0.19120269 0.16781361 -0.24667224 0.3879741 -0.224905
-0.25945973 0.15927178 0.28635287 -0.31366143 0.096652634 0.43362108 -0.070354804 0.21519658
-0.17054494 0.24784066 -0.5057031 -0.41346273 -0.4120551 0.62566483 -0.13603283 0.02868126
-0.3374943 0.7149137 0.6440928 -0.5664684 -0.51420134 -0.49661392 -0.069501825 -0.23300469
-0.46283367 -0.2536195 0.120774254 -0.38047162 0.1566825 -0.16215082 -0.34263802 0.097146206
0.60024726 -0.4412695 -0.032014005 -0.2913707 0.70381933 -0.7029272 -0.658061 0.72595495
-0.44737935 0.13556887 -0.061027624 -0.14895698 -0.19631977 0.41612977 0.03379756 -0.68844944
-0.4056504 -0.15674846 0.35582772 -0.45759264 0.70478326 -0.12237791 -0.13206509 0.5591184
0.3823841 0.6080207 0.43830588 -0.18761756 -0.46914583 -0.0526109 0.5889924 -0.2186202
-0.669019 0.24908184 0.72628284 -0.16617115 -0.5855011 -0.64138806 0.15016307 -0.070845835
-0.42073467 0.09892608 0.29975712 0.59317464 0.56834245 -0.043818325 -0.6235035 -0.63895804
0.7171018 0.349213 0.30823305 -0.61180365 0.7027701 0.71601105 0.59560806 -0.6270648
-0.26658902 -0.4740249 0.7117504 -0.27377287 -0.3465107 0.34710246 -0.32710218 -0.34826574
-0.08215957 -0.09969089 -0.5134045 0.6595904 -0.31192014 0.2508213 0.61764795 0.36701405
0.13631569 0.6443575 0.0950537 -0.32714763 0.6636772 0.16944268 -0.661372 -0.20418525
-0.44202104 0.6546811 -0.116775766 -0.64454544 -0.085783206 0.42438194 0.18370664 0.22359028
0.11862375 0.31559485 -0.15813257 -0.28553963 -0.6609387 -0.53268963 0.2538242 -0.4564554
0.09320768 0.22897829 0.012047274 -0.48258245 0.7145273 -0.33715364 0.5340871 -0.6264792
-0.17009346 0.38464403 -0.30556238 0.60073394 -0.4866001 -0.5938081 -0.31884798 0.1143041
0.59220266 -0.33708346 0.28303552 -0.16402979 -0.12101592 0.5602648 -0.5479978 0.07510416
0.71555096 -0.05916013 0.5735393 -0.21337488 0.5691942 -0.68400586 -0.06483163 -0.1016675
0.2679094 0.30361077 0.58675504 -0.06043348 0.012407994 0.52420163 -0.23281981 0.5814724
-0.35760698 -0.0074868933 0.021978078 0.3293761 0.5155923 -0.09226867 -0.58582425 0.3503659
0.3106435 0.35565764 -0.44519123 0.46157745 0.71062255 0.10966901 -0.6991546 0.45262292
-0.5242852 0.16254412 0.055251766 -0.38161114 0.24621144 -0.6324594 0.17678373 -0.42556274

nn_model.0.bias f4 [100]
00000000: 3d33 7abd 470b 413d 48aa 273f 9c57 c5be
00000010: 55aa ea3e e491 c5bd 30cc a5be afa1 1dbf
00000020: ac16 26bf 48b4 3e3f 9159 3abe c72c a83d
00000030: 5da0 553e 513c 063f 8597 263f d12d 1b3f
00000040: 3a1d 06bf 3712 01be 5e3b d6be f7d9 cebe
00000050: fec0 4e3e f7c7 343f 89d0 0cbf 0d53 f23e
00000060: 7bb4 bbbe 1908 0dbe a350 173f c9c3 23be
00000070: 8465 d33d aa13 fdbe cf10 1c3f 2ad9 c0bd
00000080: 5218 07bf ba94 4a3e 38b5 00bf 00b5 0ebf
00000090: 6ddd 913c fe4f 0f3f fee6 4cbe 2ee4 b03e
000000a0: 2e66 273f 696a f23e 061b d7be 1bbf 9ebd
000000b0: a616 73be d28f 11bf 3572 7fbc 8066 153f
000000c0: f0c2 293f e834 813d c99b 453e 00bc 9cbe
000000d0: e5d3 0a3f c902 6ebe bd7d fbbe 7b27 043e
000000e0: 22ac db3e 9c34 23bf 1782 253f 4f43 8a3e
000000f0: 6e51 eabe c0f8 1bbe 487a 223f 62e2 0abf
00000100: 3fe1 29be d93e 853e 9d96 1ebf f904 df3e
00000110: 200f c33e 8798 f13e 4760 dcbe 28af 3f3f
00000120: 439a d6be 21dd 383f f7b8 2dbf 6548 21bf
00000130: 977a eb3e 9252 513d ac97 383c 617b c8be
00000140: 2f40 92be 95a2 64be 4a57 30bf f716 ff3d
00000150: 263f 093e 0f43 e03c 3a7a 803e ec70 343f
00000160: 1ff4 813e 8161 8dbe b345 91be 65a2 e7be
00000170: b5e9 e3be cc08 c0bd a268 d4bd ab75 ab3e
00000180: a8bf 9abe bf09 1a3f 0d09 febe 206e 523d
-0.06108402 0.047129896 0.65494204 -0.38543403 0.45833078 -0.09646967 -0.32382345 -0.61574835
-0.64878345 0.7449384 -0.1819823 0.082116656 0.20861955 0.52435786 0.6507495 0.60616785
-0.52388346 -0.12604605 -0.4184217 -0.4040067 0.20190808 0.7061762 -0.550057 0.47328988
-0.36661133 -0.1377262 0.59107417 -0.15992655 0.10322097 -0.49429065 0.6096315 -0.09416421
-0.52771485 0.19783297 -0.5027652 -0.55744934 0.01780578 0.55981433 -0.20009992 0.34549087
0.6539029 0.4734681 -0.42012805 -0.07751294 -0.23739108 -0.5686008 -0.015591194 0.5835953
0.66313076 0.06308919 0.19297709 -0.30612183 0.54229575 -0.2324325 -0.49119368 0.12905686
0.42904764 -0.6375215 0.64651626 0.27004477 -0.4576525 -0.1523161 0.63467836 -0.5425168
-0.16589831 0.2602451 -0.6194857 0.4355848 0.38097477 0.47186682 -0.43042204 0.7487664
-0.41914567 0.72212416 -0.6786036 -0.6300109 0.45991966 0.051104136 0.01126663 -0.3915663
-0.28564593 -0.22327645 -0.6888319 0.12455552 0.13402995 0.027375726 0.2509325 0.70484805
0.25381562 -0.27613452 -0.2837349 -0.45241085 -0.44514242 -0.09376678 -0.103715196 0.3348821
-0.30224347 0.6017112 -0.4961628 0.051374555

nn_model.2.weight f4 [100, 100]
00000000: 1785 2a3e a3df 0f3e 8b15 00bc f47e cf3c
00000010: 102e 713d 015f 233d 948c acbd 33e2 dd3c
00000020: 2a69 8ebd eba2 603d c0e6 6b3d 39f3 703c
00000030: 8fdd e73d 8bd5 333d d7ae a03d b26d 163e
00000040: 4d67 fabc 99a4 773d ad50 eabc 7353 6fbc
00000050: 3065 293d 1ddf 413d 2ecd 57bd 10fd 903d
00000060: 33f1 763b 15d2 813d 6c20 eb3c 8d4c 243c
00000070: 1fcb 71bc b282 abbd 2572 b13d dbf9 d6bb
00000080: e40e b7bd 7854 293c 003d d63c 05e7 82bc
00000090: 581f d63d 2f92 523d 90b8 1a3d f986 bd3d
000000a0: 307a bf3c e68f 943d 2d0b 9e3d 00cb 963b
000000b0: baaa 17bc 0021 6e3b 1971 593d 5884 073c
000000c0: 02be 23bc 57b1 2f3d 8b9d 13bd 0024 d23a
000000d0: d748 d03a e946 0a3e 43ad bebd dd6f 553d
000000e0: 51d9 073e cdc1 a53c 7819 103d 8545 f73d
000000f0: 8d7a ea3b 734a 03bc 83e9 813b b32a 62bc
00000100: 2b2a c5bc 0ebe 2f3d f3b9 9abc 8bed 4fbd
00000110: f15f 513d 3616 293d 044a 0b3d d02b 013e
00000120: 4a11 c73d e8aa 36bc b352 ccbb ad1d 24bd
00000130: 45d9 33bd 34c3 cabc 98c7 a83d 63d2 6e3d
00000140: ac47 883c c222 533d 95b5 a2bd c6f6 763d
00000150: 0e39 be3d ab59 8bbd d603 eb3d 4147 983d
00000160: 853b d13d 4a4d 87bd 4f79 093d 7d8d b5bd
00000170: 033d 08be 0d56 f53d 4e0b de3b 40f6 093e
00000180: 883f c93d a3b4 0d3e 4a80 893d 5448 193e
00000190: 0067 53bc 35ef 9ebd fd0d 18bd 27ef 37bc
000001a0: a357 5dbd 2760 513d e0c7 0f3d f32d 843c
000001b0: f3e2 c53c 33e8 b33d 6d30 153d e298 b3bd
000001c0: 0fa9 94bd f387 343d a747 5f3c 2dc2 473d
000001d0: b089 ccbd ef00 bdbd 732d 7b3d dbff 823d
000001e0: ea48 b9bd 677a 1b3d baea 9fbd bd18 9b3d
000001f0: 5087 003d ea80 ca3d 60ee c9bd f527 c5bd
00000200: 3877 8a3d 80d3 b53d 27f4 7a3d 3b28 883d
00000210: 477f acbd af3c 943d 805c c1bd ba02 b73c
00000220: b026 86bd f7b0 22bd 070e 913c ea0b 21bd
00000230: c09d 81bc 4b1d c2bd b719 c1bd f7a9 1e3d
00000240: f75f 2dbd 4732 79bd f39e 21bd 2370 a7bd
00000250: 98b7 a3bd e317 753d 0d2d 503d 9a3d 5a3c
00000260: 7abf 5fbd 3a46 083d 0036 933b 705d 92bd
00000270: 9348 b03c ba7a ba3d 4d71 c9bd caa6 cbbd
00000280: 80eb 513c 0f38 9a3d c73c 79bd 1a56 b43c
00000290: adf8 8f3d a092 fc3c a048 b13c 9355 cc3d
000002a0: ef6b 853d c05e 66bd 1a9e 0d3c da40 513d
000002b0: 759d b43d 23c3 cbbd f3cc 5d3d 00d7 edbc
000002c0: 658b c8bd 53d7 b53c eafd 5ebd 672e 683c
000002d0: 3df7 84bd 321e 9abd 1a05 0bbc 5d98 09bd
000002e0: 838f 6f3d 8042 0d3c c0db 9f3d 4085 993c
000002f0: 27b6 03bd cab7 8a3d 9a0f b33b cdc1 993c
00000300: 93bc 03bd 0028 bc39 9a82 9dbc da4a 0bbc
00000310: 23b8 9fbd 3337 21ba 3afe a9bd 333c b0bc
00000320: 305c 873d 8f72 9fbd 392e 9bbd 8707 c8bc
00000330: be83 12bd 27ae 8a3c 303e d73c edb4 4f3d
00000340: 2f15 8dbd 99d3 7cbc 67cc 6e3d 53f5 9f3d
00000350: 33c9 7fbc a9a6 87bd 81dc a63c 0dfe 463d
00000360: c7e5 7fbd 2db0 6dbd e00a 353d 9a97 e5bb
00000370: 0d72 d2bd 2439 87bd 331b 263d 9318 2dbd
00000380: e25b 8d3d 0fe7 a13d ff0c cb3b 5a8e 01bc
00000390: e83a 24bd b3b1 a5bb 763a 213c 4b57 abbd
000003a0: ef97 74bc 8480 bbbd dd64 7b3d 906c 82bd
000003b0: b013 aa3d dbd6 0bbd 53a6 6abd f58b 223d
000003c0: fa86 d63b 7675 793d e0fe 2a3d bb4a c5bd
000003d0: bf52 933d 4744 9abc 8f4e 56bd 8ad4 613d
000003e0: 1f36 843d 46f1 c4bd 315f 8ebc e02e a83d
000003f0: 2ec1 f83c 435f c03d 905e 0cbd ddfe 81bd
0.16652332 0.14050154 -0.007817636 0.02532909 0.05888182 0.039885525 -0.08425251 0.0270854
-0.06953652 0.05484287 0.057593107 0.014706426 0.11321556 0.043904822 0.07845848 0.14690283
-0.030566836 0.060459707 -0.028602922 -0.014607298 0.041356266 0.047331918 -0.05268591 0.07079518
0.0037680387 0.06338898 0.028701983 0.010028017 -0.0147579005 -0.083745375 0.086643495 -0.006560547
-0.08938387 0.01033508 0.026152134 -0.0159793 0.10455197 0.051408943 0.03777367 0.092542596
0.023373693 0.07254009 0.07716975 0.004601836 -0.009257013 0.0036335588 0.053086374 0.008271299
-0.009994032 0.042893734 -0.036038917 0.0016032457 0.0015890849 0.13503613 -0.09310391 0.052108634
0.13266493 0.020234013 0.03518054 0.12073807 0.0071557225 -0.008013356 0.0039646043 -0.013804126
-0.024067959 0.04290586 -0.018887496 -0.050763648 0.051116887 0.041280948 0.034006134 0.1261437
0.097200945 -0.011149146 -0.0062354445 -0.040067364 -0.043908376 -0.024751283 0.082411945 0.05830611
0.016635738 0.05154682 -0.0794479 0.060293935 0.09288226 -0.06804212 0.11475341 0.074354656
0.102164306 -0.066065386 0.033562955 -0.088648774 -0.13304524 0.119793035 0.00677625 0.13472843
0.09826571 0.13838439 0.06713922 0.14968997 -0.012902975 -0.07760469 -0.037122715 -0.011226452
-0.054038655 0.05111709 0.035102725 0.016135192 0.02415607 0.08784523 0.036423136 -0.087693945
-0.07258808 0.044074964 0.013627923 0.048769165 -0.09987199 -0.09228694 0.06132264 0.06396457
-0.090471104 0.03795853 -0.078084424 0.07573078 0.031379044 0.0988787 -0.098599195 -0.09626762
0.067610204 0.08878231 0.061267998 0.06648298 -0.08422714 0.07238137 -0.09441471 0.022340167
-0.06550348 -0.039719548 0.017706884 -0.039318003 -0.015822291 -0.094782434 -0.09428733 0.03873631
-0.042327847 -0.060838964 -0.039458226 -0.08175685 -0.07994002 0.059837233 0.050824214 0.013320351
-0.054625966 0.0332701 0.0044925213 -0.07146728 0.021518981 0.091054395 -0.098360635 -0.09943922
0.012812495 0.075302236 -0.060848977 0.022013713 0.07029853 0.030831635 0.021641076 0.099772595
0.06514727 -0.056242704 0.008643651 0.051087238 0.08819095 -0.09949329 0.054150533 -0.029033184
-0.097922124 0.022197401 -0.05444137 0.014171219 -0.064924695 -0.075252905 -0.008485103 -0.03359257
0.058486473 0.008621812 0.07805586 0.018740296 -0.032156136 0.06773336 0.0054645063 0.01876917
-0.03216226 0.00035887957 -0.019227315 -0.008501733 -0.07798793 -0.0006149888 -0.08300443 -0.02151308
0.0660938 -0.07785522 -0.07577176 -0.024417652 -0.03577017 0.016928745 0.02627477 0.050709654
-0.06888806 -0.015431308 0.058300402 0.07810464 -0.0156119345 -0.06623585 0.020368816 0.048582125
-0.062474992 -0.058029342 0.044199824 -0.0070065977 -0.1027566 -0.066026956 0.040553283 -0.042259764
0.06902291 0.07905399 0.0061966176 -0.007907474 -0.04009524 -0.005056584 0.009840598 -0.08366259
-0.014928802 -0.09155372 0.061375488 -0.06368363 0.08304536 -0.03414045 -0.057287525 0.039684255
0.006546852 0.060903035 0.041746974 -0.09633394 0.07193517 -0.018831385 -0.052321013 0.055134334
0.06455635 -0.09616332 -0.017379375 0.08212066 0.030365553 0.0939317 -0.03426987 -0.063474394

nn_model.2.bias f4 [100]
00000000: 7367 f93c cd5c 7cb9 9ec2 9dbd f31a 4a3d
00000010: ad02 9cbd b525 d03c dd6c 94bd 2b56 0abd
00000020: 6338 9c3b 6549 2a3c 49cf ccbd 167c 733d
00000030: 3ca8 a63c 822a 5bbd 0de5 383d 60c6 58bd
00000040: 50f2 b0bd 9a12 8abc 24b7 703d 3395 6f3b
00000050: 9bf9 90bd fc90 893d 7e65 573a 6b69 a5bd
00000060: bd34 073d 2fbe a7bd 7689 6c3d 825c 433d
00000070: 6178 4b3d 77d3 b3bd d61b 613d 7372 16bc
00000080: 6775 b1bc 0e8b 2f3d e85f b8bd 3491 b7bc
00000090: ab9a babd 0a4e 10bd 13f5 343d efb9 363d
000000a0: ce7c a73d a7be b0bb 16ca 9bbc 69f2 4e3d
000000b0: 0280 5bbd 82e7 c2bd 9378 ffbc c310 23bd
000000c0: eda1 973d a574 b33c 9a08 673c d441 883d
000000d0: b4a9 9abd 7303 57bd 40d8 bdbd d843 8bbc
000000e0: db8d 90bd 1a43 8dbb e848 80bd 107e 583d
000000f0: 6abd adbd 79e1 44bd 7a34 743d 5dc0 a83d
00000100: bd6e 85bb fac8 0cbd 760a cfbd 2c45 d03d
00000110: cd12 ff3a 1378 8bbc 8e80 81bc 095b e9bc
00000120: b927 3f3d 6e54 56bd 8c38 9bbc 5e77 9c3d
00000130: 331f b5bc 2831 a73d a889 673d 8ccf c3bd
00000140: f4cc 303d 8dfe 07bc dfb2 96bc c08b 3fbd
00000150: 8853 a53d 9aef 703d 9aca b73d c10b ff3d
00000160: 7cf1 a53d 5405 2abd 10bf 433d 1335 27bc
00000170: e5c5 e03d 5dbc d03d 9f55 a83d 9f52 1a3d
00000180: 1555 7cbd 7d54 24bd aae8 57bc c764 91bd
0.030444836 -0.00024067164 -0.07703136 0.049342107 -0.07617698 0.025408605 -0.072473265 -0.033773582
0.004767464 0.010393475 -0.10000474 0.05944451 0.020343892 -0.053507335 0.045140315 -0.05292356
-0.086399674 -0.016854573 0.058768407 0.0036557436 -0.070788585 0.06717107 0.00082167226 -0.080767475
0.03300928 -0.081905715 0.05774828 0.047695644 0.04967535 -0.08780568 0.054958187 -0.00918256
-0.021662427 0.042857222 -0.09002668 -0.022408105 -0.09111532 -0.035230674 0.044179033 0.044610914
0.081781015 -0.0053938213 -0.01901726 0.05052415 -0.053588875 -0.09516813 -0.031185424 -0.039810907
0.07403932 0.021906206 0.014101172 0.06653181 -0.075518996 -0.052493524 -0.09269762 -0.017000124
-0.07058307 -0.0043109776 -0.06263906 0.052854598 -0.084833935 -0.04806659 0.059620358 0.082398154
-0.004072039 -0.034371354 -0.10109417 0.101694435 0.0019460559 -0.01702503 -0.01580837 -0.028485792
0.04666874 -0.052326612 -0.018947862 0.07639955 -0.022109604 0.08163673 0.056527764 -0.09561071
0.04316421 -0.008300436 -0.01839584 -0.046764135 0.08072573 0.05882225 0.0897419 0.12453414
0.081027 -0.041508988 0.047789633 -0.010205525 0.109752454 0.101921774 0.08219456 0.03767645
-0.061604578 -0.040119637 -0.01317803 -0.070993

nn_model.4.weight f4 [100, 100]
00000000: c4f2 173e 17c4 56bd 8f7f 0abc 0da9 e3bc
00000010: e492 093d dbc9 56bd 3375 583b 7a97 cf3d
00000020: 0da2 94bb 167d 2c3d 8583 4e3d 18ab db3d
00000030: da7c 9cbd a2cf 9abc b5bc 61bd 58f0 93bd
00000040: f7a4 6ebd 0376 053d 75c3 d23d b3fd d63b
00000050: 4080 0a3c 6def 7cba e312 95bd d1cc d03d
00000060: dd58 223d d357 afbd 0d9b f73c c372 a13d
00000070: c391 4d3d cb07 073e 297f d23d 7bad a63d
00000080: 73ca aabc 3505 9f3c b7c0 0e3d a732 b0bd
00000090: 3a28 083d d35c 79bd f2ad c63d a7f2 a13d
000000a0: ba09 ce3d c928 c73d 0033 023e a5f3 b7bd
000000b0: 2ec1 97bd 286b aebd a0e0 863d ddb9 57bd
000000c0: b2d1 953d 22b6 853d a05c e33d 9cc1 1cbd
000000d0: d857 7ebc 3fbb a8bd 9ebb 92bd 7be7 91bd
000000e0: 6aa4 703d 93a0 e3bc 287d aa3c 389c e43d
000000f0: 6048 593d 20d9 953d 99ad 64bd 3a20 b63d
00000100: 041c a93d e84b 88bd 72ae a43b a87e cfbd
00000110: 4d25 cdbc a09d b03c 9eb7 bdbd 8898 0bbd
00000120: 7cfb 2e3d 1859 e03d fafb debc fa40 c33d
00000130: 13bf a0bd d277 13bd 0d82 a73d 6e0a bcbc
00000140: b015 a23d 8a34 76bd 2ef4 e73c fa3e b5bc
00000150: 79bf cb3c da31 173d 5ad3 fe3c 0a91 023e
00000160: f8a4 573c bbef fbbc 6278 983d 1ad1 413c
00000170: 2ec0 b0bd b3f7 7bbd 7ac5 7c3d 7785 953d
00000180: 598b d8bc 7fae 923d 1edd 203d 52f5 b73d
00000190: dfb6 143d 0a96 423d cfd0 f7bc dfa0 afbd
000001a0: 485d 94bc 228d 613d b022 4ebd 2934 913d
000001b0: 54a8 0f3e a60c 5b3d 11e6 963d c7be 20bd
000001c0: 709b 033d 9e6b e43b 6fa0 243d 8751 99bd
000001d0: 934d 323d fa94 243d fb76 0b3e 73e6 45bc
000001e0: 93b3 31bd 5abb da3d d870 87bd cf59 203d
000001f0: 6348 7bbd abbb 923d 0fc5 963d d078 08be
00000200: 7bd5 02bd 368f 473d fce7 e7bd 075f bc3d
00000210: 4382 2a3d 044a 18bd 5818 ad3d e61c 00bd
00000220: 87bf 373d 3aa7 283d 004c 0ebd 1cea 37bd
00000230: a3cc b1bc 1cf3 c3bd 28c4 be3d 2c4a 90bd
00000240: f143 ae3c 4bff 983d 0442 17bc a01b 90bd
00000250: 003f 243d ef59 143e a9a2 51b9 aed2 05bd
00000260: e34d ac3d 7f53 843d f69d 3d3d 5583 623d
00000270: 3065 983d 85b2 bf3d e1df 99bd 959a a93d
00000280: afca 9a3d e7a1 e43d 1f33 503d 5f6e 8e3d
00000290: b002 813d 6c82 5a3d 5507 053e 3fa0 8ebd
000002a0: 30e7 5a3d b7b8 a13d c022 be3b 5b8e 003e
000002b0: f1d4 e33d 9dba 9c3d 025d cdbc 2173 fabc
000002c0: 3031 223d 08f7 3fb9 50ee 11be e939 4abc
000002d0: fe3c 3a3d e0fa aebc 2bf3 77bc c5aa af3d
000002e0: 57d2 1c3b a020 263d dd67 8e3d 694e 593d
000002f0: 2feb ff3b 7d41 c73d e799 eebb 6603 28be
00000300: f0fb 1bbe b5c1 a53d 38af 84bd 2fb4 103e
00000310: 2a6f 9a3d 93ff 9ebd e424 2c3d ce9a 023e
00000320: 65bb 733d c76c 96bc 0bdf 6bbd 3d04 57bd
00000330: 33cc 923c a252 1e3d 1a70 89bd ce12 be3c
00000340: 2824 1a3d dbc5 b33d 038e 543c f1ba 6f3d
00000350: 4998 88bc 3278 3d3d 60b1 423e c01d 933c
00000360: ef3c 9cbd fa61 133d 2716 9fbd 220d bfbd
00000370: 4860 913d bea0 4a3d 8420 8f3d 7c50 dd3d
00000380: 1d84 1abd 939d 013d 639b d6bd 3101 c53d
00000390: b5ed 1f3d ebb0 d43c 407c 203e e70c 843c
000003a0: 0317 4cbd cf81 4d3e 7098 6f3d cc35 c93d
000003b0: 4d79 843b a7a6 bd3d 60ce 0abd e30f 4fbd
000003c0: 7ed1 653e 87b9 4d3e ddab 513d 19d7 b93d
000003d0: 0b1e a6bc 5371 b8bc 94c9 a03d 4dc2 d3bc
000003e0: 9007 963c d2e5 31bc a735 b03d f353 cf3a
000003f0: 1951 dc3c 9af4 3b3d 8ae2 8abd ff0d 9f3d
0.14838701 -0.0524331 -0.008453264 -0.02779057 0.03358735 -0.052438598 0.003302884 0.10136314
-0.0045359195 0.04211148 0.050418396 0.10725993 -0.07641001 -0.018897835 -0.055111606 -0.07223576
-0.05826279 0.032583248 0.10291187 0.006561005 0.008453429 -0.00096487143 -0.07278993 0.10195316
0.039635528 -0.08561673 0.030225301 0.07883217 0.050187837 0.13186567 0.1027816 0.081385575
-0.020848488 0.019411663 0.034851756 -0.08603411 0.033241488 -0.06087954 0.09701146 0.079076104
0.10060449 0.09724576 0.12714767 -0.089820184 -0.07409893 -0.08516532 0.065858126 -0.052667487
0.07315387 0.0652888 0.11101651 -0.038270578 -0.015523873 -0.08238839 -0.071646914 -0.071242295
0.058750547 -0.027786529 0.020811632 0.11162609 0.053047538 0.07316804 -0.055829618 0.088928655
0.08257297 -0.06655103 0.0050256783 -0.1013158 -0.0250422 0.021559536 -0.09263538 -0.034081012
0.042720303 0.10954493 -0.027219761 0.09533878 -0.078489445 -0.03600294 0.08179102 -0.022954192
0.07914293 -0.0601087 0.028314676 -0.022124756 0.024871575 0.036912777 0.03110664 0.1275064
0.01316189 -0.03075396 0.07444836 0.011829639 -0.08630405 -0.06151552 0.061711766 0.07300847
-0.026433634 0.07162189 0.039273374 0.08982338 0.036307212 0.04750637 -0.030250935 -0.085756056
-0.018110886 0.055066235 -0.05032605 0.07090027 0.14029056 0.05347886 0.073681004 -0.03924444
0.03213066 0.006970837 0.040192064 -0.07486253 0.04353101 0.040181138 0.13619606 -0.012078869
-0.043384146 0.10680266 -0.0661332 0.03914815 -0.06134833 0.07164701 0.07361805 -0.13327336
-0.031941872 0.04872056 -0.113235444 0.091978125 0.041628134 -0.03717996 0.08451909 -0.03127756
0.04486039 0.041175105 -0.034740448 -0.044901 -0.021704024 -0.09567854 0.093147576 -0.07045397
0.021272631 0.07470568 -0.009232048 -0.07036519 0.040099144 0.14487432 -0.00019992389 -0.032671623
0.08413293 0.06461238 0.04629322 0.05530103 0.07441175 0.09360222 -0.07513405 0.08281437
0.0755819 0.11163693 0.050830003 0.06954645 0.06299341 0.053347036 0.12991078 -0.06964158
0.053443134 0.0789656 0.0058024824 0.12554304 0.111246 0.07652781 -0.025068764 -0.030572476
0.03959769 -0.00018307206 -0.14251065 -0.012342908 0.045468323 -0.02135986 -0.015133659 0.085774936
0.0023929083 0.040558457 0.06953404 0.053053293 0.0078100185 0.09729288 -0.00728153 -0.16407546
-0.15232825 0.08093587 -0.06478733 0.14131235 0.07540734 -0.07763591 0.04202737 0.12754366
0.059504885 -0.018362416 -0.057585757 -0.052494276 0.017919635 0.038653024 -0.06710835 0.023202326
0.037632138 0.08777972 0.012973311 0.05852789 -0.016674178 0.046257205 0.19012976 0.017958522
-0.0762881 0.03598211 -0.07767897 -0.09328677 0.07098442 0.049469702 0.06988624 0.10806367
-0.03772365 0.031644415 -0.104788564 0.09619368 0.039045054 0.025963267 0.15672398 0.016119434
-0.049826633 0.2006905 0.058494985 0.09824714 0.0040427805 0.09260302 -0.03388822 -0.05055226
0.22443196 0.20090304 0.051189292 0.0907423 -0.020277997 -0.022514975 0.07850948 -0.025849486
0.018314153 -0.010858016 0.08603983 0.0015817865 0.02689414 0.045887567 -0.0678149 0.077663414

nn_model.4.bias f4 [100]
00000000: b987 30bc 81d8 23bd b80d 1a3e b4f6 d13d
00000010: 3f3a c9bd 6370 bf3d f289 d63d 7750 c2bd
00000020: e2e7 a23d 311e d8bc db94 58bd 6210 89bd
00000030: ef26 c4bd 3eff b1bd 7242 f93d 1dd9 4dbc
00000040: 6777 78bb e2b4 d7bb bb87 af3d e3c3 78bc
00000050: 11d8 633d 4559 12bd 0e06 633d 5d37 e9bc
00000060: 52da eb3d fdae 783c 8b36 7ebd 0707 5a3d
00000070: 901d dc3d 9a87 b13b 4065 1c3c 3d31 253d
00000080: 9a00 9f3b 9463 613c 897c e13d 5622 483d
00000090: 814c 913c 2e68 253d e1f3 93bb 54e1 47bd
000000a0: fe89 673d 0768 833d f345 203d 14bc 883c
000000b0: 7c20 443d c9a3 8fbd 202d 823d cc22 6a3c
000000c0: 53c4 25bd 1940 acbd 40a9 1ebc 6f1d d73d
000000d0: b578 90bd f9dc 593d 1e85 1dbd 7cff a2bc
000000e0: fe35 913d e03f 2bbd 6824 dc3d 02a9 a43d
000000f0: 25b4 813c e7c6 27bd 45aa b23b b74d b63d
00000100: 731f 95bd 33b6 f23d d794 5f3d 701c 46bd
00000110: 3eda fc3d e396 873b 7a74 81bc 8fb0 b6bd
00000120: 6da7 a03d db00 91bd 6d5b 86bd 671a 4b3a
00000130: 3b0b a53b 4a84 7cbd 3bbf 1f3d a775 dbbc
00000140: b843 233d c496 95bc f2c1 06bd e77f c3bd
00000150: db4a b23d ec75 4a3d 3ff0 e63d 90c2 98bd
00000160: 48ee 1b3b df64 10bd a173 41bd 6f3f 6dbc
00000170: 8fba 113d 51c5 4e3d bb62 a3bd 7c19 a6bd
00000180: 7a50 de3d 6235 9f3d 2746 9d3d 0130 0c3e
-0.010774546 -0.040001396 0.15044296 0.10252133 -0.09825563 0.09347608 0.1047553 -0.09488004
0.079543844 -0.026381584 -0.052876335 -0.06692578 -0.095777385 -0.08691262 0.121708766 -0.012563971
-0.0037912966 -0.006582842 0.085708104 -0.015183422 0.05562598 -0.035729665 0.055425696 -0.028468782
0.11516251 0.015178439 -0.062063735 0.053229358 0.10747826 0.0054177763 0.009545624 0.04033016
0.0048523666 0.013756651 0.11010081 0.04886087 0.017736675 0.040382557 -0.0045151566 -0.048798874
0.056528084 0.06416326 0.03912921 0.016691245 0.047882542 -0.070136614 0.06356263 0.014290523
-0.040470432 -0.08410663 -0.009683907 0.10503661 -0.07054273 0.05318925 -0.03845703 -0.019897215
0.07090376 -0.041808963 0.107491314 0.08040048 0.01583297 -0.040961172 0.0054524266 0.08901542
-0.07281389 0.11851158 0.054585304 -0.048366964 0.12346314 0.00413786 -0.01580261 -0.08920395
0.07844434 -0.07080241 -0.06560407 0.00077477697 0.005036739 -0.0616496 0.03900073 -0.0267895
0.039859504 -0.018260367 -0.032899804 -0.0954588 0.08705684 0.049428865 0.11276292 -0.07458985
0.002379315 -0.03525245 -0.047229413 -0.014480456 0.035578307 0.050481144 -0.07977816 -0.081103295
0.108551934 0.07773854 0.07679396 0.13690187

allocation_head.0.weight f4 [4, 100]
00000000: e0fd bb3b 4b53 a63d fc42 c4bd 0665 42bd
00000010: 96a9 e8bc adac db3c bbc1 61bc 3f62 a23d
00000020: 8d65 c4bc 413c 883c fb01 34bd 5022 e5bc
00000030: c7a7 c3bd f3ef 2fbd 3906 80bd 2a28 dfbc
00000040: e7ed 213d 45c4 893d e0d6 c1bd cb86 9ebb
00000050: d510 7c3d bf2b b33d d4f4 38bd 09bc 853d
00000060: f99c 46bd d4b9 a3bc 0f3a 023e a5fc bdbd
00000070: 7b21 9abd 9a64 cfbc 326d 78bc bf7f 893d
00000080: 48bf 84bd b271 9fbd 44b4 c8bd c7b4 b3bd
00000090: 2514 a6bd 885e ee3d 7571 a63d 231d 523d
000000a0: e59b 60bc 4058 03bd 54af 283c 3716 fbbd
000000b0: b543 bcbd 85fc 58bd 86e8 2c3d 7f69 5d3d
000000c0: d3a7 35bd b507 823b b10f 933d 3eea 9a3d
000000d0: b9cd d63c 984a acba 220b 733d c6ac a8bd
000000e0: 057d e43c a88a d5bd 286b b4bd 88c1 9dbd
000000f0: 1290 a23d 93b9 243d 118a acbd 97f5 313b
00000100: ad17 703d 1537 2cbd 0522 a6bc 13d1 3f3d
00000110: 8e12 313d ace1 bf3d dfd2 9dbd e2c7 9bbd
00000120: 21e7 373d daaf a93d b7cb a73d e8b4 b43d
00000130: e5c0 36bc 2d17 b2bd 21bf 0d3d bd1f 80bd
00000140: 7955 01be 5ac2 f13d e801 bc3d b8fe bfbd
00000150: 65ba fdbb ced8 31bd d973 40bd 4a7f 3bbd
00000160: 98a5 ab3c ab95 bfbd f787 903d 5c21 6e3d
00000170: e7c6 803d 224a 843d 64b1 b8bd 8b18 79bd
00000180: 718d b83c 6a8d e6bc 622b f7bd a566 a8bd
00000190: 6845 fe3d af98 d73d a6ff 8dbd 48b2 38bd
000001a0: b7f2 aebd 3397 ebba d1b9 95bd 4ff9 9dbd
000001b0: 61cb 4abc c748 ab3b 7d74 e2bc c612 533d
000001c0: f341 79bd 2042 093e c1b9 3e3d d40a d5bd
000001d0: d3e2 cbbc abbe 043d a0ec 0c3c 2c0f 5c3d
000001e0: d25f e03c d0c1 e03c 8807 72bd 5b67 f83c
000001f0: 6e7f ffbd 8c19 93bd 3ea8 6bbd 8a85 47bd
00000200: d81d 5ebd c8db a7bd 6064 233c 4d49 c83c
00000210: 926b 85bd 341b b6bc f17e 873d 7539 8fbb
00000220: 4495 1fbc 554d a23c 56bd 3a3d 9808 8d3d
00000230: 462d ac3d fcbc a83d 8607 b53d 76cd 2cbd
00000240: c857 f5bd f6e8 b5bd a239 3b3d d75a 04bd
00000250: 1797 4bbd 2abe 8ebd 65c2 aebd 3ac9 debd
00000260: 9f05 00bd c570 3d3d 369b 803d d5c7 03be
00000270: 6a4e 913d eee4 cfbd b851 33bd c466 78bd
00000280: 4be0 2f3c 0dd8 a0bc 0adc bcbd 9afc e0bd
00000290: a43a 36bc d71e bcbc 228b 87bd cf1e a73d
000002a0: 2032 e8bd ccf0 313a e81a b43d 950f 75bd
000002b0: 87e9 d93d 9356 143d 1543 c3bd 9093 813d
000002c0: eb3c 28bd 27d9 36bd 70f7 e83d 777f a5bd
000002d0: cc31 b0bc d25e 2b3c 7886 b33d 93ee 0a3d
000002e0: c5c5 c03c 0b15 913c 27f8 69bd 4048 acbc
000002f0: 188c cbbd 60f8 ff3c bdc2 d53d 6eab c63d
00000300: b3b0 a2bd e01b 473d ab9c 7cbd fa78 61bd
00000310: dede adbd 888a b23d 1a28 31bb 86a1 b2bc
00000320: fb59 15bb 3d1d 173d 9638 7ebd ea1e c2bd
00000330: 30a2 8bbd ab58 8f3d 85d3 c5bc 1abf ac3d
00000340: 96f6 513d 6c44 b83c 56b0 543c 84aa 3bbc
00000350: 6790 4d3c 0bdd 3cbd dfa5 a83c 7803 333d
00000360: 1332 a0bd bd72 74bd 1d5f dc3d d07a f5bd
00000370: 2bb4 04bd 1a7d c13d 8f9f 783d d68b 4a3c
00000380: f25e 5ebd 380e a43d 22e3 dcbd a78a e8bc
00000390: af0c aebc 5aa0 72bc 7526 babc 735e d03d
000003a0: 3389 4c3c 1a9b f83d bbe6 b63d 3694 8dbd
000003b0: e061 8a3d 8d18 cfbd 69db a1bd f3c2 d93c
000003c0: c0f0 543d 99a4 643d b675 d1bc 8ac6 f03c
000003d0: ffb7 913d cb25 c3bd 16d4 be3d 2afb 9fbd
000003e0: 67a6 b43a 0c58 c9bc 45e2 77bd 1d81 173d
000003f0: f4ee c43d 5510 6cbc e496 53bd 4b3d 5dbc
0.0057370514 0.081213556 -0.09583089 -0.047459625 -0.028401177 0.026815737 -0.013779099 0.07928895
-0.023974204 0.016630294 -0.0439472 -0.027970463 -0.09553485 -0.042953443 -0.06251187 -0.027240831
0.039533522 0.067268886 -0.09464812 -0.004837846 0.06153949 0.08748578 -0.04515536 0.065300055
-0.048489545 -0.01998607 0.1271746 -0.09276704 -0.07525917 -0.025316525 -0.015162753 0.06713819
-0.064817965 -0.077853575 -0.09800008 -0.08774715 -0.08109311 0.11639124 0.08127109 0.05129732
-0.013709043 -0.032066584 0.010295708 -0.122600965 -0.091926016 -0.052975196 0.04221394 0.054055687
-0.044349503 0.003968204 0.07180727 0.075642094 0.026221143 -0.0013144789 0.05933679 -0.08236079
0.027891645 -0.10426837 -0.08809501 -0.07702929 0.079376355 0.04021604 -0.084247716 0.002715444
0.05861633 -0.042044718 -0.020279894 0.046830248 0.043230586 0.09369215 -0.07706236 -0.07606484
0.044898156 0.08285494 0.081931524 0.08823568 -0.011154388 -0.08695827 0.034606103 -0.062560536
-0.12630261 0.11804648 0.09180051 -0.093747556 -0.007743167 -0.04341965 -0.04698548 -0.04577569
0.020952985 -0.09354719 0.07057183 0.058137283 0.062879376 0.06459452 -0.090182096 -0.06081442
0.022528382 -0.028143603 -0.120688215 -0.08222703 0.12415582 0.10527169 -0.06933527 -0.045091897
-0.08542388 -0.0017974138 -0.07310832 -0.077135675 -0.012377591 0.0052271816 -0.027643437 0.051531576
-0.06085391 0.13404131 0.046563867 -0.10402456 -0.024888432 0.032408398 0.008601338 0.053725407
0.02738944 0.027436167 -0.059089214 0.030322721 -0.12475477 -0.07182607 -0.057533495 -0.048711337
-0.05422768 -0.08196217 0.009972662 0.024449015 -0.06514658 -0.022229768 0.06616009 -0.004370863
-0.009740178 0.019812265 0.04559072 0.06886405 0.08407073 0.08239171 0.088393256 -0.04218813
-0.119796336 -0.088823244 0.04570926 -0.032313194 -0.049704637 -0.06969865 -0.085331716 -0.10878225
-0.03125536 0.046250124 0.06279604 -0.12869199 0.070950344 -0.10151087 -0.043779105 -0.06064488
0.010734628 -0.019634271 -0.092216566 -0.1098568 -0.011122379 -0.022963924 -0.06618334 0.08160173
-0.113376856 0.00067878957 0.087941945 -0.059829313 0.10640245 0.036215376 -0.09534279 0.063269734
-0.04107372 -0.044640686 0.1137532 -0.080809526 -0.02150812 0.010459619 0.08765882 0.03391893
0.023531804 0.01771023 -0.057121422 -0.021030545 -0.0993883 0.031246364 0.10437534 0.09700666
-0.07943859 0.048610568 -0.061672848 -0.055047013 -0.08489774 0.08717829 -0.002703196 -0.021805536
-0.0022789228 0.03689312 -0.062065683 -0.09478553 -0.06818044 0.06999334 -0.024148712 0.08434887
0.051260553 0.022493564 0.012981495 -0.011454228 0.012546635 -0.04610924 0.020586906 0.04370448
-0.07822051 -0.059679735 0.10760329 -0.11986315 -0.032398384 0.09447689 0.060699042 0.012362441
-0.054289766 0.080105245 -0.1078551 -0.028386427 -0.021246282 -0.014808739 -0.022723416 0.10174265
0.012483883 0.12138958 0.08930727 -0.069130346 0.067569494 -0.101121046 -0.07903177 0.026582217
0.05198741 0.055821035 -0.025568824 0.029391546 0.071151726 -0.09528693 0.09317796 -0.078115776
0.0013782502 -0.024578117 -0.06051852 0.036988366 0.09615889 -0.014408191 -0.051657572 -0.013503383

allocation_head.0.bias f4 [4]
00000000: 012d 3b3d 929b f9bb 8341 edbc 8f0b db3d
0.045697216 -0.0076174224 -0.028961902 0.10695564

payment_head.0.weight f4 [1, 100]
00000000: 6b80 6c3d ca57 20be ad05 8e3e e58c 3c3e
00000010: d8f9 3ebd 2d42 663d 87db 90bd 6061 80bc
00000020: c58e 363e 9b94 593c 2b77 0bbd 85a4 dbbc
00000030: 2d5e debc d8a2 81bd 79a2 213e d162 663e
00000040: e770 af3b e38d 1cbe 3677 d43d ed8d 9f3d
00000050: c0e3 3e3e 7b91 0cbe 19a1 f23d 8bad eebd
00000060: 61d0 093d 0e15 c03d 667f b7bc 6342 183d
00000070: e458 5f3e 80eb d63b 1cb9 14be 0a62 d3bd
00000080: 47e2 b23c c46a 46bc fd77 443e 3507 c6bd
00000090: 4cda b4bd 7dd1 42be e2fa bdbd 6d6c 7f3d
000000a0: d3be 09be 6505 873d 3d21 0abd fd55 0b3e
000000b0: 0ece f03d 6cbb 6d3d b882 313e bbbc 053e
000000c0: 0092 cb3d c844 303d aaee 97bd ad8f 3c3e
000000d0: da96 18be d9b0 993d e69a 9dbd e19c c63c
000000e0: 50d3 33be b0f1 953c 8494 393e f391 b1bd
000000f0: 3e1e 613c 47e0 5b3d 5b31 543d c47a 9fbc
00000100: a3a8 9dbd cfae d7bc d0f7 013d 3670 0d3e
00000110: 3a74 323e 6ab4 13bd cd9c 0f3d 042b 28be
00000120: 3d60 13be 631f 3f3d 8c6c 58bd 8a0e 453d
00000130: 2d24 04bd 1de1 4abd 8dd9 1dbe f7be 553d
00000140: 4d49 da3d a0f9 fc3d 9560 043d 480e 4a3d
00000150: 045e dd3b 65d7 223d ccc4 b63c 8dbe 593c
00000160: d098 1d3d c9a1 4c3c a503 163e e474 52bd
00000170: 2487 77bd ffc5 f8bd 996a a33d a40c b83d
00000180: d524 f13b 04ee 8a3e 6703 5a3e aadb 343e
0.057739656 -0.15658489 0.27738705 0.18413122 -0.04662499 0.056215454 -0.070731215 -0.015671432
0.178279 0.013280059 -0.034049194 -0.026811847 -0.027144516 -0.06329888 0.15784635 0.22498633
0.005354035 -0.152885 0.103743 0.07790742 0.18641567 -0.13727371 0.11847133 -0.116541944
0.03364599 0.09379016 -0.022399615 0.037172686 0.21811253 0.0065588355 -0.14523739 -0.10321434
0.021836413 -0.012110416 0.19186397 -0.096693434 -0.08830699 -0.19025226 -0.09276368 0.062359262
-0.134517 0.06592826 -0.033723105 0.1360702 0.11758052 0.058040068 0.17335021 0.13060276
0.09939957 0.043034345 -0.074185684 0.18414183 -0.14901295 0.07504434 -0.0769556 0.024244728
-0.17561078 0.018303722 0.1812306 -0.08670416 0.01374012 0.053680684 0.05180488 -0.019467719
-0.076981805 -0.026328472 0.031730473 0.13812336 0.1742715 -0.036060728 0.035061646 -0.16422659
-0.1439218 0.046660792 -0.052837893 0.04810957 -0.032261062 -0.04953109 -0.1541502 0.05218407
0.10658512 0.123523 0.03231867 0.049330026 0.0067555923 0.039756197 0.022310637 0.01329006
0.03847581 0.012489744 0.14649828 -0.051381007 -0.060431615 -0.1214714 0.07979316 0.08986786
0.007359127 0.27134717 0.2129036 0.1766192
