result/1x2_sparsemax_in_linsigpmt_scratch_39_checkpoint.pt (torch, 88519 bytes, 9 tensors)

nn_model.0.weight f4 [100, 2]
0	0xbe857cc0	-0.2607174
1	0x3ec3c0bd	0.38232985
2	0x3e93f083	0.28894433
3	0xbe6e21f0	-0.23255134
4	0x3e28c3bb	0.16480915
5	0xbe81b2ab	-0.25331625
6	0x3f01f7e4	0.50768876
7	0xbe589a5d	-0.21152635
8	0xbe8816c8	-0.2657988
9	0x3e28b98b	0.16477029
10	0x3eb8b7e4	0.36077797
11	0xbeaed06b	-0.34143385
12	0x3d28fe53	0.041258167
13	0x3eb53691	0.35393193
14	0xbd90162e	-0.070354804
15	0x3e5c5c7e	0.21519658
16	0xbe2ea355	-0.17054494
17	0x3e7dc9f1	0.24784066
18	0xbedfda5b	-0.4372128
19	0xbeb44f57	-0.35216781
20	0xbec65bf1	-0.3874202
21	0x3f2ab6fd	0.6668547
22	0xbde9d47e	-0.11417483
23	0xbcf0c5ef	-0.029391257
24	0xbeb0afb4	-0.3450905
25	0x3f3fa39a	0.7485901
26	0x3f1d5a26	0.6146568
27	0xbf0e4834	-0.55578923
28	0xbec7a5fd	-0.38993827
29	0xbeb2133d	-0.34780303
30	0xbdc7193a	-0.097216085
31	0xbe7cc7c0	-0.24685574
32	0xbeecf889	-0.46283367
33	0xbe81da6a	-0.2536195
34	0x3df7587e	0.120774254
35	0xbec2cd2d	-0.38047162
36	0x3e207161	0.1566825
37	0xbe260add	-0.16215082
38	0xbeaf6e40	-0.34263802
39	0x3dc6f497	0.097146206
40	0x3f2f30df	0.68433946
41	0xbf0cca28	-0.54995966
42	0xbd24324e	-0.040087037
43	0xbe99c4eb	-0.3003305
44	0x3f643ee6	0.89158475
45	0xbf0529bd	-0.5201681
46	0xbf0f1d5c	-0.55904174
47	0x3f3aed3f	0.7301826
48	0xbee50ee8	-0.44737935
49	0x3e0ad291	0.13556887
50	0xbd79f81a	-0.061027624
51	0xbe18882e	-0.14895698
52	0xbe4063d7	-0.18788086
53	0x3ed9d17a	0.4254263
54	0x3d0a6f4f	0.03379756
55	0xbf303e39	-0.68844944
56	0xbed51755	-0.41619363
57	0xbe39a3ab	-0.1812884
58	0x3eb62f0d	0.35582772
59	0xbeea4995	-0.45759264
60	0x3f3fa10f	0.7485513
61	0xbdcc1b77	-0.09966176
62	0xbe33584b	-0.1751415
63	0x3f1eefce	0.6208466
64	0x3e29feaa	0.16601053
65	0x3f0170cd	0.50562745
66	0x3efbdbac	0.49191034
67	0xbe23e5bb	-0.16005604
68	0xbef033e2	-0.46914583
69	0xbd577e87	-0.0526109
70	0x3f1d5fe2	0.6147443
71	0xbd2b472c	-0.04181592
72	0xbee81b65	-0.453334
73	0x3ebb41f9	0.3657377
74	0x3f41b88b	0.75672215
75	0xbe0e386f	-0.13888715
76	0xbf15e366	-0.5855011
77	0xbf243202	-0.64138806
78	0x3e4648eb	0.19363753
79	0xbcf7aa0a	-0.030232448
80	0xbee8f5a0	-0.45499897
81	0x3da72885	0.08162025
82	0x3eb82fac	0.3597387
83	0x3f215d78	0.63033247
84	0x3f0301ee	0.5117482
85	0xbe342900	-0.17593765
86	0xbf1f9ded	-0.6235035
87	0xbf2392c1	-0.63895804
88	0x3f410f78	0.7541423
89	0x3ebf0183	0.3730584
90	0x3e9dd0b9	0.30823305
91	0xbf1c9f2a	-0.61180365
92	0x3f3b4da1	0.7316533
93	0x3f3c9b4f	0.7367448
94	0x3f15cf62	0.58519566
95	0xbf1d2619	-0.6138626
96	0xbe82bc2b	-0.25534186
97	0xbee55ab4	-0.44795763
98	0x3f0fd5d0	0.56185627
99	0xbee1e51f	-0.44120118
100	0xbea3a654	-0.31962836
101	0x3eaafeb3	0.33397445
102	0xbea779f0	-0.32710218
103	0xbeb24fe3	-0.34826574
104	0xbde0525c	-0.10953209
105	0xbdf3044c	-0.11866054
106	0xbf0eb9ef	-0.5575246
107	0x3f41958f	0.75618833
108	0xbe9fb3ff	-0.31192014
109	0x3e806ba6	0.2508213
110	0x3f269c6f	0.6508245
111	0x3ec706df	0.3887243
112	0x3e29e07d	0.16589542
113	0x3f2bc115	0.67091495
114	0x3dc2ab84	0.0950537
115	0xbea77fe5	-0.32714763
116	0x3f34ff50	0.70702076
117	0x3e43e55b	0.19130461
118	0xbeace116	-0.33765477
119	0xbdea9129	-0.11453468
120	0xbef7ba95	-0.48384538
121	0x3f46f8e7	0.77723545
122	0xbdef2822	-0.116775766
123	0xbf2500ee	-0.64454544
124	0xbd179ebe	-0.037016623
125	0x3ee4bf77	0.44677326
126	0x3e3c1d98	0.18370664
127	0x3e64f4da	0.22359028
128	0x3e3e0a7b	0.18558685
129	0x3eb735e4	0.35783303
130	0xbde8703e	-0.113495335
131	0xbe666d4b	-0.2250263
132	0xbf293347	-0.6609387
133	0xbf085e59	-0.53268963
134	0x3e6eb91b	0.233128
135	0xbee8ab43	-0.45443162
136	0x3e1cbe73	0.15307026
137	0x3e97bf9d	0.29638377
138	0xbcdefbe4	-0.02721972
139	0xbeffd43c	-0.4996661
140	0x3f43241b	0.7622697
141	0xbebe3f61	-0.3715773
142	0x3f026190	0.5093012
143	0xbf24bebb	-0.6435353
144	0xbe2e2cfb	-0.17009346
145	0x3ec4f010	0.38464403
146	0xbe86a54f	-0.26297995
147	0x3f1f02a6	0.62113416
148	0xbef923a6	-0.4866001
149	0xbf1803cf	-0.5938081
150	0xbea3400b	-0.31884798
151	0x3dea1845	0.1143041
152	0x3f1dffc8	0.61718416
153	0xbe9d171a	-0.30681688
154	0x3e8c3b61	0.27389053
155	0xbe5e374d	-0.21700783
156	0xbe6588fc	-0.22415537
157	0x3f09b31e	0.53788936
158	0xbf0c4995	-0.5479978
159	0x3d99d036	0.07510416
160	0x3f07e7de	0.53088176
161	0xbe7132d6	-0.23554549
162	0x3f07f956	0.5311483
163	0xbea1621d	-0.31520167
164	0x3f11b6b6	0.5691942
165	0xbf2f1b02	-0.68400586
166	0xbdb2d9bb	-0.08732935
167	0xbe0a37cd	-0.13497849
168	0x3e9baa77	0.30403492
169	0x3ea5bf34	0.3237244
170	0x3f1d8b16	0.61540353
171	0xbdb314a5	-0.08744172
172	0x3d83d1fd	0.064365365
173	0x3f0f569a	0.5599152
174	0xbe58cca6	-0.21171817
175	0x3f191a40	0.5980568
176	0xbe8a4d2a	-0.27011997
177	0xbdbd38bd	-0.092393376
178	0x3ba26519	0.0049558994
179	0x3e91ee02	0.28501898
180	0x3eef99aa	0.46796924
181	0xbe59d99c	-0.21274418
182	0xbf15f894	-0.58582425
183	0x3eb36329	0.3503659
184	0x3e86b6aa	0.26311237
185	0x3e7cb58e	0.24678633
186	0xbeac8007	-0.33691427
187	0x3f0739f1	0.52822787
188	0x3f3eff3a	0.74608195
189	0x3e199afd	0.1500053
190	0xbf33fb53	-0.70305365
191	0x3edd1876	0.43182725
192	0xbf06378e	-0.5242852
193	0x3e2671f7	0.16254412
194	0x3cfe1330	0.031015009
195	0xbeccc755	-0.39995828
196	0x3e7c1eda	0.24621144
197	0xbf21e8dc	-0.6324594
198	0x3e304e0d	0.17217274
199	0xbf013be1	-0.5048199

nn_model.0.bias f4 [100]
0	0x3d338ff8	0.04383847
1	0xbe01c094	-0.12671119
2	0x3f2a44d9	0.66511303
3	0xbea12c8a	-0.31479293
4	0x3ef146b6	0.4712426
5	0xbe1883d7	-0.14894043
6	0xbec8c12a	-0.39209872
7	0xbf1da1af	-0.61574835
8	0xbf2616ac	-0.64878345
9	0x3f4a7fb7	0.7910113
10	0xbeac35f5	-0.33634916
11	0x3e1edab3	0.15513115
12	0x3e431bb4	0.19053537
13	0x3f0c8ad0	0.5489931
14	0x3f3d04db	0.73835534
15	0x3f1e3113	0.6179363
16	0xbf061d3a	-0.52388346
17	0xbe011237	-0.12604605
18	0xbed63b5e	-0.4184217
19	0xbeced9f7	-0.4040067
20	0x3e4d1f2d	0.20031424
21	0x3f3711c8	0.7151151
22	0xbef529e5	-0.47883525
23	0x3f0af21a	0.5427567
24	0xbebbb47b	-0.36661133
25	0xbe0d0819	-0.1377262
26	0x3f14dbc8	0.5814786
27	0xbe23c3c9	-0.15992655
28	0x3dc4c27e	0.09607409
29	0xbefd13aa	-0.49429065
30	0x3f196094	0.5991299
31	0xbdca37b3	-0.09873905
32	0xbf2a7fac	-0.6660106
33	0x3e42f70f	0.19039558
34	0xbf00b538	-0.5027652
35	0xbf10c90d	-0.5655678
36	0x3dfee2cd	0.124456026
37	0x3f0d5f8d	0.55223924
38	0xbe4ce6fe	-0.20009992
39	0x3eabde1b	0.3356789
40	0x3f298ed0	0.6623354
41	0x3eec6c1e	0.46176237
42	0xbeed8580	-0.46390915
43	0xbd9ebf1b	-0.07751294
44	0xbe8bb52c	-0.2728666
45	0xbf118fd2	-0.5686008
46	0xbcccc15c	-0.024994545
47	0x3f1c2e16	0.6100782
48	0x3f331f73	0.6996986
49	0xbe299f30	-0.16564631
50	0x3e6b78dc	0.22995323
51	0xbe9cbc00	-0.30612183
52	0x3f0ddb65	0.55412894
53	0xbe9aa395	-0.30202928
54	0xbefb7dbd	-0.49119368
55	0x3df2c80f	0.118545644
56	0x3ed73387	0.420315
57	0xbf23349c	-0.6375215
58	0x3f23ecc6	0.6403316
59	0x3eefd59a	0.46842653
60	0xbed8bae4	-0.42330086
61	0xbe1bf8c0	-0.1523161
62	0x3f1d8ed4	0.61546063
63	0xbf0ae262	-0.5425168
64	0xbe1975e8	-0.14986384
65	0x3ebd8de3	0.37022313
66	0xbf1e969d	-0.6194857
67	0x3ee77fb3	0.45214614
68	0x3ec51438	0.38491988
69	0x3efdf4fb	0.49600968
70	0xbee55bb0	-0.44796515
71	0x3f433389	0.7625051
72	0xbed69a43	-0.41914567
73	0x3f384817	0.71985
74	0xbf2db8f7	-0.6786036
75	0xbf214865	-0.6300109
76	0x3eecfc54	0.4628626
77	0xbd4d5e39	-0.050138686
78	0xbc4b8620	-0.012422115
79	0xbec87b61	-0.3915663
80	0xbef4132a	-0.4767087
81	0xbe971773	-0.29510078
82	0xbf30574a	-0.6888319
83	0x3e761064	0.2402969
84	0x3e010acb	0.12601773
85	0xbaf357b1	-0.0018565563
86	0x3e73563b	0.23763363
87	0x3f34c4df	0.706129
88	0x3ebbbba0	0.36666584
89	0xbe98cbe2	-0.2984305
90	0xbe9cab91	-0.30599645
91	0xbee7a265	-0.45241085
92	0xbf005ba4	-0.5013983
93	0xbe1f1ef4	-0.15539151
94	0xbdd79615	-0.10526673
95	0x3eb98f8c	0.3624233
96	0xbe9abfa8	-0.30224347
97	0x3f1ac18e	0.6045159
98	0xbefe090d	-0.4961628
99	0x3c9ad85e	0.018902

nn_model.2.weight f4 [100, 100]
0	0x3e5a9a32	0.21347883
1	0x3e292905	0.16519554
2	0xbbd593b5	-0.006517852
3	0x3dc292b6	0.09500639
4	0x3d716ff0	0.058944643
5	0x3e2128c5	0.15738209
6	0xbd85f3ab	-0.065406166
7	0x3cdde233	0.0270854
8	0xbd8e692a	-0.06953652
9	0x3d35ea86	0.044413112
10	0x3dc3766d	0.09544072
11	0xbb3f55d3	-0.0029195442
12	0x3df1ddf4	0.11809912
13	0x3d4fd1d7	0.05073723
14	0x3d8cf61f	0.068828814
15	0x3e10a5d5	0.1412576
16	0xbcfa674d	-0.030566836
17	0x3d77a499	0.060459707
18	0xbcea50ad	-0.028602922
19	0xbc6f5373	-0.014607298
20	0xbc2eef04	-0.010677103
21	0x3d309e4b	0.04311971
22	0x3be029db	0.006840927
23	0x3d95a185	0.07306198
24	0x3b76f133	0.0037680387
25	0x3d81d215	0.06338898
26	0x3d1cc0d4	0.038269833
27	0x3c244c8d	0.010028017
28	0xbc703034	-0.01465993
29	0xbdab82b2	-0.083745375
30	0x3dd7fd92	0.105464116
31	0x3b8350e4	0.0040074456
32	0xbcce5d3d	-0.025190944
33	0x3d0bdc0d	0.034145404
34	0x3cd63d00	0.026152134
35	0xbd21b635	-0.039480407
36	0x3dfdc1cc	0.123904794
37	0x3d8f8c27	0.07009154
38	0x3d1ab890	0.03777367
39	0x3dd11ce2	0.10210587
40	0x3c949ea1	0.018142046
41	0x3dc70ef9	0.09719653
42	0x3d8484f5	0.06470672
43	0x3b96cb00	0.004601836
44	0x3ce228ad	0.027607286
45	0x3b6e2100	0.0036335588
46	0x3da98804	0.08277896
47	0x3c40d8df	0.011770456
48	0xbca6a803	-0.020343786
49	0x3dd21a4a	0.102589205
50	0xbd7bd1f0	-0.06147951
51	0x3ad22400	0.0016032457
52	0xbaad15ee	-0.0013205388
53	0x3e3f84b7	0.1870297
54	0xbdbead43	-0.09310391
55	0x3da85d4c	0.0822092
56	0x3e2019aa	0.1563479
57	0x3ca5c1cd	0.020234013
58	0x3d665ed7	0.05624279
59	0x3dde79ca	0.10863073
60	0x3dc8a997	0.09797972
61	0xbc034a73	-0.008013356
62	0x3c82db53	0.015973723
63	0xbc622ab3	-0.013804126
64	0x3d5ced7f	0.05393743
65	0x3d052b45	0.03251197
66	0xbc9ab9f3	-0.018887496
67	0xbd6234c0	-0.055226088
68	0x3d8bc04d	0.06823788
69	0x3cf37660	0.029719532
70	0x3e185ab0	0.14878345
71	0x3e029657	0.12752663
72	0x3dc7114a	0.097200945
73	0xbab39a67	-0.0013702632
74	0xbbcc52b3	-0.0062354445
75	0xbd241dad	-0.040067364
76	0xbcf65f14	-0.030074634
77	0x39a318b5	0.0003110819
78	0x3df92a47	0.12166267
79	0x3d6ed263	0.05830611
80	0x3d270cf6	0.040783845
81	0x3e048be2	0.12943986
82	0xbda2b595	-0.0794479
83	0x3cc94b74	0.024572112
84	0x3dfe0146	0.12402587
85	0xbd11d3a6	-0.035602234
86	0x3e10dad6	0.1414598
87	0x3daee7e2	0.08540322
88	0x3db64745	0.08900312
89	0xbcf61112	-0.030037437
90	0x3d78e3b2	0.060764022
91	0xbdb58d7d	-0.088648774
92	0xbdb47e1e	-0.088131174
93	0x3e26cfe0	0.16290236
94	0x3d3449be	0.04401564
95	0x3e0460b2	0.12927511
96	0x3dc93f88	0.09826571
97	0x3e07c5cd	0.13259049
98	0x3d89804a	0.06713922
99	0x3df779f3	0.12083807
100	0xbc536700	-0.012902975
101	0xbd9eef35	-0.07760469
102	0xbd180dfd	-0.037122715
103	0xbc37ef27	-0.011226452
104	0xbd5d57a3	-0.054038655
105	0x3d516027	0.05111709
106	0x3d0fc7e0	0.035102725
107	0x3c842df3	0.016135192
108	0x3cc5e2f3	0.02415607
109	0x3db3e833	0.08784523
110	0x3d15306d	0.036423136
111	0xbdb398e2	-0.087693945
112	0xbd94a90f	-0.07258808
113	0x3d3487f3	0.044074964
114	0x3c5f47a7	0.013627923
115	0x3d47c22d	0.048769165
116	0xbdcc89b0	-0.09987199
117	0xbdbd00ef	-0.09228694
118	0x3d7b2d73	0.06132264
119	0x3d82ffdb	0.06396457
120	0xbdb948ea	-0.090471104
121	0x3d1b7a67	0.03795853
122	0xbd9feaba	-0.078084424
123	0x3d9b18bd	0.07573078
124	0x3d008750	0.031379044
125	0x3dca80ea	0.0988787
126	0xbdc9ee60	-0.098599195
127	0xbdc527f5	-0.09626762
128	0x3d8a7738	0.067610204
129	0x3db5d380	0.08878231
130	0x3d7af427	0.061267998
131	0x3d88283b	0.06648298
132	0xbdac7f47	-0.08422714
133	0x3d943caf	0.07238137
134	0xbdc15c80	-0.09441471
135	0x3cb702ba	0.022340167
136	0xbd8626b0	-0.06550348
137	0xbd22b0f7	-0.039719548
138	0x3c910e07	0.017706884
139	0xbd210bea	-0.039318003
140	0xbc819dc0	-0.015822291
141	0xbdc21d4b	-0.094782434
142	0xbdc119b7	-0.09428733
143	0x3d1ea9f7	0.03873631
144	0xbd2d5ff7	-0.042327847
145	0xbd793247	-0.060838964
146	0xbd219ef3	-0.039458226
147	0xbda77023	-0.08175685
148	0xbda3b798	-0.07994002
149	0x3d7517e3	0.059837233
150	0x3d502d0d	0.050824214
151	0x3c5a3d9a	0.013320351
152	0xbd5fbf7a	-0.054625966
153	0x3d08463a	0.0332701
154	0x3b933600	0.0044925213
155	0xbd925d70	-0.07146728
156	0x3cb04893	0.021518981
157	0x3dba7aba	0.091054395
158	0xbdc9714d	-0.098360635
159	0xbdcba6ca	-0.09943922
160	0x3c51eb80	0.012812495
161	0x3d9a380f	0.075302236
162	0xbd793cc7	-0.060848977
163	0x3cb4561a	0.022013713
164	0x3d8ff8ad	0.07029853
165	0x3cfc92a0	0.030831635
166	0x3cb148a0	0.021641076
167	0x3dcc5593	0.099772595
168	0x3d856bef	0.06514727
169	0xbd665ec0	-0.056242704
170	0x3c0d9e1a	0.008643651
171	0x3d5140da	0.051087238
172	0x3db49d75	0.08819095
173	0xbdcbc323	-0.09949329
174	0x3d5dccf3	0.054150533
175	0xbcedd700	-0.029033184
176	0xbdc88b65	-0.097922124
177	0x3cb5d753	0.022197401
178	0xbd5efdea	-0.05444137
179	0x3c682e67	0.014171219
180	0xbd84f73d	-0.064924695
181	0xbd9a1e32	-0.075252905
182	0xbc0b051a	-0.008485103
183	0xbd09985d	-0.03359257
184	0x3d6f8f83	0.058486473
185	0x3c0d4280	0.008621812
186	0x3d9fdbc0	0.07805586
187	0x3c998540	0.018740296
188	0xbd03b627	-0.032156136
189	0x3d8ab7ca	0.06773336
190	0x3bb30f9a	0.0054645063
191	0x3c99c1cd	0.01876917
192	0xbd03bc93	-0.03216226
193	0x39bc2800	0.00035887957
194	0xbc9d829a	-0.019227315
195	0xbc0b4ada	-0.008501733
196	0xbd9fb823	-0.07798793
197	0xba213733	-0.0006149888
198	0xbda9fe3a	-0.08300443
199	0xbcb03c33	-0.02151308
200	0x3d875c30	0.0660938
201	0xbd9f728f	-0.07785522
202	0xbd9b2e39	-0.07577176
203	0xbcc80787	-0.024417652
204	0xbd1283be	-0.03577017
205	0x3c8aae27	0.016928745
206	0x3cd73e30	0.02627477
207	0x3d4fb4ed	0.050709654
208	0xbd8d152f	-0.06888806
209	0xbc7cd399	-0.015431308
210	0x3d6ecc67	0.058300402
211	0x3d9ff553	0.07810464
212	0xbc7fc933	-0.0156119345
213	0xbd87a6a9	-0.06623585
214	0x3ca6dc81	0.020368816
215	0x3d46fe0d	0.048582125
216	0xbd7fe5c7	-0.062474992
217	0xbd6db02d	-0.058029342
218	0x3d350ae0	0.044199824
219	0xbbe5979a	-0.0070065977
220	0xbdd2720d	-0.1027566
221	0xbd873924	-0.066026956
222	0x3d261b33	0.040553283
223	0xbd2d1893	-0.042259764
224	0x3d8d5be2	0.06902291
225	0x3da1e70f	0.07905399
226	0x3bcb0cfe	0.006196617
227	0xbc018e5a	-0.007907474
228	0xbd243ae8	-0.04009524
229	0xbba5b1b3	-0.005056584
230	0x3c213a76	0.009840598
231	0xbdab574b	-0.08366259
232	0xbc7497ef	-0.014928802
233	0xbdbb8084	-0.09155372
234	0x3d7b64dd	0.061375488
235	0xbd826c90	-0.06368363
236	0x3daa13b0	0.08304536
237	0xbd0bd6db	-0.03414045
238	0xbd6aa653	-0.057287525
239	0x3d228bf5	0.039684255
240	0x3bd686f9	0.0065468517
241	0x3d797576	0.060903035
242	0x3d2afee0	0.041746974
243	0xbdc54abb	-0.09633394
244	0x3d9352bf	0.07193517
245	0xbc9a4447	-0.018831385
246	0xbd564e8f	-0.052321013
247	0x3d61d48a	0.055134334
248	0x3d84361f	0.06455635
249	0xbdc4f146	-0.09616332
250	0xbc8e5f31	-0.017379375
251	0x3da82ee0	0.08212066
252	0x3cf8c12e	0.030365553
253	0x3dc05f43	0.0939317
254	0xbd0c5e90	-0.03426987
255	0xbd81fedd	-0.063474394

nn_model.2.bias f4 [100]
0	0x3d0ba656	0.034094177
1	0xb97c5ccd	-0.00024067164
2	0xbd9dc29e	-0.07703136
3	0x3d4a1af3	0.049342107
4	0xbd9c02ad	-0.07617698
5	0x3d1e6997	0.038674917
6	0xbd946cdd	-0.072473265
7	0xbd22173d	-0.039572943
8	0xbbb5a807	-0.005543712
9	0x3d048175	0.032350022
10	0xbdcccf49	-0.10000474
11	0x3d6fe34e	0.058566384
12	0x3d0aa929	0.03385273
13	0xbd817f98	-0.06323165
14	0x3d1edaa5	0.038782734
15	0xbd58c660	-0.05292356
16	0xbd33328c	-0.043749377
17	0xbc8a129a	-0.016854573
18	0x3d5c82be	0.053835623
19	0x3b6f9533	0.0036557436
20	0xbd90f99b	-0.070788585
21	0x3d8990fc	0.06717107
22	0x3c477393	0.012173551
23	0xbd9bb5f9	-0.07603068
24	0x3d0734bd	0.03300928
25	0xbda7be2f	-0.081905715
26	0x3d6c8976	0.05774828
27	0x3d855c76	0.06511776
28	0x3d8e3521	0.06943727
29	0xbdb527df	-0.088454954
30	0x3d6b1c4a	0.057400025
31	0xbc167273	-0.00918256
32	0xbcb17567	-0.021662427
33	0x3d377354	0.04478772
34	0xbdb85fe8	-0.09002668
35	0xbcfc28ab	-0.03078111
36	0xbdba9aab	-0.09111532
37	0xbd104e0a	-0.035230674
38	0x3cb594d3	0.022165691
39	0x3d43618f	0.04770046
40	0x3d915630	0.07096517
41	0xb98f84a1	-0.00027373902
42	0xbcc36c86	-0.023855459
43	0x3d6a5d7b	0.057218056
44	0xbd5b8002	-0.053588875
45	0xbdc2e782	-0.09516813
46	0xbd02d6fe	-0.031943314
47	0xbd5709f3	-0.052499723
48	0x3dd20815	0.10255448
49	0x3cf4ab96	0.029866975
50	0x3c8779a2	0.016537491
51	0x3d8aee5a	0.06783743
52	0xbd6e16e5	-0.058127303
53	0xbd570373	-0.052493524
54	0xbdbdd840	-0.09269762
55	0xbc53aecc	-0.012920093
56	0xbd908ddb	-0.07058307
57	0xbb8d431a	-0.0043109776
58	0xbd8048e8	-0.06263906
59	0x3d69cc0e	0.057079367
60	0xbdadbd6a	-0.084833935
61	0xbd4c0bd9	-0.049815986
62	0x3d74347a	0.059620358
63	0x3d911202	0.07083513
64	0xbb856ec7	-0.0040720436
65	0xbd34af4e	-0.044112496
66	0xbdd50202	-0.104007736
67	0x3dd75f5b	0.105162345
68	0x3aff12cd	0.0019460559
69	0xbc8b7813	-0.01702503
70	0xbc81808e	-0.01580837
71	0xbd0957cb	-0.03353099
72	0x3d468b84	0.048472896
73	0xbd87c5d0	-0.066295266
74	0xbc9b388c	-0.018947862
75	0x3d5c299b	0.053750616
76	0xbcb51f33	-0.022109604
77	0x3da9e379	0.0829534
78	0x3d7c1521	0.061543588
79	0xbdc3cf8c	-0.09561071
80	0x3d076cf4	0.03306289
81	0xbc07fe8d	-0.008300436
82	0xbca97849	-0.02068724
83	0xbd3f8bc0	-0.046764135
84	0x3da417ae	0.08012329
85	0x3d70ef9a	0.05882225
86	0x3db7ca9a	0.0897419
87	0x3de14f6c	0.11001477
88	0x3d96bedc	0.07360622
89	0xbd2cbd8f	-0.042172965
90	0x3d43bf10	0.047789633
91	0xbc0c9ec8	-0.008582778
92	0x3debd7b3	0.11515751
93	0x3dfaac20	0.122398615
94	0x3da8559f	0.08219456
95	0x3caf63b1	0.021409841
96	0xbd97b543	-0.0740762
97	0xbd24547d	-0.040119637
98	0xbc8a3941	-0.016873004
99	0xbd85fde9	-0.0654257

nn_model.4.weight f4 [100, 100]
0	0x3e1a8f75	0.15093787
1	0xbd56c417	-0.0524331
2	0xbc0a7f8f	-0.008453264
3	0xbce3a90d	-0.02779057
4	0x3d0992e4	0.03358735
5	0xbd35f836	-0.044426166
6	0x3b587533	0.003302884
7	0x3df5a620	0.119945765
8	0x3cd0457f	0.025423763
9	0x3d28a10a	0.041169204
10	0x3d4e8385	0.050418396
11	0x3df3936f	0.11893355
12	0xbd8f2e26	-0.06991224
13	0xbc9854a7	-0.018595053
14	0xbd5f08aa	-0.054451622
15	0xbd93f058	-0.07223576
16	0xbdd4eba7	-0.103965096
17	0x3d057603	0.032583248
18	0x3e01c2ac	0.12671918
19	0x3bd6fdb3	0.006561005
20	0x3c0a8040	0.008453429
21	0xba7cef39	-0.0009648684
22	0xbd6f77cc	-0.058463857
23	0x3ded3980	0.11583233
24	0x3d2258dd	0.039635528
25	0xbdaf57d3	-0.08561673
26	0x3cf79b0d	0.030225301
27	0x3e02e06c	0.12780923
28	0x3dacfce6	0.08446674
29	0x3e0639d7	0.13108002
30	0x3dda108b	0.106476866
31	0x3da6ad7b	0.081385575
32	0xbcaaca73	-0.020848488
33	0x3cc4d5de	0.024027761
34	0x3d0ec0b7	0.034851756
35	0xbd4a84cd	-0.049443055
36	0x3d08283a	0.033241488
37	0xbd795cd3	-0.06087954
38	0x3d941281	0.07230092
39	0x3da31a89	0.079640456
40	0x3df5f24e	0.120091066
41	0x3df94d2e	0.12172924
42	0x3e04705e	0.1293349
43	0xbdad32d1	-0.08456958
44	0xbd97c12e	-0.07409893
45	0xbdae6b28	-0.08516532
46	0x3d86e07f	0.06585788
47	0x3e17b10e	0.14813635
48	0x3dc61592	0.09672083
49	0x3d8b4557	0.06800335
50	0x3dfbfa83	0.12303641
51	0xbd1067c8	-0.035255224
52	0xbc078f80	-0.008273959
53	0xbda8bb3f	-0.08238839
54	0xbd92bb9e	-0.071646914
55	0xbd84659c	-0.06464693
56	0x3d70a46a	0.058750547
57	0xbce3a093	-0.027786529
58	0x3caa7d28	0.020811632
59	0x3dd6bbdd	0.10485051
60	0x3d594860	0.053047538
61	0x3d8a58d2	0.067552224
62	0xbd64ad99	-0.055829618
63	0x3dc10fc4	0.09426835
64	0x3da91c04	0.08257297
65	0xbd5a8ad3	-0.05335505
66	0x3c45ca6e	0.012072189
67	0xbdb9afcb	-0.09066733
68	0xbccd254d	-0.0250422
69	0x3cb09da0	0.021559536
70	0xbdbdb79e	-0.09263538
71	0xbd2162a0	-0.039400697
72	0x3d3a4b92	0.045482226
73	0x3e0a70b0	0.1351955
74	0xbcdefbfa	-0.027219761
75	0x3ddca742	0.107740894
76	0xbda0bf13	-0.078489445
77	0xbcfa005a	-0.030517746
78	0x3dbde37a	0.09271903
79	0xbcbc0a6e	-0.022954192
80	0x3da57c1a	0.08080311
81	0xbd76348a	-0.0601087
82	0x3d479d82	0.048734196
83	0xbcb53efa	-0.022124756
84	0x3d20951e	0.03920471
85	0x3d1731da	0.036912777
86	0x3cfed35a	0.03110664
87	0x3dff8030	0.12475622
88	0x3c7f0eb4	0.01556747
89	0xbcfbf4ee	-0.03075644
90	0x3d987862	0.07444836
91	0x3cd52d5b	0.026022604
92	0xbd96e633	-0.07368126
93	0xbd1af044	-0.03782679
94	0x3d7cc57a	0.061711766
95	0x3dbe72b5	0.092992224
96	0xbb3440cd	-0.0027504445
97	0x3d92ae7f	0.07162189
98	0x3d30a83b	0.043129187
99	0x3dc265b6	0.09492056
100	0x3d0d2980	0.034463406
101	0x3d42960a	0.04750637
102	0xbcf7d0cf	-0.030250935
103	0xbdafa0df	-0.085756056
104	0xbc945d48	-0.018110886
105	0x3d7964e6	0.06088724
106	0xbd4e22b0	-0.05032605
107	0x3dbdb0b5	0.0926222
108	0x3e2505ff	0.16115569
109	0x3d7ee419	0.06222925
110	0x3d96e611	0.073681004
111	0xbd430556	-0.04761251
112	0x3d37fefd	0.04492091
113	0x3cbe952d	0.023264492
114	0x3d126670	0.035742223
115	0xbd995187	-0.07486253
116	0x3da35d9a	0.079768375
117	0x3d2494fa	0.040181138
118	0x3e15eb20	0.14640474
119	0xbc45e673	-0.012078869
120	0xbd31b393	-0.043384146
121	0x3ddabb5a	0.10680266
122	0xbd72f88b	-0.05931906
123	0x3d6ac780	0.057319164
124	0xbd7b4863	-0.06134833
125	0x3d92bbab	0.07164701
126	0x3d96c50f	0.07361805
127	0xbe49b9c6	-0.19699773
128	0xbddd78b5	-0.10814039
129	0x3d71aa2e	0.059000187
130	0xbe0a846f	-0.13527082
131	0x3dbc5f07	0.091978125
132	0x3d2a8243	0.041628134
133	0xbd8c1680	-0.06840229
134	0x3dad1858	0.08451909
135	0xbd190f4e	-0.03736811
136	0x3d37bf87	0.04486039
137	0x3d28a73a	0.041175105
138	0xbc6c12f4	-0.014408816
139	0xbd17c445	-0.03705241
140	0xbc7df13e	-0.015499411
141	0xbddf16e2	-0.108930364
142	0x3ddff547	0.10935455
143	0xbda49403	-0.080360435
144	0x3cae43f1	0.021272631
145	0x3d98ff4b	0.07470568
146	0xbc1729fa	-0.009226317
147	0xbe5834d1	-0.21113898
148	0x3d727eb2	0.059202857
149	0x3e191cdb	0.14952414
150	0x3c87adcc	0.016562365
151	0xbd2ed8e7	-0.042687323
152	0x3ddce026	0.107849404
153	0x3d84537f	0.06461238
154	0x3d3d9df6	0.04629322
155	0x3d8afea2	0.067868486
156	0x3d986530	0.07441175
157	0x3dbfb285	0.09360222
158	0xbd99dfe1	-0.07513405
159	0x3da3ee9f	0.08004498
160	0x3d9acaaf	0.0755819
161	0x3df6bb70	0.120474696
162	0x3d50331f	0.050830003
163	0x3da7e2f7	0.08197587
164	0x3d8102b0	0.06299341
165	0x3d895565	0.06705741
166	0x3e139bd0	0.14414907
167	0xbd91f59d	-0.07126925
168	0x3d5ae730	0.053443134
169	0x3da1b8b7	0.0789656
170	0x3bbe22c0	0.0058024824
171	0x3e067cd9	0.13133563
172	0x3e0ac716	0.13552508
173	0x3daf821f	0.085697405
174	0xbccd5d02	-0.025068764
175	0xbbffc120	-0.0078050047
176	0x3d223130	0.03959769
177	0xbc0312b1	-0.008000062
178	0xbe2d4057	-0.16919075
179	0xbc4a39e9	-0.012342908
180	0x3d85e808	0.06538397
181	0xbcaefae0	-0.02135986
182	0xbce20869	-0.0275919
183	0x3dafaac5	0.085774936
184	0x3c8d1bb1	0.017225118
185	0x3d2620a0	0.040558457
186	0x3d8e67dd	0.06953404
187	0x3d9abc1b	0.075554095
188	0x3bfbadc2	0.0076806257
189	0x3dc747ac	0.09730467
190	0xbbee99e7	-0.00728153
191	0xbe316495	-0.17323525
192	0xbe2e877f	-0.17043875
193	0x3c8d4db5	0.017248968
194	0xbd84af38	-0.06478733
195	0x3e151bba	0.14561358
196	0x3da5105b	0.0805976
197	0xbd9eff93	-0.07763591
198	0x3ce25043	0.027626162
199	0x3e1be786	0.15225038
200	0x3c84a3cf	0.016191391
201	0xbc966cc7	-0.018362416
202	0xbd6bdf0b	-0.057585757
203	0xbd57043d	-0.052494276
204	0x3c92cc33	0.017919635
205	0x3c470fa1	0.012149722
206	0xbd89701a	-0.06710835
207	0x3b3339eb	0.0027347754
208	0x3d7d475c	0.06183563
209	0x3cfae3e0	0.030626237
210	0x3c548e03	0.012973311
211	0x3bcaaf8c	0.0061854776
212	0xbd3a0120	-0.04541123
213	0x3d480ee2	0.04884232
214	0x3e1f9a38	0.15586174
215	0x3c931dc0	0.017958522
216	0xbe2b06aa	-0.16701761
217	0x3d1361fa	0.03598211
218	0xbd5cf298	-0.053942293
219	0xbdbf0d22	-0.09328677
220	0x3d916048	0.07098442
221	0x3d4aa0be	0.049469702
222	0x3d0941e5	0.033510108
223	0x3d83bac9	0.06432111
224	0xbd1a841d	-0.03772365
225	0x3d019d93	0.031644415
226	0xbdd69b63	-0.104788564
227	0x3d5b1a6f	0.053492006
228	0xbd2614ef	-0.040547308
229	0x3ca0b18c	0.019615911
230	0x3e028b8b	0.12748544
231	0x3c840ce7	0.016119434
232	0xbd4c1703	-0.049826633
233	0x3e0f24d8	0.13978899
234	0x3d6f9870	0.058494985
235	0x3d1584e4	0.036503688
236	0x3b84794d	0.0040427805
237	0x3dbda6a7	0.09260302
238	0xbd6e1a11	-0.058130328
239	0xbd834a1a	-0.06410618
240	0x3e228dfc	0.15874475
241	0x3e1fb162	0.1559501
242	0x3d41798f	0.047235068
243	0x3d8940ea	0.067018345
244	0xbca61e0b	-0.020277997
245	0xbcb87153	-0.022514975
246	0x3da0c536	0.07850115
247	0x3e9fb10b	0.3118976
248	0xbdb623f3	-0.088935755
249	0xba983c69	-0.0011614683
250	0x3d2c1de7	0.042020705
251	0xbd030d41	-0.03199506
252	0xbdf5075a	-0.11964293
253	0x3d3bf49a	0.045887567
254	0xbd8ae28a	-0.0678149
255	0x3d7c8776	0.061652623

nn_model.4.bias f4 [100]
0	0xbbf5e68c	-0.00750429
1	0xbd26633b	-0.040621977
2	0x3e0438f0	0.12912345
3	0x3d9abdd7	0.0755574
4	0xbdc65b3f	-0.096853726
5	0x3dbf7063	0.09347608
6	0x3dd688fe	0.10475348
7	0xbdc25077	-0.09488004
8	0x3d857a91	0.06517518
9	0xbcd81e31	-0.026381584
10	0xbd4e742e	-0.050403766
11	0xbd776ff4	-0.0604095
12	0xbdc426ef	-0.095777385
13	0xbda00d88	-0.07815081
14	0x3dd6ffdf	0.10498022
15	0xbc8603f8	-0.016359314
16	0xbb787767	-0.0037912966
17	0x3bb0fbbf	0.005401104
18	0x3db0e18e	0.08636771
19	0xbc459aee	-0.012060864
20	0x3d3241f3	0.043519925
21	0xbd124d86	-0.035718463
22	0x3d88aa4e	0.06673108
23	0xbcd2b2c7	-0.025720013
24	0x3df3b9a2	0.11900641
25	0x3c9361e1	0.017991008
26	0xbd58068b	-0.052740615
27	0x3d5a0707	0.053229358
28	0x3dc1c762	0.094618574
29	0x3bb1879a	0.0054177763
30	0x3c445035	0.0119820135
31	0x3d417b8b	0.04723696
32	0x3b9f009a	0.0048523666
33	0x3cd93980	0.026516676
34	0x3dc7ec5e	0.0976188
35	0x3d482255	0.048860867
36	0x3c92c8c7	0.017918004
37	0x3d299ee8	0.04141131
38	0x39b8fc23	0.0003528307
39	0xbd47e156	-0.04879888
40	0x3d812e98	0.06307715
41	0x3d836807	0.06416326
42	0x3d2045f3	0.03912921
43	0x3c9b67c3	0.018970376
44	0x3d4ba65c	0.0497192
45	0xbd815e26	-0.063167855
46	0x3d14e0a4	0.036347046
47	0x3c2d2338	0.010567479
48	0xbd25c453	-0.040470432
49	0xbdac4019	-0.08410663
50	0xbc1ea940	-0.009683907
51	0x3dae585b	0.08512946
52	0xbd562033	-0.0522768
53	0x3d48485b	0.04889713
54	0xbd1d85cc	-0.038457677
55	0xbbfa26c1	-0.0076340144
56	0x3da671b1	0.08127154
57	0xbd004213	-0.031313013
58	0x3db42722	0.087965265
59	0x3da54c4a	0.080711916
60	0x3ca975fa	0.020686138
61	0xbd27c6e7	-0.040961172
62	0x3c48af3f	0.012248813
63	0x3dc1e02b	0.09466585
64	0xbd99b4ae	-0.07505165
65	0x3df26963	0.11836507
66	0x3d980790	0.074233174
67	0xbd43ffd2	-0.04785139
68	0x3dd5d1f1	0.10440434
69	0x3c35187d	0.011053202
70	0xbc81747a	-0.01580261
71	0xbd867b8d	-0.06566534
72	0x3d9e27cb	0.07722434
73	0xbd9100db	-0.07080241
74	0xbd865b6d	-0.06560407
75	0x3a4b1a67	0.00077477697
76	0x3b91ca46	0.0044491617
77	0xbd56ece5	-0.052472014
78	0x3d0bcb41	0.034129385
79	0xbcdb75a7	-0.0267895
80	0x3d38d16c	0.045121595
81	0xbc8a4a83	-0.016881233
82	0xbcfa17b1	-0.030528875
83	0xbdc37fe7	-0.0954588
84	0x3df2ca5f	0.118550055
85	0x3d79ddec	0.061002657
86	0x3e052180	0.1300106
87	0xbd98c290	-0.07458985
88	0x3b1bee2d	0.0023793087
89	0xbcf1a958	-0.029499695
90	0xbd3d4575	-0.046208818
91	0xbc39b0f7	-0.011333696
92	0x3d11b1e1	0.03557003
93	0x3d576e95	0.052595694
94	0xbda3632e	-0.079779014
95	0xbda63408	-0.08115393
96	0x3df45dfc	0.119319886
97	0x3d87188f	0.06596481
98	0x3d2ad512	0.041707106
99	0x3dfd483e	0.12367295

allocation_head.0.weight f4 [4, 100]
0	0x3c8d9d95	0.017287055
1	0x3dd0b2e8	0.10190374
2	0xbd7fdc18	-0.062465757
3	0xbc8b1c19	-0.016981171
4	0x3d6b104d	0.057388593
5	0x3cdbacad	0.026815737
6	0xbc61c1bb	-0.013779099
7	0x3da2623f	0.07928895
8	0x3b169814	0.002297883
9	0x3c883c41	0.016630294
10	0x3e2c0709	0.16799559
11	0xbd639cca	-0.055569448
12	0xbdc3a7c7	-0.09553485
13	0xbd776db7	-0.060407367
14	0xbd1e6f5a	-0.038680412
15	0xbc76109b	-0.0150186075
16	0x3d21ede7	0.039533522
17	0x3d91a9b0	0.071124434
18	0xbdaed003	-0.08535769
19	0x3c648f41	0.01395017
20	0x3dd41c5e	0.10356973
21	0x3dd62eac	0.10458121
22	0xbce2ee7b	-0.027701607
23	0x3dcf71b5	0.1012911
24	0xbd430b59	-0.047618244
25	0xbcdd06d7	-0.0269808
26	0x3e22ebec	0.1591031
27	0xbdbdfca5	-0.09276704
28	0xbd287118	-0.04112348
29	0xbccf649a	-0.025316525
30	0xbbef822a	-0.007309218
31	0x3cfdb881	0.030971767
32	0xbd84bf48	-0.064817965
33	0xbdd53a3e	-0.104114994
34	0xbdaecb84	-0.08534911
35	0xbdb3b4c7	-0.08774715
36	0xbdfc65f3	-0.12324133
37	0x3e3e2f21	0.18572666
38	0x3e162cc4	0.14665514
39	0x3d521d23	0.05129732
40	0xbd38e723	-0.045142304
41	0xbd035840	-0.032066584
42	0x3c28af54	0.010295708
43	0xbdf0ab84	-0.11751464
44	0xbdb7256c	-0.089426845
45	0xbd6e8787	-0.058234718
46	0x3d9250c4	0.07144311
47	0x3d9b4ea8	0.07583362
48	0xbd35a7d3	-0.044349503
49	0x3b8207b5	0.003968204
50	0x3d930fb1	0.07180727
51	0x3dc22296	0.09479253
52	0xbe4e454b	-0.2014362
53	0x3c2e42ed	0.010636074
54	0x3d730a2f	0.059335884
55	0xbdda0160	-0.106447935
56	0x3d004575	0.03131624
57	0xbe3550e2	-0.17706636
58	0xbd7fa34e	-0.0624116
59	0xbdcd884f	-0.100357644
60	0x3db90c52	0.09035553
61	0x3d24b993	0.04021604
62	0xbdcf78c3	-0.10130455
63	0xba744467	-0.0009318054
64	0x3d8b7436	0.06809275
65	0xbd8a9b98	-0.067679584
66	0xbcca03cd	-0.024660015
67	0x3d829c82	0.06377508
68	0x3d6b5e3e	0.057462923
69	0x3dc5d53f	0.09659814
70	0xbd9dd2df	-0.07706236
71	0xbeddcf73	-0.43322334
72	0x3d9a3cb7	0.07531112
73	0x3da9afda	0.08285494
74	0x3da7cbb7	0.081931524
75	0x3db4b4e8	0.08823568
76	0xbd3dee10	-0.046369612
77	0xbdf96015	-0.12176529
78	0x3d8e8623	0.06959178
79	0xbd801fbd	-0.062560536
80	0xbe0a56da	-0.13509694
81	0x3e141237	0.14460073
82	0x3dd43bb6	0.103629515
83	0xbdbffeb8	-0.093747556
84	0xbd270068	-0.04077187
85	0xbd6546d7	-0.05597576
86	0xbd99e4d0	-0.07514346
87	0xbd3b7f4a	-0.04577569
88	0x3caba598	0.020952985
89	0xbe04be63	-0.12963252
90	0x3dbc6d3b	0.092005216
91	0x3d5f3236	0.054491244
92	0x3d80c6f2	0.06287946
93	0x3dba9af0	0.09111583
94	0xbdb8b164	-0.090182096
95	0xbd790540	-0.060796022
96	0x3c3165e0	0.010827512
97	0x3c4057e0	0.011739701
98	0xbdc47385	-0.09592346
99	0xbd963aa6	-0.07335405
100	0x3e108265	0.14112242
101	0x3e12ea10	0.143471
102	0xbd214a53	-0.03937752
103	0xbc00cec8	-0.0078618005
104	0xbe85edc6	-0.2615797
105	0xbaeb9733	-0.0017974138
106	0xbd95b9c7	-0.07310825
107	0xbd9df94f	-0.077135675
108	0x3c8fd4aa	0.01755746
109	0x3bab48c3	0.0052271797
110	0x3e2f0fa0	0.17095804
111	0x3dc0e1bb	0.09418055
112	0xbd7941f3	-0.06085391
113	0x3e46ad5e	0.19402072
114	0x3d882016	0.06646745
115	0xbdaeb1f7	-0.08530038
116	0xbccbe2d3	-0.024888432
117	0x3d2aac82	0.041668423
118	0x3c55056a	0.013001779
119	0x3d998b1a	0.07497235
120	0x3d8262f4	0.0636653
121	0x3d877128	0.0661338
122	0xbd5c9a14	-0.053857878
123	0x3cbeda7c	0.02329754
124	0xbdfe4fca	-0.12417562
125	0xbd9ed04e	-0.07754575
126	0xbcafb38a	-0.021447916
127	0xbd47858a	-0.048711337
128	0xbd1b4a2c	-0.037912533
129	0xbda7dbc8	-0.08196217
130	0x3d720fe1	0.059097175
131	0x3d84de3d	0.06487701
132	0xbd856b92	-0.06514658
133	0xbcf353a5	-0.02970297
134	0x3dab87d3	0.08375516
135	0xbb8f394d	-0.0043708445
136	0xbd9ab4eb	-0.075540386
137	0xbcac146c	-0.021005832
138	0x3b6f55b4	0.003651959
139	0x3d8d0898	0.06886405
140	0x3e04041a	0.1289219
141	0x3da8bcfc	0.08239171
142	0x3db50786	0.088393256
143	0xbcc1f619	-0.023676919
144	0xbdde8047	-0.10864311
145	0xbdaa78a6	-0.08323793
146	0x3d8fdd70	0.07024658
147	0xbc4b7512	-0.012418048
148	0xbd4b9717	-0.049704637
149	0xbd8ebe2a	-0.06969865
150	0xbdaec265	-0.085331716
151	0xbdc147ca	-0.09437521
152	0xbe863c42	-0.26217848
153	0x3d783e56	0.060606323
154	0x3d809bbc	0.06279704
155	0xbe03c3df	-0.12867688
156	0x3d99d95a	0.0751216
157	0xbdf48221	-0.119388826
158	0xbc2a63c5	-0.0103997635
159	0xbddf99ed	-0.10918031
160	0x3c86b127	0.016441895
161	0xbca0d80d	-0.019634271
162	0xbdc9465c	-0.09827873
163	0xbdf6ec8d	-0.12056837
164	0xbc0cb483	-0.008587959
165	0xbd8cf011	-0.068817265
166	0xbd9388d5	-0.07203833
167	0x3dd83754	0.10557428
168	0xbdc9039c	-0.098151416
169	0x3bfea3d2	0.0077709937
170	0x3db41ae8	0.087941945
171	0xbeb03fba	-0.3442362
172	0x3e05709d	0.1303124
173	0x3d145693	0.036215376
174	0xbdc34315	-0.09534279
175	0x3d819390	0.063269734
176	0xbdafc1d3	-0.08581891
177	0xbd1b042b	-0.03784577
178	0x3e094710	0.13406014
179	0xbda57f77	-0.080809526
180	0xbc276c7e	-0.010218738
181	0x3d12f5a6	0.0358788
182	0x3dd903c8	0.10596424
183	0x3d0aee93	0.03391893
184	0x3c6280c5	0.013824646
185	0x3c7aff09	0.015319594
186	0xbd72a89e	-0.059242837
187	0xbcac4840	-0.021030545
188	0xbdcb8c18	-0.0993883
189	0x3cebc07d	0.028778309
190	0x3e053c2f	0.1301124
191	0x3e2af5b7	0.16695295
192	0xbda2b02b	-0.079437576
193	0x3db115e7	0.08646756
194	0xbd7c9cab	-0.061672848
195	0xbd6178fa	-0.055047013
196	0xbdb51e59	-0.08843679
197	0x3df53619	0.11973209
198	0x3cc6dba7	0.02427466
199	0xbc2022a2	-0.009773882
200	0xbc6292b6	-0.013828924
201	0x3c84bc17	0.01620297
202	0xbdc37139	-0.0954308
203	0xbe004538	-0.12526405
204	0xbe1daa6b	-0.1539704
205	0x3d8f58ab	0.06999334
206	0xbcc5d385	-0.024148712
207	0x3dacbf1a	0.08434887
208	0x3cccb4b8	0.024988517
209	0x3cb8446c	0.022493564
210	0xbe4bbc80	-0.19896126
211	0x3c844201	0.016144754
212	0x3c4d9067	0.012546635
213	0xbceabe8b	-0.028655311
214	0xbb54a1db	-0.0032445106
215	0x3d00f380	0.03148222
216	0xbda03213	-0.07822051
217	0xbd821ec9	-0.06353528
218	0x3dc95840	0.098312855
219	0xbe0dfa96	-0.13865122
220	0xbd986e0b	-0.07442864
221	0x3d9e7a2d	0.07738147
222	0x3d3121f6	0.04324528
223	0xbcc190da	-0.02362864
224	0xbd61f09a	-0.055161096
225	0x3db26174	0.08709994
226	0xbe0f2372	-0.13978365
227	0xbce88aa7	-0.028386427
228	0xbd62d831	-0.055381957
229	0xbc72a05a	-0.014808739
230	0xbcfa7c8f	-0.030576972
231	0x3e0d380d	0.13790913
232	0x3c4c8933	0.012483883
233	0x3e1731d0	0.14765096
234	0x3d9cfdfb	0.076656304
235	0xbd8d9436	-0.069130346
236	0x3de0b3ae	0.10971771
237	0xbe2e8c22	-0.17045644
238	0xbe13e1c1	-0.14441587
239	0x3cd9c2f3	0.026582217
240	0x3daad868	0.083420575
241	0x3d64a499	0.055821035
242	0xbcd175b6	-0.025568824
243	0x3cc71be8	0.024305299
244	0x3d8c99b6	0.068652555
245	0xbdb8604d	-0.09002743
246	0x3d82f79d	0.06394885
247	0xbdcc9511	-0.0998937
248	0x3ab4a667	0.0013782502
249	0xbcc9580c	-0.024578117
250	0xbd77e245	-0.06051852
251	0x3c922114	0.017838039
252	0x3ea5cb4a	0.3238166
253	0xbcd7ee4f	-0.026358752
254	0xbd5395f1	-0.051656667
255	0x3c2d67c3	0.010583821

allocation_head.0.bias f4 [4]
0	0x3d443560	0.047902465
1	0xbb8f8f21	-0.004381076
2	0xbcff5236	-0.03116713
3	0x3dd46ad2	0.10371937

payment_head.0.weight f4 [1, 100]
0	0x3cec80a9	0.028869944
1	0xbe05f8a2	-0.13083127
2	0x3e6cfdbe	0.2314367
3	0x3e0207a0	0.12698221
4	0xbe2a69ae	-0.16641876
5	0x3d66422d	0.056215454
6	0xbd90db87	-0.070731215
7	0xbc806160	-0.015671432
8	0x3e10ada8	0.14128745
9	0x3c59949b	0.013280059
10	0xbd0b8b9d	-0.034068692
11	0x3e59ef9e	0.21282813
12	0xbcde5e2d	-0.027144516
13	0xbc357aff	-0.011076688
14	0x3df28af0	0.118429065
15	0x3e159648	0.14608109
16	0x3baf70e7	0.005354035
17	0xbe22ffed	-0.1591794
18	0x3e057373	0.13032322
19	0x3d540d3e	0.05177044
20	0x3e07edd8	0.13274324
21	0xbdf2000c	-0.11816415
22	0x3ea955b6	0.33073205
23	0xbda117c4	-0.07865861
24	0x3ddf65b8	0.10908073
25	0x3e0f2f91	0.13982989
26	0xbd8b99f8	-0.068164766
27	0x3d184263	0.037172686
28	0x3e420b2a	0.18949571
29	0x3bd6eb80	0.0065588355
30	0xbde73ae3	-0.112905286
31	0xbd120619	-0.035650346
32	0x3cb2e247	0.021836413
33	0x3ec76242	0.38942152
34	0x3e17d638	0.14827812
35	0xbdc60735	-0.096693434
36	0xbd835b14	-0.06413856
37	0xbe16a60b	-0.14711778
38	0xbd15638b	-0.036471885
39	0x3d7f6c6d	0.062359262
40	0xbdd2e43f	-0.10297441
41	0x3d870565	0.06592826
42	0xbd0a213d	-0.033723105
43	0x3e2750fe	0.1633949
44	0x3e107c10	0.14109826
45	0x3e2d564a	0.16927448
46	0x3e081fa3	0.13293318
47	0x3dc79cec	0.09746727
48	0x3dcb9200	0.09939957
49	0x3d3044c8	0.043034345
50	0xbd97eeaa	-0.074185684
51	0x3e0b348f	0.13594268
52	0xbd3454f8	-0.044026345
53	0x3d6e93a9	0.05824629
54	0xbd9d9abe	-0.0769553
55	0x3e74e936	0.23917088
56	0xbe39bc57	-0.18138252
57	0x3eae4768	0.34038854
58	0x3e0b668c	0.13613337
59	0xbdaad0ec	-0.0834063
60	0x3cd4dd6e	0.025984492
61	0x3d5be047	0.053680684
62	0x3e1dee41	0.15422918
63	0x3eab1dac	0.33421075
64	0xbd9daaba	-0.07698579
65	0xbba92bc0	-0.005162686
66	0x3e7d937a	0.24763289
67	0x3de37d95	0.11107937
68	0x3e0af85d	0.13571306
69	0xbd4892ee	-0.048968248
70	0x3d0f9ccd	0.035061646
71	0xbb4dd47b	-0.0031407166
72	0xbdf568e7	-0.11982899
73	0x3d3f1f63	0.046660792
74	0xbd586c8c	-0.052837893
75	0x3d450e8a	0.04810957
76	0xbca297df	-0.019847808
77	0xbed7e45a	-0.42166406
78	0xbe0ba6df	-0.13637875
79	0x3d55bef7	0.05218407
80	0x3e20c1ed	0.15698977
81	0x3db07099	0.08615226
82	0x3ce7fc1c	0.028318457
83	0x3d4a0e48	0.049330026
84	0x3d4a13c8	0.04933527
85	0x3e830ccf	0.2559571
86	0x3e1adeea	0.15124097
87	0x3c59be8d	0.01329006
88	0x3d1d98d0	0.03847581
89	0x3e3b1b84	0.18272215
90	0x3ddaf6e6	0.106916234
91	0xbb96dfc5	-0.004604312
92	0xbd76ef08	-0.06028655
93	0xbdab7fa0	-0.08373952
94	0x3da36a99	0.07979316
95	0x3db80911	0.08986104
96	0x3e5804f0	0.21095634
97	0x3e644a4d	0.22293968
98	0x3e17294d	0.14761849
99	0x3e17176f	0.14755033
