result/1x2_sparsemax_in_linsigpmt_scratch_9_checkpoint.pt (torch, 88519 bytes, 9 tensors)

nn_model.0.weight f4 [100, 2]
000000 e5 e2 e4 be c8 3e 88 3e f2 b9 b8 3e 28 46 5b be
       -0.44704357 0.26610398 0.36079365 -0.21413481
000010 ab 65 0e 3e 6b b0 87 be 44 96 c6 3e 22 52 66 be
       0.13905971 -0.26501784 0.3878652 -0.22492269
000020 6e 01 8b be f2 c4 19 3e 05 ca a9 3e 87 c9 76 be
       -0.27149528 0.15016535 0.3316194 -0.24100314
000030 17 b5 7d 3d c2 7e c6 3e 2e 16 90 bd 7e 5c 5c 3e
       0.06194028 0.38768584 -0.070354804 0.21519658
000040 55 a3 2e be f1 c9 7d 3e 6f 9d ec be fd f1 c0 be
       -0.17054494 0.24784066 -0.46213862 -0.37684622
000050 4c 1b d4 be 9b db 22 3f 5c d9 06 be b0 c6 08 bc
       -0.41427076 0.6361634 -0.13168854 -0.008348152
000060 60 58 9c be 80 77 35 3f bc 1e 1f 3f 3a f1 0f bf
       -0.30536175 0.7088547 0.6215627 -0.5622746
000070 0e 09 f8 be 4b 7d df be 95 7b da bd d5 f9 81 be
       -0.48444408 -0.43650278 -0.10668103 -0.2538592
000080 89 f8 ec be 6a da 81 be 7e 58 f7 3d 2d cd c2 be
       -0.46283367 -0.2536195 0.120774254 -0.38047162
000090 61 71 20 3e dd 0a 26 be 40 6e af be 97 f4 c6 3d
       0.1566825 -0.16215082 -0.34263802 0.097146206
0000a0 af b8 1c 3f 1d 3f be be 9b 51 5b bd 9c 79 9c be
       0.61219305 -0.37157527 -0.053544622 -0.3056153
0000b0 dd 65 5b 3f 54 86 fb be 92 90 1d bf be e1 3b 3f
       0.85702306 -0.49125922 -0.6154872 0.7339133
0000c0 e8 0e e5 be 91 d2 0a 3e 1a f8 79 bd 2e 88 18 be
       -0.44737935 0.13556887 -0.061027624 -0.14895698
0000d0 5b ce 4a be 30 00 d5 3e 4f 6f 0a 3d 39 3e 30 bf
       -0.19805281 0.41601706 0.03379756 -0.68844944
0000e0 65 c0 d4 be 9c b8 33 be 0d 2f b6 3e 95 49 ea be
       -0.41553035 -0.17550892 0.35582772 -0.45759264
0000f0 3c 87 3a 3f 9e ad cf bd f4 cd 14 be a0 04 18 3f
       0.728626 -0.10140537 -0.1453169 0.5938206
000100 df 50 b1 3e cf d9 1a 3f 7d c3 eb 3e ef 9b 2c be
       0.34632012 0.604886 0.46047583 -0.16856359
000110 e2 33 f0 be 87 7e 57 bd c9 f8 29 3f ed 18 dc bd
       -0.46914583 -0.0526109 0.6639524 -0.10746942
000120 b1 85 25 bf d4 16 99 3e 08 73 3c 3f f5 72 1d be
       -0.6465712 0.2990023 0.73613024 -0.15375884
000130 66 e3 15 bf 02 32 24 bf 01 cd 1f 3e e4 98 90 bd
       -0.5855011 -0.64138806 0.15605547 -0.070604116
000140 ce 5e e4 be a7 df ad 3d 91 e8 a6 3e cf 86 1c 3f
       -0.4460358 0.08489924 0.3259931 0.611432
000150 94 b1 07 3f 08 23 d4 bd ed 9d 1f bf c1 92 23 bf
       0.5300534 -0.10358244 -0.6235035 -0.63895804
000160 c0 11 3f 3f 22 50 b5 3e b9 d0 9d 3e 2a 9f 1c bf
       0.7463646 0.354127 0.30823305 -0.61180365
000170 56 f8 38 3f 90 69 3b 3f f1 90 13 3f 8a 85 1e bf
       0.7225393 0.7320795 0.5764304 -0.61922514
000180 45 88 85 be 3c 50 e8 be af 8c 39 3f 4a fe 8c be
       -0.26080528 -0.45373714 0.7248029 -0.27537757
000190 d6 55 a2 be 6a 60 af 3e f0 79 a7 be e3 4f b2 be
       -0.31706113 0.34253246 -0.32710218 -0.34826574
0001a0 7c ef df bd 95 45 f3 bd 43 66 07 bf 49 74 2b 3f
       -0.1093435 -0.11878506 -0.52890414 0.6697431
0001b0 ff b3 9f be a6 6b 80 3e 9f 4f 24 3f 78 14 c5 3e
       -0.31192014 0.2508213 0.6418399 0.3849218
0001c0 21 30 1b 3e 6a 6b 28 3f 84 ab c2 3d e5 7f a7 be
       0.15155078 0.657889 0.0950537 -0.32714763
0001d0 9b 84 2c 3f 96 8d 35 3e 37 87 0c bf 56 b8 32 be
       0.6738984 0.17729792 -0.5489382 -0.17453131
0001e0 60 26 e2 be ea 5b 26 3f 22 28 ef bd ee 00 25 bf
       -0.44169903 0.64984 -0.116775766 -0.64454544
0001f0 42 59 af bd 8e d8 d5 3e 98 1d 3c 3e da f4 64 3e
       -0.085619465 0.4176678 0.18370664 0.22359028
000200 f3 c1 2c 3e 62 55 b1 3e 25 23 43 be 79 55 96 be
       0.16870861 0.34635454 -0.19056375 -0.29362085
000210 47 33 29 bf 59 5e 08 bf dd 1c 70 3e f2 14 ea be
       -0.6609387 -0.53268963 0.2344851 -0.45719105
000220 a0 50 b8 3d ce ed 67 3e 05 3d 1a bd 69 9a 02 bf
       0.08999753 0.22649309 -0.03765585 -0.5101686
000230 23 41 3a 3f f2 af 9e be eb 36 03 3f 1d 68 27 bf
       0.7275564 -0.3099361 0.51255673 -0.6539324
000240 fb 2c 2e be 10 f0 c4 3e b6 3c a1 be ea af 12 3f
       -0.17009346 0.38464403 -0.3149163 0.57299674
000250 a6 23 f9 be cf 03 18 bf 0b 40 a3 be 45 18 ea 3d
       -0.4866001 -0.5938081 -0.31884798 0.1143041
000260 3b 3e 16 3f 1d a4 a6 be db e4 9c 3e 32 3e 2c be
       0.58688706 -0.32547083 0.30643353 -0.168206
000270 0c 6b ef bd 31 0b 13 3f 95 49 0c bf 36 d0 99 3d
       -0.116903394 0.5743895 -0.5479978 0.07510416
000280 8f d6 28 3f 77 54 0d be 81 55 07 3f 96 88 78 be
       0.6595239 -0.13801752 0.52864844 -0.24270853
000290 b6 b6 11 3f 02 1b 2f bf 65 d8 e1 bd 7a 3d 35 be
       0.5691942 -0.68400586 -0.11027602 -0.17699233
0002a0 42 74 95 3e cd 10 a4 3e b9 5a 1a 3f 19 7e 1f bd
       0.2919026 0.32044068 0.6029468 -0.038938615
0002b0 92 94 15 3d c3 b8 0a 3f ed 74 72 be f6 f3 13 3f
       0.03651864 0.54188174 -0.23677416 0.5779413
0002c0 fb cc b8 be 8f b8 01 bd 96 08 b8 3c eb 46 9b 3e
       -0.36093888 -0.03167015 0.022465032 0.30327544
0002d0 2f 57 ea 3e 19 94 17 be 94 f8 15 bf 29 63 b3 3e
       0.4576964 -0.14802589 -0.58582425 0.3503659
0002e0 01 58 8f 3e 7a a7 89 3e 93 57 d1 be f8 41 fb 3e
       0.2799683 0.26885587 -0.40887126 0.49073768
0002f0 88 cf 3b 3f 09 af 04 3e 9d 49 3a bf e3 3b d8 3e
       0.7336354 0.12957396 -0.72768575 0.4223319
000300 8e 37 06 bf f7 71 26 3e 1f d5 22 3d c2 35 c9 be
       -0.5242852 0.16254412 0.03975403 -0.39298826
000310 da 1e 7c 3e dc e8 21 bf 35 38 45 3e 2c 2c c6 be
       0.24621144 -0.6324594 0.19259723 -0.38705575

nn_model.0.bias f4 [100]
000000 88 84 49 bd b3 7a 5b bc a4 08 2b 3f 49 65 c5 be
       -0.049198657 -0.013395953 0.6681006 -0.38553837
000010 43 6a f0 3e db 47 db bd 63 29 ba be af a1 1d bf
       0.4695607 -0.10707065 -0.363597 -0.61574835
000020 ac 16 26 bf 04 b5 47 3f a2 f0 5a be 57 8d de 3d
       -0.64878345 0.7801058 -0.21380857 0.10866802
000030 cd 3c 63 3e c7 d4 0b 3f e0 a8 31 3f 33 66 1e 3f
       0.22191162 0.5462155 0.6939831 0.61874694
000040 3a 1d 06 bf 37 12 01 be 5e 3b d6 be f7 d9 ce be
       -0.52388346 -0.12604605 -0.4184217 -0.4040067
000050 a2 ed 64 3e df 11 37 3f d4 46 cb be 2f 51 03 3f
       0.22356275 0.71511644 -0.39702475 0.5129575
000060 7b b4 bb be 19 08 0d be 3e ed 17 3f c9 c3 23 be
       -0.36661133 -0.1377262 0.5934638 -0.15992655
000070 3f fa c7 3d aa 13 fd be 96 e6 1a 3f 26 58 da bd
       0.097645275 -0.49429065 0.60508096 -0.10661344
000080 40 05 09 bf 98 3d 45 3e 38 b5 00 bf 0b fb ff be
       -0.53523636 0.19261777 -0.5027652 -0.49996218
000090 30 ce ec 3c d4 d2 0e 3f fe e6 4c be d5 e1 b3 3e
       0.028906912 0.5579045 -0.20009992 0.35133234
0000a0 f3 90 29 3f ca 37 f1 3e ca 40 e7 be 1b bf 9e bd
       0.662368 0.47112876 -0.45166618 -0.07751294
0000b0 a3 f3 8a be d2 8f 11 bf 02 64 bf bc 6c a0 1a 3f
       -0.27139005 -0.5686008 -0.023363117 0.60401034
0000c0 22 3d 31 3f 65 08 2c 3d 0b 10 67 3e 00 bc 9c be
       0.69233906 0.042000193 0.22564714 -0.30612183
0000d0 9d 75 0c 3f 83 67 85 be bd 7d fb be 83 21 f8 3d
       0.54866964 -0.26055536 -0.49119368 0.12115767
0000e0 59 2f da 3e 9c 34 23 bf e6 89 25 3f 82 2f a2 3e
       0.42614248 -0.6375215 0.6466354 0.3167687
0000f0 57 73 f1 be c0 f8 1b be 5a 30 22 3f 62 e2 0a bf
       -0.4715831 -0.1523161 0.6335503 -0.5425168
000100 98 2e 09 be f9 e3 9a 3e 9d 96 1e bf 99 e1 e6 3e
       -0.1339668 0.30252054 -0.6194857 0.45093992
000110 51 eb c4 3e 7a 8e f1 3e 8b b6 dc be 95 15 43 3f
       0.38460782 0.47179013 -0.4310802 0.76204807
000120 43 9a d6 be ee bf 39 3f f7 b8 2d bf 65 48 21 bf
       -0.41914567 0.72558486 -0.6786036 -0.6300109
000130 46 a9 ed 3e 13 d3 b2 3c 70 2c 52 3b 61 7b c8 be
       0.46418208 0.021829164 0.0032069944 -0.3915663
000140 bd 9c b9 be a8 a8 8b be 4a 57 30 bf f7 ba 48 3e
       -0.36252394 -0.27277112 -0.6888319 0.19602571
000150 16 44 02 3e d6 b6 14 3d 5c 4b 79 3e cc 46 36 3f
       0.12721285 0.03630718 0.24345154 0.7120178
000160 5f 12 8f 3e 55 85 8f be 5a 3f ac be 65 a2 e7 be
       0.27943704 -0.28031412 -0.33642083 -0.45241085
000170 4f 5c f7 be f7 c6 bc bd 4a 9c de bd e8 a8 aa 3e
       -0.48312613 -0.09217637 -0.108696535 0.3333199
000180 a8 bf 9a be 34 2c 1c 3f 0d 09 fe be 81 96 60 3d
       -0.30224347 0.6100495 -0.4961628 0.05483103

nn_model.2.weight f4 [100, 100]
000000 f9 e4 0e 3e 20 ec 0c 3e 44 eb a4 bb 11 37 cf 3c
       0.13954534 0.1376195 -0.0050329287 0.025294812
000010 05 89 7b 3d 32 0e 4e 3b c5 f6 8a bd 33 e2 dd 3c
       0.06140997 0.0031441567 -0.06785349 0.0270854
000020 2a 69 8e bd cb 52 6b 3d 05 e4 74 3d 57 ae 79 3c
       -0.06953652 0.057452004 0.05978777 0.01523932
000030 a4 80 ea 3d 3a 31 40 3d 81 61 ab 3d ba ad 18 3e
       0.114503175 0.046921946 0.08368207 0.14910021
000040 4d 67 fa bc 99 a4 77 3d ad 50 ea bc 73 53 6f bc
       -0.030566836 0.060459707 -0.028602922 -0.014607298
000050 09 7f 32 3d 74 20 4b 3d d9 45 b2 bd 2c 8d 91 3d
       0.04357818 0.049591497 -0.08704729 0.071070045
000060 33 f1 76 3b 15 d2 81 3d dd 91 03 3d 8d 4c 24 3c
       0.0037680387 0.06338898 0.032121528 0.010028017
000070 f8 6e 70 bc b2 82 ab bd 36 e2 b8 3d 07 bf 3f bc
       -0.0146748945 -0.083745375 0.09027521 -0.011703259
000080 8f 49 a9 bd a5 c2 64 3c 00 3d d6 3c 70 6d 83 bd
       -0.08265983 0.0139624225 0.026152134 -0.06417358
000090 68 fe be 3d e8 37 61 3d 90 b8 1a 3d a3 23 c4 3d
       0.09325868 0.054984957 0.03777367 0.0957711
0000a0 7b 35 d2 3c 9e 27 9c 3d e0 49 a3 3d 00 cb 96 3b
       0.025660267 0.07624744 0.07973075 0.004601836
0000b0 95 6b 02 bc 00 21 6e 3b b1 2a 62 3d cc d5 35 3c
       -0.00796022 0.0036335588 0.055216495 0.011098336
0000c0 8d 8e ee bb 6b 55 37 3d 70 21 2b bd 00 24 d2 3a
       -0.007280177 0.044759195 -0.041779935 0.0016032457
0000d0 cd cc 80 3b c1 cd 01 3e 43 ad be bd 04 be 60 3d
       0.003930664 0.12676145 -0.09310391 0.054868713
0000e0 66 a4 0b 3e cd c1 a5 3c cb 38 1f 3d e2 c3 f3 3d
       0.13636932 0.020234013 0.03887252 0.11902596
0000f0 0a 08 c4 bc 73 4a 03 bc e3 61 f1 3b b3 2a 62 bc
       -0.023929615 -0.008013356 0.0073664053 -0.013804126
000100 d6 e7 a0 bc 8e e0 44 3d f3 b9 9a bc 8b 91 46 bd
       -0.019641798 0.048065715 -0.018887496 -0.048478644
000110 7f 0c 60 3d 1b e4 34 3d 4c 64 b6 bc bd e8 03 3e
       0.054699417 0.04416285 -0.022264622 0.12881751
000120 4a 11 c7 3d 64 60 01 bc b3 52 cc bb ad 1d 24 bd
       0.097200945 -0.0078965165 -0.0062354445 -0.040067364
000130 54 0a 26 bd d2 dd c3 bc bd f3 a7 3d 63 d2 6e 3d
       -0.040537193 -0.023909483 0.08200786 0.05830611
000140 8e bc ce 3c d6 a3 55 3d 95 b5 a2 bd 2f ae d0 3d
       0.025236394 0.0521582 -0.0794479 0.10189473
000150 57 28 c5 3d de 7f 85 bd 3d bd f2 3d 66 4a 9f 3d
       0.09626835 -0.06518529 0.118525006 0.07777862
000160 4f 07 d2 3d 07 3b e9 bc 70 cf fb 3c 7d 8d b5 bd
       0.102553 -0.02847053 0.030738562 -0.088648774
000170 65 3b ae bd d4 8b ef 3d d7 0a 0e 3c 60 aa 06 3e
       -0.08507422 0.11696592 0.008669577 0.1315093
000180 88 3f c9 3d 78 e2 0f 3e 4a 80 89 3d e2 a5 02 3e
       0.09826571 0.14051235 0.06713922 0.12758592
000190 00 67 53 bc 35 ef 9e bd fd 0d 18 bd 27 ef 37 bc
       -0.012902975 -0.07760469 -0.037122715 -0.011226452
0001a0 a3 57 5d bd 27 60 51 3d e0 c7 0f 3d f3 2d 84 3c
       -0.054038655 0.05111709 0.035102725 0.016135192
0001b0 f3 e2 c5 3c 33 e8 b3 3d 6d 30 15 3d e2 98 b3 bd
       0.02415607 0.08784523 0.036423136 -0.087693945
0001c0 0f a9 94 bd f3 87 34 3d a7 47 5f 3c 2d c2 47 3d
       -0.07258808 0.044074964 0.013627923 0.048769165
0001d0 b0 89 cc bd ef 00 bd bd 73 2d 7b 3d db ff 82 3d
       -0.09987199 -0.09228694 0.06132264 0.06396457
0001e0 ea 48 b9 bd 67 7a 1b 3d ba ea 9f bd bd 18 9b 3d
       -0.090471104 0.03795853 -0.078084424 0.07573078
0001f0 50 87 00 3d ea 80 ca 3d 60 ee c9 bd f5 27 c5 bd
       0.031379044 0.0988787 -0.098599195 -0.09626762
000200 38 77 8a 3d 80 d3 b5 3d 27 f4 7a 3d 3b 28 88 3d
       0.067610204 0.08878231 0.061267998 0.06648298
000210 47 7f ac bd af 3c 94 3d 80 5c c1 bd ba 02 b7 3c
       -0.08422714 0.07238137 -0.09441471 0.022340167
000220 b0 26 86 bd f7 b0 22 bd 07 0e 91 3c ea 0b 21 bd
       -0.06550348 -0.039719548 0.017706884 -0.039318003
000230 c0 9d 81 bc 4b 1d c2 bd b7 19 c1 bd f7 a9 1e 3d
       -0.015822291 -0.094782434 -0.09428733 0.03873631
000240 f7 5f 2d bd 47 32 79 bd f3 9e 21 bd 23 70 a7 bd
       -0.042327847 -0.060838964 -0.039458226 -0.08175685
000250 98 b7 a3 bd e3 17 75 3d 0d 2d 50 3d 9a 3d 5a 3c
       -0.07994002 0.059837233 0.050824214 0.013320351
000260 7a bf 5f bd 3a 46 08 3d 00 36 93 3b 70 5d 92 bd
       -0.054625966 0.0332701 0.0044925213 -0.07146728
000270 93 48 b0 3c ba 7a ba 3d 4d 71 c9 bd ca a6 cb bd
       0.021518981 0.091054395 -0.098360635 -0.09943922
000280 80 eb 51 3c 0f 38 9a 3d c7 3c 79 bd 1a 56 b4 3c
       0.012812495 0.075302236 -0.060848977 0.022013713
000290 ad f8 8f 3d a0 92 fc 3c a0 48 b1 3c 93 55 cc 3d
       0.07029853 0.030831635 0.021641076 0.099772595
0002a0 ef 6b 85 3d c0 5e 66 bd 1a 9e 0d 3c da 40 51 3d
       0.06514727 -0.056242704 0.008643651 0.051087238
0002b0 75 9d b4 3d 23 c3 cb bd f3 cc 5d 3d 00 d7 ed bc
       0.08819095 -0.09949329 0.054150533 -0.029033184
0002c0 65 8b c8 bd 53 d7 b5 3c ea fd 5e bd 67 2e 68 3c
       -0.097922124 0.022197401 -0.05444137 0.014171219
0002d0 3d f7 84 bd 32 1e 9a bd 1a 05 0b bc 5d 98 09 bd
       -0.064924695 -0.075252905 -0.008485103 -0.03359257
0002e0 83 8f 6f 3d 80 42 0d 3c c0 db 9f 3d 40 85 99 3c
       0.058486473 0.008621812 0.07805586 0.018740296
0002f0 27 b6 03 bd ca b7 8a 3d 9a 0f b3 3b cd c1 99 3c
       -0.032156136 0.06773336 0.0054645063 0.01876917
000300 93 bc 03 bd 00 28 bc 39 9a 82 9d bc da 4a 0b bc
       -0.03216226 0.00035887957 -0.019227315 -0.008501733
000310 23 b8 9f bd 33 37 21 ba 3a fe a9 bd 33 3c b0 bc
       -0.07798793 -0.0006149888 -0.08300443 -0.02151308
000320 30 5c 87 3d 8f 72 9f bd 39 2e 9b bd 87 07 c8 bc
       0.0660938 -0.07785522 -0.07577176 -0.024417652
000330 be 83 12 bd 27 ae 8a 3c 30 3e d7 3c ed b4 4f 3d
       -0.03577017 0.016928745 0.02627477 0.050709654
000340 2f 15 8d bd 99 d3 7c bc 67 cc 6e 3d 53 f5 9f 3d
       -0.06888806 -0.015431308 0.058300402 0.07810464
000350 33 c9 7f bc a9 a6 87 bd 81 dc a6 3c 0d fe 46 3d
       -0.0156119345 -0.06623585 0.020368816 0.048582125
000360 c7 e5 7f bd 2d b0 6d bd e0 0a 35 3d 9a 97 e5 bb
       -0.062474992 -0.058029342 0.044199824 -0.0070065977
000370 0d 72 d2 bd 24 39 87 bd 33 1b 26 3d 93 18 2d bd
       -0.1027566 -0.066026956 0.040553283 -0.042259764
000380 e2 5b 8d 3d 0f e7 a1 3d fe 0c cb 3b 5a 8e 01 bc
       0.06902291 0.07905399 0.006196617 -0.007907474
000390 e8 3a 24 bd b3 b1 a5 bb 76 3a 21 3c 4b 57 ab bd
       -0.04009524 -0.005056584 0.009840598 -0.08366259
0003a0 ef 97 74 bc 84 80 bb bd dd 64 7b 3d 90 6c 82 bd
       -0.014928802 -0.09155372 0.061375488 -0.06368363
0003b0 b0 13 aa 3d db d6 0b bd 53 a6 6a bd f5 8b 22 3d
       0.08304536 -0.03414045 -0.057287525 0.039684255
0003c0 f9 86 d6 3b 76 75 79 3d e0 fe 2a 3d bb 4a c5 bd
       0.0065468517 0.060903035 0.041746974 -0.09633394
0003d0 bf 52 93 3d 47 44 9a bc 8f 4e 56 bd 8a d4 61 3d
       0.07193517 -0.018831385 -0.052321013 0.055134334
0003e0 1f 36 84 3d 46 f1 c4 bd 31 5f 8e bc e0 2e a8 3d
       0.06455635 -0.09616332 -0.017379375 0.08212066
0003f0 2e c1 f8 3c 43 5f c0 3d 90 5e 0c bd dd fe 81 bd
       0.030365553 0.0939317 -0.03426987 -0.063474394

nn_model.2.bias f4 [100]
000000 b1 35 08 3d cd 5c 7c b9 9e c2 9d bd f3 1a 4a 3d
       0.03325433 -0.00024067164 -0.07703136 0.049342107
000010 ad 02 9c bd 98 93 d9 3c dd 6c 94 bd 3c 26 0d bd
       -0.07617698 0.026559636 -0.072473265 -0.03446029
000020 90 7e 29 3b 6b ce 57 3c 49 cf cc bd f3 f5 7a 3d
       0.002586279 0.0131717725 -0.10000474 0.06126971
000030 a9 e7 ab 3c ea 52 61 bd 35 d2 33 3d 60 c6 58 bd
       0.020984488 -0.055010714 0.04390164 -0.05292356
000040 50 f2 b0 bd 9a 12 8a bc 51 04 68 3d 33 95 6f 3b
       -0.086399674 -0.016854573 0.05664474 0.0036557436
000050 9b f9 90 bd fc 90 89 3d f4 10 8b 3b 33 0c a2 bd
       -0.070788585 0.06717107 0.0042439643 -0.07912483
000060 bd 34 07 3d 2f be a7 bd 76 89 6c 3d 30 ff 7b 3d
       0.03300928 -0.081905715 0.05774828 0.061522663
000070 b4 d8 87 3d 44 45 b5 bd 9b e9 67 3d 73 72 16 bc
       0.0663313 -0.08851102 0.056619268 -0.00918256
000080 67 75 b1 bc d2 37 3c 3d e8 5f b8 bd 57 f7 a1 bc
       -0.021662427 0.045951672 -0.09002668 -0.019771261
000090 ab 9a ba bd 0a 4e 10 bd 13 f5 34 3d 78 95 33 3d
       -0.09111532 -0.035230674 0.044179033 0.043843716
0000a0 ef 42 b3 3d 8d 50 4d 3b 8f 13 b0 bc 67 4a 57 3d
       0.08753001 0.003132853 -0.021493701 0.05256119
0000b0 02 80 5b bd 82 e7 c2 bd e1 2c 01 bd 8d 52 21 bd
       -0.053588875 -0.09516813 -0.03153694 -0.039385367
0000c0 16 7e a2 3d b4 c2 a9 3c ff ec 82 3c 83 cb 8a 3d
       0.07934205 0.020722724 0.01598215 0.06777098
0000d0 a0 ee 98 bd 73 03 57 bd 40 d8 bd bd b9 31 8a bc
       -0.07467389 -0.052493524 -0.09269762 -0.016869413
0000e0 db 8d 90 bd 1a 43 8d bb e8 48 80 bd e7 66 66 3d
       -0.07058307 -0.0043109776 -0.06263906 0.05625048
0000f0 6a bd ad bd 44 35 4d bd 7a 34 74 3d d3 e9 a4 3d
       -0.084833935 -0.050099626 0.059620358 0.08052411
000100 c7 6e 85 bb ea 33 12 bd 04 83 d9 bd d1 15 d7 3d
       -0.0040720436 -0.03569404 -0.10620692 0.10502208
000110 cd 12 ff 3a 13 78 8b bc 8e 80 81 bc e6 27 fa bc
       0.0019460559 -0.01702503 -0.01580837 -0.030536603
000120 9c 05 3d 3d 5d 75 55 bd 8c 38 9b bc 0a 33 9a 3d
       0.046147928 -0.05211388 -0.018947862 0.07529266
000130 33 1f b5 bc ff 60 b2 3d b7 76 83 3d 8c cf c3 bd
       -0.022109604 0.08709907 0.064191274 -0.09561071
000140 c5 90 2b 3d 8d fe 07 bc 93 71 6f bc c0 8b 3f bd
       0.04188611 -0.008300436 -0.014614481 -0.046764135
000150 3c e4 a4 3d 9a ef 70 3d 9a ca b7 3d 92 11 fd 3d
       0.08051345 0.05882225 0.0897419 0.12356867
000160 f9 dd aa 3d 8f bd 2c bd 10 bf 43 3d 4d 98 f5 bb
       0.08343119 -0.042172965 0.047789633 -0.0074949623
000170 ff c9 ea 3d 04 8d dd 3d 9f 55 a8 3d af ef 01 3d
       0.11464309 0.10817912 0.08219456 0.03172272
000180 eb 1a 89 bd 7d 54 24 bd 52 1c 17 bc 93 09 9a bd
       -0.06694587 -0.040119637 -0.009223061 -0.075213574

nn_model.4.weight f4 [100, 100]
000000 6e a5 19 3e 17 c4 56 bd 8f 7f 0a bc 0d a9 e3 bc
       0.15004513 -0.0524331 -0.008453264 -0.02779057
000010 e4 92 09 3d a8 aa 3f bd 33 75 58 3b c6 01 e9 3d
       0.03358735 -0.04679361 0.003302884 0.113772914
000020 cb 92 54 3a bb d0 26 3d 85 83 4e 3d 5e a9 da 3d
       0.0008109032 0.040726405 0.050418396 0.106768355
000030 6c 03 91 bd 19 35 33 bc 69 1f 6e bd 58 f0 93 bd
       -0.07080731 -0.010937952 -0.058135424 -0.07223576
000040 f7 a4 6e bd 03 76 05 3d 59 bc df 3d b3 fd d6 3b
       -0.05826279 0.032583248 0.10924596 0.006561005
000050 40 80 0a 3c 39 ef 7c ba 89 ea 8e bd 4a d5 e5 3d
       0.008453429 -0.0009648684 -0.06978328 0.11222322
000060 dd 58 22 3d d3 57 af bd 0d 9b f7 3c 15 d3 cc 3d
       0.039635528 -0.08561673 0.030225301 0.10001198
000070 57 f6 68 3d f0 ac 09 3e 34 86 d0 3d 7b ad a6 3d
       0.056875553 0.13444877 0.10181847 0.081385575
000080 73 ca aa bc 72 26 ab 3c b7 c0 0e 3d b4 68 96 bd
       -0.020848488 0.020892356 0.034851756 -0.07344189
000090 3a 28 08 3d d3 5c 79 bd f2 ad c6 3d 2d cb a4 3d
       0.033241488 -0.06087954 0.09701146 0.08046565
0000a0 17 05 d7 3d 65 4a d5 3d ec 2f 06 3e 20 2c af bd
       0.10499018 0.1041458 0.13104218 -0.08553338
0000b0 2e c1 97 bd 28 6b ae bd 7f e0 86 3d 0e 36 29 3d
       -0.07409893 -0.08516532 0.06585788 0.041311316
0000c0 ee ac 9d 3d 39 b6 92 3d 06 2e e9 3d 26 58 23 bd
       0.07698999 0.071636625 0.113857314 -0.039878987
0000d0 fd 1a ab 3a 3f bb a8 bd 9e bb 92 bd 42 be 81 bd
       0.0013054308 -0.08238839 -0.071646914 -0.06335117
0000e0 6a a4 70 3d 93 a0 e3 bc 28 7d aa 3c de 68 dc 3d
       0.058750547 -0.027786529 0.020811632 0.10762189
0000f0 60 48 59 3d 66 9d 9a 3d 99 ad 64 bd 76 42 c1 3d
       0.053047538 0.075495526 -0.055829618 0.094365045
000100 04 1c a9 3d a3 b0 6b bd d8 4e 37 3c 78 33 c3 bd
       0.08257297 -0.0575415 0.011188231 -0.09531301
000110 4d 25 cd bc a0 9d b0 3c 9e b7 bd bd 58 43 00 bd
       -0.0250422 0.021559536 -0.09263538 -0.031314224
000120 04 d6 31 3d 2a a9 f3 3d fa fb de bc 9e c6 d0 3d
       0.04341699 0.118975 -0.027219761 0.10194133
000130 13 bf a0 bd 80 49 18 bd ce d9 a3 3d 6e 0a bc bc
       -0.078489445 -0.03717947 0.08000527 -0.022954192
000140 94 eb a9 3d 8a 34 76 bd 2a ab 00 3d fa 3e b5 bc
       0.08296886 -0.0601087 0.031413235 -0.022124756
000150 07 1f 0e 3d da 31 17 3d 5a d3 fe 3c f5 cc 01 3e
       0.03469756 0.036912777 0.03110664 0.12675841
000160 91 29 3f 3c ee f4 fb bc 62 78 98 3d b2 df 55 3c
       0.011667625 -0.03075644 0.07444836 0.013053821
000170 0e c6 ab bd 30 ea 7b bd 7a c5 7c 3d 8f 4c 9b 3d
       -0.08387385 -0.061502635 0.061711766 0.07582962
000180 b0 a5 be bc 7f ae 92 3d 1f 30 1f 3d 5c 3c c5 3d
       -0.023272365 0.07162189 0.03886425 0.09630653
000190 a9 a6 07 3d 0a 96 42 3d cf d0 f7 bc df a0 af bd
       0.033117924 0.04750637 -0.030250935 -0.085756056
0001a0 48 5d 94 bc f6 f2 63 3d b0 22 4e bd fd 8b 9f 3d
       -0.018110886 0.055651627 -0.05032605 0.077903725
0001b0 aa e4 13 3e 77 b2 56 3d 11 e6 96 3d 63 54 44 bd
       0.14442697 0.05241629 0.073681004 -0.04793204
0001c0 85 1c 13 3d ce 7d 7b 3c 5f 96 0c 3d 87 51 99 bd
       0.03591587 0.015349818 0.034323093 -0.07486253
0001d0 93 4d 32 3d fa 94 24 3d 77 7f 0f 3e 73 e6 45 bc
       0.04353101 0.040181138 0.14013468 -0.012078869
0001e0 93 b3 31 bd 5a bb da 3d 31 7b 87 bd 93 e4 33 3d
       -0.043384146 0.10680266 -0.06615294 0.043919157
0001f0 63 48 7b bd ab bb 92 3d 0f c5 96 3d 30 10 46 be
       -0.06134833 0.07164701 0.07361805 -0.19342113
000200 a5 2b da bd 00 53 50 3d e5 cb f9 bd 07 5f bc 3d
       -0.10652856 0.050860405 -0.12197093 0.091978125
000210 43 82 2a 3d bf 8c 55 bd 58 18 ad 3d 53 52 19 bd
       0.041628134 -0.05213618 0.08451909 -0.037432026
000220 87 bf 37 3d 3a a7 28 3d 00 4c 0e bd 3e c4 37 bd
       0.04486039 0.041175105 -0.034740448 -0.044864886
000230 15 e8 00 bd 97 32 e6 bd c2 46 c7 3d de 48 94 bd
       -0.03147133 -0.11240118 0.09730293 -0.07240461
000240 f1 43 ae 3c 4b ff 98 3d b3 32 17 bc c6 61 1d be
       0.021272631 0.07470568 -0.009228396 -0.15369329
000250 19 0b 12 3d 8d 81 16 3e e1 6a e3 3a 28 6d 27 bd
       0.035655115 0.14697857 0.0017350578 -0.040875584
000260 e0 dd af 3d 7f 53 84 3d f6 9d 3d 3d 62 c5 7a 3d
       0.08587241 0.06461238 0.04629322 0.061223395
000270 30 65 98 3d 85 b2 bf 3d e1 df 99 bd fc 5f 9c 3d
       0.07441175 0.09360222 -0.07513405 0.07635495
000280 af ca 9a 3d 87 48 e7 3d 1f 33 50 3d 53 6e 93 3d
       0.0755819 0.1129313 0.050830003 0.07198777
000290 b0 02 81 3d 80 8e 73 3d 3d 5d 0a 3e 6f 20 9a bd
       0.06299341 0.05946207 0.1351213 -0.075257175
0002a0 30 e7 5a 3d b7 b8 a1 3d c0 22 be 3b 66 ed 02 3e
       0.053443134 0.0789656 0.0058024824 0.12785873
0002b0 45 30 e6 3d 8a 39 a3 3d 02 5d cd bc 9b 04 d0 bc
       0.112396754 0.07969959 -0.025068764 -0.025392821
0002c0 30 31 22 3d ba 08 4d bc 77 72 25 be e9 39 4a bc
       0.03959769 -0.012514288 -0.16156946 -0.012342908
0002d0 6f a8 47 3d e0 fa ae bc ab d6 bf bc c5 aa af 3d
       0.048744615 -0.02135986 -0.023417791 0.085774936
0002e0 91 d7 00 3c a0 20 26 3d dd 67 8e 3d c0 7c 64 3d
       0.007863895 0.040558457 0.06953404 0.055783033
0002f0 1c a8 b6 3a ac 47 c7 3d e7 99 ee bb 8f 9e 38 be
       0.0013935599 0.09730467 -0.00728153 -0.18029235
000300 4e 4a 31 be f0 ed 83 3d 38 af 84 bd 0d 71 10 3e
       -0.17313501 0.06441867 -0.06478733 0.14105625
000310 eb d6 9a 3d 93 ff 9e bd 6b ed 09 3d 62 06 0c 3e
       0.075605236 -0.07763591 0.033673685 0.1367431
000320 d8 5f 71 3d c7 6c 96 bc 0b df 6b bd 3d 04 57 bd
       0.058929294 -0.018362416 -0.057585757 -0.052494276
000330 33 cc 92 3c fe 85 1f 3d 1a 70 89 bd ff 89 9e 3c
       0.017919635 0.038946144 -0.06710835 0.019352911
000340 55 08 1d 3d 4b 47 ae 3d 03 8e 54 3c 2c 6a 68 3d
       0.038338024 0.08509692 0.012973311 0.05674188
000350 a8 e3 8d bc 7f 95 1d 3d 0a 1a 43 3e c0 1d 93 3c
       -0.017320469 0.03847265 0.19052902 0.017958522
000360 ef 3c 9c bd fa 61 13 3d d5 a3 9d bd 22 0d bf bd
       -0.0762881 0.03598211 -0.07697264 -0.09328677
000370 48 60 91 3d be a0 4a 3d aa 0e 8c 3d 65 42 d1 3d
       0.07098442 0.049469702 0.068387344 0.10217742
000380 1d 84 1a bd 93 9d 01 3d 63 9b d6 bd 19 d6 0f 3e
       -0.03772365 0.031644415 -0.104788564 0.14046516
000390 ae d2 cd 3d 96 e3 e2 3c 8c 5b 20 3e e7 0c 84 3c
       0.100499496 0.027696412 0.15659922 0.016119434
0003a0 03 17 4c bd 80 d5 47 3e 70 98 6f 3d 33 d1 c2 3d
       -0.049826633 0.19515038 0.058494985 0.09512558
0003b0 4d 79 84 3b a7 a6 bd 3d 60 ce 0a bd 0a 92 49 bd
       0.0040427805 0.09260302 -0.03388822 -0.04921154
0003c0 3d 57 63 3e 7a ff 56 3e a9 3a 4d 3d f3 be b9 3d
       0.22201248 0.20995894 0.05010477 0.09069624
0003d0 0b 1e a6 bc 53 71 b8 bc db c6 a0 3d b1 58 f4 3d
       -0.020277997 -0.022514975 0.07850429 0.11930979
0003e0 95 fe 92 3c fc 2c 07 bc e6 96 ad 3d 90 00 3c 3b
       0.01794366 -0.008250471 0.08476047 0.0028686859
0003f0 10 49 c3 3c 9a f4 3b 3d 8a e2 8a bd de ce 94 3d
       0.02383855 0.045887567 -0.0678149 0.07266019

nn_model.4.bias f4 [100]
000000 53 20 20 bc af cc 2c bd 2d ea 1a 3e ef 2c d8 3d
       -0.009773332 -0.04218739 0.15128393 0.105554454
000010 3f 3a c9 bd 63 70 bf 3d fe 88 d6 3d 77 50 c2 bd
       -0.09825563 0.09347608 0.10475348 -0.09488004
000020 ce f4 a1 3d 31 1e d8 bc d1 96 57 bd 6c 84 89 bd
       0.07908021 -0.026381584 -0.052634064 -0.067147106
000030 ef 26 c4 bd 39 ff b0 bd 26 d5 f7 3d 8b c1 23 bc
       -0.095777385 -0.0864243 0.12101202 -0.009994875
000040 67 77 78 bb c9 16 b0 bb 90 65 ad 3d 91 ad 4a bc
       -0.0037912966 -0.00537381 0.08466637 -0.012370483
000050 e1 37 7d 3d 7c 1a 10 bd 08 61 60 3d f7 de ed bc
       0.06182087 -0.035181507 0.054780036 -0.029036982
000060 b2 c7 ef 3d b1 6c 93 3c 91 eb 72 bd 07 07 5a 3d
       0.11708011 0.017996164 -0.059306685 0.053229358
000070 a1 f0 db 3d 9a 87 b1 3b 61 68 29 3c 5c eb 24 3d
       0.10739256 0.0054177763 0.010339827 0.04026352
000080 9a 00 9f 3b 12 46 71 3c d1 5c df 3d 55 22 48 3d
       0.0048523666 0.014726179 0.10906375 0.048860867
000090 e4 7a 93 3c 01 41 1e 3d 24 a7 c8 bb 56 e1 47 bd
       0.018002935 0.03863621 -0.0061234403 -0.04879888
0000a0 a3 09 72 3d 07 68 83 3d f3 45 20 3d e5 01 99 3c
       0.05909122 0.06416326 0.03912921 0.018677661
0000b0 e4 a2 41 3d 44 46 82 bd 7e ca 81 3d f4 0d 7d 3c
       0.047274485 -0.06361058 0.063374504 0.015445221
0000c0 53 c4 25 bd 19 40 ac bd 40 a9 1e bc 91 a3 d8 3d
       -0.040470432 -0.08410663 -0.009683907 0.10578073
0000d0 78 f0 8a bd 6b 7d 5c 3d cc 85 1d bd 41 98 a2 bc
       -0.06784147 0.053830545 -0.038457677 -0.019847991
0000e0 6f 2c 94 3d 84 7a 2a bd 96 ae db 3d 56 ac a6 3d
       0.072350375 -0.041620746 0.10726659 0.08138339
0000f0 ec 44 90 3c e7 c6 27 bd 87 70 cf 3b bb cd b8 3d
       0.01761099 -0.040961172 0.006330553 0.09023615
000100 66 81 95 bd 17 b6 f6 3d 0b 68 6e 3d 8a 10 3d bd
       -0.073000714 0.1204645 0.05820469 -0.04615835
000110 49 2b fc 3d 6c 13 a8 3b 7a 74 81 bc b5 c8 c1 bd
       0.123129435 0.0051292684 -0.01580261 -0.0946211
000120 5d c7 9d 3d db 00 91 bd 6d 5b 86 bd 67 1a 4b 3a
       0.07704041 -0.07080241 -0.06560407 0.00077477697
000130 a5 2c ac 3b 4a 84 7c bd a2 a0 17 3d a7 75 db bc
       0.0052543455 -0.0616496 0.037018426 -0.0267895
000140 de 8b 2c 3d 17 cd 87 bc ac 0b 02 bd e7 7f c3 bd
       0.042125575 -0.016577287 -0.031749412 -0.0954588
000150 46 7b b9 3d 88 f0 4e 3d c7 4c ec 3d 90 c2 98 bd
       0.09056716 0.050522357 0.115380816 -0.07458985
000160 2d ee 1b 3b 72 83 0c bd 3b ff 37 bd 92 b1 74 bc
       0.0023793087 -0.034305044 -0.04492114 -0.014934914
000170 e1 b1 11 3d 78 c5 48 3d bb 62 a3 bd 08 34 a6 bd
       0.03557003 0.049016446 -0.07977816 -0.08115393
000180 26 db df 3d b2 18 a4 3d 89 d7 92 3d 44 a1 0b 3e
       0.10930471 0.08012523 0.07170016 0.13635737

allocation_head.0.weight f4 [4, 100]
000000 19 60 53 3c 25 91 b1 3d 39 4c bb bd 7b 63 41 bd
       0.012901329 0.08670262 -0.09145398 -0.047214013
000010 96 a9 e8 bc ad ac db 3c bb c1 61 bc 3f 62 a2 3d
       -0.028401177 0.026815737 -0.013779099 0.07928895
000020 c6 ad bd bc 41 3c 88 3c 43 9c 2a bd 27 72 31 bd
       -0.02315415 0.016630294 -0.04165293 -0.043321755
000030 c7 a7 c3 bd 22 e1 49 bd 3a 37 75 bd 63 84 f0 bc
       -0.09553485 -0.04928697 -0.05986712 -0.029360002
000040 e7 ed 21 3d 29 78 93 3d 1a d9 c3 bd 29 a5 ad 3a
       0.039533522 0.07200653 -0.09562893 0.0013248074
000050 fc 98 91 3d ae a7 c1 3d 65 f2 34 bd 52 89 95 3d
       0.071092576 0.094558105 -0.044176478 0.073015824
000060 ce e8 9b bd ca bb 20 bd 59 2f 09 3e a5 fc bd bd
       -0.07612763 -0.03924159 0.13396968 -0.09276704
000070 6a 26 8c bd 9a 64 cf bc 04 3b 32 bc 6f 5f 66 3d
       -0.068432644 -0.025316525 -0.010878328 0.056243356
000080 48 bf 84 bd a5 2f b1 bd 77 33 c1 bd c7 b4 b3 bd
       -0.064817965 -0.086516656 -0.09433644 -0.08774715
000090 18 c6 c6 bd cc e4 04 3e b8 01 c0 3d 23 1d 52 3d
       -0.09705752 0.12977904 0.09375328 0.05129732
0000a0 1f 35 be bc 40 58 03 bd 54 af 28 3c bb 20 0b be
       -0.02321869 -0.032066584 0.010295708 -0.13586704
0000b0 00 08 ce bd a6 ea cc bd 7f bd 31 3d f0 01 6c 3d
       -0.1006012 -0.10005693 0.04339361 0.057619035
0000c0 d3 a7 35 bd b5 07 82 3b b1 0f 93 3d 48 a3 9a 3d
       -0.044349503 0.003968204 0.07180727 0.07550675
0000d0 c9 52 8c bd 70 bf 0e 3b 2f 0a 73 3d db d1 c4 bd
       -0.068517275 0.0021781586 0.059335884 -0.09610339
0000e0 f6 dc 05 3d 33 5f f9 bd ce 96 bb bd d3 7a b1 bd
       0.032681428 -0.12176361 -0.09159623 -0.08666005
0000f0 ad 6a ac 3d 93 b9 24 3d c4 83 d5 bd 88 57 52 bb
       0.08418784 0.04021604 -0.10425523 -0.003209563
000100 b2 63 74 3d ab 39 5e bd d7 f2 cd bc 0e 93 60 3d
       0.05966539 -0.054254215 -0.02514021 0.054827742
000110 81 9a 33 3d 42 1d c8 3d df d2 9d bd 5c 57 a8 be
       0.04384852 0.097712055 -0.07706236 -0.3287915
000120 0b d5 50 3d da af a9 3d b7 cb a7 3d e8 b4 b4 3d
       0.050984424 0.08285494 0.081931524 0.08823568
000130 5d 55 d7 bc 2d 17 b2 bd 22 49 29 3d bd 1f 80 bd
       -0.026285822 -0.08695827 0.04132951 -0.062560536
000140 51 3b 17 be 48 0a 03 3e 14 67 c6 3d b8 fe bf bd
       -0.14768721 0.1279689 0.09687629 -0.093747556
000150 6f ab 17 bd fc 94 4f bd 1c 11 89 bd 4a 7f 3b bd
       -0.037028726 -0.050679192 -0.066927165 -0.04577569
000160 98 a5 ab 3c 0d 0d 11 be 66 ed 9e 3d 7e 00 62 3d
       0.020952985 -0.14165135 0.07760124 0.05517625
000170 f2 c6 80 3d 4b 20 8d 3d 64 b1 b8 bd 40 05 79 bd
       0.06287946 0.06890925 -0.090182096 -0.060796022
000180 99 d0 57 3c 4b a3 67 bc 29 43 fb bd c6 05 a8 bd
       0.013172292 -0.014138053 -0.12268669 -0.08204226
000190 de 64 02 3e 99 b3 eb 3d 8f 3c 87 bd 9a 28 13 bd
       0.1273379 0.11508865 -0.066033475 -0.035927393
0001a0 b7 f2 ae bd 33 97 eb ba c7 b9 95 bd 4f f9 9d bd
       -0.08542388 -0.0017974138 -0.07310825 -0.077135675
0001b0 e2 bf 45 bc c3 48 ab 3b 64 3a 81 bc 18 de 7a 3d
       -0.012069674 0.0052271797 -0.015774913 0.06124696
0001c0 f3 41 79 bd 2f 5c 17 3e 89 c7 38 3d 10 76 da bd
       -0.06085391 0.14781259 0.045112167 -0.1066705
0001d0 d3 e2 cb bc 35 9d 23 3d 41 b3 27 bb bf 1c 7c 3d
       -0.024888432 0.039944846 -0.0025589021 0.061550852
0001e0 c3 06 1b 3d 84 5a 1a 3d 01 42 85 bd e3 74 05 3d
       0.037848245 0.03768398 -0.0650673 0.032582175
0001f0 b9 a4 11 be 8e 16 c1 bd 53 dc 0a bd 8a 85 47 bd
       -0.14222993 -0.0942813 -0.033901524 -0.048711337
000200 2f d5 5c bd c8 db a7 bd 8a 09 a8 3c 53 cd 15 3d
       -0.053914245 -0.08196217 0.020512361 0.036572766
000210 92 6b 85 bd 75 94 1d bd 1b 09 83 3d 4d 39 8f bb
       -0.06514658 -0.038471658 0.06398221 -0.0043708445
000220 37 43 ee bc 24 2d 7e 3c 35 5e 24 3d 98 08 8d 3d
       -0.029084785 0.015513692 0.040128905 0.06886405
000230 90 80 bf 3d fc bc a8 3d 86 07 b5 3d 12 77 34 bd
       0.09350693 0.08239171 0.088393256 -0.044058867
000240 73 1f fb bd 08 77 f2 bd 08 74 3b 3d 3b 63 bb bc
       -0.12261858 -0.1183911 0.045764953 -0.022874465
000250 17 97 4b bd 2a be 8e bd 65 c2 ae bd 26 59 df bd
       -0.049704637 -0.06969865 -0.085331716 -0.109056756
000260 ef de cc bd 8d 13 4d 3d bc 9b 80 3d ba b8 0c be
       -0.10003459 0.050067473 0.06279704 -0.13742343
000270 8e 00 9d 3d 65 b6 f7 bd 40 2f 17 bd cf 08 96 bd
       0.076661214 -0.12095336 -0.036910295 -0.07325899
000280 43 6c 7d 3c 0d d8 a0 bc e0 d8 f4 bd ad 13 fd bd
       0.015467706 -0.019634271 -0.11955428 -0.123572685
000290 dd 05 33 bc ed 66 0b bd ba 7c 9b bd e0 c7 b3 3d
       -0.010926691 -0.034033705 -0.07592149 0.087783575
0002a0 14 4e e7 bd 4f 7c c2 3b e8 1a b4 3d 60 e2 88 be
       -0.11294189 0.005935229 0.087941945 -0.2673521
0002b0 f3 6b e8 3d 93 56 14 3d 15 43 c3 bd 90 93 81 3d
       0.11348715 0.036215376 -0.09534279 0.063269734
0002c0 37 ed 64 bd 27 d9 36 bd b1 35 f8 3d 77 7f a5 bd
       -0.05589029 -0.044640686 0.12119616 -0.080809526
0002d0 9e f8 06 bd 22 fd a5 3c 45 5a c1 3d 93 ee 0a 3d
       -0.032951944 0.020262305 0.09441046 0.03391893
0002e0 1e a4 05 bb 1d 92 bf 3b eb 64 88 bd 40 48 ac bc
       -0.002039201 0.0058462755 -0.066598736 -0.021030545
0002f0 18 8c cb bd ab 3e 69 3b 83 b4 ea 3d 56 33 e5 3d
       -0.0993883 0.0035590332 0.11460211 0.11191432
000300 2b b0 a2 bd c6 68 70 3d ab 9c 7c bd fa 78 61 bd
       -0.079437576 0.05869367 -0.061672848 -0.055047013
000310 e2 44 be bd 1a ad bb 3d 06 64 80 bc 2b 8b b5 bc
       -0.09290482 0.09163876 -0.015672695 -0.022161087
000320 ad b7 1a bc 8a a1 00 3d 0d 13 88 bd b5 9f c2 bd
       -0.009443206 0.031404056 -0.06644259 -0.09503118
000330 30 a2 8b bd ab 58 8f 3d 85 d3 c5 bc 1a bf ac 3d
       -0.06818044 0.06999334 -0.024148712 0.08434887
000340 bb 9a 4e 3d 6c 44 b8 3c 58 19 2f 3c 09 66 7f 3b
       0.05044053 0.022493564 0.010687195 0.003897073
000350 67 90 4d 3c dc eb 22 bd 74 fb 92 3c 96 b1 3b 3d
       0.012546635 -0.039775714 0.017942168 0.045823656
000360 13 32 a0 bd 42 ed 83 bd 57 61 de 3d e5 0c 01 be
       -0.07822051 -0.06441738 0.1085841 -0.12602575
000370 48 d5 2b bd 2b 01 b3 3d 20 9d 74 3d 1e 43 98 3b
       -0.041951448 0.08740457 0.05972016 0.004646673
000380 8f 54 da bc a5 7d cb 3d b9 cd ea bd a7 8a e8 bc
       -0.026651649 0.09936074 -0.1146502 -0.028386427
000390 06 f9 e5 bc 5a a0 72 bc 8f 3f dd bc 75 ae e6 3d
       -0.028072845 -0.014808739 -0.027007846 0.11263744
0003a0 33 89 4c 3c 85 2c 05 3e ee 65 af 3d 36 94 8d bd
       0.012483883 0.13005264 0.085643634 -0.069130346
0003b0 d3 13 ab 3d 9b 83 ea bd ac 6b bb bd f3 c2 d9 3c
       0.083533905 -0.11450883 -0.09151396 0.026582217
0003c0 52 e4 7b 3d 99 a4 64 3d b6 75 d1 bc d3 b9 2e 3d
       0.06149704 0.055821035 -0.025568824 0.042657685
0003d0 4a 7c a3 3d d2 72 45 bd 96 69 bc 3d 62 47 a7 bd
       0.07982691 -0.048205204 0.091998264 -0.08167912
0003e0 67 a6 b4 3a 0c 58 c9 bc 45 e2 77 bd 13 0f 18 3d
       0.0013782502 -0.024578117 -0.06051852 0.03712375
0003f0 96 7a 43 3e c3 a4 92 bc f1 95 53 bd ec d1 7a 39
       0.19089732 -0.01790083 -0.051656667 0.0002392006

allocation_head.0.bias f4 [4]
000000 d1 dc 3e 3d 17 d3 eb bb 15 a1 f4 bc 0a 2f da 3d
       0.046597306 -0.0071967947 -0.029861966 0.10653503

payment_head.0.weight f4 [1, 100]
000000 d7 c4 7a 3d 50 38 25 be b3 c7 90 3e 45 1c 41 3e
       0.061222877 -0.16134763 0.28277358 0.1885844
000010 d8 f9 3e bd 2d 42 66 3d 87 db 90 bd 60 61 80 bc
       -0.04662499 0.056215454 -0.070731215 -0.015671432
000020 62 db 3b 3e 9b 94 59 3c 9d 8b 0b bd e0 eb eb 3c
       0.18345407 0.013280059 -0.034068692 0.028798997
000030 2d 5e de bc 30 4e 83 bd c4 c0 25 3e ca a6 86 3e
       -0.027144516 -0.064113975 0.16186816 0.26299125
000040 e7 70 af 3b b8 e9 1b be 17 a6 09 3e ef c4 a3 3d
       0.005354035 -0.15225875 0.13442264 0.079965465
000050 04 d2 46 3e 09 48 0b be 5f 09 06 3e 4d cf ea bd
       0.19416052 -0.13601698 0.13089512 -0.11465321
000060 7c e8 b5 3d fe 17 12 3e ca cb 35 bd 63 42 18 3d
       0.088822335 0.14266965 -0.0443838 0.037172686
000070 8e 02 62 3e 80 eb d6 3b bf 88 16 be ce 29 cf bd
       0.22071287 0.0065588355 -0.14700602 -0.101153955
000080 47 e2 b2 3c 67 2e ad 3b bb 19 4a 3e 35 07 c6 bd
       0.021836413 0.0052850726 0.19736378 -0.096693434
000090 a0 a4 a7 bd 14 d7 47 be 79 cd b9 bd 6d 6c 7f 3d
       -0.081856966 -0.1951564 -0.09072394 0.062359262
0000a0 03 54 0b be 65 05 87 3d 3d 21 0a bd 50 2b 66 3e
       -0.13606267 0.06592826 -0.033723105 0.2247746
0000b0 cb cc 18 3e dc 90 0b 3e a3 85 37 3e 86 17 09 3e
       0.14921872 0.13629478 0.17922072 0.1338788
0000c0 00 92 cb 3d c8 44 30 3d aa ee 97 bd 66 ea 42 3e
       0.09939957 0.043034345 -0.074185684 0.19034728
0000d0 26 d0 19 be 51 87 a0 3d be 9a 9d bd 16 30 0f 3d
       -0.15020809 0.078383096 -0.0769553 0.034957968
0000e0 56 6e 34 be 85 2b c2 3c e4 ff 44 3e 94 e1 ab bd
       -0.17620215 0.023702392 0.1923824 -0.08392635
0000f0 98 42 82 3c 47 e0 5b 3d 9c 7e 93 3d b3 2b 87 3d
       0.015900895 0.053680684 0.07201883 0.06600132
000100 ba aa 9d bd 2b 5b 42 bc 40 35 54 3d 4b b4 14 3e
       -0.07698579 -0.011862556 0.051808596 0.14521901
000110 8c 56 36 3e ea 12 24 bd cd 9c 0f 3d 7c 39 33 be
       0.17806453 -0.0400571 0.035061646 -0.17502397
000120 b5 96 15 be 63 1f 3f 3d 8c 6c 58 bd 8a 0e 45 3d
       -0.14608271 0.046660792 -0.052837893 0.04810957
000130 fb 87 ce bc 1d e1 4a bd 5b 19 1f be f7 be 55 3d
       -0.025211325 -0.04953109 -0.15537016 0.05218407
000140 18 60 29 3e d6 45 fc 3d 03 da 07 3d 48 0e 4a 3d
       0.16540563 0.12318008 0.033166897 0.049330026
000150 33 36 80 3c 26 2b 66 3d 8c 88 48 3d 8d be 59 3c
       0.015650844 0.056193493 0.048958346 0.01329006
000160 d0 98 1d 3d 14 f3 8a 3d d4 cb 17 3e 86 14 5d bd
       0.03847581 0.06784645 0.14823848 -0.05397465
000170 08 ef 76 bd d3 a7 f6 bd 99 6a a3 3d 11 09 b8 3d
       -0.06028655 -0.12043729 0.07979316 0.08986104
000180 6e 47 9e 3c 6e c4 8d 3e 4e 3f 63 3e e1 8c 37 3e
       0.01932117 0.27688926 0.22192118 0.17924835
